Single Battery Model/5. CNN-LSTM Models/model_B0006_charge_mm.pth (torch, 432574 bytes, 15 tensors)

weight f4 [64, 3, 3]
0	0x3e329073	0.17437916
1	0xbe372061	-0.17883445
2	0x3d80630c	0.06268892
3	0x3e161983	0.1465817
4	0xbe4c238b	-0.19935434
5	0xbddf6b48	-0.10909134
6	0x3e3560bc	0.17712682
7	0x3ea155e3	0.3151084
8	0xbd870fdf	-0.06594824
9	0xbdc91598	-0.09818572
10	0x3e21c761	0.15798713
11	0x3c08b9e6	0.008345103
12	0xbe9e8e3d	-0.30967894
13	0x3e5ab360	0.21357489
14	0x3ea1a0b8	0.3156793
15	0xbe5e8f73	-0.21734409
16	0xbdf3bbe8	-0.11901075
17	0x3e9d9fe1	0.3078604
18	0x3e92527f	0.28578565
19	0x3e934177	0.28760883
20	0xbe2805ca	-0.16408458
21	0x3d9d73cb	0.076881014
22	0xbe7e6969	-0.24844898
23	0x3e739989	0.23789038
24	0x3e9bdc79	0.30441645
25	0x3e4c458c	0.19948405
26	0x3dbc7ed6	0.092038795
27	0x3d55ea06	0.052225135
28	0x3e8f4727	0.27983972
29	0x3d5697ed	0.05239098
30	0xbde46e2b	-0.11153825
31	0x3e1497ca	0.14511028
32	0x3d3c1d30	0.045926273
33	0x3e8fdc7f	0.28097913
34	0xbe2fc9a2	-0.1716676
35	0x3e584f58	0.21124017
36	0x3e52d76f	0.20589994
37	0x3e4db478	0.20088375
38	0x3e8b60bf	0.2722225
39	0x3c27be50	0.010238245
40	0x3d748912	0.059701033
41	0xbe488a9e	-0.19584128
42	0xbe9c6fec	-0.3055414
43	0x3e8fd238	0.28090072
44	0xbc71a0e7	-0.014747835
45	0x3e726dd4	0.23674709
46	0xbe39e6b0	-0.18154407
47	0xbd1aade8	-0.037763506
48	0x3d723472	0.059132047
49	0x3e9069c7	0.28205702
50	0x3e9f592d	0.31122723
51	0x3e823a86	0.25435275
52	0x3dd6212d	0.104555465
53	0xbe9e9761	-0.30974868
54	0xbe53d6bf	-0.20687388
55	0x3e2a4709	0.1662866
56	0x3e0a9181	0.13532068
57	0xbe78b554	-0.24287921
58	0xbea79ffd	-0.3273925
59	0x3e23bdda	0.15990391
60	0x3ea99c2e	0.33126968
61	0x3e4fa858	0.20279062
62	0xbe7aafbc	-0.244811
63	0xbd9d01de	-0.07666372
64	0xbe10ddac	-0.14147061
65	0x3dc97608	0.09836966
66	0x3cf478ce	0.02984276
67	0x3e785d8a	0.24254432
68	0xbeaaad8c	-0.3333553
69	0x3be45a42	0.0069687674
70	0x3e2eaad3	0.17057352
71	0x3d8b84eb	0.068124615
72	0xbd146f75	-0.036239106
73	0x3e7a6c3c	0.2445535
74	0xbe54b93a	-0.20773783
75	0x3d93b7bb	0.07212778
76	0x3e48d0ab	0.1961085
77	0x3e7360d1	0.23767401
78	0x3e26ad41	0.16277029
79	0xbe929c77	-0.28634998
80	0xbe18335e	-0.14863345
81	0x3e77126c	0.24128121
82	0xbe392a15	-0.1808246
83	0x3e9b904c	0.30383527
84	0x3e009347	0.12556182
85	0xbdb5f3f2	-0.088844195
86	0xbe873ca7	-0.26413462
87	0x3e8f642d	0.28006116
88	0x3ea08f97	0.3135955
89	0x3cb848e1	0.022495689
90	0x3e180c26	0.14848384
91	0xbe558799	-0.20852508
92	0xbe1e8e53	-0.1548398
93	0x3d093e3b	0.033506613
94	0x3e9109fc	0.2832793
95	0xbe918edc	-0.28429306
96	0x3e56222a	0.2091147
97	0x3e7d7f39	0.24755563
98	0x3e5ee933	0.21768646
99	0x3d58ab57	0.052897777
100	0x3ea02c29	0.31283692
101	0xbcb74739	-0.022372829
102	0xbe56506a	-0.20929113
103	0x3e99e3b1	0.30056527
104	0x3e8d6a96	0.2762038
105	0x3c2c54af	0.010518237
106	0xbcfad792	-0.03062037
107	0x3e18bd02	0.14915851
108	0x3e9f6423	0.31131086
109	0xbe657450	-0.22407651
110	0x3d9ce19c	0.07660219
111	0x3d7eba10	0.06218916
112	0xbe832e09	-0.2562106
113	0xbe9385ae	-0.28812927
114	0xbe64618f	-0.2230284
115	0xbd3b8d92	-0.04578931
116	0xbdfb3e9b	-0.122678004
117	0x3c8c024a	0.017090935
118	0x3e9bbf9e	0.3041963
119	0x3d943b41	0.07237864
120	0x3d038153	0.032105755
121	0x3ea30bdb	0.31844983
122	0xbe75b740	-0.23995686
123	0x3df4e139	0.1195702
124	0xbdf4a080	-0.119446754
125	0xbc1802ac	-0.009277981
126	0xbea376de	-0.31926626
127	0xbe9e94f2	-0.3097301
128	0x3e0cb5b8	0.13741195
129	0x3e0a1757	0.13485466
130	0x3df5fe71	0.120114215
131	0x3e8feab5	0.28108755
132	0xbbbedb51	-0.0058244844
133	0x3e48f3e6	0.1962429
134	0x3c628951	0.013826684
135	0x3e97123d	0.29506102
136	0x3d6e3ca7	0.05816331
137	0xbe3e26ce	-0.1856949
138	0xbdfdbd03	-0.12389567
139	0x3d7f5235	0.062334258
140	0xbdf098e9	-0.11747915
141	0xbdb281b0	-0.08716142
142	0xbe17168a	-0.14754692
143	0xbdf4863f	-0.11939668
144	0x3d2673be	0.040637724
145	0xbd8afa1e	-0.06785987
146	0x3e9987bc	0.2998637
147	0x3e148fbf	0.1450796
148	0x3e5695dd	0.20955606
149	0xbe8b1ca8	-0.271703
150	0xbe7354fd	-0.23762889
151	0x3b8d3f1a	0.004310501
152	0xbd7f2476	-0.06229063
153	0x3dd49309	0.10379607
154	0x3d12fcc4	0.035885587
155	0x3e51ee8c	0.20501155
156	0xbd511d15	-0.051053125
157	0x3dd85404	0.105629
158	0xbec05395	-0.37563768
159	0xbe83e07c	-0.25757205
160	0x3d31039a	0.043216325
161	0xbeb09b75	-0.34493604
162	0x3e95f841	0.29290965
163	0x3e3a166c	0.18172616
164	0xbe778137	-0.24170385
165	0x3e1f9643	0.15584664
166	0x3e2876df	0.16451596
167	0x3e37dd5a	0.17955533
168	0xbd70d824	-0.058799878
169	0xbd13cafe	-0.03608226
170	0xbea492ea	-0.32143337
171	0x3e02c6e9	0.1277119
172	0xbc830a8d	-0.015996242
173	0x3e84551a	0.25846177
174	0xbe935ef7	-0.2878339
175	0x3e130904	0.14358908
176	0xbe7c237f	-0.24622916
177	0xbe65b545	-0.2243243
178	0x3eb095c6	0.34489268
179	0x3e5d33e8	0.21601832
180	0x3e819a83	0.25313196
181	0xbdec516f	-0.1153897
182	0x3e757dad	0.23973723
183	0xbd913601	-0.070903786
184	0xbe9e5e4f	-0.30931327
185	0x3e3e3d2f	0.18578027
186	0x3eaa96fd	0.3331832
187	0x3d4811e0	0.048845172
188	0x3d34d4ab	0.04414813
189	0xbcd824c9	-0.026384728
190	0xbe481605	-0.1953965
191	0x3e910c9f	0.28329942
192	0x3e7efa6d	0.24900217
193	0xbea4f475	-0.32217756
194	0xbbe145aa	-0.0068747597
195	0xbebe8c55	-0.3721644
196	0xbea928ef	-0.33039042
197	0x3dacc3e3	0.084358
198	0xbcf2ff7f	-0.029662846
199	0x3e8e308e	0.2777142
200	0x3d58c3f3	0.052921247
201	0x3e01238d	0.12611218
202	0xbde8e267	-0.11371308
203	0x3d0d0442	0.03442789
204	0xbe649e59	-0.2232603
205	0xbd274c3a	-0.04084418
206	0xba367bda	-0.00069612043
207	0xbcbc7a55	-0.023007551
208	0xbdab7bf9	-0.08373255
209	0x3e2b7a22	0.16745809
210	0xbd8b2970	-0.06795013
211	0x3e9462c8	0.28981614
212	0xbe527627	-0.20552884
213	0xbddb1fe9	-0.10699446
214	0xbe9917fb	-0.29901108
215	0x3eac11ff	0.3360748
216	0xbe989808	-0.2980349
217	0xbe4cf2b8	-0.20014465
218	0x3cfc157d	0.030771965
219	0xbdd3fa87	-0.10350519
220	0xbe3b901c	-0.18316692
221	0x3e6dc7a0	0.23220682
222	0xbe3e9520	-0.18611574
223	0xbe28db60	-0.16489935
224	0x3e49d9f9	0.19712056
225	0x3d7dfde7	0.06200972
226	0x3c94f09c	0.018181138
227	0xbe0b10bd	-0.13580604
228	0xbe877923	-0.26459607
229	0x3d8b2c7f	0.06795596
230	0xbd328a43	-0.043588888
231	0xbe24b7ca	-0.16085735
232	0xbc70021e	-0.014648942
233	0x3c1ae3a7	0.009453691
234	0xbeb98d33	-0.3624054
235	0x3d95c10a	0.0731221
236	0xbdee05ec	-0.11622223
237	0x3d9ac232	0.07556571
238	0x3ea63b66	0.32467192
239	0xbe0eacf8	-0.1393317
240	0x3e41181c	0.18856853
241	0xbdfb0caf	-0.122582786
242	0x3dc7207b	0.09722992
243	0x3d69e58d	0.057103682
244	0xbe87b907	-0.26508352
245	0xbe718bbc	-0.2358846
246	0xbdb99914	-0.090624005
247	0x3dff38d8	0.12462014
248	0xbe897cd4	-0.2685305
249	0x3e4c1981	0.19931604
250	0x3ea412d8	0.32045627
251	0x3e8eb82b	0.27874884
252	0xbe7aaa7b	-0.24479096
253	0x3dc95de7	0.098323636
254	0x3c05d6ba	0.008168871
255	0x3e814f51	0.25255826

bias f4 [64]
0	0x3dfb9b05	0.12285427
1	0x3e353baf	0.17698549
2	0xbd197fef	-0.037475523
3	0x3ea5fd63	0.3241988
4	0x3df5fd94	0.12011257
5	0xbe216fa0	-0.15765238
6	0x3e111418	0.14167821
7	0x3d0ae575	0.033910234
8	0x3e8d6b96	0.27621144
9	0x3e524540	0.2053423
10	0xbe8ad96f	-0.27119014
11	0xbd1ec517	-0.03876218
12	0x3e7aebaf	0.24503969
13	0x3dc30ae7	0.09523564
14	0x3d8caf70	0.068693995
15	0xbe2a6fd4	-0.16644222
16	0xbe08fa05	-0.13376625
17	0x3da8e75b	0.082472526
18	0xbcc948a2	-0.024570767
19	0xbe02d13f	-0.12775134
20	0xbaab8e94	-0.0013088756
21	0x3e6e86ac	0.2329356
22	0x3ddc41c3	0.107547306
23	0xbdaa72a3	-0.083226465
24	0x3dbf09b5	0.09328023
25	0x3e6ec317	0.23316608
26	0xbe86d399	-0.2633331
27	0xbd138b5f	-0.036021587
28	0x3e319ea1	0.17345668
29	0xbe0aaf7c	-0.13543504
30	0xbe308e7b	-0.17241852
31	0x3c9a1b49	0.018811839
32	0xbd042b84	-0.032268062
33	0xbe13509e	-0.14386222
34	0x3e32ccb6	0.17460904
35	0xbe9435b2	-0.28947216
36	0xbe627eef	-0.22118734
37	0xbd6c8d5e	-0.057752006
38	0xbd5f682d	-0.05454271
39	0xbdcb60f4	-0.09930602
40	0x3e663cbc	0.22484106
41	0xbe13ed46	-0.14445981
42	0xbe172301	-0.14759447
43	0xbdd37ad3	-0.10326161
44	0xbc8466c3	-0.016162282
45	0xbd8ae33e	-0.06781624
46	0xbce47957	-0.02788989
47	0xbe3788f2	-0.17923334
48	0x3e95cfc8	0.29260087
49	0x3e5b1552	0.21394852
50	0x3db184c9	0.08667905
51	0x3df47cdb	0.11937877
52	0xbe8e2583	-0.27762994
53	0x3e7c5788	0.24642766
54	0x3e99f6bd	0.3007106
55	0xbea02a80	-0.31282425
56	0xbe696153	-0.22791032
57	0xbd4584d9	-0.048222397
58	0xbe9ba638	-0.30400252
59	0x3e947c3d	0.29001036
60	0xbeadb756	-0.33928937
61	0xbea0ac87	-0.31381628
62	0xbe6d9f84	-0.23205382
63	0xbe89c270	-0.26906157

weight f4 [32, 640]
0	0x3c568a42	0.013094487
1	0xbc836076	-0.016037207
2	0x3c980f93	0.018562114
3	0xbcf86294	-0.030320443
4	0xbcc86b16	-0.024465125
5	0xbd02a892	-0.031899042
6	0xbcc02f68	-0.023460105
7	0xbb9378a4	-0.0045004655
8	0xbd15d191	-0.03657681
9	0x3c4f24df	0.012643068
10	0xbcf70b45	-0.03015674
11	0xbbd12ad2	-0.0063832784
12	0xbcb1170a	-0.021617431
13	0xbd01c4c7	-0.031681802
14	0x3d0d3fac	0.03448455
15	0x3d126d86	0.03574898
16	0xbc80371a	-0.015651274
17	0x3a9db2ef	0.0012031476
18	0xbd0f562b	-0.034994286
19	0x3d0ffc1c	0.03515254
20	0xbcedd5d9	-0.029032635
21	0xbcc2734f	-0.023736624
22	0x3d197b25	0.037470955
23	0x3c92a395	0.017900268
24	0xbcf0d26d	-0.029397214
25	0xbcfcff08	-0.030883327
26	0x3b577008	0.0032873172
27	0xbcda0dd2	-0.026617918
28	0x3c5e0451	0.013550834
29	0x3c9b7762	0.018977825
30	0x3d072b3f	0.033000227
31	0x3d1b90a1	0.037979726
32	0xbd05a7e0	-0.0326308
33	0xbc39cf2d	-0.011340898
34	0x3ba440fe	0.0050126305
35	0xbc5c4958	-0.013445221
36	0xbc1b76b5	-0.009488751
37	0xbb5c8565	-0.0033648845
38	0x3d0271f1	0.031846944
39	0x3cb8ed54	0.022574104
40	0xbd259317	-0.04042348
41	0x3c08c05b	0.008346642
42	0x3bf6c5ab	0.007530888
43	0xbd05c6f0	-0.032660425
44	0x3d0d2a99	0.034464452
45	0x3d0754d3	0.03303988
46	0xbc192718	-0.0093477
47	0xbd06683a	-0.032814242
48	0x387c9a30	6.022508e-05
49	0xbb034722	-0.0020031412
50	0x3d220946	0.039559625
51	0xbcf04a70	-0.02933237
52	0xbbf7d37b	-0.0075630522
53	0xbd1551a3	-0.036454808
54	0x3cefd6b1	0.029277178
55	0xbc155192	-0.009113686
56	0x3cfa5792	0.030559335
57	0xbc4e4767	-0.012590266
58	0xbccd1699	-0.02503519
59	0xbb3c9b70	-0.0028779171
60	0x3a54b027	0.0008113407
61	0x3ccb7f20	0.024840891
62	0x3cde374b	0.027125975
63	0xbd01e860	-0.03171575
64	0x3c070d24	0.008242879
65	0x3d013cbd	0.031552065
66	0xbc4dd325	-0.012562548
67	0x3bfc0914	0.007691512
68	0xbc690362	-0.014221998
69	0x3ccc1fd2	0.024917517
70	0xbd196f69	-0.037459765
71	0x3c45bc94	0.012068886
72	0xbc7454fb	-0.014912839
73	0x3cc40812	0.02392963
74	0x3b8e0727	0.0043343487
75	0x3cb0a730	0.021564096
76	0xbd092bfb	-0.03348921
77	0xbc704d89	-0.014666923
78	0xbd001270	-0.031267583
79	0x3cf8dd6e	0.030379023
80	0x3c8161d2	0.015793715
81	0xbac957f8	-0.00153613
82	0xbcfd9b25	-0.030957768
83	0xbcc7032c	-0.024293505
84	0x3b4301c4	0.002975569
85	0x3c95ff21	0.018310132
86	0xbc8fb117	-0.017540498
87	0x3c8ac88a	0.016941328
88	0xbcbdf69c	-0.023188882
89	0xbcb98a40	-0.02264893
90	0x3bb76738	0.0055970214
91	0x3a63bae0	0.00086872093
92	0xbc3fcbe2	-0.011706324
93	0xbcbbb522	-0.02291352
94	0xbce0f512	-0.027460609
95	0x3baedc37	0.0053363102
96	0x3cd9e092	0.026596341
97	0xbc8b59f5	-0.017010668
98	0xbd1182e5	-0.03552522
99	0x3a40c746	0.0007353913
100	0x3cbf4a15	0.023350755
101	0xbbd5aca9	-0.006520827
102	0xbcdcf365	-0.026971528
103	0xbc87b37b	-0.016565075
104	0xbcaf08d4	-0.021366514
105	0x3d038018	0.03210458
106	0xbb0b4eaa	-0.0021256604
107	0x3c8e09d6	0.017338675
108	0xbc934018	-0.017974898
109	0xbc9695ce	-0.01838198
110	0xbd024c67	-0.031811144
111	0x3c834ce5	0.016027877
112	0xbc2c8462	-0.010529609
113	0xbc6a0bdb	-0.014285053
114	0xbc9c7bc7	-0.01910199
115	0xbc67ea88	-0.014155038
116	0x3d05021f	0.032472726
117	0xbbc0a61d	-0.0058791772
118	0x3c862509	0.016375082
119	0x3d142212	0.036165304
120	0x3c67a789	0.014139065
121	0xbc1b93b8	-0.009495668
122	0x3d1536f8	0.036429375
123	0xbce321b8	-0.02772604
124	0xbcc4e9eb	-0.024037322
125	0xbcd535f4	-0.026026703
126	0xbcc403f8	-0.023927674
127	0xbcedbd12	-0.02902082
128	0x3bc1acd2	0.0059104944
129	0xbcef1943	-0.02918685
130	0x3d1c9f47	0.038237836
131	0x3c70735b	0.01467594
132	0x3c12ede1	0.008967848
133	0xbca9331c	-0.020654254
134	0xbc8366ce	-0.016040232
135	0x3aa2162b	0.0012366226
136	0xbccb1ea8	-0.024794891
137	0xbbc2a72b	-0.005940338
138	0x3c154475	0.00911056
139	0x3cea7570	0.028620452
140	0x3c476a11	0.012171284
141	0xbc92c7fd	-0.017917627
142	0x3d038197	0.03210601
143	0x3c203751	0.009778813
144	0x3d51ddaa	0.051236786
145	0x3d5a8e84	0.05335857
146	0xbc844d63	-0.016150182
147	0x3b8cc934	0.004296446
148	0x3cf430ff	0.02980852
149	0xbbdf5f55	-0.0068167844
150	0xbd2547a1	-0.040351514
151	0xbbcb22b3	-0.006199205
152	0x3b1d4f96	0.0024003736
153	0xbcabb404	-0.020959862
154	0x3cfc4bc0	0.03079784
155	0x3cb17415	0.021661798
156	0x3d01c6d6	0.031683765
157	0xbc5114a4	-0.012761269
158	0xbd0531c8	-0.03251818
159	0x3d209492	0.039204188
160	0x3cd919a6	0.026501488
161	0x3c84a975	0.016194085
162	0x3d1b40e4	0.03790368
163	0xbd0664f5	-0.032811124
164	0x3c1f6fee	0.009731276
165	0x3cb71f4d	0.022353793
166	0x3cecc35b	0.028901746
167	0xbc583173	-0.013195383
168	0xbb91b7b0	-0.004446946
169	0xbbbaf33f	-0.0057052667
170	0x3c63ece5	0.0139114605
171	0xbb199cbf	-0.0023439375
172	0x3cbd60cf	0.023117451
173	0x3c648627	0.013948
174	0xbc5fa138	-0.013649277
175	0x3cb4cbe5	0.02206988
176	0xbc956670	-0.018237323
177	0x3b4867a9	0.0030579364
178	0xbc8d72ee	-0.017266717
179	0x3b1ac2e7	0.0023614706
180	0xbcc9fbf5	-0.024656275
181	0x3cd86c03	0.026418692
182	0x3c4c5952	0.0124724675
183	0x3d2852fc	0.041094765
184	0xbcc0435e	-0.023469623
185	0x3cb3de03	0.02195645
186	0xbd0c0139	-0.034180854
187	0xbc739f22	-0.014869483
188	0xbab39fc3	-0.0013704229
189	0x3ce99ee6	0.028518151
190	0xbd31422e	-0.043276004
191	0x3cbdbf4b	0.023162505
192	0xbb9981ec	-0.0046846773
193	0xbc953c65	-0.018217275
194	0xbbed143a	-0.007235077
195	0x3cb76afb	0.02238988
196	0xbd1c44a8	-0.038151413
197	0x3cc2a706	0.023761284
198	0xbd00750e	-0.031361632
199	0x3cd7b777	0.0263326
200	0xbb0eaf34	-0.002177191
201	0xbcbb7606	-0.022883426
202	0xbc73ed95	-0.014888187
203	0xbc939b01	-0.018018248
204	0x3cc526c5	0.024066338
205	0x3c74b51d	0.014935759
206	0xb95382a1	-0.00020171191
207	0xbb1e8877	-0.0024190226
208	0xbd20a924	-0.039223805
209	0x3cb93170	0.022606581
210	0x3cf95d8c	0.030440114
211	0x3ba9d8b6	0.0051833047
212	0x3d2ccc70	0.042187154
213	0xbd042772	-0.03226418
214	0xbcb2b447	-0.021814479
215	0x3cc596d3	0.02411977
216	0xbc57c8b0	-0.013170406
217	0x3d202799	0.039100263
218	0x3c0f5160	0.008747429
219	0x3ae77ce4	0.0017661122
220	0x3c628ac2	0.013827028
221	0xbce5e701	-0.028064253
222	0xbc1906f1	-0.009340034
223	0xbc067402	-0.008206369
224	0x3ca93250	0.020653874
225	0x3d0d2dad	0.034467388
226	0x3d02e6cc	0.031958386
227	0xbcd54a9b	-0.026036551
228	0x3d15576b	0.03646032
229	0x3c4270d0	0.011867717
230	0xbd187a1a	-0.03722582
231	0xbc4c8b15	-0.012484332
232	0xbd197c64	-0.037472144
233	0xbcc100fd	-0.023560042
234	0xbb490888	-0.003067525
235	0x3c8b82ad	0.017030085
236	0xbcca2732	-0.024676893
237	0x3cadbe74	0.02120898
238	0x3d0ad02d	0.03388994
239	0x3c1688c5	0.009187882
240	0xbcbe2cae	-0.023214664
241	0x3cad80c6	0.021179568
242	0x3caedb9e	0.021344956
243	0xbd024df7	-0.031812634
244	0x3c95073c	0.018191926
245	0x3bcb6cd9	0.006208044
246	0xbd06b1c6	-0.03288438
247	0xbc57375e	-0.013135759
248	0xbcf581c1	-0.029969098
249	0xbd07756e	-0.033070974
250	0x3c5081af	0.0127262315
251	0xbc6d5251	-0.014484958
252	0xbb246a16	-0.0025087646
253	0x3bb1dd1f	0.005427971
254	0x3c22f28a	0.009945521
255	0x3c83cfe2	0.016090337

bias f4 [32]
0	0x3cbe319d	0.023217017
1	0xbc0ca72b	-0.008584778
2	0x3cf8a5c6	0.030352484
3	0xbc79a57f	-0.015237211
4	0xbc30ae86	-0.010783797
5	0xbca7526c	-0.020425044
6	0x3cd40630	0.025881857
7	0x3d14de99	0.0363451
8	0xbc91f302	-0.01781607
9	0xbb7e9e85	-0.003885181
10	0xbd0e8fe0	-0.03480518
11	0xbcf5a5fa	-0.02998637
12	0x3cf4ac3d	0.029867286
13	0xbc5bb2b1	-0.013409303
14	0xbb595fd0	-0.003316868
15	0xbcab9a77	-0.020947678
16	0xbcb20553	-0.021731054
17	0xbc42bcce	-0.011885835
18	0x3d217644	0.039419428
19	0x3c22272b	0.009897034
20	0x3ba9e142	0.0051843235
21	0x3b51e001	0.0032024386
22	0x3d1cd5a3	0.038289677
23	0xb98dae68	-0.00027023559
24	0xbc29de1d	-0.010367897
25	0x3cf910ec	0.030403577
26	0x3b86dac9	0.0041154367
27	0x3bef72f3	0.007307404
28	0xbc88868e	-0.016665723
29	0x3a3f6b35	0.0007302047
30	0x3d15c8b2	0.03656835
31	0xbce725f3	-0.028216338

weight f4 [640]
0	0x3f7f6388	0.9976125
1	0x3f7f5410	0.99737644
2	0x3f7e1b0f	0.9926004
3	0x3f806ed4	1.0033822
4	0x3f7f5478	0.99738264
5	0x3f80254c	1.0011382
6	0x3f7f02aa	0.9961344
7	0x3f7dbd85	0.9911731
8	0x3f7e05c5	0.99227554
9	0x3f80ad78	1.0052938
10	0x3f7d6541	0.98982626
11	0x3f812a6d	1.0091072
12	0x3f7f07ac	0.9962108
13	0x3f7c2369	0.9849153
14	0x3f80082f	1.0002497
15	0x3f7f5e0e	0.9975289
16	0x3f803480	1.0016022
17	0x3f8090a5	1.0044142
18	0x3f7edee5	0.9955886
19	0x3f80a0c3	1.004906
20	0x3f860cd7	1.0472668
21	0x3f7fcdc0	0.99923325
22	0x3f7f1a9d	0.99649984
23	0x3f7fcfce	0.9992646
24	0x3f805315	1.0025355
25	0x3f7ea853	0.9947559
26	0x3f7fc827	0.99914783
27	0x3f802310	1.00107
28	0x3f80b835	1.0056216
29	0x3f7ded82	0.99190533
30	0x3f804130	1.0019894
31	0x3f7fcc2c	0.99920917
32	0x3f7fa2fb	0.99858063
33	0x3f7e3412	0.99298203
34	0x3f809a08	1.0047007
35	0x3f7dc141	0.9912301
36	0x3f804d2a	1.0023549
37	0x3f7fb9fd	0.9989317
38	0x3f7df9f6	0.99209535
39	0x3f80dba1	1.0067025
40	0x3f7ca3eb	0.9868762
41	0x3f7fbfd1	0.99902064
42	0x3f7cf90e	0.9881753
43	0x3f804fa8	1.0024309
44	0x3f7e7118	0.9939132
45	0x3f7b9af1	0.98283297
46	0x3f7dd425	0.9915183
47	0x3f7dcab7	0.99137443
48	0x3f7eecd3	0.99580115
49	0x3f8060b7	1.0029515
50	0x3f7c9526	0.9866508
51	0x3f7e919f	0.9944095
52	0x3f800903	1.000275
53	0x3f7e88c4	0.9942744
54	0x3f7fc5a1	0.9991093
55	0x3f815866	1.0105102
56	0x3f7d4ff1	0.98950106
57	0x3f7d5867	0.98963016
58	0x3f7ff2cc	0.99979854
59	0x3f7f9c1d	0.99847585
60	0x3f80e7ff	1.00708
61	0x3f7efb6c	0.9960239
62	0x3f7ebe74	0.9950936
63	0x3f802f14	1.0014367
64	0x3f8069e7	1.0032319
65	0x3f7e26ff	0.99278253
66	0x3f7fe929	0.9996515
67	0x3f802725	1.0011946
68	0x3f7f4672	0.99716866
69	0x3f8102eb	1.0079015
70	0x3f81a26e	1.0127695
71	0x3f808dc5	1.0043265
72	0x3f7d7ef1	0.9902182
73	0x3f805f02	1.0028994
74	0x3f7dd62d	0.9915493
75	0x3f7da3ba	0.9907795
76	0x3f7fc5d2	0.99911225
77	0x3f7ea9a5	0.99477607
78	0x3f7f825a	0.99808276
79	0x3f811293	1.0083793
80	0x3f80b338	1.0054693
81	0x3f813111	1.0093099
82	0x3f808983	1.0041965
83	0x3f81319d	1.0093266
84	0x3f801b46	1.0008323
85	0x3f7f1cd2	0.9965335
86	0x3f7fc468	0.9990907
87	0x3f7ff66e	0.99985397
88	0x3f7f36a9	0.9969278
89	0x3f7debbd	0.99187833
90	0x3f7c14d6	0.98469293
91	0x3f80228f	1.0010546
92	0x3f7f0c09	0.9962774
93	0x3f804c3c	1.0023265
94	0x3f7f61c0	0.9975853
95	0x3f7f2686	0.9966816
96	0x3f7f394a	0.9969679
97	0x3f7ec713	0.99522513
98	0x3f7d74ce	0.99006355
99	0x3f8003b4	1.000113
100	0x3f80b930	1.0056515
101	0x3f82d42c	1.0221
102	0x3f7ee21a	0.99563754
103	0x3f806e13	1.0033592
104	0x3f813d25	1.0096785
105	0x3f80e2f3	1.006926
106	0x3f820317	1.0157193
107	0x3f7f40b5	0.9970811
108	0x3f823e79	1.0175315
109	0x3f80b41f	1.0054969
110	0x3f803828	1.0017138
111	0x3f7e3361	0.9929715
112	0x3f7d9c23	0.9906637
113	0x3f7c2987	0.98500866
114	0x3f80b83a	1.0056221
115	0x3f803c4f	1.0018405
116	0x3f80bb2a	1.0057118
117	0x3f7c4250	0.98538685
118	0x3f80040e	1.0001237
119	0x3f80297c	1.001266
120	0x3f7ffbae	0.9999341
121	0x3f7f6848	0.99768496
122	0x3f7ffd99	0.99996334
123	0x3f807b8c	1.0037704
124	0x3f7e1f4b	0.992665
125	0x3f7fe765	0.99962455
126	0x3f80ec60	1.0072136
127	0x3f804964	1.0022397
128	0x3f82a3a9	1.0206195
129	0x3f7fbc97	0.9989714
130	0x3f7f35ee	0.99691665
131	0x3f8092bc	1.004478
132	0x3f80e190	1.0068836
133	0x3f7ff040	0.9997597
134	0x3f801634	1.0006776
135	0x3f804571	1.0021192
136	0x3f7eaf00	0.9948578
137	0x3f7f312f	0.99684423
138	0x3f7da8a5	0.99085456
139	0x3f7dd45d	0.99152166
140	0x3f7eacda	0.994825
141	0x3f81fabf	1.0154647
142	0x3f83fc76	1.031142
143	0x3f866916	1.050082
144	0x3f85f8fc	1.0466609
145	0x3f86584e	1.0495698
146	0x3f8559bf	1.0418013
147	0x3f8107a8	1.0080462
148	0x3f817484	1.0113683
149	0x3f7dea07	0.9918522
150	0x3f80d702	1.0065615
151	0x3f8006f2	1.000212
152	0x3f7d7122	0.9900075
153	0x3f7e4a3f	0.9933204
154	0x3f7c54ea	0.9856707
155	0x3f7e4281	0.99320227
156	0x3f7f6084	0.99756646
157	0x3f7dbf94	0.9912045
158	0x3f7f7025	0.99780494
159	0x3f7e4346	0.993214
160	0x3f7fdf14	0.99949765
161	0x3f7f6735	0.99766856
162	0x3f7f3651	0.99692255
163	0x3f80cc29	1.0062305
164	0x3f80325b	1.0015367
165	0x3f7dd004	0.9914553
166	0x3f7e716d	0.99391824
167	0x3f7f09ca	0.9962431
168	0x3f7f1104	0.9963534
169	0x3f80660c	1.0031142
170	0x3f80661b	1.003116
171	0x3f7e706c	0.9939029
172	0x3f7f9b7f	0.99846643
173	0x3f7fe143	0.999531
174	0x3f806b76	1.0032794
175	0x3f8259fe	1.0183713
176	0x3f8048a1	1.0022165
177	0x3f805515	1.0025965
178	0x3f801095	1.000506
179	0x3f80acb2	1.0052702
180	0x3f809608	1.0045786
181	0x3f803eba	1.0019143
182	0x3f80aebe	1.0053327
183	0x3f8045ce	1.0021303
184	0x3f7f36b7	0.99692863
185	0x3f80fa41	1.0076371
186	0x3f7f03a0	0.99614906
187	0x3f7fc826	0.9991478
188	0x3f7f5a42	0.997471
189	0x3f80acd8	1.0052748
190	0x3f8331ca	1.024957
191	0x3f7fb86a	0.9989077
192	0x3f820eaa	1.0160725
193	0x3f82c0b1	1.0215055
194	0x3f80e91d	1.007114
195	0x3f82c682	1.021683
196	0x3f801b06	1.0008247
197	0x3f7f14b2	0.99640954
198	0x3f84fdde	1.0389974
199	0x3f806c68	1.0033083
200	0x3f81f412	1.0152609
201	0x3f7ecc0b	0.99530095
202	0x3f7c4ea9	0.98557526
203	0x3f8074f1	1.0035688
204	0x3f8137da	1.009517
205	0x3f7d177c	0.9886396
206	0x3f7c2421	0.9849263
207	0x3f811085	1.0083166
208	0x3f803d7c	1.0018764
209	0x3f812cfe	1.0091856
210	0x3f805d74	1.002852
211	0x3f80522b	1.0025076
212	0x3f81959e	1.0123785
213	0x3f81a0cc	1.0127196
214	0x3f803e26	1.0018966
215	0x3f837554	1.0270181
216	0x3f81c03f	1.0136794
217	0x3f82ba3a	1.0213082
218	0x3f80b688	1.0055704
219	0x3f810fbf	1.008293
220	0x3f7de34c	0.9917495
221	0x3f7feabf	0.9996757
222	0x3f805848	1.0026941
223	0x3f801283	1.0005649
224	0x3f7f21c2	0.99660885
225	0x3f805d64	1.00285
226	0x3f804f74	1.0024247
227	0x3f7ea330	0.99467754
228	0x3f80a11b	1.0049165
229	0x3f7e5ce7	0.9936051
230	0x3f806956	1.0032146
231	0x3f7f42ed	0.99711496
232	0x3f7ea806	0.99475133
233	0x3f80dabe	1.0066755
234	0x3f801c9a	1.0008729
235	0x3f8012fa	1.0005791
236	0x3f80380a	1.0017102
237	0x3f7ece6b	0.9953372
238	0x3f7d3cb9	0.9892078
239	0x3f8038a6	1.0017288
240	0x3f8080bd	1.0039288
241	0x3f7ffcef	0.9999532
242	0x3f809c92	1.0047781
243	0x3f7f0c99	0.996286
244	0x3f80d210	1.0064106
245	0x3f80068b	1.0001997
246	0x3f7d394a	0.9891554
247	0x3f7fdc88	0.9994588
248	0x3f7e8491	0.9942103
249	0x3f7f6fe8	0.9978013
250	0x3f80ac08	1.00525
251	0x3f8140eb	1.0097936
252	0x3f821d0d	1.0165116
253	0x3f805a89	1.0027629
254	0x3f7f51ea	0.99734366
255	0x3f80d2c8	1.0064325

bias f4 [640]
0	0x3b1e1eec	0.0024127318
1	0xbb38a0a5	-0.0028171923
2	0xbb1bc3cc	-0.0023767827
3	0x3b4222de	0.0029622833
4	0xbb51991a	-0.0031982125
5	0xb7ee34ab	-2.8396336e-05
6	0xbb57717c	-0.0032874038
7	0xbbabff8e	-0.0052489704
8	0xbbbe1ac3	-0.00580153
9	0x3b38da34	0.002820623
10	0xbc308f9a	-0.010776425
11	0x3c1e4379	0.009659641
12	0xbb8096a0	-0.003924206
13	0xbc6c6fe0	-0.01443097
14	0x3a6a0e1d	0.00089284946
15	0xbb05a8b1	-0.0020394737
16	0x3ab0d5dc	0.001349147
17	0x3b9c6f8d	0.00477404
18	0xbb89b817	-0.0042028534
19	0x3b6a107f	0.00357154
20	0xbca316b0	-0.01990828
21	0xbb3f8596	-0.002922391
22	0xbba7b737	-0.0051182765
23	0x3a8b74e2	0.0010639692
24	0x3b54e92c	0.0032487614
25	0xbbaa0707	-0.005188826
26	0x3ba06157	0.0048944163
27	0x3ac0df95	0.001471507
28	0x3b54566b	0.0032400142
29	0xba2fad3c	-0.0006701534
30	0x3ac21eb1	0.0014810172
31	0x3add1646	0.00168676
32	0xbac3d19a	-0.0014939785
33	0xbbb1489c	-0.005410267
34	0x3b989874	0.0046568457
35	0xbc06ab88	-0.008219607
36	0x3b0cf6ec	0.0021509482
37	0x38d5fe96	0.00010204052
38	0xbbfb4cb7	-0.007669057
39	0x3c0c9253	0.008579808
40	0xbc83657c	-0.016039602
41	0x3c398e36	0.01132541
42	0xbc102b9a	-0.008799458
43	0x39ed8584	0.0004530364
44	0xbb2df358	-0.002654275
45	0xbc414ac2	-0.011797609
46	0xbbd5dc4d	-0.006526506
47	0xbc038422	-0.008027108
48	0xba29d26a	-0.00064781925
49	0x3b12150d	0.002229038
50	0x3bcb39e3	0.006201969
51	0xbbb6e26f	-0.005581192
52	0x3a939fc0	0.0011262819
53	0xbb02e221	-0.001997121
54	0xbac204ea	-0.001480249
55	0x3bed0bac	0.0072340574
56	0xbc15393b	-0.009107883
57	0xbc33d819	-0.010976815
58	0x3b08c24e	0.0020867768
59	0xbb3894a3	-0.0028164766
60	0xbb48e7f1	-0.0030655826
61	0x3aa9dbe9	0.0012959215
62	0x3ba48d0f	0.0050216983
63	0x3c29193e	0.01032096
64	0xbae3ab72	-0.001736982
65	0x3c07a1fd	0.008278367
66	0x3b017a0c	0.0019756583
67	0xba992d5d	-0.0011686493
68	0x3bd6bf38	0.006553557
69	0x3b92e843	0.004483254
70	0xbc29f2a1	-0.010372789
71	0xbb87ea94	-0.004147837
72	0x3c1a24de	0.009408204
73	0xbba8dcb6	-0.005153264
74	0x3bae1887	0.0053129825
75	0x3b4033e1	0.0029327797
76	0x3a9d7f89	0.0012016158
77	0x3baf0f94	0.005342433
78	0x3bd7d629	0.006586809
79	0x3b72e46d	0.0037062422
80	0x3b5845f7	0.0033000687
81	0x3bdcc26b	0.0067370436
82	0x3a3401e1	0.0006866735
83	0x3badbc0c	0.005301958
84	0xbb59a96b	-0.0033212553
85	0xbb79ba33	-0.0038105368
86	0xb9d77f6e	-0.00041102938
87	0xbacff34e	-0.0015865357
88	0xbb708206	-0.0036698594
89	0xbc09790b	-0.008390675
90	0xbb994258	-0.0046770982
91	0xbb24cb4f	-0.0025145595
92	0xbb8641d4	-0.004097203
93	0x3b097c2f	0.002097856
94	0xba3c7c4a	-0.00071901514
95	0xbac7e7ae	-0.0015251541
96	0xbaef52ba	-0.0018258907
97	0xbb0315ac	-0.002000193
98	0xbc8e4dbb	-0.01737105
99	0xb98fd029	-0.00027430177
100	0xbbc862cb	-0.0061152927
101	0xbc3879b1	-0.011259482
102	0x3b9163e4	0.0044369567
103	0x3a9adcaa	0.0011815031
104	0x3a0d05a1	0.0005379562
105	0x3c8bd1a8	0.017067745
106	0x3c231ddd	0.00995585
107	0x3b3e524b	0.002904075
108	0xbb4c8e91	-0.0031212906
109	0xba2f6f54	-0.00066923094
110	0x3b1b9455	0.0023739536
111	0xbbf60ba8	-0.0075087138
112	0xbc231dce	-0.009955836
113	0xbc526d9a	-0.012843514
114	0x3be1bcfc	0.006888984
115	0x3afb77ea	0.0019185517
116	0x3bfe4c32	0.007760548
117	0xbc642bbb	-0.013926442
118	0x3a93946d	0.0011259444
119	0x3bcbb056	0.0062160892
120	0xba8194dc	-0.0009886282
121	0x3c2b5a21	0.0104585
122	0x3b01e54a	0.0019820505
123	0x3b6ec82a	0.0036435225
124	0x3b888c18	0.004167091
125	0x3b89d93d	0.004206805
126	0xbbad62c5	-0.0052913153
127	0x3b9dd423	0.0048165484
128	0x39e95b9c	0.00044509477
129	0x3b34f47d	0.0027611547
130	0xba14983f	-0.00056684384
131	0x3b6b29a2	0.003588297
132	0x3bfd25a9	0.0077254367
133	0xb99f2721	-0.00030355997
134	0x3917f31b	0.00014491046
135	0x3b1c6328	0.0023862813
136	0xbbb3b775	-0.0054845163
137	0xb998d60c	-0.00029151177
138	0xbc1a5fc6	-0.009422248
139	0xbbbc8c72	-0.005754047
140	0xbb102e5b	-0.0022000286
141	0x3b01f966	0.001983249
142	0xba491aa6	-0.00076715124
143	0x3c2f2ad8	0.010691367
144	0x3c58da33	0.0132356165
145	0x3bb2c6ce	0.0054558283
146	0x3c01a0a1	0.007911832
147	0x3945e703	0.00018873443
148	0x3b964435	0.0045857676
149	0x3b6f0cac	0.003647606
150	0xbbd3da11	-0.0064652045
151	0xb7b81b69	-2.1947273e-05
152	0x3c3451d4	0.0110058375
153	0x3bdb9459	0.006701034
154	0x3c711096	0.014713427
155	0x3bdbd986	0.0067092804
156	0x3b26ce3f	0.0025452522
157	0x3c162e4f	0.009166314
158	0x3af11248	0.0018392289
159	0x3c17eb98	0.0092724785
160	0x3a8c9a55	0.0010727147
161	0x3b8f86e2	0.004380093
162	0x3b4e9684	0.003152282
163	0xbc0054cf	-0.00783272
164	0xbb0e323b	-0.002169742
165	0x3c39886b	0.0113240285
166	0x3c100fae	0.008792801
167	0x3b4f0120	0.0031586364
168	0x3b960204	0.004577877
169	0xbae49f4c	-0.0017442494
170	0xbaef4046	-0.0018253408
171	0x3bf9e832	0.007626557
172	0x3b18fc4e	0.0023343745
173	0x3b4887e3	0.0030598573
174	0xbb4321d1	-0.0029774795
175	0x3abe4407	0.0014516123
176	0xbafd0fa0	-0.0019307025
177	0x3b3a905b	0.002846739
178	0x3b5ee17b	0.0034008909
179	0xb9f58386	-0.00046828034
180	0x3b8d8fe6	0.0043201325
181	0xba91258b	-0.0011073811
182	0x3bb82ddc	0.0056207012
183	0xbaf6a406	-0.0018817193
184	0xb9f67014	-0.0004700428
185	0x3b510adf	0.0031897349
186	0xbb8c73a8	-0.0042862482
187	0xbb21ea13	-0.002470617
188	0xbb20e09a	-0.0024547935
189	0x3c3751be	0.011188922
190	0xbc0a15df	-0.008428066
191	0x3b93bc6e	0.0045085466
192	0xbb6ebd25	-0.0036428657
193	0x3bf6b728	0.007529158
194	0xbb640d9d	-0.0034798153
195	0xbb0b7ea3	-0.0021285198
196	0xbb0806c6	-0.002075599
197	0x3bcaae48	0.0061853267
198	0xbb52810c	-0.0032120375
199	0xbb5a04ca	-0.0033267015
200	0xbb76a699	-0.003763592
201	0xbb21b9f6	-0.0024677492
202	0xbc1fe727	-0.009759701
203	0x3920bfd2	0.00015330248
204	0x3b8d5ad0	0.004313804
205	0xbbabb858	-0.0052404813
206	0xbacfaa51	-0.0015843605
207	0x3aff5b74	0.0019482211
208	0x3ac82343	0.0015269298
209	0xb79216e6	-1.741522e-05
210	0xbb19027e	-0.0023347433
211	0xba0a5feb	-0.0005278575
212	0x3c0be70c	0.008538973
213	0x3bee9007	0.007280353
214	0x3c81644e	0.0157949
215	0x3bb82e94	0.005620787
216	0xbb6b6c0d	-0.0035922558
217	0x3b436c87	0.0029819326
218	0x3b8b433b	0.004249958
219	0xbc117c8f	-0.008879795
220	0x3a4eba6a	0.0007886054
221	0x3c01f1b4	0.007931162
222	0x3b6ee682	0.0036453311
223	0xb87f7a30	-6.0910534e-05
224	0xbb1487d1	-0.002266396
225	0xbc0027c1	-0.007821978
226	0x3b83cbea	0.004022111
227	0xbba1a06a	-0.004932453
228	0x3bad8c23	0.0052962466
229	0xbb52cb24	-0.0032164538
230	0xbb4a2c57	-0.0030849183
231	0x3b41d2c2	0.0029575084
232	0x3ba9cba4	0.0051817466
233	0xbbdb9029	-0.006700535
234	0xba93fef0	-0.0011291187
235	0xb907f190	-0.00012964592
236	0xbac01411	-0.0014654418
237	0x3b9747dd	0.004616721
238	0x3c374507	0.011185891
239	0xbaec9b43	-0.0018051643
240	0xbbfd1f99	-0.007724714
241	0x395611da	0.0002041528
242	0xbbacfac6	-0.005278918
243	0x3b693365	0.0035583612
244	0xbbb50c66	-0.0055251596
245	0xb727be91	-9.998345e-06
246	0x3c25db5d	0.010123101
247	0xb7e746ba	-2.757028e-05
248	0x3baec4fe	0.005333542
249	0x3add222a	0.0016871144
250	0xba478c55	-0.00076121587
251	0xbbccf251	-0.0062544723
252	0xbc04d0f3	-0.008106458
253	0x3c109c2b	0.008826296
254	0x3b8b9144	0.0042592604
255	0x398c20c7	0.00026727302

weight_ih_l0 f4 [512, 32]
0	0xbd23b610	-0.03996855
1	0x3d9a66f1	0.07539166
2	0x3d057e07	0.032590892
3	0xbd957d1c	-0.07299253
4	0x3d252b56	0.04032453
5	0xbcc95fbc	-0.024581783
6	0xbc64405f	-0.013931363
7	0x3d1b2115	0.037873346
8	0xbcf22845	-0.029560218
9	0x3d970bca	0.073752955
10	0x3c1cdd4e	0.0095742475
11	0x3d6d986e	0.058006696
12	0x3b1ef024	0.0024252022
13	0x3da3fb54	0.080069214
14	0xbd8ccba8	-0.06874782
15	0x3d1ba943	0.038003217
16	0x3cccd5e2	0.025004331
17	0xbdaa9847	-0.08329826
18	0x3cb2ea15	0.021840135
19	0x3d5dba06	0.054132484
20	0x3d9eddde	0.077571616
21	0x3d11d3d5	0.03560241
22	0xbd849eb8	-0.06475586
23	0xbd05eb0f	-0.032694872
24	0x3cd393e6	0.02582736
25	0x3d7dec8f	0.061993178
26	0xbc72c475	-0.014817347
27	0xbb3df0b4	-0.0028982582
28	0xbd951a43	-0.072804
29	0x3d434ceb	0.047680777
30	0xbcca0566	-0.024660777
31	0xbcbf6b6e	-0.023366656
32	0x3d1d8447	0.038456228
33	0x3bcf6c40	0.006330043
34	0x3dbe651b	0.09296628
35	0xbdb89750	-0.090132356
36	0x3d60a48b	0.05484442
37	0x3cc2255e	0.023699459
38	0xbdacd0c5	-0.08438257
39	0x3c1b8c7b	0.009493942
40	0xbc71037a	-0.0147103015
41	0x3aabac0a	0.0013097536
42	0x3b40b2d1	0.0029403458
43	0xbd6d3826	-0.057914875
44	0x3d71be67	0.059019472
45	0x3cfaed88	0.030630842
46	0xba27ad81	-0.00063963985
47	0x3db4ac30	0.08821905
48	0xbda114eb	-0.07865318
49	0xbd0f7839	-0.035026763
50	0x3d9e4b9e	0.077292666
51	0xbd362e18	-0.044477552
52	0x3c8fbbf6	0.017545681
53	0xbbd18418	-0.0063939206
54	0x3d44a8dc	0.0480126
55	0x3baedf94	0.005336711
56	0x3db0db12	0.08635534
57	0x3a33f7b8	0.0006865221
58	0xbd6dd8d2	-0.058068104
59	0x3d9c4efb	0.07632252
60	0xbc72bd6f	-0.014815672
61	0x3d888142	0.06665279
62	0x3d7351f9	0.059404347
63	0xbd767bd2	-0.060176678
64	0x3c958dc7	0.018256081
65	0xbd8b93bb	-0.06815287
66	0x3d65b1bf	0.056077715
67	0xbd773fa1	-0.060363416
68	0xbd8bc9b8	-0.06825584
69	0x3cd835cd	0.026392842
70	0xbd2a88b0	-0.04163426
71	0xbbaa2530	-0.0051924214
72	0xbd530e42	-0.05152727
73	0x3d75f11a	0.060044385
74	0x3c2b8136	0.010467818
75	0xbc1b4d6f	-0.009478911
76	0xbd589c54	-0.05288346
77	0xbbc9f482	-0.006163181
78	0x3d1f7f08	0.038939506
79	0xbcaac378	-0.02084516
80	0x3b2dd705	0.0026525867
81	0x3d520c2c	0.05128114
82	0x3d52ddc2	0.051481016
83	0x3d88f8f3	0.06688108
84	0xbc9f3a96	-0.019437116
85	0xbdb53a79	-0.088490434
86	0x3d83b252	0.06430496
87	0xbd36ce09	-0.044630084
88	0xbccf583b	-0.025310626
89	0x3d8570c5	0.0651565
90	0xbcf5149b	-0.029917052
91	0x3d4217ec	0.047386095
92	0xbd74ef4d	-0.059798528
93	0x3be9aff3	0.0071315705
94	0x3d464a76	0.048410855
95	0xbca36e31	-0.019950004
96	0xbd8e7719	-0.0695631
97	0x3d43b9cd	0.047784615
98	0xbd206394	-0.039157465
99	0xbd75a089	-0.05996755
100	0x3d52a23c	0.05142425
101	0xbd573d68	-0.052548796
102	0x3b876ddf	0.0041329707
103	0xbd3d3683	-0.046194565
104	0x3d879953	0.06621041
105	0xbd3bc41f	-0.045841333
106	0x3c9ca358	0.019120857
107	0x3b8241c8	0.003975127
108	0xbd863996	-0.065539524
109	0x3af3274f	0.0018551144
110	0xbd8ab619	-0.067730136
111	0x3d1e769d	0.038687337
112	0xbd647a3c	-0.055780634
113	0x3d248524	0.040166035
114	0xbd0ee6b2	-0.034887977
115	0x3daa3d14	0.08312431
116	0xbd5d6efc	-0.05406092
117	0x3c32b865	0.010908221
118	0xbd44a8d6	-0.048012577
119	0xbd84b3d8	-0.06479615
120	0x3d4552f4	0.048174813
121	0xbd5bf16c	-0.053697035
122	0xbb362625	-0.0027793732
123	0xbd1363ab	-0.035983723
124	0xbceb58e5	-0.028728912
125	0x3d1bf193	0.03807218
126	0xbc578e50	-0.013156489
127	0x3c0b0c0c	0.008486759
128	0xbc833af7	-0.016019328
129	0x3c9cc379	0.019136177
130	0xbda0ec12	-0.07857527
131	0xbda5a09c	-0.080872744
132	0xbd204fc6	-0.039138578
133	0xbd4645e6	-0.048406504
134	0xbd8fb1f7	-0.07016366
135	0x3c0dfa04	0.008665565
136	0xbc9bd93f	-0.01902449
137	0x3c3233d5	0.0108766155
138	0x3a9fd905	0.0012195414
139	0x3c8eee32	0.017447565
140	0x3be98e39	0.00712755
141	0x3cdd2fa5	0.027000258
142	0xbdad26a3	-0.08454635
143	0x3d1fb6ee	0.038992815
144	0x3cd22f0b	0.025657197
145	0x3b5c3d13	0.003360574
146	0xbd09e93f	-0.033669706
147	0xbd369d23	-0.04458345
148	0x3d8b8551	0.068125375
149	0x3cd64cad	0.026159609
150	0xbb97c666	-0.0046318052
151	0xbc679cdb	-0.014136518
152	0x3d35e5ae	0.044408493
153	0x3d0aa4a0	0.033848405
154	0xbd19a674	-0.037512258
155	0x3c11ebf5	0.008906354
156	0xbd743215	-0.059618074
157	0xbd1d940e	-0.038471274
158	0x3c93515b	0.01798313
159	0x3d727eb1	0.059202854
160	0xbbbffada	-0.0058587613
161	0x3d8ae340	0.06781626
162	0x3d2dc570	0.04242462
163	0xbcb1a107	-0.02168323
164	0x3d2b19e8	0.041772753
165	0x3d633b27	0.055476334
166	0xbd9c7fc2	-0.07641555
167	0xbdb3aac4	-0.08772805
168	0xbcb20a6a	-0.021733481
169	0xbd50c822	-0.05097211
170	0x3d6675af	0.056264576
171	0x3d8ee299	0.06976814
172	0xbd47d10e	-0.048783354
173	0x3ccd17d2	0.025035772
174	0xbd8b1434	-0.06790963
175	0x3cdca35e	0.026933368
176	0xbc831530	-0.016001314
177	0xbd14f4eb	-0.036366384
178	0x3d302e9a	0.043013193
179	0x3c79f820	0.0152569115
180	0x3a7a749e	0.00095541205
181	0xbd1c9d70	-0.03823608
182	0xbd977eba	-0.07397218
183	0x3dad993b	0.08476492
184	0xbda55ff8	-0.08074945
185	0x3d26697a	0.040627934
186	0x3dafac00	0.08577728
187	0x3cde18cb	0.027111432
188	0x3d6fde19	0.05856142
189	0xbbd1df0c	-0.006404763
190	0xbd8c606c	-0.068543285
191	0x3d5990f7	0.053116765
192	0xbd1aa760	-0.037757277
193	0xbda65237	-0.0812115
194	0xbbc478cd	-0.005995846
195	0xbd5d0856	-0.053963028
196	0x3d8d7278	0.06906599
197	0x3c705921	0.0146696875
198	0x3d1dceae	0.038527183
199	0x3c916aa5	0.017751047
200	0xbd492549	-0.049107824
201	0xbb287e1f	-0.002570994
202	0x3d39a02a	0.04531876
203	0xbc997c47	-0.018736018
204	0x3d279330	0.040911853
205	0x3d89cf1e	0.067289576
206	0x3a2f6b32	0.00066916936
207	0x3da1afc1	0.078948505
208	0x3d6a04b5	0.057133395
209	0x3d65e231	0.056123916
210	0xbd93425e	-0.07190393
211	0x3d7e67bd	0.06211065
212	0x3d88e61d	0.066845156
213	0x3a186fdc	0.0005815008
214	0xbd0b9184	-0.03407432
215	0xbd766026	-0.060150288
216	0x3c73a320	0.014870435
217	0xbdb3a5b6	-0.08771841
218	0x3d09e246	0.033663057
219	0xbda6f3df	-0.081519835
220	0x3d4a5374	0.049395993
221	0xbc4439b8	-0.011976652
222	0x3d71b3d4	0.059009388
223	0xbc4080b7	-0.011749438
224	0xbd155265	-0.03645553
225	0x3cb7764d	0.022395277
226	0xbd67741b	-0.05650721
227	0xbd0045c1	-0.031316523
228	0x3c6735aa	0.014111916
229	0xbd9af33c	-0.075659245
230	0xbd42c9aa	-0.047555603
231	0x3ce70aed	0.028203452
232	0xbd065696	-0.03279742
233	0xbb6c0111	-0.0036011378
234	0xbdc191f3	-0.09451666
235	0xbd973f7d	-0.07385156
236	0x3b4fc1dc	0.0031701243
237	0xbc118130	-0.008880898
238	0xbdd23952	-0.10264839
239	0xbdaa34ad	-0.08310828
240	0x3ce13c03	0.027494436
241	0x3d6c2986	0.057656787
242	0x3aba3893	0.0014207534
243	0x3b3a6789	0.002844306
244	0x3daa3636	0.08311121
245	0x3d1f7587	0.038930442
246	0xbd242957	-0.040078487
247	0xbdd58cdf	-0.1042726
248	0x3d5388f7	0.05164429
249	0x3d587f66	0.05285587
250	0x3c66c7b7	0.014085702
251	0xbdbe68c4	-0.09297326
252	0xbd5a2a7f	-0.053263184
253	0x3be78034	0.0070648436
254	0xbd24f271	-0.040270273
255	0xbdaf4f73	-0.085600756

weight_hh_l0 f4 [512, 128]
0	0xbc3c62d2	-0.01149817
1	0x3c988867	0.01861973
2	0x3d5e542d	0.054279495
3	0x3c1fba3d	0.0097489925
4	0x3c140596	0.009034535
5	0x3d80d7ce	0.062911615
6	0xbd9677c8	-0.07347065
7	0xbd11c277	-0.035585847
8	0xbd85195f	-0.0649898
9	0xbd5cdd89	-0.05392221
10	0xbc6576ab	-0.014005343
11	0x3d49c7ef	0.049262937
12	0xbdaa3bcc	-0.083121866
13	0x3d7fb151	0.06242496
14	0xbd3e0922	-0.04639543
15	0x3da03c8b	0.07824048
16	0x3d951a4c	0.07280406
17	0xbd3f9b72	-0.046779104
18	0x3d245425	0.04011931
19	0xbd4bc0d6	-0.04974445
20	0xbd3a0b43	-0.045420896
21	0xbcbf84f5	-0.023378829
22	0xbdb43c35	-0.08800546
23	0x3db0bfd6	0.0863034
24	0xbc287b83	-0.010283354
25	0xbc361fbb	-0.011115964
26	0xbcb406da	-0.021975923
27	0x3c51d9bc	0.01280826
28	0x3d073cb4	0.033016875
29	0xbd393cda	-0.04522405
30	0x3d7fff1d	0.062499154
31	0xbd815420	-0.06314874
32	0xbc22cdee	-0.009936793
33	0x3ceaae1f	0.02864748
34	0xbd8518e5	-0.06498889
35	0xbdb693bf	-0.08914899
36	0x3d5a382e	0.053276233
37	0xbd8a2c80	-0.06746769
38	0xbd130905	-0.035897274
39	0xbbf9469f	-0.0076072956
40	0x3d29b8f6	0.041436158
41	0xbd1b0fc5	-0.037856836
42	0xbd249221	-0.040178422
43	0x3d1cd086	0.0382848
44	0xbc212d0d	-0.009837401
45	0x3d8b5b03	0.068044685
46	0xbc5842b4	-0.013199497
47	0x3d81fa74	0.06346598
48	0xbcd81bee	-0.026380505
49	0xbd54470f	-0.05182558
50	0x3d59c63a	0.05316756
51	0x3d6534ad	0.05595844
52	0x3d96167b	0.073285066
53	0xbc504521	-0.012711794
54	0x3d08c494	0.033390597
55	0x3d10eb97	0.035380926
56	0x3dbe33dc	0.09287235
57	0xbc72f872	-0.014829742
58	0x3d8c47ba	0.06849618
59	0xbd41da7e	-0.04732751
60	0xbd0c78af	-0.03429478
61	0xbdc00784	-0.093764335
62	0xbce75d79	-0.028242813
63	0x3c38ac34	0.011271525
64	0xbcb29f1c	-0.021804385
65	0xbd802ac1	-0.06258155
66	0x3d4f2010	0.050567687
67	0xbdc7a760	-0.09748721
68	0xbce3efd0	-0.027824312
69	0x3cf75a41	0.030194404
70	0xbd5c819f	-0.053834554
71	0x3d6b5f76	0.057464086
72	0x3d07f199	0.03318939
73	0xbd07ae12	-0.03312499
74	0x3d9d3a12	0.07677092
75	0x3a00aed2	0.0004908863
76	0xbda1f563	-0.07908132
77	0x3d84227e	0.06451891
78	0x3d7a4158	0.061097473
79	0x3d65bdb8	0.056089133
80	0xbcbf2094	-0.023330964
81	0xbd59cd3d	-0.053174246
82	0x3c8b0645	0.016970763
83	0xbd99354f	-0.07480871
84	0x3d0e0014	0.034668043
85	0xbcb70e4a	-0.02234568
86	0x3c22a0af	0.009926005
87	0xbd2c9f1b	-0.042143922
88	0xbd7b52e2	-0.06135834
89	0xbcd73e1d	-0.026274735
90	0xbd381f6f	-0.044951852
91	0x3ca02c3d	0.019552344
92	0xbdaad630	-0.08341634
93	0x3d84e991	0.06489862
94	0xbcc2ee8b	-0.023795387
95	0xbd9cb7ae	-0.076522216
96	0x3d868576	0.065684244
97	0xbd5d9a51	-0.054102246
98	0x3c9faf98	0.01949291
99	0x3d9197df	0.07109045
100	0xbda06736	-0.07832186
101	0x3d333220	0.043748975
102	0x3da7f6a5	0.082013406
103	0x3d889fab	0.06671079
104	0xbd3742a8	-0.044741303
105	0x3ccba7ff	0.02486038
106	0xbc38d080	-0.011280179
107	0xbda4bede	-0.080442175
108	0xbc0b4229	-0.0084996605
109	0x3d9c75d2	0.0763966
110	0x3cd2beef	0.02572581
111	0xbd45760d	-0.048208285
112	0xbccf70ac	-0.02532228
113	0x3d61051f	0.054936524
114	0xbca78ef4	-0.020453908
115	0x3b314514	0.002704923
116	0x3d96bd16	0.07360284
117	0x3d8d7747	0.06907516
118	0x3c9d90d4	0.019234098
119	0xbc6b81fa	-0.014374251
120	0x3d21a9c6	0.03946855
121	0x3ce8b6b3	0.02840743
122	0xbd465bb4	-0.0484273
123	0x3d56cbae	0.052440338
124	0x3d9c5539	0.076334424
125	0xbd45de50	-0.048307717
126	0x3db1be2d	0.08678851
127	0x3d821d91	0.063532956
128	0x3ce3487c	0.027744524
129	0xbcee69bd	-0.029103154
130	0x3d769745	0.060202856
131	0xbd485198	-0.04890594
132	0x3d8a6856	0.06758182
133	0x3d106653	0.035253834
134	0x3da4eb97	0.08052748
135	0xbcfe91fc	-0.03107547
136	0x3ca48686	0.020083677
137	0x3d524bfb	0.051341992
138	0xbda3bd10	-0.07995045
139	0xbc83d815	-0.016094247
140	0xbceb4767	-0.02872057
141	0xbcea5202	-0.028603557
142	0x3b942e8a	0.0045221495
143	0x3bbe7077	0.0058117467
144	0xbd2cdf87	-0.04220536
145	0x3d61569c	0.055014238
146	0xbdb92b37	-0.09041446
147	0x3d83934c	0.06424579
148	0xbd83afcf	-0.06430017
149	0xbcd826bd	-0.02638566
150	0xbc9cace7	-0.019125415
151	0xbc9abcc5	-0.01888884
152	0xbc2929ed	-0.010324937
153	0x3cb1bb4a	0.021695752
154	0x3d71ab7d	0.059001435
155	0x3d828f67	0.06375008
156	0xbaa975e1	-0.0012928807
157	0x3d438ab6	0.047739707
158	0x3d142a1b	0.036172967
159	0xbda7f9d6	-0.08201949
160	0xbc8f8b27	-0.017522408
161	0x3d41de3d	0.047331084
162	0x3d431c00	0.047634125
163	0x3d909b22	0.07060839
164	0x3d3fe3ee	0.04684823
165	0x3d82cd90	0.06386864
166	0x3da8111e	0.0820639
167	0x3db0e30b	0.08637055
168	0xbca38ab0	-0.019963592
169	0xbb548c41	-0.003243223
170	0xbd81d1d7	-0.06338852
171	0xbd35a138	-0.044343203
172	0xbd6f1481	-0.058369163
173	0x3d6910f2	0.056900926
174	0xbd103bc5	-0.03521325
175	0x3bdceb26	0.006741899
176	0xbd896319	-0.067083545
177	0xbd6d9ee8	-0.058012873
178	0x3d91c02c	0.07116732
179	0xbd206222	-0.039156087
180	0x3d8b0c01	0.06789399
181	0xbbd48028	-0.006485004
182	0xbd9448d2	-0.07240452
183	0xbcd7f7c2	-0.026363257
184	0xbd26cf16	-0.040724836
185	0xbd0bda42	-0.034143694
186	0xbbc9ed10	-0.0061622933
187	0x3dc53ec6	0.09631114
188	0xbdabcd5a	-0.08388777
189	0x3d67aa32	0.056558795
190	0x3d053ac3	0.032526743
191	0x3c648411	0.013947503
192	0x3da5ce23	0.08095958
193	0xbd02c45f	-0.031925555
194	0xbd726772	-0.059180684
195	0xbd2ee9d8	-0.04270348
196	0xbdcfb673	-0.10142221
197	0x3d52c047	0.0514529
198	0x3d238de8	0.039930254
199	0xbd33a451	-0.043857876
200	0xbd5a3c0a	-0.053279914
201	0xbd28e5b9	-0.041234706
202	0x3cbac709	0.022799985
203	0xbd338008	-0.043823272
204	0xbaf529a9	-0.0018704432
205	0x3c2ea797	0.010660074
206	0x3d8692fe	0.06571005
207	0xbc202013	-0.009773272
208	0x3dd0543c	0.101723164
209	0x3d5e837c	0.054324612
210	0xbd925516	-0.07145135
211	0xbd98c9ad	-0.074603416
212	0xbd746748	-0.05966881
213	0xbc3308f6	-0.010927429
214	0x3d94f18b	0.07272633
215	0x3d562e06	0.052289985
216	0x3d6f1f01	0.058379177
217	0xbda6eae8	-0.081502736
218	0xbc132744	-0.00898153
219	0x3bd180c6	0.006393525
220	0xbd8f1e5b	-0.06988212
221	0xbda19815	-0.078903355
222	0xbd513784	-0.051078334
223	0xbc4ebfa2	-0.012618931
224	0xbd83ac42	-0.0642934
225	0xbce90637	-0.028445346
226	0xb9c89ef1	-0.00038265393
227	0xbdb01cea	-0.08599265
228	0x3d183a63	0.037165057
229	0xbd00b322	-0.031420834
230	0xbd812760	-0.06306338
231	0x3a481369	0.0007632287
232	0xbd768392	-0.06018407
233	0xbd45683a	-0.0481951
234	0xbda853f6	-0.08219139
235	0x3d771293	0.060320448
236	0xbc26c715	-0.010179301
237	0x3cf179c6	0.029477011
238	0x3d0c776c	0.034293577
239	0xbd35d27e	-0.044390194
240	0xbd976758	-0.07392758
241	0xbd08d5af	-0.03340691
242	0xbd1c2161	-0.03811777
243	0x3d50f08b	0.05101065
244	0x381e7ec1	3.7788184e-05
245	0xbcdcf86f	-0.026973931
246	0x3d89dd79	0.06731696
247	0xbd700341	-0.058596853
248	0x3d0a6b3a	0.033793665
249	0x3b758b10	0.003746692
250	0xbd8a2877	-0.06745999
251	0xbdcaec82	-0.099083915
252	0x3cfa45fe	0.030550953
253	0x3d970ac4	0.073751
254	0x3d00514c	0.03132753
255	0xbca50119	-0.020142125
