Single Battery Model/5. CNN-LSTM Models/model_B0005_charge_rob.pth (torch, 432658 bytes, 15 tensors)

weight f4 [64, 3, 3]
00000000: d943 c33d 3093 923c 8fe4 8d3e e9ef 163d
00000010: 1f94 8d3d 798e 28bd e5ee 063e c116 62bb
00000020: 297e d43d c301 87be f2ba 973e 22a2 42bd
00000030: 4aba 3bbe 986f 933e ec39 b53d 9c64 003e
00000040: 99a7 3d3e e145 2ebe a27b a7be a62e 823e
00000050: 27e0 9c3e 8c7b 693d 0f5d 5abe 096e 6ebd
00000060: 44b7 18be cfa9 58be a3a1 a3be 397c 863e
00000070: 5e6c a23e ba5d 8b3e 6ebe 233d 9123 033e
00000080: c1d5 1b3e eed5 0f3e a91c 1e3e e114 563e
00000090: 9064 3abe 6970 803d 19cb 8f3d 7afe 5f3e
000000a0: c56a 763d 361b 9ebe 1698 233e e0fa 8bbd
000000b0: 58d8 503e 8041 5d3e a5b1 9abe 69b8 5ebe
000000c0: 1816 6a3e c071 1fbd 334c 2abe 591b 2bbe
000000d0: 8d09 06be d6bb 4e3e f580 993e 55bb 89be
000000e0: bd2b 893e d686 ccbd 314b 8ebd 6d0e fd3c
000000f0: 4792 a5bd c7ca a3be c503 0abe 9d2d 9a3e
00000100: ff26 88be dce8 6cbd 0830 5d3d dfc9 2bbe
00000110: ce1c 50be 9d03 03be 2911 9abe 7eb5 89bd
00000120: d186 8bbe 2cee bfbd ddbd 78be 651c 863e
00000130: f229 333e 5498 a1be 119a b7bd c253 243e
00000140: 2919 e93d 591e a0bd 8fd0 6c3d 8b06 8e3e
00000150: eb3d 20be 6056 2a3e 20da 30be 3f97 a5be
00000160: 606b a13e ab70 943e 4575 313d 0efb 4f3e
00000170: 280e 93bd d1f2 303e 0aa4 80be b921 4b3e
00000180: 2a8e 76bc 8acb 40be cb51 a3bd 1992 3abd
00000190: 7c15 3abc 7a3a 103e 761d 9b3e acb2 8bbe
000001a0: 51e7 8e3e fe93 183e 987a 5ebe f4a2 ccbd
000001b0: 01e2 883e 84ce 29be ba82 53be 7882 5bbd
000001c0: a18f e5bd 1b02 a63e a1bc a5be ee97 ef3d
000001d0: 2f11 22be 6140 9e3e 62b1 55bd d70a 0bbe
000001e0: caaa d7bd a5aa 1c3c 4c7c 02bd 8953 76be
000001f0: 6f1e d5bd 07fc eebd 7208 99be ebc2 ffbd
00000200: 82b5 fabb 3fb4 b3bd b03d 9dbe 6a99 61be
00000210: 6318 5d3e 7eb7 423e 6249 49be 2908 973e
00000220: 7ef1 90be abb1 a83d 40cd 63be 2b3a 0bbe
00000230: 3601 913e 5e26 e4bd dd03 9ebd 0678 74be
00000240: 1402 5abe d549 533d db52 c9bd 85e4 253d
00000250: be91 903e 2809 1c3e 570e 57be 0580 78be
00000260: 74fe c6bd 8de3 92bd 73d6 953e cc0b 15be
00000270: 68b4 493e 3073 363e abde 893e 0a6b 4b3c
00000280: 952d c7bd 0d11 893e 0088 87bd 09f4 dbbd
00000290: f46b a0bd f847 4b3d 7a14 623e 2328 6bbe
000002a0: b793 993e b6bb 5a3e ce14 ff3d 783e 853e
000002b0: f0bb 07be 01f7 a73e 123e ad3c 3ee7 8bbe
000002c0: 612a 0cbe 7bec a33e 4cc4 923e d9e7 18be
000002d0: 0318 4c3e 9754 fcbd af7c 28be cf2c 9d3d
000002e0: 130b 793e ea6d 64be c061 28be a43d 5b3e
000002f0: 4248 78be 245d 843d 05eb 883e 3a92 443e
00000300: fd3a 2ebe b3bb 5bbe ee9c 9bbc 6d2b 82be
00000310: 6714 e13d 94dd 9ebe a400 193e 09dc 1cbe
00000320: 8f3f 42bc da7d 9d3e 90c2 a13e cc3d a9bd
00000330: bdac 94bd a5c4 a0be b3b6 753e ed52 14be
00000340: c027 80be 6f65 cb3d e408 2dbe f28d 603e
00000350: 2be6 c63d 88ee 113d d480 2c3d 483c 41be
00000360: 1308 2c3e c77f 003e f7b0 263d 4f4b 5b3e
00000370: 0d19 a9be 079b 9c3e 6747 723d c439 d33d
00000380: 9004 833d da9a 913e b486 a13c 0cd2 7dbe
00000390: 1a82 063e 62db 9d3d a5fd 3c3e 4996 843e
000003a0: 219d 953e 7a65 b83d 53f9 a43e 32e0 a4be
000003b0: dab9 39be 6733 d5bd 6cc5 573e c895 6d3d
000003c0: 7ab5 2cbe b1a6 53bc a360 9dbd 526e a43e
000003d0: a490 ac3e 919a 2839 aeb3 5a3d 9be3 0cbd
000003e0: 8ef4 263d 87a3 9ebd 8c90 303d 98bb 9f3e
000003f0: 4d4f 24be 22b6 4c3e c37b fd3d 170f a73e
0.09534425 0.01789245 0.2771344 0.03684989 0.069130175 -0.041151498 0.13177069 -0.0034498426
0.10375626 -0.26368532 0.29634815 -0.047517903 -0.18332782 0.28796077 0.08848938 0.1253838
0.18520965 -0.17018844 -0.32711512 0.25426215 0.30639765 0.05700259 -0.21324562 -0.058210406
-0.1491366 -0.21158527 -0.31959257 0.2626665 0.31723303 0.27219945 0.03997653 0.12806536
0.1521826 0.14046451 0.1544062 0.20906402 -0.18202424 0.062714405 0.0702116 0.21874419
0.060160417 -0.30880135 0.15975985 -0.0683496 0.20395029 0.21607018 -0.30213657 -0.21750034
0.2285999 -0.03892684 -0.1663063 -0.16709651 -0.13089581 0.20188841 0.299812 -0.26900735
0.26791182 -0.099866554 -0.069479354 0.030890668 -0.08084541 -0.31990644 -0.13478 0.30112925
-0.26592252 -0.05783926 0.054000884 -0.16776226 -0.20323488 -0.12794347 -0.30091217 -0.0672407
-0.27251294 -0.093715996 -0.24291177 0.26193538 0.1749647 -0.3156153 -0.08964933 0.16047576
0.11381752 -0.07818288 0.057816084 0.27739367 -0.1564862 0.16634512 -0.17270708 -0.32341954
0.31527233 0.2899221 0.043324728 0.20310614 -0.071804345 0.17280127 -0.25125152 0.19837083
-0.015048543 -0.18827644 -0.07974585 -0.045549486 -0.011357661 0.14084807 0.30295914 -0.27284753
0.27910855 0.14900205 -0.21726453 -0.09992018 0.26734927 -0.16582686 -0.20655337 -0.05359122
-0.11209036 0.3242348 -0.32370475 0.116989 -0.15826868 0.30908492 -0.05217112 -0.13578354
-0.10530622 0.009562169 -0.03185682 -0.24055304 -0.10406195 -0.11669164 -0.29889256 -0.124883495
-0.007651032 -0.087746136 -0.30711126 -0.22031179 0.21591334 0.19015309 -0.196569 0.29498413
-0.28309244 0.082370125 -0.22246265 -0.13596408 0.28321236 -0.111401305 -0.077155806 -0.2387391
-0.21289855 0.051584084 -0.098302566 0.040501136 0.28236192 0.15237868 -0.21001564 -0.24267586
-0.09716502 -0.07172308 0.29265174 -0.14555281 0.19697726 0.17817378 0.26927695 0.012415657
-0.09725491 0.2677082 -0.06617737 -0.107399054 -0.078330904 0.04962918 0.22078124 -0.2296453
0.2999551 0.21360669 0.1245514 0.26024222 -0.13255286 0.32805637 0.021147761 -0.2732486
-0.13688041 0.32016358 0.28665388 -0.14932193 0.19931035 -0.12320822 -0.16453813 0.07674562
0.2432063 -0.22307554 -0.16443539 0.21410233 -0.24246314 0.06463078 0.26741806 0.19196406
-0.1701469 -0.2145832 -0.018995728 -0.25423756 0.109902196 -0.31028426 0.1494165 -0.15318312
-0.011855974 0.3076008 0.31593752 -0.0826374 -0.0725951 -0.31400028 0.23995475 -0.14484759
-0.25030327 0.09931456 -0.16897923 0.21929148 0.0971187 0.03562787 0.042115048 -0.18870652
0.16799955 0.12548743 0.04069611 0.21415447 -0.33026925 0.30587026 0.059150126 0.10313752
0.063973546 0.28438455 0.019717552 -0.24787158 0.13135567 0.077078596 0.18456133 0.25895908
0.29221442 0.0900373 0.3222147 -0.32202297 -0.18137303 -0.10410195 0.21071404 0.05800417
-0.16866103 -0.01291816 -0.076844476 0.32115418 0.33704102 0.00016079309 0.053394012 -0.03439675
0.04076057 -0.07746034 0.0431066 0.3119781 -0.16045876 0.19991353 0.12377121 0.326287

bias f4 [64]
00000000: 9a55 703e 131b ca3d 190b 8f3c 180c 6e3e
00000010: 861a ecbd 7c54 de3d 63c7 8dbe d3f4 41bd
00000020: 9043 0f3d a17b 19be 153a d53b b130 a3be
00000030: 6e66 2c3e df85 79be fd6e a1bc f613 24be
00000040: e992 803e 6aef cc3d 8a36 48be 51c7 e93d
00000050: 34e4 7cbe 1729 053d d01c ae3c 2550 6cbe
00000060: 8d5f 00be 1c53 9dbd e9dd 793d f051 4ebd
00000070: 33b2 773e 3004 87bd 2d52 f4bd f799 5c3d
00000080: c35d 78bd 15e9 37be eb41 913e e496 113e
00000090: 1656 76be 606e 833e 6776 3d3e 19c0 483e
000000a0: d564 fe3d 108b 02be b9d1 413d d2d0 46be
000000b0: c048 8e3e 7d48 f53d fb50 edbd a04a 26be
000000c0: f5c8 e7bd bfb3 c63d 2656 363e 7708 d13d
000000d0: dd0a a6bd 6e6c dbba 658b 643e 33cf 3ebe
000000e0: 636a a83d 1c9d 45be 1a05 4f3e 7052 4bbe
000000f0: 9185 d3bd cc83 33be 5dfd 81bd f717 233e
0.23470154 0.09868445 0.017461346 0.23246801 -0.115284964 0.10855958 -0.27691182 -0.047352623
0.034976542 -0.14988567 0.006507168 -0.31873086 0.16835949 -0.24367474 -0.019706244 -0.1602324
0.25112084 0.10006602 -0.19552055 0.1141497 -0.24696428 0.03250989 0.021253973 -0.23077448
-0.1253645 -0.076818675 0.061002646 -0.05037111 0.24189071 -0.065925956 -0.11929736 0.05385777
-0.060636293 -0.17960007 0.28370604 0.14217716 -0.24056277 0.25670147 0.18502198 0.1960453
0.12421576 -0.1274836 0.047319148 -0.19415596 0.2778988 0.11976717 -0.115877114 -0.16239405
-0.113176264 0.097022526 0.178063 0.10206693 -0.08107541 -0.0016740689 0.223188 -0.18633728
0.08223417 -0.19298214 0.2021679 -0.19855666 -0.1032821 -0.17530745 -0.06347153 0.1592711

weight f4 [32, 640]
00000000: 9cf3 b4bb 1fbc 963c cb4c bcbc 0d05 02bc
00000010: 2c6b 193c b888 ec3c 95a8 8dbc bb66 ad3c
00000020: 1071 3ebc 2fde 653c 6bd2 65bc 73d2 19bc
00000030: 93c5 cabc a16c 15ba 5fac e8bc 0772 243c
00000040: 3bc5 4abc 3785 83bb e111 253c ae0c 083c
00000050: 71ad 0a3d 0e03 f03c 3fc3 b7bb b878 72bc
00000060: b005 d0bc fb20 c2bc 4fde 51bc 5fb6 283c
00000070: 78bc ec3c 8513 14bc f187 b4bc 40d1 9a3c
00000080: 31e7 f3bb 7fff edba 203c e83c 11a1 e73b
00000090: 0188 aa3c 98a4 f6ba 2bcb bc3c 0a43 cd3c
000000a0: eb4b c1bc f085 59ba 451c 86bc 96a5 023d
000000b0: 8526 0abc 47cc 84bc a0c5 1fbd 90b6 1fbc
000000c0: 3e06 a3bc f41f a3bc 0be3 f83c 8392 1ebc
000000d0: bcd2 b03c df2a c53b 7a80 2d3d 7142 053d
000000e0: 5f3d 06bc 61c7 31bc 2558 fdbc ea3a 273d
000000f0: 521c 42bc 2bb3 d13b 3d3b 953c 86ff f13c
00000100: 55b7 82bc 901d ab3c 189a 673c 6dfa bfbc
00000110: 042b 3c3c 6d3e 403c 7ad5 513c bcff bd3c
00000120: b3c0 27bd 1c67 c0bc d2ea 883c 83e4 c1bc
00000130: 7dcf 20bd 9169 debc 8e52 5f3c 1352 c1bb
00000140: abe4 4f3c be15 213d 43dd d2bc 7b85 e0bc
00000150: 4a94 f0bc 46a4 9e3b af82 69bc ef46 e7bc
00000160: 4b19 2d3d fb71 71bb caf3 23bd 234f a13c
00000170: 3287 94ba 0638 a13c 73dd e839 f91b f6bc
00000180: 9eeb f5bc 2e69 85bc 6b9c 943b 6508 cdbc
00000190: 040e fcbc c2e9 fb3c 577c 92bc 2a9c 883a
000001a0: ead3 0bbd 7e4f 2dbd d87f bf3c 7e7c 8b3c
000001b0: c55e 743b 21a0 a7bb 247e 34bd 21fa a33c
000001c0: ac9d a93c 679f 17bd 38fb 403c 68be 353c
000001d0: 9421 5fbc 6598 1cbd f5ca 2cbd 5349 013d
000001e0: 20b9 393d 87f3 263d ba2c cf3c ad79 b73b
000001f0: 1395 813c b481 163d 1748 b0bc c981 b0bc
00000200: 549f b4bb 50e1 69bc 1a00 acbc ad75 e63c
00000210: a07b 883c dfd5 4f3c 46fb 9cbc 748c d13c
00000220: c9d0 d8bc 92be bc3c 6786 0dbd e8d6 ca3c
00000230: adfb 73bc 8482 8dbc fa8d 983b b45a 6fba
00000240: c5e8 0abd 7e52 83bc 3e46 debc 150a 3abc
00000250: 7d55 573c 3e04 f73c 6ea2 15bc 1f95 8d3b
00000260: e0e8 be3c d644 f0bc 6153 abbc d9e9 f03c
00000270: ce4b fcbc 6cb8 2abb c26c 633c ee6f 1cbd
00000280: d39e 1b3c ec89 5e3c 656c cebc e8c4 643c
00000290: 8717 1abc 3b43 4c3c 1bf6 2a3d d2bc 173d
000002a0: e372 0a3c 856a f23c 92a3 c1bc 7f80 6e3c
000002b0: 3ebd f539 82c0 9d3c f165 cb3c 92e1 e53c
000002c0: 73af dfbb 99fd 9fbc 90da 253c 0d06 56bc
000002d0: 4ab8 50bb cad2 3bbd ae83 e63a 3aeb 663b
000002e0: 1093 663c 50c2 29bd f585 033d 8af0 873c
000002f0: a470 08bd abed 27bd 0710 0cbd 6bdf d43c
00000300: b8d2 22bd 8ee8 90bc a7e7 ddbc 72f7 d8bc
00000310: f183 38bd e10e 3e3c 8a18 11bd 627a 7f3c
00000320: 2a03 babc 43df 7cbc a449 763c f0ee 5b37
00000330: b4a2 293c ad88 19bc 4828 8f3a 1023 d2b9
00000340: 8510 313c ea74 27bd 336f b7bc 075a ca3c
00000350: 6b7b df3c 28be f3bc 01f6 623c a45d a33c
00000360: ca72 4b3c e48a e7bc b651 2bbd 6168 a13c
00000370: 30ba c0bc 08d7 ba3c 92c2 56bb f1b7 793b
00000380: b4b6 ccbc 33ff 213d 2e76 193d a076 8bbc
00000390: 83c2 143d 01b9 243d ca56 c33c 94be 8fba
000003a0: 8bab 4ebc 01fb ad3c f973 09bd 671d 00bd
000003b0: 35ef 163d 67c9 f8bc 847d c2bc f16f 49bc
000003c0: 19f2 093b 9da6 23bc 0f8f dfbc 5ddb 85bc
000003d0: cc67 c8bb 2204 93bc ef93 23bd cee3 a3bb
000003e0: 2840 183c 51f6 373c 9dd3 fa3c 8a31 0f3a
000003f0: 6fe4 5bbc 71d9 18bc dfb2 a1bb 1874 7bbc
-0.0055222046 0.01840025 -0.022985836 -0.0079357745 0.009363931 0.028873786 -0.0172923 0.02116715
-0.011623636 0.0140300235 -0.014027218 -0.009388554 -0.024752414 -0.0005700086 -0.028402505 0.010036952
-0.012376125 -0.004013683 0.010075063 0.008303804 0.033856813 0.029298332 -0.005607992 -0.014799289
-0.025393337 -0.023697367 -0.01280935 0.010297387 0.028898463 -0.009037857 -0.022037478 0.018898606
-0.0074433316 -0.0018157809 0.028348982 0.007068761 0.020816805 -0.0018817363 0.023046097 0.02505638
-0.02359577 -0.00082978513 -0.016370902 0.031896196 -0.008432035 -0.016210688 -0.03900683 -0.009748116
-0.019900437 -0.019912697 0.0303817 -0.009678486 0.021584861 0.0060170735 0.042358853 0.032534067
-0.008193343 -0.010850758 -0.03092582 0.04082767 -0.011847572 0.0063995323 0.018216724 0.029540788
-0.01595656 0.02088812 0.01413586 -0.023434842 0.011484865 0.0117336335 0.012807244 0.023193233
-0.040955257 -0.023486666 0.016713534 -0.023668533 -0.039260376 -0.027149947 0.013630522 -0.0058996766
0.012688796 0.039327376 -0.025740271 -0.027407398 -0.029367585 0.0048413603 -0.014252349 -0.028232066
0.04226045 -0.003684162 -0.040027417 0.019691056 -0.0011331795 0.019680034 0.0004441548 -0.030042635
-0.030019578 -0.016285505 0.004535248 -0.025028417 -0.030768402 0.030751113 -0.017881555 0.0010422517
-0.034137644 -0.042312138 0.02337639 0.017027136 0.0037287932 -0.0051155244 -0.04406561 0.020016732
0.020705067 -0.037017252 0.011778645 0.01109276 -0.0136188455 -0.038231272 -0.042185742 0.031564068
0.045342565 0.04075959 0.025289882 0.0055992217 0.015818154 0.03674479 -0.02151875 -0.021546261
-0.0055121575 -0.01427491 -0.020996142 0.028132284 0.016660511 0.012685268 -0.019162785 0.025579669
-0.026466744 0.02304009 -0.034552004 0.024760678 -0.014891547 -0.017274149 0.004655597 -0.0009130642
-0.033913393 -0.016030546 -0.027133103 -0.011354943 0.013142941 0.03015339 -0.009132965 0.004320755
0.023304403 -0.029329699 -0.020913782 0.029408382 -0.030797865 -0.0026049865 0.01388091 -0.038192682
0.009498316 0.013582688 -0.02519817 0.013962962 -0.009405023 0.012467201 0.04173861 0.037045307
0.008450243 0.029591808 -0.023637567 0.014557003 0.00046871038 0.019256834 0.024828883 0.028061662
-0.006826335 -0.019530104 0.01012291 -0.013062966 -0.0031848126 -0.04585532 0.0017586851 0.003523542
0.014073148 -0.041445076 0.032110173 0.01659419 -0.033310547 -0.040998142 -0.034194972 0.02598544
-0.03975174 -0.017689016 -0.027088 -0.026485179 -0.045047704 0.011600227 -0.035423793 0.015593143
-0.022706587 -0.015434089 0.015032206 1.3109049e-05 0.010353733 -0.009370965 0.0010922039 -0.00040080445
0.010807161 -0.040882982 -0.022391891 0.024701132 0.02728053 -0.02975376 0.013852597 0.019942112
0.012417505 -0.02826447 -0.041825972 0.019703092 -0.023526281 0.022807613 -0.0032769782 0.0038104022
-0.024989463 0.039550018 0.03746622 -0.017024338 0.036318313 0.040215496 0.023845095 -0.0010966831
-0.012614141 0.021237852 -0.033557866 -0.03127804 0.03684922 -0.030369474 -0.023741491 -0.012294755
0.0021048842 -0.009988454 -0.027289895 -0.016339952 -0.006115889 -0.017946307 -0.039936002 -0.0050015217
0.00929264 0.01122816 0.030618483 0.0005462399 -0.013421162 -0.009329186 -0.004934653 -0.015347503

bias f4 [32]
00000000: f81d c93c e918 0ebc f592 84ba 46b4 80bb
00000010: 8556 04bd 4bcd 153b d0a3 083d 3cce 493b
00000020: f32e e93c 641d 823c 84af cd3c 3a8f e8bc
00000030: 4e82 a73c c3ec f43c de06 433c dfd4 82bc
00000040: e402 a7bc a597 893c 5b78 fa3c b32d d73c
00000050: 2f2c 1b3d 62f5 943b 789d 81bc 8d59 95bc
00000060: 0fb6 52bc 9fbf 873c e46e c43c 3481 03bd
00000070: 606b d43b 5897 8abb 61ca 99bc 26d6 71bc
0.024550423 -0.008672931 -0.0010114597 -0.0039277403 -0.032309074 0.002285796 0.03335935 0.0030793091
0.02846477 0.015883155 0.025108106 -0.028388608 0.020447876 0.029898053 0.011903493 -0.015970645
-0.02038712 0.016795943 0.030574968 0.026266908 0.037883934 0.0045458535 -0.015822157 -0.018231178
-0.012860789 0.016570864 0.023978658 -0.03210564 0.0064825267 -0.0042294674 -0.01877326 -0.01476053

weight f4 [640]
00000000: 8af2 803f 1bac 7d3f 7555 7e3f 3fce 803f
00000010: 1ba3 803f 635b 803f a0d8 803f d28f 7d3f
00000020: 1d5a 7c3f 21a2 7d3f 78fd 7c3f 381d 7f3f
00000030: da24 803f fcb6 7c3f 9731 813f 61e7 7d3f
00000040: 5af5 803f 636e 803f e598 7e3f e341 7c3f
00000050: a303 7f3f 2a3f 803f edf8 7b3f 4e18 803f
00000060: 4511 7f3f 49a5 803f 878b 7f3f d2cc 7e3f
00000070: 2135 7f3f 2a52 803f 983c 7e3f f21a 803f
00000080: 591f 7f3f 839b 7e3f 2f2f 803f 2274 7f3f
00000090: 58b8 7e3f f8fd 7c3f f800 7e3f 3b2d 803f
000000a0: 5402 803f 1a1f 7f3f 070b 813f d5c8 7e3f
000000b0: 4f8b 803f 595a 803f 62e5 803f c6b4 7c3f
000000c0: aa36 803f b296 813f f267 803f 9dc4 7f3f
000000d0: fa82 7f3f 70cc 803f 3eef 7f3f f75d 7e3f
000000e0: ac47 803f fe8b 7f3f 83a7 7d3f 793d 813f
000000f0: 03dc 803f eeea 7f3f 364d 803f f0bc 7f3f
00000100: 1b36 803f d002 803f 5e78 803f 16e7 7e3f
00000110: c52a 803f 8657 7f3f 3ef6 7e3f 2e4b 803f
00000120: 3bfd 7d3f ec42 7d3f 405f 7f3f e49c 7d3f
00000130: c06e 7e3f e7ad 7e3f a031 803f 2ca6 7d3f
00000140: 5dd5 7d3f a63e 813f 6109 7f3f dba4 7e3f
00000150: 7484 7f3f ca2f 7f3f 8fdd 7e3f 2f8b 7e3f
00000160: 14f2 7e3f 1d76 803f 7833 7f3f e04a 803f
00000170: 0828 7e3f b273 7c3f a157 803f 9350 803f
00000180: 88c8 7e3f 1d0b 813f 25a1 7e3f 8e7c 803f
00000190: 4eb7 7e3f 73a2 803f 00a6 803f dff3 7e3f
000001a0: b66f 7d3f 7112 7f3f 2a91 803f 8251 803f
000001b0: 7945 7e3f 02e6 7e3f 3f53 813f 7c3b 7f3f
000001c0: ba9d 7f3f 9556 7f3f d9b7 803f b43c 803f
000001d0: 0154 803f 9fcc 7c3f 8e48 813f 06e6 7e3f
000001e0: 7b8a 813f 9287 803f da89 7e3f 0c21 803f
000001f0: e0d4 803f cc30 7e3f 8155 7e3f d4f1 813f
00000200: 412c 7e3f 55f6 803f 88e7 803f f862 803f
00000210: 34e0 7d3f d42c 7e3f 41cb 803f a2cd 7f3f
00000220: 0fdd 803f 993f 7d3f 1c26 803f a4dc 7e3f
00000230: ed5d 7e3f d2e7 7f3f d7db 803f 957c 7e3f
00000240: 8520 803f 93de 7d3f e219 803f 024d 803f
00000250: ba76 7f3f 40ee 7f3f 5634 813f 2e58 803f
00000260: fe3c 803f 8ef4 7f3f c731 823f 18d2 7f3f
00000270: 53c5 803f 3bf0 7f3f 28c7 7f3f c3b2 803f
00000280: 7475 803f 8e56 803f 6397 7d3f 6e15 813f
00000290: 822c 813f b884 803f e86b 803f ddc1 7f3f
000002a0: 7998 803f 6429 7f3f 4e02 7d3f 87a8 803f
000002b0: 933a 7e3f 2b16 7f3f 1bb1 803f 545d 7f3f
000002c0: bed6 7e3f b5ad 7e3f c1c3 803f 8844 803f
000002d0: ec18 7f3f 0ce7 803f 9337 7e3f 0a24 803f
000002e0: 6d3c 7e3f efc0 813f 1919 813f 7424 803f
000002f0: 98e6 7f3f 5a25 823f 2480 7e3f 35c2 7d3f
00000300: a333 803f 3279 803f e1ee 7f3f 31d0 7e3f
00000310: 670e 803f f414 813f ca02 803f 050d 7e3f
00000320: 9a35 803f 5c22 7d3f 9f49 7f3f 504f 803f
00000330: cb83 803f c25f 803f 066e 813f efa9 7f3f
00000340: b24d 7e3f e69d 803f 8971 7f3f 285c 7f3f
00000350: b774 7e3f b822 7f3f e409 7f3f a01c 803f
00000360: f8ce 7e3f 2f60 7f3f 921a 803f 562f 7f3f
00000370: 7ddf 813f 84d6 803f e1bb 7e3f 162a 803f
00000380: f3e5 7c3f d935 7f3f 748c 803f a478 803f
00000390: 4d7d 803f 15cc 7f3f fd14 813f ad3c 813f
000003a0: 7b86 7f3f 4a0c 7e3f 70e0 7e3f 872c 7e3f
000003b0: af88 7b3f 06ab 803f db66 813f f35f 813f
000003c0: 8159 813f 5105 803f 3746 803f 178a 803f
000003d0: 0cdc 7c3f d270 803f 6e88 7e3f 2816 803f
000003e0: a37a 7f3f c152 7d3f 9285 7d3f a602 803f
000003f0: c400 7f3f 833c 803f cb91 7f3f 807c 7d3f
1.0074017 0.9909074 0.9934915 1.0062941 1.0049776 1.0027889 1.0066109 0.9904758
0.98575 0.99075514 0.9882426 0.9965396 1.0011246 0.9871671 1.0093259 0.9918118
1.0074875 1.0033687 0.9945205 0.98538035 0.99614924 1.0019276 0.98426706 1.0007417
0.99635726 1.0050441 0.99822277 0.9953128 0.99690443 1.0025074 0.9931121 1.0008223
0.9965721 0.9945604 1.0014399 0.9978658 0.99500036 0.98825026 0.9922023 1.0013803
1.000071 0.9965683 1.008149 0.99525195 1.0042514 1.0027572 1.0070002 0.9871334
1.0016682 1.0124114 1.0031722 0.99909383 0.9980923 1.0062389 0.9997443 0.9936213
1.0021873 0.99822986 0.9908373 1.0096885 1.0067142 0.9996785 1.0023563 0.9989767
1.0016512 1.0000858 1.0036733 0.9957136 1.0013052 0.99742925 0.99594486 1.0022943
0.99214524 0.9893024 0.99754715 0.9906752 0.9938774 0.99484104 1.0015144 0.99081683
0.9915369 1.0097244 0.99623686 0.994703 0.9981148 0.99682295 0.9955682 0.9943113
0.9958813 1.0036045 0.9968791 1.002285 0.9927983 0.9861404 1.0026742 1.0024589
0.99524736 1.0081517 0.9946464 1.0038011 0.9949845 1.0049576 1.0050659 0.9959087
0.9899858 0.99637514 1.00443 1.0024874 0.99324757 0.99569714 1.010353 0.9970014
0.99850047 0.9974149 1.0056106 1.0018525 1.0025636 0.98749727 1.0100267 0.9956974
1.0120386 1.0041373 0.99429095 1.0010085 1.0064964 0.9929321 0.9934922 1.0151925
0.99286276 1.0075175 1.0070658 1.0030203 0.9917023 0.9928715 1.0062028 0.99923146
1.0067462 0.9892517 1.001163 0.9955542 0.9936207 0.99963105 1.006709 0.9940885
1.0009924 0.99167746 1.0007899 1.0023501 0.9979054 0.99972916 1.0094097 1.002691
1.0018613 0.99982536 1.0171441 0.9992995 1.0060219 0.9997594 0.99913263 1.0054554
1.0035844 1.0026414 0.9905912 1.0084665 1.0091708 1.0040503 1.003293 0.99905187
1.0046531 0.9967253 0.9883164 1.005143 0.9930813 0.996432 1.0054048 0.9975178
0.9954642 0.99483806 1.0059739 1.0020914 0.996474 1.007051 0.9930355 1.0010998
0.9931095 1.0137004 1.0085784 1.0011125 0.99961233 1.0167649 0.9941428 0.9912446
1.0015758 1.0036986 0.99973875 0.99536425 1.0004395 1.0084519 1.0000851 0.99238616
1.0016358 0.98880553 0.9972171 1.0024204 1.004022 1.0029223 1.0111701 0.99868673
0.99337304 1.0048187 0.99782616 0.99749994 0.9939684 0.9966235 0.99624467 1.0008736
0.9953456 0.9975614 1.0008109 0.99681604 1.0146328 1.0065465 0.9950543 1.0012844
0.98788375 0.9969154 1.0042863 1.0036817 1.0038239 0.9992078 1.008453 1.0096642
0.99814576 0.992375 0.99561214 0.99286693 0.9825544 1.0052192 1.0109514 1.0107406
1.010544 1.0001622 1.0021428 1.0042142 0.98773265 1.003443 0.99426925 1.0006762
0.99796504 0.989544 0.9903194 1.0000808 0.99610543 1.0018467 0.9983184 0.99018097

bias f4 [640]
00000000: 436a 15ba e96c ad3b 9ee8 2b3b f9e8 a4bb
00000010: 7e2d 2d3b b537 b3bb b9f5 45bb b845 963b
00000020: ab8d 85ba 1ec4 9f3b a63e 5dbb 7b7d 9abb
00000030: 664e b6bb 01dc b5bb 8fc5 c5bb 1ebc 383c
00000040: 26ad 43bb b3c0 973b cfb2 363c 00ed 30bc
00000050: d046 973b 99eb bc3b 7d38 f2bb 0bf1 d43b
00000060: 32e0 a13a b2a6 a2bb 4186 8abb ea27 1e3b
00000070: 9e65 85bb 5654 b3ba 12ec 323b 3f6c f1bb
00000080: 3fbe 5839 11f6 733c 186e 09bc 0432 82ba
00000090: 2eda 8abb edac c73b 39dd c33b 8ab6 5e3b
000000a0: 22d3 183a 03aa 283b e6c7 cdba 03a5 963b
000000b0: 841d 5cbb 7f13 5fbb 8a6e 07bc a44b 003c
000000c0: 761d 31bb 8378 66bc cf35 993a 6add 77bb
000000d0: be1d 3dbb 690b ba3b bf72 c83b 0089 a9bb
000000e0: 2249 cc3a 646d 0dbb bb22 e6bb 12e2 373c
000000f0: b121 ccbb d957 0b3b bedb 41b9 8de7 e23a
00000100: 8845 39bb 80c9 ce3a 6328 88bb ee44 a53b
00000110: 9f6a 1dbb fee8 533b a4ee 6e3b 875c 5cbb
00000120: 0a86 fbb9 ad3e 553c 13a6 183c 7d19 5ab9
00000130: 2c98 d4bb 8fe5 2a3c 4131 e03b f062 243c
00000140: 8ff4 cc3b d8d8 afbb 2540 93bb e88f 99bb
00000150: e816 f4ba d4cb 06bb 11c8 34ba 0db1 dbbb
00000160: 0105 4abb c4f6 303b 5a64 3c3a e447 1ebb
00000170: 53d5 d13b a20b 733c 6a3d 2abb 2fd1 16bb
00000180: c6b4 993b 1a1d ffbb 37ea a83b d2c2 75bb
00000190: 71af 423a d634 bb3b 0e08 f9ba 8e55 ecbb
000001a0: 22ae a03b 2b3e 69ba 9e1c 55bb ecc4 1cbb
000001b0: a2e3 063c e7da 9d3b 4fc5 22bc 449d a2b9
000001c0: a01a 4a3b 846a edb9 5c22 abbb 4d94 4fbb
000001d0: de67 543a 30bb 1c3c ea2f 15bc b018 8d3b
000001e0: 7811 4e3c bc81 9f3b 6742 b0bb 0aeb 063c
000001f0: 968c 4b3c af93 14bc f146 82ba f15d 2e3c
00000200: a704 96bb 2eea 6fbb e4dd a7bb 296a 9cbb
00000210: d9c0 013c 35ea 033c 7c51 c1bb 033a 343b
00000220: 34be f5bb db29 363c aee0 7b3a c3ce 8d3b
00000230: 9f40 c93b eebc 18ba a77e debb 0b84 c53b
00000240: 2fcf 09bb ff36 e33b b2e3 a13b 3f07 26bb
00000250: 0fc5 b63a 51d3 413b f11b 493b 4500 aa3a
00000260: 2070 2fbb ffe4 a63a 62b0 50bc 5ec5 393b
00000270: 2ad8 dfbb 1b27 363b 75ee 1abb dd2d bbbb
00000280: 15c9 863b 863d 353b 5e58 3cbc 9403 903b
00000290: 7eb9 3e3c 6b04 943b 295f 5d3b f42d 7aba
000002a0: e535 923b 295f 99bb 8a3e 9db9 18b5 4d3b
000002b0: a1c9 1dbc 6478 7bbb 8562 df3b 233b 54bb
000002c0: 71ee 89bb a987 1ebc 453c c63b df6e 603b
000002d0: e54c ae3b 1d83 08bb 3780 f53b abf9 89bb
000002e0: f60b beba bf1f 61bc 8bb9 a0bb 8c02 87bb
000002f0: af7f 873b 90f2 a5ba b263 dc3b 5742 f93b
00000300: 200b 7abb 5ae4 9bbb c740 d7bb 702d f43a
00000310: d89e b8bb bcbf 75bc 04a1 20bb 04ea 1c3c
00000320: 3011 8dbb 4fac 0e3c f32f 743b 346a aeba
00000330: 79a6 c03a 52f8 71ba c78b 54bc ba6a 09b9
00000340: 7097 ba3b 3046 99bb d495 00bc af5f 893b
00000350: 5ce3 723b 193f 803b b395 6b3b 38e3 3bbb
00000360: 0db5 813c bcb9 72ba 96d2 1ebc e03e e73a
00000370: 5a96 353c f900 be3b 1f19 2abb 6824 74ba
00000380: fbe7 42bb 7f5f a93a 09a7 8d3b 4c5d 1d3b
00000390: c4ae 843b 8403 bdba 9ba3 b439 bbbb 2d3b
000003a0: a486 983b a79b 1d3c b5a3 a0bb 2755 babb
000003b0: 125f 943c 0593 08bc e4cd 2a3b f005 c0ba
000003c0: 22f3 26bc 6659 71b9 a345 11bb 6ccd 7dbb
000003d0: 3db6 433c f2c0 58bb def1 aa3b 1a39 02ba
000003e0: fc70 ff3a 16d5 1a3c c138 dbb9 73c5 fabb
000003f0: 50d6 003b 8750 a43a 771c 493b a392 f8bb
-0.0005699733 0.005292524 0.002623118 -0.0050326553 0.002642482 -0.0054692873 -0.0030206277 0.004585948
-0.0010189315 0.004875674 -0.0033759265 -0.0047146655 -0.005563545 -0.005549908 -0.0060355137 0.011275319
-0.0029857843 0.004631126 0.01115103 -0.010798693 0.004616596 0.00576539 -0.007391988 0.006498461
0.0012350141 -0.0049637193 -0.00422743 0.0024132677 -0.0040709516 -0.001368175 0.0027301353 -0.0073676403
0.00020670237 0.01489021 -0.008388065 -0.0009933119 -0.004237435 0.0060936124 0.0059772995 0.0033983313
0.0005829801 0.00257361 -0.0015699833 0.0045973076 -0.0033586929 -0.003403872 -0.008266101 0.007830534
-0.0027025617 -0.014066818 0.001168901 -0.0037821182 -0.002885684 0.0056776297 0.0061171944 -0.0051738024
0.001558576 -0.0021580094 -0.007023183 0.011223333 -0.0062296023 0.0021262078 -0.00018487775 0.0017311439
-0.0028270204 0.0015776604 -0.004155205 0.0050436174 -0.002401985 0.003233492 0.003645816 -0.0033624487
-0.00047974318 0.013015431 0.009316939 -0.00020799595 -0.006487867 0.010430708 0.006841809 0.010033354
0.0062547396 -0.005366426 -0.0044937306 -0.0046863444 -0.0018622549 -0.0020568268 -0.00068962673 -0.0067044557
-0.0030825736 0.0027002553 0.00071865844 -0.0024151737 0.006403604 0.014834316 -0.0025976547 -0.0023012867
0.0046907393 -0.0077854516 0.0051548737 -0.0037500155 0.00074266555 0.0057130856 -0.0018999593 -0.0072123474
0.0049035707 -0.00088975084 -0.0032518278 -0.0023921086 0.008232983 0.004817355 -0.009934737 -0.0003101622
0.0030838624 -0.00045283523 -0.005222602 -0.0031674088 0.00081026356 0.009566113 -0.009105662 0.0043059215
0.012577407 0.0048677605 -0.0053790095 0.008234749 0.012423655 -0.009068414 -0.0009939355 0.010642515
-0.0045781913 -0.0036608088 -0.005122887 -0.0047733975 0.007919514 0.008051445 -0.0058996063 0.0027500398
-0.0074994806 0.011118378 0.000960837 0.0043276264 0.0061417366 -0.00058264926 -0.0067900005 0.0060277036
-0.0021028032 0.0069340463 0.0049404735 -0.002533391 0.0013944226 0.0029575417 0.003068682 0.0012970051
-0.0026769713 0.0012733041 -0.012737365 0.00283464 -0.0068311887 0.0027794305 -0.0023640667 -0.0057122544
0.0041133263 0.002765508 -0.011495678 0.004394958 0.0116409045 0.004517128 0.0033778644 -0.0009543591
0.004461991 -0.0046805334 -0.0002999197 0.0031388458 -0.009630592 -0.003837132 0.0068171644 -0.003238388
-0.0042093326 -0.009675899 0.006049665 0.0034245772 0.005319225 -0.0020830103 0.007492091 -0.004210671
-0.0014499414 -0.013740479 -0.004904931 -0.0041201767 0.004135094 -0.001266079 0.006725752 0.0076067853
-0.0038153604 -0.0047574462 -0.0065690014 0.0018629264 -0.00563417 -0.014999326 -0.0024510035 0.009577278
-0.0043050274 0.008708074 0.0037260025 -0.0013306797 0.001469805 -0.0009230423 -0.012972779 -0.00013105097
0.0056943223 -0.0046775565 -0.007848222 0.0041923146 0.0037061786 0.003913772 0.0035947382 -0.0028669368
0.015833402 -0.0009259244 -0.009693762 0.001764264 0.01108321 0.005798456 -0.0025954915 -0.0009313286
-0.0029740322 0.0012922137 0.0043228907 0.0024011908 0.004049154 -0.0014420603 0.0003445417 0.00265096
0.0046547223 0.00961963 -0.004902328 -0.0056864205 0.01811174 -0.008335833 0.0026062662 -0.0014650207
-0.010189803 -0.00023016855 -0.002216675 -0.0038727177 0.011945304 -0.0033073989 0.005216821 -0.0004967615
0.0019488628 0.009450218 -0.0004181322 -0.0076529323 0.001965899 0.0012536206 0.0030687132 -0.00758584

weight_ih_l0 f4 [512, 32]
00000000: a9da 703d ae90 bfbd c0e3 78bd 9eba b93d
00000010: 230e 983c 07f3 163d b19c 883d 7da0 863d
00000020: 7100 48bd 008b 56bd 3079 993d 5055 993c
00000030: c074 97bd 591a 5f3d edad 4db9 e7c5 093d
00000040: d7d1 5e3d 49e5 7abd c6eb 063d 678b a0bd
00000050: d7b5 793d 8e01 2f3d a940 1c3d c4fe 80bd
00000060: 914c 96bd dcfe ba3d 9331 573d d441 133d
00000070: e8fa a83d 3988 2cbd 80a5 403d 8415 0d3c
00000080: 8b9b 8bbd 799a 243d 6686 28bd cda4 77bd
00000090: 144d 24bd c5a5 6a3d 5d91 903d d555 39bd
000000a0: aa6c 82bd d158 293d 6e67 7a3d 24d7 47bd
000000b0: 1c9e 05bd 10a9 2b3c 8972 9fbd b4f3 633b
000000c0: f115 0e3d e098 6d3b c63a 25bd 543d 333d
000000d0: f83f 6b3d e71e adbc f6ab a3bd f674 733c
000000e0: f20b 2bbd 58bd 3c3d debd a8bd 5c5e dcbc
000000f0: 6659 873d f844 9f3d da16 aabd 5278 83bd
00000100: 5385 853d 787e 753d bc86 623d 12a9 b6bd
00000110: 00a7 eb3c 051d 85bc f4f4 23bd 68b7 243d
00000120: e076 6a3d 0dac 0fbd 9b96 9c3d b129 a53d
00000130: f399 14bd b9af d2ba 98ab 0ebd ba62 233d
00000140: d678 5abd ab68 a73d 440d 9e3d 33f1 6a3b
00000150: e1a9 99bd bccc b8bd 1326 563d 9a57 0bbd
00000160: 7bcc c53c 5413 89bc badc 6ebb e108 b23d
00000170: c299 c2bc 9f23 c2bc b04f 0b3d 75a2 59bd
00000180: cbc3 81bd ffb1 ab3d 2287 2e3c 1c7f 72bd
00000190: 8bc9 61bd bbca 053d 57ee 34bd 873e bfbd
000001a0: 07e3 5b3d bcbd 19bd 36ab 7cbd d15c ed3c
000001b0: 2da9 00bd 4108 093c e245 0ebd 1cd4 a4bd
000001c0: 72cb 863b 7601 abbc 0bfc 69bd 06b9 3fbd
000001d0: 37e2 6cbd 74e2 89bd d60d fcbc fb11 523a
000001e0: 46cd c73c 705b 97bc d903 b23d 3bf6 ebbc
000001f0: 9234 6d3d 8f0f 9bbd 9c49 0fbd f8a7 a43d
00000200: 4445 0a3c 69c1 d93c 04b5 89bd aed5 eebc
00000210: d5d0 ba3d 7ac1 2bbd e8f8 90bd 5d11 003d
00000220: bee3 163c 8796 6c3d 8ebc bbbd fd7f 8f3b
00000230: 0d62 1b3d dd3a 203c 2e77 08bd 1ab5 9c3d
00000240: 3b22 3c3d 0648 81bd d68c 273d e999 98bd
00000250: 38fa a53d bb2b 723d 6549 4f3d 3618 81bd
00000260: 0f2b fb3c c7d8 13bd 7787 f2bc fe4a 8d3d
00000270: f465 273d 8d29 823d a064 213d 1866 12bd
00000280: aa9f 163d 454b aa3d fd31 78bd 28b2 8e3d
00000290: 36e3 a03d 751a f3bb df35 c2bd f1c3 483d
000002a0: c85c 653d 6a45 6f3d c5de ecbc 1f4e b7bd
000002b0: c1cd 383d 3f8b 83bd 2862 51bd 1824 46bd
000002c0: a3db 923c d428 7f3d b597 86bb 2e73 c43c
000002d0: 9f80 b93d a29c 823d aca3 223d 79e3 b93d
000002e0: b797 803d 7867 b0bd ea72 3fbd 2bc7 683d
000002f0: 3ef9 3a3d 6302 573c 74fb bcbd 3a0c 73bd
00000300: db8f 223d 8d4c e23a c9c7 05bd 3338 003d
00000310: 9835 51bd 9933 51bd 3a63 70bd fb62 973c
00000320: f0d0 97bd 87b8 043d c30c 303d f006 2c3d
00000330: 0aea 763d 5303 993d fecd 3fbc 5466 563d
00000340: 4d80 a1bd 51e4 013c 19f1 44bd 12f7 723d
00000350: 19eb a13d 6fb5 dabb 9f05 043d 8e53 90bd
00000360: b559 cbbc 9bef 5ebd 830e efbb a9ab 95bd
00000370: eb1a 8a3c 22b6 b7bd 545f 86bd e312 6fbd
00000380: 2ec1 863b 1e24 5f39 baf7 f4bb b453 bebd
00000390: 10ef 343d 1b75 2bbd 185e f33c 4952 ebbc
000003a0: 0017 a2bc 38cb ec3c 99d0 e2bc 272a 9bbc
000003b0: a989 703d 1870 2bbb 4c10 aabd 66d8 053c
000003c0: a951 553d c5c6 5e3d 6497 493d dcc0 8dbd
000003d0: 89ef 743d 31c2 8dbc cd7d 88bd 308e e93c
000003e0: 91ea 4e3d 1a81 d13c 9e83 393d 3851 583d
000003f0: 052f 86bd e485 283d f80a 90bd 593f 5f3d
0.05880228 -0.09353767 -0.060764074 0.090687975 0.018561428 0.036852863 0.066705115 0.065735795
-0.048828546 -0.052378654 0.07493818 0.018717438 -0.07395315 0.054468486 -0.00019615116 0.033636
0.054399338 -0.06125382 0.032939695 -0.07839089 0.06096443 0.042726092 0.038147602 -0.06298593
-0.07338823 0.09130642 0.052537512 0.03595145 0.082509816 -0.0421221 0.047032833 0.008611087
-0.06816777 0.04018638 -0.041143797 -0.0604599 -0.04011257 0.057286996 0.07058976 -0.04524787
-0.06368382 0.041344468 0.061133794 -0.04878916 -0.032621488 0.010477319 -0.07785518 0.003478271
0.034688894 0.003625445 -0.040339254 0.04375966 0.057434052 -0.0211329 -0.07991783 0.014859429
-0.04175944 0.04607901 -0.08239339 -0.026900463 0.06608848 0.077768266 -0.0830514 -0.06419434
0.0651957 0.059935063 0.055304274 -0.08918966 0.028766155 -0.01624919 -0.040028527 0.040213972
0.057242274 -0.03507619 0.07645913 0.08064593 -0.03627963 -0.0016074098 -0.034831613 0.039889075
-0.053337894 0.08174261 0.07717374 0.0035849332 -0.07503105 -0.09023425 0.052282404 -0.03401909
0.024145355 -0.01673285 -0.0036447481 0.086931 -0.023754958 -0.023698626 0.034011543 -0.053133447
-0.06336173 0.083835594 0.010652335 -0.059203252 -0.055123847 0.032664042 -0.04417261 -0.09338098
0.053683307 -0.03753446 -0.061686717 0.028974922 -0.03141134 0.008363784 -0.034734614 -0.08048269
0.004113608 -0.02087472 -0.057125133 -0.04680731 -0.057832923 -0.06732646 -0.030768316 0.00080135436
0.024389874 -0.018476218 0.0869214 -0.028803935 0.057911463 -0.07571327 -0.03498231 0.0803985
0.008439366 0.026581483 -0.06723979 -0.029154625 0.09121863 -0.04193256 -0.07078725 0.03126656
0.009209571 0.05776074 -0.09166823 0.004379271 0.037935305 0.009779659 -0.033316784 0.0765173
0.045931082 -0.063125655 0.040905796 -0.07451231 0.08104366 0.059123736 0.050607104 -0.06303446
0.03066018 -0.036095407 -0.02960561 0.06899069 0.040868714 0.063555814 0.039402604 -0.035741895
0.03677336 0.08315138 -0.060594548 0.06967574 0.07855837 -0.0074189254 -0.09482931 0.04901499
0.055996686 0.058415808 -0.028914819 -0.08950447 0.045118097 -0.064230435 -0.051119 -0.048374265
0.017926997 0.062294796 -0.0041074404 0.023980703 0.09057736 0.063775316 0.03970687 0.0907659
0.06278937 -0.08613485 -0.04674045 0.056830566 0.045647852 0.013123128 -0.092276484 -0.059337832
0.039687973 0.0017265246 -0.032661233 0.031303596 -0.0510765 -0.051074598 -0.05868838 0.018479815
-0.074128985 0.03240254 0.04298092 0.041998804 0.06028179 0.07471337 -0.011706827 0.05234368
-0.078857996 0.00792797 -0.04808149 0.059317656 0.079061694 -0.0066744606 0.032231923 -0.07047187
-0.02482305 -0.054427724 -0.007295431 -0.07308132 0.016858539 -0.08970286 -0.06561151 -0.05836762
0.0041123843 0.00021280392 -0.0074758204 -0.09293309 0.0441733 -0.041859727 0.029707953 -0.02872576
-0.019786358 0.028905496 -0.027687358 -0.018940998 0.058725033 -0.0026159342 -0.0830389 0.008169269
0.05207983 0.05438878 0.049216643 -0.06921551 0.05979875 -0.017304512 -0.066646196 0.028510183
0.05051667 0.025574256 0.045291536 0.05281183 -0.06551937 0.041143313 -0.07033342 0.054503772

weight_hh_l0 f4 [512, 128]
00000000: 15d1 5b3c 1f95 dabc ff2f 41bd 136c ddbc
00000010: a135 623d dc6c bd3d fd4b 7bbd e7f9 433c
00000020: 487d 903d 94e5 a3bd 6fab 4cbc 39d0 37bd
00000030: 28a8 623d 489d 24bd 72e5 cd3d e56c 843c
00000040: 4ce5 c8bd f082 b13c e355 81bc 0204 37bd
00000050: 3211 81bd d469 9b3c 57f1 d2bb b515 37bc
00000060: bc30 653d 21e6 aa3c f79b 8abd 818a a6bd
00000070: 07fa 823d 1afb 963d 1634 9abd 206e b63d
00000080: 1834 84bd 000a 513d fd2d 223d 5ac6 84bd
00000090: df67 27bc 6030 143d 86d0 82bd 8d03 603d
000000a0: 6ca2 93bd 6cac 4d3d 4569 77bd e96a 913c
000000b0: a4fb 87bb 7391 9ebc ef65 93bd 5854 85bd
000000c0: 5aa2 d7bc 7b02 f1bd 50cc f539 f786 843d
000000d0: 0a77 dd3c e4e2 b03b 813d b8bc f0e9 8d3d
000000e0: fd54 9abd 4fec af3d 4a4f a8bc 5f38 6b3d
000000f0: 7be9 073c 6984 8d3d 4ce2 40bd 2e26 1dbd
00000100: eb12 4e3d ffc1 9e3d b9a9 7a3d c8e5 83bd
00000110: d08b 15bd 31f2 303d b597 463d 3dd8 923c
00000120: b555 dc3d 662d a2bc ad14 fcbc 9f5c 7f3d
00000130: 4212 aa3d 2c00 22bc 91da bd3c 3afd cb3c
00000140: 06dc b33d 557d 42bd a0d6 d33c 6c22 933d
00000150: 43ad 763d 3fb5 78bd 7736 babd 4deb a33d
00000160: a71d 8ebd e5d8 263d e044 b0bd e365 933b
00000170: 96a6 73bd 69c5 3fbb df77 2abd e91a 77bd
00000180: 358d 84bc 1399 5f3c 50f6 14bd af26 00bd
00000190: 8537 13bc 7c45 9e3d 1dad d83c 0574 a63a
000001a0: e13d 94bc 4cc4 a63c 1ecb 48bc 80d7 16bd
000001b0: 2b09 8bbd 6f4b e1bd 585d c3bb 9849 813c
000001c0: 8aeb 9a3d 12d6 de3d dd1c cb3c caf0 9f3c
000001d0: 1c9d 17bd b826 883d b0ea b7bd 6eaa bb3d
000001e0: 82ff 07bb 5c18 b83d ea42 8d3d eb45 f33c
000001f0: 899a aabd 8435 37bd c113 5fbd 20ac 22bd
00000200: 0278 a1bc d813 a63d 6ad0 b73d 6e2e 923d
00000210: 0498 b5bc 005f febc 34ed 433d 337f 73bc
00000220: 22bc 23bd b165 ac3c 7d40 9f3b 17c6 18bd
00000230: 45a6 5e3d 6ddd bc3d 289e babd 42ce 993d
00000240: c88e 763d e4fd 493d e496 a7bd c460 d5bc
00000250: 0d6d 88bd 0b23 763c 682d babb d7c4 a2bd
00000260: fb40 6cbd 8606 24bd 4592 e1bc c71c b43d
00000270: 0866 393c a718 3b3d d408 acbc 68c1 01bd
00000280: 4a71 afbd c35e 8a3d 2572 933d a6bd 5fbd
00000290: ca65 a63d dcc3 18bd a825 e4bc f027 663d
000002a0: 8135 40bc 2991 fcbc b3d2 7d3d b330 563d
000002b0: ef49 fa3c 47d8 85bd 2ee4 753d baa1 063c
000002c0: 2ea9 183c 5381 bf3c 9cd6 9dbc def9 67bc
000002d0: 56ea 8abc 478e 2e3d a213 c43c 120c 463d
000002e0: b935 573b 653c 77bd 8d9d 1cbd 1f64 a13c
000002f0: 0e89 243d 9d9c c0bc f7a7 c83c 3cea a7bc
00000300: 4709 173d 5e39 e9bc 490b a73d 6592 9f3d
00000310: b09f adbc daae 3fbd 95c8 e73c 3594 8dbd
00000320: fc6f 6fbd e92e 83bd 463c 9e3c 3893 c03c
00000330: f4e7 e43b 2efd 8cbd e559 0bbd f5dc 86bd
00000340: 2a06 2cbc b9ac 293d ab91 9f3d c96e 203d
00000350: 72df 193d 5ddc 67bd cc95 093d 3127 8fbb
00000360: 3757 b0bc dbea 613b 86a5 26bd bbc2 81bd
00000370: 1116 e6bc b7e2 093d c915 b53c bc1c 88bd
00000380: 8105 0dbc 801d 99bd d95d 213d 405d 7d3d
00000390: 5db7 ffbc 92dc a9bd 0bf2 843d b1dc c13c
000003a0: 8aa7 6ebd a451 09bd 5e6e 35bd 95e6 463c
000003b0: b04c 0bbd 64e2 af3d b219 4ebd 87dc 8abd
000003c0: 4efa 403c 8fd8 f23c a5da 883d b1d1 283d
000003d0: 17be 9b3d cff5 b53d fb1b 4b3d 1a7b 6db9
000003e0: 4e6b 223d a955 5c3c b365 50bb a4e6 91bd
000003f0: bb81 15bd c80b 99bd 5375 05bd b4a4 0a3d
0.013416548 -0.026682435 -0.047164913 -0.027029073 0.055226926 0.09249279 -0.061351765 0.011961437
0.070551455 -0.08002773 -0.012492045 -0.04487631 0.055336148 -0.040189058 0.10053529 0.016165206
-0.0980936 0.021668881 -0.015788024 -0.044681557 -0.06302108 0.018971361 -0.0064374614 -0.011174609
0.05595468 0.020861687 -0.06768029 -0.08131886 0.06395345 0.073721126 -0.07529466 0.089077234
-0.064552486 0.051034927 0.03959464 -0.06483145 -0.010217636 0.036178946 -0.06387429 0.054690886
-0.07208714 0.050213262 -0.060403127 0.017751174 -0.004149871 -0.019356465 -0.07197177 -0.06510228
-0.026322532 -0.11768051 0.00046882266 0.06471055 0.027034301 0.005398141 -0.022490265 0.06929386
-0.075357415 0.08589994 -0.02054562 0.057426807 0.008295412 0.06910021 -0.047090814 -0.03836649
0.05031101 0.077518456 0.061197016 -0.06440312 -0.03651029 0.04319972 0.048484523 0.017925376
0.10758535 -0.019797038 -0.030771578 0.06234419 0.08304264 -0.009887736 0.02317551 0.024901021
0.087822005 -0.047482807 0.025859177 0.071843 0.06022383 -0.060719725 -0.090924196 0.080038644
-0.069392495 0.04073419 -0.08606887 0.00449823 -0.05948504 -0.0029261953 -0.041618224 -0.060328398
-0.016180614 0.013647336 -0.036367714 -0.03128689 -0.008985405 0.07728097 0.026449734 0.0012699371
-0.018095912 0.020357274 -0.012255458 -0.03682661 -0.06788858 -0.11000716 -0.005962055 0.015782163
0.07564457 0.108806744 0.024794037 0.019523997 -0.037015066 0.0664801 -0.0898031 0.09163366
-0.002075166 0.08989021 0.068975285 0.029696425 -0.083302565 -0.04472877 -0.0544622 -0.039714932
-0.019710544 0.08109254 0.08975299 0.07137762 -0.022167213 -0.031051159 0.047833636 -0.01486187
-0.03997434 0.021044584 0.0048599825 -0.03729829 0.054357786 0.09221921 -0.09112197 0.07510044
0.06019476 0.049314395 -0.08183077 -0.026047118 -0.06661425 0.015023003 -0.0056816824 -0.079477005
-0.057679158 -0.040045284 -0.027535567 0.08794551 0.01131583 0.045677807 -0.021000303 -0.031678587
-0.0856653 0.067563556 0.07199506 -0.054624222 0.081248835 -0.03729616 -0.027849987 0.05619043
-0.011731506 -0.030830937 0.061968517 0.052292537 0.030552832 -0.06535392 0.060032062 0.00821727
0.009317679 0.023377096 -0.019267373 -0.014158694 -0.016957443 0.042616155 0.023935143 0.048351355
0.0032838418 -0.06036033 -0.03823619 0.019701062 0.040169768 -0.023512179 0.024494154 -0.020497434
0.036874082 -0.028469738 0.08156449 0.077915944 -0.021194309 -0.04679761 0.028293887 -0.06913034
-0.058456406 -0.06405432 0.01931585 0.0235077 0.006985659 -0.06884228 -0.034021277 -0.06585113
-0.0104995165 0.041424487 0.07791456 0.039168153 0.03756661 -0.05660664 0.033590123 -0.0043686857
-0.021525962 0.003447226 -0.0406852 -0.0633597 -0.028086694 0.033663478 0.022105115 -0.06646106
-0.008607269 -0.0747633 0.03939614 0.06185651 -0.031215364 -0.082940236 0.064914785 0.023664804
-0.058265246 -0.033525124 -0.044294707 0.012139936 -0.03400868 0.085881025 -0.050317474 -0.067803435
0.011778427 0.029644279 0.06682328 0.041215602 0.07604616 0.08884775 0.04958723 -0.0002264794
0.039653115 0.013448157 -0.0031798899 -0.07124069 -0.036500674 -0.0747295 -0.032582592 0.03384848

bias_ih_l0 f4 [512]
00000000: 5c97 35bd 9ef1 4dbd c5aa 683d 560e 963d
00000010: 862c 843d c87e abbc 770f db3c f2eb 5b3c
00000020: 423e 833d 3c82 603c 1c96 2a3d 5bc0 4dbd
00000030: 63d5 2339 8e24 1e3d bae3 4c3d d602 7e3b
00000040: fd98 373a 0ae3 b83c 50c5 ec3c 9bab 013d
00000050: fe73 273d d6c0 b5bb 92ac 543c a4c5 5f3d
00000060: ed7a 363d da20 d8bb da33 083d 4b74 c4bd
00000070: 1652 79bd 71ec dcbc 619b f7bc 0afd a23d
00000080: 3400 193c b63b 5b3d dca3 4ebd 5ae9 6dbd
00000090: ee67 b83d b367 deba 4f74 69bd 92d1 6d3d
000000a0: 8edc 87bb 3307 2abd b2ed 97bc 9d34 e23c
000000b0: 6dc1 85bd c24e a23d be48 b23d 03a1 0abd
000000c0: e998 773d 501f ba3c bbe0 96bd fc45 c13c
000000d0: a8ed 1bbd 40d2 a83d e3c4 763d 4b69 b2bd
000000e0: aeac 85bd 8975 8e3d c34d 40bd 006b 06bd
000000f0: b7b0 a63d 5af3 bebd 5c91 9f3d e33c 9d3d
00000100: 47a8 e9bb 662e 53bd a88a 64bc 81a1 fd3c
00000110: 7bf9 133d ccb8 85bd 2230 12bd 19f6 65bd
00000120: f294 a83d 5d8e 873d 4fda 46bc 477b 94bc
00000130: 2aee 923d 32d4 71bd 0fe1 85bd a696 163d
00000140: 4ceb b1bd 5f1b 8ebd ff36 aa3d 1382 adbd
00000150: 1738 b6bc b24c 033d 9dbf 90bd 05c8 593d
00000160: e77d 323d 67ff f1bc 3f7b e43b fca9 0cbd
00000170: bfdd 4f3d 22f0 83bd 319e a8bd e1ea 8a3d
00000180: 472d 57bc dc8d 31bd 1535 f83b 53ce a1bd
00000190: 57e5 c3bc e5d8 3d3d 1cbf 8e3d f94d 81bd
000001a0: bc25 6fbd 1da9 a53d 0ee9 51bd a341 143d
000001b0: 1c89 fb3c d18f 41bd ab7b 833d 5dfb 3c3c
000001c0: 2583 913d 1d95 b33d ed9a 4a3d 4958 353d
000001d0: 8a15 7c3d 3e67 093b f989 3b3d 013e 6cbc
000001e0: 81e4 1d3d da16 913c ce82 efbc 46c6 113d
000001f0: f5a2 68bd 2e24 483d 654d a7bd 1b23 dabc
00000200: 1ede 21bd 2b73 123d f397 873d f94a 56bd
00000210: 20e2 a23c 7234 4dbd 2ed7 9e3c ba37 babc
00000220: 9d67 203c 9472 0dbd f210 81bd 357b 1dbd
00000230: fa3a debc dc9d 053c 1754 01bd ee83 953b
00000240: 2ea8 28bd 5c82 b1bd fed8 a6bd a36d bc3d
00000250: bdaf ea3c 0126 c7bd 7af1 80bd 787e 423d
00000260: 5e45 413c 01ba ce3a 9d97 a03d e079 b5bd
00000270: 2d97 81bd 6392 043d c0b2 3c3d 194d 54bd
00000280: b274 f8bc a3a4 8bbd 4846 573d 673e 2dbd
00000290: eb3b 433d a0c3 963d 4a64 933c bf4f 10bb
000002a0: 4c5b b63d 9113 80bd 4317 893d 69e1 773b
000002b0: 5bad 683d 9a78 003b 334d ad3d 1a62 4c3c
000002c0: 8176 9a3d 07f2 c23d 246e 703d b486 10bd
000002d0: d7ee 943d 4500 edbb 1c3e 57bd a6a6 5739
000002e0: a5ee 3ebd f9a3 c0bd b267 853d b933 783d
000002f0: 90f8 013d c03a dfbc d87f 943d 7d05 94bb
00000300: c75c 35bd 1827 9d3d e151 6b3d d710 5fbd
00000310: 7880 63bc f5e1 6dbd 25b2 af3d 9a5f e93b
00000320: 77f2 e83d 8161 35bd b7ea 963c 3fe3 45bc
00000330: cd3f 1cbc 256e 06bd 0e34 9f3d 7870 343d
00000340: 8c42 c7bd 5c4c 853c 8929 c43b ef82 b63c
00000350: 87b5 8ebd cbcd 843d 5e97 033d 1674 6cbd
00000360: bc21 83bd 4d62 1ebd 21cb 243d b8de debc
00000370: 9d52 8abc 2f23 3ebb 4e2b b03d f38f 8a3d
00000380: f78b 6f3d 7988 633d cde3 273d 0bce 76bd
00000390: 3846 b4bc e967 953d 8128 8d3d 85a5 fa3c
000003a0: 2285 643d e472 4b3d ffc6 70bd bc73 8b3d
000003b0: 1ec5 87bb 487d 8f3d c029 603d be8b 15bd
000003c0: 6615 2d3c 8ad9 ee3b d663 ad3d fd41 7d3d
000003d0: bb8a 1abd eb8a ddbb c5ee acbd 7b30 e3bc
000003e0: d94a 723a a980 b5bc 56da c1bd 1864 1d3d
000003f0: c686 55bd 5ab4 e7bc b6a5 9dbc 141c 513c
-0.0443338 -0.050279252 0.056803484 0.07326953 0.06453805 -0.020934477 0.026740773 0.013422953
0.06408359 0.013702925 0.04164706 -0.050232273 0.00015624384 0.03860908 0.050021864 0.0038759015
0.0007003693 0.022569198 0.02890268 0.031657796 0.040882103 -0.0055466695 0.012980597 0.054631844
0.044550825 -0.006595713 0.033252575 -0.095924936 -0.0608693 -0.026968213 -0.030225458 0.079584196
0.009338427 0.05352374 -0.050449237 -0.05808387 0.09004198 -0.0016968161 -0.056995686 0.05806119
-0.004146165 -0.041510772 -0.01854596 0.027612979 -0.06531034 0.07925178 0.08705281 -0.03384496
0.06044856 0.02272001 -0.07367083 0.023592941 -0.038068444 0.08243227 0.06024636 -0.08711489
-0.06527077 0.06956012 -0.04694916 -0.032816887 0.081391744 -0.093237594 0.07791397 0.07677629
-0.007130656 -0.05155792 -0.013949074 0.0309608 0.036126595 -0.06529388 -0.035690434 -0.0561429
0.08231534 0.066189505 -0.01213701 -0.01812519 0.071743324 -0.059040256 -0.06537067 0.036764763
-0.086874574 -0.06938814 0.08311271 -0.08472075 -0.022243543 0.032055564 -0.07067797 0.05316927
0.0435771 -0.02954073 0.0069727 -0.034341797 0.050748583 -0.06442286 -0.082332976 0.06783081
-0.013133354 -0.04334818 0.0075746872 -0.07900681 -0.023913069 0.046349425 0.06970045 -0.063137
-0.058385596 0.080888964 -0.05124765 0.03619541 0.030705027 -0.047256295 0.06420072 0.011534539
0.07105092 0.087686755 0.049464155 0.04427365 0.06154398 0.0020966078 0.045785878 -0.01441908
0.038547996 0.017711092 -0.029237177 0.03558948 -0.056796033 0.04886263 -0.08169059 -0.026628068
-0.039518468 0.035754364 0.06620779 -0.052317593 0.019883215 -0.050098844 0.019389715 -0.02273165
0.009790328 -0.0345331 -0.0630206 -0.038447578 -0.027127732 0.008155312 -0.031574335 0.0045628464
-0.041176014 -0.08667442 -0.08146857 0.09200599 0.028648252 -0.097240455 -0.06296058 0.04748389
0.011796324 0.0015771986 0.07841418 -0.088611364 -0.063276626 0.032366168 0.046068907 -0.05183134
-0.030329082 -0.06818511 0.05255726 -0.04229584 0.047664564 0.07361531 0.017992157 -0.0022020189
0.08904132 -0.06253732 0.0669389 0.0037823564 0.05680595 0.0019603134 0.0846199 0.012474561
0.07542134 0.09518819 0.05869879 -0.035284713 0.072721176 -0.007232698 -0.052549466 0.00020566079
-0.046614308 -0.09406275 0.06513919 0.0605962 0.03173119 -0.027249694 0.07250947 -0.004517256
-0.044277932 0.07673472 0.057451133 -0.05445942 -0.01388561 -0.058076818 0.085789 0.0071219923
0.113743715 -0.04428244 0.018422468 -0.0120781055 -0.009536696 -0.032819886 0.077736005 0.04405257
-0.0972949 0.016271763 0.0059863967 0.02227923 -0.06968217 0.064845644 0.032126777 -0.057727896
-0.06402919 -0.038667966 0.04023278 -0.02720581 -0.016885096 -0.002901267 0.0860201 0.067657374
0.05848309 0.055550072 0.040988732 -0.06025509 -0.02200614 0.0729521 0.06892491 0.030596504
0.055791028 0.049670115 -0.058783527 0.06809184 -0.0041433712 0.070063174 0.054727316 -0.03651022
0.010564184 0.0072891163 0.08466308 0.06183051 -0.03772996 -0.006760945 -0.08443979 -0.027733078
0.00092427206 -0.022156077 -0.094654724 0.038425535 -0.052130483 -0.02828424 -0.019244056 0.012763042
