Single Battery Model/5. CNN-LSTM Models/model_B0007_discharge_mm.pth (torch, 432762 bytes, 15 tensors)

weight f4 [64, 3, 3]
00000000: 54a2 a53e 58fb df3c 555b 19be d0f5 cd3d
00000010: 6ba0 a2bd 0e9a a4be 9b30 7ebe df47 ff3d
00000020: 857a 4b3d b69a a7be b8ff 8e3e 6cd8 673d
00000030: 32da e13d 2582 a43e 69b2 89bc 56da 823e
00000040: ac9a 68be 4636 13be e441 1bbe 88ef 20be
00000050: 0cd9 97be b66a 943e 6cac a63e 5238 473e
00000060: d1a4 793d 931e efbd 60f6 7dbe 6345 8f3e
00000070: beab 953d 9993 9fbe 3425 01bd aa92 493e
00000080: dcb1 9fbe 3813 913e dbd0 7b3e a1b8 91be
00000090: 3c81 e6bc 5c09 96be 0fd2 6dbd a64b 6c3e
000000a0: bf65 183e 618a 18be 1dcb a03e 7bce 563e
000000b0: 6ca1 ac3c bb9f 323d 2d21 87be b570 913e
000000c0: d8c2 113e 327d a1be 3e72 c83d 3ae7 943e
000000d0: 59a6 433e 908e 9bbe 841c babd d218 4bbe
000000e0: 865c b4bd 6943 6abe 43c0 98bd c7c8 61be
000000f0: 27f3 e9bd b5dc eb3d f9a0 55bb bfe5 883e
00000100: fa79 86be 1108 5cbd bd17 00be 0599 c2bd
00000110: b762 6abe 92c6 74be 7e2e 0bbd f11f 8bbe
00000120: 4ac7 773e 4958 9a3e 9c89 edbb e0bf 633e
00000130: 5c77 6e3e 42f3 a73d d4c7 6fbe 7662 b7bd
00000140: 0cfb 3f3e 96dc 6fbe e474 ac3e d265 96be
00000150: 79c3 5a3d b321 e43d d5ca ac3e 3a42 4abe
00000160: c14a 803e 559c 51be 17b2 2a3e 5fac 533e
00000170: 6d74 11bd b062 89be 53ed b63e 81c7 35bd
00000180: acf3 9b3e b017 9cbe 223c acbe cd6e a7be
00000190: 20cc a73e 7fad e53d b159 b3bd 94ee 733d
000001a0: 9608 5abd 4658 17be 1ba7 6bbe dea7 c03d
000001b0: 6449 4d3d ee82 063c f479 483d 0101 6dbe
000001c0: 01f3 a8bd a6eb 973e 5236 6c3e 29cf 4fbe
000001d0: 81d0 20be 253d 3f3e c61b 93bd e10a a5be
000001e0: 1f1d 763d 885a 593e 7289 d8bd f312 38be
000001f0: c207 473e f72c 533d 97c6 893e 3ff6 aaba
00000200: ba60 833c c09b a9b6 00d0 a5be 10f8 80be
00000210: 215b 7b3e 2dc2 91bd 0c6b 59be 59a2 703e
00000220: 457c 02be da36 ac3e aaa0 f0bd d320 a93e
00000230: 97f4 ce3d 7ec7 debb c8c2 193e 97e4 f33d
00000240: 1d19 313e 334b 7dbd 5ede a1be 741a c3bd
00000250: 0042 61be 62b4 a43e 88b7 a1bd 960d 0f3e
00000260: b72d 0ebd 7b99 493e 6bb9 2b3d 5852 5bbe
00000270: 7844 45be 3278 303e c2c3 59be 2f35 8ebd
00000280: 6ffa 983e 4d42 d9bd 5c0d 063e 2b54 0dbe
00000290: 6478 203e a37c 293e 5c4f 7b3e f5e0 1bbe
000002a0: 4813 813c 6d67 8f3e fba7 84be b499 2fbe
000002b0: d3f9 053e 0254 9a3e 681d 0abe 3ce7 523d
000002c0: 0f64 273e 71dd 523d ed54 15be a0ae 3f3e
000002d0: 4723 b53d be84 633e f010 96bd d591 0f3d
000002e0: 67a4 98be 92b9 853e 6a5e 5e3e 22e7 413e
000002f0: c8cd 353e 9ddf 263e 5ba3 623e 079e 63be
00000300: 8a78 4b3e 58f7 6bbe 55c4 833e 0f61 8ebe
00000310: 969f 4f3d 601f c7bd f1fd 5a3e a348 643d
00000320: 6039 90bd d789 ad3d 9ff9 7abd 79df 9f3e
00000330: 4cc3 81be ea4e 9b3e 7538 ef3d 26d3 79be
00000340: b9f5 853e 66a3 0a3e 777a adbe e886 9abe
00000350: 6a79 d0bd 7aef a03d 9ec1 ad3e 971a 0b3e
00000360: d3e1 c03d 14ed 16be 11c6 9f3e 5944 553e
00000370: d235 22be 914a 98be d40f b0be b695 59bd
00000380: 08be abbe 7da6 e53c a207 4ebe e9af 05be
00000390: 1916 863e 5488 b33d f63b 1a3e 9c55 bc3d
000003a0: 677b 863e b4de cb3d dc5f aebd fc1d 91bc
000003b0: 5fa5 35be 8db5 083e c663 d6bd edfa 913e
000003c0: bc1a 89be 8977 4cbc 9382 4a3d df86 90bd
000003d0: 61e4 aebd cd68 2e3e 89cb 543d afad 413e
000003e0: da3a 3d3e 397d a5bc 048e 9d3e 670b 41be
000003f0: a64f 8e3e 79a5 febd 9201 3d3d 847a 66bd
0.3235041 0.02734153 -0.14976247 0.10056651 -0.079407535 -0.32148784 -0.24823229 0.1246488
0.04967739 -0.32735223 0.27929473 0.05660288 0.110279456 0.32130542 -0.016808705 0.25557202
-0.22715253 -0.14376172 -0.15161854 -0.15716374 -0.2965778 0.28987664 0.32553422 0.19455078
0.060948197 -0.116757534 -0.24801016 0.27982625 0.07308148 -0.31167296 -0.03152962 0.19684854
-0.31190383 0.28334975 0.24591391 -0.28461173 -0.028137796 -0.29304016 -0.058061656 0.23075733
0.14882563 -0.14896537 0.31404963 0.20977204 0.021073066 0.043609362 -0.263925 0.284063
0.14234483 -0.3154083 0.09787415 0.29082662 0.19106425 -0.30382204 -0.0908747 -0.19833687
-0.0880671 -0.22877277 -0.07458546 -0.22049247 -0.11423331 0.11516706 -0.0032597168 0.26737782
-0.26264936 -0.05371863 -0.12509055 -0.095018424 -0.22889219 -0.23903874 -0.033979885 -0.27172807
0.24197116 0.3014548 -0.0072490703 0.22241163 0.2328772 0.082006946 -0.23416072 -0.08954327
0.1874811 -0.2342399 0.3368293 -0.29374558 0.053409074 0.1113924 0.337485 -0.19751826
0.25057033 -0.20469792 0.16669498 0.20671223 -0.035511423 -0.26833105 0.3572794 -0.044379715
0.30459344 -0.30486822 -0.33639628 -0.32701722 0.32772923 0.112147324 -0.08757342 0.059553698
-0.053230844 -0.14779767 -0.23012964 0.09407018 0.05011882 0.008209927 0.04894443 -0.23144914
-0.08249474 0.29671973 0.23067597 -0.20293869 -0.15704538 0.18675669 -0.07183032 -0.32234862
0.060086366 0.21225941 -0.105730906 -0.17975979 0.19436553 0.051556554 0.26909325 -0.0013043358
0.016037334 -5.054724e-06 -0.32385254 -0.25189257 0.24546482 -0.07117114 -0.21232241 0.2349943
-0.12742718 0.33635598 -0.11749394 0.33032855 0.101052456 -0.0067986837 0.1501571 0.119088344
0.17294736 -0.061839294 -0.31614965 -0.0952653 -0.21997833 0.3216887 -0.07896334 0.13970026
-0.034711566 0.19687454 0.041924875 -0.2141813 -0.192644 0.17233351 -0.21266082 -0.06943738
0.29878566 -0.10608349 0.13091034 -0.13801639 0.15670925 0.16551451 0.24541992 -0.15222533
0.015756264 0.28008595 -0.2590941 -0.17148477 0.13083582 0.30142218 -0.1348778 0.051490054
0.16346763 0.051480714 -0.14583178 0.18718958 0.08844619 0.22218606 -0.07327449 0.035051186
-0.2981293 0.2611814 0.21715704 0.18935826 0.1775428 0.16296239 0.22132628 -0.22228251
0.19870201 -0.23043573 0.25735727 -0.27808425 0.050689302 -0.09722781 0.21385933 0.055733334
-0.070421934 0.084735565 -0.061273213 0.31225184 -0.25344312 0.30333644 0.1168069 -0.24396953
0.26164034 0.13538894 -0.33882496 -0.3018105 -0.10179408 0.078581765 0.3393678 0.13584362
0.094180726 -0.14738876 0.312058 0.20826854 -0.15840843 -0.2974439 -0.34387076 -0.05312129
-0.3354342 0.02803349 -0.20120099 -0.13055386 0.26188734 0.08766237 0.15061936 0.09196016
0.26266024 0.099545866 -0.085143775 -0.017714493 -0.17738865 0.13350506 -0.10468249 0.28511754
-0.2677821 -0.012479671 0.04944093 -0.070569746 -0.085396536 0.17032166 0.05195192 0.18913911
0.18479481 -0.020201312 0.30772412 -0.18852006 0.27795142 -0.12433905 0.046144076 -0.056269184

bias f4 [64]
00000000: d1a6 c83d 1515 8fbd c495 3cbd 97cd 6a3e
00000010: 236b 683e f325 933d 5e12 9b3e d7e9 bdba
00000020: 6387 14be 2e93 273d 3c60 2bbe fa75 853e
00000030: f137 c8bd 6dab 46be ff4e 0cbd 96c3 abbe
00000040: c3a3 88bd 7050 81bd cf75 e6bc f66a 693d
00000050: 058e ab3e cb0f 92be 192e b0bd 25c9 16be
00000060: e4dc bdbc e938 6fbe 4014 65bd df82 9abc
00000070: 3a2d 63be 6e35 d43d f91e 8b3e e3be 9dbe
00000080: 819f 703d d437 a7bc 5aca 503c f1a0 51be
00000090: 2a5a 993e 27e7 3b3e f4bc 1e3e a002 983e
000000a0: 4591 da3c 896f 90be 33c0 293e ac11 913e
000000b0: 0106 6cbe 4f22 013e 8b13 493e b6e9 b43d
000000c0: 168d 6b3e d68c e83c 6a86 efbd 0090 b3bd
000000d0: 7db8 553e 8a6d 33be c20f d83d 4640 2ebe
000000e0: 3edf d8bd 0a04 86bd 38fd 24be c98c 30be
000000f0: 1151 15be 59ad 1f3d e56c 3b3e 016d 87be
0.09797443 -0.06986443 -0.046041265 0.22929989 0.2269712 0.071849726 0.3028745 -0.0014489245
-0.14504771 0.040911846 -0.16735929 0.2606657 -0.09776295 -0.19401331 -0.034255024 -0.33547658
-0.0667186 -0.0631417 -0.028132347 0.05698677 0.3350679 -0.28527674 -0.086025424 -0.14725168
-0.023176618 -0.23361553 -0.055927515 -0.018861232 -0.22185221 0.103617534 0.27172068 -0.30809698
0.058745865 -0.020412363 0.012743557 -0.2047155 0.29951602 0.18349896 0.15501767 0.29689503
0.026680598 -0.28210095 0.16577224 0.28333795 -0.23049165 0.12610744 0.19636361 0.08833639
0.23003039 0.028387468 -0.11695559 -0.087677 0.20871158 -0.17522255 0.105498806 -0.17016706
-0.10589455 -0.06543739 -0.1611222 -0.17241205 -0.14581706 0.038983677 0.18303259 -0.2645035

weight f4 [32, 640]
00000000: 1227 cb3c 11ff 073d 20d9 6ebc 29d2 423c
00000010: c7e5 643c 8b82 773b f033 a7bc 28e4 853c
00000020: 3882 b4bc a608 d8bc 0c6d eaba c397 dabc
00000030: e826 f03b 4031 0d3d 8f8e 663c 0124 88bc
00000040: 3844 163d 3591 49bc 853e fabc 3575 c5bc
00000050: 0c41 293c 5af9 53ba 89d4 0b3d 80d7 13bd
00000060: e24b eabb 8fca 8f3b 5728 833a 0e32 cb3b
00000070: 5209 0b3d e32f 4dbc 7094 9d3c 75ab 8fbc
00000080: 5496 0b3c d046 103c b802 d7bc 2ca9 a93b
00000090: 73a4 ef3c 76d0 0e3d c3e2 45b8 67a5 23bd
000000a0: dfd8 69bc fce2 30bc 3d05 acbb d39d 5abc
000000b0: 3930 0cbc c10f c43c bcb2 ebbb 7c4d a6bc
000000c0: 0d16 27bd 0dbc 2ebd 16ef a4bb 2f9a 1ebd
000000d0: 7bde 9dbc d2b8 a0bc 6a51 84bc d521 73bc
000000e0: b66c ad3b 2173 a83c 1eef a8bc 8ce3 073c
000000f0: af8b c93c 3527 533c f7ff 49bc 9b9b ed3b
00000100: cc16 d53c ac24 56bc e73b 8e3c ad7c d5bc
00000110: 725e b1bc b81e 0b3d a95a 6e3c a115 d3bc
00000120: 2689 3c3b 706f 053c 96a7 0d3d a5b1 8bbc
00000130: ba4a 283d 06cb b43b 43d2 b53c 6220 c53c
00000140: dc8c d8bc 8312 ddbc 30f0 5fbc f10a 90bc
00000150: 5498 04bd c230 003c bbe6 e1bc bb9d 9d3c
00000160: 41f6 0f3c 1cbd 0bbc 47c1 be3c a27b 9a3c
00000170: 1ec4 efbc c0f7 c7bc 5261 223d 26be 033d
00000180: ad62 e83c aa5d cd3c 8005 e03a 0edc bb3c
00000190: 5666 4bbc 3069 7bbc e2ff 263d dcc3 f4bc
000001a0: a506 77bc 51b3 ca3c a07f 243c 1b4a 9a3b
000001b0: 1209 e139 bf7a a3bc f160 113d ca6c 3abc
000001c0: 1158 11bd c0d3 02bd 25cd bf3b c95b 063c
000001d0: ccde c83b fb18 8a3c 243f 0c3d d5f3 e13c
000001e0: eb37 873b f178 d1bc abb1 ef3b 7ff3 233d
000001f0: 9267 333c 9a59 ea3c c92e c13c cb69 a7bb
00000200: 6833 7ebc ce21 b03c f7a3 0fbd df5b f0bc
00000210: 770e 8e3c 134d 05bd 028d b03c acbe e63c
00000220: 1b22 1b3c 044c 213a 1249 d4bc 030a 7fbc
00000230: 7552 433c d343 efbb 2462 213d eccc 9e3c
00000240: 8f80 70bb 85a4 72bc 17ae 4d3c 6db7 bb3c
00000250: 0586 4b3c 4910 1f3b e900 e63c b149 d0bc
00000260: 37e8 cd3c fd63 ed3c 845c fdbc ba1a 1f3d
00000270: e861 73bc c9b3 8a3c 4bc7 843b 7423 9dbc
00000280: e013 0abd 01f2 f4bc 4898 1fbc 81bc 5a3a
00000290: 8f63 ab3c 6480 73bb 7135 3bbc cdfb 643a
000002a0: 6b1d 563c bc0b 253d e09e c3b9 c73c 143d
000002b0: b2b5 173d ced5 1c3d fb8b 79bc bff3 e63c
000002c0: aee1 d53c 1522 043d 8198 a13b cd07 debc
000002d0: b02a fbbb bb5a 053d 96bf a43c 8c48 d73c
000002e0: 1b2d a0bc 6ce4 d03b b136 a73c cc99 b5bc
000002f0: 843c 293d a751 983c 7e7d 1b3b 257e 20bc
00000300: 3037 573c 38f4 fd3c 1471 0cbd 5a1d ea3a
00000310: e944 063d 2635 213c 4000 be3c 5da4 f43c
00000320: 71d5 5a3c 4484 003d 7484 313c c382 293c
00000330: fb3e 0cbd 325f b8bc b6ae 11bd 64af 953c
00000340: e839 c43c e771 1d3c f372 273d 57fa e039
00000350: dbad dcbb 85a2 8c3c d5dc 243d 43b5 debc
00000360: 87ad 0a3d 33ca 963c a97b 6b3c 253c 8cbc
00000370: e86a d23b 74c5 583b 09d8 0cbd 7c82 28bd
00000380: 0d6e 43bc 0b5e e5bb cc82 11bd 3f0c 98ba
00000390: 84d0 893c f3bd 843c bb6d 26bc 2bdf b73b
000003a0: d103 bd3b 93a9 12bb cf01 013c 75f1 ccbc
000003b0: 8211 4f39 d1f8 1a3d fe15 68ba 7b68 ff3c
000003c0: 103c f6bc 283e 9dbc 3dd1 2b3d 79ce 2a3d
000003d0: ec1c c03c c061 99bb c593 bfbc 3171 6b3c
000003e0: 2c37 d6bc 465a b1bc effe 06bc a402 37bc
000003f0: 8269 9b3c 2256 ffbc 0488 d9bc 5319 273c
0.024798904 0.033202235 -0.014578134 0.011890926 0.013970799 0.0037767019 -0.020410508 0.016344145
-0.02203475 -0.026371311 -0.0017885282 -0.026683694 0.0073288567 0.034470797 0.014072075 -0.01661873
0.036686152 -0.012302686 -0.03054739 -0.02410374 0.01033045 -0.00080861675 0.034138236 -0.03609419
-0.007150159 0.0043881605 0.0010006529 0.0062010353 0.033944435 -0.012523624 0.01923582 -0.017537812
0.008519728 0.0088059455 -0.026246414 0.0051776376 0.02925322 0.034866773 -4.717965e-05 -0.03995266
-0.0142728975 -0.010796305 -0.005249648 -0.013343292 -0.008556419 0.023933293 -0.0071929377 -0.02030062
-0.040792514 -0.042659808 -0.005033384 -0.03872126 -0.019271126 -0.01961938 -0.016152103 -0.014839609
0.0052925004 0.02056271 -0.020621832 0.0082939975 0.02460274 0.012887766 -0.012329093 0.0072512156
0.026011847 -0.013070267 0.017362548 -0.026060427 -0.02165148 0.033964843 0.014547982 -0.02576715
0.002876827 0.008144245 0.03458365 -0.017052481 0.04108689 0.0055173663 0.022194987 0.024063293
-0.026434354 -0.026986366 -0.013668105 -0.017583342 -0.032371834 0.007824125 -0.027575841 0.01924025
0.008786739 -0.008528974 0.023285521 0.01885778 -0.02926832 -0.024410129 0.039643593 0.03216376
0.028367365 0.025069077 0.0017091483 0.022932079 -0.0124145355 -0.015344903 0.040771373 -0.02987855
-0.015077268 0.024743708 0.010040194 0.004708541 0.00042922102 -0.01995599 0.03549284 -0.011378476
-0.035484377 -0.03194022 0.0058533126 0.008200594 0.006130075 0.016857615 0.034239903 0.027582088
0.004126539 -0.025570365 0.007314881 0.040027138 0.010949986 0.028607178 0.02358188 -0.005109047
-0.015515186 0.021500494 -0.03506848 -0.029340683 0.017340882 -0.032544207 0.021551613 0.028167091
0.009468581 0.000615299 -0.025913749 -0.015566352 0.011921515 -0.0073017864 0.039400235 0.019384824
-0.003669772 -0.014809732 0.012553713 0.022914613 0.012422089 0.0024271181 0.028076606 -0.025425764
0.025135143 0.028978342 -0.030927904 0.038843848 -0.014854886 0.016931431 0.004052078 -0.019181944
-0.03371036 -0.029900553 -0.0097408965 0.00083441293 0.020921497 -0.0037155384 -0.011426316 0.0008735031
0.013068537 0.040294394 -0.0003731167 0.036190774 0.037038513 0.038289838 -0.015231128 0.0281924
0.026108589 0.032259066 0.00493151 -0.02710333 -0.007665001 0.03255723 0.020110887 0.02627971
-0.019552758 0.0063748863 0.020411821 -0.022168063 0.041317478 0.018593622 0.0023725922 -0.0097957
0.013135716 0.031000242 -0.034287527 0.0017861531 0.03278056 0.009839332 0.023193479 0.02986353
0.013356552 0.03137614 0.010834802 0.010346117 -0.03423975 -0.02250633 -0.035567008 0.01827211
0.023953393 0.009609676 0.04088111 0.00042911127 -0.0067345924 0.01716734 0.040249664 -0.027186042
0.033856895 0.018406963 0.014372745 -0.017118523 0.0064214356 0.0033076676 -0.034385715 -0.041140065
-0.011928094 -0.006999736 -0.03552513 -0.0011600329 0.01682306 0.016203856 -0.010157998 0.0056113205
0.005768277 -0.0022378906 0.007873966 -0.02501748 0.0001974758 0.037834946 -0.0008853375 0.03117775
-0.030057937 -0.019194677 0.041947592 0.041700814 0.023451291 -0.004680842 -0.023385892 0.014370249
-0.026149355 -0.021649491 -0.008239492 -0.011170063 0.018971208 -0.031169001 -0.026554115 0.010198909

bias f4 [32]
00000000: 0901 b0bc c277 e93c aa6b 913a 5087 c0bc
00000010: 9448 033d 7840 1a3c 6688 12bd b37a cabc
00000020: 9f76 edbb 0105 30bc 11ce 913c bccb dbbc
00000030: c731 033d 6a12 0dbd e02d 4d3c 6d4c 4a3c
00000040: 5d5c bb3c c2bf a9bc cd95 30bd 9d81 edbc
00000050: 7b36 233c f88b 1d3c 7b39 4f3d 87d2 bb3c
00000060: c660 95ba a2dd 08bd 1ec9 d63c 5c49 cf3b
00000070: f0b2 ba3c a621 12bb dda0 c43b 6695 33bc
-0.021484869 0.028499488 0.0011094708 -0.023502022 0.032051638 0.009414785 -0.03577461 -0.02471671
-0.0072468068 -0.0107433805 0.017798455 -0.026830547 0.032029893 -0.03444139 0.0125231445 0.012347323
0.02287119 -0.02072132 -0.04311161 -0.028992468 0.00996172 0.009615891 0.050591927 0.022927536
-0.0011396639 -0.03341449 0.026218947 0.006325884 0.022790402 -0.0022297888 0.0060006217 -0.010960912

weight f4 [640]
00000000: 7436 813f a2d0 823f a28f 7f3f 971c 813f
00000010: 8e2e 823f 398e 813f d7bd 7c3f ec1e 7b3f
00000020: 132c 823f b155 803f 9a49 823f fe8e 7f3f
00000030: 6834 7f3f 448d 803f d36e 7f3f 08ea 7d3f
00000040: 118f 7d3f 80dc 803f 6900 7f3f 744b 803f
00000050: 9141 7e3f ab2f 803f 677d 7e3f 8ef7 7e3f
00000060: c044 803f 1ba6 803f 5d53 803f 1ef7 803f
00000070: 3f5d 7e3f bfa3 7d3f 506c 823f 530d 803f
00000080: 9f08 813f 509f 7f3f b8f4 7d3f 2de7 7e3f
00000090: 61d5 7c3f 7501 7e3f 3dc9 7f3f 5f92 7f3f
000000a0: 0a9a 8c3f ce22 813f 9e48 833f cf05 813f
000000b0: d8b9 7f3f 041f 813f a7ad 7f3f 1a94 803f
000000c0: e849 803f d407 7e3f 975e 803f dc9d 803f
000000d0: 7bd5 803f 4b5f 7d3f e2f7 7c3f 6a9c 7c3f
000000e0: 1301 803f e6ee 803f 5466 803f 9fec 7c3f
000000f0: da57 8f3f a031 7f3f 7cbf 803f 1924 823f
00000100: 8562 803f 9c29 7f3f 2d5c 7d3f ffdd 7d3f
00000110: 9a86 803f e2fa 7d3f 5f76 7f3f 42cf 7c3f
00000120: d2b2 7f3f 3d27 7e3f 8672 803f c460 7d3f
00000130: 981d 803f 18e2 803f fbf4 7e3f 8e5b 803f
00000140: ea45 973f 491e 843f a69b 843f 7698 803f
00000150: 5b5b 823f c652 813f 7c29 803f 1e62 7f3f
00000160: 3248 803f cc22 803f 3e08 843f 85e6 7f3f
00000170: 1ce6 7e3f 7fe1 7d3f dd65 803f 59fe 7f3f
00000180: a757 803f 3781 813f fa9f 7d3f 18f7 7c3f
00000190: 56df 7d3f 875a 7c3f f4fe 7e3f d14b 7e3f
000001a0: bfb3 7e3f 942a 813f fec2 7b3f de15 7c3f
000001b0: ef0d 803f 67a2 843f 56c4 7e3f a648 7f3f
000001c0: dfe4 803f 9a85 803f ac85 803f 82bd 7c3f
000001d0: 03d4 7b3f 1d7d 7f3f 44b1 823f b356 823f
000001e0: c200 7f3f 0f09 7e3f 87fd 7b3f fd15 803f
000001f0: 8fdf 7f3f 7373 803f aa47 7e3f 90ce 7e3f
00000200: 85e9 7f3f 2f49 7f3f bcd9 7d3f 059f 803f
00000210: 4c14 803f 3c69 7e3f 46cf 803f 506e 803f
00000220: 9852 7e3f c1a1 803f f9ae 7b3f c0d1 7f3f
00000230: ba82 7f3f 98ac 7f3f ed55 813f 9bea 823f
00000240: 6287 833f 601e 7e3f 0130 7e3f 7116 803f
00000250: d181 803f 8609 873f 8a2d 803f bfc6 823f
00000260: c919 813f df5f 833f 76e3 823f dd28 823f
00000270: c63d 813f ea71 833f 87be 813f 343b 7e3f
00000280: 5dbd 7d3f 17b1 7e3f 216a 7e3f 1099 7c3f
00000290: e32e 803f 070b 803f 4252 7e3f 9ce9 7f3f
000002a0: 4792 7a3f 05b8 7f3f 2848 7c3f cdd7 7c3f
000002b0: 03a4 803f f940 823f dd82 7f3f e7b8 7f3f
000002c0: 7ae0 7f3f d181 803f 8c14 803f 2c04 7f3f
000002d0: fc1d 813f b174 823f 1030 7f3f 4df2 7e3f
000002e0: 324f 803f ae30 813f 5cdf 7a3f 257e 823f
000002f0: 7fda 7e3f f0b9 7d3f cc5f 803f 4037 7f3f
00000300: b63f 803f 1764 7f3f 992b 7e3f 8ca3 7e3f
00000310: e2c9 7e3f 276f 7f3f f015 803f c182 803f
00000320: 6ed2 7f3f 4fad 7f3f a578 7e3f 2c62 7f3f
00000330: 3ed3 7f3f 2a55 803f 49af 7f3f 0461 7b3f
00000340: a665 803f c170 803f 8d6c 803f b255 7f3f
00000350: 0f2e 803f a3ed 803f de50 803f 6009 7f3f
00000360: 7314 803f 91ec 7f3f a5bd 7f3f 0a05 7f3f
00000370: 879b 7c3f 4ca5 803f 2b3e 823f cd5b 803f
00000380: e7b5 7f3f 9421 7f3f f479 803f 59a8 803f
00000390: 29fe 7f3f dbaf 803f 0337 893f 6d5b 833f
000003a0: 4760 7f3f 3ea2 843f f986 813f 1df6 7b3f
000003b0: 89d8 7e3f 01a0 7f3f df38 7e3f 3756 803f
000003c0: 7f1d 7f3f a63b 7f3f 6290 803f 4197 7e3f
000003d0: 96ef 7d3f 9e40 7d3f ba3d 803f 09a9 803f
000003e0: d7fe 803f 795e 7e3f 8c1c 803f eee4 7e3f
000003f0: 8f82 803f 991c 7e3f c09a 7c3f 1ef5 803f
1.0094743 1.021992 0.9982854 1.008685 1.0170457 1.0121528 0.9872717 0.9809406
1.01697 1.0026151 1.0178711 0.99827564 0.9968934 1.0043111 0.9977848 0.9918523
0.99046427 1.0067291 0.9961 1.0023026 0.99318796 1.0014547 0.994101 0.9959649
1.0020981 1.0050691 1.002544 1.0075414 0.9936103 0.9907798 1.0189304 1.0004066
1.0080756 0.99852467 0.99201536 0.99571496 0.9876309 0.99220973 0.9991644 0.9983272
1.0984509 1.0088747 1.0256536 1.0079898 0.9989295 1.008759 0.9987435 1.0045197
1.0022554 0.99230695 1.0028867 1.0048175 1.0065149 0.9897353 0.9881574 0.9867617
1.0000328 1.0072906 1.0031228 0.98798555 1.1198685 0.99685097 1.0058436 1.0167266
1.0030066 0.99672866 0.98968774 0.99166864 1.0041077 0.9921094 0.99789995 0.9875375
0.99882233 0.9927862 1.003495 0.9897578 1.0009031 1.0068998 0.9959256 1.002794
1.1818211 1.0321742 1.036 1.0046527 1.018413 1.0103385 1.001266 0.9975909
1.0022032 1.0010619 1.0315015 0.9996112 0.9956987 0.99172205 1.0031086 0.9999748
1.0026749 1.0117558 0.9907223 0.98814535 0.9916891 0.98575634 0.9960778 0.99334437
0.9949302 1.0091119 0.9834441 0.98470867 1.0004252 1.0362061 0.99518335 0.9972023
1.0069846 1.0040772 1.0040793 0.98726666 0.9837038 0.9980028 1.0210347 1.0182709
0.9961053 0.9923257 0.9843373 1.000671 0.999505 1.0035232 0.993281 0.9953394
0.999657 0.99721044 0.9916036 1.0048529 1.0006194 0.99379325 1.0063255 1.0033665
0.9934478 1.0049363 0.9831386 0.9992943 0.9980885 0.9987273 1.0104347 1.0227846
1.027569 0.992651 0.99292 1.0006849 1.0039617 1.0549781 1.0013897 1.0216902
1.0085994 1.0263633 1.0225666 1.016872 1.0096977 1.0269139 1.0136269 0.99309087
0.9911707 0.9948897 0.9938069 0.98671055 1.0014309 1.0003365 0.99344265 0.99965835
0.9787945 0.99890167 0.985476 0.98766786 1.0050052 1.0176078 0.99809057 0.99891514
0.999519 1.0039617 1.000627 0.9961574 1.0087276 1.0191861 0.9968271 0.9958847
1.0024168 1.0092981 0.9799707 1.0194746 0.9955215 0.99111843 1.0029235 0.9969368
1.0019443 0.997621 0.99285275 0.994683 0.995268 0.9977898 1.0006695 1.0039903
0.99930465 0.9987382 0.9940284 0.99759173 0.99931705 1.002599 0.9987684 0.9819491
1.0031021 1.003441 1.0033127 0.99740136 1.0014056 1.0072521 1.0024679 0.9962368
1.0006241 0.99970347 0.9989875 0.99617064 0.98674816 1.0050445 1.0175222 1.0028015
0.99886936 0.9966061 1.0037217 1.0051376 0.9999719 1.0053667 1.0719913 1.0262276
0.9975628 1.0362012 1.0119315 0.98422414 0.99549156 0.9985352 0.9930553 1.0026311
0.9965438 0.9970039 1.0044062 0.99449545 0.99193704 0.98926723 1.0018837 1.0051585
1.0077771 0.99362904 1.0008712 0.9956807 1.0039843 0.99262387 0.9867363 1.0074804

bias f4 [640]
00000000: 5886 e2bb 6b0b 34bc 151a 5b3b 00b8 8fbb
00000010: 57b8 80bb 761e 61ba 5312 cbbb 36d0 05bc
00000020: 9021 113c 013e b33a a936 e5ba 2aa6 c53b
00000030: 51c6 823b aa2d 8dbb 57d1 923a 5dd5 e33b
00000040: 3792 443c edd8 0e3b 5ab5 433b b2ee 9f3a
00000050: f799 ec3b 0e06 5dba 8f77 c83b 6e9b 803b
00000060: 028d 04bb b23f a4bb 8d8c 1fbb f57c ddbb
00000070: 19bd 403c 55b5 123c 0d24 deba 7103 863a
00000080: 0624 023b b7a3 b3ba 578c fdbb 9f09 86bb
00000090: 02b6 1bbc 47fb b3bb d74e 75bc a75a b0ba
000000a0: d38f 0c3b 7132 d33b 9d7f 86bc 7ef3 5ebb
000000b0: d00d ac3b e2e2 c0bb 9a53 15bc c164 f6bb
000000c0: 0845 8fba 393f 85bc d471 1ebb c3b7 733b
000000d0: 8e90 923b a6a4 fbbb c196 ddbb 62ea 18bc
000000e0: 05cd 61bc 96ed 5ebb 54df de3b 3811 f43b
000000f0: b015 80bb a012 2c3c a22d e43a 9b2c eebb
00000100: 009c 693b 3787 c23b e67f 213c 9341 093c
00000110: 6c61 7dbb b497 e73b 10be 0c3b 193b 493c
00000120: 96e7 883a 625d eb3b b30c 66bb 4f02 293c
00000130: f125 74ba 0537 e9bb c970 723b d560 26bb
00000140: 8008 923b 36a8 11bc cba5 0c3c 114c 75bc
00000150: f95b a53a 5cab b0bb c187 4cbb c168 fabb
00000160: 3826 7ebc f84e 7cbb bf99 07bc 5621 d23b
00000170: 1520 9e3b 8119 0d3c 74e7 88bb 2fd9 fcba
00000180: 1e6e a0ba 5e2a 05bc d3b3 363c 35e4 bb3b
00000190: 361e 653c d3b2 723c 113f 2e3b a16d 7a3b
000001a0: 026a 2e3c ccf7 06bc 16b7 553c 6dc9 463c
000001b0: 3981 0dbb 05f2 64bb b85b 8dbb 4aef 55bb
000001c0: f52d d33b 31ca 9d3b 53fe 483b edde 8ebc
000001d0: 5795 32bc 1701 74bb 4625 873b f37d 1b3b
000001e0: 9e6e 8a3b c86a cc3b b59c 753c be32 1aba
000001f0: 4118 2eba 2b1e cbba 7db8 203c d7e3 943b
00000200: 3b98 403b a158 383b 6cc4 093c cd34 96bb
00000210: 20cd 27ba a4d4 d63b 4620 ccbb 995f 5ebb
00000220: 8c3f e33b 77ea a3bb 32e2 993c dabd d33a
00000230: 0e8c cf3a 0d60 493c 1f94 533a 4732 303c
00000240: f2fa 433c d4b3 fb3a 787d 1b3b 7bab a4ba
00000250: 45fd b63b 4d08 d4bb cde6 33ba 7a7d 103c
00000260: 3865 aa39 ddc2 cfbb 7c6d 933b 5182 46bb
00000270: 3376 353b 520d a13a 2e9e 5a3b ba33 db3b
00000280: 1751 163c e5c5 a53b a009 d83b 8fd7 4b3c
00000290: acb6 a1ba 2048 81ba a4dd f13b 8a08 ef39
000002a0: 2ad7 af3c 06bb cdb7 5743 783c decd 803c
000002b0: f0b5 bbbb 596f cfbb 926d 9a3b de91 3cba
000002c0: fe0d a0ba e946 a5bb 8052 d6bb 80a2 77bb
000002d0: bc13 07bc bb21 c039 12d8 973b 8e2f 4d3c
000002e0: 5ca6 e4bb c2d1 903b 4e76 13ba 741c bebb
000002f0: eef3 46bb 4818 18bc bac0 9cb9 4f2a 9abb
00000300: 2411 a9ba 4c66 74bb b532 0cbc c9bb 94bb
00000310: 6cdb a9bb 32cc 17bb 54f9 8aba 141d 19ba
00000320: a3e5 72bb b657 baba ae51 a4bb 2db2 06bb
00000330: 06b2 2eba 42f9 353b c423 c9ba bd81 4cbc
00000340: c15a 8b3b 9c80 b4ba 5d85 75bb ed5a 1d3b
00000350: 0c62 adba 26ac e8bb 2f9a 18bb 2a3d 733b
00000360: 4bc9 53ba b633 9839 f02d de3a 56e8 a83b
00000370: 08e0 8cbb caa1 c1ba 4302 e83b aec7 c33a
00000380: 2d01 4ebc c3b2 03bb 3cba 80bb 195e 0b3c
00000390: 77e8 86bb 3bda d9bb c850 16bc 9439 963c
000003a0: b75f 693b e493 debb c0e8 bfbb 9fda 483c
000003b0: ee82 6c3b 5de4 8abb e099 d83b 87f0 363c
000003c0: 4eda 493b 4f66 2c3b 5806 7fba 6b53 353b
000003d0: 983c 9f3b c22c 4a3c b0b9 5fbb 0206 02bb
000003e0: 77de 1b3c 7f6d cf3b c0b8 75ba e6ea 0c3b
000003f0: 80cf 07bb 9851 673b aa2a 273c bb3b 5ebb
-0.0069129877 -0.01098905 0.0033432294 -0.004385948 -0.003928225 -0.0008587608 -0.006197253 -0.008167317
0.0088581 0.0013675095 -0.0017487603 0.006031771 0.0039909263 -0.004308422 0.0011201304 0.006952925
0.011997751 0.0021796778 0.0029862733 0.0012201874 0.0072205025 -0.0008431383 0.006117768 0.0039247787
-0.0020225649 -0.005012476 -0.002434525 -0.006759281 0.011763834 0.008954366 -0.0016948 0.0010224414
0.0019857897 -0.0013705407 -0.007737677 -0.0040905024 -0.009503843 -0.005492601 -0.01497241 -0.0013454751
0.002144803 0.006445222 -0.016418273 -0.0034019644 0.00525067 -0.0058864215 -0.00911417 -0.007519335
-0.0010930607 -0.016265498 -0.0024176734 0.0037188388 0.0044727987 -0.0076795397 -0.006762356 -0.009333225
-0.013781791 -0.0034016124 0.006801525 0.0074483417 -0.0039088354 0.010502487 0.0017408619 -0.007268501
0.0035645962 0.005936529 0.0098571535 0.0083774505 -0.0038662804 0.007067645 0.002147559 0.012282156
0.0010444995 0.007182763 -0.0035102784 0.010315492 -0.0009313515 -0.0071171545 0.0036993495 -0.0025387306
0.0044565797 -0.008890202 0.00858445 -0.014971749 0.0012615911 -0.0053915214 -0.0031208845 -0.007641882
-0.015512042 -0.0038499217 -0.008276402 0.0064126654 0.004825602 0.008612038 -0.004177982 -0.00192908
-0.0012239849 -0.008127777 0.011151272 0.0057339915 0.013984254 0.014813143 0.0026587883 0.0038212317
0.010645391 -0.00823779 0.013044139 0.012132985 -0.0021591915 -0.0034934294 -0.0043139122 -0.0032643848
0.0064446875 0.004815363 0.0030669167 -0.017440284 -0.010899863 -0.0037232095 0.0041243164 0.0023726195
0.0042246124 0.0062383153 0.014990975 -0.0005882195 -0.00066411874 -0.0015496662 0.00980961 0.004543762
0.0029387611 0.0028128999 0.008408647 -0.004583931 -0.00064011104 0.0065561105 -0.006229433 -0.0033931492
0.0069350656 -0.0050023156 0.018784616 0.0016154603 0.0015834586 0.012290967 0.0008071083 0.010754175
0.0119616855 0.0019203373 0.0023725908 -0.0012563312 0.0055843913 -0.006470716 -0.00068627 0.008818978
0.0003250034 -0.006340368 0.0044991355 -0.0030290077 0.002768886 0.0012287295 0.0033358443 0.006689516
0.009174607 0.0050589913 0.0065929443 0.01244153 -0.0012337766 -0.0009863414 0.007381158 0.00045591994
0.021464903 -2.4524994e-05 0.015152774 0.015723165 -0.0057284757 -0.0063304123 0.004712769 -0.0007193367
-0.0012211201 -0.0050438535 -0.0065405965 -0.0037786067 -0.008244451 0.00036646225 0.004633912 0.012523545
-0.0069778394 0.0044195363 -0.0005625234 -0.0058017317 -0.0030357796 -0.009283133 -0.0002989823 -0.0047047506
-0.0012898785 -0.003729242 -0.008557011 -0.0045389873 -0.005183628 -0.0023162481 -0.001060287 -0.000584082
-0.0037063144 -0.0014216814 -0.00501462 -0.0020552978 -0.0006664101 0.0027766977 -0.0015345742 -0.012482104
0.004252762 -0.0013771239 -0.0037463524 0.0024010495 -0.0013228073 -0.0071006 -0.002328526 0.0037115314
-0.0008079006 0.00029030227 0.0016950946 0.0051546497 -0.0042991675 -0.0014772948 0.0070803477 0.0014936829
-0.0125735225 -0.0020095564 -0.003928451 0.008506321 -0.0041170674 -0.0066483296 -0.009174533 0.018338002
0.003561003 -0.0067925323 -0.0058566034 0.012259155 0.0036088782 -0.004238649 0.00661014 0.011165745
0.0030800286 0.0026306098 -0.00097284233 0.002766813 0.0048595183 0.012339773 -0.0034137778 -0.0019840007
0.009513489 0.0063301916 -0.0009373538 0.0021502315 -0.0020723045 0.0035296436 0.010203043 -0.0033910114

weight_ih_l0 f4 [512, 32]
00000000: 0a2f 74bc 8eab 943d b4f7 833c 80e6 5abc
00000010: f607 2a3d 34f4 7dbd 1805 a1bd 45ba aa3d
00000020: eeec 30bc 35aa 94bc 6cbc 8ebb 21f3 13bb
00000030: 2c17 11bc 162f d8bc e748 05bd f7e4 503c
00000040: 8a89 afbb 4b19 39bd b71a 34bb 71ea 03bd
00000050: dd88 b63c 5dc4 aa3d 4a38 92bd ef65 813d
00000060: 6d2a 9bbd e492 8e3d 3454 ad3d b552 623d
00000070: abdd 98bd 59ab d4bc 840d 1abc ef9d 613d
00000080: c888 1f3d 70db bcbd 2bc9 81bc d88f a93d
00000090: 99f1 08bd 8454 a6bd 77df 0e3d b4ee 5339
000000a0: 1d59 a93d 1c4b 20bd 2b44 b53d d770 a5bd
000000b0: 7003 5fbd 43d0 ba3d ae26 953d f4d3 b23a
000000c0: 4d80 a43d 805a aabc 7b49 43bc 9501 2d3d
000000d0: 5d0b a4bd 2f40 eaba a127 673d 4d13 4e3d
000000e0: 08e0 28bd 035b 883d 2f78 5a3c e529 853d
000000f0: fc09 a43d dfc8 063d 578b 383d f4db 7c3d
00000100: 1bf9 6a3d d078 c43d 517d 23bc 4808 96bd
00000110: d0d4 a23c 6b4f 3b3c 60b7 973d bcf1 b53d
00000120: ec02 113d e580 5bbd 67cb a4bd 509d 5ebd
00000130: 68ca 93bd 927f a0bd 8261 dd3c 0f16 9c3d
00000140: d6fa 29bd ccec b43c be75 bbbd 1a4b 69bd
00000150: 7eef 273d f0cb 813d 2bd7 233d de81 55bc
00000160: f0d3 303d 7eb8 9abd 4439 6bbd e1ad 7f3d
00000170: 1834 47bc 0564 503d d32a 1b3c 85c7 57bd
00000180: e3e2 dcbc c161 df3c dd32 a63d 9583 c0bc
00000190: d8fc f0bb 9361 8b3d 3977 adbd 2006 0e3d
000001a0: 73ad 403d 7898 993d 58e4 90bd 48b4 b93c
000001b0: a67c 333d 1c58 51bc c152 653c 6c0e a83a
000001c0: 8dbc cc3c 029d 36bd 50bd 2d3d a24d 80bd
000001d0: 77c2 a0bd 5eed a13b e86a a83c 32ab 66bd
000001e0: 50a9 79bd 9905 a1bc f86d 5f3d 1cfa 583d
000001f0: ff9b e43b 3ffb 9e3a c704 993d 1fd6 a13d
00000200: e3a0 5dbd 3cca 903d d068 78bc 158e 163d
00000210: 55ad 09bd 5479 a5bc 2936 f33a a2f7 bd3d
00000220: 22e3 afbd 2685 1e3d 6f0d d8bd 60e2 64bc
00000230: 4d62 db3c 3919 7dbd 6592 45bd 2e8d 5c3b
00000240: 9661 a7bd 070d 2b3d 41f8 6f3d 1496 39bd
00000250: 3d36 4e3d f068 223d 0c36 d03d cadb 303c
00000260: 3fb0 aabd 7e14 bebd 811a b5bc c041 883d
00000270: 935a 7d3c df96 ea3d f5dc 813d 4469 95bd
00000280: 16f0 043d 8524 b0bb f586 49bc 11ba b93b
00000290: c87b f8bc cb91 af3c 74e3 1c3d 1f65 bebc
000002a0: 6846 b6bc c4db 41bd a48b 05bc 56e7 d2bc
000002b0: ea5c 663b cc85 ff3b 344e 8fbd 2e71 34bd
000002c0: 28ec 83bd ac24 613d 2386 913d 7cfb 94bd
000002d0: ef6b 36bd bd30 53bd 869b c13c ddfe 1d3d
000002e0: eb99 c63d 127d 4ebd 3076 373d 5323 e23c
000002f0: 7074 f039 2991 42bc fe51 74bd afa7 14bd
00000300: 6f19 403d 747b 8b3d 27eb b43d 7a3b 613d
00000310: 639d 82bd 8169 1bbc 0892 353d fb78 acbd
00000320: a26e 58bd a1b1 0ebc 0319 37bc 08ae d8bc
00000330: 08b1 a3bd 7681 173d b2d1 94ba f9ff f1bc
00000340: 5e4e 3bbd 7569 543b b0f4 3abd 34f8 cdbd
00000350: cf04 99bd d0a8 eebc 7fe2 ae3d 5248 003d
00000360: 4a52 cd3c 5e6d 51bc d818 a43d 91b7 91bc
00000370: 41e2 9ebc b62e 89bd fa97 923d f266 5cbd
00000380: 7bc0 3cbd da1c d63b 575a 62bc 177d 023c
00000390: c265 903c 4467 9c3c b038 9fbd c33f 0bbd
000003a0: 2060 bebc 7942 713c 73ff 473d 3488 ab3c
000003b0: 7f1a 97bd 6a3c 653c 4f8c 9b3c 8476 053d
000003c0: 3529 d9bc 0d56 ce3c d7b5 b2bc d937 533d
000003d0: 03e5 a7bd ac56 583d 2956 f8bc 62df d23d
000003e0: 660f e4bc f1ce 27bc 2d94 c13b e84c 30bd
000003f0: 4e76 90bd a211 3fbd 85c1 03bd 1b91 383d
-0.014903793 0.07259284 0.016109325 -0.01336062 0.0415115 -0.06200047 -0.078623 0.08336309
-0.010798676 -0.018147567 -0.0043559577 -0.0022575336 -0.008855622 -0.02638964 -0.03254023 0.012749902
-0.005356972 -0.045190137 -0.0027481744 -0.032206003 0.022282058 0.083382346 -0.071396425 0.063182704
-0.075764515 0.06961611 0.08463326 0.055254657 -0.07464155 -0.025960611 -0.009402636 0.055082258
0.038948804 -0.09221542 -0.015842995 0.08279389 -0.03343353 -0.08121589 0.03488108 0.00020211452
0.0826895 -0.03913413 0.08850893 -0.08078163 -0.054446638 0.09121754 0.07282768 0.0013643489
0.08032284 -0.020795107 -0.011919375 0.042237837 -0.0800998 -0.0017871911 0.056434277 0.050311375
-0.041229278 0.06657984 0.013334318 0.065021314 0.08009717 0.03290641 0.04505476 0.0617332
0.05736647 0.09593356 -0.009978608 -0.07325798 0.019876868 0.011432509 0.07408023 0.08883998
0.035403177 -0.05358972 -0.080466084 -0.054349244 -0.0721634 -0.07836832 0.027024034 0.07621395
-0.04149898 0.02208557 -0.09153317 -0.056956388 0.040999882 0.06337726 0.040000122 -0.013031451
0.04317087 -0.0755472 -0.05742766 0.062421683 -0.012158416 0.050876636 0.009470659 -0.05268051
-0.026963657 0.027268292 0.0811517 -0.023500243 -0.00735436 0.0680572 -0.084700055 0.03467381
0.047040414 0.07499784 -0.07074803 0.022668973 0.043820046 -0.012777355 0.013996781 0.0012821681
0.024992252 -0.044583328 0.04241687 -0.06264807 -0.07849591 0.0049416265 0.02055879 -0.05631561
-0.060952485 -0.01965599 0.054548234 0.052972898 0.006976604 0.001212932 0.07471614 0.079021685
-0.05410851 0.07069823 -0.015161708 0.036756594 -0.033612568 -0.020199455 0.001855557 0.09275748
-0.08588244 0.0387012 -0.10549437 -0.013969988 0.026780272 -0.061791632 -0.048235316 0.0033653486
-0.0817291 0.04176047 0.058586363 -0.04530914 0.050344694 0.039650857 0.101665586 0.010794589
-0.083343975 -0.09281252 -0.022107365 0.06653166 0.015463489 0.114545576 0.06340972 -0.072954684
0.032455526 -0.005375447 -0.012300243 0.005667933 -0.030332461 0.021431824 0.038302854 -0.023241578
-0.02225037 -0.047328725 -0.008150969 -0.025745075 0.0035150596 0.0077979323 -0.06997338 -0.04405325
-0.064415276 0.054966614 0.07105663 -0.07274529 -0.044536527 -0.051560152 0.02363373 0.038573135
0.09697326 -0.050412245 0.044790447 0.027604735 0.0004586312 -0.011875429 -0.059648506 -0.036292728
0.046899255 0.06810656 0.08833914 0.054988362 -0.063776754 -0.009485603 0.04432872 -0.08421513
-0.052839883 -0.008709342 -0.011175397 -0.026450172 -0.079927504 0.036988698 -0.0011353998 -0.029541003
-0.045729034 0.003241149 -0.04564351 -0.100571066 -0.0747162 -0.02913323 0.085392945 0.03131897
0.025063653 -0.012782423 0.08012551 -0.017787727 -0.019394996 -0.066983625 0.071578935 -0.053809114
-0.046082 0.006534201 -0.013815484 0.007964394 0.017626647 0.01909221 -0.07774484 -0.033996355
-0.023239195 0.014725321 0.0488276 0.02093897 -0.073781006 0.013991455 0.018987803 0.03258373
-0.026508907 0.025187517 -0.021815224 0.051566932 -0.081979774 0.05281703 -0.030314522 0.10296513
-0.027839374 -0.01024221 0.0059075565 -0.043042094 -0.07053815 -0.046647675 -0.032166976 0.04506026

weight_hh_l0 f4 [512, 128]
00000000: 890f 2dbd 5735 6fbd 08d1 9f3d a0eb 69bd
00000010: b8b4 823d 3de6 5ebd dbdf 72bc 13bd 50bd
00000020: 4c1b bfbd 1fd1 8f3d d733 973c 1fc7 11bd
00000030: 1bd5 c83d 6663 96bd 8d2b 8bbc 1df9 343d
00000040: c653 b53d 7ae9 48bd 7813 333d e47a 883c
00000050: 8987 08bd 0b8a 0d3d cd17 5a3d 366a d83c
00000060: 5860 44bc e937 98bd 36e4 933d 6658 97bd
00000070: d4ae 0e3d 31f6 37bd d7f5 a53d fabc 26bd
00000080: 3938 943d 1ba0 9a3d b8bc 843b c491 c8bc
00000090: 307b d1bc 27d4 c4bc c6e2 553d b67e 653c
000000a0: 596e 27bd 1e06 8e3d aeba e2bc d377 913b
000000b0: 0286 1e3d f4bc a9bd d391 4e3d a061 cabb
000000c0: 05e1 8abd c30f a0bd 1411 e9ba 0c42 b0bd
000000d0: 888e 923d f50d 2dbd 36b7 1ebd b8e6 883d
000000e0: 1b19 3dbd 37ad b33d 70f4 c3bd 6b88 89bd
000000f0: ea44 44bd 1536 a33d 74a2 ac3c 0d18 593d
00000100: 1e20 7ebd f512 883d 56af 523d fff4 733d
00000110: 9f0c 87bd 264a f53d bffc 973d e100 1d3c
00000120: 36de c2ba a6f9 a13d 4993 a7bd d09f 93bd
00000130: ec07 42bb 3508 97bd f036 98bc 16a8 3fbd
00000140: ea40 863d adf6 84bd 8cf3 bebd 748d 803c
00000150: 3a08 7c3d 0e8b 8a3d cadb 80bd 97ea 853d
00000160: 69de 923d 11be a5bd e87d b73c cf51 d3ba
00000170: fd99 6e3d 0c28 8d3d 6eb9 95bd f4c4 7f3c
00000180: c7de 7b3c 74ab 933c bf52 08bd bf87 ec3c
00000190: c549 5e3d 1000 533d 49f5 b13d ee2a 7fbd
000001a0: f972 2dbd 17f0 5abc f293 c6bc 3330 873d
000001b0: f012 ea3c e678 c13d 44ae 42bc 169b 86bd
000001c0: 4b71 9fbd 8627 7c3d 6e7a 47bd 6e5c 153c
000001d0: d871 573d 18e7 06ba 466a fd3c baf6 aebd
000001e0: af85 60bc ce42 05bd 0094 773c 5b82 573d
000001f0: 112e bf3c 63e0 473d b24c 3b3d 128a dbbc
00000200: 58e9 82bd b0d3 b83d cc60 20bb e6ff c73b
00000210: c321 a1bd e5ab 38bc 7d1c c13c d29b a93d
00000220: dd21 d639 993c 493d 705e d83c fd84 9c3d
00000230: 9bda 803d e2dd a73c e015 8f3d c383 a8bd
00000240: 932f 893d e192 d53c 93f2 c03d 0bee a5bd
00000250: a320 b73c a2b0 ad3d 2ad8 a1bd ff2d 613d
00000260: 883b 64bd 956e edbc c07d 12bd f7e0 8d3d
00000270: c7e1 e83b 0b31 0dbd 8533 b03c 0b8d 653c
00000280: 9442 89bd 4f88 2f3d 684b 33bd b256 d13a
00000290: 32f1 3ebc 1a46 af3d 25f7 073d 66df 48bd
000002a0: 4d35 a0bc 3821 3ebc a75f b8bb 0487 5e3d
000002b0: 1e0b 043d ff4c ab3d f77f 723d 752a 3bbd
000002c0: 49a9 043d 7325 853d 6803 8e3c c3b7 a3bd
000002d0: c65c 38bd eddd 133d 3052 3b3d c229 65bd
000002e0: c0d7 11bd f391 9d3d 3bae b4bd 79e7 0b3a
000002f0: 97c9 a8bd 4680 9dbd f8c8 cdbc 04bc ea3c
00000300: 2431 95bd 1eaa c0bd 3192 f1bc 1f6d 313d
00000310: c677 c13b 1fd4 65bd 8dfb ecbc f96b 823d
00000320: 2868 903d 700c e439 79b1 9c3d 8b5b 9abd
00000330: 7b2b f53c 97e2 aebd 7bae b6bd 61c6 383d
00000340: 8a1d 91bd 95aa 213b d64d a8bd 484b 913d
00000350: 927c 9cbd fc51 d73b 7705 60bc c1d8 07bd
00000360: 84a4 4dbb 16d8 723d e8a9 7c3b 25da 983d
00000370: a196 773d c5e5 e03c 97c6 973c 549a dfbc
00000380: b636 c93c ab68 ab3d 226b a93d ff8f a3bc
00000390: c321 67bd b4f8 60bc 45a7 c5bd 70f9 1bbd
000003a0: 4f2a 8a3d 2f5d 3dbd 5126 0ebd f3b5 97bd
000003b0: 99d8 863d 9e6d 303d 6723 5f3d d38d 15bd
000003c0: fd3b a43d 82ad b3bc ab5f 17bc 4db3 da3b
000003d0: 891c 253d 01c5 9cbc 6140 893c afc0 b9bd
000003e0: 3908 6abd 1d10 563d 7dca eebc 9663 8ebd
000003f0: 1217 cbbc deca 64bd 5590 0e3d e599 153d
-0.042251144 -0.05840048 0.078035414 -0.057109475 0.063821256 -0.05441879 -0.014823879 -0.050961565
-0.09331378 0.070223086 0.018457336 -0.035590287 0.09806272 -0.073431775 -0.01698854 0.044182885
0.08853869 -0.049050786 0.04371974 0.016660161 -0.03333238 0.034555476 0.053245354 0.026417833
-0.011985861 -0.07432539 0.07221262 -0.073899075 0.034834698 -0.04491252 0.08103531 -0.040707566
0.07237286 0.07550069 0.0040508173 -0.024483569 -0.025571436 -0.024026943 0.05221822 0.014007261
-0.04087672 0.069347605 -0.027676906 0.004439333 0.03870202 -0.08287993 0.050432038 -0.0061761886
-0.067812 -0.07815506 -0.0017781579 -0.086063474 0.07156092 -0.04224964 -0.038748942 0.06684631
-0.04616652 0.087732725 -0.09568107 -0.06715473 -0.047917284 0.079693 0.021073557 0.053001452
-0.062042348 0.06644241 0.051436745 0.05955982 -0.06594204 0.11977033 0.07421254 0.009582729
-0.0014867249 0.07908945 -0.08182389 -0.07208216 -0.0029606773 -0.07374612 -0.018580884 -0.04679116
0.0655535 -0.06492362 -0.09323797 0.01569245 0.061531283 0.06764804 -0.062919214 0.06538885
0.071713276 -0.08092893 0.022398904 -0.0016122403 0.058252323 0.06892404 -0.073107585 0.015610922
0.0153729385 0.018026091 -0.033282038 0.028873323 0.05426957 0.05151373 0.086893626 -0.0622968
-0.042345975 -0.013362906 -0.024240468 0.0660099 0.028573483 0.09446888 -0.0118823685 -0.06572549
-0.07785281 0.06156113 -0.048700742 0.009116275 0.052598804 -0.000514613 0.030934464 -0.08543153
-0.013703748 -0.032534413 0.01511097 0.05261455 0.023337396 0.048797976 0.04572744 -0.026799235
-0.06392163 0.09024751 -0.0024471758 0.0061035035 -0.07867768 -0.011271452 0.023573155 0.082816735
0.0004084249 0.049130056 0.026412219 0.07642553 0.06291696 0.020491544 0.06986594 -0.082282566
0.06698527 0.026071014 0.09421267 -0.08102044 0.02235443 0.08480956 -0.07902558 0.054975506
-0.055720836 -0.028983394 -0.035764456 0.06927674 0.007106993 -0.0344706 0.021508941 0.014010678
-0.06702152 0.042854603 -0.043773085 0.0015971272 -0.011654185 0.08558293 0.03319468 -0.049041174
-0.019556666 -0.0116046 -0.005626637 0.05432798 0.032237165 0.08364295 0.059204068 -0.045694787
0.032388005 0.065012835 0.017335609 -0.07994034 -0.04501035 0.036100317 0.045732677 -0.055948026
-0.035606146 0.07693853 -0.08822294 0.00053369213 -0.08241575 -0.07690482 -0.025120243 0.028654106
-0.072847635 -0.09407447 -0.029488655 0.043316957 0.0059041707 -0.056110498 -0.028928543 0.063682504
0.07051116 0.00043496815 0.07651038 -0.07536992 0.02992796 -0.08539312 -0.08919998 0.045111064
-0.07085712 0.0024668325 -0.08217971 0.07094437 -0.076409474 0.0065710526 -0.013673178 -0.033165697
-0.0031378577 0.059288107 0.003855342 0.07463483 0.060446385 0.027453313 0.018527312 -0.02729527
0.024562221 0.08369573 0.08272387 -0.019966124 -0.056428682 -0.01373117 -0.09651045 -0.03807968
0.06746351 -0.046231445 -0.03470451 -0.07407751 0.065842815 0.04307329 0.05447712 -0.036512207
0.08019254 -0.02193332 -0.009239118 0.0066742063 0.040310416 -0.019136908 0.016754331 -0.090699546
-0.057136748 0.05226146 -0.029149288 -0.06952588 -0.024791274 -0.05585753 0.034805615 0.03652372

bias_ih_l0 f4 [512]
00000000: bc47 843c 716c 0f3d eaae 263d 3020 753c
00000010: 68ac 04bb 9c74 a1b9 16f4 363d b560 9e3d
00000020: 316c 5f3c 9492 28bd 8e51 b1bd 3330 85bc
00000030: 86a3 0dbd b310 bf3d 8f90 673d df6e 6e3d
00000040: aa71 bbba bcf5 92bd c081 63bd 3c06 5cbd
00000050: cb49 97bd 541d 303d ec2d db3c 2155 b2bd
00000060: c49a 793d 3d1b 63bc 0c41 9c3d 7237 243c
00000070: b2d2 be3d 1833 66bc 9ca2 15bd 78d5 013b
00000080: f4e2 6e3d d3e2 8dbc 3a1b 9dbd 42a0 fcbc
00000090: fef4 953c 29bc 92bd 88b4 b03b a2a3 fbbc
000000a0: a811 a03d 340c 9b3d 8da5 743d d7ab 90bc
000000b0: 2c29 7d3c 7cf2 a53d 48e9 b03c dafd 993c
000000c0: afdd 04bd 2527 833c 6eee 023d 9f12 acbd
000000d0: dd99 843d 9709 78bc 7dd4 373d 272a f1bb
000000e0: 2808 69bc c4be a3bd a205 12bd bc2f 70bd
000000f0: 5363 af3d ca84 84bc 51c1 30bd beb4 893c
00000100: 8cb5 4cbd dccb 8bbd 06f1 ae3d f81a ae3c
00000110: c68a 42bb 7bbe ebbc 3c37 7fbc f536 93bc
00000120: dfc6 383d 7e51 a4bd 8ef6 d5bb 74f9 acbc
00000130: e970 f1bc 14c9 793d 6225 adbb d4aa 2c3d
00000140: a541 c53b 7873 15bd 4934 27bd 1d45 9d3d
00000150: 98f3 7e3d 37d5 e3bb ed57 423b ebc2 6fbd
00000160: 57e8 c13d e8fa 743d b4d5 59bd 3340 49bd
00000170: 1da3 9c3d cfb7 88bd a4f7 683d 979a 03bd
00000180: 5590 a0bd dd01 b2bd aaf7 d03b 1f57 9e3d
00000190: 4540 5cbc d6aa 353d ffac 883d 0f4f ac3d
000001a0: eb88 c7bc 4420 42bd 3bd3 63bd 3fa8 8d3c
000001b0: 1cea aebd 1cb5 6abd 94e8 4bbc 87ed 6abd
000001c0: 1333 873d f5ad ce3c 8230 58bd 08f9 f03b
000001d0: 0dcb 87bd be9a 6a3d 618f c3bd 40b2 1d3d
000001e0: eb1b 2ebb cfbc 8ebd 1b28 013d 0a0e a9bd
000001f0: f282 673c a25b 393d 6243 963c 2080 bbbd
00000200: f402 dd3a b2c9 703d bfe0 923d e72b 9dbd
00000210: cfed 923d 738c 153d 85d2 073c 0170 60bd
00000220: e682 93bd 2b7f 9b3d 0320 56bb 10e3 403d
00000230: df97 87bc 8c4f 003d c50f 80bd b43d 1fbd
00000240: 8d07 933d 3d36 55bd 64cf 653d 4e6c 4f3c
00000250: db47 1a3d 92b9 803d 45d2 363d 51ec b8bd
00000260: 6fa2 3fbd 055d 38bd 33f3 8c3c 1e00 44bc
00000270: fcb7 513d 1d8f 0e3d 2ecd 1bbd d65b 8ebd
00000280: 29f7 8cbd 2bcd 5e3c cf68 c4bd be13 e3ba
00000290: ad15 bb3c a033 aa3c 8c45 713d f03f 27bd
000002a0: d6a2 a93a f391 3d3c baff 5d3c 9638 54bd
000002b0: 6738 34bd 37cb ba3c 70d0 fbba aff1 733d
000002c0: ee65 85bd f7e0 4abd 924f c7bd 3b39 913d
000002d0: 99dd 01bd 6531 b1bd bba7 05bd 3553 433d
000002e0: 7b27 dd3c ce8b 6a3d 86ea 613d 0490 b73c
000002f0: 2554 43bd 04cf f93c fc29 48bd 8fb5 993d
00000300: 4f32 adbd 6e4c c139 5137 863c 7053 733d
00000310: 7b74 29bd fb12 d33c 015f 63bd 7357 1d3d
00000320: 5782 1fbb 5f34 803d b3ae 22bd c673 6dbb
00000330: 69db 82b9 895f 80bd 8f1c f13c 1405 e63c
00000340: bf89 f03c 2170 b9bd 4a5b bcbc 107e d53d
00000350: 823b 043d c096 5b3c 91f1 0c3d b31c b3bd
00000360: aad2 efbc 73ac 02bd 60eb 00bc b292 b9bd
00000370: a458 94bd 753b 83bd 0cd6 913d 1c4a 16bd
00000380: e4c5 85bd 82d9 073a 881b 593d 8004 f1ba
00000390: 4ffe 57bd 5694 96bd 084f 0eba 3257 fdba
000003a0: bd41 b93d 9522 833c 4dfc 20bd 97a7 cebb
000003b0: 9d72 f3bb 1e6f 94bd c308 b5bb 79f2 503d
000003c0: 4641 48bd 7815 6bbd 4509 823d ddf0 643d
000003d0: 74a8 4b3d 568a 8fbd c4df 553d f92d 873d
000003e0: c1e6 58bd 8fc1 103c 622f 4cbd a9ae b7bd
000003f0: d0a8 52bc 0915 91bd af34 6ebb 5afe b53c
0.016147487 0.035015527 0.040694155 0.014961287 -0.0020244364 -0.00030795194 0.044666372 0.07733289
0.013636635 -0.041155413 -0.086581334 -0.016258335 -0.034579776 0.09329357 0.056534346 0.058211204
-0.0014300842 -0.07175776 -0.05554366 -0.053716883 -0.07387122 0.04299672 0.026755296 -0.08707643
0.06093861 -0.013861475 0.07629594 0.010022985 0.09317531 -0.014050268 -0.03653203 0.0019811075
0.058321908 -0.017320072 -0.07671209 -0.030838136 0.018305298 -0.07164795 0.0053926148 -0.030717675
0.07815868 0.07570687 0.059728194 -0.017660065 0.015451711 0.08102891 0.021595612 0.018797804
-0.032437976 0.016009877 0.031965666 -0.08401989 0.064746596 -0.015139005 0.04488038 -0.0073597613
-0.014223136 -0.0799537 -0.035649903 -0.058639273 0.085638665 -0.0161766 -0.04315311 0.016809817
-0.049977824 -0.068259925 0.08542065 0.021253094 -0.0029684766 -0.028777352 -0.015577134 -0.017970541
0.045111533 -0.08023356 -0.0065296357 -0.021115042 -0.029472785 0.06098278 -0.0052839974 0.042155102
0.0060197883 -0.036487073 -0.040821347 0.07679198 0.062244028 -0.0069529074 0.0029654459 -0.058535498
0.094681434 0.059809595 -0.05318232 -0.04913349 0.07648299 -0.06675684 0.056876794 -0.03212985
-0.07840029 -0.08691762 0.00637718 0.07731461 -0.013443057 0.044352375 0.066736214 0.08413517
-0.02435728 -0.047394052 -0.055621367 0.01729214 -0.085407466 -0.057301626 -0.012445588 -0.05735543
0.066015385 0.025229434 -0.052780636 0.0073539056 -0.06630526 0.05727648 -0.09548832 0.03850007
-0.0026566933 -0.06969606 0.03153239 -0.08254631 0.014130341 0.045253403 0.018342678 -0.09155297
0.0016861842 0.0587861 0.07171773 -0.07674389 0.07174265 0.036510896 0.008289938 -0.054794315
-0.07202701 0.07592615 -0.003267289 0.047091544 -0.01655191 0.03132586 -0.06253008 -0.038877204
0.071791746 -0.05205368 0.056105986 0.012660099 0.037666183 0.06285395 0.044634122 -0.09029449
-0.046785768 -0.045010585 0.01720581 -0.011962919 0.05120085 0.034804452 -0.03803747 -0.0695111
-0.068830796 0.013598721 -0.09590303 -0.0017324609 0.022837484 0.02077657 0.058904216 -0.04083246
0.0012942206 0.011570442 0.0135497395 -0.051811777 -0.043999102 0.022801979 -0.00192119 0.05955666
-0.06513582 -0.04953095 -0.09731974 0.07090994 -0.031705473 -0.086519994 -0.032630663 0.047686774
0.026996365 0.057262234 0.0551553 0.02240754 -0.04768767 0.03049422 -0.048868164 0.07505333
-0.08456861 0.00036868773 0.016383799 0.059405744 -0.04137085 0.025765887 -0.055510525 0.038413476
-0.0024339163 0.06259989 -0.039717387 -0.0036232336 -0.00024959006 -0.06268222 0.029432563 0.028078593
0.029362557 -0.0905459 -0.022992749 0.10424435 0.032283314 0.013402641 0.034410063 -0.08745708
-0.029275257 -0.03190274 -0.007868618 -0.09061183 -0.07243469 -0.06407825 0.07120904 -0.03669177
-0.06531885 0.00051822525 0.05300477 -0.0018388182 -0.052732762 -0.073525116 -0.00054286467 -0.0019328354
0.09045742 0.016007701 -0.039303113 -0.0063065994 -0.0074294345 -0.072477564 -0.005524726 0.05101249
-0.048890375 -0.05739352 0.06349424 0.055893768 0.049721196 -0.07008807 0.052215353 0.066005655
-0.05295444 0.00883521 -0.049849875 -0.08968861 -0.012857631 -0.0708409 -0.003634732 0.02221601
