Single Battery Model/5. CNN-LSTM Models/model_B0005_charge_std.pth (torch, 432658 bytes, 15 tensors)

weight f4 [64, 3, 3]
000000 9a eb b5 3d db cc 38 3e b8 08 59 be 2b b2 61 be
       0.08882828 0.18046896 -0.21194732 -0.22040622
000010 e0 83 81 be 97 44 a6 3e bc d2 75 3e 09 ac 17 be
       -0.25295925 0.32474205 0.2400617 -0.1481172
000020 fc 0e 17 be 3e 99 a8 be fd 61 73 bd 5c 2f a6 3e
       -0.1475181 -0.32929415 -0.05941962 0.32458007
000030 09 79 15 3d cc ec 1f be df 54 37 3e 1a 5d 36 3e
       0.03649238 -0.15617675 0.1790347 0.17808953
000040 91 71 9e be f3 65 43 3e 4f 85 d7 bd bc 50 bf bd
       -0.3094602 0.1908186 -0.105234735 -0.09341571
000050 5e 91 ae bc 7e d1 ab 3e 88 ba ac 3e d0 f6 43 3e
       -0.02130955 0.33558267 0.33736062 0.1913712
000060 41 c6 39 be 7c dc c3 bd eb 44 d5 bd 07 75 61 3d
       -0.18142034 -0.095635384 -0.10413536 0.055043247
000070 c5 ab 73 3d b4 ef b9 bc c8 23 59 be 52 ea 5a 3e
       0.059489984 -0.022697307 -0.21205056 0.21378449
000080 00 c1 84 3e f3 22 6f 3d 17 2a 0a 3d bf 0e 84 be
       0.25928497 0.05838294 0.033731546 -0.257925
000090 56 6b 62 be 3c d4 95 3d 86 8a a0 3d 44 97 52 be
       -0.22111258 0.07315871 0.07838921 -0.20565516
0000a0 7d 58 96 be b9 fc 75 be dd f0 eb bd 6f 37 99 be
       -0.29364386 -0.24022187 -0.115205504 -0.29925105
0000b0 f6 b7 66 be f9 1e 15 3e b7 01 6e be be 80 a0 3e
       -0.22531113 0.14562596 -0.23242842 0.31348222
0000c0 a3 98 95 3c 2d ab c6 3c 06 38 71 3d c3 c7 8a 3e
       0.01826126 0.024251545 0.05889132 0.2710553
0000d0 c9 25 44 3e d0 bc 98 be 36 4a 8b 3d 77 f4 c2 3d
       0.19155039 -0.29831553 0.06801264 0.09519284
0000e0 27 30 92 3e ac d3 82 3e 50 6d 26 3e b7 52 ae 3e
       0.28552362 0.25552118 0.16252637 0.3404748
0000f0 d5 4a e6 3d 96 5f 93 be a9 ca 97 be cc 24 2f be
       0.11244742 -0.28783864 -0.29646805 -0.1710388
000100 40 c0 81 bd 26 f1 83 3e 07 96 b8 3d c3 7b 3e be
       -0.06335497 0.2576992 0.090129904 -0.18601899
000110 b4 f7 ee 3d 7f e5 55 be 1f 19 c3 bd a8 ca 2b 3d
       0.11668339 -0.20888327 -0.09526276 0.041941315
000120 89 84 4b be 62 7e 54 be 5e 34 4d bd d8 27 4a be
       -0.19874777 -0.20751336 -0.05009877 -0.19741762
000130 e4 17 98 bd a4 95 41 3e 39 52 06 3e e6 19 d5 3c
       -0.07426432 0.1890474 0.13117303 0.026013326
000140 77 e5 90 bd 30 fa af be e4 d9 84 be 66 1e 51 be
       -0.07075017 -0.34370565 -0.25947487 -0.20421752
000150 2b d5 47 be b8 1c f3 bb fc 5f 7e be 2c 21 10 be
       -0.19514911 -0.007419195 -0.24841303 -0.14075154
000160 e9 c9 7e 3e b4 0a 3b be 60 d0 a9 be 52 b6 ee 3d
       0.2488171 -0.18265802 -0.3316679 0.116558686
000170 7b 9a 9e 3e cf 77 0f 3e ef aa 88 3e 64 34 75 3b
       0.30977234 0.14010547 0.26692912 0.003741526
000180 15 c9 6f 3e fb e2 45 3e 79 a5 96 3e 57 08 68 3e
       0.2341655 0.19324867 0.2942312 0.22659431
000190 8d b6 3f 3d d2 22 1d be 4c 5a 9b bd 8e 68 1c be
       0.046804953 -0.15345314 -0.07585582 -0.1527426
0001a0 33 fc 1c bd 94 05 24 be 3d 07 bc bc 24 2a c5 bd
       -0.038326453 -0.16017753 -0.02295267 -0.09627178
0001b0 b1 ef b6 bd 3d fe 10 be f3 cb e8 3d 13 c3 9d 3e
       -0.08932436 -0.14159484 0.11367025 0.30812892
0001c0 40 81 60 bd d8 b8 44 be a8 db 80 3e 1b 60 a8 3d
       -0.054810762 -0.19211137 0.25167584 0.08221456
0001d0 1e 6a 5f be de 54 de bd 24 90 aa bd c2 f1 52 3e
       -0.21817824 -0.10856031 -0.08328274 0.20600036
0001e0 fb 78 90 be 2d 88 ed bc c5 6c 31 3d 32 20 92 3e
       -0.282173 -0.028995598 0.04331662 0.28540188
0001f0 75 a8 1b 3e 13 af 02 be ff 74 52 3d 57 3f 86 bd
       0.1520098 -0.12762098 0.051381107 -0.0655505
000200 33 ea 75 3e 6f c5 79 be 2e 82 42 be 3e bb 70 bd
       0.24015121 -0.24391721 -0.18994972 -0.058772318
000210 cc 4d 6b be a5 d7 85 be 57 f7 90 3e bd f8 02 be
       -0.22978896 -0.26141086 0.28313705 -0.12790199
000220 d9 71 8e be 1a d6 00 3e 86 19 13 3e bb 03 80 be
       -0.27821234 0.12581673 0.14365205 -0.25002846
000230 9a 48 5c be 5b d7 8f 3e e8 9d 79 3e c4 8c 81 be
       -0.2151207 0.2809399 0.24376643 -0.25302708
000240 3d f4 2a 3d 65 f6 50 3d aa bf 55 3e de 1c 80 be
       0.04173683 0.05101623 0.20873895 -0.25022024
000250 8a 2d 83 be 49 c3 b6 bd d8 9c a8 be cf 36 98 bd
       -0.2562068 -0.089239664 -0.32932162 -0.07432329
000260 c8 be 70 be 43 41 a8 3e d0 6f d4 bd 3d 86 a9 3e
       -0.23510277 0.3286229 -0.10372889 0.33110228
000270 d7 6a ee bb 63 54 84 3e e4 83 16 be 6f 55 6d 3e
       -0.00727592 0.25845632 -0.1469875 0.23177122
000280 5d 66 11 be e7 b1 9e bd fc 13 12 3e 49 58 8c 3e
       -0.14199205 -0.07748776 0.14265436 0.27411106
000290 a0 f1 15 be 9e 96 92 3e 37 71 c3 3d 7a cf 80 be
       -0.14642954 0.28630537 0.095430784 -0.25158292
0002a0 61 c1 7f 3e f7 c3 2e 3e 7a a9 8d 3d a2 c4 8e bd
       0.24976112 0.17066942 0.06917091 -0.069710985
0002b0 48 2b ba bd a1 81 48 3c fd c9 58 3e 65 d4 49 3e
       -0.090902865 0.012237937 0.21170802 0.19709928
0002c0 b5 4b 80 3d 1e f5 89 3e 6d e2 3c 3e 34 08 83 3e
       0.0626444 0.26944822 0.1844575 0.25592196
0002d0 1e 3c 16 be 1d 31 78 be 84 02 45 ba fd 85 16 3e
       -0.1467137 -0.24237485 -0.00075153285 0.1469955
0002e0 cb 37 83 3e 7e 62 af 3e 49 7c b5 3b 01 79 9d 3e
       0.25628504 0.3425483 0.0055384976 0.3075638
0002f0 31 3e e7 bc 4f 07 01 3e 05 3c 2e 3e b0 ed fd 3d
       -0.028227897 0.12600444 0.17015083 0.12398851
000300 b5 ef 96 3e e8 08 88 be 44 0d 92 3e b1 49 ea bd
       0.29479757 -0.26569295 0.28525746 -0.11439837
000310 ca b0 11 3e 75 bf 84 be 6c a2 37 be a8 0a 81 3e
       0.14227596 -0.2592732 -0.17933053 0.25203443
000320 ca d0 a5 be 2d 65 8a 3e 24 b1 74 3b 4c 25 88 bd
       -0.32385856 0.27030316 0.003733703 -0.06647739
000330 6a dc 74 3d 3a 29 9f 3e f8 98 84 3d 9c 56 69 be
       0.059780516 0.3108614 0.06474489 -0.22786945
000340 32 21 52 3e 5a 77 e6 3d f3 d7 07 3e 33 27 45 bd
       0.20520476 0.11253233 0.13265972 -0.048133086
000350 ce da cb 3c 6c 50 38 3e f5 4a d8 bd 83 65 3e be
       0.024884608 0.17999429 -0.10561172 -0.18593411
000360 f8 83 05 be 04 19 8c 3e e1 9b 7b 3c fb a7 2f 3e
       -0.13038623 0.27362835 0.015356989 0.17153923
000370 e1 76 8d 3e 7e 40 69 3e 7c 8f d1 3d eb 80 7d 3e
       0.2762976 0.22778508 0.102324456 0.2475621
000380 9c 23 95 3e 2d f6 02 3e 0c c2 e0 bd f7 ff 05 3d
       0.2912873 0.12789221 -0.109745115 0.03271481
000390 00 20 57 3d 07 f5 2b be ab ac 85 3e f9 70 62 be
       0.052520752 -0.1679269 0.26108298 -0.22113408
0003a0 19 e5 9c 3e ec c3 47 3e 2b 52 4e be 46 3e 97 3e
       0.30643538 0.19508332 -0.20148532 0.29539698
0003b0 70 4b cf 3d 9c f0 a1 be 06 4e 36 3e 00 0f a3 be
       0.101218104 -0.31628883 0.17803201 -0.31847382
0003c0 be 54 12 be 35 13 2a 3e 5d 72 5c be 03 ae 03 be
       -0.14290139 0.1660889 -0.21528001 -0.12859349
0003d0 04 25 92 be 66 ce 38 3c 65 fd e5 3d 4d a2 a0 be
       -0.28543866 0.011279678 0.11229972 -0.31373826
0003e0 43 54 76 3e 57 fb c7 3d ec 12 5c bd 47 dc 94 3d
       0.24055581 0.09764736 -0.053728983 0.07268577
0003f0 e0 da 90 be e1 aa af be ce 23 9a 3e 2d 99 4f be
       -0.28291988 -0.34310058 0.30105442 -0.20273276

bias f4 [64]
000000 95 15 d5 3d 1d 1c 52 bd 58 25 6d be 60 46 9d 3e
       0.10404507 -0.051296342 -0.23158777 0.30717754
000010 b7 d2 73 3d 05 d9 08 3d 8f f9 51 3e 0a 55 a0 bc
       0.059527125 0.03341009 0.20505355 -0.0195718
000020 7f c6 88 3e b2 1a e1 3d 97 bd 1e be 62 52 9a 3e
       0.2671394 0.1099142 -0.1550201 0.30140978
000030 cf 00 5a 3e 3d ba c1 3c 0e 60 38 3d 32 de 8f be
       0.21289371 0.023648376 0.04501348 -0.2809921
000040 1a ee 81 3e 89 aa 9a bc 7d 25 0b bc e2 3f 85 3e
       0.2537697 -0.018880146 -0.008492825 0.260253
000050 7c 61 55 bd 8a 66 a5 3e 92 d2 8e be 9e 64 7e be
       -0.05209492 0.32304794 -0.27895027 -0.2484307
000060 f1 3f 86 3d 54 92 85 3e d0 d6 e5 bd 58 8a fa 3d
       0.065551646 0.26088202 -0.11222613 0.12233418
000070 0d 4c 5f 3e 6d 10 30 be 4e 1e 8f 3e 8f b3 d3 3d
       0.21806355 -0.17193766 0.27952808 0.103369825
000080 33 83 ad be b9 a4 0b 3e 43 f6 83 3e 74 a4 47 be
       -0.3388916 0.13637055 0.2577382 -0.19496328
000090 28 fc 5e be e6 88 94 bd 50 f1 6c be bd 6d 89 bc
       -0.21775877 -0.07252674 -0.23138928 -0.01677596
0000a0 1e 22 21 be e3 4e f1 3d a0 3b 53 3d 6d e3 5e be
       -0.15735671 0.117826246 0.051570535 -0.21766444
0000b0 0a 2a 8a bd 2d 4e 99 bb 2f 67 9c be a0 0e bc ba
       -0.067462996 -0.0046785087 -0.30547473 -0.001434762
0000c0 c3 fd ad bd 91 95 9b be 40 32 63 3d 87 59 2d bd
       -0.08495667 -0.30387548 0.055467844 -0.042321708
0000d0 1e 76 b3 bd e0 9a 2a be 75 c2 81 be 3f c5 67 3e
       -0.087627634 -0.16660643 -0.2534367 0.22633837
0000e0 6f 49 5a 3e 79 03 99 be 25 f4 13 3e 12 e8 a4 3e
       0.21317075 -0.29885462 0.14448602 0.32208306
0000f0 94 a4 0d bd 39 c9 86 3e 47 09 92 be 5c 00 84 3e
       -0.034580782 0.26325396 -0.28522703 0.25781524

weight f4 [32, 640]
000000 2b cd b2 3c 65 0f f2 3c 98 c9 c2 bc 19 64 db 3a
       0.021826347 0.029548356 -0.023777768 0.0016738205
000010 de 99 1e 3b 63 2c b0 3b 48 19 e9 bc 0b f9 81 bc
       0.0024200599 0.005376385 -0.028454438 -0.015865823
000020 e1 7e ac 3c 5b 98 d2 bc 49 66 fd bb 3c 86 aa b9
       0.021056594 -0.025707414 -0.0077331406 -0.0003252494
000030 91 b9 e6 bc f7 74 c6 bb 45 47 83 bc fc a8 18 bd
       -0.028164657 -0.0060564238 -0.016025195 -0.03727053
000040 f8 0d e9 3c 2a 7e d8 3b 00 33 ec bc 92 7a a5 bc
       0.028449044 0.006606837 -0.028832912 -0.020200048
000050 37 1a fc 3b 36 d1 23 3d 51 8a 13 3d df 03 c6 ba
       0.0076935547 0.03999444 0.03602058 -0.0015107355
000060 55 2c 65 3c 90 14 1c 3d 61 55 07 3d 8b 0f 10 3c
       0.01398762 0.038105547 0.033040408 0.008792768
000070 a8 f8 9e 3c 80 4f e2 3b e2 c6 5f bc e7 a0 95 3c
       0.019405678 0.00690645 -0.013658257 0.0182652
000080 8a 98 f4 bc b0 c1 74 3b d0 ac 13 bd e6 b2 fa bc
       -0.029857893 0.0037346892 -0.03605348 -0.030602884
000090 7f 17 df 3c 50 48 e3 bc 8c 64 73 bc 39 20 c6 bc
       0.027232883 -0.027744442 -0.014855515 -0.024185287
0000a0 1c 7d 07 bc 9b 00 e6 bc 5f b0 c2 3c 8b 8b 06 bd
       -0.0082695745 -0.02807646 0.02376574 -0.032847922
0000b0 96 5f 14 3c 76 ed 09 bd f4 f4 10 3d be 0a d9 3c
       0.009055993 -0.033673726 0.035389856 0.02649438
0000c0 97 ca cd bc 6f 11 d7 bc df 59 95 3c 1d 65 83 3c
       -0.025121016 -0.02625343 0.01823133 0.016039426
0000d0 f5 c9 c3 bc c8 9c ac 3a d1 67 22 bd bb dd 1e 3c
       -0.023900012 0.0013169283 -0.03964979 0.009696419
0000e0 c9 f4 25 bd 80 0c 20 3c 11 cf 8b 39 f9 fa 07 3d
       -0.04051665 0.009768605 0.00026666422 0.03319833
0000f0 14 72 84 bc 2e 76 05 3d bc 3e 82 3c cf 6d d9 3c
       -0.016167678 0.032583408 0.015899055 0.026541619
000100 13 b4 a5 bc 44 63 93 bc 07 9c 9e 3c af c9 ef 3b
       -0.020227468 -0.01799167 0.019361509 0.0073177437
000110 cb 9a d4 3c 67 1f 49 bb f8 84 8f ba 5e 16 a8 ba
       0.025952717 -0.0030688883 -0.0010949662 -0.0012824049
000120 da e4 ca 3b 06 d8 d3 3c 40 24 fe bb 22 52 be bc
       0.006191832 0.025859844 -0.007755786 -0.023232523
000130 9e dd 12 bc 62 47 0a 3d b2 21 27 3c e2 58 06 bc
       -0.0089639705 0.033759482 0.010200905 -0.008199902
000140 f3 7a ce 3c b2 89 b1 3c b1 fd 60 3d 26 9c 13 3d
       0.025205111 0.021672104 0.05492944 0.036037587
000150 0a 55 bd 3c bc 13 32 bb ea 1a 19 3d 5d e1 a7 bb
       0.023111839 -0.0027172407 0.037379183 -0.005123301
000160 ed 34 06 3d 9d 69 1a bc 73 f7 f7 bc 59 63 b2 3c
       0.032765318 -0.009424594 -0.03026936 0.021775888
000170 71 af 39 3d 79 97 1e 3d b8 ad ac 3c 32 4f 5c 3a
       0.04533333 0.038718674 0.02107893 0.0008404135
000180 e4 a0 50 3d 42 13 a8 bc 02 6e 85 bc 05 47 99 bb
       0.050934687 -0.020516995 -0.016287807 -0.0046776556
000190 90 f1 71 bc 22 c1 b4 3c 57 c1 a2 bc 92 f8 05 bd
       -0.014767066 0.02206475 -0.019867582 -0.03270776
0001a0 6e 9b 32 3b d0 38 4c 3c 50 3f fd 3c ec 97 0e 3d
       0.0027253288 0.012464717 0.030913979 0.034812853
0001b0 ef 8d 9b 3c 2a 9d 00 3d fd 79 17 bc e4 fa 10 3d
       0.018988578 0.031399883 -0.009245393 0.035395518
0001c0 cc dd 49 bc 5f f9 5f bc 05 66 98 3c 37 5f fc 3c
       -0.012320947 -0.013670295 0.018603334 0.03080712
0001d0 c3 03 a4 bc 9f cf 77 3c ee 61 2c 3c 2c b8 0d 3d
       -0.020021325 0.015125184 0.010521395 0.034599468
0001e0 22 37 ac bc dd a8 22 3d 2d 07 e0 bc 70 f8 19 3d
       -0.021022383 0.03971182 -0.027347172 0.037590444
0001f0 78 99 98 3a d7 1c a3 bc 5a fb 3f 3b 86 1b 90 3c
       0.0011642417 -0.019911213 0.0029294104 0.01759125
000200 27 19 71 bc b1 01 00 3d 35 5c 63 3c 93 af 0a 3d
       -0.014715469 0.031251613 0.013876964 0.033858847
000210 4d 18 8b bb 09 9b 94 bc 22 ac 24 bc cc 32 2e 3c
       -0.0042448402 -0.018140333 -0.010050805 0.010632228
000220 fd 83 0d 3d 1e 98 74 bc 26 7d 21 bc 7c ae c6 bc
       0.034549702 -0.014928846 -0.009856498 -0.024253123
000230 55 7f b8 bc bb 5f 90 3b ac 82 53 3c b8 14 fb bc
       -0.022521654 0.004405943 0.012909573 -0.030649528
000240 4c 44 52 3c 1b 0d 41 3c 1e 11 67 bc c0 e6 d6 3c
       0.012833666 0.01178291 -0.014103202 0.026233077
000250 e0 ff a0 bc ec 43 fd 3c 12 b4 f1 bb 21 2e 9c 3c
       -0.01965326 0.030916177 -0.0073762024 0.019064965
000260 a1 1f f0 bc e6 fd 83 bc 42 d5 37 3a 1b 59 ea 3b
       -0.029311957 -0.01611228 0.0007012674 0.0071517355
000270 19 39 10 3d b4 a4 94 bc 98 05 69 bb a3 72 27 3c
       0.035210703 -0.018144943 -0.0035556313 0.010220203
000280 c7 96 85 ba 5e 30 1d 3d 73 eb d1 3b d9 d2 6b bc
       -0.001019203 0.038376205 0.0064062416 -0.014393532
000290 0d 7d c8 bc 3b f0 1e 3b 3a 52 14 3c 14 2d e9 3b
       -0.024473691 0.0024252075 0.009052807 0.0071159694
0002a0 aa ef bd bb 03 00 ea bb 6b 91 7d 3c f1 9c bc bc
       -0.0057963924 -0.0071411147 0.015476565 -0.023024054
0002b0 8f 87 44 bd f5 28 76 3c d8 26 20 bd 38 f5 38 bd
       -0.04798084 0.015024413 -0.039099544 -0.045155734
0002c0 b4 f7 87 3c 56 3f fc bc 46 61 92 bc 5a 36 67 3c
       0.016597606 -0.03079192 -0.01786865 0.0141120795
0002d0 f3 8a 0f bc 85 94 99 3c a5 e5 32 bd fe b8 0b bd
       -0.008761155 0.018747577 -0.043676037 -0.03411197
0002e0 f1 58 f9 3c 80 c6 58 3c c2 11 ec ba c3 16 f9 bb
       0.030437918 0.01323092 -0.0018010663 -0.0076015904
0002f0 06 20 3e 3b 03 42 ef 3c be ca 25 bb ad dc 02 bc
       0.0029010787 0.029206282 -0.0025297846 -0.0079871835
000300 65 7f 5b 3c 36 c9 31 3c 22 05 bb bc a3 a4 b9 3c
       0.013397072 0.010851195 -0.022829596 0.022661513
000310 94 1a 17 3d 45 4f 01 bd b3 40 27 3d 19 d7 4e bc
       0.03689058 -0.031569738 0.040833186 -0.012624525
000320 b5 fd 04 bd e0 f7 44 bc 6a b1 1d 3d ab 6c ad ba
       -0.032468516 -0.012021989 0.038499273 -0.0013231238
000330 97 ee da bc 4e 33 5d 3b 13 0c d7 bc 74 b1 57 3b
       -0.026725097 0.0033752504 -0.026250875 0.0032912167
000340 09 95 75 bc 84 7a a1 b9 b3 3e 0e bd e3 f6 7c bb
       -0.014989146 -0.00030799594 -0.034727763 -0.0038599304
000350 ee 2e 24 bd dd 52 0f 3d 64 06 0f 3d 2b 56 b8 3b
       -0.04008382 0.034991134 0.034918204 0.0056255064
000360 6d b3 a1 bc 25 77 0c bd 1a fb a2 bb 89 0f 5b 3c
       -0.019738877 -0.034293313 -0.0049737813 0.013370403
000370 99 20 e6 bc d4 94 af 3c 4f 04 ee bc 64 25 12 3d
       -0.028091716 0.021433271 -0.029054789 0.03568019
000380 7f 7d 3e bc 76 4e 9b 3b f5 75 a7 3c 09 e7 bc bc
       -0.0116266 0.004739578 0.020441988 -0.023059385
000390 44 1c 19 3d cf 10 d1 ba 53 87 12 3d 76 fc 04 bd
       0.03738047 -0.0015950444 0.035773586 -0.032467328
0003a0 b1 24 40 3c 15 4a 13 3d 80 9e 29 bd 54 a1 e8 3c
       0.011727498 0.035959322 -0.041410923 0.02839724
0003b0 82 d5 1a bd 36 9e 88 3c ef e1 86 3c fd a9 8f bc
       -0.037801273 0.016677003 0.016465155 -0.017537111
0003c0 3b b0 d8 3c 18 d9 06 3c 20 54 4e 3c 4b 1f 97 bb
       0.02645122 0.00823047 0.012593299 -0.0046118847
0003d0 fa 98 02 bd dc 73 1f bc 2e 4e bb 3a 46 af cc 3c
       -0.03188417 -0.009732213 0.0014290267 0.02498592
0003e0 ab 6c 37 bc fb 39 bf 3b 96 c9 03 3c 8d 28 f2 3c
       -0.011195342 0.005835769 0.008043667 0.029560352
0003f0 56 71 3b bc 93 33 86 bc df 1f eb 3c d7 1f 3f 3c
       -0.011440596 -0.016382014 0.02870172 0.011665306

bias f4 [32]
000000 25 3e 74 bc c6 3e 1b 3d d9 d8 e7 3c 48 77 32 bd
       -0.014907395 0.037901662 0.028301643 -0.043570787
000010 51 d7 69 bc 87 09 9a 3c 3f 37 13 3c d8 c3 23 3d
       -0.014272527 0.018803371 0.00898534 0.039981693
000020 7c b7 25 3d 27 fc 12 3d 83 5b d4 bc 75 2e 76 3c
       0.040458187 0.035885002 -0.025922542 0.015025725
000030 52 80 13 bd de e0 3d bc a3 35 02 3d 50 09 6f 3b
       -0.036011048 -0.011589257 0.031789433 0.0036474057
000040 fe 94 1d 3d fa 73 a7 bc a3 df c9 3b 12 1a fe 3c
       0.03847217 -0.020441044 0.006160693 0.03101829
000050 0a 0c c0 3c 6d 55 12 bb 2e 42 35 bd 44 7b 36 3c
       0.02344324 -0.002232875 -0.044252567 0.011137787
000060 ca cc 20 bd 32 79 8c bc 21 3e 36 3c 68 d1 36 bd
       -0.039257802 -0.017147634 0.011123211 -0.0446333
000070 f4 68 f2 bc 2b a8 d0 bc 81 8b c7 bc c7 6f df bc
       -0.029591061 -0.025470814 -0.024358513 -0.02727498

weight f4 [640]
000000 93 5c 80 3f 86 ff 7f 3f ee 8c 7e 3f 15 4f 7f 3f
       1.0028251 0.9999927 0.9943379 0.99730045
000010 5d 40 7f 3f 63 85 7d 3f 5e c4 80 3f fb 7b 7d 3f
       0.99707586 0.99031657 1.0059927 0.99017304
000020 34 c7 7f 3f ae f2 80 3f 02 da 7d 3f 2d 90 7b 3f
       0.99913335 1.007406 0.9916078 0.9826687
000030 af ac 7d 3f c1 af 7f 3f 01 7a 7f 3f b4 60 7e 3f
       0.9909162 0.99877554 0.9979554 0.9936631
000040 b5 6c 7e 3f f1 b9 7d 3f a6 45 80 3f 42 76 7e 3f
       0.99384624 0.9911185 1.0021255 0.993992
000050 8e 6d 80 3f 67 7f 81 3f 15 ec 80 3f cd 95 7f 3f
       1.0033433 1.0117005 1.0072047 0.9983795
000060 a9 2e 7c 3f 22 b2 80 3f ad 98 7f 3f b7 2e 80 3f
       0.985087 1.0054362 0.9984234 1.0014256
000070 5f ab 81 3f 67 04 80 3f b7 c6 7e 3f f2 35 80 3f
       1.0130423 1.0001343 0.99521965 1.0016463
000080 b3 d8 7e 3f 89 f2 80 3f 6c 27 7e 3f 60 75 7f 3f
       0.99549407 1.0074016 0.99278903 0.99788475
000090 84 24 81 3f 09 f7 7f 3f ef 2a 80 3f 4c ed 81 3f
       1.0089269 0.9998632 1.0013102 1.0150542
0000a0 25 d3 7e 3f 39 4f 7f 3f 40 6c 7d 3f 26 ad 7f 3f
       0.9954093 0.9973026 0.989933 0.9987358
0000b0 6f f8 7e 3f 56 8e 7f 3f 18 c1 7f 3f 22 4e 7f 3f
       0.9959783 0.9982656 0.9990401 0.99728596
0000c0 0b 2b 7f 3f f0 c3 7f 3f b8 39 7d 3f 46 96 7c 3f
       0.99675053 0.9990835 0.98916197 0.986668
0000d0 bc b8 7b 3f 26 55 80 3f e5 58 7d 3f 92 53 7d 3f
       0.9832876 1.0025985 0.9896377 0.98955643
0000e0 b9 1b 81 3f 5e 88 82 3f d8 35 81 3f 1e 39 7f 3f
       1.0086585 1.0197866 1.0094557 0.9969653
0000f0 78 ce 80 3f 59 d8 7c 3f 2d 37 7e 3f ae 55 80 3f
       1.0063009 0.9876762 0.9930294 1.0026147
000100 f3 6f 81 3f fa 5d 81 3f 84 47 80 3f 29 47 80 3f
       1.0112289 1.0106804 1.0021825 1.0021716
000110 f2 bf 81 3f ea 26 81 3f 1e 7f 80 3f 8d f8 7b 3f
       1.0136702 1.0090001 1.0038793 0.98426133
000120 65 86 7d 3f 0b f6 7c 3f 6b 70 7b 3f 8f 75 7e 3f
       0.99033195 0.9881293 0.9821841 0.9939813
000130 b4 bb 80 3f fc 4d 80 3f 19 a2 7f 3f 61 03 82 3f
       1.0057282 1.0023799 0.99856716 1.0157281
000140 51 d0 7f 3f 22 69 84 3f 19 46 88 3f b8 bd 82 3f
       0.9992724 1.0344584 1.0646392 1.0214148
000150 b8 b9 82 3f 5d 23 80 3f 1b 1c 88 3f 60 bb 82 3f
       1.0212927 1.0010792 1.0633577 1.0213432
000160 f3 ea 83 3f 14 d9 82 3f 06 17 80 3f a7 6c 81 3f
       1.0306076 1.0222497 1.0007026 1.0111283
000170 d1 a3 83 3f e2 c7 82 3f 8b c6 7e 3f be 58 85 3f
       1.0284368 1.0217249 0.995217 1.0417707
000180 de 1a 82 3f 89 95 80 3f 4e 03 84 3f 54 63 82 3f
       1.0164449 1.0045635 1.0313509 1.0186563
000190 b0 82 81 3f 57 f0 7d 3f 7d aa 7e 3f f8 a9 7f 3f
       1.0118008 0.99194854 0.99478894 0.99868727
0001a0 f6 46 7d 3f f6 39 7f 3f 10 80 7e 3f a4 3b 7e 3f
       0.989364 0.99697816 0.9941416 0.99309754
0001b0 13 b4 7f 3f f3 3b 7e 3f 6e 68 80 3f 16 a4 7f 3f
       0.99884146 0.99310225 1.003187 0.9985975
0001c0 60 3a 7b 3f 12 d0 7e 3f b9 d0 7e 3f bb 39 80 3f
       0.9813595 0.9953624 0.99537235 1.0017618
0001d0 20 4f 7f 3f 03 cb 7e 3f 29 f4 7f 3f bf 22 7e 3f
       0.9973011 0.9952852 0.99981934 0.9927177
0001e0 df 04 7f 3f 8f 06 81 3f bc 52 80 3f 62 e3 80 3f
       0.9961681 1.0080127 1.0025249 1.0069392
0001f0 e3 27 7d 3f 34 4e 80 3f 6d 24 7f 3f eb 55 7e 3f
       0.9888899 1.0023866 0.99664956 0.9934985
000200 8d 5a 7d 3f 4f 7f 80 3f 04 47 7e 3f 94 6d 7f 3f
       0.98966295 1.0038851 0.9932711 0.9977658
000210 80 fb 81 3f c2 9f 81 3f c3 94 81 3f 39 c6 81 3f
       1.0154877 1.0126879 1.0123523 1.0138618
000220 48 b6 7f 3f 7e 05 81 3f bf 3b 7d 3f 31 05 80 3f
       0.99887514 1.0079801 0.9891929 1.0001584
000230 93 e8 81 3f 45 b1 7e 3f fc c2 7e 3f 57 95 7d 3f
       1.0149101 0.9948924 0.9951627 0.99056
000240 a5 de 7c 3f 6a 2e 80 3f 3d 24 80 3f 85 9e 7e 3f
       0.9877723 1.0014164 1.0011059 0.9946063
000250 e7 92 80 3f 14 09 7e 3f f5 34 80 3f 59 1c 80 3f
       1.0044831 0.992326 1.0016161 1.0008651
000260 9e cb 80 3f 6f 4f 80 3f 5a bc 80 3f a7 20 80 3f
       1.0062139 1.0024241 1.005748 1.0009965
000270 d2 42 80 3f 35 59 7f 3f 49 1f 7d 3f 70 d7 7d 3f
       1.0020392 0.99745494 0.9887586 0.99156857
000280 2a 87 7d 3f 0c 3e 80 3f cb 65 80 3f 2e ca 7e 3f
       0.9903437 1.0018935 1.0031065 0.9952725
000290 46 7e 80 3f 7b 4c 7f 3f ed ff 7d 3f 46 23 7f 3f
       1.0038536 0.99726075 0.99218637 0.996632
0002a0 8d 1b 7c 3f 53 02 7f 3f fb 73 7d 3f 62 0f 84 3f
       0.9847954 0.9961292 0.990051 1.0317194
0002b0 29 7a 82 3f b9 27 7f 3f 78 49 7f 3f 7c 45 80 3f
       1.019353 0.99669987 0.9972148 1.0021205
0002c0 15 28 81 3f d6 92 81 3f 65 8a 81 3f 48 38 80 3f
       1.0090357 1.0122936 1.012036 1.0017176
0002d0 9f 74 83 3f d9 c7 7d 3f ca 35 81 3f 01 1b 80 3f
       1.0269965 0.9913307 1.009454 1.0008241
0002e0 07 ab 7f 3f 57 65 7f 3f b9 34 80 3f 10 13 7c 3f
       0.9987034 0.9976401 1.001609 0.9846659
0002f0 d2 92 80 3f d1 64 7e 3f a3 55 80 3f 79 e6 80 3f
       1.0044806 0.99372584 1.0026134 1.0070335
000300 63 a7 7c 3f 9c 5d 80 3f cb c9 7f 3f 81 1c 7b 3f
       0.9869291 1.0028567 0.99917287 0.9809037
000310 4d 1b 81 3f 70 be 7d 3f 94 a2 80 3f de c0 7d 3f
       1.0086457 0.9911871 1.0049615 0.99122417
000320 67 35 7e 3f be bc 7c 3f ae 38 7f 3f b3 79 80 3f
       0.99300236 0.987255 0.9969586 1.003714
000330 3a f3 7e 3f a3 bf 7f 3f 24 be 7d 3f e9 4f 7f 3f
       0.99589884 0.9990179 0.99118257 0.9973131
000340 e8 59 7c 3f 2f 92 80 3f 5d dd 7f 3f c4 45 81 3f
       0.98574686 1.0044612 0.9994715 1.0099416
000350 75 e1 80 3f 84 cf 7f 3f 3f bf 7f 3f 87 20 7f 3f
       1.0068804 0.9992602 0.99901193 0.9965901
000360 7e a8 7d 3f 2d 57 80 3f 99 28 80 3f 01 74 81 3f
       0.99085224 1.0026604 1.001239 1.0113527
000370 eb 7b 7e 3f 09 44 80 3f 78 a7 7f 3f 9a 69 80 3f
       0.99407834 1.0020763 0.9986491 1.0032227
000380 35 66 7f 3f cf 48 7f 3f 6f 81 7f 3f e1 8a 80 3f
       0.9976533 0.9972047 0.99806875 1.0042382
000390 94 6f 7e 3f 63 63 7c 3f b9 3f 80 3f 4c 7a 7c 3f
       0.99389005 0.9858915 1.0019447 0.9862411
0003a0 bf a5 80 3f 2d 03 80 3f 65 2c 80 3f 6b 32 80 3f
       1.0050582 1.0000969 1.0013548 1.0015386
0003b0 33 bc 80 3f 2e 23 80 3f e9 1d 80 3f 49 79 7d 3f
       1.0057434 1.0010736 1.0009128 0.9901319
0003c0 86 5b 7d 3f 35 6c 7e 3f 48 7b 7e 3f 1b a6 7e 3f
       0.9896778 0.9938386 0.9940686 0.99472207
0003d0 9f 42 7e 3f 46 79 7f 3f a6 1b 80 3f 59 92 7f 3f
       0.99320406 0.99794424 1.0008438 0.99832684
0003e0 24 38 7f 3f 65 39 7d 3f dc 8d 7c 3f 42 47 80 3f
       0.9969504 0.989157 0.9865396 1.0021746
0003f0 2c 27 80 3f 6d 13 7f 3f d7 0b 7e 3f 9c 69 7d 3f
       1.0011954 0.99639016 0.99236816 0.9898927

bias f4 [640]
000000 76 fc f3 3b b3 e4 1d 3a 7f d7 e6 3a 0a d7 1b 3b
       0.007445867 0.00060231535 0.001761183 0.0023779296
000010 ea d6 51 3b 9a cc f7 bb ca 74 a5 bb 10 6d 70 bc
       0.0032018968 -0.007562232 -0.0050493227 -0.01467444
000020 10 97 36 bc 34 99 5b bc 8a ff fd 3b 8c 06 60 3c
       -0.011144415 -0.013403226 0.00775141 0.013673436
000030 53 cc 20 3c 60 4a c6 b9 a4 7e 40 3b f5 a3 32 3b
       0.00981434 -0.00037820917 0.0029372359 0.002725837
000040 5c 4d be 3b f2 79 f5 3b 99 c8 91 bb c6 a5 0f 3c
       0.005807562 0.0074913437 -0.004448962 0.008767551
000050 97 0b ea bb 91 8e ba 3b ce ec 96 3b 19 f6 ca bb
       -0.007142495 0.005693265 0.004605866 -0.006193888
000060 64 06 97 3c c9 cf 30 3c e1 78 6a 3a 22 68 11 3c
       0.018435664 0.010791727 0.0008944404 0.008874925
000070 58 4a 6c 3b e7 7d c3 3b 7b 35 36 bb ac 6f b5 bb
       0.0036055055 0.0059659365 -0.0027802873 -0.005536994
000080 d0 44 ae bb 5c e2 07 3c 64 b0 29 bc d6 4e d3 bb
       -0.0053182617 0.008293714 -0.010356996 -0.006448607
000090 ff 76 a7 3b a5 64 cd 3a 40 0e 23 b6 63 20 70 bb
       0.005110621 0.0015670253 -2.4297187e-06 -0.0036640398
0000a0 f4 42 b9 3b 48 46 e1 3a c5 98 03 bc ff a5 eb 3b
       0.0056537334 0.0017187083 -0.008032029 0.007191419
0000b0 3c 80 9e 3b 0b ff 87 bb e0 90 a8 3b 02 f7 f2 3b
       0.004837064 -0.0041502765 0.0051442236 0.0074146995
0000c0 36 6e 92 bb 94 79 54 bb fb d2 fb 3b 0d 44 3f 3c
       -0.0044687046 -0.00324211 0.007685063 0.011673939
0000d0 0c 49 4b 3c 85 78 89 bb 25 94 bb 3b f9 3c 00 3c
       0.012407552 -0.0041952753 0.0057244473 0.007827037
0000e0 c8 3d 0f bc b1 cb 70 bc 1c ac 0b bc d6 d9 19 bb
       -0.008742757 -0.014697001 -0.008524921 -0.0023475788
0000f0 0d 9d d3 3b 2a b0 06 bc d2 d8 17 bc a4 aa 06 bc
       0.006457931 -0.008220712 -0.009268003 -0.008219395
000100 4c 97 b7 3b 0c 18 29 3c 37 6f 8e bb b3 9e 24 bc
       0.005602753 0.010320675 -0.004346754 -0.0100476025
000110 e7 bd 79 3a 02 1d 00 3c e2 f2 97 bb b4 0f 68 3c
       0.0009526894 0.007819416 -0.004637108 0.0141639
000120 46 d1 0b 3c 6c 36 3b 3c 25 94 10 3c 99 4b cd ba
       0.008533781 0.011426549 0.008824383 -0.0015662789
000130 f3 a6 56 bb 5b 4d 10 bb d3 b2 0e 3c b5 8d 71 bb
       -0.0032753318 -0.0022018764 0.008709627 -0.0036858146
000140 16 03 23 bb 6a 20 15 3c c9 9f 42 3b 95 d5 fe 3b
       -0.0024873666 0.009101966 0.002969729 0.007776926
000150 27 50 3d 3a 69 b4 7d bb 92 ac 9f 3b ca 0a 9d bb
       0.00072217215 -0.003871227 0.004872867 -0.004792546
000160 37 34 d3 3b c6 8b 1e bb bd 00 a6 3b cb fc b1 3b
       0.0064454335 -0.0024192198 0.005066006 0.0054317466
000170 f0 a8 0d 3c 2d 08 94 3c 24 15 2c 3c fe c3 e7 3c
       0.008646235 0.018070305 0.010503087 0.028291699
000180 6a 16 0c 3c 04 8b 95 3b 28 72 c0 3b 8f ef 0d 3a
       0.008550266 0.004563691 0.0058729835 0.000541442
000190 40 db 2e bc 7c 8d 7d bb 73 09 10 3c 87 bf 86 bb
       -0.01067239 -0.0038689068 0.008791315 -0.0041121873
0001a0 53 eb 10 3c ac 62 ea b8 8b fd 66 39 14 63 8d 3b
       0.008845168 -0.000111763686 0.00022028961 0.0043147895
0001b0 92 ca 8d 3b f7 89 81 3c 07 c8 4c 3b 76 70 97 39
       0.004327127 0.015812857 0.0031247155 0.00028884754
0001c0 bd 77 4a bc 34 6c 12 bc d4 32 97 bb 8f ed 11 3c
       -0.012357649 -0.00893693 -0.0046142135 0.008906736
0001d0 c7 58 6e bc ad 92 3a bc 36 03 05 3b 5b c1 ae 3a
       -0.014547533 -0.011387509 0.0020296103 0.0013332771
0001e0 b1 7d f1 bb 60 54 c5 3b 4b ea 0e 3b 66 ce 75 3b
       -0.00736972 0.006022021 0.002180713 0.0037507056
0001f0 61 e2 4a bc 9c eb f7 3a 6c b3 2c bc 7e 8d a0 bb
       -0.0123830745 0.0018914822 -0.010540824 -0.0048996797
000200 05 7f 24 bc 98 8f a2 ba 07 3a 99 3b ba b0 88 3b
       -0.010040049 -0.0012402413 0.004676107 0.004171458
000210 f1 ec 44 bc 4e 3c 57 bc 5f 9d 1e bc d4 85 39 bc
       -0.012019382 -0.013136936 -0.009681075 -0.011323411
000220 44 0a 05 bc a0 d8 d3 bb 49 cf 84 3b ff 68 8f bb
       -0.008120123 -0.0064650327 0.0040530306 -0.00437653
000230 27 80 74 bc 1c 40 5c 3a 4d 43 7d bc fe f8 96 3a
       -0.014923132 0.0008401887 -0.01545794 0.0011518297
000240 4b 23 a3 3a 61 2c 21 bc c9 b7 5c bb 72 3a 27 3a
       0.0012446431 -0.009837241 -0.003367888 0.00063792535
000250 0e 3b 18 bb 0b 39 c3 bb fd 5e 98 b9 93 be 47 bb
       -0.0023228559 -0.005957728 -0.0002906247 -0.0030478581
000260 0f 36 11 bc 8e b7 93 bb 62 17 be bb 86 52 9e bb
       -0.008862986 -0.0045079654 -0.0058011273 -0.004831615
000270 5f 55 41 bb 59 94 24 3a ad db 35 3c b8 a7 61 3b
       -0.0029500348 0.0006278209 0.011099738 0.0034432244
000280 f8 e7 49 bc 6b d9 e1 3b ff 19 09 3c 9e 6a d3 bb
       -0.012323372 0.0068923733 0.008368014 -0.0064519187
000290 8c b4 cc 3b 48 fb 85 bb 8e 1a 9d bb ca 7a b2 bb
       0.006247109 -0.004088793 -0.0047944253 -0.0054467665
0002a0 4d 80 aa bb f9 3a bf 3a d3 af 55 3c 83 db a1 38
       -0.005203283 0.0014589719 0.013042408 7.7179655e-05
0002b0 73 58 6f bb ba 39 06 3b e8 05 b2 39 10 b9 17 bc
       -0.0036521226 0.0020481185 0.00033955206 -0.009260431
0002c0 b8 6b 67 bc 0f 19 94 bb 5e ab 53 bc 49 68 ee bb
       -0.014124803 -0.004519589 -0.012919275 -0.0072756154
0002d0 c7 24 5e bc 44 0a 7d 3b 53 fe 3e bc e7 0d 33 bb
       -0.013558573 0.0038610855 -0.011657315 -0.002732152
0002e0 75 2f 03 bb 0b 3a 30 bb 21 3b 0f bc 61 00 98 3b
       -0.00200173 -0.0026890065 -0.008742125 0.004638717
0002f0 92 2b d6 bb a8 42 a3 3b 37 ae 8b 3b b3 42 bb 3b
       -0.0065359557 0.0049823113 0.0042627114 0.0057147383
000300 0e e3 f6 bb 27 ab 74 3b 51 49 ef ba b7 28 f4 bb
       -0.0075343912 0.003733346 -0.0018256103 -0.0074511427
000310 8d 9d 0e 3c 63 b8 8e bb f7 e0 50 3b 4f ac 15 bc
       0.008704555 -0.0043554767 0.003187237 -0.00913532
000320 2d 33 77 3c 80 2b ea 3b db 60 9e 3b 44 b3 f2 3b
       0.015087885 0.007146299 0.0048333234 0.007406624
000330 e3 2b 8f 3c 4f 8b 8a bb ae 66 3c 3c d0 d7 60 3c
       0.017476982 -0.0042280327 0.01149909 0.013723329
000340 bc 21 1a 3c 88 c2 02 3c 3c 16 c1 bb 10 8a e1 3b
       0.009407457 0.00798095 -0.005892543 0.0068829134
000350 b5 aa 1a bb 95 9e 0e bc 7a 26 01 bc a2 38 db bb
       -0.0023600284 -0.008704801 -0.007882709 -0.0066901008
000360 67 22 99 bc 50 9e 90 bb a7 e0 01 3b ae 8f 68 b9
       -0.018693162 -0.0044134036 0.001981774 -0.00022178769
000370 be dc b4 3b 03 2b 67 3b ec 6d 78 3a 87 8b b3 ba
       0.0055194786 0.003527344 0.0009476829 -0.0013698199
000380 16 01 41 bb f4 bd 47 3c 90 85 ee 3b 27 9f 8d bb
       -0.002945011 0.012191284 0.0072791055 -0.004321951
000390 10 a9 88 ba 8c 42 6b 3c c7 4a 0d 3b 0c 23 47 3c
       -0.0010426361 0.014359128 0.0021559463 0.012154352
0003a0 92 df 85 bb d3 53 88 ba fa 33 f1 ba cb 48 d7 ba
       -0.0040854895 -0.0010400958 -0.0018402331 -0.0016424892
0003b0 2d dc d3 bb 07 6b 9c ba 9a 83 c4 3a d7 dc 14 3c
       -0.006465456 -0.0011933752 0.0014992834 0.009085855
0003c0 2e d5 22 bc 93 92 b0 bb c1 05 ad 3b eb 25 62 3b
       -0.009938521 -0.0053885668 0.005280227 0.0034507464
0003d0 25 3b 82 bb f2 73 dd 3b 41 34 92 3a 46 7c f4 3b
       -0.0039743357 0.0067582065 0.0011154489 0.0074611036
0003e0 49 78 83 bb 4f 19 26 bc 2a 00 1a 39 ca f6 64 ba
       -0.004012142 -0.01013787 0.00014686646 -0.0008734284
0003f0 95 bb 02 bc 2d 6d 13 bc 63 1c 30 bb 2f 9e 74 bc
       -0.007979293 -0.0089981975 -0.0026872389 -0.014930292

weight_ih_l0 f4 [512, 32]
000000 0b ea 6d bc 83 0e 10 3d 52 b0 2c 3d 35 03 0b 3d
       -0.014521132 0.03517009 0.04216034 0.033938605
000010 cf 08 c2 3c ca e8 ac bb 52 be 8d bd 0a 0f 07 3d
       0.02368584 -0.005276774 -0.06921066 0.032973327
000020 8b 38 a8 bc 43 65 08 3c 43 b8 90 3d 0e 2c 87 bc
       -0.020534774 0.008324924 0.07066395 -0.0165005
000030 b2 f8 76 3d 3e 7d 3d 3d 42 0b b4 bd f1 36 5c bd
       0.060295768 0.04626202 -0.0879121 -0.053763334
000040 41 87 62 3d 06 0c 9b 3d 64 fc a1 3c cd fb a2 3c
       0.05530477 0.07570653 0.01977367 0.019895459
000050 94 67 55 bd 09 e8 95 bd 43 ed a3 bc db 93 87 bd
       -0.052100733 -0.07319648 -0.020010596 -0.06619998
000060 5c 7c 66 bd 19 60 91 3d 66 cd 8f 3c 19 57 5a bd
       -0.056270942 0.07098407 0.017553996 -0.05330572
000070 de ca 89 3d aa 3c 18 3d 97 f3 91 3d 5d a4 8b 3d
       0.06728147 0.03716723 0.07126539 0.06818459
000080 dd f0 b9 bc ef 82 5e 3d db 41 16 3d 78 ec 5f 3d
       -0.02269786 0.054324087 0.0366839 0.054668874
000090 47 3b cb 3b 8d 1f b0 bd b6 30 08 3d d0 fd 04 bc
       0.006202135 -0.08599768 0.03324958 -0.008117154
0000a0 4f 3d 5e bd 0c aa 80 bd 7e 2c fd 3c 2a 46 a1 bb
       -0.054257687 -0.06282434 0.030905005 -0.0049216943
0000b0 4a c2 bd bc 01 cf 90 bc 4e 3e 47 3d da 51 4f bd
       -0.023163933 -0.017676832 0.048643403 -0.05061517
0000c0 b9 27 b1 bd 23 4c b1 bd 5e a5 e4 bd 6f e5 4a bd
       -0.086501546 -0.086571 -0.11164354 -0.04953521
0000d0 ee 29 54 3d d9 52 15 3d 2d de 27 bd 9a 3f 9b bc
       0.0517978 0.036455963 -0.040983368 -0.018951226
0000e0 17 4b 69 3c 54 6a 0b 3d 7e 3d a2 bd a2 0d d0 3c
       0.014239094 0.03403695 -0.07921885 0.025397126
0000f0 50 2c ad bc a8 15 9d 3d 49 1e 2f bb dc 22 45 3b
       -0.021139294 0.07670146 -0.0026720932 0.0030080592
000100 26 09 03 3c 5b e1 89 bd ee 09 9d 3d ed 8c 84 3c
       0.007997787 -0.06732436 0.076679096 0.01618048
000110 70 56 76 bd 87 aa 3e bd 4e 87 86 bd 48 0c 38 3b
       -0.060141027 -0.046549346 -0.06568776 0.0028083492
000120 39 c4 97 bd e2 10 01 bc f4 df 85 bd d9 42 49 bd
       -0.074104734 -0.00787756 -0.06536856 -0.049136017
000130 be 25 9d bd 34 53 26 bd b9 4b 4d bd ef e7 e8 bc
       -0.076732144 -0.040606692 -0.050121043 -0.028430907
000140 c7 e0 82 3d da a3 a2 3d 33 d8 29 bd c4 d2 58 3d
       0.06390529 0.079414085 -0.04146595 0.052935377
000150 37 e7 fc 3c c5 c9 80 3c b5 cb 1d 3c e2 51 c2 3a
       0.03087197 0.015721211 0.009631087 0.0014825428
000160 27 e8 25 bd 5a 44 32 bd 3d 18 4f 3d a1 66 05 bd
       -0.0405046 -0.043522216 0.050560225 -0.032568578
000170 76 de 05 3d 1c e2 48 3c 4f 38 73 3c ab 74 be 3d
       0.03268286 0.01226094 0.014844968 0.092995964
000180 1b 6f 0c bd 06 24 49 bd 03 40 10 bd 17 79 04 bd
       -0.034285646 -0.04910662 -0.035217296 -0.032342043
000190 bb 8f cb 3c f4 3a be 3c fc a2 bb bd 75 d6 00 bd
       0.02484881 0.02322147 -0.09161946 -0.031454522
0001a0 86 9b 82 bc c0 88 a4 bd 88 66 fe bc ae 3d b0 bb
       -0.0159433 -0.080338955 -0.03105475 -0.0053784465
0001b0 1d e5 fd ba 1a 77 4d bd aa 56 23 bd f6 e0 de 3c
       -0.0019370649 -0.050162412 -0.03987757 0.02720688
0001c0 3b 19 89 bd f0 05 74 bd 85 1e a2 bd f5 c1 8f bd
       -0.066942655 -0.059575975 -0.079159774 -0.07019416
0001d0 f7 5b 73 bd 4a ee 65 3b 42 4f 9e bd d9 84 00 3d
       -0.059413876 0.0035084658 -0.07729961 0.031376693
0001e0 e0 36 07 bd 5b 31 c5 3b 7a 05 85 3d ab 21 c2 3d
       -0.033011317 0.0060178465 0.06495185 0.09479078
0001f0 63 20 16 3c 3d 25 ac bd 0f eb 17 3d 22 f0 92 3c
       0.009162995 -0.0840554 0.037089404 0.01793677
000200 0b 47 af 3c 13 f0 85 bc 80 68 7b 3d 92 4f 17 bd
       0.02139618 -0.016349828 0.061378956 -0.03694112
000210 7f be 9e bd 06 9d da 3c 87 b2 19 3d 91 6a 42 3d
       -0.07751178 0.026686203 0.037523773 0.04746491
000220 60 49 58 3d 8f 13 82 3d e4 6f 6f bb d1 cf 84 3d
       0.05280435 0.06351387 -0.0036535198 0.0648495
000230 cf 98 9b 3d 0e b9 9f 3d e3 18 82 3c b8 ec 75 3d
       0.07597505 0.07798968 0.015881008 0.060040206
000240 04 80 89 3d a9 43 92 3d 86 5c 69 bd da ad 25 bb
       0.0671387 0.071418114 -0.056973003 -0.0025280626
000250 44 f3 24 bd 99 87 2d 3c 76 d8 15 bd f0 cc 3b 3d
       -0.04027106 0.010591411 -0.036583386 0.04584974
000260 7a 7e bf bd 07 e2 a5 bd 30 a8 ae 3d 52 e0 c4 bd
       -0.09350295 -0.08099752 0.08528173 -0.09613098
000270 5d ec 75 3c 45 7a 07 bd 61 8c e0 3c e1 80 bd bd
       0.015009967 -0.03307559 0.027410688 -0.09253097
000280 aa ae 8b bd 6d 49 d5 3d c9 b6 05 3d 19 42 af 3c
       -0.06820424 0.104143955 0.03264502 0.021393823
000290 77 bc 96 bd 35 1f 38 bd fa ec 42 3d 90 82 a0 3d
       -0.073601656 -0.044951636 0.04758928 0.07837403
0002a0 13 55 77 3c 7a 29 3e bd cb 56 95 3d b0 0c 99 bd
       0.015095967 -0.046426274 0.07291945 -0.07473123
0002b0 8f fd 75 bd 22 05 1d 3d e7 03 80 bd a7 8e 7a bd
       -0.060056265 0.038334973 -0.06250744 -0.0611712
0002c0 be a8 51 bd 78 1b 23 bd 43 32 9c bd b6 83 9a bd
       -0.051186316 -0.039821118 -0.07626774 -0.07544653
0002d0 1d 91 c4 bc f5 bc 86 3c d0 68 fe bc d5 15 a2 bd
       -0.023994977 0.016447524 -0.031055838 -0.079143204
0002e0 e7 ec 9d 3d 8b 87 2a bd cc 23 0a 3d ef 4c 5c bd
       0.07711201 -0.04163317 0.033725545 -0.053784307
0002f0 0a 65 dd ba f5 d8 b0 3d 17 03 07 3b 92 96 99 bc
       -0.0016891074 0.08635131 0.0020601207 -0.018748555
000300 30 ac b1 3d 76 3a 9b bd 53 3e 62 bd 4d 2a 8c 3d
       0.0867542 -0.0757951 -0.05523522 0.06844006
000310 93 f0 55 3d a9 07 2a bc d2 30 9a bd fa 9a 25 3d
       0.052231383 -0.010377803 -0.07528843 0.040431
000320 af a9 ab bd c5 cf e1 bc 2c 92 95 bd 28 e1 82 bd
       -0.08381974 -0.027564893 -0.07303271 -0.063906014
000330 7b bd e2 3c d2 b0 85 3c 1a 4d bb bd 91 85 93 bc
       0.027678242 0.016319666 -0.09145565 -0.018008025
000340 bd 04 8d 3d aa fe 44 3d 18 62 a2 bd 37 1e 34 bc
       0.068856694 0.04809443 -0.07928866 -0.010993532
000350 59 79 af 3d 0f fb cb 3c f5 a9 a9 3d f1 2c da 3b
       0.08568067 0.024899988 0.0828437 0.0066581895
000360 79 45 2a bd c7 54 9e bd 50 99 20 3c 66 a6 24 bc
       -0.04157016 -0.07731014 0.009802178 -0.010049438
000370 40 f0 9e 3d 28 b3 8f 3c b6 e7 ed 3c 6d d6 0a 3d
       0.07760668 0.017541483 0.029041152 0.0338959
000380 23 99 26 3c b1 62 1d 3d cc 5b 92 3d ad f7 90 bd
       0.010168347 0.038424198 0.07146415 -0.070784904
000390 ca e9 b1 bd e6 5e 50 3d 52 4b 13 bd e1 94 34 3c
       -0.0868717 0.050871752 -0.035960503 0.011021824
0003a0 28 0b ae 3c 83 15 eb 3c 2b e9 9b 3d 3a a4 2a 3c
       0.021245554 0.028696781 0.07612833 0.010415131
0003b0 85 19 a5 3c 41 ee b4 bd 37 70 ec 3b a1 24 87 3d
       0.02015377 -0.08834506 0.0072155255 0.06598783
0003c0 4c 4c 83 bd e9 13 89 3d 3b ff 01 3d 24 af 06 3d
       -0.06411037 0.06693251 0.031737547 0.03288187
0003d0 6d ef d0 3c 28 25 1e bd a9 8b bf bc 2a f1 66 3d
       0.025504792 -0.038609654 -0.023382025 0.056382336
0003e0 40 69 b5 bd d5 52 9e bd 9e 1f 16 bd f9 ca 62 3d
       -0.088579655 -0.07730643 -0.036651246 0.05536935
0003f0 52 8e c2 bc d5 b2 a0 3c b2 84 a3 bd 56 a9 9b 3d
       -0.023749504 0.019616524 -0.07984294 0.07600658

weight_hh_l0 f4 [512, 128]
000000 53 ee 95 bd 22 64 74 3c b4 f9 79 3c a1 67 1a bc
       -0.07320847 0.014916452 0.015257288 -0.009424121
000010 1a 41 0d 3d 3f 3d 89 bd 07 5d 89 bd 6e 54 85 3d
       0.034485914 -0.06701135 -0.06707197 0.06510244
000020 00 e6 ac bc 66 91 cc bc 50 a3 50 bd 97 f1 9b 3d
       -0.021105766 -0.024971675 -0.050936997 0.07614439
000030 b6 db 88 3c 91 cb a3 3b d2 04 fc bc 18 10 94 3d
       0.016706329 0.0049986322 -0.030764017 0.07229632
000040 0e b0 84 bc 84 4d 85 3d 8f cb af 3d a6 e4 3b bd
       -0.01619723 0.065089256 0.085837476 -0.045872353
000050 bb fa 97 3d e6 bb 0b 3d 31 e6 96 3d ab 5c ae bd
       0.0742087 0.03411474 0.07368124 -0.08513769
000060 f6 bd 64 bd 2e 55 a7 bc e5 28 8f 3c d9 3d b0 3d
       -0.055845223 -0.020426359 0.017475555 0.086055465
000070 fd 59 96 3d 0e 92 34 bd e8 d1 3e bd 4e d1 b8 bd
       0.07341383 -0.0440846 -0.0465869 -0.09024297
000080 be c6 87 3d 67 66 4d bd f1 3a 8e 3d 4f d7 23 3d
       0.06629704 -0.050146487 0.06944836 0.040000256
000090 6d fd 58 3d 04 f7 03 bd ae 57 99 3d 71 26 1d bd
       0.05297606 -0.032217994 0.07487427 -0.03836674
0000a0 f0 20 c9 3d 0a f2 a8 bd a0 65 68 3d a2 cb 60 3d
       0.098207355 -0.0824929 0.056737542 0.0548817
0000b0 23 4e bd bd aa 27 65 bd 41 85 d5 3c bf cd 6b bd
       -0.09243419 -0.05594603 0.026064517 -0.05756926
0000c0 60 75 85 bd 91 8f 2e bd 4c b1 3b 3d 50 d6 47 3c
       -0.06516528 -0.042617384 0.04582338 0.012197092
0000d0 93 74 1e bb 8b cb 0e bd cc b1 44 bd 4a 0c 4f 3d
       -0.002417837 -0.034862082 -0.048021123 0.05054883
0000e0 bd e5 6e 3c 03 ae 98 3d 29 d9 88 3d ca ee fd 3b
       0.014581141 0.07455065 0.06682045 0.007749413
0000f0 d9 69 b8 bc 1c 9d 9c 3c 83 94 76 3c 86 36 1f 3d
       -0.02251141 0.019117884 0.015050056 0.038870357
000100 34 f9 93 3d 37 ce 21 bc c3 24 7d 3d b2 97 88 3d
       0.07225266 -0.009875826 0.061802637 0.066695586
000110 d0 b3 6e bd 98 d3 6a 3d ad bd 3f 3d 07 91 98 3d
       -0.05827695 0.057330698 0.04681175 0.07449537
000120 4d 30 8d 3c 20 6f bf bd 58 23 c8 bd d3 8b 1c bd
       0.017234946 -0.09347367 -0.09772366 -0.038219284
000130 a4 f2 b1 bd e4 d6 90 3c 94 78 f3 ba 3a 2b cc 3c
       -0.08688858 0.017680593 -0.0018575364 0.024922956
000140 be 78 b0 bd 13 39 48 bb ad a8 b1 bd 05 f7 7b bd
       -0.0861678 -0.0030551597 -0.086747505 -0.061514873
000150 68 4c 26 3d af 0f 23 3d 93 da 0c bb a0 ea 92 3d
       0.04060021 0.03980988 -0.0021492585 0.071736574
000160 2e 39 1a ba 21 55 b1 3d 46 2f 00 3d ad 5b d8 bc
       -0.0005883154 0.08658815 0.031295083 -0.026410902
000170 04 42 41 bd 86 c5 83 bd 07 86 4f 3d 8b 7b 36 3d
       -0.047182098 -0.06434159 0.050664928 0.044551414
000180 47 76 e2 3c fa 5f ce bc 4f e7 c5 3d 95 7d 10 3c
       0.02764429 -0.02519225 0.09663259 0.008819004
000190 49 dd 43 3d c4 a3 13 bd f5 10 39 bd 8a 53 37 3d
       0.047818456 -0.03604485 -0.045182187 0.044757403
0001a0 83 1b 32 3d ef 54 1e bd 7d bf 87 bd 53 d2 5f 3d
       0.04348327 -0.038655218 -0.0662832 0.05464394
0001b0 03 ed c6 3d 60 7e 30 bd 3d 98 7d bd c8 a0 93 bd
       0.09713175 -0.04308927 -0.061912764 -0.07208401
0001c0 f1 28 d6 3d bd d6 80 3d 26 1f 9b bc 71 8e 8f bc
       0.10457028 0.06290958 -0.018935751 -0.017523976
0001d0 e7 ee 65 3b 06 f0 a9 bc d3 03 97 3d b7 06 29 3d
       0.0035085024 -0.020744335 0.07373776 0.04126617
0001e0 97 7d 0c 3d 1b 04 1f bd 08 e4 df 3c 47 9c dd 3b
       0.03429946 -0.038822275 0.027330413 0.0067630145
0001f0 d7 79 68 bd 98 fd 64 3c dc 74 4d 3d 0b 7c 30 bd
       -0.05675682 0.013976477 0.050160274 -0.043087047
000200 13 c4 8c 3d 9e 61 6f bd ad 5b a9 3c 3d 91 8c bd
       0.06873336 -0.058442704 0.020673597 -0.068636395
000210 48 be 8c 3d 90 c5 c3 3c 3e ac e5 bc e6 ca 8a bc
       0.06872231 0.023897916 -0.028036233 -0.016942453
000220 de 7c 70 bd 26 05 96 3d 75 cd 61 bd d4 61 b4 3d
       -0.058712833 0.07325201 -0.05512758 0.08807722
000230 8c 88 22 3d 1f 9e 13 3d b3 95 68 bd e4 29 45 bc
       0.039681002 0.036039468 -0.05678339 -0.012033913
000240 cc 9a 84 3d 03 d1 aa 3d 9e 4a 96 3d de 1b 12 3d
       0.06474838 0.08340647 0.07338451 0.035671107
000250 0a b7 16 bd 74 55 a4 3d c5 0d df bc 43 e2 58 bc
       -0.036795653 0.080241114 -0.027228246 -0.013237539
000260 8d c4 56 3d 34 5e 75 bd bc 27 99 bd 35 c7 63 bd
       0.05243354 -0.059904292 -0.07478282 -0.0556099
000270 12 be f8 bc 86 fb 3f 3d 21 74 1b bd bd b6 15 bd
       -0.03036407 0.04687073 -0.037952546 -0.036551226
000280 6c b0 0c 3d ea 49 9c 3d c6 0a b1 bc b4 8c 95 3d
       0.034347937 0.076312855 -0.021611582 0.073022276
000290 94 ec 02 3d 9d 5a 77 3d e3 db 94 bc 1a b5 11 3d
       0.0319639 0.06038915 -0.018171256 0.035573103
0002a0 99 09 eb bc a5 a3 43 bd 16 9d b7 3c f5 f2 fd 3c
       -0.0286911 -0.047763485 0.022413772 0.03099964
0002b0 5b 2e b6 3d 11 ad 38 3d 11 9d 54 3c b5 e3 94 bc
       0.0889556 0.045086924 0.012976901 -0.018174985
0002c0 4c 0f 4f bc 09 57 5f bd 75 e9 1e bd 5c b1 89 bd
       -0.012637924 -0.054526363 -0.03879686 -0.06723282
0002d0 1f 53 e5 3b 19 eb 86 bd 1d da d8 ba 31 06 03 3d
       0.006998434 -0.0658781 -0.0016544495 0.031988326
0002e0 9c ad 09 bd 31 c1 3c 3d f0 88 22 3d 8e bb 34 bd
       -0.033612832 0.04608268 0.039681375 -0.04412418
0002f0 81 a2 b5 3d 2e bf a7 bd ae 42 90 bd 0e 33 5b bd
       0.08868886 -0.081907615 -0.07043968 -0.053515486
000300 e7 30 e6 3c 72 5d 04 bd 68 32 a9 3d eb e3 14 3d
       0.02809949 -0.03231568 0.08261567 0.036350172
000310 61 27 c0 bd 1d bb b7 bd b5 fc 9d 3c ee 11 45 bd
       -0.09382511 -0.08971236 0.01928554 -0.048112802
000320 2b 1e 1e 3d 30 bf 26 bd fa c9 2b 3d 9d 9a b9 bc
       0.03860299 -0.040709674 0.041940667 -0.022656733
000330 c1 a1 c1 3d d3 d6 9c 3c 8d c9 63 bc d2 f0 70 bd
       0.0945468 0.019145405 -0.013903034 -0.058823414
000340 37 d6 99 3d 1e 0a a8 bc 76 bd 23 3d af 28 7b 3b
       0.07511561 -0.020512637 0.039975606 0.003832381
000350 9d 8e 59 bd 70 d6 95 3d d3 be b1 bc dd 15 88 3c
       -0.053114522 0.07316291 -0.021697437 0.016611988
000360 d6 b6 92 bd 1e 4d 62 bd 52 64 2e 3c e4 18 1b 3c
       -0.071637794 -0.055249326 0.010644035 0.009466384
000370 07 2e ed 3c 92 cd 0d bc 7c 28 dc bb 2d 3c d0 bd
       0.028952612 -0.008654969 -0.0067186933 -0.101677276
000380 e8 b2 1f bd 55 aa a3 bd 27 18 1f bd 5d 2b 4e bd
       -0.038988978 -0.07991473 -0.038841393 -0.050334323
000390 f9 4c 29 3d e7 31 be 3c e0 65 9b 3c 9c a4 9b 3c
       0.041333172 0.023217155 0.018969476 0.01899939
0003a0 ec a2 95 3d 63 d5 77 bc 8b e9 99 bd f3 6a 99 bd
       0.073064655 -0.015126559 -0.07515248 -0.07491102
0003b0 64 81 19 3d df fb e2 3c 8f 06 60 3d 73 f2 bc bd
       0.037476912 0.027707992 0.054693755 -0.09225931
0003c0 97 21 0a bb b8 16 9b 3d 4b a5 47 bd c0 45 8c bd
       -0.002107715 0.07572693 -0.04874162 -0.06849241
0003d0 9b 28 44 bb 33 ef a6 bd 05 56 ad 3d be 12 1d 3d
       -0.002993143 -0.081510924 0.084636725 0.038347952
0003e0 0d 04 5b 3d 74 97 58 bd 27 47 0c bd 12 91 45 bc
       0.05347066 -0.052878812 -0.034247544 -0.012058513
0003f0 50 0a 7e 3b 87 02 3f 3d 8f 89 81 3d bd 88 30 3d
       0.003876347 0.04663327 0.06325065 0.043099154
