Single Battery Model/5. CNN-LSTM Models/model_B0006_charge_rob.pth (torch, 432658 bytes, 15 tensors)

weight f4 [64, 3, 3]
000000 71 b5 93 3d 02 75 bc bd e8 71 08 bd 4e fa c8 bd
       0.072123416 -0.09202005 -0.033311754 -0.09813367
000010 7d 87 2a 3e 03 64 9e bd 7f 7f b2 3d 55 cb a1 bd
       0.16653247 -0.077339195 0.08715724 -0.07900111
000020 e7 bc 62 3e 42 93 37 3d c5 f3 dd 3d 42 73 be bd
       0.22142373 0.04481817 0.10837511 -0.092993274
000030 27 aa 1e 3d 96 ad cb 3d 0d cd 98 be 6a 22 b4 3d
       0.03873649 0.09945218 -0.2984394 0.087956265
000040 6d b8 93 3e a7 90 45 3c b7 bc 7e 3e 20 25 aa 3e
       0.28851643 0.012058414 0.24876676 0.3323145
000050 da 6b 56 3e 30 12 a7 3e 06 a6 bd bd 2a b3 18 be
       0.2093958 0.32631063 -0.09260182 -0.14912096
000060 f3 62 09 3e 31 5a d3 bd 19 85 04 bd b8 5a a5 be
       0.13416652 -0.10319937 -0.032353494 -0.32295775
000070 1d 59 8a 3e 72 2f 8d 3e 26 1e 6b be 10 bb 7e 3e
       0.27021113 0.2757526 -0.2296072 0.24876046
000080 cf 19 01 be f7 29 7e 3e 78 a1 6d 3e 73 f2 93 3e
       -0.12607501 0.24820696 0.23206127 0.28895912
000090 d9 a7 eb bd 33 8d d5 bd 3e 2b b7 bd b0 30 1a 3e
       -0.11506624 -0.10427322 -0.08943795 0.15057635
0000a0 ed 10 64 be f7 5b c6 3c e4 50 c0 bb e8 0e 7b 3e
       -0.22272082 0.024213774 -0.005869018 0.24517405
0000b0 2a ed 18 3e 7e 52 9a 3e 37 f9 05 3e 91 90 2a 3e
       0.14934221 0.30141062 0.13083349 0.1665671
0000c0 fa e9 92 bd da 35 4a be 06 77 71 bd 04 db 44 3d
       -0.07173534 -0.19747105 -0.0589514 0.048060432
0000d0 8a c9 a5 3e f3 62 42 3e 54 f1 6b be 48 82 6a be
       0.32380325 0.18983059 -0.23041278 -0.22901261
0000e0 fa ad 07 be 27 4c eb 3d ab e0 a7 3e b4 59 cf bb
       -0.1324996 0.11489134 0.32788596 -0.006327832
0000f0 44 3e 0b 3e 7e a1 bf bd 3d 93 91 3c be 2f a0 3e
       0.13597971 -0.09356974 0.017770404 0.31286424
000100 af 3e a7 3e ae 6d 3c be 03 8d 88 3e 42 2f fc bd
       0.3266501 -0.18401214 0.26670083 -0.12313701
000110 8d 11 68 3e 44 d7 3e be d7 cf 5a be 4c be 67 bc
       0.22662945 -0.18636805 -0.21368347 -0.014144491
000120 ed c4 9c 3e 8a 6b 4d 3e 2a b5 06 be 93 88 6b be
       0.30618992 0.20060554 -0.13155046 -0.23001318
000130 15 4c ac be d2 a7 82 3d b7 95 84 3e 5b cf a0 be
       -0.33651796 0.063796654 0.25895473 -0.314082
000140 a6 40 56 3d 15 61 53 3e 7b ba d5 bd f7 eb 54 bc
       0.052307747 0.20642503 -0.10435959 -0.0129957115
000150 92 b6 8d bd 81 e8 33 be 5e 8a 85 be c1 17 f5 3d
       -0.06919588 -0.17569162 -0.26082128 0.11967421
000160 e6 01 64 bc 27 79 9d 3e f7 95 98 3d cf 09 ee bc
       -0.013916468 0.30756494 0.074504785 -0.029057411
000170 6d 13 cc b8 64 68 25 3e a7 8e 93 3e f2 d0 82 3e
       -9.731096e-05 0.16153103 0.28819773 0.25550038
000180 3d ce 39 3e 49 e0 91 3b 5b f7 1a be f3 50 66 be
       0.1814508 0.0044517857 -0.15133421 -0.22491817
000190 90 60 2d 3b 53 d9 6b 3e 84 ad 4c 3e 41 79 57 be
       0.002645526 0.23032121 0.19988066 -0.21042348
0001a0 16 a2 eb bd 94 48 14 be fb c8 af 3d 10 a5 c5 3d
       -0.11505525 -0.14480811 0.08583256 0.09650624
0001b0 50 58 88 3e 18 e0 67 3e 54 8d 4a 3e 84 ba 3d be
       0.26629877 0.22644079 0.19780475 -0.18528181
0001c0 f0 af 96 be 7e 6e 02 bd 31 3d e9 bc 1a 68 56 bd
       -0.29431105 -0.031843655 -0.028471561 -0.052345373
0001d0 e8 7c 3c be 83 94 0b bd a1 c2 8d 3c 4b 00 d7 bc
       -0.18407023 -0.03407718 0.01730472 -0.026245257
0001e0 49 cc 93 be a9 90 e9 bb 3c d9 ac 3c 55 36 91 3e
       -0.28866795 -0.0071278405 0.02109968 0.28361765
0001f0 da 0f 92 3e 87 2e 74 3d ae b4 7c 3e 3d 3d 64 bd
       0.2852772 0.059614684 0.24678299 -0.055722464
000200 64 ac 04 3e 9c 91 7d 3e 35 84 2a 3e 8f 50 85 3e
       0.12956387 0.24762577 0.16651995 0.26038024
000210 a6 93 d0 ba 0d 15 2d be 9d 04 bf bc a9 4a 8a bd
       -0.0015913143 -0.16902561 -0.02331763 -0.067525215
000220 c6 ec dc 3d dc b5 7a be 99 73 a9 be c1 fe 3a 3d
       0.107873484 -0.24483436 -0.33096007 0.04565311
000230 7e 69 a2 be 57 38 82 3e 67 76 94 3e 59 a4 8f bd
       -0.3172111 0.2543361 0.28996584 -0.07013769
000240 71 ce 94 3e 0e 38 57 3e 0c 09 88 be 2d d8 57 3e
       0.29063752 0.21017477 -0.26569402 0.21078558
000250 d2 7f 34 be 50 64 74 be cd 87 95 be 43 96 a3 be
       -0.17626885 -0.23866391 -0.2920517 -0.31950578
000260 6d fd 88 3e ea 5b 03 be 06 d6 8f 3d 16 68 34 3e
       0.2675585 -0.12828031 0.070232436 0.1761783
000270 41 4a b2 bd b4 91 97 bd 07 aa 89 3e e5 0c 32 3e
       -0.08705569 -0.074008375 0.26887533 0.17387731
000280 3e ad 3c 3e b6 6a 24 3d 78 f6 25 be be dd e7 3d
       0.18425462 0.04014083 -0.16207302 0.11321591
000290 e4 16 15 bd d1 be 58 3e 78 72 9b be ec 25 9b bd
       -0.036398783 0.2116654 -0.3036077 -0.075755924
0002a0 0e d0 f9 3d f3 ba 76 3e 41 1a 66 bc dc ae f3 3d
       0.121978864 0.24094753 -0.014044345 0.11898586
0002b0 9d cc 8e be 42 9e fd 3d 17 06 d4 3d b7 02 ce 3c
       -0.27890483 0.12383701 0.10352724 0.025147779
0002c0 34 95 af 3b bc 05 d6 bd 88 49 93 3e 60 cb 85 bc
       0.0053583626 -0.104503125 0.28767037 -0.016332328
0002d0 c7 17 c8 bd a3 f5 5f 3e 70 5a 1e be ae 90 a9 be
       -0.0977016 0.21871047 -0.15464187 -0.33118194
0002e0 54 49 88 be b0 f7 60 bd 03 d0 d6 3c 9a f6 af bd
       -0.26618445 -0.054923713 0.026222235 -0.085919574
0002f0 81 02 3b bd bf 17 11 be dd 8d 8d be 5b f1 a2 3e
       -0.045656685 -0.14169215 -0.27647296 0.31824765
000300 d7 c0 62 be a9 d9 81 3d fe ef ea bc 7d 0f 38 be
       -0.22143875 0.063403435 -0.02867889 -0.17974658
000310 8e 38 01 be b6 8f 5f 3e 72 3f 92 3d 94 16 33 be
       -0.1261923 0.21832165 0.071410075 -0.17489082
000320 49 66 21 3e 65 6f 95 3e 05 55 82 3d 67 37 99 be
       0.15761675 0.2918655 0.063638724 -0.2992508
000330 bf 26 2c be 0a 0a 96 3e d1 14 8d 3e 6d 4d 6c be
       -0.16811655 0.29304534 0.27554944 -0.2307641
000340 e9 d9 96 3e b2 55 87 3e 41 42 57 be 51 2a e2 bd
       0.29463127 0.26432568 -0.21021368 -0.110432275
000350 af c4 24 3e d1 51 63 3d ef 04 02 be 57 ed 37 bd
       0.16090654 0.055497948 -0.12697195 -0.04490408
000360 7e 10 bd 3d 74 df 95 3e dd 28 5d 3c af 4a 85 3b
       0.09231661 0.29272044 0.013498512 0.004067741
000370 ec de c9 bd c7 ee 64 3e e2 29 7d bd b2 4d a1 be
       -0.09856972 0.22356711 -0.06180752 -0.3150459
000380 c0 58 d5 3c c3 17 9d 3e f3 a2 a9 bd bb 79 1c bd
       0.026043296 0.3068219 -0.08283033 -0.03820203
000390 9f 70 1b 3e a0 9d 0a be 2a 65 21 3e ec 39 a4 be
       0.1517968 -0.13536692 0.15761247 -0.3207544
0003a0 33 71 2f 3e 28 7e 34 3c af 8b 3c 3e c0 34 6a be
       0.17133026 0.011016406 0.1841266 -0.22871685
0003b0 7d 3d 46 be 26 d1 80 3e 69 2f 7d be d2 c7 13 be
       -0.19359393 0.25159568 -0.24725117 -0.14431694
0003c0 2e 27 fa bd 18 7e 8d be ab 6d c0 bd 92 56 6d 3e
       -0.12214504 -0.27635264 -0.093959175 0.23177555
0003d0 27 79 99 3d fc d9 c1 bd 8f e7 31 be 18 5d 65 3e
       0.07493811 -0.09465405 -0.17373489 0.22398794
0003e0 fb f2 7c 3e d7 b8 40 bc ba f1 10 3e 0d 03 e3 3d
       0.24702065 -0.011762819 0.14154711 0.11084566
0003f0 7d bd 17 3d a0 8b 57 be 7c 27 ad bd 03 23 83 3e
       0.037045944 -0.21049356 -0.08454797 0.2561265

bias f4 [64]
000000 75 78 bf bc c8 c6 1f 3e 4b 95 3d be 6c 0e 3f 3b
       -0.023372868 0.15603173 -0.18513982 0.0029152883
000010 82 39 93 be 0e 04 a0 be 75 98 7b 3e a5 f8 eb 3d
       -0.28754812 -0.31253093 0.24569876 0.115220346
000020 e8 59 9c 3e 6a ec 08 be d6 f3 0f 3e 11 c7 1b 3e
       0.30537343 -0.13371435 0.1405786 0.15212657
000030 a2 b9 78 3e 69 51 98 3e 3a 51 ec bc 62 70 cb bc
       0.24289563 0.2974961 -0.028847326 -0.024833862
000040 91 14 d2 3d 92 b7 69 3e cf 72 a0 3e 42 72 9d 3e
       0.10257829 0.22823933 0.31337592 0.30751234
000050 8b 55 52 be 17 19 2e be fe d3 ce 3d 3c fb 8b be
       -0.20540445 -0.17001759 0.10099028 -0.27340114
000060 d8 d9 72 3e 09 2f 8f 3e bd d2 83 bd af 8c 6c 3e
       0.23715913 0.27965572 -0.064366795 0.23100542
000070 f1 58 07 be 9a 74 78 3e fa 72 88 3c ea f2 1f be
       -0.13217522 0.2426323 0.016656388 -0.15620008
000080 53 c5 33 3e 88 fd 9a 3e a1 73 83 bd 30 78 64 3e
       0.17555742 0.30271554 -0.06418539 0.22311473
000090 9f 6b 2f 3e f3 5b 3e 3e dd 5a 78 3c 9d 7f 5c 3d
       0.17130898 0.18589763 0.015158382 0.05383264
0000a0 43 9f 37 3c 49 2d 85 3e 86 d5 46 3e 15 e5 f4 3d
       0.011207405 0.26011112 0.1941739 0.119577564
0000b0 01 8b 6c 3e 52 a0 53 3e 99 2f 40 be eb e9 bb bd
       0.23099901 0.20666626 -0.18768157 -0.09175476
0000c0 0f d8 54 3d 89 0f 8a be 5d 49 92 be cc b1 6a bd
       0.051963862 -0.26964977 -0.28571597 -0.057298467
0000d0 d6 1e 13 be b3 91 65 3e b7 58 35 bd fc 1d 37 3d
       -0.14367232 0.22418861 -0.04427406 0.04470633
0000e0 24 1e 19 be 82 83 94 bd ba 1d 93 be e8 60 62 be
       -0.14952904 -0.072516456 -0.28733617 -0.2210728
0000f0 78 10 96 3e 95 35 af bc f4 71 98 be 3b fb 87 3e
       0.2930944 -0.021387855 -0.2977444 0.2655886

weight f4 [32, 640]
000000 86 70 5d 3c 00 1c d7 bc c9 70 ec 3c cd 1f cb bc
       0.013515597 -0.026258469 0.028862374 -0.024795437
000010 20 c8 03 bd e9 d9 96 bc 13 0b 94 bc 87 5d 95 39
       -0.032173276 -0.018414455 -0.018071687 0.00028489178
000020 d4 b2 35 3c 54 a1 08 bc ce 7b ff bc 47 ff 19 3c
       0.011089999 -0.008339245 -0.031186964 0.009399242
000030 ce 3e 21 bc 29 0e 99 bb 6d d1 ca 3c 04 bd 02 bd
       -0.009841634 -0.0046708775 0.024758065 -0.03191854
000040 18 18 a1 bc e9 76 0d bd 07 dd 06 3d 95 53 0f 3c
       -0.01966481 -0.03453723 0.03292563 0.008747955
000050 d1 8a a1 3c 88 7a 1b 3d 5d a0 95 3c d3 3d 8c 3a
       0.019719513 0.03795865 0.018264944 0.0010699577
000060 42 2c 03 bd 0d 74 71 3c a3 61 bd 3c 81 75 27 3d
       -0.03202463 0.014737141 0.023117846 0.040883545
000070 64 bb 01 3d bc 27 85 bc 40 a7 03 bc 10 a3 ff 3c
       0.03167285 -0.016254298 -0.008035481 0.031205684
000080 aa 5c 9a 3c fe 11 1e 3d 37 17 2c 3c ec 88 fa bc
       0.018843014 0.038591377 0.010503582 -0.030582868
000090 af 42 c1 3c 67 8c 6b bb fe ab 15 bc f9 a8 d8 bc
       0.023591368 -0.003594184 -0.009135244 -0.02644776
0000a0 9a 19 e3 bc 55 af 87 3c 6e e2 36 bc 2c bb 84 3c
       -0.027722169 0.016563097 -0.0111623835 0.016202532
0000b0 4b 4f da bc ec f3 a4 bc fb 35 53 bc 39 6b f8 3c
       -0.026649138 -0.020135842 -0.012891288 0.030324565
0000c0 99 6f 26 3a 24 d1 e0 bc d7 7a e4 3c 78 f4 77 3c
       0.0006349027 -0.027443476 0.027890606 0.0151339695
0000d0 3f 00 04 3d 0f 2f 50 bc 64 17 15 3d d1 ad 1a 3d
       0.032226797 -0.012706532 0.03639926 0.03776342
0000e0 d9 87 92 bc 6b 48 f1 3c 43 6a 2c 3d b7 e3 a2 3c
       -0.017887043 0.029453477 0.042093527 0.019883974
0000f0 06 3a e6 3c 90 a5 38 bc fd 50 f8 bc a7 c0 03 3d
       0.02810384 -0.011269942 -0.030312056 0.03216615
000100 88 90 13 bd 91 49 c9 bc 5a de eb bc 38 2d 62 3b
       -0.036026508 -0.024571212 -0.028792549 0.0034511816
000110 a2 96 e1 bc b8 66 4a 3c 31 da 67 bc 3d 09 fa bc
       -0.027537648 0.012353592 -0.014151142 -0.030521983
000120 47 f5 17 bb bc 15 02 bd 0b 14 96 ba ce 75 ee 3a
       -0.0023186968 -0.03175901 -0.0011450065 0.0018193068
000130 cc e7 f1 3c 8b 4b a1 3c e2 f3 30 bd d8 25 8e 3c
       0.029529475 0.019689342 -0.043201335 0.01735203
000140 5e 98 70 bc ad 3a e9 bb 30 ed e5 bc ce 1e 46 3b
       -0.014684765 -0.0071175904 -0.028067201 0.0030230763
000150 c2 ff 73 3c 29 73 f2 bb c4 9f 98 ba 4f 7c b8 bb
       0.01489252 -0.007398982 -0.0011644294 -0.005630053
000160 1d e9 1e bd 0f 6a f2 3c 3b f5 0a bb 81 45 50 3c
       -0.038796533 0.029591588 -0.0021203298 0.0127118835
000170 0d 1c 1c 3d 13 99 a4 3c fa 1e d0 3c fe 18 90 bc
       0.03811269 0.020092523 0.025405396 -0.017590042
000180 a0 75 bb bc 53 79 10 3d 0e d3 3e bb 68 33 e2 3b
       -0.022883236 0.035271954 -0.0029117498 0.0069031008
000190 c4 44 2b bd 2d 0f 1e 3c 06 9d 78 bb 3b 38 45 3b
       -0.041813627 0.009647173 -0.003793539 0.003009333
0001a0 74 4e 14 3d f6 32 ea bc 7b 5f d9 bc d7 00 2a 3c
       0.03620763 -0.028588753 -0.026534786 0.010376177
0001b0 8b be dd 38 0c 03 f8 3c c9 20 d5 3a a7 a3 01 3c
       0.000105735926 0.03027489 0.0016260381 0.007912553
0001c0 4e 5b 35 bc 20 68 14 3c 07 67 d3 3a e0 bc 1e bd
       -0.011069132 0.009058028 0.0016128727 -0.038754344
0001d0 7e 1c ce 3c aa bc 91 3c fb ff ad 3c 0e 4f 1c bd
       0.02516007 0.017790157 0.021240225 -0.03816133
0001e0 85 ca 93 bc 1e 3e cd bc 62 48 f7 3c e7 8d 08 bd
       -0.018040905 -0.025054034 0.030185882 -0.033338454
0001f0 ad d7 2b bd 0d d4 8b 3c 1d 67 52 3c 7c 00 0e bd
       -0.04195373 0.017068887 0.012841967 -0.03466843
000200 b0 98 73 3c 41 f8 d0 3c 91 fb 46 bc 38 5e f0 bb
       0.0148679465 0.025509002 -0.012144939 -0.0073354505
000210 2a 79 ad bc 50 02 c2 3c 1d 74 18 bd 63 c9 ed bc
       -0.02117594 0.023682743 -0.03722011 -0.029026693
000220 a4 60 00 3d 7b e1 a7 3c a9 87 b6 3c 81 72 0e 3d
       0.031342164 0.02049326 0.022281485 0.03477717
000230 b3 54 14 3b 26 60 98 bc fe 83 85 bb 6b d3 65 bc
       0.0022633492 -0.018600535 -0.0040745726 -0.014027457
000240 a1 7c 9e 3b 69 a4 f3 bc 3d 46 f5 3c a7 a3 9c bc
       0.0048366343 -0.029741483 0.029940719 -0.019121004
000250 5a ef 61 bc c3 02 b9 3c 9d 02 95 3c 8f 13 e4 3c
       -0.013789976 0.022584325 0.018189723 0.027841358
000260 29 82 bc bc b7 17 3b 3c d9 30 bd 3c 67 73 45 3c
       -0.023011284 0.011419228 0.023094581 0.01205144
000270 08 c0 fd bc d8 67 d9 3c 9f 4e 0a bd 51 3d fc 3c
       -0.030975357 0.026538774 -0.033766385 0.030790957
000280 14 60 ac bc e4 60 22 bd fb 1c 03 3d a5 6e 13 bd
       -0.021041907 -0.039643183 0.03201006 -0.03599419
000290 64 c0 37 bd 8a 16 64 bc c4 9c af bc 15 63 99 ba
       -0.044861212 -0.013921389 -0.021437056 -0.0011702502
0002a0 4c 29 2b bd 53 da 84 bb ac 46 1d bd 06 1f 0d bd
       -0.04178743 -0.0040543466 -0.038397476 -0.034453414
0002b0 1c 02 0c bd e0 f4 fb bc 44 3d 65 3b e8 c7 1c bb
       -0.0341817 -0.030756414 0.0034979144 -0.0023922864
0002c0 71 ac 12 bb 4b 12 6d 3c 0e cf 9e 3c 81 59 9c 3c
       -0.0022380615 0.014469693 0.01938584 0.019085648
0002d0 50 b1 84 bc 88 05 19 3d b0 79 be 3c 05 b5 02 3d
       -0.01619783 0.03735879 0.023251384 0.031910915
0002e0 44 87 1b 3d 01 60 3b bc 7b 93 f4 bc 39 bd 57 bc
       0.037970796 -0.011436463 -0.02985548 -0.013167673
0002f0 52 98 80 bc 27 e8 b9 3c 6a 07 10 bd 61 f9 0c bd
       -0.015697632 0.022693707 -0.03516332 -0.034417514
000300 87 b3 8d bb 24 ae 55 3c 27 bf be 3c fd 0b 03 bc
       -0.00432438 0.013042007 0.023284508 -0.007998464
000310 73 f8 19 bc 42 aa 4d 3b 33 69 2b bd 2c 28 fc b9
       -0.009397614 0.0031382 -0.041848373 -0.00048095116
000320 d6 ec fa 3a 50 67 1e 3c dd 0b e4 3c 7d 0e fe 3c
       0.0019144069 0.009668186 0.027837688 0.031012768
000330 be 47 96 3c 89 58 08 bd 51 5c 09 bd 4a ee 0e bd
       0.018344756 -0.03328756 -0.033535305 -0.03489522
000340 25 82 ae bc 44 07 f7 3a 8e 17 85 bc 98 24 0a 3d
       -0.021302292 0.001884677 -0.016246583 0.033726305
000350 8f f2 19 3d f4 5b 09 3d 9e 0c 17 bd 1a 2e 0b 3d
       0.037584838 0.03353496 -0.036877267 0.033979513
000360 36 fa 0f bd e8 61 3b 3b 7e 4c cc bc 32 ea 96 3c
       -0.03515073 0.0028592292 -0.024938818 0.01842222
000370 fb dc 29 3d b3 e9 9d 3c c8 54 b0 3c bd 1b 07 bd
       0.04147051 0.019276476 0.021524802 -0.032985438
000380 04 0e f9 bc 66 2a c7 3b 1f e2 57 3c 94 47 05 3d
       -0.030402191 0.0060780523 0.01317647 0.032538965
000390 98 26 95 bc 48 77 9d bc c3 ba 85 3c 4c d1 2e bc
       -0.01820688 -0.019221917 0.016324406 -0.010670017
0003a0 4f 44 d2 3a 31 57 04 bc 0d 38 be bc 24 d0 df bc
       0.0016042086 -0.008077429 -0.023220086 -0.027320929
0003b0 b9 e2 81 3b 10 89 a1 ba b4 95 0b 3d a4 87 24 3d
       0.003963795 -0.0012324173 0.034078315 0.04016842
0003c0 01 c3 47 bc 4c 93 06 bd 24 2a a7 3b 3a 27 d5 bc
       -0.012192489 -0.032855317 0.005101459 -0.026019681
0003d0 ee dc d4 3c df 2f be 3c f8 3d d2 bb f4 45 0f bd
       0.025984254 0.023216186 -0.0064160787 -0.034978822
0003e0 8a 27 8e bc d6 e4 d8 bc 1d f9 b7 3c d0 18 96 3c
       -0.017352838 -0.026476305 0.022457654 0.018322378
0003f0 5b 72 4d bb a0 ef e1 bc 03 e9 31 bc 9b 30 d2 39
       -0.0031348679 -0.027580082 -0.010858777 0.00040090535

bias f4 [32]
000000 f3 8d 2d bc 6e 69 0e 3d 82 d6 81 bb 23 4c b7 3c
       -0.010592925 0.034768514 -0.003962339 0.022375172
000010 85 89 9b bb a8 12 03 bd ca ac 97 3b 54 e3 20 3d
       -0.004746618 -0.032000214 0.0046287524 0.039279297
000020 48 6e a1 3b 85 b4 cd bc 2f f8 d7 3b 72 73 d3 3c
       0.0049264766 -0.025110492 0.006590865 0.025811885
000030 28 75 d1 3b a8 86 01 bd 67 a7 5a 3c dd 6c 38 bd
       0.00639214 -0.03162256 0.013345576 -0.045025695
000040 3a b4 54 bc 07 31 ab bc 75 af 9c bc 67 6f 1d 3d
       -0.0129824225 -0.020897401 -0.019126633 0.03843632
000050 b0 97 63 ba ab 74 8e 3b 18 30 c7 bc 43 c3 7d 3c
       -0.0008681966 0.004347404 -0.024314925 0.015488449
000060 a0 8d d1 3c 40 13 4f 3c 72 de 03 ba 5e b0 a9 3c
       0.025580227 0.012638867 -0.00050304004 0.020713981
000070 0d 25 a4 bc c4 5c 7a 3b 3c 03 a7 3c 07 ee 09 bd
       -0.020037198 0.0038202265 0.020387284 -0.033674266

weight f4 [640]
000000 d7 7d 81 3f 79 37 7f 3f 7e 0c 80 3f bb 7e 7f 3f
       1.0116528 0.9969402 1.0003812 0.9980275
000010 2d 17 80 3f 35 21 7f 3f 60 8d 80 3f 70 fa 81 3f
       1.0007073 0.99660045 1.0043144 1.0154552
000020 2a cd 7e 3f 42 f3 80 3f a4 59 7e 3f 36 f0 7e 3f
       0.99531806 1.0074236 0.9935553 0.9958528
000030 fc c0 7e 3f 32 8c 7e 3f a1 48 7d 3f 52 fe 80 3f
       0.9951322 0.9943267 0.9893895 1.0077612
000040 8e 3e 7f 3f af 8c 7e 3f 59 15 81 3f fc 30 81 3f
       0.99704826 0.99433416 1.008464 1.0093074
000050 1d 64 80 3f 86 2e 80 3f 8d 4c 7f 3f 14 39 80 3f
       1.0030552 1.0014198 0.9972618 1.0017419
000060 83 92 80 3f cb a8 7f 3f 07 fc 80 3f 0f 9a 7f 3f
       1.0044712 0.9986693 1.0076913 0.9984445
000070 ee 72 7f 3f 25 33 7e 3f d3 db 7c 3f b8 c2 7d 3f
       0.99784744 0.9929679 0.98772925 0.9912524
000080 42 b9 80 3f a5 7a 80 3f 59 f1 7d 3f f7 ce 7f 3f
       1.0056536 1.0037428 0.9919639 0.9992518
000090 35 da 7f 3f f3 fd 7d 3f 58 10 80 3f ca 3e 80 3f
       0.9994233 0.9921562 1.0004988 1.0019162
0000a0 9e 4d 7f 3f 1d 36 81 3f 04 84 81 3f a5 72 7d 3f
       0.9972781 1.0094639 1.0118413 0.9900306
0000b0 f5 b1 7e 3f 3c b4 81 3f 8e 2d 81 3f 81 cd 80 3f
       0.9949029 1.0133128 1.0092027 1.0062715
0000c0 0e b5 81 3f 04 1b 80 3f 23 21 80 3f 62 db 7e 3f
       1.0133379 1.0008245 1.0010113 0.995535
0000d0 b9 05 80 3f 9a 61 80 3f ae 43 7f 3f ea 2e 80 3f
       1.0001746 1.0029786 0.99712646 1.0014317
0000e0 ea a2 80 3f a4 72 7f 3f 7c d7 7f 3f ec ff 7f 3f
       1.0049717 0.997843 0.9993818 0.9999988
0000f0 74 78 7f 3f 41 e8 80 3f e0 76 80 3f d6 52 7f 3f
       0.9979317 1.0070878 1.0036278 0.9973577
000100 81 28 7f 3f 1d 92 80 3f b8 53 80 3f 72 0e 80 3f
       0.9967118 1.004459 1.0025549 1.0004408
000110 a2 6e 80 3f 0e 82 80 3f dc 4f 7f 3f 74 f4 80 3f
       1.0033762 1.003969 0.9973123 1.0074601
000120 ab cb 7d 3f 71 c1 80 3f 80 40 80 3f 8e b9 80 3f
       0.991389 1.0059034 1.0019684 1.0056627
000130 1d bc 7d 3f ef b5 80 3f 3f 51 81 3f e7 1a 80 3f
       0.99115163 1.0055522 1.0102919 1.000821
000140 76 4f 80 3f 16 0d 80 3f 9c ef 7f 3f e1 0b 7f 3f
       1.002425 1.0003994 0.9997499 0.996275
000150 91 ca 7c 3f 3a e0 80 3f 57 4a 80 3f 42 ab 80 3f
       0.9874659 1.0068429 1.0022687 1.0052264
000160 ff 65 80 3f cb 96 7f 3f 8e ef 80 3f 87 52 80 3f
       1.0031127 0.99839467 1.0073106 1.0025185
000170 0a 8a 80 3f de 7e 80 3f 92 5b 80 3f 31 6b 7d 3f
       1.0042126 1.0038717 1.0027945 0.98991686
000180 3b e1 7e 3f 25 da 7c 3f d5 69 7e 3f 60 76 7f 3f
       0.99562424 0.9877036 0.99380237 0.9979
000190 52 04 80 3f 93 6e 7f 3f 1e e9 7e 3f a8 41 80 3f
       1.0001318 0.997781 0.9957446 1.0020037
0001a0 e7 e2 80 3f 5c a7 80 3f 8a 5a 80 3f bd b9 7f 3f
       1.0069245 1.0051074 1.002763 0.9989279
0001b0 ee 30 80 3f 08 a0 80 3f 2e 60 7f 3f de ae 7e 3f
       1.0014932 1.0048838 0.99756134 0.99485576
0001c0 cd 4f 80 3f 1a e5 80 3f e5 4a 7f 3f 07 d6 7d 3f
       1.0024353 1.0069916 0.99723655 0.99154705
0001d0 48 fd 7e 3f de 0f 7e 3f 29 c1 80 3f b0 b5 7f 3f
       0.99605227 0.9924296 1.0058948 0.9988661
0001e0 52 35 80 3f c7 a4 80 3f c3 48 7e 3f 1a 7e 80 3f
       1.0016272 1.0050286 0.99329776 1.0038483
0001f0 bc 6b 80 3f 6c 4d 7f 3f 93 89 80 3f e0 9f 80 3f
       1.0032878 0.9972751 1.0041984 1.004879
000200 7c dc 7e 3f af 37 7f 3f a4 07 80 3f fe 8e 7f 3f
       0.9955518 0.9969434 1.0002332 0.99827564
000210 59 9d 7d 3f 18 14 80 3f 65 f9 7e 3f b6 d1 7e 3f
       0.9906822 1.0006132 0.99599296 0.99538743
000220 80 e3 7e 3f 94 fd 7f 3f 7a ae 7e 3f 89 25 80 3f
       0.9956589 0.99996305 0.9948498 1.0011455
000230 fa 7e 80 3f bc 14 80 3f bd f2 7f 3f 8c 1b 80 3f
       1.003875 1.0006328 0.99979764 1.0008407
000240 d9 0f 7f 3f c4 af 7f 3f 43 4d 80 3f 5c 24 80 3f
       0.99633557 0.9987757 1.0023578 1.0011096
000250 5e dc 7e 3f 8c b0 7d 3f 71 49 80 3f fc a8 80 3f
       0.99555004 0.99097514 1.0022413 1.005157
000260 5f 7a 7d 3f 5b 5b 7f 3f b8 58 7f 3f 65 5c 80 3f
       0.9901485 0.9974877 0.9974475 1.0028197
000270 27 47 80 3f ce ad 80 3f 42 55 80 3f 98 d5 80 3f
       1.0021714 1.0053041 1.0026019 1.0065184
000280 12 15 80 3f 01 bd 7f 3f 65 60 80 3f 04 10 80 3f
       1.000643 0.9989777 1.0029417 1.0004888
000290 05 4b 7e 3f 7d 34 80 3f 1f ef 7e 3f a9 52 81 3f
       0.9933322 1.0016018 0.9958362 1.0103351
0002a0 69 91 7d 3f 1b 39 80 3f 95 04 81 3f d6 c4 7e 3f
       0.99050003 1.0017427 1.0079523 0.995191
0002b0 c9 98 7d 3f b2 6d 7f 3f bf 8c 80 3f fb 67 80 3f
       0.99061257 0.99776757 1.0042952 1.0031732
0002c0 e8 7a 7f 3f c2 ac 80 3f b2 0e 81 3f a8 ee 7f 3f
       0.99796915 1.0052722 1.008261 0.99973536
0002d0 fc 1b 80 3f 99 aa 7c 3f db 28 7f 3f 4b eb 7f 3f
       1.000854 0.9869781 0.99671715 0.99968404
0002e0 35 ab 81 3f e7 2b 80 3f d6 e3 80 3f 91 e0 7f 3f
       1.0130373 1.0013398 1.006953 0.99952036
0002f0 dc 70 7e 3f 1f 55 7f 3f 00 13 81 3f f8 b6 7f 3f
       0.9939096 0.9973926 1.0083923 0.99888563
000300 08 d9 80 3f d6 2c 80 3f 27 a4 80 3f f9 aa 80 3f
       1.0066233 1.0013683 1.0050095 1.0052177
000310 1c 17 80 3f eb 04 80 3f 13 3d 81 3f 45 d9 7e 3f
       1.0007052 1.0001501 1.0096763 0.99550277
000320 49 45 7d 3f 91 16 7f 3f 14 9c 7f 3f c2 cb 7f 3f
       0.98933846 0.9964381 0.9984753 0.99920285
000330 dd 4e 80 3f 48 4a 7f 3f 05 cc 7f 3f 27 c9 7f 3f
       1.0024067 0.9972272 0.99920684 0.9991631
000340 7f c7 7f 3f ae 77 7f 3f ec 28 80 3f c4 46 7f 3f
       0.9991378 0.9979199 1.0012488 0.99717355
000350 f6 34 80 3f af 4e 80 3f 73 9e 7d 3f 1e d4 7e 3f
       1.0016162 1.0024012 0.990699 0.99542415
000360 a1 00 7f 3f db 61 7f 3f 6d 2f 7f 3f 22 9f 7f 3f
       0.99610335 0.9975869 0.9968174 0.9985219
000370 96 c2 80 3f 26 03 80 3f c3 13 80 3f 37 13 80 3f
       1.0059383 1.0000961 1.0006031 1.0005864
000380 fa ad 7f 3f 5a ed 7f 3f 28 91 80 3f b6 ae 7e 3f
       0.9987484 0.99971545 1.0044298 0.9948534
000390 fb 31 80 3f a9 3d 7f 3f 33 2f 7e 3f 42 a0 7f 3f
       1.0015253 0.9970346 0.9929077 0.9985391
0003a0 ee b9 7f 3f 9b 49 7d 3f 04 cd 80 3f 52 63 7f 3f
       0.9989308 0.9894044 1.0062566 0.99760926
0003b0 af 96 7f 3f a2 b3 80 3f 29 90 7d 3f f0 a7 7f 3f
       0.998393 1.005482 0.99048096 0.9986563
0003c0 f8 c1 7f 3f 7a ef 80 3f 4f 89 80 3f ae 13 81 3f
       0.9990535 1.0073082 1.0041903 1.0084131
0003d0 6b 44 80 3f 82 dd 7d 3f fd b6 7d 3f aa fa 80 3f
       1.002088 0.9916612 0.9910734 1.0076497
0003e0 40 c0 80 3f b5 a9 80 3f 1f 1b 7f 3f 93 b0 81 3f
       1.005867 1.005179 0.9965076 1.0132011
0003f0 28 7d 7f 3f 6f c2 80 3f 48 4d 7d 3f 10 03 7e 3f
       0.9980035 1.0059336 0.98946047 0.99223423

bias f4 [640]
000000 d0 48 57 bc 9c ce 01 bc 6f 53 a2 3b e4 5c 5a 3b
       -0.013139918 -0.007922795 0.0049537937 0.0033319527
000010 db 05 19 bc 48 a4 60 3b f7 e4 93 ba d5 73 d6 b9
       -0.009339775 0.0034277607 -0.0011283447 -0.00040903562
000020 a1 a1 69 bb c0 27 03 bc 93 de 7f ba 93 7f 0f 38
       -0.0035649317 -0.008005083 -0.0009760644 3.421267e-05
000030 79 74 13 bb 77 eb 3f ba dd 6c a4 3b a8 95 70 ba
       -0.0022499843 -0.0007321159 0.0050178603 -0.0009177574
000040 6c 11 dc 3a 61 46 25 3a 48 a1 ae 3a dd 32 09 3c
       0.001678986 0.0006304738 0.0013323212 0.008373943
000050 d3 54 c4 ba 0c 86 ef ba 94 2e 42 3b a8 bd ba ba
       -0.0014978893 -0.0018274202 0.0029629814 -0.0014247196
000060 a5 23 b2 bb 03 8f 96 3a 99 b9 f2 bb aa df 85 3a
       -0.005436378 0.0011486713 -0.007407379 0.0010213752
000070 a6 77 21 3b cb 37 d2 3b 54 d4 a7 3b cc c4 3e bb
       0.0024637966 0.0064153424 0.005121747 -0.0029109
000080 b1 e4 2a 3b e9 c8 f9 ba 6b 37 53 3b fb c9 78 3b
       0.0026076252 -0.0019057068 0.0032229077 0.0037962187
000090 51 28 27 bb 84 78 e8 bb 23 a0 4a ba 21 f4 12 3b
       -0.0025506208 -0.0070944447 -0.00077295507 0.0022423344
0000a0 87 eb 6f 3b e9 a0 88 bb a2 9b 1c 3b 28 bc 14 b7
       0.003660889 -0.0041695726 0.0023896475 -8.865296e-06
0000b0 bf 29 4d bb 2f 16 da 3a 12 25 4e 3b ef 85 ee 3b
       -0.00313054 0.0016638691 0.00314552 0.0072791497
0000c0 fe 7d c0 3a 00 25 7d 3b b8 38 a6 ba 0b 29 bc 3b
       0.0014685986 0.003862679 -0.0012681698 0.0057421974
0000d0 85 b2 6c ba ef 90 00 bb 49 04 07 3b 9e 19 c1 3b
       -0.0009029287 -0.0019617637 0.002060192 0.0058929464
0000e0 73 b3 13 3b 49 c0 24 3a eb bf 2e bb 54 c2 10 3a
       0.002253738 0.0006284756 -0.0026664685 0.0005522121
0000f0 ca df 99 ba 82 55 d9 3b a0 66 0c 3b 1f b3 56 bb
       -0.0011739668 0.006632508 0.0021423474 -0.0032760573
000100 9f 11 ba ba 9f 1e 98 3b 1c bd 63 3a 97 db a1 3a
       -0.0014195925 0.004642322 0.0008687542 0.0012348768
000110 53 b5 d1 3b aa 41 22 3c 47 a3 e6 3a 79 66 da 3a
       0.0063997894 0.009903351 0.0017596268 0.0016662619
000120 75 21 10 3c ba 6b a6 bb b1 5f 84 3a f1 fe 3e 3b
       0.008797039 -0.00507876 0.0010099319 0.0029143656
000130 d2 20 0c ba 82 8d ca ba 58 50 35 bc 41 28 e4 3a
       -0.0005345467 -0.001545355 -0.011066519 0.0017407016
000140 4b 7c e4 39 37 42 82 bb dc 98 69 3b 77 1d 7b 3b
       0.00043580154 -0.0039751786 0.003564409 0.0038317123
000150 02 72 43 bb 85 f2 f4 3b 54 a8 1e bb 63 7b 3f 3b
       -0.0029822593 0.0074751996 -0.0024209218 0.0029217831
000160 6a e3 87 3b 51 55 df ba c3 7c 02 bc 1d db 50 ba
       0.004146983 -0.0017038976 -0.007964316 -0.0007967221
000170 33 cb 21 bb 4d 0f 21 3a 35 ff 00 bb 00 2e ef 3b
       -0.0024687767 0.00061439426 -0.0019683365 0.007299185
000180 57 89 ec 3a ff 60 3e 3c 33 b9 c0 3a 0d da c1 3a
       0.0018046302 0.011619805 0.0014703631 0.0014789716
000190 78 26 23 ba b7 10 1c 3c 84 3e 8c 3b ea 03 a9 3b
       -0.0006223689 0.0095254695 0.0042799134 0.0051579373
0001a0 d2 d3 02 3c cf 93 a3 3a 41 e3 cd 3a 5c 46 04 bb
       0.007985072 0.0012479963 0.0015707986 -0.002018354
0001b0 50 71 3e 3a 74 4f e1 bb db 48 80 bb c5 3c 5f b9
       0.00072648097 -0.0068759266 -0.003914935 -0.00021289576
0001c0 ce e4 7a 3a f8 fd 9b bb 68 ea 09 ba c3 d5 a1 3a
       0.0009570838 -0.0047605 -0.00052610645 0.0012347031
0001d0 84 e9 23 ba d4 b3 77 ba 38 52 48 bb 6f b2 4a 3c
       -0.0006252753 -0.0009449099 -0.0030566584 0.012371643
0001e0 89 90 e6 3b 2a db 30 b9 25 44 40 3b 4f 9c 08 3c
       0.007036273 -0.00016866313 0.0029337492 0.008338048
0001f0 58 a4 c0 ba 89 ae e5 ba e2 2e 9b bb 54 87 96 3b
       -0.0014697416 -0.0017523329 -0.0047358135 0.004593769
000200 39 1a 37 3a 8d f7 24 bb a0 c8 2d bb 83 f9 8c ba
       0.00069848035 -0.0025171966 -0.0026517287 -0.0010755513
000210 8d df 25 bc 1f 2e 9b ba 20 58 f7 bb 38 17 42 bb
       -0.010124099 -0.0011839307 -0.007548347 -0.002961589
000220 47 d1 4d bb d5 cc f4 ba be a6 8b bb f0 77 10 ba
       -0.0031405257 -0.0018676767 -0.0042618206 -0.0005511036
000230 a2 ef ae bb e0 4b 3d bb 68 90 74 bb 36 c8 95 3a
       -0.005338625 -0.0028884336 -0.0037317518 0.0011427465
000240 60 b4 e9 39 e9 a6 fe ba 04 4c 77 b9 1b 34 23 bb
       0.00044575613 -0.0019428405 -0.00023584074 -0.0024902883
000250 25 3f 5f 3b 48 8e c4 3b 89 d5 b3 3a 25 e0 58 bb
       0.0034064737 0.0059984066 0.0013720255 -0.0033092585
000260 95 c5 0c 3a 86 59 2f bc 39 08 8c b9 9b 71 38 bb
       0.0005370018 -0.010702496 -0.00026709007 -0.0028143886
000270 89 8b 55 3b 78 ae aa 3b 79 c9 a8 ba 66 d1 94 bb
       0.003258439 0.0052087866 -0.0012877426 -0.004541564
000280 81 3d 90 3a d9 6d 1f 3b 7c a5 68 bb d6 04 09 3b
       0.0011004658 0.002432695 -0.0035499027 0.0020907423
000290 30 86 89 3a 88 4e 3a bb d1 ea bb 3b 51 d2 67 3b
       0.0010492261 -0.0028428156 0.0057347794 0.003537316
0002a0 cf 8a 87 3b 95 92 f8 3a 02 fd e2 ba a4 41 83 3b
       0.0041364203 0.0018964583 -0.0017317834 0.0040056277
0002b0 ae 0c 11 bb 4d 4a 2b bc f5 2a 82 3b c7 1e b2 ba
       -0.0022132802 -0.010454726 0.003972406 -0.0013589495
0002c0 af 91 85 bb ab ed 3d 3b c9 6c 17 3b af 8d 97 ba
       -0.0040762047 0.0028980772 0.0023105612 -0.0011562611
0002d0 2e ae d4 bb a6 fe e2 bb cb a9 75 ba 45 d3 f8 ba
       -0.0064904904 -0.006927329 -0.00093713094 -0.0018983862
0002e0 c2 ee 69 3c 6a f0 1b bb d1 c3 00 3c 58 e3 0f bb
       0.014278116 -0.002379442 0.007859186 -0.0021955576
0002f0 31 d2 0b bb 98 1c 4b bb 89 f7 01 3c c0 e5 9c 39
       -0.0021335 -0.0030992385 0.007932552 0.00029925816
000300 6e a2 0a 3c fa 31 51 ba 10 ce 34 3b cf ee df 3a
       0.008461578 -0.00079801644 0.0027588643 0.001708472
000310 d0 b9 a2 3a 7f b1 f0 ba 9c 92 6f 3c 5e b2 9b bb
       0.0012414996 -0.0018363445 0.014622357 -0.0047514876
000320 35 ab 30 3c 08 63 ae 3b 0e 87 e9 3a 7c 5a 86 3a
       0.010783006 0.005321864 0.0017816739 0.0010250355
000330 c6 41 96 bb f3 79 6e 3b 67 cf c8 3a ab 57 7e ba
       -0.0045854775 0.0036388605 0.00153206 -0.00097023946
000340 eb a7 ee 3a 0d 41 4b 3a 65 04 cd ba 90 e9 bb 39
       0.0018208002 0.0007753529 -0.0015641568 0.00035841437
000350 0f 47 05 bb 26 e5 44 bb c7 ce 1f 3c d9 6c 12 3b
       -0.0020336544 -0.003004381 0.009753889 0.002234271
000360 c3 00 7d 3b a4 78 02 3b ae f7 5a 3b d8 57 f7 b8
       0.003860519 0.0019908333 0.0033411789 -0.0001179424
000370 17 1f 0e 3b e3 5f ea 3a 32 cc 0d bb 53 06 9f 3a
       0.0021686011 0.001788136 -0.0021636602 0.0012132622
000380 b1 d8 10 bb 27 66 96 3a ef 9d 32 3b ef f3 8a bb
       -0.0022101814 0.0011474536 0.002725478 -0.004240505
000390 2b c7 51 ba ab e6 e6 ba bb 04 f6 3b 4a 89 e3 3a
       -0.00080023956 -0.0017616352 0.007507888 0.0017359641
0003a0 00 30 95 b9 70 1e 2e 3c 3b fc d7 bb d0 8b 30 3b
       -0.00028455257 0.010627374 -0.0065913475 0.0026938803
0003b0 1b 72 4d 3a c4 4c 64 bb 77 6c 19 3c fe 87 af 38
       0.00078371324 -0.0034835795 0.009364239 8.369981e-05
0003c0 ed 71 a6 bb af 71 9e b8 73 56 f6 3b ba 93 18 39
       -0.005079499 -7.555202e-05 0.00751763 0.00014550882
0003d0 d3 61 c0 ba 95 b3 42 3b 34 56 80 3b d5 9a 1b 3a
       -0.0014677591 0.002970909 0.003916526 0.00059358525
0003e0 6e 97 7d bb b2 ee 8e bb 9c d8 3b ba 9a 74 29 bb
       -0.0038694995 -0.004361951 -0.0007165761 -0.0025856853
0003f0 00 3c 1c 3c a7 cd 66 3b db 49 0d bc ed ad 29 bb
       0.0095357895 0.0035217793 -0.008623566 -0.0025891021

weight_ih_l0 f4 [512, 32]
000000 b9 39 b0 bc cd 54 d9 3d 92 8e 92 3d 99 b7 ab bd
       -0.0215119 0.106118776 0.071560994 -0.08384628
000010 b5 32 7d bd 66 43 76 3d f4 d5 31 3d 99 32 44 3d
       -0.061815936 0.06012287 0.043416932 0.047899816
000020 ae a0 64 bd 68 f4 5b 3d 81 17 f9 38 56 11 51 3d
       -0.0558173 0.05369988 0.00011877623 0.051041923
000030 4b 10 c3 3b 92 b5 3c ba f4 e2 20 3d c8 d4 77 bc
       0.00595287 -0.0007198687 0.03927894 -0.015126415
000040 4b fa 45 3d 8d d1 2d bd bc 4f b6 3d 2e 2e c4 3d
       0.0483344 -0.04243617 0.08901927 0.095791206
000050 40 cd 86 3d 38 7e c2 3d 3d b7 a6 3d 23 f1 98 bd
       0.06582117 0.094967306 0.08140419 -0.07467868
000060 59 c9 b4 bd 60 84 43 3d ec 8a e0 bc ee d6 37 bd
       -0.088274665 0.047733665 -0.027409993 -0.044882707
000070 05 fc 02 bd 46 02 4f 3d 8b c6 96 bd 26 de 31 bd
       -0.031978626 0.050539277 -0.07362088 -0.043424748
000080 2c a8 c4 bc ae 43 2e bd 06 20 8b 3c 45 71 b5 3d
       -0.024005972 -0.042545013 0.016983043 0.08859495
000090 fe ff 30 bc fe 46 47 bd 02 29 8e 3b fd 1f c0 bd
       -0.010803221 -0.048651688 0.0043383846 -0.09381101
0000a0 81 e9 17 bd 13 f3 5a bc 4d f6 1e bd 46 cd 2d 3c
       -0.03708792 -0.0133636175 -0.03880911 0.010608023
0000b0 56 58 b6 bd 22 1c d4 bc 52 a8 a4 3d 3f cf 2a bd
       -0.089035675 -0.025892321 0.08039917 -0.04170155
0000c0 13 a7 65 bd c2 00 04 bd 90 01 0b bd ce a1 e5 3b
       -0.056067538 -0.032227285 -0.033937037 0.007007814
0000d0 5b 42 2a 3c 30 83 a7 bd 1c 8e 8b 3d fe 66 9a bb
       0.010391797 -0.08179319 0.068142146 -0.0047119847
0000e0 3f 7c 92 3d 6a de b7 3d 22 80 b0 bd aa 83 aa 3d
       0.07152604 0.08977969 -0.086181894 0.08325894
0000f0 72 a5 34 bd dd 13 da 3c 87 cf 7b 3c 18 44 1d bb
       -0.044103093 0.0266208 0.015369303 -0.0023996886
000100 9c 8a 66 3d 0f 23 27 3c 0e f0 6f bd 90 b3 4a 3d
       0.056284532 0.01020123 -0.058578543 0.04948765
000110 f4 55 5e 3d 26 c3 b1 bd e3 bc d6 bc 64 f3 4d bd
       0.05428119 -0.086798 -0.026213115 -0.050280944
000120 07 ff 6f bd 72 15 38 3b 0d ea 14 bd 6d 65 65 3c
       -0.058592822 0.0028088954 -0.03635602 0.014001233
000130 e1 78 58 bc 00 95 1b bd 87 f9 91 3d 25 c9 4f 3d
       -0.0132124135 -0.037983894 0.07127672 0.050728936
000140 61 b6 2a 3c 2f c1 2b 3d 16 39 80 bd 05 0a 98 3d
       0.010419459 0.04193228 -0.06260888 0.07423786
000150 6b 08 4b bd 69 ef 0d 3d a7 ba 1a bd f7 e6 9b 3d
       -0.049568575 0.034652147 -0.03777566 0.076124124
000160 c0 09 85 bd 26 a1 01 3d d3 b7 48 3d d9 20 e2 bc
       -0.06496 0.031647824 0.049003433 -0.027603554
000170 e6 8f 98 bd fa a5 99 3c 3e 58 7c bd 5e 35 8d bd
       -0.074493214 0.018755902 -0.06160759 -0.068949446
000180 27 75 41 3d e7 90 c8 bc 25 e7 33 3c 98 cd 7a bd
       0.047230866 -0.024483157 0.010980402 -0.061231226
000190 d6 75 46 bd ea 60 be 3c 4d da 14 3d b9 48 88 bd
       -0.04845222 0.023239572 0.036341 -0.06654496
0001a0 c2 85 62 bd 86 d7 95 bd 7f 16 b2 3d ef 99 ae bc
       -0.055303343 -0.073164985 0.08695697 -0.021313636
0001b0 fb 71 05 bd f0 b4 30 bd e8 e4 c3 bd ce 50 91 bb
       -0.032579403 -0.043141305 -0.09565145 -0.0044346815
0001c0 28 2c 9d 3d 22 2a bd 3d 0b c2 7e bd af 83 cd bc
       0.07674438 0.09236552 -0.062196773 -0.025087206
0001d0 27 11 2e 3d 82 8e a7 bd ce 56 9a bc a3 8a a8 bd
       0.042496826 -0.08181478 -0.01884022 -0.08229568
0001e0 79 a8 b8 3d 94 18 8f 3c ec 22 c5 bc ac 11 90 3d
       0.090165086 0.017467774 -0.024064504 0.07034621
0001f0 a3 bd 84 bd b1 c6 8c bc c7 2f 7a bd d1 80 c0 3b
       -0.06481483 -0.017184587 -0.06108072 0.005874731
000200 93 0f f0 bc 69 0e 83 bd 40 ef b5 3d 5d af e2 bb
       -0.029304301 -0.06399233 0.08883524 -0.0069178776
000210 8b a6 58 ba 97 41 96 3d 0a af 87 bd d2 a1 a5 3d
       -0.0008264563 0.07336729 -0.06625183 0.080875054
000220 ce b7 b9 bd 34 92 c3 bc de 5e 61 3d e9 e9 4b bd
       -0.09068261 -0.023873426 0.055022113 -0.04978362
000230 95 a5 98 3c 24 3a 23 bd 69 3b 4c 3d 11 e1 d2 3c
       0.018633643 -0.03985037 0.049861345 0.025742086
000240 10 d5 0e 3d 3d 10 8d bd fb 53 28 3d 88 16 23 3d
       0.03487116 -0.06887863 0.041095715 0.03981641
000250 95 48 5f bc 07 d0 9e 3d 32 e3 ab 3d 36 39 ce 3c
       -0.013628145 0.07754522 0.083929434 0.025173765
000260 37 11 4a bc 52 7d e9 bb ac df a6 3c c1 01 b8 bd
       -0.012333206 -0.007125535 0.020370327 -0.089847095
000270 1c d0 85 3d 21 66 70 3d 49 32 7a bd 8d c6 93 3a
       0.06533834 0.058691148 -0.061083112 0.0011274383
000280 67 be d0 bb b1 45 19 bd 5e 97 08 bd d0 b0 b2 bd
       -0.006370354 -0.03741998 -0.03334748 -0.087251306
000290 03 a7 6e 3c 26 49 76 3d bb db 53 3d ac b3 7e 3d
       0.014566186 0.060128354 0.051723223 0.062183067
0002a0 a5 ac 39 bd fa 9c a0 3d d4 8e 94 bd 1b c0 26 bd
       -0.045330662 0.07842441 -0.07253805 -0.04071055
0002b0 17 9b 85 bc c1 b4 78 3c 66 8c ce bc 93 19 00 3d
       -0.016309304 0.015179814 -0.025213432 0.03127439
0002c0 2b 49 6a bc 0f de 82 3c 0c 28 c9 3c ed e4 f5 bc
       -0.014299671 0.015975026 0.024555229 -0.030016387
0002d0 f6 56 90 bd 62 f9 ed bc ad ea 4f bd f9 af 22 3d
       -0.070478365 -0.029049579 -0.050760914 0.0397186
0002e0 b3 a1 96 3d 2d dd 5a bd ec dd be bc 04 f6 83 bd
       0.073550604 -0.053433586 -0.02329918 -0.06443408
0002f0 9b 30 b4 bd 31 7c 9d bd a8 b4 a6 3d b7 27 b9 bc
       -0.08798333 -0.07689703 0.08139926 -0.022601945
000300 27 02 fb 3c 5c c3 db 3a 7a 98 c8 bb fc 74 58 bd
       0.030640675 0.0016766596 -0.0061216922 -0.05284594
000310 53 0e 13 bc 02 d3 eb bc 5a 7e 69 bd 16 45 98 3d
       -0.008975583 -0.02878714 -0.057005264 0.07435052
000320 84 cb 0f bd e5 1c 37 3c ce 9d 5a 3b c4 2a 8d bd
       -0.035106197 0.011176323 0.003335822 -0.068929225
000330 99 04 c0 3d 60 ef 35 bc 2d 4b 41 3d 1c ef 17 39
       0.09375877 -0.011104435 0.047190834 0.00014489557
000340 96 88 77 3d e6 e4 9a 3d 00 ed 88 bd b6 b5 c7 bc
       0.060432993 0.0756319 -0.06685829 -0.024378639
000350 40 7b 2c 3d 26 cd 46 bc fa 5b 5c bd ce a7 7e 3d
       0.042109728 -0.012133872 -0.053798653 0.06217175
000360 95 0f a0 3d f8 78 45 3d de 08 96 bd cc ed 24 3c
       0.07815472 0.048211068 -0.0732591 0.010066461
000370 2e 80 dd bc a0 b1 55 bd b7 1c bf 3c 9a 08 7a bc
       -0.02703866 -0.05217135 0.023329122 -0.01526084
000380 89 ab 81 3d 1c 3f a3 3d 1c 36 f9 bc 1a 56 f5 3c
       0.06331546 0.079710215 -0.03042131 0.029948283
000390 9e b3 30 3c aa 1f 72 bb ba 33 8a bd d0 f5 10 3d
       0.010785012 -0.0036945143 -0.06748147 0.035390675
0003a0 52 41 50 3b ca 12 8c bd f2 ff b3 3d 26 db 85 3d
       0.0031777215 -0.06839521 0.08789052 0.0653594
0003b0 ba 69 2a 3d 8d 81 25 bd 91 0d 39 3d f6 f2 7b bb
       0.041604735 -0.040406752 0.045178954 -0.0038444377
0003c0 97 89 32 3c b7 f7 20 3d a5 c0 26 3d 7a 9a d1 bc
       0.010897062 0.03929874 0.040711064 -0.025586355
0003d0 01 99 24 3d f6 cd 8c bc 6c b9 99 3d cf 3e 3c bd
       0.04018498 -0.017188054 0.075060695 -0.045958336
0003e0 3d 1e 0b bd aa 42 39 3d 08 e4 63 bb 2d 6b 3f 3b
       -0.033964384 0.04522959 -0.0034773368 0.002920817
0003f0 5d b3 6c 3d 20 64 80 3d f6 64 6d 3c bc 50 37 bd
       0.05778824 0.06269097 0.014489403 -0.04475473

weight_hh_l0 f4 [512, 128]
000000 53 3c 63 bc 23 4b ac bd 9f 18 59 3b fa 93 76 3d
       -0.013869363 -0.08412769 0.0033126248 0.060199715
000010 58 3c 13 3d c6 27 91 3d 12 de 69 3d 54 81 01 3d
       0.03594622 0.07087664 0.05709655 0.031617478
000020 9b 4d 05 bc 1b 00 08 3c 18 12 2d 3d 59 50 05 bd
       -0.008136178 0.008300806 0.042253584 -0.03254733
000030 4d 40 9c bc 66 25 7e bc 03 ee a1 bc 1d 6c 12 3d
       -0.01907363 -0.015511846 -0.019766813 0.035747636
000040 f0 75 8b bd 8b fc 27 3a 67 e4 bf 3c 43 18 9b 3d
       -0.06809604 0.0006408176 0.02342434 0.07572987
000050 fc 33 38 3c 99 02 ca bd 4f 64 ca 3d 34 3a 0f 3d
       0.011242863 -0.09863777 0.098824136 0.034967616
000060 76 b6 9c 3d 64 cb c5 bd 60 bc c7 bc 62 9d bb ba
       0.07651989 -0.09657934 -0.024381816 -0.0014313872
000070 e6 c0 c2 bc 1d 6e 0f bc 19 3c b1 bd 46 c8 30 bd
       -0.023773622 -0.00875428 -0.08654041 -0.043159746
000080 a0 93 bc 3d d4 36 c4 bc ed 30 6c 3d 8b 64 72 3c
       0.09207845 -0.023951925 0.057663847 0.014794479
000090 b2 45 fd 3b 66 fe 30 bd d0 66 ae 3d b3 85 80 3d
       0.0077292556 -0.043211363 0.08515704 0.06275501
0000a0 f1 5e 17 3d 70 0b 66 bd ee 60 9d 3d a9 b7 06 3b
       0.036955778 -0.05616325 0.076845035 0.0020556247
0000b0 b3 eb 97 bd c6 9d aa bb 0f a0 e0 3c 77 01 d8 3c
       -0.07418003 -0.0052067963 0.027420072 0.026367886
0000c0 ac e4 a4 bc 54 7d a5 bc 9e db 0e bd 4b 14 c2 bd
       -0.02012857 -0.020201363 -0.034877412 -0.09476527
0000d0 7f 3f 8b 3a c4 d8 cf bc 06 42 a3 3c 5f 01 fe bc
       0.0010623782 -0.025371917 0.019928943 -0.031006513
0000e0 d5 f5 6c 3d 30 43 76 3d 2d a0 db 3d 37 52 0c 3d
       0.05785163 0.06012267 0.107239105 0.034258094
0000f0 d7 8d 7f bd 89 18 8b bd 8c 8b d3 3d 14 a0 4e 3c
       -0.06239113 -0.06791789 0.10329351 0.012611408
000100 01 55 33 bd 85 19 0a bd 4c fa 6b 3d 55 41 a7 3b
       -0.043782238 -0.033715744 0.05761175 0.0051042237
000110 d4 67 1c bd 92 d2 49 bd 9b 38 a2 bc e9 09 11 bd
       -0.038184956 -0.04927308 -0.019802382 -0.03540984
000120 52 83 14 bd 30 b3 3e 3d 2c 0d 24 bd 55 b8 cc 3d
       -0.03625805 0.046557605 -0.040051624 0.09996096
000130 a9 08 75 bd b2 0a 9f bd 0b e1 10 3d 0f 17 43 bb
       -0.059822712 -0.07765712 0.035370868 -0.0029768383
000140 4d 2d 65 3c 24 fa 84 3d f8 51 31 3d 23 18 04 bd
       0.013987851 0.06493023 0.043291062 -0.03224958
000150 76 c3 75 3c d3 e9 88 3b f7 72 7f 3d 0f d8 1e 3d
       0.015000215 0.0041782646 0.0623655 0.03878027
000160 1d 8f 56 3c e7 c8 4c bd 3c 2e 27 bd 5e 8a 2f 3d
       0.013095644 -0.049996283 -0.040815577 0.042856567
000170 d0 29 66 bd 61 88 94 bd ed 80 d2 bc c5 da 45 bd
       -0.05619222 -0.07252575 -0.025696242 -0.048304338
000180 b8 3f 36 bd 82 76 85 bc fb 37 91 bd 9a 82 4c 3d
       -0.04449436 -0.01629186 -0.070907556 0.04992924
000190 5f ac 78 bd 63 6a 97 bc ca 84 c2 3d b8 db a0 bd
       -0.06071126 -0.018483346 0.09497984 -0.07854408
0001a0 e1 83 9a 3a ff 9f 4e 3d 1a c7 96 bd c5 f1 cc bb
       0.001178857 0.050445553 -0.07362194 -0.006254407
0001b0 00 5e 65 bc 36 0f b8 3c 8a ba 26 bd 66 b6 a1 bd
       -0.013999462 0.02246819 -0.04070524 -0.07896118
0001c0 e8 ba 90 bd 23 1e 2e 3d 6c e1 8b bc f2 46 ad 3d
       -0.070668995 0.04250921 -0.017075263 0.08460797
0001d0 3b 68 a2 3d 6b 71 4f 3d ac f8 99 bd c3 c7 1f 3b
       0.07930037 0.050645273 -0.075181335 0.0024380542
0001e0 a6 64 8f bd cf eb f5 3c 14 0c 67 bd 41 11 ad bd
       -0.07001619 0.030019669 -0.056408003 -0.084505565
0001f0 b8 a1 4d 3d f5 74 02 3d ab fe 6d 3d 77 e5 94 bd
       0.050203055 0.03184982 0.0581042 -0.072703294
000200 7d 37 80 bd d0 84 a8 3c 9a 8b 65 3d 60 15 ff bc
       -0.062605835 0.020571142 0.056041338 -0.031138122
000210 dc f3 72 3d 99 3b 69 bd 98 ed b8 3d 74 db 93 3d
       0.059314594 -0.056941602 0.090296924 0.07219592
000220 04 44 6c bd ba b1 74 3d 6a b7 55 3d fe 5f 31 3b
       -0.057682052 0.059739806 0.05217687 0.0027065272
000230 e3 57 a4 bd a1 d3 21 3b ec a1 f2 3b 46 d3 28 bc
       -0.080245756 0.002469279 0.0074045565 -0.010304278
000240 ff 22 03 3d 70 b2 2e bd cf 02 b4 bd ad 82 8d bd
       0.032015797 -0.04265064 -0.08789598 -0.0690969
000250 e8 8c f4 bc 7a 60 a9 3d 27 f6 18 3d 7e 26 51 3d
       -0.029852346 0.082703546 0.037344124 0.0510621
000260 05 bc 94 bc ad 2a 48 bd c1 7e e3 bc 3b 41 8e 3d
       -0.018156061 -0.048868824 -0.027770402 0.069460355
000270 77 63 7c bd f2 9c 5f 3c 64 a8 70 3d 87 7c 46 bd
       -0.061618295 0.0136482585 0.05875434 -0.048458602
000280 56 c5 80 bd f7 f3 69 bc f2 91 fa bc 04 fd c9 3a
       -0.06287639 -0.014279357 -0.03058717 0.0015410488
000290 0f 93 a2 bd dc 03 6d 3d ae ad fe 3c ee e0 3b 3d
       -0.079382055 0.05786501 0.031088676 0.045868807
0002a0 83 ad 32 3d 80 fb 5e bc 1b 0a 0a bd 91 0e 67 3d
       0.043622505 -0.013609767 -0.033701044 0.056410376
0002b0 a5 06 df bc 6a db c2 3c 3a 9d a6 bc 65 7d 4e bd
       -0.027224848 0.023786265 -0.020338643 -0.050412554
0002c0 b4 91 09 bd d8 8c f0 3c a0 bc d2 3c dc 76 8f 3d
       -0.03358622 0.029364035 0.025724709 0.070050925
0002d0 e6 4d 72 3d e8 4f 82 3b d9 63 a4 bc c9 75 d1 bc
       0.05915632 0.0039768107 -0.020067142 -0.02556886
0002e0 23 d7 2f 3d c6 d1 8c bc c3 5f 72 3d 3c de 83 bb
       0.04292978 -0.017189872 0.059173357 -0.004024295
0002f0 c7 3f d5 bc 42 ee ac bd 4c db ea 3c 5f a1 9d 3c
       -0.026031388 -0.084438816 0.028669022 0.019241987
000300 28 0a 77 3d f1 51 3b bc 8b a8 07 bd 96 55 95 bd
       0.06031242 -0.011433111 -0.03311972 -0.07291715
000310 c8 e8 b3 bd aa 54 2b 3c 53 7b 17 3d 65 64 0e bd
       -0.08784634 0.010457197 0.036982846 -0.034763712
000320 51 ce f3 3c 77 27 ad 3d b4 88 d8 bc 77 07 b2 bb
       0.029761465 0.08454793 -0.026432373 -0.005433019
000330 21 ad 94 3c a1 8e 9e bd ac 68 99 bd 04 82 6d bd
       0.01814896 -0.07742048 -0.07490668 -0.05798532
000340 96 e8 82 bd f1 b4 a6 3d 70 50 a5 bc e9 34 35 bd
       -0.063920185 0.081399806 -0.020179957 -0.044239912
000350 d6 39 e4 3c cd 8a 67 3c 02 ad 45 bd b1 b0 8d 3c
       0.02785961 0.014132214 -0.048260696 0.017296167
000360 0b 0b 0f bd da 05 be 3c 55 61 ff 3c 19 22 ca 3c
       -0.03492264 0.02319615 0.031174341 0.024674462
000370 62 1a a4 bd d9 7b 23 3d fa 51 b0 bd 8e 54 d4 bc
       -0.080128446 0.039913032 -0.08609386 -0.025919225
000380 65 90 25 bd 18 dd 93 3b d7 75 29 3c cb c1 a3 bd
       -0.04042091 0.0045124404 0.010343037 -0.079959475
000390 ee a9 a1 bd b4 2c 69 bd 4f 3f 37 3d bd 14 b5 3c
       -0.0789374 -0.056927398 0.04473811 0.022104615
0003a0 2c 74 22 3d 79 41 1e bc 1c 60 ec bb 70 af 33 3d
       0.03966157 -0.009659165 -0.0072136056 0.043868482
0003b0 88 62 9f 3c 43 ea e0 bb bb 1e 9c bd 34 07 84 bd
       0.019456163 -0.0068638637 -0.07623049 -0.064466864
0003c0 0b f4 a4 bd 3b e0 a1 bd 95 e0 b8 bd 77 5a a7 bd
       -0.0805436 -0.07904097 -0.090272106 -0.08171552
0003d0 f2 7d 90 3d 1d 31 d4 bc 6f 03 9a bc 40 c1 35 bc
       0.07055272 -0.025902325 -0.018800465 -0.011093438
0003e0 c1 d5 f1 bc 78 99 01 3d ae 10 91 3d 06 16 8d 3d
       -0.029520871 0.0316405 0.070832595 0.06888966
0003f0 2f 89 7f bc 62 f3 84 bd 32 4d e4 ba 92 4d 76 bd
       -0.015596672 -0.06491734 -0.0017418026 -0.06013257
