Single Battery Model/5. CNN-LSTM Models/model_B0005_discharge_std.pth (torch, 432718 bytes, 15 tensors)

weight f4 [64, 3, 3]
000000 e5 e3 a5 be 68 25 11 3e 71 ea 85 3d 91 18 23 3e
       -0.32400432 0.14174426 0.06538857 0.1592734
000010 84 37 3f be b1 1f ae 3d ee f6 62 be 7a 42 36 3e
       -0.18673521 0.085021384 -0.22164509 0.17798796
000020 f4 37 0c bd 5f f0 6a be 58 cd 03 3e 2a c1 91 3c
       -0.03423305 -0.22943257 0.12871301 0.017792303
000030 79 07 1c bd aa dd 31 3e a5 12 ea bd 8b 54 54 3d
       -0.038093064 0.17369714 -0.114293374 0.05183844
000040 4c db 68 be 28 41 81 3e 5b d6 90 be 52 6a 90 3d
       -0.22739905 0.25245023 -0.2828854 0.07051529
000050 74 83 16 be 19 e1 9b be d1 93 2c be 5f d1 30 be
       -0.14698583 -0.30445173 -0.16853262 -0.17267369
000060 3b b2 cc 3d c7 b0 a0 3e 87 90 05 3d 4a ba 6f be
       0.09994932 0.3138487 0.032608535 -0.23410907
000070 28 ef fc 3d ea 5a a4 be 3e 58 91 bd 66 e4 49 3e
       0.12350303 -0.32100612 -0.07096909 0.19716033
000080 2a 5e 8e be 18 59 d3 3d f9 c5 a5 be 0e 1c e6 bd
       -0.27806216 0.10319728 -0.32377604 -0.1123582
000090 60 9a f8 bd b6 30 0d be b6 ba 98 3e ee 83 cc 3d
       -0.1213882 -0.13788113 0.2982995 0.09986101
0000a0 ab 20 58 bd 82 43 74 3d 6b 89 98 3d 1c f2 a0 3e
       -0.05276553 0.059634693 0.074480854 0.31434715
0000b0 cd 2b 9f 3e ec a9 4d be 90 39 ad bd 6f 11 34 3e
       0.31088105 -0.20084351 -0.08458245 0.17584775
0000c0 31 65 41 3e cc f6 e9 3d 14 12 8d 3e 2e 32 7f be
       0.18886258 0.11424026 0.27552855 -0.24921486
0000d0 2b 09 73 3e ee a5 a1 3e 54 29 56 3c ed 8c b1 bc
       0.23733966 0.31571907 0.013071377 -0.021673644
0000e0 be be 8c bd 59 e1 2f be 97 6e 53 be f7 e3 d8 3c
       -0.06872319 -0.17175807 -0.20647655 0.02647589
0000f0 46 32 a8 3e 77 2c 3c be b9 ad 72 be 52 e5 a8 3c
       0.32850856 -0.18376337 -0.23699082 0.020617161
000100 18 be 34 3d e2 70 32 3e 83 31 40 be 26 fb 11 3e
       0.0441266 0.17425874 -0.18768887 0.14255962
000110 69 31 1a be 88 b2 2d bd 6e a3 84 be 6f 92 0c be
       -0.15057911 -0.04240659 -0.25905937 -0.13727735
000120 0e a0 2a bb f4 ea 83 be 59 d8 e0 bd b7 54 23 be
       -0.0026035341 -0.25765193 -0.10978765 -0.15950285
000130 80 97 90 bc 4a 28 7d be 96 d4 a0 3e 2f 87 fa 3d
       -0.017650366 -0.247224 0.3141219 0.122328155
000140 67 8f 7a 3e 01 8b 93 be eb 98 24 be 7f 48 fe 3d
       0.24468766 -0.2881699 -0.16073959 0.12416171
000150 b0 98 cb bc 77 70 b3 bd 5c 2e dc bd 92 5b 04 be
       -0.02485308 -0.08761685 -0.1075103 -0.12925556
000160 73 4c f3 3d 5a 15 82 bc 25 0d a6 be 13 0c 96 3c
       0.11879816 -0.015879322 -0.32431903 0.018316304
000170 9d f5 c8 bb 5f 07 b4 3d e1 bf 46 3e 17 3a 84 3e
       -0.006132795 0.087904684 0.19409133 0.2582557
000180 89 e0 39 3e 5d c3 ab bc 7d 95 b4 bd 61 38 15 3e
       0.1815206 -0.02096718 -0.08817575 0.14572288
000190 d3 a6 88 3e 3b 57 18 bd b4 d3 36 be d7 d3 a7 3e
       0.26689777 -0.037192564 -0.17854196 0.32778808
0001a0 77 f8 8d 3e fd 53 5c be e5 2c 65 bd d6 0f 95 3e
       0.27728626 -0.21516414 -0.055951018 0.29113644
0001b0 44 30 9b 3e 71 11 46 3e 26 87 28 3e ee b1 64 be
       0.3031026 0.19342591 0.16457805 -0.223335
0001c0 73 c5 a3 bd 25 90 7a be 44 2d 2b 3e 86 3a 29 3d
       -0.07996645 -0.2446905 0.16716486 0.041315578
0001d0 c3 12 4a 3e 22 1b 92 3e 21 8e 54 3e 0c 76 80 be
       0.1973372 0.28536326 0.20757343 -0.25090063
0001e0 ce 50 77 bd 1a 61 2a be c3 19 f6 3d 65 f0 ec bd
       -0.060379796 -0.16638604 0.120166324 -0.11569289
0001f0 a8 e0 7a 3e 51 22 aa bc eb 18 29 3c 37 59 31 3d
       0.24499762 -0.020768316 0.010320882 0.043297973
000200 e5 a9 a1 bb 6f 5d f4 3d 0b fd b6 bd 71 98 86 be
       -0.004933583 0.119318835 -0.08934983 -0.2628818
000210 6c d2 ad 3d da f5 44 3e 99 23 7a 3c d7 95 01 be
       0.084874004 0.1923441 0.015267276 -0.12654816
000220 31 3d 98 bc 91 bc 51 3e 2f b9 fe bd 28 6f 4b bd
       -0.018583866 0.20482089 -0.12437665 -0.049666554
000230 32 95 af 3d c5 57 af 3d 7a 5f a6 3e 17 b2 0e be
       0.085733786 0.085616626 0.32494718 -0.13935123
000240 09 99 e6 bb 73 2d 44 be f6 22 c3 bd 4e 80 9c 3e
       -0.007037286 -0.19157963 -0.09528153 0.3056664
000250 d1 65 92 be 50 75 c2 bc 41 7a c1 bd 20 c1 88 be
       -0.28593305 -0.02373758 -0.09447146 -0.26709843
000260 03 6e a5 be df 15 2e be e2 0c a3 3e a0 31 21 be
       -0.32310495 -0.1700053 0.31845766 -0.15741587
000270 cf cb df 3d 77 f2 fc 3d 54 d5 ab 3e 8b 1d 8a 3e
       0.10927545 0.12350934 0.33561194 0.26975664
000280 37 cc 86 3d a8 ae 0a 3e 7f 2b 6e be 63 16 f9 3d
       0.0658192 0.13543189 -0.2325878 0.12162473
000290 83 d6 be bd ee 89 09 be 81 cb 33 3e a6 8a 5c be
       -0.093182586 -0.13431522 0.175581 -0.21537265
0002a0 4b b2 e7 bd 41 c2 3a bd 01 89 6c be 86 25 8d be
       -0.113133036 -0.04559541 -0.23099138 -0.2756769
0002b0 58 d9 9e be f3 49 2c 3e d3 c4 ad bd c2 f2 50 3e
       -0.31025195 0.16825084 -0.08484807 0.20405105
0002c0 76 fb 76 3e c1 36 03 be 9e 86 4e be 06 ea 04 3c
       0.24119362 -0.12813856 -0.2016854 0.008112436
0002d0 e5 5e 56 3e 10 d8 1e 3d 39 a9 98 3e c2 9b e0 3c
       0.20934637 0.038780272 0.29816607 0.027418021
0002e0 fa 32 a8 be 4d c9 5a be 07 b7 dd 3b 0d 1f 08 3e
       -0.32851392 -0.21365853 0.0067662033 0.13293095
0002f0 ab 16 8b 3c 31 71 86 be 7e d5 02 3d c6 12 a7 3e
       0.016978582 -0.26258233 0.031941883 0.3263151
000300 d8 3a f5 3c 3a 8c c7 3d ec 01 f6 3d 46 d7 9a 3e
       0.029935285 0.09743543 0.12012085 0.30242366
000310 54 df 34 3e 12 a5 d9 bd 2d 5c 38 be 22 76 a1 3d
       0.17663318 -0.10627188 -0.18003912 0.0788386
000320 3f af eb bd cd f0 3c be ae 19 82 3e 5e 8d 04 3e
       -0.11508035 -0.18451233 0.25410217 0.12944552
000330 c1 2f 19 bd 27 fe 28 3c 8c 65 89 3c 37 61 6a 3e
       -0.037399057 0.010314501 0.016772054 0.22888647
000340 ac b4 80 3e 1d 03 59 3e fa 97 aa 3d d6 8d 0d be
       0.25137842 0.21192594 0.083297685 -0.13823637
000350 b6 4a 33 bd eb 74 d1 3d 32 7a 25 be 83 47 a6 be
       -0.04377242 0.102273785 -0.16159895 -0.32476434
000360 ad d2 9b be 11 30 7b be c0 c1 a7 3d b3 01 8d 3e
       -0.3043417 -0.24530055 0.08191252 0.2754036
000370 84 88 20 bc 6d 42 ab 3d dc 61 65 bd 34 6c 5c be
       -0.009798173 0.08362279 -0.05600153 -0.21525651
000380 bf 93 f5 bd 2e ad 2b be b1 78 40 bd 1e 12 a2 be
       -0.11991071 -0.16765282 -0.0469901 -0.31654447
000390 cf 74 98 be b9 e7 33 be 09 6d 7b be b3 6e a1 3e
       -0.29776618 -0.17568864 -0.24553312 0.3152977
0003a0 73 ac 5a be 5b 99 a4 bd 3b 6f 90 3e 6d e2 ea bd
       -0.21354847 -0.08037063 0.28209862 -0.114689685
0003b0 7c a9 9d be 61 a2 b5 3c 5b 76 29 3c d5 c0 33 3e
       -0.3079337 0.022172155 0.01034316 0.17554028
0003c0 c9 82 9e be 92 06 ca 3d e4 44 8b 3e 7a da 53 be
       -0.30959156 0.098645344 0.27200997 -0.20688811
0003d0 11 fe d0 3d 18 d6 a4 bd 42 b2 03 3e 30 a1 88 be
       0.10204709 -0.08048648 0.12860969 -0.26685476
0003e0 11 8a a7 3d 87 0f d9 bd 00 b7 3b be bd 5b 99 be
       0.08180631 -0.10598665 -0.18331528 -0.29952803
0003f0 0a a7 e1 bd 7d 6a 08 3e 98 76 d3 bc 58 4a 9d 3e
       -0.11018188 0.13321872 -0.025813386 0.30720782

bias f4 [64]
000000 3f 6a e6 3d 76 7b b6 3c bc 00 39 3e 65 90 68 be
       0.112507336 0.022275668 0.18066686 -0.22711332
000010 8a 3c 4b be 7a c8 e6 bd c1 ac 84 be 35 02 91 3e
       -0.19847313 -0.112687066 -0.2591305 0.28321996
000020 b1 c2 d0 bd 0c 44 a1 be 98 63 6a 3e af 2e 4d be
       -0.101933844 -0.31497228 0.22889555 -0.2003734
000030 95 3c f7 bd cc 5c fc 3c 9e b6 fe bd 25 38 87 3e
       -0.12072102 0.030805968 -0.12437175 0.26410022
000040 1c 67 9d 3e 22 4f 6e 3e 26 8f 68 be 6d 09 4f be
       0.3074273 0.23272374 -0.22710857 -0.2021844
000050 88 3d c4 bd 31 93 81 bd 89 f5 5e 3e d3 41 96 be
       -0.09582049 -0.06326903 0.21773352 -0.29347095
000060 64 11 94 3d 5d 1d a5 3e 3f c0 0a bd ef 8e 30 be
       0.072298795 0.32248965 -0.033874746 -0.17242025
000070 63 80 97 be 67 1f 18 3e 7b a0 7d 3e c2 6e ad 3b
       -0.2959014 0.14855729 0.2476825 0.0052927444
000080 47 52 05 3e e3 53 12 bc 7d 94 9d 3c 75 85 60 3e
       0.13019668 -0.008931133 0.019235844 0.2192591
000090 26 e0 99 3e 97 84 ba 3c 09 f0 a1 3d 4e 8c 97 be
       0.30053824 0.022768302 0.07907111 -0.2959923
0000a0 16 47 a0 3e cd 6d 9e be b1 22 6f be 1d 79 67 be
       0.31304234 -0.30943146 -0.23353077 -0.22604795
0000b0 2f f9 79 3e 61 fe 01 3e 7e f1 7c be 9f 49 81 be
       0.24411462 0.12694694 -0.24701497 -0.2525148
0000c0 ba 5b 77 3d 68 cc e3 bc 6a 1b d5 3d 2d 2c 1a 3e
       0.06039021 -0.02780743 0.104056194 0.15055914
0000d0 a8 50 9f be 70 f0 3d be 60 be 45 3e 3e f9 c8 3d
       -0.31116223 -0.18548751 0.19310904 0.09813164
0000e0 c4 11 96 3e d7 84 8b be 8a 88 5a 3e 20 3b 44 3e
       0.2931043 -0.27249786 0.21341148 0.1916318
0000f0 75 1b a4 bd 5e d1 75 be 84 91 04 3c d3 d8 07 be
       -0.080130495 -0.24005648 0.008091334 -0.13266306

weight f4 [32, 640]
000000 23 07 e2 bb 36 34 80 3c 5d 40 18 3d 46 9c 73 3c
       -0.0068978234 0.015649896 0.037170757 0.014868801
000010 56 76 de bc 51 88 b0 3c 20 77 18 3d b9 f8 02 bb
       -0.027156036 0.021549376 0.03722298 -0.0019984676
000020 9b e5 93 3c 62 68 e8 3c da 71 ee 3c 01 db a0 3c
       0.01805382 0.028370086 0.029107023 0.01963568
000030 25 00 b6 bc 15 01 cb 3c f8 39 3a bb 7b 63 c3 bc
       -0.022216866 0.02478079 -0.00284159 -0.023851147
000040 fd 10 07 3d e9 d3 c3 3c 71 f9 5c 3c 98 a5 b8 3c
       0.032975186 0.023904758 0.013487206 0.022539899
000050 ee fe 4d 3c e1 28 98 3c a3 14 c1 bc 44 ef 6f 3c
       0.012572987 0.01857418 -0.02356941 0.014644448
000060 79 8e 27 3b 2b dc b1 3c 9d 01 92 bc 86 9a 30 bc
       0.0025567098 0.02171143 -0.017823035 -0.010779029
000070 d8 21 8f bc fd f5 fc 3c 8c 98 c6 3c f5 57 f0 bb
       -0.017472193 0.030879015 0.024242662 -0.007334704
000080 97 f4 0c 3c c6 c6 10 bb b1 17 c8 3c 1b ea c4 3c
       0.008603237 -0.0022091134 0.02442536 0.024037411
000090 8b 80 c2 3c e0 ff af 3c 40 51 c4 3c b9 22 0f 3d
       0.023742935 0.021484315 0.023964524 0.034945223
0000a0 f0 49 00 bd 9c 0e fb bc 4f 33 58 3c 64 d3 be 3c
       -0.031320512 -0.030646615 0.013195827 0.023294158
0000b0 78 cb cc 3c cf ff 26 3d 67 5b 92 3c 99 1b c3 bc
       0.024999365 0.0407713 0.01786585 -0.02381687
0000c0 ea 75 ea 3c 78 58 fa 3c b8 ec 88 3b 1b df 34 3c
       0.028620679 0.030559763 0.0041786097 0.011039521
0000d0 8e 23 b8 bc 76 3a 8e 3c 22 47 0b bb 1c e9 85 3c
       -0.022477891 0.01736186 -0.0021252115 0.016346507
0000e0 89 db 11 3d d6 58 9c bc 67 f0 6e bb 5a 3b 0d bd
       0.035609756 -0.019085329 -0.003645921 -0.03448043
0000f0 12 0a fc bb 51 97 75 bc ac f1 71 3c 6c 8d cd 3c
       -0.00769163 -0.01498969 0.014767092 0.02509185
000100 0d ae e0 bc b3 17 a2 3b e8 bb 16 bd 81 88 00 3c
       -0.027426744 0.004946673 -0.036800295 0.007845045
000110 9f 05 af 3c 15 c5 ed bc 1e 37 61 3b 2f c7 84 bc
       0.021364985 -0.02902464 0.0034365128 -0.01620826
000120 57 16 b8 bc f2 51 ea ba 68 16 f0 3c c6 b0 4b 3b
       -0.02247159 -0.0017877205 0.02930756 0.0031080707
000130 44 f0 f5 bc 64 ba cc 3c 95 77 43 3c 6c af d2 3c
       -0.030021794 0.024991222 0.011930366 0.025718413
000140 89 49 0c 3d 21 2f 53 bc d3 6e 56 3c 35 0d 0f 3d
       0.034249816 -0.012889654 0.013087946 0.034924705
000150 99 70 fc 3c f1 76 f5 3a 33 4b 14 bd b1 a7 f1 bc
       0.03081541 0.0018727464 -0.036204528 -0.029498907
000160 79 fa 5f 3c da ff 81 3c 1c 65 00 bd 42 7a a9 3b
       0.013670557 0.01586907 -0.031346425 0.005172045
000170 f7 dd 96 3c 1f 03 07 bc 8a 75 7a bc 7f c0 d6 3b
       0.018416388 -0.00824049 -0.015286813 0.006553709
000180 f5 84 cd 3b 64 c9 8b 3c dd f6 8f 3c d3 fe aa 3c
       0.006271953 0.017063804 0.017573768 0.020873463
000190 ba 5d 44 bc 8a 38 7d 3b 9d d0 23 3b f0 a6 3b 3d
       -0.011985237 0.0038638436 0.002499617 0.0458135
0001a0 c7 42 45 bc 33 75 9f bc 1f 2d cf 3b 2f 0a 9f bc
       -0.012039847 -0.019465065 0.0063225175 -0.019414036
0001b0 e2 4a 99 3c 05 ce 94 bb 6d 07 02 bc 15 a9 d4 3c
       0.018712465 -0.004541161 -0.007936341 0.02595953
0001c0 53 bd 19 3d 7b 06 b3 3c 9d 97 f8 3a 21 38 c6 3b
       0.03753407 0.021853676 0.0018966083 0.0060491716
0001d0 f1 9e 17 3d 9c 34 00 3d fc 4c 40 bc 0b 99 21 bd
       0.037016813 0.031300172 -0.0117371045 -0.039452594
0001e0 56 05 86 3c 56 19 3a 3b b6 e6 18 bd c4 64 e5 bb
       0.016359966 0.002839645 -0.037329398 -0.0070005376
0001f0 ed 3a b1 bc 48 f9 28 bd 54 56 2f bd ee ed 5b 3c
       -0.021634543 -0.041253358 -0.04280694 0.013423426
000200 7a d1 04 bc f7 41 d2 bc d6 61 ec bc a8 6a aa bc
       -0.008106584 -0.02566622 -0.028855246 -0.02080281
000210 f1 51 f5 bc 8c 25 6a bc 62 a7 3c bd 78 01 c7 3b
       -0.0299463 -0.014291178 -0.046058066 0.006073173
000220 e6 a1 bb 3c d4 71 bf 3c 5e 3d 0a 3d aa f7 5e bc
       0.022904348 0.023369707 0.03374993 -0.013608852
000230 dd 96 64 bc 59 a6 55 3c fd 38 14 3d ef 68 8e 3c
       -0.013951984 0.013040149 0.03618716 0.01738402
000240 88 e0 01 bd 01 02 4a bc a4 02 ea 3c 06 a1 84 bc
       -0.03170827 -0.012329579 0.028565712 -0.016190063
000250 9f 0b 09 bd 24 0a d7 3c 48 c8 8c bc 97 c3 d1 bb
       -0.03345835 0.026249953 -0.017185345 -0.00640149
000260 81 51 22 3c ea 30 9a 3c 2a 7e 8a bc fa 78 80 3c
       0.009907127 0.018822152 -0.016905863 0.015682686
000270 c3 c0 23 3c 87 d9 0b 3d 56 5a c7 bb e7 0c f1 bb
       0.009994688 0.034142997 -0.006083767 -0.0073562744
000280 bd b5 e3 3c 1f c7 e4 bb 1b 84 b9 3b 44 e4 fa bc
       0.02779662 -0.006981745 0.0056615 -0.030626424
000290 7f 5f 06 3d d4 66 50 bb 88 7c c0 bc 8f 03 46 3c
       0.032805916 -0.0031799572 -0.023496881 0.012085809
0002a0 38 19 92 3c 00 6b ea 3b b5 5b e9 bc f5 9f 02 bd
       0.01783429 0.0071538687 -0.028486112 -0.03189083
0002b0 d5 c3 7a bc e0 92 b1 3c e6 0c e1 bc d1 e4 14 3c
       -0.015305479 0.02167648 -0.02747197 0.009087757
0002c0 bf fe dd bc 08 42 00 3d b7 32 d7 3c b0 1f 0b bd
       -0.027099011 0.031312972 0.0262693 -0.033965766
0002d0 5c 42 13 bd 3e 37 da 3c 5c d7 68 bc fd ee 39 3c
       -0.035951957 0.02663767 -0.014211502 0.011348483
0002e0 eb b1 c8 bc 45 46 18 3c bc bb 07 3d d0 51 94 3c
       -0.0244989 0.009294097 0.03313802 0.018105417
0002f0 bb d2 f5 bc d7 6a 4f 3c 7f ad 1d 3b d5 88 11 3d
       -0.03000771 0.01265975 0.002405971 0.035530884
000300 9d f8 93 b9 3d d1 61 3c db 79 d6 3a 33 7e c9 bb
       -0.00028223256 0.013782796 0.001636322 -0.0061490773
000310 c4 d6 a0 bc e7 94 fe bb d9 51 bc bc 9c d8 99 3c
       -0.019633658 -0.0077692154 -0.022988247 0.018780045
000320 03 92 1f bd bb 8a 13 bd 27 67 83 3c 3b 12 31 bd
       -0.038957607 -0.036020976 0.016040398 -0.043230277
000330 84 49 cf bc 12 a8 97 3c 74 a4 08 bd fc 55 bd 3c
       -0.02530361 0.01851276 -0.03335996 0.02311229
000340 30 5c 06 bd 3c 56 ac bc e8 5b 16 3b 51 dd df 3c
       -0.03280276 -0.021037214 0.0022942964 0.027327212
000350 48 77 dd bc 28 ca 5b 3c 50 bd 55 3b b6 a1 bd 3c
       -0.027034417 0.013414897 0.003261406 0.023148399
000360 e1 d1 90 3c e1 29 f0 3c 76 96 0c bd ee 58 61 3c
       0.017678203 0.029316844 -0.03432318 0.013754113
000370 65 34 9d bc c2 db f4 bc 7f 02 dc bc 92 e9 86 bb
       -0.019190023 -0.029889945 -0.026856659 -0.004117199
000380 bb 8e 6b bc 7e e1 1f 3d 18 4a 3c 3c 42 69 02 3c
       -0.014377291 0.039033405 0.011492275 0.007959666
000390 68 d3 f5 bc 22 6d 0d 3c c2 a7 2f bd ef b6 41 bc
       -0.030008033 0.008631976 -0.042884596 -0.0118234
0003a0 64 e5 41 bc 64 57 85 3b 22 6d b3 bc 46 e4 5a 3c
       -0.011834476 0.0040692557 -0.021902625 0.013360089
0003b0 8e d8 38 3c ec ee ac 38 0b 8a ab bc 7a 79 22 bd
       0.011282099 8.246102e-05 -0.020939847 -0.03966663
0003c0 66 74 21 3b d8 a2 e6 3c 4d 6e a8 bb 72 ce 59 bc
       0.002463603 0.028153822 -0.005140102 -0.013293849
0003d0 c0 32 70 3c 1a e0 dd 3c 14 1a 08 3d b6 45 01 3d
       0.014660537 0.027084399 0.033227995 0.031560622
0003e0 2f da d5 bc ef f2 93 bc d8 f9 64 3c c7 de 57 3c
       -0.026105015 -0.018060176 0.013975583 0.013175673
0003f0 8d f1 87 bb a0 af 31 bc 39 eb f7 bc b9 ec 0e bd
       -0.004148668 -0.010845095 -0.03026353 -0.034893725

bias f4 [32]
000000 82 98 07 bd 67 50 a0 bc ec 7d e9 bc 4c 53 0e bd
       -0.033104427 -0.019569589 -0.028502427 -0.034747407
000010 34 07 7e 3a 72 fb d4 bc eb 7e de 3b 3a f4 37 3d
       0.00096904044 -0.025998805 0.006790032 0.044910647
000020 02 02 00 3b 77 97 fc 3c 05 ed c6 3c d3 e1 1e 3d
       0.0019532447 0.030833943 0.024282942 0.03878958
000030 4d 27 21 bc ce 22 98 bb c4 c7 e4 3b fa 83 d2 bc
       -0.00983603 -0.004642821 0.0069818217 -0.025697697
000040 f9 86 5a 3b 9c a6 c5 3a 36 78 4c 3c 77 01 07 bd
       0.003334461 0.0015079561 0.012479832 -0.03296038
000050 22 40 e6 3c 7c 57 e3 bc f7 a5 fe bc 9a c8 f1 bc
       0.028106753 -0.027751677 -0.031084998 -0.0295146
000060 41 14 d0 3b a3 97 c7 bc ba 54 58 bc d0 1f 1c 3c
       0.0063500707 -0.024364298 -0.013203794 0.009529069
000070 65 13 c9 3b 89 fd e6 bc b5 7f 8d bc 2f 72 e3 3c
       0.006136345 -0.028197067 -0.01727281 0.027764408

weight f4 [640]
000000 38 9f 81 3f 7f 12 80 3f 1e a4 7f 3f 89 6c 80 3f
       1.0126715 1.0005645 0.998598 1.0033122
000010 4f 2d 7e 3f f6 08 80 3f 54 97 7e 3f be fb 7e 3f
       0.99287885 1.0002735 0.9944966 0.9960288
000020 73 9b 7e 3f 56 59 80 3f dd 2b 80 3f ee c1 80 3f
       0.99455947 1.0027263 1.0013386 1.0059183
000030 05 21 80 3f 59 f3 7e 3f 20 c1 7f 3f 56 a2 80 3f
       1.0010077 0.9959007 0.9990406 1.0049541
000040 aa ba 80 3f c8 34 80 3f ad 71 7f 3f 49 a9 80 3f
       1.0056965 1.0016108 0.9978283 1.0051662
000050 46 42 7f 3f 8a 9f 7c 3f 12 b2 7e 3f a2 45 7f 3f
       0.997105 0.9868094 0.99490464 0.99715626
000060 41 43 80 3f 6c ec 7f 3f f7 ed 7f 3f 14 b3 7d 3f
       1.0020524 0.99970126 0.9997248 0.99101377
000070 78 9e 7e 3f 01 53 80 3f 76 0b 7e 3f 2e ea 80 3f
       0.99460554 1.0025331 0.9923624 1.0071466
000080 e6 6f 80 3f 66 65 7c 3f 40 13 80 3f ec 9f 80 3f
       1.0034149 0.9859222 1.0005875 1.0048804
000090 99 45 81 3f 66 74 7f 3f 04 4c 7e 3f b9 88 80 3f
       1.0099365 0.99786985 0.9933474 1.0041724
0000a0 13 66 80 3f 97 db 7f 3f 5f 2b 81 3f 81 6e 7d 3f
       1.003115 0.9994444 1.0091361 0.9899674
0000b0 52 33 7e 3f b2 18 80 3f 4a 1d 7f 3f 7e c6 7e 3f
       0.9929706 1.0007536 0.99654067 0.99521625
0000c0 10 fb 7d 3f df b6 7f 3f f5 75 7d 3f ab 32 80 3f
       0.99211216 0.99888414 0.99008113 1.0015463
0000d0 47 38 7e 3f 06 b1 7c 3f 91 fe 7d 3f c3 da 7e 3f
       0.9930462 0.98707616 0.9921656 0.99552554
0000e0 cd 27 80 3f 5b 8f 80 3f 1d 91 7e 3f 6f 8d 80 3f
       1.0012146 1.0043749 0.99440175 1.0043162
0000f0 cc 2e 80 3f 9a 82 7f 3f 57 2d 7e 3f 0c 6b 7d 3f
       1.0014281 0.9980866 0.99287933 0.98991466
000100 11 00 7e 3f 30 68 80 3f b1 a8 7f 3f da d2 7f 3f
       0.9921885 1.0031796 0.9986678 0.9993111
000110 d5 88 7f 3f 0a bc 7f 3f a8 cd 7f 3f 23 f1 80 3f
       0.99818164 0.998963 0.9992318 1.0073589
000120 09 10 81 3f 64 ce 7f 3f 03 2b 81 3f 30 04 81 3f
       1.0083019 0.999243 1.0091251 1.0079403
000130 87 4a 80 3f ff 1d 80 3f 66 ba 80 3f ad 67 81 3f
       1.0022744 1.0009154 1.0056884 1.0109764
000140 0d 66 81 3f cd 3b 7e 3f b9 d5 80 3f b4 cd 7d 3f
       1.0109268 0.9931 1.0065223 0.99142003
000150 53 b8 7f 3f aa a8 80 3f f0 3b 7e 3f 9a 67 7f 3f
       0.9989063 1.0051472 0.9931021 0.9976746
000160 aa 37 7f 3f 30 7e 7f 3f 9b 36 80 3f 97 85 81 3f
       0.9969431 0.9980192 1.0016664 1.0118893
000170 60 09 7f 3f 31 65 80 3f 11 5e 80 3f 83 6a 80 3f
       0.9962368 1.0030881 1.0028707 1.0032505
000180 7a 5f 80 3f 29 fd 7f 3f 50 5d 7e 3f 12 ed 7d 3f
       1.0029137 0.99995667 0.99361134 0.99189866
000190 57 2a 7d 3f 1f d2 7d 3f ae aa 7f 3f 4b 5a 7f 3f
       0.9889273 0.99148744 0.9986981 0.9974715
0001a0 3f 68 80 3f 82 74 80 3f 0b e8 7f 3f 71 b7 7f 3f
       1.0031813 1.0035555 0.99963444 0.99889284
0001b0 be f6 7f 3f d8 35 80 3f 6b ca 7e 3f d4 7a 7e 3f
       0.99985874 1.0016432 0.99527615 0.9940617
0001c0 dc 52 7d 3f 38 4f 7e 3f 0b 4b 80 3f 1d 5c 81 3f
       0.9895456 0.9933963 1.0022901 1.0106236
0001d0 bf ff 80 3f 8a f9 7f 3f 3b 70 7f 3f f9 2e 80 3f
       1.0078048 0.9999014 0.99780625 1.0014335
0001e0 07 34 7c 3f c4 1c 80 3f db a2 80 3f 44 0f 7f 3f
       0.9851689 1.0008779 1.00497 0.9963267
0001f0 da 72 80 3f c1 b0 80 3f 50 31 80 3f f6 c5 7f 3f
       1.003505 1.0053941 1.0015049 0.9991144
000200 1a be 7d 3f b8 50 7f 3f ce 06 7e 3f 04 62 7d 3f
       0.99118197 0.9973254 0.99229133 0.98977685
000210 38 a0 7e 3f 02 55 80 3f eb 97 80 3f 43 4d 81 3f
       0.99463224 1.0025942 1.0046362 1.0101703
000220 21 d5 7c 3f 47 4a 7d 3f 20 b6 7d 3f 72 16 7e 3f
       0.9876271 0.98941463 0.99106026 0.99253
000230 03 25 81 3f 96 ee 7e 3f 8c 69 81 3f d0 87 7d 3f
       1.008942 0.99582803 1.0110335 0.9903536
000240 0d 1a 7f 3f db 14 80 3f 80 3e 7f 3f c3 44 80 3f
       0.99649125 1.0006365 0.9970474 1.0020984
000250 e9 ab 7c 3f 00 11 7f 3f 39 fd 7d 3f 5a e6 7d 3f
       0.98699814 0.99635315 0.9921451 0.99179614
000260 23 89 80 3f 72 d9 81 3f b2 67 7f 3f 15 ca 80 3f
       1.0041851 1.0144484 0.997676 1.006167
000270 d4 7a 80 3f e5 17 80 3f 20 24 80 3f b8 d4 7f 3f
       1.0037484 1.0007292 1.0011024 0.9993396
000280 da 7b 80 3f 72 ff 7e 3f 65 0f 80 3f e6 95 7e 3f
       1.0037796 0.9960853 1.0004698 0.99447477
000290 e3 71 7f 3f 44 cb 80 3f 8a b5 7e 3f 4d df 80 3f
       0.9978315 1.0062032 0.99495757 1.0068146
0002a0 f4 1f 7f 3f 2d 29 7f 3f 53 86 80 3f 5a 42 80 3f
       0.9965813 0.99672204 1.0040992 1.0020249
0002b0 24 d9 7f 3f 78 15 80 3f ea 0b 80 3f 61 1f 80 3f
       0.99940705 1.0006552 1.0003636 1.0009576
0002c0 1b 96 7c 3f a2 66 80 3f 54 2e 7f 3f 99 70 7f 3f
       0.9866654 1.0031321 0.99680066 0.99781185
0002d0 66 28 7e 3f 82 6d 81 3f 07 eb 7e 3f 37 1c 81 3f
       0.99280393 1.0111544 0.99577373 1.0086735
0002e0 ea 22 80 3f 8a 9a 7d 3f be 63 7e 3f 4a d0 7e 3f
       1.0010655 0.9906393 0.99370944 0.99536574
0002f0 bb 52 80 3f 07 9d 81 3f 7a e7 80 3f 50 b7 80 3f
       1.0025247 1.0126046 1.0070641 1.0055943
000300 a1 b5 7e 3f 34 62 80 3f 14 7a 80 3f 44 3a 81 3f
       0.99495894 1.0029969 1.0037255 1.0095906
000310 32 8f 7f 3f 93 7a 7f 3f 8a 36 80 3f 8e 06 80 3f
       0.99827874 0.9979641 1.0016644 1.0002
000320 84 b5 7f 3f 14 50 81 3f dd 8b 80 3f 4b 3a 81 3f
       0.99886346 1.0102563 1.0042683 1.0095915
000330 18 de 80 3f d0 a2 7f 3f 6a 60 80 3f 3f dc 7e 3f
       1.0067778 0.9985781 1.0029423 0.9955482
000340 81 ec 7f 3f 79 2f 7e 3f 0f 2d 81 3f 55 26 80 3f
       0.9997025 0.9929119 1.0091876 1.0011698
000350 14 32 80 3f 28 19 81 3f 1d 7f 7e 3f 39 2c 80 3f
       1.0015283 1.0085802 0.9941271 1.0013496
000360 48 65 81 3f 12 ff 7d 3f 04 6c 80 3f 75 1d 80 3f
       1.0109034 0.9921733 1.0032964 1.000899
000370 89 b2 7f 3f d7 ce 7c 3f 4c 6f 80 3f 96 d3 7f 3f
       0.998818 0.9875311 1.0033965 0.9993223
000380 c7 3c 80 3f 21 32 81 3f 31 3c 7f 3f 90 52 80 3f
       1.0018548 1.0093423 0.9970122 1.0025196
000390 ff cc 7f 3f cc da 7d 3f e6 a6 7f 3f 23 69 80 3f
       0.99922174 0.9916198 0.9986404 1.0032085
0003a0 9f b9 7f 3f c9 77 80 3f 7c db 80 3f 7f 86 7f 3f
       0.9989261 1.0036556 1.0066981 0.998146
0003b0 e0 4e 80 3f f5 de 7e 3f 49 73 80 3f 12 11 80 3f
       1.0024071 0.99558955 1.0035182 1.000521
0003c0 0d 27 80 3f fb fd 7f 3f 6a 36 80 3f f3 1a 7f 3f
       1.0011917 0.9999692 1.0016606 0.99650496
0003d0 ae c3 7c 3f f2 66 7e 3f 8b b6 80 3f 14 30 80 3f
       0.98736084 0.9937583 1.0055708 1.0014672
0003e0 73 64 7e 3f f4 9a 7f 3f 60 e4 7f 3f ca a3 7d 3f
       0.99372023 0.99845815 0.9995785 0.9907805
0003f0 ac 48 80 3f dc b5 81 3f 8a 08 80 3f 76 4f 7e 3f
       1.0022178 1.0133624 1.0002606 0.9934

bias f4 [640]
000000 77 d0 92 3b 0b 0f 97 3a 3a dc 2e bb 1f 64 83 bb
       0.0044804174 0.0011524869 -0.0026681558 -0.004009738
000010 e2 fe 80 3c ca 2c ee bb bc e7 3b 3c 99 cf 98 bb
       0.015746538 -0.007268523 0.011468824 -0.0046634194
000020 17 11 ea bb 4d 1a ed 39 fa a9 dc ba 07 f4 d7 bb
       -0.0071431505 0.00045223758 -0.0016835325 -0.0065903696
000030 f3 87 86 39 86 e2 bc 3b 39 40 78 3a 5f 10 a9 bb
       0.00025659762 0.0057643084 0.0009470019 -0.0051594223
000040 dc 8c c5 bb a8 bb db ba 72 b1 07 3b 01 de 01 bc
       -0.0060287546 -0.00167643 0.002070513 -0.007926465
000050 e5 a9 ff b9 c8 58 b1 bb 1e 5a 94 bb 4d 99 50 bb
       -0.0004876397 -0.005412195 -0.0045273444 -0.0031829656
000060 63 37 d4 3a 28 64 19 bc cd 48 33 3b fa 1c 9b bb
       0.0016190823 -0.009362258 0.0027356625 -0.004733679
000070 ba bc 42 3b 4c 79 32 3c 06 ab 18 3c 40 f4 e9 bb
       0.002971454 0.010893177 0.009318119 -0.0071397126
000080 a4 e4 65 bb 9b fb 61 3c cc 13 46 ba 6f 53 96 bb
       -0.0035078907 0.013792898 -0.00075560506 -0.004587583
000090 47 b1 20 bc 30 5b 21 3b 0d da da 3b 09 b3 85 bb
       -0.009807891 0.0024621002 0.0066788257 -0.0040801805
0000a0 0a a2 de bb 33 bd 9a 3a a9 cf 1c bc c2 50 23 3c
       -0.006794219 0.0011805653 -0.009570994 0.009967985
0000b0 27 e8 a0 3b cb 35 6b 3a 6d 8d b0 3b c0 51 d5 3b
       0.004910487 0.00089725544 0.005387953 0.0065099895
0000c0 8d a7 cb 3b 51 0f 7c 3b 91 1b 09 3c cc d8 9b ba
       0.006215042 0.0038461278 0.008368389 -0.0011890172
0000d0 e7 13 cd 3b ed ca 27 3c 9f 3f a6 3b e0 c4 59 3b
       0.006258476 0.010241252 0.005073502 0.003322892
0000e0 47 65 30 bb 1d f8 8a bb c2 36 11 ba 70 96 8b bb
       -0.0026915835 -0.004241003 -0.00055394706 -0.004259877
0000f0 5a dd 12 bc fb fb 7a bb 00 d6 ec 3b c1 95 22 3c
       -0.008963907 -0.0038297165 0.007227659 0.009923399
000100 d5 35 11 3c 15 d5 3c bb aa e6 2a 3a 68 45 81 3b
       0.008862932 -0.002881353 0.0006519357 0.0039450414
000110 0b aa b5 3b ae e4 24 3b 12 e9 73 bb 48 85 df 3b
       0.0055439523 0.0025160718 -0.0037217778 0.0068213083
000120 85 44 13 3c a5 22 e4 3a 41 15 4d 3c bf 42 e0 3b
       0.008988504 0.0017405344 0.012517274 0.0068438943
000130 bb bc e9 3a 90 0e 5f 3a 30 59 e4 3b 6d df 3f 3c
       0.0017832735 0.0008508945 0.00696864 0.011710984
000140 48 b3 43 bc a7 33 8c 3b df ee 4c bc 48 93 0f 3a
       -0.011944599 0.0042786184 -0.012508123 0.00054769637
000150 86 86 a8 39 06 c1 40 ba e0 18 f1 3b 94 ee 36 3b
       0.00032143685 -0.00073529815 0.0073577017 0.00279132
000160 e1 ee a6 3b 00 eb f5 b8 08 01 d5 ba e0 81 45 bc
       0.0050943946 -0.000117262825 -0.0016250918 -0.01205489
000170 ad 8b 7f 3b cd fd 4a bb 2f 78 3c bb f3 71 51 bb
       0.0038993165 -0.003097403 -0.0028758158 -0.0031958788
000180 27 c6 51 bb 10 5f 1d b9 7c 90 d3 3b b5 24 02 3c
       -0.0032008977 -0.000150081 0.006456433 0.007943322
000190 41 43 0d 3c fb a8 81 3b 71 30 fd 3b 91 34 67 bb
       0.008621992 0.0039569116 0.007726722 -0.0035279135
0001a0 b9 d1 fb bb 85 fc 29 b9 b2 60 8f bb 57 fe f2 38
       -0.007684913 -0.00016211167 -0.0043755407 0.00011586834
0001b0 ba 47 82 bb 0e 25 7d b9 a4 02 74 3a 8b 13 cc 3b
       -0.0039758356 -0.00024141764 0.0009308255 0.0062279156
0001c0 48 6a 2c 3c ff e0 d4 3b 4e 83 09 bb 28 4c 2c bc
       0.010523386 0.006496548 -0.0020982805 -0.010516204
0001d0 f0 70 fa bb 20 2e f9 b8 6e 9a e3 3a a0 d4 0e ba
       -0.0076428577 -0.00011881837 0.0017364749 -0.0005448554
0001e0 e0 18 fc 3b 94 44 43 bb 44 b7 83 b9 6f 1d 77 3b
       0.007693395 -0.0029795514 -0.0002512281 0.0037706753
0001f0 07 a4 ef bb 49 06 d2 3b 9e d3 1c bb 1b 85 60 3b
       -0.0073132548 0.0064094407 -0.0023929845 0.0034259025
000200 e5 d4 0b bc 44 d2 5e bb 29 11 0e 3c 5a 1b fc 3b
       -0.008534645 -0.003399984 0.0086710835 0.0076936902
000210 db 37 0b 3c eb 4e bc bb 20 f4 b3 3b 9b 4b d4 bb
       0.008497204 -0.0057467124 0.0054917485 -0.0064787394
000220 2b a1 8c bb 2e 2b 9b ba 87 17 55 ba a6 bb b2 39
       -0.0042916737 -0.001183843 -0.0008128811 0.00034090615
000230 d7 fd ae ba 99 dd db 3b 01 67 49 bc 6b 6a 4b 3c
       -0.0013350797 0.006709766 -0.012292624 0.012415509
000240 8c f0 0a 3b 0d cc 78 3a 1e 66 8a 3b 41 0c 83 bb
       0.0021200506 0.0009490855 0.004223599 -0.0039992635
000250 cc 09 48 3c 90 b0 7f 3b 62 80 ee 37 fc 88 04 3b
       0.012209367 0.0039015152 2.8431594e-05 0.002022325
000260 a8 cc 48 38 29 98 5a 3c af 76 9d b9 49 0b 12 3c
       4.7874317e-05 0.013341942 -0.000300338 0.008913823
000270 75 b2 0f bb c6 91 50 ba 90 a0 35 3c a8 04 57 b7
       -0.0021926437 -0.0007956292 0.011085644 -1.2816083e-05
000280 7d 17 71 3b dd 23 f7 bb 10 72 3d 3b 2c 4a 62 bb
       0.0036787682 -0.007542117 0.0028907098 -0.0034529073
000290 72 b8 10 bb 84 f7 ee 3b 70 3d 52 bb 7d da fd 3b
       -0.0022082594 0.0072926898 -0.0032080077 0.007746993
0002a0 bf 1f 2a bb a9 bc 80 bb 49 b2 47 bc fe b4 75 bb
       -0.0025958864 -0.00392874 -0.012188503 -0.0037491913
0002b0 2c 90 b0 3a 9a 6d 56 ba d6 ce b0 bb 18 4e 32 bb
       0.0013470701 -0.0008179784 -0.0053957505 -0.0027207192
0002c0 e9 59 db 3b c9 d5 2c 3a 60 00 7c ba b4 9a 7e ba
       0.0066940677 0.0006593136 -0.0009613093 -0.00097123836
0002d0 8b 00 64 3c a0 f7 2a bc 22 20 60 3b ff 9e 14 bc
       0.013916145 -0.010435015 0.003419884 -0.009071111
0002e0 e9 cf b3 3a 62 a7 44 3c 8d f3 a4 3b 68 0c f8 3b
       0.0013718578 0.012002798 0.0050339163 0.0075698383
0002f0 7a c3 59 bb 41 57 4d bc ed 34 e1 bb 73 61 d0 bb
       -0.0033228085 -0.01253301 -0.0068727643 -0.006359273
000300 d2 65 ac 3b 58 5b 5e bb 8b c9 6e bb 7b ea 1d bc
       0.0052611614 -0.0033928957 -0.0036436047 -0.009638424
000310 f6 ec f3 3a c0 0e 07 3b b6 60 e7 ba 86 62 2f b9
       0.0018610049 0.0020608157 -0.0017652723 -0.00016726003
000320 c3 62 39 3c ac 37 f9 3b 74 82 35 bc 14 9a 05 bb
       0.011315051 0.0076055136 -0.011078466 -0.0020386027
000330 a9 21 0b 3c 3c 13 30 3c e7 be 61 3c d0 6a 7b 3a
       0.008491912 0.010746773 0.013778425 0.00095908064
000340 51 48 08 bb 8a 58 f4 ba fb 6e ee bb ef 2d d5 3a
       -0.0020795057 -0.0018642109 -0.0072764135 0.00162643
000350 f8 03 09 3b 04 2f be bb 0b 3d be 3b e1 fc 12 bb
       0.0020906907 -0.0058039445 0.0058056167 -0.002242856
000360 f1 1c 42 bc 75 a8 e8 3b 82 f8 a2 bb 46 5e 89 3b
       -0.0118477205 0.00710016 -0.004973472 0.0041921465
000370 17 0e 82 3b c5 bb 3b 3b 73 44 8a 3b 7e 72 1c 3c
       0.003968965 0.0028645855 0.0042195856 0.009548781
000380 58 96 e0 bb 68 d2 78 bb 15 b3 44 bc 06 85 18 3c
       -0.00685386 -0.0037967209 -0.012005587 0.009309059
000390 94 d7 b8 3a 12 52 1e 3c b4 71 ff 3a 74 70 1d bc
       0.0014102333 0.009663122 0.0019488842 -0.00960933
0003a0 8a ec d7 3a 3a 97 54 bb 55 ed 43 3b 21 04 c2 b9
       0.0016473692 -0.003243877 0.00298961 -0.0003700564
0003b0 27 98 41 bb b3 ca 63 bb a9 3a bf 3a 8a 1a 08 ba
       -0.0029540153 -0.003475827 0.0014589626 -0.0005191943
0003c0 be 81 c5 ba 6c 74 07 3c cd e4 cb 39 e1 72 f2 3a
       -0.0015068573 0.008267503 0.00038889647 0.0018497371
0003d0 2d 4d 40 3c bb 48 e4 ba 30 c2 f9 ba a9 a2 bb bb
       0.01173715 -0.0017416695 -0.0019055065 -0.0057261777
0003e0 84 b9 4a 3b 2e d1 fd 3a 02 2d b4 3a da 98 13 bc
       0.003093333 0.0019364709 0.0013746324 -0.009008611
0003f0 7c 16 56 ba b6 25 58 3c 7f 7b 78 ba 36 1a 9d bb
       -0.00081668026 0.013192585 -0.00094788516 -0.0047943844

weight_ih_l0 f4 [512, 32]
000000 12 58 8d 3d ca 2e 58 3d 0b 0e 38 bd dd a6 4e bd
       0.06901564 0.052778997 -0.044935267 -0.050452102
000010 0d a0 7b 3d cf 45 5e 3d 96 88 5a bc 0c e7 b1 bd
       0.061431933 0.054265793 -0.013338229 -0.08686647
000020 4c 82 99 bc 40 c5 53 3d 8b f5 16 bd 40 03 b3 3d
       -0.018738888 0.051701784 -0.03685526 0.08740854
000030 3a a4 a8 bd c3 72 dd bc ed 5e 24 3c 07 59 14 3d
       -0.08234449 -0.027032262 0.010032398 0.036217716
000040 d5 e6 0c 3d 61 e2 7f bd 72 a7 be bb e0 c8 00 3d
       0.034399826 -0.06247175 -0.005818301 0.03144157
000050 73 29 42 3b 8d ca 36 3d 34 b8 45 3d aa 80 93 3d
       0.0029626756 0.04462676 0.048271373 0.07202275
000060 68 aa 2a 3d 67 2d 94 bd 0b 9d a3 3d 80 21 7a bd
       0.04166642 -0.07235222 0.07988938 -0.061067104
000070 43 65 21 3d 38 53 9a bd d5 c9 29 bd ed 59 74 3d
       0.03940321 -0.07535404 -0.041452248 0.059656072
000080 c7 56 c1 bc 88 41 f3 3c e8 93 0a 3d 8f 9a 39 3d
       -0.023600949 0.029694334 0.03383246 0.045313414
000090 1b 04 3f bc e1 a9 2e bb 87 51 40 3c a0 7a 5d bd
       -0.011658694 -0.0026651549 0.011738188 -0.054072022
0000a0 58 7a e5 bc 67 d1 4e bd 4b 28 5e 3d aa fe ae bb
       -0.02801244 -0.05049267 0.054237645 -0.005340417
0000b0 78 a9 bb bc 5b 81 50 bd 23 84 a0 3d 04 a2 a8 3c
       -0.022907957 -0.050904613 0.07837703 0.020585068
0000c0 70 2e aa bd 4e f3 92 3c f3 33 54 bd 95 86 3f 3d
       -0.083096385 0.017938282 -0.051807355 0.046759207
0000d0 15 ab 79 bb bd f3 99 3b 15 4f 7d bd 11 4a 3f bd
       -0.0038096358 0.0046982453 -0.061842997 -0.046701495
0000e0 25 89 6f bc 45 d1 f3 bc 5a 5a 86 3d 27 c7 b5 bd
       -0.0146201 -0.029762873 0.06560202 -0.08875876
0000f0 00 f5 cc bc 09 d5 32 3b 99 e1 7c bd 58 72 91 3d
       -0.025019169 0.0027287623 -0.061738584 0.071018875
000100 11 96 7b 3d 6c a0 9b 3d 7d 25 e8 3c 3d 2c 61 bd
       0.06142241 0.075989574 0.028338188 -0.05497383
000110 81 37 c2 bd 0e 85 9b bd 2f 07 31 3d 62 d8 ba 3c
       -0.09483243 -0.075937375 0.04321974 0.022808257
000120 90 19 43 3c bf 75 a5 bb 0e 8e e7 bc d5 8c fd ba
       0.01190795 -0.005049437 -0.02826598 -0.0019344339
000130 81 dc 8b 3d 15 29 cf 3c ed 78 1b 3d 96 0b 35 3d
       0.06829167 0.025288144 0.03795712 0.044200502
000140 02 b8 26 3c 51 6d 9e 3d a5 eb 27 bd 96 13 3a bd
       0.010175707 0.07735694 -0.040996213 -0.045428835
000150 e9 ca bd bc df 45 23 bb 81 40 c4 bc 93 44 8d 3d
       -0.023168044 -0.0024913473 -0.02395654 0.06897845
000160 a6 9c 1c bc 66 86 66 3d 96 5d f7 bc 02 9f 40 bd
       -0.009558832 0.056280516 -0.030195992 -0.04702664
000170 d6 56 df 3c d6 6d 3f 3d e0 55 0f 3d 5f 6b a6 3a
       0.027263086 0.046735607 0.034994006 0.0012696794
000180 4d 38 55 3d 67 b1 1a bc 37 a6 5f bd 80 d9 6e 3d
       0.052055646 -0.00944171 -0.054601874 0.058312893
000190 32 3f a5 bc 54 ed 59 3d a4 4d eb 3b 25 1f 52 3d
       -0.020171735 0.05320485 0.0071808863 0.051299233
0001a0 64 c1 ae bc e3 9c 0f bd 71 cd 86 bb d5 4c 35 bd
       -0.02133245 -0.03506173 -0.004113846 -0.044262726
0001b0 1e 3f 0b bd 3a 41 60 bc 49 f7 6b 3d 6c ac 8f bd
       -0.03399574 -0.013687426 0.057608876 -0.07015309
0001c0 53 22 33 bc 8c 41 ab 3c 65 93 cc 3d 45 34 88 3d
       -0.0109334765 0.020905279 0.09989051 0.066505946
0001d0 05 bb 6f bd c1 eb f7 3c dc ca 0a bd ea 3a 27 bd
       -0.058527965 0.030263783 -0.033884868 -0.04082767
0001e0 a8 b8 ac bd 71 60 c3 3c d9 13 3e bc 15 a2 4f ba
       -0.08433658 0.023849698 -0.011601412 -0.00079205754
0001f0 4d d6 68 bc 26 f0 18 bb 23 5f 77 bd aa 10 47 3d
       -0.01421125 -0.00233365 -0.060393464 0.048599876
000200 53 52 8b bc 05 8c 7e 3d 8b 73 96 3d ec 38 a0 3d
       -0.017007029 0.06214525 0.07346257 0.07823357
000210 47 90 83 bd bd 01 a7 bc 1c bf 47 bd 91 f4 43 3c
       -0.06424003 -0.020386571 -0.04876624 0.011960165
000220 a8 9a 89 bd 74 0e 3f bd 03 63 01 3d 40 4e 2c bd
       -0.067189515 -0.046644643 0.031588566 -0.042066813
000230 39 5a 92 3c 32 be 30 bb b0 95 03 3d 20 ef 49 3c
       0.017865287 -0.0026968834 0.032125175 0.012325078
000240 41 c2 94 bd 6f 1d 88 bb 01 0a 4a bd 6e 33 95 3d
       -0.072636135 -0.0041538994 -0.049325947 0.072852
000250 ea 7e ae bd 37 6a a6 bd 8c 63 b4 bc 36 ea 5b bd
       -0.08520301 -0.081257276 -0.022020124 -0.053690158
000260 5f b9 dd bc ae e5 87 bd 0a fa a9 3c 58 98 c0 bd
       -0.02706593 -0.06635605 0.02074911 -0.09404057
000270 5f 3d 39 bd c8 37 2c bd 84 15 24 bd 79 33 7a 3d
       -0.045224544 -0.042045385 -0.04005958 0.061084244
000280 a2 15 88 3c 2f 32 a5 bd 15 ee 8c 3d 7d 7a 08 bc
       0.016611878 -0.080662124 0.06881348 -0.008329985
000290 77 8a 92 bd c5 24 90 3d 55 2f fa 3c 0b 77 a2 3c
       -0.07155316 0.07038263 0.030540148 0.019832155
0002a0 c9 cd 12 3d ba f0 d9 bc 5c bb 9e bd 69 ab 09 bc
       0.035840783 -0.026604045 -0.0775058 -0.008402684
0002b0 ee 59 b1 3d 52 4e 2f bd a1 8a 10 bb 8d 5d 66 bc
       0.08659731 -0.0427993 -0.0022055286 -0.01406039
0002c0 12 5f 57 bd fe 86 07 bd 6b d5 22 3b 62 99 3e 3d
       -0.0525809 -0.033087723 0.0024846445 0.046532996
0002d0 86 1b 8f 3d 88 e7 61 3d 53 a2 42 3c 82 88 77 bd
       0.069876716 0.055152446 0.011879521 -0.06043292
0002e0 d0 0b b3 3d ec 65 72 3d d0 cf fd 3c 1a 1b 89 3d
       0.087424874 0.05917923 0.030982882 0.06694622
0002f0 90 82 a3 bd 30 a2 39 bc ca fc 82 bd a5 05 02 3d
       -0.07983887 -0.011330172 -0.06395872 0.031743664
000300 66 1e 6b 3d 64 6c 80 bd 88 66 b3 bc 56 21 68 3d
       0.057402037 -0.06270674 -0.021899477 0.056672417
000310 2f 1f b3 bc 20 41 02 bc 2e 8b c2 bc 47 01 d6 3a
       -0.021865455 -0.007950097 -0.023748007 0.0016327285
000320 95 63 fd bb 0d 2f 0b bd 09 52 50 bd ef 60 a6 bc
       -0.0077328184 -0.033980418 -0.050859485 -0.020309893
000330 c8 41 93 bc 11 a1 4c bb c9 78 24 ba f8 52 95 3d
       -0.017975703 -0.0031223933 -0.0006274102 0.07291216
000340 f6 89 23 3d e8 ca 40 3d c1 f8 95 3d 3a 56 b3 bd
       0.03992649 0.047068506 0.07322837 -0.08756681
000350 45 b3 8c bd 77 83 b1 bd c4 d0 9c 3d c9 59 ae bd
       -0.068701304 -0.08667653 0.076570064 -0.08513219
000360 73 62 7d bd e3 33 ac 3d 4e d0 77 bb 44 a1 fd bc
       -0.061861467 0.08408334 -0.0037813368 -0.030960687
000370 10 39 ad bd 07 d6 38 3d 1b ba 26 bb c7 64 a5 bd
       -0.084581494 0.045125987 -0.0025440517 -0.080758624
000380 de 7d 0d bd 32 50 a7 3d 42 95 6b 3b f1 03 37 3d
       -0.034543864 0.08169593 0.003594712 0.044681493
000390 7f c7 7f bd e9 68 96 3d 20 b7 82 bd 5b 6f 8c 3d
       -0.062446114 0.07344229 -0.063825846 0.06857177
0003a0 4a 6d 55 3d e3 cd 7a bd 9a 45 1f bc 55 ef 08 3d
       0.05210618 -0.061231505 -0.009721184 0.03343137
0003b0 4b 51 30 3c f6 80 d0 bc 62 0f 78 3d d0 71 47 bd
       0.010761569 -0.025452118 0.060561545 -0.048692524
0003c0 40 75 40 bb 7a 14 ee bb 9e 12 a8 3d fb 7c e0 3c
       -0.0029366761 -0.0072656246 0.08206676 0.027403345
0003d0 fd 02 a0 3c b8 d7 34 bd de 13 94 bd ea 23 0d bc
       0.019532675 -0.044151038 -0.07230352 -0.00861452
0003e0 1d 2f a4 3d ff 15 0c bd a9 21 2c bd 38 f5 9a 3d
       0.08016799 -0.034200665 -0.04202429 0.07566303
0003f0 62 93 c6 3d 73 13 b1 3d 18 04 7d 3d ef 05 a1 3c
       0.0969608 0.08646288 0.061771482 0.01965615

weight_hh_l0 f4 [512, 128]
000000 42 c4 3f bd 99 39 29 bd 36 2e f8 3c 22 a3 b5 3c
       -0.046818025 -0.041314695 0.030295473 0.022172514
000010 b7 41 10 bc 99 96 9f 3d 66 0c 9d 3d b8 20 6f bc
       -0.00880473 0.07792396 0.076683804 -0.014595203
000020 99 e9 1e bd 5f bb 66 3d 72 a2 1f 3d 5c b5 e4 bc
       -0.038796995 0.056331035 0.03897328 -0.02791851
000030 f6 49 ac 3d dd 3a 61 bd 7a c1 f4 3b f7 c5 0b 3d
       0.084125444 -0.054987777 0.0074693533 0.03412434
000040 e6 57 54 bd be 09 db 3c 18 fc 0b 3d 40 19 9e bd
       -0.05184164 0.026738044 0.034175962 -0.0771966
000050 bd 8b 2f bd fb bb 03 3d 78 5d e5 3a e5 e7 ef bc
       -0.042857874 0.032161694 0.0017499169 -0.02928538
000060 e6 56 ec bc 35 78 2a bd 34 a2 94 bd ba 1f fe 3c
       -0.02885003 -0.041618545 -0.072575 0.031020988
000070 6a 19 80 3d a0 de 76 3c 65 36 0a bd 8b 96 5f 3c
       0.06254847 0.015067726 -0.03374328 0.013646732
000080 8d 96 e2 3c e0 16 27 bd eb ea 44 bc db e5 8c bd
       0.027659679 -0.0407933 -0.012018899 -0.06879779
000090 b5 e9 a8 3d 7f 85 3e bc e7 2f 80 bd 75 2f a3 3d
       0.08247701 -0.011628508 -0.06259137 0.07968036
0000a0 42 b4 1e bd 33 c7 b0 bd dd f1 54 bc cf d0 4c bd
       -0.038746126 -0.08631744 -0.012997118 -0.050003823
0000b0 f3 a9 05 3c e9 43 a9 bc af 26 88 bd 0e a2 4c 3d
       0.008158195 -0.020662265 -0.06648003 0.049959235
0000c0 20 d4 91 3d ed 32 12 3d 92 16 0b bd d8 1a 9d bd
       0.07120538 0.035693098 -0.03395707 -0.07671136
0000d0 65 06 83 bc b1 f2 46 bd a3 69 7e bd a1 2e 59 3d
       -0.01599426 -0.048571292 -0.06211246 0.053022984
0000e0 f4 68 1b bc bb f6 8c 3d 83 4d 85 ba 9d b7 2d bd
       -0.009485472 0.068829976 -0.0010170195 -0.042411435
0000f0 92 15 c8 bc c5 47 a1 bd 13 27 85 3d 7f 6f a6 3d
       -0.024424348 -0.07875017 0.065015934 0.08126735
000100 25 0d 43 3d c5 e0 d9 3c 7d da 8d bd 42 ed 7b bd
       0.047619957 0.026596436 -0.06926439 -0.061505564
000110 37 61 10 3d 2e da 84 bc 3c 58 8d 3d ef 59 92 bd
       0.03524896 -0.016217317 0.06901595 -0.0714606
000120 e5 04 af bd 36 67 00 3d e7 e5 15 3d c0 a3 10 bd
       -0.085458554 0.03134843 0.036596205 -0.035312414
000130 61 1d 91 3d b6 5e 81 3d c1 4d 74 3d 09 f3 de bc
       0.07085682 0.06316893 0.059644464 -0.027215498
000140 8b 92 98 3c 4e b6 70 bd 66 f8 76 3d dd d0 78 bd
       0.018624565 -0.05876761 0.060295485 -0.060746063
000150 38 1e 70 bd 29 e4 82 3d 7f a7 6e 3d 18 48 9b 3d
       -0.05862257 0.06391174 0.058265205 0.0758211
000160 1c 17 5b bd 03 6b 17 3d 3d 6e 48 bd 05 dd 3c bd
       -0.053488836 0.03696729 -0.048933256 -0.04610922
000170 f1 f1 6c bb f1 f8 94 bd b8 12 9b 3d 9a 84 07 bc
       -0.003615495 -0.07274044 0.0757193 -0.008271361
000180 8f 7b be bc ef 0b 9e 3c ce 56 32 b9 9c f9 0b 3d
       -0.023252277 0.0192928 -0.0001700774 0.034173593
000190 d8 d0 90 bd 7d 7d ad 3d b0 15 3d bd a1 fc 01 bc
       -0.07071084 0.084712006 -0.04616326 -0.007933767
0001a0 45 a8 33 3c 2b 7d a3 bd 5f d8 a0 bd f1 8f 45 3d
       0.010965412 -0.07982858 -0.078537695 0.048232976
0001b0 fb ba c0 bd 58 3d b7 3d b3 48 b3 bc 9e f4 65 bd
       -0.09410664 0.08947247 -0.021885252 -0.05614149
0001c0 16 4f 65 3b a1 d2 07 3d 2d 65 2d bd 71 6c 4e 3d
       0.0034989766 0.033159856 -0.042332817 0.050396387
0001d0 04 fe 4d bd 78 db 66 3d 49 f0 1b bd 85 bf 0f 3d
       -0.050291076 0.056361645 -0.03807095 0.035094757
0001e0 04 8a 5c 3d 90 a8 77 bd 96 32 32 3d 1e 9d 9d bc
       0.05384256 -0.060463488 0.043505274 -0.019239958
0001f0 28 7b e0 3b 62 24 25 3d 9a f3 ae bd af 23 9e 3d
       0.006850619 0.0403179 -0.08542557 0.0772165
000200 a0 12 5b bd bb 2d 88 3c cd 63 09 3d 0e 70 39 3c
       -0.05348456 0.016623368 0.033542443 0.01131822
000210 13 5f 29 3d 45 ab a8 bd d9 f4 8c 3d 65 60 5c 3d
       0.041350435 -0.08235792 0.068826385 0.053802866
000220 83 b5 32 3c ae 0c 69 3d b7 40 5c 3d b2 be 4a 3d
       0.010907534 0.056896858 0.053772654 0.049498267
000230 2f 0b 86 bc bf 3c 47 bc 4b 57 80 bd 44 ac 92 bd
       -0.016362755 -0.012160479 -0.0626665 -0.07161763
000240 4c 06 a4 bd ff e6 01 bd fc b2 99 3d 71 be 78 bd
       -0.080090135 -0.031714436 0.07504842 -0.060728494
000250 70 fd ad 3d 6e b3 25 3d e1 0b 93 bd 09 d8 dc 3b
       0.08495605 0.04045432 -0.0718 0.0067396206
000260 d9 cc 35 bd 11 60 35 bd 4a 95 2e 3d 5f 35 1b bc
       -0.04438481 -0.04428107 0.042622842 -0.009473174
000270 f1 d0 88 bd 32 d8 66 3d c8 72 1f bb 6a f7 ab bd
       -0.066804774 0.056358524 -0.002432989 -0.083968
000280 39 10 86 3d d2 86 92 bd d7 d9 80 bd d8 14 f7 bc
       0.06546063 -0.07154621 -0.0629155 -0.030161306
000290 33 d2 84 3d e7 d3 11 bc c7 44 43 3d a0 71 53 bd
       0.06485405 -0.008900619 0.047673013 -0.051622033
0002a0 f2 7f a7 bd 27 ba 80 3d a8 08 5f 3d 10 ad 31 bb
       -0.081787005 0.06285506 0.054451615 -0.002711121
0002b0 fc 94 f0 3c aa 3f f5 3c ad 2a a4 bd 94 f7 c7 3c
       0.029367916 0.029937584 -0.08015952 0.024410047
0002c0 63 f7 ac 3d ff 79 14 3b ac bc 9e bd 65 e9 a2 ba
       0.08445623 0.0022655723 -0.0775083 -0.0012429176
0002d0 0b e5 56 3d d4 4b 1f bd 21 86 a2 3d f3 9b 57 bc
       0.052464526 -0.038890675 0.07935739 -0.01315974
0002e0 66 3a cb 3c 9c 9e 28 bd f2 b2 53 3d 00 09 07 bc
       0.02480812 -0.041166887 0.051684327 -0.008241892
0002f0 71 cc 89 bd 49 d3 4b bd de 75 8a bd ef 53 0c bd
       -0.06728447 -0.049762044 -0.06760763 -0.034259733
000300 ff bf 67 3c bf 84 c3 3c d3 ba 1a 3d 28 ea 88 bd
       0.0141448965 0.02386701 0.037775826 -0.06685287
000310 3c 39 4b 3d 11 1c a2 bd 7c fa c1 bc d7 6c 8b 3d
       0.04961513 -0.079155095 -0.02367901 0.06807869
000320 35 2e 96 3c bf cb 1d bd 79 20 46 3b a5 92 d2 ba
       0.01833258 -0.038524386 0.0030231758 -0.0016065432
000330 2f c5 91 bd bd 49 a9 3d 0f a6 9a bd df 4d c2 bd
       -0.07117688 0.082660176 -0.075512044 -0.09487509
000340 d3 f5 20 3d 1d 5f c2 bc 8a 55 6b 3d a4 c0 b0 3d
       0.039296936 -0.023726994 0.057454623 0.08630493
000350 f1 76 84 bd 13 72 4e bd c1 de 91 3c 66 96 e7 bc
       -0.06467999 -0.05040176 0.017806413 -0.028269958
000360 c8 07 59 3d 5b 36 de 3b 76 0f 94 3d 91 fb d1 bb
       0.052985936 0.006781382 0.072295114 -0.006408163
000370 0e 73 52 3d cf b8 a0 bd b9 95 85 3d ba 63 87 bd
       0.051379256 -0.078477494 0.06522698 -0.06610818
000380 52 00 24 3d 8b 64 54 bd b9 ac 89 bd 5c 7d 23 bd
       0.040039368 -0.051853698 -0.06722397 -0.039914474
000390 28 3a 78 3d 5b 84 6c 3d b0 b7 a0 3c 28 13 a6 bd
       0.060602337 0.05774341 0.019618839 -0.081091225
0003a0 fd ac 31 3d 05 ab 02 3d f9 17 85 bd ac 46 db bb
       0.043377865 0.03190138 -0.06498713 -0.0066917744
0003b0 8d 6c b7 bb d3 15 5b 3c 15 80 36 3d 3d 92 09 3d
       -0.005597657 0.0133719025 0.044555742 0.03358673
0003c0 87 e4 9d bd 2c 95 ed bc e0 b2 88 bd a5 03 1a bd
       -0.07709604 -0.029001795 -0.06674743 -0.037601132
0003d0 5f 79 2e bd e2 87 86 bb ef bf 10 bd 5f 60 ee bc
       -0.042596217 -0.004105554 -0.035339292 -0.029098688
0003e0 ac 9a 19 3d 63 a8 ec bc 4e 14 17 3d 35 3a 21 bd
       0.037501022 -0.028888887 0.0368846 -0.03936215
0003f0 85 97 10 bc 44 73 87 3d bc 62 4b bd bf 40 73 bc
       -0.008825188 0.06613782 -0.049654707 -0.01484698
