Single Battery Model/5. CNN-LSTM Models/model_B0007_charge_rob.pth (torch, 432722 bytes, 15 tensors)

weight f4 [64, 3, 3]
0.29232457 -0.12532291 -0.13027382 -0.085224755 -0.10882073 -0.31936732 -0.24670497 0.18617116
0.20191728 0.31622076 0.09797548 -0.24938911 -0.011720984 -0.28513536 -0.25866735 -0.0044944654
0.24861006 0.23462966 0.0978609 -0.06268575 -0.014231148 0.005064556 0.1793515 -0.022292076
-0.05243331 0.18985406 0.18618353 -0.04559639 0.08553584 0.079926185 0.20364477 0.079202324
-0.14208992 -0.32698905 -0.19437206 0.2335303 0.31612572 0.27010462 -0.3256116 -0.2700107
-0.20863041 0.027968263 -0.12266665 -0.11417199 0.14530934 0.18474105 0.002427916 0.055806167
0.33204356 0.1683752 0.19640076 -0.21536314 0.09616338 0.1697652 -0.1430741 0.030127162
-0.14178163 0.096192084 0.32694387 0.33346987 0.17108819 0.0024580716 -0.026409728 0.16242668
-0.09928574 0.12569268 0.053074475 0.0039400216 0.01859938 0.18961619 0.105387345 0.059959926
-0.16273557 -0.12776679 0.009093758 -0.24267635 0.26730195 0.081328586 -0.29020777 -0.26372546
-0.15323012 -0.1078689 0.24774404 0.32088283 -0.08198362 0.1320979 -0.25050494 0.22815333
0.20621029 0.08206926 0.17081243 -0.21279581 0.2062028 -0.2964398 -0.31867355 -0.23930424
-0.0950747 0.28178507 0.06564699 0.17450103 -0.2732076 -0.003982618 -0.11771198 0.1015724
0.28616866 0.1656809 -0.32161596 0.28615698 0.08019458 -0.078092374 -0.09245114 0.3171274
-0.15709083 -0.3180354 0.20040913 0.08325622 -0.03815409 0.09721626 -0.1870989 -0.2070808
-0.113023944 0.30094454 -0.1615845 -0.09919978 -0.04372365 0.14909042 0.13203149 -0.25984177
0.10986844 0.33502254 0.171866 0.08292827 -0.32876998 -0.33219394 0.031697556 0.13299851
-0.0009108189 -0.23372571 0.15766461 0.31289244 0.10356043 0.041042257 0.30104205 -0.25269797
0.1872983 -0.13321202 -0.07415695 -0.04807191 0.02410229 0.21461459 -0.33955443 -0.06459478
0.27559444 -0.0063300617 -0.16048485 0.16268153 -0.28705353 -0.08781941 -0.069573775 0.25433055
-0.17767358 0.0007294331 -0.3314699 -0.28983358 0.29695666 0.11286083 -0.21434048 -0.26479116
-0.12048366 0.22511795 0.2504857 -0.1499047 -0.036522962 0.13991275 0.17132272 0.10998335
-0.1991811 -0.046950895 0.049137883 0.089059316 0.31060365 -0.006541595 0.22413594 0.13595134
0.0057583298 0.23007967 -0.011819021 0.28677678 -0.14662306 -0.23488437 -0.0945687 -0.033865053
0.032480687 0.20482212 -0.0139162885 -0.1560203 0.03768142 0.3175852 -0.31398204 -0.2262152
0.2640341 0.12834285 0.16485244 0.27977666 -0.33449602 -0.124781586 -0.24057193 0.18775798
0.13639103 -0.15743907 -0.15154514 0.19061784 -0.21156329 0.176204 0.13521338 -0.15751444
0.29370525 0.20019838 0.32188946 -0.2171433 0.09240901 0.1330956 -0.2715366 0.291463
0.08868198 0.08132082 0.17113079 -0.18202399 -0.09895233 -0.23414287 -0.15647334 -0.1538209
-0.02974285 -0.04778094 0.27076024 0.25469857 -0.08770011 -0.11668063 0.12048691 0.19200453
-0.04799171 0.28202227 -0.14724262 -0.07822565 -0.13661112 -0.21341613 0.13310637 0.26649332
-0.1367312 -0.27336833 0.036369447 0.29493877 -0.11126775 0.100488424 -0.24428068 0.05922813
00000000: 91ab 953e a654 00be 8066 05be 518a aebd
00000010: 67dd debd 1d84 a3be 3aa0 7cbe a7a3 3e3e
00000020: 67c3 4e3e b0e7 a13e 5ea7 c83d dc5f 7fbe
00000030: 5f09 40bc 43fd 91be 0c70 84be 4f46 93bb
00000040: a393 7e3e c242 703e 4c6b c83d 6361 80bd
00000050: c329 69bc 93f4 a53b eba7 373e df9d b6bc
00000060: 4fc4 56bd 1a69 423e e5a6 3e3e 48c3 3abd
00000070: 6a2d af3d 57b0 a33d 4188 503e d434 a23d
00000080: 0580 11be 1c6b a7be 7809 47be 9122 6f3e
00000090: 3bdb a13e 274b 8a3e 90b6 a6be d83e 8abe
000000a0: 36a3 55be b31d e53c a738 fbbd 01d3 e9bd
000000b0: f9cb 143e c22c 3d3e ac1d 1f3b 0295 643d
000000c0: 9d01 aa3e 8c6a 2c3e 481d 493e 2888 5cbe
000000d0: 4ef1 c43d eed6 2d3e 0482 12be 3dcd f63c
000000e0: 342f 11be 5b00 c53d 3065 a73e 90bc aa3e
000000f0: be31 2f3e 9917 213b 3759 d8bc 2e53 263e
00000100: 5256 cbbd 95b5 003e 9f64 593d 4c1b 813b
00000110: ba5d 983c bf2a 423e 52d5 d73d 8a98 753d
00000120: 27a4 26be 4cd5 02be fcfd 143c 2680 78be
00000130: cddb 883e 9a8f a63d 1d96 94be 0607 87be
00000140: 5be8 1cbe 5fea dcbd 9db0 7d3e c14a a43e
00000150: 07e7 a7bd ac44 073e 2f42 80be 07a1 693e
00000160: ca28 533e ee13 a83d 74e9 2e3e 25e7 59be
00000170: d426 533e f5c6 97be 2e29 a3be 2c0c 75be
00000180: 86b6 c2bd 2246 903e ee71 863d 66b0 323e
00000190: dee1 8bbe 9f80 82bb fb12 f1bd 3105 d03d
000001a0: b384 923e 41a8 293e d9aa a4be 2b83 923e
000001b0: 0e3d a43d e5ee 9fbd 0657 bdbd 865e a23e
000001c0: 6bdc 20be 89d5 a2be 0d38 4d3e 3d82 aa3d
000001d0: 7747 1cbd 5219 c73d db96 3fbe fd0c 54be
000001e0: 1979 e7bd 6715 9a3e 6876 25be 4129 cbbd
000001f0: 9217 33bd 29ab 183e 4333 073e fb09 85be
00000200: b402 e13d 1388 ab3e a4fd 2f3e 4cd6 a93d
00000210: 8a54 a8be 5315 aabe 4cd5 013d c330 083e
00000220: 06c4 6eba cb55 6fbe d572 213e 7033 a03e
00000230: 7e17 d43d ed1b 283d 2f22 9a3e a161 81be
00000240: 20cb 3f3e bb68 08be 99df 97bd 0de7 44bd
00000250: 2a72 c53c edc3 5b3e 14da adbe 454a 84bd
00000260: b71a 8d3e 686c cfbb 2456 24be fd95 263e
00000270: aef8 92be aada b3bd b27c 8ebd 9d37 823e
00000280: 10f0 35be 6d37 3f3a 6cb6 a9be 1165 94be
00000290: b40a 983e 9423 e73d 127c 5bbe b592 87be
000002a0: 23c0 f6bd 5285 663e a93f 803e 9e80 19be
000002b0: 1a99 15bd 4a45 0f3e 396f 2f3e f33e e13d
000002c0: 21f6 4bbe 954f 40bd ce44 493d bb64 b63d
000002d0: 7107 9f3e e05a d6bb e483 653e d436 0b3e
000002e0: 5fb0 bc3b 019a 6b3e 91a4 41bc 68d4 923e
000002f0: 5b24 16be 8785 70be 3cad c1bd 15b6 0abd
00000300: 780a 053d e4bc 513e 2501 64bc c9c3 1fbe
00000310: d557 1a3d 879a a23e 41c2 a0be f5a4 67be
00000320: 7a2f 873e 4f6c 033e 14cf 283e e33e 8f3e
00000330: 1043 abbe 7d8d ffbd 7d58 76be a143 403e
00000340: 17aa 0b3e b537 21be a62e 1bbe 5331 433e
00000350: 0ca4 58be d26e 343e 6075 0a3e 774b 21be
00000360: 8960 963e ce00 4d3e b2ce a43e d05a 5ebe
00000370: ef40 bd3d 374a 083e d806 8bbe a33a 953e
00000380: e69e b53d 888b a63d e93c 2f3e 7f64 3abe
00000390: 85a7 cabd 26c3 6fbe 8c3a 20be 3a83 1dbe
000003a0: 47a7 f3bc f2b5 43bd 16a1 8a3e da67 823e
000003b0: 1e9c b3bd 41f6 eebd d7c1 f63d d69c 443e
000003c0: f592 44bd 3965 903e c5c6 16be c534 a0bd
000003d0: c9e3 0bbe c289 5abe 094d 083e d071 883e
000003e0: 4403 0cbe eff6 8bbe 21f8 143d 3702 973e
000003f0: 59e0 e3bd e0cc cd3d b724 7abe 3299 723d

bias f4 [64]
0.2564438 0.31294122 0.309878 0.25670683 -0.10154134 -0.08724305 0.084056586 -0.0886389
0.24875855 0.18714868 -0.25012904 0.17242646 -0.07755494 0.16048785 -0.0068368367 0.2692572
-0.26970768 0.025956167 0.28783846 -0.22970985 -0.11228115 0.1867396 -0.10832085 -0.114004865
-0.12643224 0.118376315 0.106626526 0.06810519 -0.037785005 0.10664004 -0.15800881 0.14132135
-0.13839798 -0.0011839453 -0.10491171 0.19014852 -0.012325206 0.20911868 0.19918832 -0.15858054
0.010913324 0.122295946 -0.013002961 -0.31253815 0.07720244 -0.12262214 0.30841446 0.10348809
-0.014202726 -0.14561516 0.2773888 -0.23397347 -0.15003785 -0.065386534 -0.32586548 -0.032472216
0.07999664 0.19702056 -0.061880514 -0.05566805 0.2030552 0.26581052 -0.18524247 0.06117137
00000000: 9a4c 833e d539 a03e 54a8 9e3e 146f 833e
00000010: e8f4 cfbd 7cac b2bd dc25 ac3d 5088 b5bd
00000020: 90ba 7e3e e7a3 3f3e ea10 80be 9090 303e
00000030: 20d5 9ebd ed56 243e 8b07 e0bb 14dc 893e
00000040: 2017 8abe 07a2 d43c 905f 933e 0f39 6bbe
00000050: a9f3 e5bd aa38 3f3e 52d7 ddbd 627b e9bd
00000060: 7477 01be 486f f23d 025f da3d bc7a 8b3d
00000070: 73c4 1abd 1866 da3d 10cd 21be 8bb6 103e
00000080: 33b8 0dbe 9d2e 9bba f3db d6bd 4bb6 423e
00000090: a9ef 49bc 3523 563e 06f8 4b3e f062 22be
000000a0: cccd 323c 4c76 fa3d 5f0a 55bc 0005 a0be
000000b0: 501c 9e3d 5121 fbbd 80e8 9d3e 90f1 d33d
000000c0: 8db2 68bc 241c 15be e805 8e3e be96 6fbe
000000d0: 86a3 19be 60e9 85bd d7d7 a6be 9601 05bd
000000e0: 47d5 a33d c2bf 493e 6c76 7dbd 2e04 64bd
000000f0: b4ed 4f3e 5118 883e 34b0 3dbe d58e 7a3d

weight f4 [32, 640]
-0.03964264 0.023487872 0.023516273 -0.02250276 -0.008627435 0.028687768 0.013555725 0.022612588
-0.03153931 -0.0043760194 -0.02164066 -0.002358393 -0.019771464 0.020472579 -0.036768086 0.018916953
0.023845674 0.015894158 -0.04837104 -0.025925756 -0.028084243 0.012770279 -0.023625052 -0.03084438
-0.015806772 -0.024616353 0.009225645 -0.02670951 -0.010587815 0.023121633 -0.03668 -0.04418965
0.03258319 -0.03822301 -0.04581826 -0.015803458 0.020298678 -0.041275464 0.011210403 -0.04159313
0.03093227 0.030567765 0.036133546 -0.014127421 0.0020334094 0.02553973 -0.0047174725 0.049155556
0.021319753 -0.019290209 -0.009011596 0.053135373 0.03739657 0.0071379775 -0.0066086 0.038528442
0.023506604 0.039308183 0.008842365 0.012278053 -0.035661705 -0.0098672565 -0.0074751605 -0.017239772
0.0067913947 -0.019327832 -0.019064354 0.014048043 0.014110876 -0.048151374 -0.019396614 0.000731635
0.00596872 0.042713746 0.011011743 -0.0021599776 -0.021588037 0.036132775 0.022314453 0.0024575894
-0.0061059366 0.017571947 -0.024835737 0.01255581 -0.01645082 -0.024321409 -0.04768589 0.017361114
0.0068738987 -0.029730987 0.002823394 -0.034882613 -0.0074650333 -0.041284904 -0.027051995 0.020066295
0.020382335 0.026266702 -0.017584078 0.021556726 0.021705592 0.00040817334 0.044564776 0.03343355
-0.001663783 -0.007291917 0.04870356 -0.004426685 0.027032424 -0.010005545 -0.028680384 -0.049809154
0.014268047 -0.036302663 0.004690835 -0.03318331 -0.05047205 -0.032445874 -0.02280952 -0.011338452
0.03920784 -0.013279078 0.02605204 0.018738206 -0.0034688099 0.032609034 0.032397844 0.0002605733
-0.006352393 -0.023420418 0.0121608935 -0.0062801642 0.020458337 0.002474642 -0.030757481 -0.005831976
-0.04796234 -0.046978664 -0.038041882 -0.017666051 0.010123839 -0.01887695 0.02515474 -0.03408092
-0.0008402327 0.018816346 -0.004137895 0.012030149 -0.012253024 0.018544808 -0.00017796195 0.01927696
0.0039671822 0.022498567 -0.020356737 -0.04894473 -0.052024584 -0.022898423 -0.033101786 -0.040936146
0.013224354 -0.0006817982 0.001993865 -0.011251207 -0.01336909 0.011204711 0.009894969 0.028443253
-0.01169724 0.025100073 0.010000088 -0.0012252156 0.021937994 0.018838586 -0.025787288 0.043868754
0.0042751594 0.051285826 0.048058547 0.02291764 0.022069493 0.008930988 -0.03185106 0.020833138
-0.022979254 -0.013855729 -0.021599574 0.011539465 -0.025751222 -0.043645978 0.014090565 0.025677847
0.015703892 0.0013057864 -0.012500945 -0.0006061415 -0.008959646 0.010015966 0.033998333 -0.0023417966
0.04418787 0.030495731 0.046166234 0.000704844 -0.005720283 0.05008556 0.0075715054 0.015135491
-0.00074475165 0.008806777 0.023548853 0.02291029 0.0034926028 0.020472564 -0.031198937 -0.0076100826
0.0038358457 -0.03257615 -0.05034691 0.0025740757 -0.0033639364 -0.020637663 -0.04490418 -0.040660046
0.018466774 0.025164062 0.004219102 0.028578648 0.023359368 0.021933159 0.045744527 0.036677513
0.022373285 0.012572465 0.027599636 0.007113813 0.024903227 0.049368463 -0.008346572 0.029560918
0.0290763 0.05423395 0.01879641 0.009374919 -0.018655367 -0.010129478 -0.021495514 0.015856324
-0.021437261 -0.006544851 0.033548523 0.010676052 0.03539155 0.050773304 0.002240069 -0.0024702647
00000000: 5260 22bd a369 c03c 33a5 c03c b557 b8bc
00000010: 165a 0dbc 9c02 eb3c d518 5e3c 093e b93c
00000020: 5d2f 01bd b664 8fbb c147 b1bc 458f 1abb
00000030: c4f7 a1bc 1cb6 a73c 229a 16bd baf7 9a3c
00000040: 0158 c33c 7734 823c b620 46bd 4062 d4bc
00000050: ed10 e6bc 6f3a 513c 5389 c1bc 5aad fcbc
00000060: 347d 81bc 3ca8 c9bc 2927 173c e7cd dabc
00000070: 8478 2dbc 9469 bd3c c53d 16bd 3500 35bd
00000080: f375 053d bb8f 1cbd eeab 3bbd 4176 81bc
00000090: 6a49 a63c 7610 29bd d7ab 373c 8f5d 2abd
000000a0: ac65 fd3c 4069 fa3c c500 143d b376 67bc
000000b0: f342 053b b238 d13c 0795 9abb 5657 493d
000000c0: c3a6 ae3c 8006 9ebc 60a5 13bc 7aa4 593d
000000d0: 252d 193d b2e5 e93b f48c d8bb 00d0 1d3d
000000e0: ec90 c03c 9e01 213d 91df 103c e329 493c
000000f0: 0212 12bd 46aa 21bc 31f2 f4bb 6c3a 8dbc
00000100: 598a de3b 6755 9ebc d92c 9cbc c329 663c
00000110: 4e31 673c 603a 45bd a6e5 9ebc 32cb 3f3a
00000120: 4195 c33b 9cf4 2e3d 996a 343c 698e 0dbb
00000130: 65d9 b0bc f6ff 133d cdcc b63c 820f 213b
00000140: 4f14 c8bb 0bf3 8f3c 5174 cbbc e2b6 4d3c
00000150: dfc3 86bc b13d c7bc 4852 43bd e538 8e3c
00000160: 713e e13b 668e f3bc b108 393b 12e1 0ebd
00000170: 3d9d f4bb 5c1a 29bd 259c ddbc 1262 a43c
00000180: dbf8 a63c 442d d73c 7c0c 90bc bb97 b03c
00000190: edcf b13c 1900 d639 8e89 363d 9ef1 083d
000001a0: 4b13 daba 09f1 eebb 627d 473d ba0d 91bb
000001b0: 1a73 dd3c 4cee 23bc 20f3 eabc af04 4cbd
000001c0: 87c4 693c 1ab2 14bd 93b5 993b 39eb 07bd
000001d0: c8bb 4ebd f7e5 04bd 08db babc eac4 39bc
000001e0: 6698 203d 7d90 59bc 166b d53c de80 993c
000001f0: f954 63bb 0d91 053d 9ab3 043d 8e9d 8839
00000200: bc27 d0bb 2ddc bfbc 7c3e 473c d6c9 cdbb
00000210: 3e98 a73c 9a2d 223b 1df7 fbbc 291a bfbb
00000220: 2974 44bd b36c 40bd ced1 1bbd 65b8 90bc
00000230: 75de 253c d5a3 9abc 5011 ce3c 6f98 0bbd
00000240: 1043 5cba bd24 9a3c 2e97 87bb 1a1a 453c
00000250: e8c0 48bc 48eb 973c 4c9b 3ab9 b7ea 9d3c
00000260: 23ff 813b ea4e b83c 2cc3 a6bc 457a 48bd
00000270: bb17 55bd 7995 bbbc bd95 07bd a9ac 27bd
00000280: f6aa 583c b4ba 32ba 81ab 023b fc56 38bc
00000290: 070a 5bbc f793 373c 821e 223c d301 e93c
000002a0: c8a5 3fbc ab9e cd3c 69d7 233c 6a97 a0ba
000002b0: 4fb7 b33c 6153 9a3c dd3f d3bc b9af 333d
000002c0: a316 8c3b 1611 523d 0ad9 443d c6bd bb3c
000002d0: 15cb b43c 4753 123c 4276 02bd 42aa aa3c
000002e0: fd3e bcbc 2403 63bc 97f1 b0bc 0610 3d3c
000002f0: 3af4 d2bc 20c6 32bd 1ddc 663c 595a d23c
00000300: 73a5 803c ec26 ab3a c3d0 4cbc 78e5 1eba
00000310: 7bcb 12bc 021a 243c d641 0b3d d478 19bb
00000320: 57fe 343d 2fd2 f93c ce18 3d3d 48c5 383a
00000330: 3671 bbbb 8426 4d3d 641a f83b dafa 773c
00000340: 703b 43ba 4d4a 103c 86e9 c03c 5cae bb3c
00000350: 27e4 643b 14b6 a73c ea94 ffbc 005e f9bb
00000360: d062 7b3b 926e 05bd 9038 4ebd d3b1 283b
00000370: 7d75 5cbb 5110 a9bc 72ed 37bd 268b 26bd
00000380: a247 973c dd24 ce3c 6540 8a3b c51d ea3c
00000390: 255c bf3c 2bad b33c 9d5e 3b3d 293b 163d
000003a0: 2e48 b73c befc 4d3c a218 e23c fd1a e93b
000003b0: da01 cc3c 9636 4a3d 0fc0 08bc bd29 f23c
000003c0: 6c31 ee3c 6b24 5e3d eefa 993c 4399 193c
000003d0: 24d3 98bc 1cf6 25bc 5c17 b0bc 1fe5 813c
000003e0: 329d afbc 3176 d6bb 2d6a 093d 9cea 2e3c
000003f0: bbf6 103d abf7 4f3d 1fce 123b 2ae4 21bb

bias f4 [32]
-0.007308519 0.038876574 0.012213088 0.010864548 -0.0422858 -0.041010864 -0.015191739 -0.014442102
-0.04028523 0.024772093 -0.04473336 -0.010275239 0.0051671593 0.0116807455 -0.030831182 0.027337367
0.012803195 0.011178903 -0.025075769 0.0278773 0.011759911 -0.004177809 0.020183906 0.04302469
0.0030895623 0.041654933 0.038513366 0.0101985615 -0.014558825 -0.018592468 0.032647002 -0.028702175
00000000: 4d7c efbb 0b3d 1f3d 6719 483c 3801 323c
00000010: e033 2dbd 02fb 27bd c6e6 78bc 919e 6cbc
00000020: 2002 25bd d8ee ca3c 543a 37bd 7a59 28bc
00000030: 4651 a93b 9960 3f3c ad91 fcbc 9df2 df3c
00000040: 7ec4 513c b827 373c b36b cdbc ef5e e43c
00000050: a4ac 403c 01e6 88bb b858 a53c a83a 303d
00000060: 417a 4a3b 5d9e 2a3d 31c0 1d3d de17 273c
00000070: 2388 6ebc 3b4f 98bc ddb8 053d d320 ebbc

weight f4 [640]
0.99500954 1.0151021 1.0138884 0.99583673 0.9880153 0.9901773 1.0087117 1.0075904
1.0114231 1.0130289 1.0017412 1.0024242 0.9962129 1.0019243 0.9998468 1.0011576
0.99006706 0.9998313 0.9915882 0.98924875 1.0009483 0.99563926 0.9981164 0.9942498
1.0003523 0.99781966 1.0034178 1.0052525 1.0170951 0.99273884 0.99697423 1.0005069
0.99458486 1.0044752 1.0048063 1.0031399 0.99066573 1.0010855 0.9960936 1.0068781
0.99544126 0.9985797 1.003446 1.0003371 0.99204147 1.0147274 0.9902449 1.001341
1.0070935 0.9963157 0.99555206 1.0123342 1.0040889 0.9959305 0.9939666 0.9996283
0.998603 0.9981366 0.9982222 1.0030009 1.003868 0.99731463 1.0036725 1.0091137
0.99441147 0.9918434 1.0069613 1.0013407 1.0027475 1.0018306 0.9995962 1.0023528
0.9948578 1.0077784 0.99405247 0.9997883 0.99595106 1.0043547 0.98738825 1.0033044
0.99584675 1.0043525 0.9891733 0.9919861 1.0074474 1.0010083 1.003046 0.99483484
0.99356735 0.99904895 1.005955 0.9980045 1.000724 0.9955524 0.9955876 0.9929101
0.99620694 0.9957574 0.9981366 0.9969548 0.99306065 0.9931358 1.00823 1.0024252
1.015784 1.0006077 1.011455 0.99890053 1.0055012 1.0014524 0.9977171 0.9946095
1.0039207 1.0000951 1.0014741 1.0024695 1.0011944 1.0004462 0.9996019 0.9893417
1.0086576 0.9978307 0.9984498 0.9998854 1.0007867 0.9947618 1.0024102 1.0060703
1.001235 1.0067711 0.9948748 0.99565554 0.989735 0.99900687 1.0014058 1.0035409
0.9973383 1.0096984 1.0012195 1.0041106 0.9966481 1.0013262 0.99402374 0.9949225
0.9971072 1.0094203 1.0049225 1.0072069 1.0061841 0.9926883 1.0073657 0.99976665
0.99942094 0.9957582 0.9990365 0.9988764 1.0119866 1.0043424 1.0140108 0.9974483
0.9995804 1.0030717 1.0027097 1.0060756 0.9931608 0.9994763 0.99759763 0.99931437
0.9893175 1.0021151 1.0100651 1.0003448 1.000134 1.0089173 1.0006201 1.001459
0.99883956 0.9995692 0.9995743 0.994934 0.99373627 1.0023421 1.0037793 1.0028572
1.0125734 1.0069438 0.9985817 0.99943405 0.99480057 0.9979639 1.0027376 1.0007306
0.996686 0.9934519 1.0016587 1.0084667 0.9998261 1.003847 1.0072007 0.9934781
1.0146861 0.99418205 0.9969544 0.9979017 1.0019015 1.0065877 1.0042568 1.0029751
0.9998762 0.99697953 0.99851507 1.0031885 0.9977328 0.99624336 1.0141091 1.002239
1.0072666 0.9955885 1.0048358 0.989325 0.99141115 1.002855 1.0070975 1.0043756
0.99231297 0.9931535 1.0114645 0.98452175 0.9940214 0.99370295 1.0094128 1.0033143
1.0011128 0.99874526 1.0007601 0.9894781 0.99853694 0.9960666 0.9885947 1.0070229
1.0030577 1.0031244 1.0015311 1.0016508 1.0047375 0.9979681 1.0035156 0.9971119
0.9968005 0.9958994 1.0005022 1.0068797 0.9896173 1.0081291 0.9869694 1.0090477
00000000: f2b8 7e3f deee 813f 18c7 813f 28ef 7e3f
00000010: 92ee 7c3f 427c 7d3f 771d 813f b9f8 803f
00000020: 5076 813f eeaa 813f 0e39 803f 704f 803f
00000030: cf07 7f3f 0e3f 803f f6f5 7f3f ef25 803f
00000040: 0975 7d3f f2f4 7f3f b9d8 7d3f 683f 7d3f
00000050: 131f 803f 37e2 7e3f 8e84 7f3f 2887 7e3f
00000060: 8b0b 803f 1c71 7f3f ff6f 803f 1dac 803f
00000070: 2c30 823f 2224 7e3f b439 7f3f 9c10 803f
00000080: 1d9d 7e3f a592 803f 7e9d 803f e366 803f
00000090: 459c 7d3f 9223 803f fdff 7e3f 62e1 803f
000000a0: 3dd5 7e3f eba2 7f3f eb70 803f 0c0b 803f
000000b0: 6ef6 7d3f 96e2 813f b180 7d3f f12b 803f
000000c0: 71e8 803f 8c0e 7f3f 80dc 7e3f 2b94 813f
000000d0: fc85 803f 4df5 7e3f 9874 7e3f a4e7 7f3f
000000e0: 72a4 7f3f e185 7f3f 7d8b 7f3f 5562 803f
000000f0: bf7e 803f 0350 7f3f 5778 803f a32a 813f
00000100: c091 7e3f 73e9 7d3f 1ce4 803f ef2b 803f
00000110: 085a 803f fc3b 803f 89e5 7f3f 194d 803f
00000120: 00af 7e3f e2fe 803f 397a 7e3f 20f2 7f3f
00000130: a6f6 7e3f b28e 803f 7ac5 7c3f 476c 803f
00000140: d0ef 7e3f 9f8e 803f 763a 7d3f cdf2 7d3f
00000150: 09f4 803f 0a21 803f d063 803f 7fad 7e3f
00000160: 6e5a 7e3f acc1 7f3f 22c3 803f 397d 7f3f
00000170: b917 803f 86dc 7e3f d4de 7e3f 5b2f 7e3f
00000180: 6b07 7f3f f5e9 7e3f e185 7f3f 6e38 7f3f
00000190: 3939 7e3f 263e 7e3f ae0d 813f 784f 803f
000001a0: 3605 823f ea13 803f 5c77 813f f2b7 7f3f
000001b0: 43b4 803f 982f 803f 636a 7f3f ba9e 7e3f
000001c0: 7980 803f 1e03 803f 4e30 803f ec50 803f
000001d0: 2327 803f 9f0e 803f e9e5 7f3f 7f45 7d3f
000001e0: b11b 813f d571 7f3f 689a 7f3f 7df8 7f3f
000001f0: c719 803f b6a8 7e3f fa4e 803f e9c6 803f
00000200: 7828 803f e0dd 803f 1db0 7e3f 48e3 7e3f
00000210: 465f 7d3f eabe 7f3f 112e 803f 0774 803f
00000220: 9051 7f3f cc3d 813f f627 803f b286 803f
00000230: 5424 7f3f 752b 803f 5778 7e3f 3eb3 7e3f
00000240: 6b42 7f3f af34 813f 4da1 803f 28ec 803f
00000250: a4ca 803f d220 7e3f 5cf1 803f b5f0 7f3f
00000260: 0dda 7f3f 02ea 7e3f dbc0 7f3f 5db6 7f3f
00000270: c788 813f 4b8e 803f 1bcb 813f c658 7f3f
00000280: 80e4 7f3f a764 803f cb58 803f 16c7 803f
00000290: c93f 7e3f aedd 7f3f 8f62 7f3f 11d3 7f3f
000002a0: e943 7d3f 4f45 803f d049 813f 4c0b 803f
000002b0: 6404 803f 3424 813f 5214 803f cf2f 803f
000002c0: f3b3 7f3f c4e3 7f3f 1ae4 7f3f ffb3 7e3f
000002d0: 8065 7e3f bf4c 803f d77b 803f a05d 803f
000002e0: 019c 813f 89e3 803f 0da3 7f3f e9da 7f3f
000002f0: 40ab 7e3f 907a 7f3f b559 803f f117 803f
00000300: d026 7f3f dd52 7e3f 5a36 803f 7015 813f
00000310: 9af4 7f3f 0f7e 803f f4eb 803f 9554 7e3f
00000320: 3ce1 813f b782 7e3f 6738 7f3f 7c76 7f3f
00000330: 4f3e 803f ded7 803f 7d8b 803f 7d61 803f
00000340: e3f7 7f3f 0d3a 7f3f af9e 7f3f 7b68 803f
00000350: 6b6b 7f3f ce09 7f3f 54ce 813f 5e49 803f
00000360: 1dee 803f e3de 7e3f 769e 803f 6744 7d3f
00000370: 1fcd 7d3f 8d5d 803f 92e8 803f 618f 803f
00000380: 3908 7e3f 4f3f 7e3f ab77 813f 9e09 7c3f
00000390: 3078 7e3f 5163 7e3f 7034 813f 9a6c 803f
000003a0: 7724 803f c5ad 7f3f e818 803f 704e 7d3f
000003b0: 1ea0 7f3f 38fe 7e3f 8b14 7d3f 20e6 803f
000003c0: 3264 803f 6166 803f 2c32 803f 1836 803f
000003d0: 3d9b 803f d67a 7f3f 3373 803f ba42 7f3f
000003e0: 512e 7f3f 43f3 7e3f 7510 803f 6fe1 803f
000003f0: 8f57 7d3f 600a 813f 07aa 7c3f 7a28 813f

bias f4 [640]
-0.0040355367 0.0051895143 0.010139711 0.0051300917 -0.0042443126 0.0052980166 0.0029555135 -0.008034391
-0.0023073263 -0.008451534 0.001933884 0.0029367518 -0.005007918 0.00811675 0.0031202403 0.007013831
-0.013585221 0.0030065472 -0.010359031 -0.0058002435 0.010279295 0.005030604 0.003210227 0.00013384943
0.007922268 0.0038948553 -0.0020804668 0.013033534 0.014657189 -0.0032594034 -0.0016423254 -0.0038763485
0.0003521869 0.0025127425 0.013092415 0.00794734 -0.01080716 0.010757825 0.0034477052 0.011722023
0.0055083926 0.0044516595 -0.00084303337 0.0010274989 0.010937499 -0.014021234 0.0031455408 -0.0016154714
-0.010668391 -0.0027000108 0.007241758 -0.009379496 -0.0021853163 -0.0016895683 0.012676523 0.002677072
0.010070091 -0.0020517665 0.00723692 0.0009931555 0.005280739 -0.0017223555 0.0060670576 0.0061270604
-0.007891675 -0.00041418226 0.010500264 -0.004453525 0.000609172 0.0076967184 -0.0005611292 -0.012434893
-0.0010860614 -0.009303103 -0.0031821781 -0.0041925083 0.001712174 -0.003372417 0.0010552525 -0.0050471933
-0.0011726246 0.012209298 0.005396406 -0.013455649 0.016081689 0.0019540968 0.00021738379 -0.008598482
0.0037534365 -0.00243326 0.002600507 0.0047322013 0.009353877 -0.000527093 0.007344442 -0.005607621
0.003805807 -0.0064361813 -0.00048702193 -0.0074943756 0.006333633 0.011309219 -0.006984306 -0.0037508514
-0.014857245 0.003072383 -0.010282841 0.0029467274 -0.008174839 -0.002692063 -0.009608249 -0.009235061
0.0077771894 0.005512804 0.011415802 0.002478302 -0.0030161594 0.0051650265 0.0042604753 -0.0012275134
-0.009366775 0.0046481066 0.0010627843 -0.0028280544 -0.0023548277 0.0069513787 -0.005338892 -0.0058621676
-0.002052979 -0.00348728 -0.0065068463 -0.00016015462 -0.011955967 0.008084032 0.008560685 0.012566651
-0.005706539 0.015572947 0.013397495 0.0031927745 0.006865446 0.014290094 -0.0025524292 8.996728e-05
0.00421191 0.0049736374 0.014680599 0.0071534007 0.008035543 0.0064474945 0.009510797 0.000743334
-7.395228e-05 -0.0052538305 0.0036848476 -0.000890311 0.01425628 0.0060702506 0.012256181 0.0012430943
-0.00019204791 -0.002657623 -0.004028599 -0.007590717 0.0063337623 -0.00061328313 0.005639065 0.0027504826
0.011371185 0.00075660256 -0.010762684 -0.010286416 -0.006529707 -0.017226392 -0.012514666 0.00078947854
0.0048191906 0.005298436 0.00590598 -0.0004068127 -0.014330426 -0.004067404 -0.002497046 0.006895076
0.009600602 -0.0013782678 0.0052771945 0.0028951282 0.0047675595 -0.0051924586 -0.0034524875 -0.0016799128
0.0014160832 0.008113627 -0.0021287317 -0.00858501 -0.0011020082 -0.005016868 -0.008081501 0.011054654
-0.014578078 0.0061880844 0.0039022176 0.0018477184 -0.0027127336 -0.0060939835 -0.004608013 -0.003463563
-6.851442e-05 0.002271529 0.0007656604 0.003132636 -0.0008994769 -0.0032641669 0.01365708 -0.0010570356
0.009267312 -0.0003037153 0.007589133 0.000453586 -0.0024853037 -0.01194572 0.008842631 0.012174198
-0.0010279402 -0.002369325 0.005738303 -0.0040363767 0.0007292113 -0.016360156 -0.00964948 -0.0025286677
-0.0021169842 0.0022390257 -0.00026352578 0.011100785 0.000696833 0.0047756224 0.0100265695 -0.00637839
-0.010360962 -0.0029617902 -0.0019273697 -0.00022708063 -0.0032445595 0.00023535581 -0.0043147663 0.0034356287
0.003627661 0.0040080063 -0.0046699243 -0.00438402 0.009591358 -0.006069545 0.013164605 -0.0070756
00000000: 893c 84bb cd0c aa3b 0821 263c 541a a83b
00000010: e013 8bbb fc9a ad3b 4ab1 413b aea2 03bc
00000020: 8336 17bb 4e78 0abc 617a fd3a 8576 403b
00000030: 7619 a4bb 1efc 043c f27c 4c3b 47d4 e53b
00000040: 8c94 5ebc 7e09 453b edb8 29bc f80f bebb
00000050: 7d6a 283c c4d7 a43b ac62 523b ef59 0c39
00000060: 66cc 013c d440 7f3b 7158 08bb 9b8a 553c
00000070: b524 703c b79b 55bb 4c43 d7ba 560a 7ebb
00000080: baa5 b839 d3ac 243b 9281 563c 8f35 023c
00000090: 8410 31bc 9741 303c e5f2 613b ba0d 403c
000000a0: bf7f b43b 3adf 913b 03ff 5cba 24ad 863a
000000b0: 3233 333c 51b9 65bc 6b25 4e3b 3abe d3ba
000000c0: 7aca 2ebc aaf2 30bb 454c ed3b 75ac 19bc
000000d0: 8637 0fbb 8174 ddba 31b1 4f3c d171 2f3b
000000e0: 06fd 243c ee76 06bb af23 ed3b c52c 823a
000000f0: 0d0a ad3b a9c0 e1ba 2bce c63b 82c5 c83b
00000100: 164c 01bc 9a26 d9b9 4d09 2c3c e0ee 91bb
00000110: d7b0 1f3a c134 fc3b be18 13ba b9bb 4bbc
00000120: 2c5a 8eba 0b6c 18bc 178c 50bb 4f61 89bb
00000130: 076b e03a c503 5dbb 6650 8a3a ed62 a5bb
00000140: c1b2 99ba 8209 483c 56d4 b03b 1575 5cbc
00000150: bfbd 833c 4e10 003b 84f1 6339 a6e0 0cbc
00000160: 37fc 753b 5477 1fbb 456d 2a3b 9510 9b3b
00000170: 0141 193c 9d2c 0aba a5a9 f03b 22c0 b7bb
00000180: d96a 793b 9ae6 d2bb fa56 ffb9 6193 f5bb
00000190: 5d8a cf3b 4d4a 393c 9bdc e4bb d8d0 75bb
000001a0: cd6b 73bc 095a 493b 5c79 28bc e21d 413b
000001b0: c3ef 05bc 536d 30bb eb6b 1dbc a74e 17bc
000001c0: cbd7 fe3b c0a4 b43b 5809 3b3c 026b 223b
000001d0: c2aa 45bb 623f a93b 759b 8b3b 84e4 a0ba
000001e0: 1a77 19bc 254f 983b 204d 8b3a e156 39bb
000001f0: 7453 1abb 64c8 e33b dff1 aebb 6d17 c0bb
00000200: 468b 06bb da8a 64bb 6237 d5bb 2eef 27b9
00000210: f6e2 43bc e372 043c 1e42 0c3c 5be4 4d3c
00000220: ebfd babb ad25 7f3c 2b81 5b3c de3d 513b
00000230: 89f7 e03b 0021 6a3c a846 27bb d1ac bc38
00000240: 1004 8a3b e5f9 a23b e586 703c 1367 ea3b
00000250: 83a7 033c 8145 d33b 2dd3 1b3c 4ddc 423a
00000260: d416 9bb8 5328 acbb 7c7d 713b c363 69ba
00000270: 2c93 693c f4e8 c63b 26ce 483c 53ef a23a
00000280: 7860 49b9 842b 2ebb 5602 84bb 8dbb f8bb
00000290: 738b cf3b bcc4 20ba e8c7 b83b 7141 343b
000002a0: 354e 3a3c bd56 463a f855 30bc 5b88 28bc
000002b0: 27f7 d5bb 5d1e 8dbc 500a 4dbc 02f5 4e3a
000002c0: 4dea 9d3b 819e ad3b f386 c13b 7a49 d5b9
000002d0: 2aca 6abc dc47 85bb 7ba5 23bb 17f0 e13b
000002e0: d84b 1d3c fea6 b4ba 51ec ac3b 31bc 3d3b
000002f0: 3039 9c3b 8025 aabb 2143 62bb 8530 dcba
00000300: de9b b93a 05ef 043c 3182 0bbb 24a8 0cbc
00000310: 4271 90ba 8a64 a4bb 4668 04bc 941e 353c
00000320: e4d8 6ebc 6ac5 ca3b 59bc 7f3b 242f f23a
00000330: 1ec8 31bb 0ab0 c7bb d1fe 96bb f2fc 62bb
00000340: 66af 8fb8 efdd 143b 9ab6 483a e94c 4d3b
00000350: dfca 6bba a2eb 55bb f2c1 5f3c 3b8c 8aba
00000360: ecd5 173c fa3b 9fb9 43ae f83b 48cf ed39
00000370: 7ae0 22bb fbb7 43bc afe0 103c 4a76 473c
00000380: f3bb 86ba ad46 1bbb 6008 bc3b 9543 84bb
00000390: 8b28 3f3a bc05 86bc da18 1ebc 01b8 25bb
000003a0: 1abd 0abb 9ebc 123b d529 8ab9 11e0 353c
000003b0: acab 363a d37c 9c3b 7b46 243c d001 d1bb
000003c0: 06c1 29bc 981a 42bb cc9f fcba 7e1c 6eb9
000003d0: ada2 54bb d8c9 7639 e262 8dbb 4928 613b
000003e0: 0dbe 6d3b 9855 833b 2a06 99bb d3a7 8fbb
000003f0: 1225 1d3c 09e3 c6bb 5bb0 573c 6fda e7bb

weight_ih_l0 f4 [512, 32]
-0.032157555 -0.0069987946 0.03871333 0.055714246 0.023111392 -0.009007962 0.07868953 -0.013025615
-0.06661954 0.056698374 -0.0062259524 -0.07577259 -0.06596545 0.071633816 0.014569564 -0.04347866
-0.008672059 0.039363276 0.012531305 -0.0671685 0.0027803385 -0.04916367 -0.054865662 0.04329878
0.08061728 0.009302155 0.074850336 0.021046788 -0.050233684 0.08255587 0.06330794 0.08315678
-0.063910685 0.008505561 -0.036859732 -0.04434686 0.08241195 -0.057965938 0.07904801 -0.009165844
-0.019722003 0.031377904 0.04455221 0.013180423 0.032660194 0.04081461 0.038885918 -0.092234276
0.040439393 0.078086 -0.05907733 -0.051193938 -0.03628874 -0.05160366 0.047715396 -0.08768203
-0.057084218 -0.012168317 0.029052865 -0.021255476 0.05871501 -0.040403176 0.027085869 -0.019701783
-0.05844406 -0.009549414 -0.065965034 -0.062450334 -0.05303608 0.010980875 0.07861817 -0.02646129
0.013699662 0.009161136 0.0053421617 -0.010021708 0.062851906 0.086922675 -0.07758514 0.06395034
0.044021532 0.030998835 0.01553801 -0.07041493 0.082636386 -0.038464528 -0.092507675 0.0774908
-0.033254396 -0.002456191 0.07439096 0.061608616 0.020093404 0.07928296 0.07113793 0.090301976
-0.06348955 -0.06784882 0.02122019 0.06723171 -0.04639838 0.05139123 0.010802168 -0.00021607082
0.00087992544 0.027725417 0.019123431 0.070840746 -0.040402725 0.034945592 0.072621524 0.037527744
0.050811082 0.02057452 -0.080095135 0.07767199 -0.07609745 -0.06566665 0.013330188 0.03129824
0.068066366 -0.037431713 0.09302775 -0.06471586 0.0006678055 0.035255026 -0.044068318 0.0075819856
-0.059604835 -0.06555643 -0.0038953647 -0.0021574725 0.08850354 0.052506674 -0.047897402 0.036978897
-0.070945114 0.051679116 -0.061335396 -0.08939747 0.061483208 0.061119214 0.07840298 -0.015339053
-0.056849875 0.0612969 0.03612187 -0.033569533 -0.073088825 0.06303216 -0.06198077 0.017351473
0.0290511 0.03566432 0.075449415 -0.094398595 -0.010423348 -0.033351094 0.058265105 -0.07366553
0.05409968 -0.029533666 0.06340575 0.075100295 -0.0070051514 -0.039973244 0.025775472 -0.088326
0.08530823 -0.0025493978 -0.08413531 -0.030515146 0.0377518 0.04821288 0.070591174 0.029994693
-0.025395442 0.07546783 -0.08018756 -0.08940445 -0.0020583752 0.023635738 -0.07995108 -0.06477801
-0.04096333 -0.0061286474 -0.010719328 -0.020203492 0.07134706 -0.035241134 0.06025331 -0.07065559
-0.029771235 -0.070192434 0.06043982 0.080531634 0.006651996 -0.010054143 -0.05887686 -0.0077495174
0.02457265 0.06611451 -0.0041551185 0.0433622 0.014591822 0.0812484 0.056420267 -0.06894387
-0.08650912 0.041331816 0.090660565 0.018044848 -0.010864485 0.0087351315 0.08740942 -0.037866447
-0.055166952 -0.07585516 -0.09031955 0.0571424 0.06225053 -0.043244004 -0.01487929 -0.042757116
0.08689687 0.0074609183 0.09392935 -0.035980996 -0.015294039 -0.06996879 0.08184669 0.06790987
0.05006955 -0.07028478 -0.013352545 0.053137384 0.079872444 -0.02793861 -0.04676216 -0.09154804
-0.08266039 0.074021965 -0.020083472 -0.026496628 0.0139038935 -0.017412225 0.023179835 0.041806497
0.011490592 0.036230948 0.05079946 0.08340317 0.000984035 0.08799407 -0.00329438 0.045673877
00000000: a4b7 03bd 2556 e5bb de91 1e3d 9f34 643d
00000010: 1a54 bd3c 2296 13bc fa27 a13d 6469 55bc
00000020: d36f 88bd 8e3c 683d 1303 ccbb a92e 9bbd
00000030: e518 87bd c0b4 923d 2eb5 6e3c ae16 32bd
00000040: 4015 0ebc 633b 213d 1a50 4d3c a38f 89bd
00000050: 5736 363b d85f 49bd d1ba 60bd 105a 313d
00000060: ac1a a53d 1168 183c 224b 993d 506a ac3c
00000070: d6c1 4dbd 0d13 a93d 98a7 813d 1a4e aa3d
00000080: 9be3 82bd e95a 0b3c 3bfa 16bd 0ea5 35bd
00000090: 99c7 a83d b16d 6dbd ece3 a13d 562c 16bc
000000a0: 0a90 a1bc 1e86 003d 617c 363d b3f2 573c
000000b0: b2c6 053d 382d 273d d746 1f3d 53e5 bcbd
000000c0: c7a3 253d 8eeb 9f3d 12fb 71bd bcb0 51bd
000000d0: 80a3 14bd 5c5e 53bd 3871 433d a392 b3bd
000000e0: 24d1 69bd 9f5d 47bc 4600 ee3c f71f aebc
000000f0: 267f 703d cd7d 25bd 2fe3 dd3c a265 a1bc
00000100: 0a63 6fbd 2575 1cbc ad18 87bd eccb 7fbd
00000110: 5c3c 59bd 21e9 333c 9002 a13d 59c5 d8bc
00000120: 8c74 603c 9718 163c 4d0d af3b 1732 24bc
00000130: 80b8 803d 8404 b23d f5e4 9ebd 65f8 823d
00000140: ec4f 343d 45f1 fd3c 2393 7e3c b435 90bd
00000150: 443d a93d fb8c 1dbd aa74 bdbd 7fb3 9e3d
00000160: c335 08bd 0cf8 20bb 4a5a 983d 5159 7c3d
00000170: ec9a a43c 1b5f a23d c3b0 913d 3ef0 b83d
00000180: cf06 82bd 52f4 8abd f7d5 ad3c c7b0 893d
00000190: 3a0c 3ebd 9c7f 523d 94fb 303c 1291 62b9
000001a0: ccaa 663a 6a20 e33c bea8 9c3c f414 913d
000001b0: 547d 25bd 1c23 0f3d 98ba 943d b1b6 193d
000001c0: 481f 503d e58b a83c eb08 a4bd 7e12 9f3d
000001d0: fbd8 9bbd 3d7c 86bd dc66 5a3c 9532 003d
000001e0: 6166 8b3d ff51 19bd 5585 be3d c089 84bd
000001f0: ab0f 2f3a 9367 103d fb80 34bd 4e72 f83b
00000200: 3324 74bd 7342 86bd 6049 7fbb 6264 0dbb
00000210: 5841 b53d 3d11 573d 1130 44bd 2f77 173d
00000220: ac4b 91bd 7bad 533d d33a 7bbd 0516 b7bd
00000230: d1d5 7b3d 2458 7a3d be91 a03d a750 7bbc
00000240: 6adb 68bd 7512 7b3d 87f4 133d 3580 09bd
00000250: 98af 95bd 0117 813d 8cdf 7dbd ad24 8e3c
00000260: 93fc ed3c c014 123d 3985 9a3d 0d54 c1bd
00000270: b1c6 2abc 289b 08bd 64a7 6e3d f4dd 96bd
00000280: a097 5d3d 96f0 f1bc e0da 813d 2fce 993d
00000290: 788b e5bb fcba 23bd 1527 d33c 43e4 b4bd
000002a0: 15b6 ae3d cc13 27bb 224f acbd e6fa f9bc
000002b0: a2a1 1a3d de7a 453d 1b92 903d 6eb7 f53c
000002c0: 1a0a d0bc e18e 9a3d 6039 a4bd ae19 b7bd
000002d0: cee5 06bb bc9f c13c 64bd a3bd 55aa 84bd
000002e0: 2ac9 27bd d2d2 c8bb 1fa0 2fbc cb81 a5bc
000002f0: 681e 923d 0259 10bd 2dcc 763d e1b3 90bd
00000300: cee2 f3bc 0dc1 8fbd bf8f 773d c5ed a43d
00000310: fdf8 d93b 22ba 24bc dd28 71bd aaef fdbb
00000320: 954c c93c 0b67 873d a927 88bb 909c 313d
00000330: 8a12 6f3c 9065 a63d f018 673d 7232 8dbd
00000340: b22b b1bd 8d4b 293d 3fac b93d cad2 933c
00000350: f400 32bc cc1d 0f3c b603 b33d d919 1bbd
00000360: bef6 61bd f359 9bbd 75f9 b8bd 260e 6a3d
00000370: 69fa 7e3d a020 31bd 44c8 73bc 1622 2fbd
00000380: fcf6 b13d b87a f43b 085e c03d cf60 13bd
00000390: d993 7abc cc4b 8fbd 3d9f a73d 5414 8b3d
000003a0: ba15 4d3d 77f1 8fbd a2c4 5abc 96a6 593d
000003b0: 2a94 a33d 83df e4bc ae89 3fbd 8a7d bbbd
000003c0: da49 a9bd d498 973d 1886 a4bc 750f d9bc
000003d0: 28cd 633c 15a4 8ebc a3e3 bd3c 4a3d 2b3d
000003e0: 0943 3c3c e766 143d 1813 503d 48cf aa3d
000003f0: bcfa 803a 3c36 b43d 86e6 57bb 8814 3b3d

weight_hh_l0 f4 [512, 128]
-0.061602727 -0.07005898 -0.0042571756 0.049786583 -0.08739006 0.07673078 -0.026876181 0.025488254
-0.06020786 -0.082423836 0.03262638 0.06370807 -0.088204406 -0.09097712 -0.031684827 -0.010967946
-0.05820853 -0.0063311383 -0.080971345 0.048473444 -0.07047395 -0.0146703515 -0.020435324 0.08606654
0.010541369 -0.003376624 0.071504705 0.015524307 -0.033459336 -0.08324932 0.047302555 -0.039976336
-0.013505805 -0.06175995 -0.071255066 0.017107196 0.074351765 0.019799985 -0.017298719 -0.08202617
0.051494334 -0.046236094 0.044238545 0.065807834 0.00729887 0.009135261 -0.038837876 0.017430345
0.061461918 -0.027552975 -0.07768569 -0.06847841 -0.0012812215 -0.08533199 -0.004939322 0.045948517
0.020182263 -0.033628758 -0.019320207 -0.019415965 0.07359043 0.06834537 0.087387644 0.037621655
-0.02872143 0.021818636 -0.06727937 -0.026714278 -0.07227244 0.016302925 -0.037804626 -0.05221817
-0.089200914 -0.04935364 -0.0014391409 -0.08560139 -0.03345823 -0.0026827124 0.023194358 0.08363687
-0.031400744 0.08770595 -0.010764483 0.08671153 0.08675196 0.045172 0.010480234 0.025157532
-0.012773257 -0.040689614 -0.03516076 0.04202149 -0.002917123 -0.044111185 0.04604541 0.02653016
0.038949985 -0.0022397863 0.002648001 -0.009257742 0.070699506 -0.041951306 0.026501246 0.066521175
-0.033480607 0.09744009 -0.0077477726 0.030267354 -0.07900774 0.005570054 0.022465434 0.072675236
-0.07031988 -0.022300992 0.014910317 0.08097273 -0.045940768 0.026633255 0.016920486 -0.028818784
0.052801415 0.053112604 -0.0025660575 -0.06749903 0.04423506 0.096074775 -0.03769539 0.0476024
0.01874534 0.070662014 -0.07949846 0.023447806 -0.016487503 -0.02533949 -0.022478387 -0.018713618
0.017763669 0.012339271 -0.06685818 0.0137652205 0.070481636 0.0756151 -0.046954077 -0.046069223
-0.018955043 0.043077093 -0.07219247 -0.015095014 0.04420258 0.0007137999 -0.030959437 -0.058015876
0.08306021 0.039374176 -0.06595404 -0.08145188 -0.008864539 0.07152329 -0.09195318 0.023904791
-0.08389534 0.040460095 -0.046130884 -0.040393144 0.022377754 -0.025728881 0.027024997 0.066289365
0.031989835 -0.013383091 -0.07201281 -0.028598322 0.02349323 0.09014005 0.023271741 0.09254717
0.04857693 0.017970882 0.0047243536 -0.058140133 0.07581834 0.07423554 0.011679946 -0.010511278
0.019224681 0.05495353 -0.03877302 -0.0013361528 -0.009888888 -0.032936793 -0.021945013 -0.06745107
0.073052235 0.059542302 -0.07047064 -0.04489572 -0.0787641 -0.034782004 -0.025671944 -0.05478227
0.042837895 -0.085924335 0.077067584 -0.0817386 0.009494624 0.056505837 -0.05876095 0.059682466
0.02034883 -0.09399084 0.034045946 -0.025419047 0.062144317 -0.016975576 0.050197177 0.049357813
0.023359818 -0.034755297 -0.005945988 -0.06930481 -0.07388991 0.02821897 -0.073445044 -0.037681337
-0.041495077 -0.0031680283 0.032050695 0.07547757 -0.0014105566 0.016497644 -0.03404648 -0.05075969
0.021488119 -0.035815556 0.0436901 0.017041959 -0.005658834 -0.027233444 0.034995344 0.08970254
0.072801575 -0.043839112 0.07039921 -0.061734483 -0.05208648 0.080513574 -0.031712685 -0.06153294
-0.013482351 0.08615695 0.0462169 -0.030247401 0.008562062 -0.0875769 -0.015656825 0.043258026
00000000: 2453 7cbd 157b 8fbd c77f 8bbb 04ed 4b3d
00000010: 8ff9 b2bd 0725 9d3d 702b dcbc becc d03c
00000020: 849c 76bd d4cd a8bd 3da3 053d 6079 823d
00000030: 83a4 b4bd 3652 babd f3c7 01bd e6b2 33bc
00000040: 116c 6ebd 7075 cfbb 4ed4 a5bd 178c 463d
00000050: a554 90bd ea5b 70bc fb67 a7bc a743 b03d
00000060: b5b5 2c3c 5a4a 5dbb 0f71 923d aa59 7e3c
00000070: a80c 09bd 9f7e aabd 53c0 413d 3abe 23bd
00000080: 7447 5dbc 00f8 7cbd 2dee 91bd 6424 8c3c
00000090: bd45 983d 9433 a23c 0bb6 8dbc 56fd a7bd
000000a0: b9eb 523d 0f62 3dbd 7a33 353d 42c6 863d
000000b0: 5c2b ef3b 10ac 153c 7714 1fbd 15ca 8e3c
000000c0: 7ebf 7b3d c7b6 e1bc ad19 9fbd 693e 8cbd
000000d0: a9ee a7ba 8ac2 aebd 09da a1bb 8334 3c3d
000000e0: 4655 a53c 4fbe 09bd 6945 9ebc 3b0e 9fbc
000000f0: 94b6 963d a8f8 8b3d 4bf8 b23d 2a19 1a3d
00000100: 3449 ebbc ffbc b23c c4c9 89bd e7d7 dabc
00000110: 9303 94bd b68d 853c 06d9 1abd b8e2 55bd
00000120: f8ae b6bd 0b27 4abd 8ea1 bcba c84f afbd
00000130: 7f0b 09bd 72d0 2fbb 1802 be3c cf49 ab3d
00000140: 119e 00bd 2d9f b33d 845d 30bc d195 b13d
00000150: 03ab b13d 4606 393d 4ab5 2b3c 2b17 ce3c
00000160: ec46 51bc 27aa 26bd bb04 10bd ba1e 2c3d
00000170: 342d 3fbb eead 34bd 1d9a 3c3d c755 d93c
00000180: 058a 1f3d 61c9 12bb 168a 2d3b c9ad 17bc
00000190: e7ca 903d 22d5 2bbd 2419 d93c 413c 883d
000001a0: f622 09bd ab8e c73d 07e1 fdbb 3ef3 f73c
000001b0: cfce a1bd 0085 b63b 6e09 b83c c1d6 943d
000001c0: df03 90bd 92b0 b6bc 674a 743c 08d5 a53d
000001d0: 632c 3cbd fc2d da3c d59c 8a3c 5f15 ecbc
000001e0: 4c46 583d 9a8c 593d 4d2b 28bb ee3c 8abd
000001f0: d32f 353d dac2 c43d 7b66 1abd bcfa 423d
00000200: d48f 993c 3fb7 903d 17d0 a2bd 9d15 c03c
00000210: cd10 87bc c394 cfbc 9824 b8bc 4d4d 99bc
00000220: 1d85 913c a72a 4a3c f1ec 88bd 8587 613c
00000230: ad58 903d 17dc 9a3d eb52 40bd 15b3 3cbd
00000240: 9b47 9bbc 9b71 303d a5d9 93bd 1451 77bc
00000250: c40d 353d 4d1e 3b3a a59e fdbc 0ea2 6dbd
00000260: 791b aa3d d146 213d e912 87bd 3ed0 a6bd
00000270: 923c 11bc cd7a 923d f351 bcbd fbd3 c33c
00000280: 52d1 abbd 7cb9 253d bdf3 3cbd 4873 25bd
00000290: 8d51 b73c 60c5 d2bc 8763 dd3c b8c2 873d
000002a0: c607 033d c144 5bbc 747b 93bd 0747 eabc
000002b0: e074 c03c 599b b83d 61a4 be3c 5f89 bd3d
000002c0: 9af8 463d ac37 933c c0ce 9a3b 5924 6ebd
000002d0: a546 9b3d ce08 983d 3f5d 3f3c 7f37 2cbc
000002e0: 147d 9d3c f416 613d 75d0 1ebd d921 afba
000002f0: 0105 22bc bbe8 06bd 07c6 b3bc c923 8abd
00000300: 699c 953d a1e2 733d e952 90bd 93e4 37bd
00000310: 134f a1bd 9377 0ebd f84d d2bc 6063 60bd
00000320: ca76 2f3d 19f9 afbd 9cd5 9d3d 9166 a7bd
00000330: 578f 1b3c aa72 673d 52af 70bd 9a75 743d
00000340: 97b2 a63c 457e c0bd c373 0b3d 9b3b d0bc
00000350: 0a8b 7e3d 5d10 8bbc 8e9b 4d3d 6b2b 4a3d
00000360: 175d bf3c 925b 0ebd 90d6 c2bb aeef 8dbd
00000370: 9853 97bd 782b e73c 5b6a 96bd bf57 1abd
00000380: bef6 29bd b29e 4fbb 9747 033d fc93 9a3d
00000390: 6de2 b8ba 1126 873c 5274 0bbd 65e9 4fbd
000003a0: da07 b03c 55b3 12bd 64f4 323d 949b 8b3c
000003b0: bd6d b9bb ac18 dfbc 4757 0f3d f7b5 b73d
000003c0: fe18 953d a490 33bd 762d 903d 4cdd 7cbd
000003d0: a258 55bd 4de4 a43d 29e5 01bd f709 7cbd
000003e0: 14e5 5cbc 0e73 b03d ef4d 3d3d 66c9 f7bc
000003f0: e447 0c3c 855b b3bd be42 80bc 542f 313d

bias_ih_l0 f4 [512]
0.024095792 0.053769484 -0.00054554763 0.07201805 -0.043393884 -0.069551475 -0.059355963 -0.07195411
-0.054652184 -0.028780106 -0.06989662 -0.099357106 -0.067031726 -0.03406844 -0.026110126 0.0645901
-0.03531965 0.0722304 -0.034376867 -0.047574144 0.08043849 0.020473192 -0.0093677165 -0.045987934
0.010460429 0.014336079 -0.002502461 -0.019137768 0.058453344 0.003341667 -0.078001864 -0.0020375978
-0.06444634 0.0618908 0.09207393 0.0027496838 0.08439231 0.06581267 0.03323922 0.061164968
-0.045099635 0.074258186 -0.08242855 -0.049415328 0.01933045 0.021865724 0.060737416 0.051624026
0.040976156 -0.06062309 -0.02832625 -0.09790831 -0.081715524 -0.026013326 -0.06824776 0.014079252
0.0003833369 0.027983595 -0.05652151 0.04447076 0.045114618 -0.028101219 -0.08095945 0.054001007
0.006742731 0.0074975383 -0.057917234 -0.056445707 0.049885083 0.037298054 0.044513993 0.048727717
0.0637817 0.081673674 -0.083438575 -0.005744764 0.025065588 0.04252327 0.08039805 -0.06813551
0.06503227 -0.023137797 -0.059582952 0.014918808 0.027652664 0.025583792 0.085585296 0.04640632
0.021920482 0.0512254 0.0017456171 -0.031766437 -0.06517144 0.04433361 0.05799003 -0.0041544484
0.05398795 0.040515643 0.03985307 0.07406854 0.00014863105 -0.069655724 -0.048299365 -0.038467288
0.06496808 -0.02986606 -0.0107193375 0.07225924 -0.09195991 0.0238813 -0.022026872 0.009704541
-0.043168135 -0.025541602 0.06449141 0.018688709 0.04016566 -0.09367668 -0.06619749 -0.042962965
0.06766114 -0.08450501 -0.00973214 0.04169417 0.06007351 0.0035128351 0.05298033 0.07407063
-0.05547166 0.036349818 0.07883232 -0.06207641 -0.028562848 -0.06725605 0.063468456 -0.08212812
0.05797784 -0.03359803 0.05659889 -0.046829246 0.056231186 0.09648441 -0.086649224 -0.008639772
0.064483546 -0.01635878 0.07461986 0.054183986 -0.026907394 -0.062646404 0.08594068 -0.016101733
0.04560009 -0.038806614 0.07156913 0.09486359 0.077427335 -0.06434552 0.0757992 -0.06768611
-0.011863274 -0.08337923 -0.035863973 -0.03682476 0.06737583 0.024404496 -0.026753876 -0.068220854
-0.023177415 -0.07782974 0.068304256 -0.033002093 0.057408165 -0.0621142 -0.050022796 -0.006106535
-0.04055641 -0.015598729 -0.06868407 0.06573913 0.024596684 -0.09431264 -0.04029873 -0.016914144
0.047044497 0.04609347 0.021787887 -0.033392172 -0.035969175 0.065018624 0.052528515 0.038967367
-0.08488076 -0.087513186 0.008190351 0.0052052545 -0.035489205 -0.0051754285 -0.058966696 -0.018061122
-0.015533801 -0.051247224 -0.022483224 -0.038226783 -0.032649044 -0.016175214 -0.07653997 -0.07311184
0.03748017 -0.032944266 -0.060345933 0.051835846 0.018701186 -0.002684768 0.07876748 -0.044751152
-0.0026983232 -0.05818883 0.070494756 -0.043133657 -0.058236796 0.05842152 0.002893965 -0.0637608
-0.01234718 0.040256754 0.09743337 -0.046932906 0.006573603 -0.037799336 -0.02518222 -0.043176465
0.05524253 0.008387264 -0.070646636 0.088173956 0.01716964 -0.032011706 -0.06607582 -0.04281095
-0.06511756 -0.035302803 -0.027295172 0.029476145 -0.04612667 -0.06835733 0.011577094 0.02756401
0.0444767 0.0865948 0.06262008 0.08631259 -0.0001065587 -0.088312745 -0.08747872 -0.048315562
00000000: 8a64 c53c 643d 5c3d 1503 0fba 337e 933d
00000010: c9bd 31bd 0171 8ebd 3d1f 73bd ad5c 93bd
00000020: f8da 5fbd 42c4 ebbc f625 8fbd bd7b cbbd
00000030: ee47 89bd 598b 0bbd e7e4 d5bc d047 843d
00000040: 56ab 10bd 88ed 933d c2ce 0cbd 1bdd 42bd
00000050: efbc a43d 65b7 a73c 0d7b 19bc d85d 3cbd
00000060: 3862 2b3c e0e1 6a3c 5400 24bb cfc6 9cbc
00000070: c66c 6f3d deff 5a3b 71bf 9fbd 3889 05bb
00000080: 71fc 83bd 3581 7d3d 4291 bc3d 0a34 343b
00000090: e0d5 ac3d cbc8 863d d925 083d 1e88 7a3d
000000a0: 65ba 38bd ad14 983d 4dd0 a8bd ba67 4abd
000000b0: e45a 9e3c bf1f b33c ccc7 783d b773 533d
000000c0: 9dd6 273d eb4f 78bd 740c e8bc 2784 c8bd
000000d0: 785a a7bd e619 d5bc 7bc5 8bbd aaac 663c
000000e0: 9cfa c839 da3d e53c 1983 67bd f926 363d
000000f0: 1bca 383d 8734 e6bc 11ce a5bd 2930 5d3d
00000100: 21f2 dc3b e9ad f53b 9f3a 6dbd 9d33 67bd
00000110: 4d54 4c3d d8c5 183d 4e54 363d b796 473d
00000120: fb9f 823d 8744 a73d d8e1 aabd 933e bcbb
00000130: 5956 cd3c e12c 2e3d bca7 a43d a18a 8bbd
00000140: a42f 853d 7a8b bdbc 410d 74bd 046e 743c
00000150: d787 e23c 1a95 d13c 5847 af3d 8e14 3e3d
00000160: 9592 b33c bad1 513d 31cd e43a 861d 02bd
00000170: 9b78 85bd 2997 353d f486 6d3d 0a22 88bb
00000180: 7822 5d3d bbf3 253d f93c 233d 3fb1 973d
00000190: d8d9 1b39 a9a7 8ebd 8ed5 45bd e08f 1dbd
000001a0: fc0d 853d aba9 f4bc 29a0 2fbc a7fc 933d
000001b0: 7a55 bcbd b7a2 c33c b371 b4bc ccff 1e3c
000001c0: 12d1 30bd 9f3c d1bc 1314 843d 1019 993c
000001d0: bf84 243d 8fd9 bfbd 8d92 87bd eff9 2fbd
000001e0: ec91 8a3d f610 adbd 8e73 1fbc 82c7 2a3d
000001f0: a40f 763d 9837 663b e701 593d 58b2 973d
00000200: 4036 63bd 8ce3 143d d772 a13d d543 7ebd
00000210: a2fc e9bc 8abd 89bd c0fb 813d ca32 a8bd
00000220: 2c7a 6d3d 179e 09bd 3dd4 673d 06d0 3fbd
00000230: ac52 663d 9e99 c53d 2675 b1bd d58d 0dbc
00000240: f30f 843d d902 86bc 4cd2 983d 07f0 5d3d
00000250: e56c dcbc c24c 80bd ab01 b03d c8e7 83bc
00000260: 29c7 3a3d aff3 1ebd d692 923d d847 c23d
00000270: 3992 9e3d 96c7 83bd 9c3c 9b3d 049f 8abd
00000280: 2d5e 42bc bbc2 aabd 1ae6 12bd 8fd5 16bd
00000290: 57fc 893d f0eb c73c f22a dbbc 60b7 8bbd
000002a0: 90de bdbc 3365 9fbd 1ae3 8b3d 342d 07bd
000002b0: d324 6b3d 766b 7ebd b4e4 4cbd 5419 c8bb
000002c0: 7a1e 26bd d091 7fbc 3caa 8cbd 3da2 863d
000002d0: fc7e c93c fc26 c1bd 4810 25bd 888f 8abc
000002e0: bbb1 403d 82cc 3c3d 837c b23c 3bc6 08bd
000002f0: 6a54 13bd 7c28 853d 2428 573d 3f9c 1f3d
00000300: f7d5 adbd 1d3a b3bd d230 063c d790 aa3b
00000310: 215d 11bd a496 a9bb 1087 71bd ebf4 93bc
00000320: 7c81 7ebc 9ce8 51bd bd2e b8bc b093 1cbd
00000330: 01bb 05bd e281 84bc fdc0 9cbd a9bb 95bd
00000340: cf84 193d 91f0 06bd 4c2d 77bd d351 543d
00000350: 3b33 993c eff2 2fbb d850 a13d fc4c 37bd
00000360: 5ad6 30bb 6957 6ebd 8e5f 903d ebac 30bd
00000370: b589 6ebd 674b 6f3d ada8 3d3b 0695 82bd
00000380: d44b 4abc 44e4 243d 268b c73d b83c 40bd
00000390: 6167 d73b 7ad3 1abd f14a cebc ced9 30bd
000003a0: fe45 623d bc6a 093c 2faf 90bd 8c94 b43d
000003b0: 58a7 8c3c b51e 03bd c252 87bd 895a 2fbd
000003c0: 5b5c 85bd ac99 10bd 209a dfbc f577 f13c
000003d0: 52ef 3cbd eefe 8bbd daad 3d3c ebcd e13c
000003e0: 332d 363d 9d58 b13d f53e 803d a8c4 b03d
000003f0: 4478 dfb8 50dd b4bd 0b28 b3bd 8ae6 45bd
