Single Battery Model/5. CNN-LSTM Models/model_B0006_charge_std.pth (torch, 432658 bytes, 15 tensors)

weight f4 [64, 3, 3]
000000 a3 b2 46 3e fe 06 24 be c9 c2 27 3e ef 7a a4 be
       0.19404082 -0.16018292 0.16382898 -0.3212504
000010 cf b8 5a be 6a 7c 4a be 22 cc d6 bc 32 12 4d be
       -0.21359561 -0.19774023 -0.026220385 -0.20026472
000020 a8 f5 29 3e 01 49 3c be 02 d2 28 3e ce 8e 23 be
       0.16597617 -0.18387224 0.16486362 -0.15972444
000030 02 fa 13 be 47 f0 08 3e 61 f7 83 bc 8e 8e 06 be
       -0.14450839 0.13372909 -0.01610917 -0.13140318
000040 bd e6 d6 3c 18 93 5b bd 69 8f cf bd f5 93 05 be
       0.026233071 -0.053607076 -0.10134775 -0.13044722
000050 ee e3 18 be 02 cc 97 3e 1c 09 b0 bd c4 4c 82 3e
       -0.14930698 0.29647833 -0.085954875 0.25449193
000060 25 19 19 3e a7 11 cb 3d 6d d9 6f be 11 69 9a 3e
       0.14950998 0.09915476 -0.23422785 0.30158284
000070 1b 05 66 3e 11 29 a0 be 84 27 1b be 41 fa 74 3d
       0.22462885 -0.3128133 -0.15151793 0.059808973
000080 f2 fd 88 3e a2 b7 5f be 51 5b b0 bc dd 91 8d be
       0.26756245 -0.21847394 -0.021527918 -0.27650347
000090 bc 2f 52 be 77 90 08 bc d3 00 b1 bd 0e 70 20 3e
       -0.20526022 -0.008335224 -0.08642735 0.15667745
0000a0 f9 98 1b be e5 8f 6c bd f9 e4 c2 bd 9c 27 22 3e
       -0.15195073 -0.057754416 -0.09516329 0.15835422
0000b0 c3 cf 7a 3e 4c 06 40 3e b2 81 87 bc de b6 98 3e
       0.24493317 0.18752402 -0.016541336 0.29827017
0000c0 a6 89 8f 3e fe 33 fb bd a1 73 6a 3e 57 1d 81 3e
       0.28034705 -0.12265776 0.22895671 0.25217697
0000d0 7d d3 64 3d 59 9c 81 be 21 f5 1b bd 94 1a 4d be
       0.055865753 -0.25314596 -0.03807557 -0.2002967
0000e0 a3 c9 de bd be a7 8f 3c ef 28 01 3e d2 b1 03 3e
       -0.10878303 0.01753604 0.12613271 0.12860802
0000f0 6b f3 55 be dd 93 c7 bd 19 80 e9 bd fc 6d 91 be
       -0.20893638 -0.097449996 -0.11401386 -0.28404224
000100 0c 3e 2f be e8 b0 a4 3e e1 95 71 3e ea ed 99 be
       -0.17113513 0.3216622 0.2359233 -0.30064327
000110 b5 d0 71 be 63 14 12 bb 4c 89 9f be 14 a4 6b 3e
       -0.23614772 -0.0022289983 -0.31159437 0.2301181
000120 ae a5 99 3e 03 1f fd 3a 52 59 b1 3e 42 8c 71 be
       0.30009216 0.001931161 0.34638458 -0.2358866
000130 9d 17 34 bd a0 10 0f be c1 c9 a6 bd 26 94 d6 3d
       -0.043967832 -0.13971186 -0.0814395 0.10477476
000140 46 28 28 bd 56 9f 80 be da 5c 73 3e 17 aa eb 3d
       -0.041054033 -0.25121564 0.23765889 0.115070514
000150 8b e4 55 be 49 0b a8 3b 5d 14 1b be 19 19 40 3e
       -0.20887963 0.0051282984 -0.15144487 0.18759574
000160 81 0b 71 3d 97 21 9f 3e 11 af 36 3e df b0 9f be
       0.05884886 0.31080315 0.1784022 -0.3118963
000170 6a 9c 79 3d 2c e5 57 3e c1 77 78 be cf 26 15 3e
       0.060940184 0.21083516 -0.24264432 0.14565586
000180 7c 5f 7c 3e 49 8f 99 3c f9 9e 4c 3e b1 fd 4c 3e
       0.246458 0.018745081 0.19982518 0.2001865
000190 5f fb 62 be e0 f2 9a 3e b6 75 27 be d2 a8 2f 3e
       -0.22166203 0.30263424 -0.16353497 0.17154244
0001a0 95 35 84 be de 71 8e be 86 5c 96 3e 38 33 32 3d
       -0.2582213 -0.2782125 0.29367465 0.043505877
0001b0 8e 44 57 3e f2 de 15 be 82 ce 96 3d a6 63 7d bd
       0.21022245 -0.14635828 0.07363607 -0.06186261
0001c0 8a e0 9e bd b3 96 7f bd 2a db 8e 3e cd 97 cc bd
       -0.07757671 -0.062399577 0.27901584 -0.09989891
0001d0 95 01 1c 3c 44 65 d5 bd 76 ad 4d be e8 8c 94 be
       0.009521862 -0.104197055 -0.20085701 -0.29013753
0001e0 a6 d1 de bd db fc 45 be ab 42 9b be b0 33 c1 bd
       -0.10879831 -0.19334738 -0.303243 -0.09433687
0001f0 07 ab 2f 3e 84 bb 90 3e c4 78 1f be 33 cc 9c be
       0.17155086 0.28268063 -0.15573412 -0.30624542
000200 8c d8 dc 3c 4e 8e 77 3e 66 d2 93 3e 69 a4 31 be
       0.026958726 0.24175379 0.2887146 -0.17347874
000210 00 92 b6 bb 3d 37 ec bd ae 7c bf bc cc f0 a8 be
       -0.005571604 -0.11533973 -0.023374882 -0.32996213
000220 8a 61 04 bd 68 ab 6b 3e 26 dd bb 3d 8d d1 8a be
       -0.032319583 0.23014605 0.0917304 -0.27113
000230 c5 bc a8 3e 05 38 3f 3c 34 5a 29 be 01 00 38 3e
       0.3295652 0.011671071 -0.16538316 0.17968751
000240 31 64 81 bc 23 1a 94 3e e4 dc ad bd 99 78 3c be
       -0.015794845 0.2892619 -0.08489397 -0.1840538
000250 55 00 9c be 0d 76 89 3e 27 2d 32 be 9a d8 c1 3c
       -0.30469003 0.26847878 -0.17400037 0.023662854
000260 09 c7 99 3e f3 f0 35 be 1e cf f7 3d c9 df 25 3e
       0.30034664 -0.17767696 0.12100051 0.16198649
000270 34 8f e7 bd 71 73 30 be 63 4d 0d 3e 3a 8e 9c be
       -0.11306611 -0.17231537 0.13799052 -0.3057726
000280 53 48 22 3d 04 35 4a 3d 32 b1 88 3e ab d4 a6 be
       0.039619755 0.049366966 0.2669769 -0.32584128
000290 94 4f 16 3e b6 36 91 be 02 ea 1e 3d f5 63 86 be
       0.14678794 -0.28362054 0.038797386 -0.26248136
0002a0 f7 ab 84 3e a1 63 6c 3d 40 0c 94 3d 5b 85 9f 3e
       0.2591245 0.0577122 0.07228899 0.3115643
0002b0 aa 56 d9 bd 15 2d 14 3e 67 c1 13 be 1e 40 19 3d
       -0.10612233 0.14470322 -0.14429246 0.037414663
0002c0 66 5a e8 3d 46 69 8a be f0 bf 20 3e ea 72 25 3e
       0.11345367 -0.27033442 0.15698218 0.16157117
0002d0 91 cc 9c 3e e3 41 bc 3e b4 c8 2e be 51 27 27 3e
       0.30624822 0.36769018 -0.1706875 0.16323592
0002e0 71 89 70 bd 92 ab 31 3d 5f db db bd 94 6a 8f be
       -0.058724824 0.043376513 -0.10735201 -0.28011
0002f0 d1 b6 3b 3e 0f c7 65 be d8 fb 5e be 5c a0 83 bc
       0.18331458 -0.22439216 -0.21775758 -0.016067676
000300 35 83 6c 3e 27 02 86 3e b7 75 4b bd 1e 5e 27 be
       0.23096927 0.26173517 -0.04967281 -0.16344497
000310 c8 11 86 3e 83 83 89 be 5e 4f 9c be 3c f8 b8 bd
       0.2618544 -0.26858148 -0.30529302 -0.09031722
000320 35 f9 22 3e e8 59 06 be ec a2 c7 bd 8a 2f bc 3c
       0.15915377 -0.13120234 -0.09747872 0.022971887
000330 ae 94 c2 3d 86 fc cd bc 6e 2e 5e 3e 9c d5 97 3e
       0.09501015 -0.025144827 0.21697399 0.2965516
000340 b1 a9 a0 bd 42 26 8a bd 43 22 84 3d 24 33 4c bc
       -0.07844866 -0.06745578 0.064518474 -0.012463365
000350 a7 4f 93 be 36 6c 1b 3e 12 2f ad 3e b6 8b 52 be
       -0.28771707 0.15177998 0.33824974 -0.20561108
000360 6a d9 be bd 03 9a 26 3e 71 0d be bc e6 4e 1a 3e
       -0.09318812 0.16269688 -0.023199769 0.1506916
000370 5c cf 2d bd c8 0f 02 be 5e 28 99 bd ab f9 82 3d
       -0.04243408 -0.12701333 -0.074784026 0.06395277
000380 83 40 c4 3d 10 97 f0 3d 52 6f b1 3e 88 41 07 3e
       0.09582617 0.11747563 0.34655243 0.13208592
000390 f0 07 3d be ef 30 c5 3c 96 5c 2c 3e 59 42 59 be
       -0.18460059 0.024071185 0.16832194 -0.21216716
0003a0 c2 65 3f 3e 10 46 42 bd 4f 99 f2 3d 13 b7 42 be
       0.18691161 -0.047430098 0.118456475 -0.1901515
0003b0 6a 82 ff 3d 81 23 9e 3e 95 ac 37 3e bb a5 1c 3e
       0.124760464 0.30886462 0.17936929 0.15297596
0003c0 f3 39 4b 3e ef f7 a6 3e 34 94 16 3e 37 bd bc bd
       0.19846325 0.32611033 0.14704973 -0.09215777
0003d0 4b 88 e0 3d d6 d0 9d be 4f ac ae 3e f1 14 60 bd
       0.10963496 -0.30823392 0.34115836 -0.05470747
0003e0 8e 3b 82 be ab c0 28 be 2a e6 a5 be 91 4e 8c bd
       -0.25436062 -0.16479747 -0.32402164 -0.06850923
0003f0 13 cd 5a 3e 3a a1 7e 3d 22 5e 4a 3e e6 8e 77 bd
       0.21367292 0.062165476 0.19762471 -0.060439013

bias f4 [64]
000000 ef 0e c1 3d ac 79 66 3e 1e 87 72 be df d7 05 be
       0.094266765 0.22507352 -0.23684356 -0.1307063
000010 38 3c 2c be ce ee 80 be a2 9b 20 3e ed f3 24 be
       -0.16819847 -0.25182194 0.15684369 -0.16108675
000020 70 07 7f be 36 e3 b2 bd 58 58 64 bc 0c 7b 08 bd
       -0.24905181 -0.08734743 -0.013937078 -0.03332047
000030 aa 7f 9b bd 82 84 8d 3e 4f 18 a7 3e 31 66 1e 3e
       -0.07592709 0.27640158 0.32635733 0.1546867
000040 c9 2a 81 be c7 97 35 3e f5 06 55 be 5a 08 40 3e
       -0.25227955 0.1773368 -0.20803435 0.18753186
000050 66 39 90 be 1a b8 1e 3e fc d0 42 bd 21 d9 89 be
       -0.28168792 0.15499917 -0.047562584 -0.2692347
000060 59 66 5f 3e 82 c7 7c be 36 09 4f 3e 82 a3 49 be
       0.21816386 -0.24685481 0.20218357 -0.1969128
000070 ea b3 f8 bd 4b 52 5d 3d 16 ec 98 3e 9c b8 0d bd
       -0.12143691 0.05403356 0.2986762 -0.034599885
000080 b9 31 61 3e 7b 93 3a be 35 51 c5 bd db 27 4a be
       0.21991624 -0.18220322 -0.0963463 -0.19741766
000090 eb 5a 82 3e 98 2c c8 bd 6e 61 aa 3d 48 f8 a4 be
       0.2545999 -0.097741306 0.083193645 -0.32220674
0000a0 31 1b 76 3e 00 06 69 be 71 08 56 be e1 39 00 3e
       0.2403381 -0.22756195 -0.20901658 0.12522079
0000b0 e6 cb 96 3e ed 89 40 bd 8a d1 b5 be d9 15 4e 3e
       0.29452437 -0.047006536 -0.35511428 0.20125522
0000c0 5a 72 47 3e a0 3a 66 3e be 04 7c 3d ad e8 46 3e
       0.19477215 0.22483301 0.06152796 0.19424696
0000d0 09 4b 10 be 48 a3 89 be 5f 03 1b be 65 d7 95 be
       -0.14091124 -0.26882386 -0.15138005 -0.29265895
0000e0 af 18 3c 3e 3d 77 77 3e e9 47 76 3e ea 81 61 bd
       0.18368791 0.2416658 0.24050869 -0.055055536
0000f0 f7 2f 8c 3e 98 1b f7 bd 4b 21 80 be e6 e2 53 3e
       0.27380344 -0.1206581 -0.250254 0.20692024

weight f4 [32, 640]
000000 54 93 09 3d d3 2e 53 3a b4 c5 9a 3c 4c 3e 15 bd
       0.03358777 0.00080559886 0.0188931 -0.036436364
000010 a2 c3 f8 3c 46 35 b2 bb 0d 29 23 bd 78 53 a3 3b
       0.030366722 -0.0054384796 -0.03983407 0.0049843155
000020 90 00 31 39 4b d2 17 bd 61 0a 07 bd c4 8b 80 3c
       0.00016880245 -0.037065785 -0.032968882 0.015691645
000030 0b 31 2b bd 6c 0f a8 bc 3a 34 d4 b9 94 46 f3 bc
       -0.041794818 -0.020515166 -0.00040474703 -0.02969674
000040 2d cd 23 bd 10 c0 b4 bc f9 ce c0 3c 98 da de bc
       -0.039990593 -0.022064239 0.023536192 -0.027203843
000050 99 e9 48 3d 89 66 26 3d 60 92 f0 3b 7d 9b 70 bc
       0.0490509 0.04062513 0.007341668 -0.014685509
000060 86 23 ea 3b 81 f9 05 bb 22 27 25 bc 7e d4 9b 3c
       0.007145348 -0.0020442905 -0.010080131 0.019022223
000070 a3 0e 99 ba db df 47 3d 47 9f 74 3c 21 a5 05 bd
       -0.0011677336 0.04879747 0.014930553 -0.032628182
000080 47 16 25 3b 2b ff 0c bc 6b 04 ed bc ab 59 24 bd
       0.002519028 -0.008605759 -0.02893277 -0.040124577
000090 40 91 56 3c 0d 9c f1 3c 4c ba b9 3b 27 a5 64 3d
       0.013096154 0.029493356 0.0056679603 0.055821564
0000a0 c0 fc fa 3c 21 55 2b 3d df 41 36 3d f4 47 8e bc
       0.030638099 0.041829232 0.044496413 -0.017368294
0000b0 a1 31 15 3d 83 47 27 3d aa 67 45 3d 82 a6 11 3d
       0.036424283 0.040839683 0.048194565 0.035559185
0000c0 ec cd ab 3b 35 91 e6 3c bf fe 2d bc 57 23 07 bc
       0.0052430537 0.028145412 -0.010619818 -0.008248172
0000d0 29 59 b0 3c c4 54 b0 bc 37 bb b2 ba 01 37 79 3c
       0.02152689 -0.021524794 -0.0013636117 0.015210868
0000e0 aa 52 2b 3c 39 03 30 bc 3d 9e e1 3c 04 8f 58 bc
       0.01045672 -0.010742956 0.027541274 -0.013217691
0000f0 e5 47 3f bd 02 80 01 bd 1b 0d a1 bc bf 95 48 3c
       -0.046699423 -0.03161622 -0.01965957 0.0122427335
000100 ff 48 33 3b 3f 47 c4 3a 65 46 e3 ba 7b c0 b7 bc
       0.0027356741 0.0014974846 -0.0017339705 -0.022430649
000110 79 4e 96 3c 44 55 69 bb 5d ab 05 3d 24 1b 41 bc
       0.018347966 -0.00356038 0.032634128 -0.011786256
000120 95 66 06 3d 6d 4f 13 3d 8e cd 0d 3b ba 10 16 3c
       0.032812674 0.03596442 0.0021637413 0.009159261
000130 89 f1 a6 bb 05 50 c7 bc 36 28 d1 bc f9 b6 d6 bc
       -0.005094711 -0.024330148 -0.02553187 -0.026210295
000140 17 2c 60 bc 02 5f 78 3b ad 2a 2a 3d 49 35 92 bc
       -0.013682387 0.0037898426 0.041544605 -0.017847674
000150 91 60 e5 3c c9 cc b5 bc f4 4d 05 3d 74 0a 97 3c
       0.028000148 -0.022192376 0.032545045 0.018437602
000160 fa d6 f5 bc 30 82 cf bc f4 32 d8 3c d8 53 70 3b
       -0.030009735 -0.025330633 0.026391484 0.0036671069
000170 f1 55 52 bc 19 4c e8 bc 24 c0 f0 bc 9d 5a 0e 3d
       -0.012837873 -0.028356599 -0.029388495 0.034754384
000180 90 be 8b bc 55 80 bd bc 93 bd ca 3c 69 38 6b 3c
       -0.01705864 -0.023132483 0.0247486 0.014356711
000190 31 6e 96 bc 50 ae 90 bc 48 f2 7e bb ce ef 21 3d
       -0.01836309 -0.017661244 -0.0038901735 0.039535336
0001a0 8f 3e 4d 3d 2a 0f 31 3d 39 01 a9 ba da dc 93 bc
       0.05010849 0.043227352 -0.0012894041 -0.018049646
0001b0 c7 29 20 3d 7a 6d 19 3d 36 6f 36 3c cd f2 b4 bc
       0.039102342 0.03745792 0.011134913 -0.022088433
0001c0 90 0a 92 bc 61 48 45 bb 09 af 4e 3b 11 ad 8e 3c
       -0.017827302 -0.0030102956 0.0031537435 0.017416509
0001d0 21 8d 11 3d 9f 50 92 bc 9e d2 26 3d 95 57 47 3d
       0.03553498 -0.017860709 0.040728204 0.04866751
0001e0 a6 7a 30 3d da 40 6c 3c 3f fd b3 3c 9f e9 2a 3b
       0.043085717 0.014419759 0.021971343 0.002607919
0001f0 0c 98 a0 bb 15 2c 92 3c d6 39 22 3d 76 e2 8c bb
       -0.004900938 0.017843286 0.039605938 -0.004299457
000200 27 5b 92 3b 41 c4 48 3d e5 fe cd bc 3e d8 97 bc
       0.0044664326 0.049015287 -0.025145957 -0.01853573
000210 48 42 d1 3b c1 16 98 bc 22 c8 b7 bc 59 55 1e bd
       0.006386075 -0.018565537 -0.022434298 -0.038655613
000220 e9 6f a1 3c e5 fc 3e 3b 16 03 fa bc f5 37 2c bd
       0.019706683 0.0029142436 -0.03051905 -0.042045552
000230 0b 2a 4d bd fb 4f 41 bd 0e f2 50 3b bb 8b c4 3b
       -0.050088923 -0.047195416 0.0031882557 0.0059981025
000240 e9 8c f6 bc 2a 54 4c bd a0 c6 6f 3b 97 74 97 3c
       -0.030096488 -0.049884953 0.0036586896 0.018488212
000250 2f ae e2 bb 1d 76 49 3a af 28 7f 3c 26 48 69 3c
       -0.006917737 0.0007685142 0.015573665 0.014238393
000260 a8 ab 0b bd 07 20 36 bd e6 c2 2a bc 55 0c fb bc
       -0.03409925 -0.044464137 -0.010422444 -0.030645529
000270 fc 1a 37 bd 3e 04 b8 3c 8f 09 b3 3c f7 72 13 bc
       -0.04470347 0.02246296 0.021855144 -0.008999578
000280 66 eb f7 3c c8 f2 8f 3c c1 44 3f bc 26 86 f3 3c
       0.030263614 0.017571822 -0.011674107 0.029727053
000290 8b a9 a8 bc 2f 45 93 3b e6 e3 4b 3d 8a 7b 46 3d
       -0.020588657 0.0044943313 0.049777888 0.04845766
0002a0 9b 62 00 3b f4 bd 0d 3c f7 27 bb bc 9c 7a 36 bd
       0.0019590023 0.008651245 -0.022846205 -0.044550523
0002b0 26 5f 96 3a a1 0a 34 bd 07 ce 1f bc f3 5c 68 bc
       0.0011472448 -0.04395545 -0.009753711 -0.014182317
0002c0 3f cd 31 bd fa 79 30 bd eb 51 7c bc 34 2d d7 bc
       -0.04340863 -0.043085076 -0.01540039 -0.026266672
0002d0 45 e7 db 3c af a6 9a 3c a4 ea 53 bc a6 1f d3 bb
       0.026843676 0.018878309 -0.012934361 -0.006442982
0002e0 6e 86 14 3b 3b b9 8a 3c 26 62 ac bc 00 4c 97 3c
       0.0022663134 0.016934028 -0.021042895 0.018468857
0002f0 7e 06 51 bc 7c a1 7d 3c 13 0e 81 3c ca 7c 18 bd
       -0.0127578955 0.015480395 0.015753781 -0.037228383
000300 d0 55 37 bd 5b e3 36 bd dc b0 51 bc 00 b4 97 bc
       -0.04475957 -0.044650417 -0.012798514 -0.018518448
000310 ce 49 26 3b 1b 68 4f 3c f5 a4 f4 3b 75 1d 20 bd
       0.002537358 0.012659098 0.0074659535 -0.039090592
000320 3c 0d 16 3d 7c c9 c1 bc 8f 7f 4b bc b7 1e eb bb
       0.036633715 -0.023655646 -0.012420549 -0.0071752924
000330 c7 51 d8 bc 6a d4 0d bc 36 fb 3e 3d ae c6 13 bc
       -0.026406182 -0.0086566005 0.046626292 -0.009019537
000340 b0 45 1b 3c d8 55 0f bc cc 24 df 3c c3 67 69 bc
       0.009477064 -0.008748494 0.027239226 -0.01424593
000350 37 9f bd bb fb 9a cd bc 37 fd 4d bc 44 e8 af ba
       -0.005786802 -0.025098315 -0.012572578 -0.0013420661
000360 af e0 69 3c 02 ba 1e bd 59 a3 99 bc ec 1b ff bc
       0.01427476 -0.03875161 -0.018754648 -0.031141244
000370 57 2c 9d 3b c5 6d 81 bc 3f 21 51 3d 31 ac 09 3d
       0.0047965455 -0.015799413 0.051057097 0.03361148
000380 07 f2 04 bc 33 24 c1 bc 59 fd 5c 3d 69 69 ba bc
       -0.008114344 -0.023576831 0.05395255 -0.022755342
000390 b3 96 c4 bc 4a 84 2e 3d 72 4c d4 bc d5 82 38 3d
       -0.02399764 0.04260663 -0.025915358 0.045046646
0003a0 7a 88 d2 3c 13 92 70 3c a5 c7 99 ba 17 3c e8 3c
       0.025699843 0.014683264 -0.0011732472 0.028348966
0003b0 6f 79 0e 3b 29 cd 2c 3c 21 74 35 3d 99 84 2a 3d
       0.002173986 0.010546961 0.044300202 0.04163036
0003c0 69 60 b3 3c ac ce 35 bd 07 a3 b1 3c bf 76 05 bd
       0.021896558 -0.04438655 0.021684183 -0.03258395
0003d0 04 f2 56 bb 0e 07 b8 3c a9 3e 93 3b 41 a2 36 bd
       -0.003279806 0.022464301 0.0044935537 -0.04458833
0003e0 4b fa 59 bd 14 99 2e bd 5d fc 14 3d cb b6 0a bc
       -0.053217214 -0.042626455 0.036373485 -0.008466433
0003f0 71 12 7b 3c 1a 55 9e 3c d7 27 17 3d 93 0f a0 3c
       0.015324221 0.019327689 0.03690323 0.019538676

bias f4 [32]
000000 c9 3c 43 bd 71 26 ca bc 91 20 f9 bc ba aa a7 3c
       -0.04766539 -0.024676533 -0.030411037 0.020467151
000010 dd ef a7 3c b5 9c 18 3d 98 dd 00 3d d2 35 4f bc
       0.020500118 0.037258822 0.03146133 -0.012647109
000020 4c 8c ec 3a 72 e7 ec 3c c0 33 4a bc bf 4a 6b 3b
       0.0018047183 0.028918955 -0.01234144 0.0035902706
000030 d1 ba 08 bd 0e b6 6a bc 5c aa 13 3d 0c 49 82 3b
       -0.033381287 -0.014325632 0.03605114 0.003975993
000040 87 92 25 3c 98 06 d7 bc 46 db 03 bd 8d 51 08 bd
       0.010105736 -0.026248261 -0.032191537 -0.033280898
000050 c7 32 26 3d 61 15 f9 3c e7 38 94 bb 07 92 04 3d
       0.04057577 0.030405702 -0.004523385 0.032365825
000060 b0 35 a6 3c 96 00 4c 3a fd 6a 73 3c a6 57 72 bc
       0.020289272 0.000778207 0.014857051 -0.014791405
000070 58 df f7 3c 6e 0b 08 3d 04 95 f1 3b c2 c4 37 bd
       0.030257866 0.033214025 0.0073725004 -0.044865377

weight f4 [640]
000000 1a 82 7f 3f 43 7a 80 3f 15 3f 7d 3f 49 71 80 3f
       0.99807894 1.0037311 0.9892438 1.0034572
000010 84 64 7d 3f 6b 58 81 3f 3a f4 7e 3f f9 39 7c 3f
       0.989815 1.0105108 0.9959141 0.9852596
000020 cd 04 7f 3f 4d a2 81 3f 08 ee 7e 3f 59 31 7f 3f
       0.996167 1.0127655 0.99581957 0.99684674
000030 98 24 80 3f 4a 4b 7f 3f fa 60 80 3f 63 7c 80 3f
       1.0011168 0.99724257 1.0029595 1.003796
000040 fe 1e 80 3f 7c b5 80 3f 62 d1 7f 3f cd d0 7c 3f
       1.0009458 1.0055385 0.9992887 0.98756105
000050 b0 d5 7e 3f 87 a8 80 3f 5f 56 7f 3f ac 7c 7d 3f
       0.9954481 1.005143 0.99741167 0.9901836
000060 31 d7 7c 3f 86 f5 80 3f 64 4a 81 3f ac 96 80 3f
       0.98765856 1.0074928 1.0100827 1.0045981
000070 b1 a6 81 3f 4e 16 81 3f 9c 5f 80 3f 31 d9 7e 3f
       1.0128995 1.0084932 1.0029178 0.9955016
000080 7e cd 7e 3f 0a 0e 7d 3f 3e 7d 80 3f eb 86 80 3f
       0.99532306 0.98849547 1.0038221 1.0041174
000090 84 db 7e 3f 17 4d 7e 3f 5e 9a 7d 3f a8 94 81 3f
       0.99553704 0.9933638 0.9906367 1.0123491
0000a0 08 1c 81 3f 3e 34 7f 3f bc d2 81 3f 2c 0b 7e 3f
       1.008668 0.9968909 1.0142436 0.99235797
0000b0 47 1b 7e 3f 6f 2f 7e 3f 1d d6 7f 3f 59 02 7f 3f
       0.9926037 0.9929113 0.99936086 0.9961296
0000c0 52 9d 7d 3f 5e 18 7d 3f b8 51 80 3f 00 b2 7d 3f
       0.99068177 0.98865306 1.0024939 0.9909973
0000d0 10 be 7f 3f cf 20 7f 3f cf 18 7e 3f 0d ae 7e 3f
       0.9989939 0.99659437 0.99256605 0.9948433
0000e0 ca 0f 7e 3f 1c e2 7f 3f e0 21 80 3f a0 23 7f 3f
       0.9924284 0.9995439 1.0010338 0.99663734
0000f0 f5 2e 80 3f 51 fa 7f 3f 07 5c 80 3f 8e 28 7f 3f
       1.001433 0.9999133 1.0028085 0.99671257
000100 5e ff 7f 3f a0 94 7f 3f 62 12 80 3f 46 47 80 3f
       0.99999034 0.9983616 1.000561 1.0021751
000110 48 09 7d 3f db 8d 7f 3f eb b1 7e 3f 0d 11 81 3f
       0.9884229 0.9982583 0.9949023 1.0083328
000120 77 dd 7f 3f e8 ca 7f 3f f4 c8 7d 3f ee a1 7d 3f
       0.99947304 0.99918985 0.99134755 0.9907521
000130 d5 ad 7f 3f 54 c8 7f 3f 63 cb 82 3f 78 58 82 3f
       0.9987462 0.9991505 1.0218319 1.0183249
000140 9a 3f 7f 3f 2a ec 80 3f 1b 8c 80 3f 52 9e 7c 3f
       0.99706423 1.0072072 1.0042757 0.9867908
000150 9d 4f 81 3f 9f 9e 7f 3f 5b bf 82 3f ad eb 80 3f
       1.0102421 0.9985141 1.0214647 1.0071923
000160 0e 36 7e 3f 68 e4 7f 3f c5 1b 7e 3f 00 0b 81 3f
       0.9930123 0.99957895 0.9926112 1.0081482
000170 a6 32 81 3f d9 2d 7d 3f ab 00 7f 3f 6f aa 80 3f
       1.0093582 0.9889808 0.99610394 1.0052012
000180 79 55 81 3f c2 90 80 3f 13 aa 7f 3f ab 67 80 3f
       1.0104209 1.0044177 0.9986889 1.0031637
000190 64 b3 7c 3f 65 4c 7b 3f 71 82 80 3f 30 24 7f 3f
       0.9871123 0.98163444 1.0039808 0.9966459
0001a0 9a ed 7f 3f f0 ab 80 3f aa c7 7c 3f 93 79 7e 3f
       0.99971926 1.0052471 0.98742163 0.9940426
0001b0 1a f5 7c 3f 81 ad 7e 3f 5e 18 80 3f 00 ea 7d 3f
       0.98811495 0.99483496 1.0007436 0.9918518
0001c0 90 ba 80 3f 33 1f 80 3f 24 f6 7e 3f 76 69 80 3f
       1.0056934 1.0009521 0.9959433 1.0032184
0001d0 4c 72 7e 3f bb 14 7f 3f 2b fa 7d 3f d0 57 7e 3f
       0.99393153 0.9964101 0.9920985 0.9935274
0001e0 5a f9 7f 3f f5 c1 7f 3f f5 b8 7f 3f 58 7d 7f 3f
       0.99989855 0.9990533 0.998916 0.99800634
0001f0 fd 4e 81 3f 15 05 80 3f 2d 86 80 3f 62 ce 7f 3f
       1.010223 1.0001551 1.0040947 0.9992429
000200 96 86 7f 3f eb 81 7c 3f 6a 80 7e 3f b5 ff 7d 3f
       0.99814737 0.9863574 0.99414694 0.992183
000210 67 2b 81 3f a4 30 7f 3f fb 9d 80 3f 83 25 81 3f
       1.009137 0.99683595 1.0048212 1.0089573
000220 9d 91 80 3f 74 e9 7f 3f 91 11 7f 3f ea ea 83 3f
       1.0044438 0.99965596 0.9963618 1.0306065
000230 7c 24 80 3f e9 6b 80 3f 9d 84 82 3f f3 4e 82 3f
       1.0011134 1.0032932 1.019672 1.0180343
000240 95 1b 81 3f ec 89 81 3f 6c c1 80 3f 32 19 82 3f
       1.0086542 1.0120215 1.0059028 1.0163939
000250 ef 08 80 3f b7 35 7f 3f ca 5f 83 3f 4e c4 7f 3f
       1.0002726 0.9969134 1.0263608 0.9990891
000260 e4 6c 81 3f d1 94 82 3f e3 84 81 3f b8 ec 7d 3f
       1.0111356 1.0201665 1.0118679 0.9918933
000270 ef b8 82 3f f7 9d 7d 3f db 27 7e 3f dd ba 81 3f
       1.0212687 0.9906916 0.99279565 1.0135151
000280 24 53 80 3f 34 a4 7f 3f e7 b9 7f 3f 3d 6a 80 3f
       1.0025373 0.9985993 0.9989304 1.0032421
000290 44 04 7f 3f cf 66 7f 3f d5 aa 7f 3f 28 87 80 3f
       0.99615884 0.9976625 0.99870044 1.0041246
0002a0 13 25 7e 3f 46 31 81 3f ae cb 7f 3f 27 86 80 3f
       0.9927532 1.0093162 0.99920166 1.004094
0002b0 22 ee 7a 3f b8 8f 80 3f 8d f1 7d 3f c7 4a 80 3f
       0.9801961 1.004386 0.991967 1.002282
0002c0 7b d2 7f 3f d5 4b 7c 3f 34 44 7e 3f a6 7e 80 3f
       0.9993054 0.9855321 0.9932282 1.003865
0002d0 2c a3 80 3f 64 7b 7f 3f 4e dc 81 3f fd 14 80 3f
       1.0049796 0.99797654 1.0145357 1.0006405
0002e0 26 68 80 3f dc 4e 83 3f 5a f1 7c 3f 79 a6 81 3f
       1.0031784 1.0258441 0.98805773 1.0128928
0002f0 bc 75 80 3f 2a a8 7f 3f 9e 86 80 3f e7 fd 7f 3f
       1.003593 0.99865973 1.0041082 0.999968
000300 ab 88 7b 3f 72 55 80 3f bf b2 7e 3f c6 68 7d 3f
       0.98255414 1.0026076 0.99491495 0.98987997
000310 d7 9f 7f 3f a8 fb 7e 3f e0 ca 7d 3f 3a 0b 81 3f
       0.9985327 0.99602747 0.9913769 1.0081551
000320 77 a1 7f 3f d1 d5 7b 3f 43 00 7f 3f 6e 38 7e 3f
       0.9985575 0.9837313 0.99609774 0.99304855
000330 79 f9 7f 3f dc 6c 7d 3f db 23 80 3f c2 32 7f 3f
       0.9999004 0.9899423 1.0010942 0.99686825
000340 05 c5 7f 3f 76 34 81 3f 4d bc 7b 3f 64 1d 81 3f
       0.9991 1.0094135 0.983342 1.0087094
000350 2e 98 81 3f 71 92 81 3f 36 d7 7c 3f 0b e3 7d 3f
       1.0124567 1.0122815 0.98765886 0.99174565
000360 cc 26 80 3f 18 d7 80 3f b4 11 81 3f 0f 98 80 3f
       1.001184 1.0065641 1.0083528 1.0046405
000370 eb fa 7d 3f de 5e 7c 3f 46 c7 7e 3f 7e aa 80 3f
       0.99210995 0.98582256 0.9952282 1.005203
000380 04 63 7e 3f e2 dc 7d 3f 5d e8 7d 3f da fa 7d 3f
       0.99369836 0.99165165 0.99182683 0.99210894
000390 d2 a8 7e 3f bb de 7e 3f ee 1e 80 3f 94 48 80 3f
       0.9947635 0.9955861 1.0009439 1.0022149
0003a0 51 70 80 3f e7 0a 80 3f 05 97 7e 3f 77 e9 80 3f
       1.0034276 1.0003327 0.9944919 1.0071248
0003b0 10 72 7d 3f 91 b8 7e 3f 93 4f 7f 3f 0d 24 7b 3f
       0.9900217 0.99500376 0.99730796 0.98101884
0003c0 d7 15 7e 3f 13 fd 82 3f fd 1b 81 3f 4b 72 81 3f
       0.99252075 1.0233482 1.0086666 1.0113004
0003d0 f1 cb 82 3f 5e eb 7c 3f 5e dd 81 3f be af 83 3f
       1.0218488 0.9879664 1.0145681 1.0288007
0003e0 72 01 80 3f e8 2f 81 3f 55 4f 80 3f a7 d0 80 3f
       1.0000441 1.0092745 1.002421 1.0063676
0003f0 00 e5 81 3f 8a 2e 7e 3f 67 cc 80 3f 51 20 81 3f
       1.014801 0.9928976 1.0062379 1.0087987

bias f4 [640]
000000 c6 a9 91 bb 23 8f 7e bc 5e b1 e7 3a f3 85 a8 bb
       -0.0044452874 -0.015537056 0.0017676761 -0.005142921
000010 5d 7f fe bb 4a 8d ca 3b 4f 2a ea b8 dd 2e f4 3b
       -0.0077666477 0.0061813938 -0.0001116587 0.0074518756
000020 08 9f 2b ba bd 6f 23 3b 94 25 da ba 11 0d 5b bc
       -0.000654683 0.0024938427 -0.0016643279 -0.0133698145
000030 9c 45 72 38 fd 2c 7a 3a 14 5b 2b bb a7 c6 e9 3b
       5.7762125e-05 0.0009543447 -0.0026146816 0.007134277
000040 40 86 41 3a 58 08 51 bb 81 de 5b 39 ca c0 c2 bb
       0.00073823705 -0.0031895842 0.00020968357 -0.0059433924
000050 12 19 0e bb fd 4f a0 3b dc fe 8e 3b cc 98 ad 3b
       -0.0021682424 0.004892348 0.0043638777 0.005297756
000060 47 d2 40 3c bd 54 23 3c 86 51 a5 3b 78 ce df 3b
       0.011768884 0.009968934 0.0050451187 0.006830033
000070 fa 99 04 3b e6 40 d3 b8 e8 07 af 3b fd b5 ec 3b
       0.0020233379 -0.00010073352 0.0053415187 0.007223843
000080 9e bd 9c 3a a4 23 cc 3b 36 82 81 bb a7 4f 7f bb
       0.0011958366 0.0062298346 -0.00395229 -0.0038957389
000090 4b 94 5e 3b 73 cc 89 3b 57 aa 6f bb 78 cd e6 3b
       0.0033962901 0.0042052804 -0.0036570036 0.0070435368
0000a0 4f 72 dd ba c0 44 99 38 0d b4 70 bb a5 80 3f 3b
       -0.0016895029 7.308414e-05 -0.0036728412 0.0029220965
0000b0 06 66 5c bb 07 8c ad 3a c3 e2 51 3c 94 9c 42 3c
       -0.0033630147 0.0013240584 0.012810412 0.011878151
0000c0 2a 23 9f 3c c8 3e 46 3c b1 b7 86 bb 7c 64 bb 3b
       0.019425947 0.012099929 -0.004111253 0.005718766
0000d0 5c aa ab b9 48 c6 8c 3b 4e 4e 0b 3c 99 36 b5 3b
       -0.0003274259 0.004296098 0.008502556 0.00553019
0000e0 5c 29 a2 3b e2 78 56 ba bf 79 b6 3a 9b f1 d3 3b
       0.004948778 -0.0008181465 0.0013921781 0.0064680106
0000f0 32 4c 4d 3b 48 e1 10 bb 18 76 99 3b fa 3f a5 bb
       0.0031325934 -0.0022106934 0.0046832673 -0.005043027
000100 14 df 2f bb e0 14 15 bb ea 00 67 ba 09 5c 54 ba
       -0.0026835846 -0.0022748038 -0.0008812087 -0.00081008725
000110 2a d7 dc bb 30 e0 0e 3c 54 4f e0 ba 34 a1 68 3b
       -0.0067395167 0.008720443 -0.0017113485 0.0035496475
000120 a3 99 04 bb b4 ec a8 39 78 3a 29 3c 56 de 02 3c
       -0.0020233176 0.00032219815 0.010328881 0.007987579
000130 7e 17 01 3c 4e 80 b6 3b 06 83 04 bc 7e 80 03 3c
       0.007879136 0.0055694943 -0.008087879 0.00802624
000140 fe 5f 40 ba 91 90 9d b9 9b 4b c0 bb fd f7 f2 3b
       -0.00073385227 -0.00030053084 -0.005868388 0.0074148164
000150 bf 37 e8 bb 98 4b 51 3b f3 69 5a bc 15 06 61 3a
       -0.0070867236 0.0031935927 -0.013330924 0.0008583975
000160 63 b0 6e 3c 3b c1 e5 3b 2a b0 c3 ba e0 a0 47 3c
       0.014568421 0.0070115603 -0.001492982 0.012184352
000170 12 80 f6 ba 5c d8 9a 3b 45 ea be 3b 3a ca 02 bc
       -0.0018806478 0.004725499 0.005826267 -0.007982785
000180 5a ab c8 3b 3f 34 32 3b 17 99 1e 3a 5a 68 30 bb
       0.0061239423 0.0027191786 0.0006050034 -0.0026917667
000190 ba ef 03 ba d0 31 0a 3c 50 4d 17 b8 f6 4e 9d 3b
       -0.00050329755 0.008434728 -3.607321e-05 0.0048006726
0001a0 56 e1 50 3c 05 01 e1 b9 7d 34 92 3b 95 04 2d 3c
       0.012749037 -0.00042916104 0.0044618235 0.0105601745
0001b0 3d b3 20 bb 72 d5 34 bb e0 33 a0 ba d8 e4 f5 3b
       -0.0024520897 -0.0027593044 -0.0012222491 0.007504087
0001c0 bb cf cc ba e8 99 b1 bb 34 a4 15 3b 9e 6e b5 bb
       -0.0015625873 -0.0054199584 0.0022833468 -0.0055368682
0001d0 89 54 0c bb 17 b5 d1 3b a4 43 d1 3a b6 56 2e 3b
       -0.0021412692 0.0063997614 0.0015965593 0.0026601977
0001e0 23 6b 30 bb 36 77 61 39 27 89 15 38 9c ad 96 3b
       -0.0026919327 0.00021502082 3.56521e-05 0.0045983326
0001f0 30 38 bf bb 5f 0a 5b 3b c4 5a d3 ba 65 52 27 3b
       -0.0058355555 0.003342293 -0.0016125073 0.0025531289
000200 b1 34 63 3b 15 71 06 3c d1 ef 26 3a 6e 54 67 3b
       0.0034668858 0.008205672 0.0006368133 0.0035298127
000210 f2 af 12 ba d0 94 2a bc e4 f4 42 3c 00 2c 54 3c
       -0.0005595676 -0.010411456 0.011899207 0.012949944
000220 90 10 91 bb e5 5c 88 bb 4f 14 7d ba 1f 45 94 3a
       -0.004427023 -0.0041614645 -0.00096542103 0.0011312104
000230 cb 1b d1 3a 1c 99 7e 3a 8c 42 34 3c e6 b6 48 3c
       0.0015953718 0.0009712146 0.011002194 0.012250638
000240 88 21 5b 3c f7 41 51 3c 56 36 d7 3b 03 e3 a2 3b
       0.013374694 0.012772075 0.0065677566 0.0049709096
000250 58 be 3f 39 e1 94 35 bb 81 3d 9f bb 58 e8 aa 3b
       0.00018286088 -0.0027707147 -0.0048596268 0.005215686
000260 1f 68 88 3c 2a e2 44 3c 9d 5b aa 3b ab fb 5c 3b
       0.016651211 0.012016812 0.0051989094 0.0033719342
000270 98 27 4b 3c bf 12 e9 bb 95 35 54 bb 16 da 9d 3b
       0.012399577 -0.0071128304 -0.003238057 0.0048172576
000280 65 bb 64 bb c4 18 b2 3a 27 c5 36 ba 08 27 96 bb
       -0.0034901735 0.0013587703 -0.0006972127 -0.0045822896
000290 ee a7 b1 3b 7e 1e b3 3a 96 18 db b8 b8 93 64 bb
       0.00542163 0.0013665704 -0.00010447313 -0.0034878086
0002a0 29 f1 05 3c bd a0 a3 bb 72 3d 1c 3c 83 83 6d 3b
       0.008175173 -0.0049935267 0.009536134 0.0036241717
0002b0 0b 05 57 bc 1b ee b6 ba ab 75 a3 bc e2 77 64 bb
       -0.013123761 -0.0013956459 -0.01995357 -0.0034861495
0002c0 ff 7e 49 3b 30 ae 24 3b ec f6 99 bb 5d 12 fe ba
       0.0030745862 0.0025128238 -0.004698625 -0.0019384135
0002d0 f1 59 de bb aa 54 b3 3b 64 00 13 bc 65 39 68 3b
       -0.006785624 0.005472739 -0.008972261 0.00354346
0002e0 8a d4 08 ba 4a 8a 8d bc cc 85 5a 3c 49 fb 91 bb
       -0.0005219659 -0.017277855 0.013337564 -0.0044550044
0002f0 0e b5 ff 3a dd 9b 7b 3a 5e e0 a9 3a a9 4a 18 bb
       0.0019508915 0.00095981156 0.0012960543 -0.002323786
000300 fa 74 32 3b 9d 9e f2 3b 36 ec 03 bb 42 13 07 3b
       0.0027230368 0.007404162 -0.0020129806 0.0020610844
000310 1e 34 05 bc 82 45 a3 bb 30 1a cb 39 dd a5 2e 3c
       -0.0081301015 -0.004982651 0.00038738688 0.010659662
000320 ce b9 9d 3a 22 86 41 3c c4 23 99 3b 31 67 e8 3b
       0.0012033524 0.011811765 0.004673453 0.0070923795
000330 05 e0 a6 3b a6 ed 1d 3c 47 1a 96 3b f0 ba d6 3b
       0.005092623 0.009639179 0.004580769 0.0065530464
000340 e4 74 8b 3b e7 8f 39 3a 0a 2b 6d bb 64 06 dc 3b
       0.004255878 0.0007078633 -0.0036188983 0.006714629
000350 00 81 2e 3b 2c 0c af b9 5c 01 ca bb 35 0d 77 3b
       0.0026627183 -0.0003338767 -0.006164713 0.003769708
000360 46 51 15 3a 23 87 66 bb 17 a8 29 3b d9 8d c2 3b
       0.00056960096 -0.0035175763 0.0025887543 0.0059373197
000370 27 ab 08 3c 54 3a e0 3b 74 d8 c6 3a fd a3 7e 3b
       0.008341587 0.0068428908 0.0015170709 0.003885507
000380 0c f8 d9 3b 8b 69 e3 3b 65 0c 24 3c 14 10 a4 3b
       0.006651884 0.006940072 0.010012721 0.0050067995
000390 fd 7e ee 3b a3 a7 dd ba e9 81 0d bb 96 ed 2e bb
       0.007278322 -0.0016910922 -0.0021592325 -0.0026691905
0003a0 56 02 d3 b8 75 01 86 3a ae 81 fb 3b 54 40 af bb
       -0.00010061699 0.0010223823 0.007675371 -0.0053482447
0003b0 95 a8 1d 3c 5f c7 f0 3b 26 86 a0 3a 81 95 a6 3c
       0.009622713 0.0073479856 0.0012247011 0.02033496
0003c0 f0 fe 08 bc 45 95 74 bb c7 4a 3b bc 5c f5 49 bc
       -0.008361563 -0.0037320417 -0.0114314025 -0.012326565
0003d0 ca e0 4a bc 74 e0 49 bc 98 2d e1 b9 67 66 22 3c
       -0.012382695 -0.01232158 -0.00042949314 0.00991211
0003e0 43 48 65 ba 65 91 44 3c 6d 89 bf ba d5 56 af bb
       -0.00087464246 0.011997555 -0.00146131 -0.0053509274
0003f0 0d 80 49 bc 1b d1 1f 3c f1 7d 4e 3b 02 64 27 bc
       -0.012298596 0.0097544445 0.0031508172 -0.010216715

weight_ih_l0 f4 [512, 32]
000000 69 10 55 bd 9b b5 98 bd 11 77 ce 3c ea c9 cd bc
       -0.052017603 -0.074565135 0.02520326 -0.025120694
000010 aa 5e 7a 3d ce 2a 48 bd f7 2b 04 bd 8e b0 9a 3d
       0.061125435 -0.048868947 -0.03226849 0.075532064
000020 e0 3e c6 ba 5c e4 8b ba 5c 5f ac 3d 73 12 67 3d
       -0.0015124939 -0.0010672915 0.08416626 0.05641408
000030 c3 c1 3f 3d 58 3b 34 3d 05 fa 11 bb a4 83 7b 3c
       0.046815645 0.044001907 -0.0022274267 0.01535121
000040 87 2b 9e bd 71 cd 71 bd 36 10 39 3c 6b f4 5f bd
       -0.07723146 -0.059033815 0.011295369 -0.054676455
000050 8d 68 b8 3d b2 21 3e 3c ab 46 05 bd 21 15 91 bc
       0.090043165 0.011604713 -0.032538097 -0.01771027
000060 ab 09 a3 bd ca 33 38 bb ff 38 49 3d c9 6f b8 bb
       -0.079608284 -0.002810704 0.04912662 -0.00562856
000070 ea 09 61 3d 30 29 90 3d fa 96 d8 3c d0 2c 6e bd
       0.054941095 0.07039106 0.026439179 -0.058148205
000080 5d 6d f9 3c da 5e 8b 3d c3 bf 16 3d 3a 62 15 3d
       0.030447656 0.06805201 0.036803972 0.03647063
000090 6d e1 e0 3b 29 48 40 3d 94 27 96 bc 55 f6 4f 3d
       0.0068628103 0.046943817 -0.01832942 0.05077203
0000a0 b2 ee eb 3b 32 33 c3 3d cd f0 92 bd 8c ae e6 bc
       0.0072000856 0.09531249 -0.07174835 -0.028159402
0000b0 95 e4 8e 3d 54 2c b4 bd 10 41 9b 3d 24 d6 37 bd
       0.06977192 -0.087975174 0.07580769 -0.044881955
0000c0 45 45 c7 bc bd 34 80 bd 9d 07 b2 bd f0 08 e1 3c
       -0.024325022 -0.06260059 -0.08692858 0.027470082
0000d0 61 cb b1 bc 8e 66 81 3d 88 77 86 ba 3f 87 63 bc
       -0.021703424 0.06318389 -0.0010259012 -0.013887226
0000e0 f9 35 45 bb 9c a1 7b bd 05 99 6d 3d 2c 91 0f bd
       -0.0030091985 -0.06143342 0.05800726 -0.035050556
0000f0 df 27 70 bc bd 43 d3 bc 0a 5b 36 bd 0b c9 52 3d
       -0.0146579435 -0.025789136 -0.044520415 0.05146126
000100 2c 14 8e bd 42 5b 66 3c 4c 10 af bd ba 43 43 3d
       -0.06937441 0.0140598435 -0.0854803 0.04767201
000110 c5 d6 70 bd ec 33 7e 3d e5 a7 30 bd 3f 39 fc 3c
       -0.05879857 0.062061235 -0.043128867 0.030789016
000120 3c 85 79 bd 95 1d 53 3d b9 c9 85 bc c9 44 d0 bc
       -0.060918078 0.051541883 -0.01633154 -0.025423424
000130 d9 8f a7 3d b1 a8 31 3d 01 88 62 3d a1 4e 0f 3d
       0.08181734 0.043373767 0.055305485 0.034987096
000140 fa 14 81 bd 88 b6 19 bd f5 9d bd 3d c7 ee 24 3c
       -0.06302829 -0.03752759 0.092586435 0.010066695
000150 a8 a7 be 3c df 03 b8 bd 92 d4 5e 3d e4 3f fc bc
       0.023273304 -0.08985113 0.05440194 -0.030792184
000160 e1 cf 33 bc ea 5e a0 3d 4c df f7 3c 4f c6 2e bc
       -0.010974855 0.078306034 0.030257843 -0.010667398
000170 a0 50 9b 3d a5 90 2d bb 99 28 6a bd 17 fc 3a 3d
       0.075837374 -0.002648392 -0.057167623 0.045650568
000180 34 12 4b bd 4b 4b 74 bd e4 d5 67 3d 35 bb ab bd
       -0.049577907 -0.059642117 0.056600466 -0.08385316
000190 87 e5 ac bd 6d f6 85 3c 1d 1f 0a bd 9a 3a f4 3c
       -0.08442216 0.016352857 -0.03372108 0.0298131
0001a0 5a f5 26 bb fd c7 8c 3c 98 47 a9 bc be bb d9 bc
       -0.002547583 0.017185206 -0.020664021 -0.02657878
0001b0 2d c3 9f 3d b9 36 70 3d 82 5a ef bc 27 2d 36 3a
       0.07800899 0.058645938 -0.029217962 0.0006949477
0001c0 3c 1c a9 3d f8 dc be 3c 41 75 24 bd ea 0f 53 3d
       0.082573384 0.023298725 -0.040150885 0.05152885
0001d0 52 04 54 bd 29 62 d2 3c 00 02 77 3d c8 2d a0 3d
       -0.051761933 0.025681572 0.06030464 0.07821232
0001e0 54 ad 82 bd 4a ed 3f bd b7 8a c1 3d 49 81 8a bd
       -0.06380716 -0.046857156 0.09450286 -0.067629404
0001f0 e7 75 d1 3c 0f 96 b0 3c d0 57 4f 3d 86 b8 ea 3a
       0.025568916 0.021555929 0.050620854 0.0017907775
000200 6b 44 b9 bd 5f ec 49 bd eb cf 95 3d 4f 56 f5 3c
       -0.09046253 -0.049297687 0.07315048 0.029948382
000210 b2 50 c3 3c f8 c5 62 3c d4 7a 1f 3d 69 37 ee bc
       0.02384219 0.013841145 0.038935497 -0.029079156
000220 4b b5 2b bd c0 f5 a8 3d 68 c4 ae bc 03 6a d8 bd
       -0.04192094 0.08249998 -0.021333888 -0.10567095
000230 1e 03 5e bd 91 d1 40 bd af 09 6e 3d bf 61 5b 3c
       -0.05420219 -0.047074858 0.058114704 0.013390004
000240 8d 55 44 bd 05 09 33 3d e3 2c bb 3d 7e 52 b0 3d
       -0.04793315 0.043709774 0.09139421 0.08609484
000250 64 c1 58 bd a8 fa ab 3d 04 df 92 3d 02 53 2a bd
       -0.052918807 0.08397418 0.07171443 -0.04158307
000260 e1 e8 5d 3c 23 fa 86 bd 1f 44 93 bd 9a 5f ed ba
       0.013544292 -0.065906785 -0.071907274 -0.0018110157
000270 b9 90 84 bd 65 3f 57 bb f2 2a aa bd 1c 85 aa 3c
       -0.06472916 -0.0032844183 -0.083089724 0.020815425
000280 63 86 a1 3d 35 45 49 bd c0 bd 89 3d b2 55 5c 3d
       0.0788696 -0.049138267 0.06725645 0.053792663
000290 b6 45 ae bd 48 87 3d 3d d7 08 1e bd ee c1 49 3d
       -0.0850939 0.046271592 -0.03858265 0.04925721
0002a0 a4 ff b4 bd 14 57 55 3d 22 69 8c bd 34 12 ef bc
       -0.08837822 0.052084997 -0.0685599 -0.029183485
0002b0 c8 4a 43 3d a2 20 b6 3d ca e1 ea bc a5 19 92 bc
       0.04767874 0.08892943 -0.028672118 -0.017834494
0002c0 9d 11 f6 3c f3 6f 13 3d 56 94 56 bd 63 92 65 3d
       0.030037696 0.035995435 -0.052387558 0.05604781
0002d0 5d 04 6c 3d 51 9b a1 3d 46 d0 15 3d e3 1d e0 bc
       0.05762135 0.078909524 0.03657558 -0.027358001
0002e0 64 48 72 bd 9e a5 2a bd 00 fd a1 3d 78 7b bb 3d
       -0.05915107 -0.04166185 0.07909584 0.09154409
0002f0 5b bd c4 3d 4d ce 29 bc 56 a6 ce 3c 7f 39 a7 3c
       0.09606429 -0.010364127 0.0252258 0.020413158
000300 a6 4a 6e 3d 2d f6 43 bc a7 cb 1d 3c 98 cf 2e 3d
       0.05817666 -0.011960548 0.009631074 0.042678446
000310 aa 30 aa 3c d7 6e ce bb 58 d8 f5 bc d2 6d 86 3d
       0.020775158 -0.006299834 -0.030010387 0.06563915
000320 4c 93 b0 bd c4 56 89 3d 3d 09 48 bc 3c 4d 58 3d
       -0.08621845 0.06706002 -0.012209234 0.05280803
000330 7c a7 a4 3d c9 a2 ea 3b ee 74 bc 3d 05 b8 83 3d
       0.080397576 0.007160519 0.0920199 0.06431583
000340 f1 f3 61 3c 76 e3 d5 3c 2d 2a 84 3c 0b 5f 25 bd
       0.01379107 0.026109438 0.016133392 -0.040373843
000350 42 e6 0f 3c 93 b5 87 bd f9 e4 d2 3b fc d3 0f 3c
       0.008782925 -0.066264294 0.006435987 0.008778568
000360 9c 3c 94 3c b9 ee a0 bd 73 ee d3 bd 98 9b a9 bd
       0.018095307 -0.07858033 -0.10348215 -0.0828163
000370 e5 f5 81 bc b3 aa 0a 3d ab e8 46 3b 1a ac cb bc
       -0.015864322 0.033854198 0.0030351083 -0.024862338
000380 23 29 91 bd 53 fe bc 3d d0 1a 69 bc 26 f4 9e bd
       -0.07087924 0.09228196 -0.014227584 -0.07761411
000390 8e 48 3b 3d bd 53 b4 3d e3 d4 84 bd 63 94 70 bd
       0.04572349 0.08805034 -0.064859174 -0.058735263
0003a0 b4 71 5d 3d 2b 49 97 bd 03 26 df bc 81 62 aa 3d
       0.054063514 -0.073870026 -0.027239805 0.083195694
0003b0 29 20 1b 3d ef c1 78 bd 8d d1 96 3d 36 df 86 bd
       0.037872467 -0.060731824 0.073641874 -0.06585543
0003c0 c5 eb 50 3d 4a 3b a4 bc 03 2a 8d 3d 6d 86 c2 3b
       0.051006097 -0.020047802 0.06892779 0.005936435
0003d0 0f e5 cc 3d bb ae 85 3d 3a e1 2c 3c 17 17 ca 3d
       0.10004627 0.06527468 0.010551745 0.09867685
0003e0 10 e8 3b bd 24 b7 47 3b c8 66 a0 3d 80 82 01 bb
       -0.04587561 0.003047415 0.07832104 -0.0019761622
0003f0 13 56 e6 3c 80 bd a6 3d 4d 08 14 3d ff 0d 8b 3c
       0.028117215 0.08141613 0.03614073 0.016974447

weight_hh_l0 f4 [512, 128]
000000 a3 b0 22 3d 3e fc 1c bd 75 54 58 bd a6 2a 31 bd
       0.039719235 -0.038326494 -0.05281492 -0.043253563
000010 56 4a a7 bc 59 08 63 3d c1 0f 0d bd f3 f2 05 bd
       -0.020421188 0.055427883 -0.034438852 -0.032702398
000020 23 47 26 3d b8 1e 97 bd 55 f7 8c bd 07 01 57 bd
       0.040595185 -0.07378906 -0.06883112 -0.052491214
000030 4b 7c 24 3b 95 6e af bc 1f 57 5a 3d d3 91 a9 3a
       0.0025098498 -0.021415034 0.05330574 0.0012937136
000040 e6 25 ac bd 14 07 36 3d 16 1b c7 bd 9b d0 44 bd
       -0.08405666 0.044440344 -0.09721963 -0.048050504
000050 1b 78 4e bd b0 5e 1d bd 27 3f bf 3d bd 2d 8c 3d
       -0.05040751 -0.03842038 0.09338217 0.068446614
000060 f3 06 94 bd 44 58 5f bd b2 f3 89 bc a2 62 0e 3d
       -0.07227888 -0.054527536 -0.016839836 0.034762032
000070 b1 3b 72 3d e4 17 b8 3c 68 64 18 3b 4c 1a 3b bd
       0.059138957 0.02247233 0.0023253206 -0.045679376
000080 64 d0 8e 3d 4e dd 28 3d 48 f4 a1 3c 4d 7e ac bd
       0.06973341 0.041226678 0.019769803 -0.084225275
000090 ed 70 89 3d 56 6b 25 3d cf 3a 83 3d 7e d0 9a 3d
       0.06710992 0.040385567 0.06407701 0.07559298
0000a0 14 1d e4 bc b0 40 2c bd 9e 32 23 3d 16 cf 1b 3d
       -0.027845897 -0.04205388 0.039843194 0.03803929
0000b0 83 d0 7a bc 95 82 9b 3d 28 95 96 3d de 3a 8c 3c
       -0.015308502 0.07593266 0.07352668 0.017117914
0000c0 50 54 43 bb d7 c5 85 bd a9 c6 a2 bb 83 8f 0e bc
       -0.0029804893 -0.065318756 -0.00496753 -0.008701208
0000d0 61 62 5c 3d 22 20 34 bb 02 ec 87 bd ca f8 3f 3c
       0.05380476 -0.0027484973 -0.06636812 0.011717031
0000e0 f3 20 94 3d 93 ed 15 bd 2d b8 89 bd f7 fe 43 3d
       0.07232847 -0.03660352 -0.06724582 0.047850575
0000f0 27 4f 61 bd 61 18 94 bd fd 3c 6d bc e1 99 02 bd
       -0.055007126 -0.072312124 -0.014479873 -0.03188503
000100 84 92 85 bd 76 ac c9 3b 6f 9f 1f 3d e9 d0 a2 bd
       -0.06522086 0.006154592 0.038970407 -0.07950003
000110 3d ce 70 3d 44 c2 17 3c a6 0d a3 bd a5 3f fa 3b
       0.058790434 0.009262625 -0.079615876 0.0076369816
000120 f8 f2 ab 3d 24 e5 42 bd 6e 6e 4d bc 77 44 1a 3c
       0.08395952 -0.047581807 -0.0125385355 0.009415737
000130 bd 47 8e 3d 16 d3 01 bc 8b e2 43 3d 9f ae 9b bd
       0.06947277 -0.007923862 0.04782347 -0.07601666
000140 b4 2c 2d bd 15 28 58 3c 7a 8e 63 bc 9f cc 83 3b
       -0.04227896 0.01319315 -0.0138889495 0.0040221955
000150 86 59 92 bd c3 13 06 bd 6f 80 5a 3d e1 3c c8 bc
       -0.071459815 -0.03273369 0.05334514 -0.024443092
000160 97 30 15 3c 25 d3 72 3d 7b e6 9e bd ff f5 ec 3c
       0.009105823 0.059283394 -0.077588044 0.028925894
000170 a0 02 38 bc 5b f8 7e 3d f7 d2 89 3d f7 30 2a bc
       -0.011231095 0.06224857 0.067296915 -0.010387651
000180 32 59 26 3b 21 dd 88 3d b8 62 2f 3b 83 c3 0b bd
       0.0025382754 0.06682802 0.0026761722 -0.034122
000190 4c 01 5e 3d 10 02 c9 bd ca b6 38 3c 3d 56 aa bc
       0.054200456 -0.098148465 0.011274049 -0.020793075
0001a0 df 9b 71 bc 1f 60 fd bc c2 dd 7c bd b6 cd 97 bb
       -0.014746635 -0.030929623 -0.061734922 -0.004632677
0001b0 6b ec a3 3d c6 b0 38 3d 08 88 d5 bc 28 a6 76 3d
       0.080040775 0.04509046 -0.026065841 0.060217053
0001c0 6f 12 91 bd 80 fd 8e bd 41 f9 88 bd 7f a1 a5 3c
       -0.07083594 -0.06981945 -0.066881664 0.020218609
0001d0 2a ce 97 bd 57 e7 6f 3d 6a 64 a8 bd a2 35 13 3d
       -0.074123695 0.058570232 -0.082222775 0.03593982
0001e0 05 6b ae bd 47 8e 0a bc b0 f9 8e 3d 66 67 4d bd
       -0.08516506 -0.008456773 0.06981218 -0.050147437
0001f0 54 dc a8 3d 23 c7 78 bd 41 62 0b 3d 19 9b 3a 3d
       0.08245149 -0.060736787 0.03402925 0.04555807
000200 e3 b2 90 3d b6 eb 83 bc 85 e4 19 bd db 82 05 bc
       0.0706537 -0.016103607 -0.03757145 -0.008148874
000210 63 c3 42 3d 82 4e 5a 3d ab 1f 66 bd 3f ec bf 3c
       0.047549617 0.053297527 -0.056182545 0.02342808
000220 27 02 a6 bc 1b ac 49 bd d1 73 44 3d 1d 8a 44 bd
       -0.020264698 -0.0492364 0.047962014 -0.047983278
000230 49 ae 7b 3d b8 7c cf bd 2e 87 c4 3c 1f 44 fc 3d
       0.06144551 -0.1013121 0.02399024 0.123176806
000240 1c 6c a8 3d c9 27 a7 bd 64 b1 58 bd 86 a5 ae 3c
       0.08223745 -0.08161885 -0.052903548 0.021319162
000250 1a 9e 54 3b 15 97 ab 3d b3 32 3f 3d cc 52 f5 bc
       0.0032442869 0.08378426 0.04667921 -0.029946707
000260 39 fd ad 3d f2 a5 58 3d d8 81 31 3c 1d 3c 87 bd
       0.08495564 0.052892633 0.01083418 -0.066032626
000270 6f c5 9e bd 3b 36 5c 3d 64 43 9b bc 71 82 a7 3d
       -0.07752501 0.053762656 -0.018953033 0.081791766
000280 e0 1f 3a bd 8f ca 97 3d dc 11 19 3d de b5 c4 bc
       -0.045440555 0.07411682 0.037370548 -0.024012502
000290 13 e1 b5 3d 8b f3 c2 bd 40 77 f9 bc c1 cc 72 3d
       0.0888082 -0.095191084 -0.03045237 0.0592773
0002a0 7f 5e aa bd 15 c1 3f bb be 04 8c bd 90 28 8c 3c
       -0.08318805 -0.0029259373 -0.06836842 0.017109185
0002b0 b8 27 1f bd 9e 8d 16 3d 9c 61 95 3d a7 08 af 3d
       -0.038856238 0.03675615 0.07294008 0.08546572
0002c0 fa 5e 3a 3d dc b6 5e bd 0c c3 95 bc a6 7a 80 bc
       0.045500733 -0.054373607 -0.018281482 -0.015683483
0002d0 5b 83 a4 3d f9 49 a8 3d 4a 59 c8 3d 19 ea b5 3d
       0.080328666 0.08217234 0.097826555 0.08882541
0002e0 2b 39 a6 bd dd a6 17 bd 1d 86 cb bd 96 ca a1 bd
       -0.08116373 -0.037024368 -0.099376895 -0.07899968
0002f0 53 80 67 3d 0a 9f 84 bd d3 11 82 3c 40 77 21 3d
       0.056518864 -0.06475647 0.01587764 0.039420366
000300 3f 6d f5 3c 7c 4f ff 3b a0 a7 31 bd c0 29 ab 3d
       0.02995932 0.0077914577 -0.04337275 0.083575726
000310 08 74 a0 3d 76 7c 1f 3d c0 76 7f bd 8d ca 77 bc
       0.07834631 0.038937055 -0.06236911 -0.015123975
000320 78 1b 91 bd 50 12 bf bd 5d 1b ac 3d 52 3e 94 3c
       -0.070853174 -0.09329665 0.08403657 0.018096123
000330 23 a0 81 3d 6c a7 4e bd 37 6e 86 3d 10 21 a1 bd
       0.06329372 -0.050452635 0.065639906 -0.07867634
000340 a5 ff ae 3c b4 a7 c9 3d 8f b7 51 bd 19 f7 c5 bd
       0.021362135 0.0984644 -0.051200446 -0.09666271
000350 d6 d1 8b 3d 25 f3 11 3d c8 3b 4e 3b 11 ac c1 3c
       0.068271324 0.03563227 0.0031468738 0.023641618
000360 59 b2 99 bd 51 52 c2 3d e9 dc 6f 3c 69 f1 b6 bd
       -0.0750472 0.09488357 0.014640071 -0.08932764
000370 e3 fe 7c 3d c7 3c 0e bc 22 24 d4 38 07 13 96 bb
       0.061766516 -0.008681483 0.00010115678 -0.004579905
000380 08 06 6c bd c7 ad cc 3c cc 11 34 3d 30 5a 8a 3c
       -0.05762294 0.024985207 0.043962285 0.016888708
000390 ce e8 56 bc 02 7b ca 3c d4 5e fb bb 3b c4 8e 3c
       -0.013117028 0.024716858 -0.0076712165 0.017427554
0003a0 e0 bd cb 3b 62 53 09 bd 6a 51 2f bd 8d 17 b8 bd
       0.006217703 -0.033526786 -0.042802252 -0.08988867
0003b0 dc 34 18 3c af 14 87 bd 2f 51 56 3d 6f 3f 2b 3c
       0.009289946 -0.06595742 0.052323516 0.0104521355
0003c0 86 82 c7 3c 55 c1 c7 bd 26 81 6e 3d 80 73 3f bd
       0.02435423 -0.09753672 0.058228634 -0.04674101
0003d0 06 7f b0 bc c0 4b bc 3c ea 87 79 3c 47 f3 88 bd
       -0.021544944 0.02298534 0.015230158 -0.066870265
0003e0 b4 93 c7 3c 9b d2 08 3d 4b 66 24 bd be 37 08 bc
       0.024362423 0.033403974 -0.040136617 -0.008314071
0003f0 13 c1 5f bd c3 df ed 3c 75 61 27 bd 29 87 da 3c
       -0.05462749 0.029037362 -0.040864427 0.026675778
