Single Battery Model/5. CNN-LSTM Models/model_B0005_charge_mm.pth (torch, 432574 bytes, 15 tensors)

weight f4 [64, 3, 3]
000000 4e 5e b9 3d 7d f2 0c bd 5d 77 9e 3e 1a 53 06 bd
       0.0905119 -0.034410942 0.30950442 -0.032794096
000010 75 39 5e 3d dd 87 d3 bd 99 ef 80 3e 8f a8 46 3d
       0.054254014 -0.10328648 0.25182799 0.048500594
000020 4d ed 3a be 3e a0 90 be 1f 1b 2a bc ac e5 5f 3e
       -0.18254586 -0.28247255 -0.010382443 0.21864957
000030 2a 6b a5 3d aa 0e 57 bd 6c c4 3d 3e 1c 15 41 bd
       0.080770805 -0.05250422 0.1853196 -0.047139272
000040 05 e3 51 be c2 d8 81 3e b6 54 c0 3c ca ff 9d 3e
       -0.20496757 0.25360686 0.023477893 0.30859214
000050 a0 7c 1f 3e 81 95 9b 3e a7 bb 9a be ba 5c fd bd
       0.15574884 0.303875 -0.30221292 -0.12371202
000060 65 38 af 3e ab 56 82 be d0 83 95 3e f7 eb 45 3e
       0.34222713 -0.25456747 0.29202127 0.19328295
000070 06 a9 11 3e de 7e 80 3e 11 0d 85 3c d2 a6 de 3d
       0.14224634 0.25096792 0.016241582 0.10871662
000080 b9 8d ef bd e0 f1 9f 3e 27 8b 80 3e 22 30 56 3d
       -0.11696953 0.31239223 0.25106165 0.052291997
000090 0c 59 3c be 95 9a 65 3d 7d 89 a3 3e b8 87 88 3e
       -0.18393344 0.056055624 0.31940833 0.26666045
0000a0 07 e3 61 3e be 34 b4 bc eb d5 36 be 44 ae 88 bd
       0.2205926 -0.021997806 -0.1785504 -0.066738635
0000b0 dd 8d 50 3e 46 67 2b 3e c6 40 63 be c8 aa 07 be
       0.20366617 0.16738614 -0.22192678 -0.13248742
0000c0 54 1c a6 3c 19 7a 76 bc db 92 91 be fa 00 cc bd
       0.02027718 -0.015043759 -0.28432354 -0.09961124
0000d0 c2 d1 d9 bd 9d dc 9d be 72 e2 7d 3e 29 18 e7 3d
       -0.10635711 -0.30832377 0.24793413 0.11283905
0000e0 54 91 86 be 06 29 35 be 93 2d f4 3d dc 74 dc 3d
       -0.26282752 -0.1769143 0.11922755 0.10764477
0000f0 4b fc 88 be 58 2c 8e be 88 66 6b 3e cf 9d a8 be
       -0.26754984 -0.27768207 0.22988331 -0.32932898
000100 99 a0 77 be b7 4d a2 3e b3 63 8b be 59 9a 2a 3b
       -0.24182357 0.31699917 -0.27224502 0.002603194
000110 3e 20 9d 3e 59 1a c6 3d 69 08 57 bd 33 5f cc bd
       0.3068866 0.09672994 -0.052498255 -0.09979095
000120 50 04 b6 3b 2e 6a 6c bd 57 d2 59 bd 9a b6 90 be
       0.0055547133 -0.05771845 -0.05317911 -0.28264314
000130 36 07 a4 be 30 c9 7c 3e de b5 96 be 93 a5 9a bd
       -0.32036752 0.24686122 -0.2943563 -0.07551112
000140 e7 26 27 be 1e 69 aa 3d f1 cb a9 3e 55 1a 4b 3d
       -0.16323434 0.08320831 0.33163407 0.04958566
000150 73 e2 11 be 14 57 84 3e be a5 4c 3e a6 8c a2 3e
       -0.1424654 0.25847685 0.199851 0.3174793
000160 02 59 91 3e ea b9 85 be 47 c8 86 be e5 22 1c be
       0.2838822 -0.26118404 -0.26324674 -0.15247686
000170 38 1c 0d 3d 67 19 9d 3e f5 23 42 be 43 41 c2 bd
       0.03445074 0.30683443 -0.18959029 -0.09485104
000180 5c 7c a3 be d6 0d a2 3e 1a c7 31 3e f9 66 6d 3e
       -0.31930816 0.3165118 0.17361107 0.23183812
000190 6f b1 61 3d f0 ec ae be a0 7e 66 3d 4a 6a e4 3c
       0.055100854 -0.34165144 0.056273103 0.027882714
0001a0 5c db 06 3e cd 0b 16 bd 9c 2b 82 bd a1 c7 8f 3e
       0.13169616 -0.036632348 -0.06355974 0.28081992
0001b0 18 8d 93 be 45 bc 64 3e ea 37 d9 bd a5 e9 67 3e
       -0.28818583 0.22337444 -0.10606368 0.22647722
0001c0 91 ba 9b be 07 90 31 3e 4f f2 9e be 0d 04 22 bd
       -0.30415776 0.17340098 -0.31044242 -0.039554644
0001d0 51 db 2d 3e b1 55 8a be b1 b4 89 3e 71 5d f6 bd
       0.16978194 -0.27018502 0.2689567 -0.12029541
0001e0 e6 12 3c 3e 14 70 4a 3e f2 45 85 be 70 0a 0e be
       0.18366584 0.19769317 -0.26029927 -0.13871169
0001f0 65 1a aa be 6b 91 76 be 07 60 32 3e 72 8d 45 be
       -0.33223262 -0.2407891 0.17419444 -0.19292238
000200 88 93 b1 3d b5 e0 ca bd 3e 9a 69 3e 64 90 4b 3e
       0.086707175 -0.09906141 0.22812745 0.198793
000210 c5 1d 5b 3e fa 3e b0 bd cc fd 60 be 56 95 a2 be
       0.21398075 -0.08605762 -0.21971816 -0.3175456
000220 95 6d 27 3e 46 5f 46 3d 77 42 ab be 3f e0 33 be
       0.16350396 0.048430704 -0.33449146 -0.17566012
000230 d5 8a a6 be 95 ea 86 bd 66 19 87 be 03 58 d1 bd
       -0.32527795 -0.06587712 -0.26386565 -0.10221865
000240 05 4d 3a 3e 8b f2 93 3e 53 d9 98 3e 4c 69 63 be
       0.18193443 0.28895983 0.29853305 -0.22208136
000250 5f fc d0 3d 60 b1 cc bd 45 60 73 3c 00 b2 54 3e
       0.10204386 -0.09994769 0.014854495 0.20771027
000260 27 d2 74 be 91 72 10 be 96 ad df 3d 02 c5 8c 3e
       -0.23908292 -0.14106204 0.10921781 0.27494055
000270 d2 d7 83 3e 7c 95 80 3d 9c 3e 51 3d 65 e2 3b bc
       0.25750595 0.06278512 0.0510851 -0.011467551
000280 86 60 cb 3d a5 48 d1 bc 00 4e 88 be 72 e6 99 3e
       0.0993052 -0.025547335 -0.2662201 0.30058628
000290 bc f8 ac be 95 69 49 bd 50 d8 71 be 8f 89 8a 3e
       -0.3378352 -0.049172956 -0.23617673 0.27058074
0002a0 ab 4b 54 3e dd 49 7c be 65 a8 83 3c 4e af 95 be
       0.2073199 -0.24637552 0.016071508 -0.2923531
0002b0 dc 7a 5a be b6 b9 ac 3e c9 28 03 be f4 0c a0 be
       -0.2133593 0.33735436 -0.12808527 -0.31259882
0002c0 23 c2 59 be 32 3e ab 3c 40 3d 77 be 10 76 9d bc
       -0.21265464 0.02090368 -0.24144459 -0.019221336
0002d0 a9 dc 2d 3e 89 76 47 be dd 4f 9d be 4c d1 23 3e
       0.16978706 -0.19478811 -0.30724993 0.15997809
0002e0 58 08 36 3e b1 e6 e9 bd 14 aa aa 3d ab 27 87 be
       0.1777662 -0.11420954 0.08333221 -0.26397452
0002f0 a8 37 97 3e c4 71 53 be 1f ef 64 bd 17 63 87 be
       0.2953465 -0.20648867 -0.055892106 -0.26442787
000300 db fa 4d be a8 86 36 3e 15 36 69 3d 34 aa 4e bc
       -0.20115225 0.17824805 0.056936342 -0.012613822
000310 21 e9 2f be e2 5e 37 3d 7e 83 21 be fb e3 58 be
       -0.17178775 0.04476822 -0.15772817 -0.21180718
000320 07 a8 cb bd 66 e9 ea bc 78 98 c2 bd a8 6c 5b bd
       -0.09944158 -0.028675746 -0.09501737 -0.05357042
000330 92 5e 1d 3d d0 b1 6e bd ec b3 a9 3e 98 2d a2 be
       0.038420267 -0.058275044 0.33145082 -0.3167541
000340 e1 f4 06 3e 8e 80 0c be 3a 93 59 3d ff fd 9d be
       0.13179351 -0.13720915 0.05311892 -0.30857846
000350 ad cb 0c be e9 38 8a bd f9 60 a0 be 09 09 1f 3e
       -0.13749571 -0.06749136 -0.31323984 0.1553079
000360 4e 22 77 3e 0f 4a fb bc f2 a5 86 3e 2c 85 a7 be
       0.2413418 -0.030674962 0.2629848 -0.3271879
000370 bd 8c 52 be 27 ec 9b 3e 46 85 ae 3e d2 c4 9c 3e
       -0.205615 0.30453607 0.34086055 0.30618912
000380 c1 f3 45 be e9 58 2b be d3 05 fa 3d 48 1d 44 be
       -0.19331266 -0.16733135 0.12208142 -0.19151795
000390 bf 39 50 be 7d 30 1c bd 51 9d 8a 3e 12 33 0d be
       -0.20334528 -0.03813218 0.27073148 -0.13789013
0003a0 6c bb a9 3e b8 ad 68 3e ea dc 0b 3d 1a 35 36 be
       0.33150804 0.22722518 0.034146227 -0.17793694
0003b0 31 d2 1a be cd e9 52 3e 51 9d 08 3e 75 f4 d9 3d
       -0.15119244 0.20597 0.13341261 0.106423296
0003c0 85 5e 6d 3d 19 0a 7a 3e ad 2e 93 bd 76 92 02 be
       0.05795147 0.24417914 -0.07186637 -0.12751183
0003d0 bf 8f bd bd e2 bd 8a 3d 7f ea a1 be 48 87 9f 3e
       -0.09255933 0.067744985 -0.3162422 0.311579
0003e0 47 5a a2 be a6 8d ad bc ab a6 03 be 7d ea 90 be
       -0.317095 -0.021185707 -0.12856548 -0.283039
0003f0 7d 1f b6 bc 6a 7f aa be 43 43 4a be df 25 73 3e
       -0.022231812 -0.33300334 -0.19752221 0.23744915

bias f4 [64]
000000 22 6e 93 3e f4 07 17 3e 97 25 9c be 35 d8 a6 3e
       0.28794962 0.14749128 -0.3049743 0.32586828
000010 a6 d5 00 3c 9c f4 da bd ad 5f 30 be 5d b8 cf bd
       0.007863438 -0.10691187 -0.17223997 -0.101425864
000020 d1 b7 52 3d e9 cb 93 3d c3 76 37 be 1a 26 59 3b
       0.051444832 0.07216627 -0.17916398 0.0033134283
000030 f4 7c 78 bc d5 d0 f3 3d 3d 0a 74 3e e1 78 78 be
       -0.01516651 0.11905066 0.2383203 -0.24264862
000040 d5 16 4e be 63 d6 74 3e 74 df ad 3e 26 25 43 be
       -0.20125897 0.23909907 0.33959544 -0.1905714
000050 00 9b 54 3d b7 ab 49 bd b7 29 52 be d9 df a4 3e
       0.051905632 -0.049236026 -0.20523725 0.32202032
000060 bf 20 aa bd 39 8e 00 be 62 b1 03 be a0 44 59 be
       -0.08307027 -0.12554254 -0.12860635 -0.21217585
000070 7b bd 9d 3e 4b 20 68 be 5f 48 ff 3b 22 d6 5d 3e
       0.30808625 -0.22668569 0.0077906097 0.21663716
000080 11 ce 34 ba 0d ae d3 bd ea 92 43 be 72 c8 5a 3e
       -0.00068971614 -0.10335932 -0.19099012 0.21365526
000090 e2 7e 1a 3d 26 bd 2c 3e 91 aa 14 be ef d2 e9 3d
       0.03771866 0.1686903 -0.14518191 0.114171855
0000a0 65 0a 87 3e 00 f5 cd bd 42 06 54 3e 88 90 5c 3e
       0.26375118 -0.10056496 0.20705512 0.2153951
0000b0 bb 75 0c 3e 15 7a a8 be 16 af 16 3e 98 85 ba bd
       0.13716786 -0.3290564 0.14715227 -0.09107512
0000c0 6f 4a 0f 3e 32 74 7c 3e 0f 2b d8 3d 1d a0 87 be
       0.13993238 0.246537 0.10555088 -0.26489344
0000d0 97 56 24 bb d1 6a 96 bd 3e 9a 30 3e 8d 9a 8c bd
       -0.0025076026 -0.07344592 0.17246339 -0.06865416
0000e0 14 73 59 3e 3c 47 8e bd 97 56 a6 be 61 6d a8 3d
       0.21235305 -0.06947181 -0.32487938 0.08223987
0000f0 e6 8c 77 3e 74 98 ae 3e bd a1 84 be a5 7d 9d 3e
       0.24174842 0.34100688 -0.25904647 0.30759922

weight f4 [32, 640]
000000 87 9a 18 3d a4 9b 6a 3c 08 af a8 3c 21 20 93 3c
       0.037256744 0.014319334 0.020591274 0.017959656
000010 89 3d 20 3c 51 cc f9 3c 05 0d 6a 3b 33 c6 0c 3d
       0.009780296 0.030492933 0.0035713327 0.034368705
000020 2d 9f 81 bc c8 c8 a2 3c 97 96 04 bd dd ac 0f 3d
       -0.015822971 0.01987113 -0.032370176 0.035076965
000030 5f 4c 20 3c 32 91 45 bc 0b 7c 15 bd a3 1b 31 3c
       0.009783833 -0.012058543 -0.03649525 0.010809812
000040 c5 21 9a 3c 72 41 04 bd 3c 57 1c 3d 85 77 e4 3c
       0.01881493 -0.032288976 0.03816913 0.027889023
000050 2c f0 0c bd ba ff 58 bd 99 ff 2e bd f0 af 98 3c
       -0.034408733 -0.052978255 -0.042724226 0.018638581
000060 2a 9f e2 bc c3 ce b2 bc c4 36 8f 3a 35 3a c2 bc
       -0.027663786 -0.021827107 0.0010926356 -0.023709396
000070 a2 16 42 bd 25 2d dc bc 49 d6 a2 bc c6 7e a0 3c
       -0.047384866 -0.026876995 -0.01987757 0.0195917
000080 2a 4b e6 3a 88 d2 17 3d c6 cf a3 3b 8b 06 0b bc
       0.0017570008 0.037066013 0.0049991338 -0.008485447
000090 d7 61 d6 bc b6 b7 f4 3c 2d e4 6b 3c 76 aa 8a bc
       -0.0261697 0.029872756 0.014397663 -0.016926985
0000a0 b9 b5 8a 3c 90 69 09 bd b6 c7 23 3d 0b 2a f4 3c
       0.016932355 -0.033547938 0.03998538 0.029805204
0000b0 dc 3e 44 3c 4c 09 82 3c 5d a5 05 3d 40 7c 99 bc
       0.0119778775 0.015873574 0.032628406 -0.018736005
0000c0 7d f7 23 bc 17 80 83 bc 69 a8 81 3c af e0 b1 3c
       -0.010007736 -0.016052289 0.015827375 0.021713583
0000d0 77 77 1e bb 15 80 7f bc 5a 63 bc bc 90 81 c5 bc
       -0.0024180093 -0.015594502 -0.022996593 -0.024109632
0000e0 ea 61 0f 3d 6f 8a 09 bd d1 4b 75 ba 01 69 47 3b
       0.035005488 -0.033579286 -0.0009357306 0.0030427577
0000f0 4c 08 00 bd 46 ee 0c bd d4 71 8a bb 01 67 0e bd
       -0.031257913 -0.034406923 -0.004224995 -0.0347662
000100 30 c3 7c 3c 56 04 16 3d 35 cb ab 3c 71 e2 80 bc
       0.015427396 0.03662523 0.02097092 -0.015732976
000110 05 47 82 bc b3 cf e7 ba 9a d8 5d bc f6 24 18 bd
       -0.015903005 -0.00176858 -0.013540411 -0.037144624
000120 26 de f5 3c a8 79 e4 3c c0 93 05 bd 9f 75 f4 bc
       0.030013155 0.027890041 -0.03261161 -0.029841242
000130 f5 06 85 3c 9c 98 39 bc 8e 4d 22 bd 0b a3 08 bd
       0.016238669 -0.011327889 -0.039624743 -0.033358615
000140 05 89 1d 3c c3 7a b9 bc 80 b4 0c 3d 89 3e 4c 3c
       0.0096151875 -0.022641545 0.034351826 0.012466081
000150 9a ac d3 bc 86 ad 7e bc 43 37 50 bc ac de 02 3d
       -0.025839139 -0.015544301 -0.012708488 0.031950638
000160 4a 99 2f bc d9 f8 26 bb f5 27 d8 3c 5a 16 7a 3c
       -0.010717699 -0.0025477915 0.02638624 0.015264118
000170 53 1a b5 3c 08 c9 c6 bc 87 a5 1b 3c 78 d9 f8 bb
       0.022107279 -0.024265781 0.009499914 -0.0075942837
000180 0b 4c 12 bd 1c 45 1c bd e4 2d cd 3c d3 a0 0a bd
       -0.03571705 -0.038151845 0.025046296 -0.03384478
000190 ce a1 24 bc 7f 17 67 3c 26 60 b5 3c 05 7c 9f 3c
       -0.010048343 0.014104723 0.022140574 0.019468317
0001a0 9e 77 97 3c dd 5a 18 bc b1 d0 9b 3c 19 41 bf bc
       0.018489655 -0.009299007 0.01902041 -0.02334647
0001b0 f8 58 59 3c fc ad df 3c cb 6c c8 3c 6f 86 89 39
       0.013265841 0.027304642 0.024465939 0.00026230837
0001c0 a0 e7 3a 3b 5f 1b 17 3d 93 c7 fb bb f2 ff a0 bc
       0.0028519407 0.036891337 -0.007683703 -0.019653294
0001d0 24 66 5c bc c1 24 7a 3c 99 56 b2 3c 74 48 23 bd
       -0.013452087 0.015267552 0.021769809 -0.03986402
0001e0 73 7f c9 3a f3 dd 10 3d 2c 55 b5 3c 17 14 1e 3d
       0.0015373066 0.035367917 0.02213534 0.038593378
0001f0 75 d3 bb 3c f0 33 72 bc 1a 5a 02 3c d5 e6 f6 37
       0.022927979 -0.014782891 0.007956052 2.9432975e-05
000200 11 c4 10 3d 62 66 92 bc c4 83 05 bd 32 50 07 bd
       0.035343233 -0.017871086 -0.032596365 -0.033035465
000210 cd 5d 5f bc 68 1d a2 3c 84 19 8f bc b8 71 11 3d
       -0.013633204 0.019789413 -0.017468221 0.03550884
000220 57 49 5d bc 72 d3 7f bc 48 ad 22 3b 8c d8 86 3c
       -0.013506255 -0.015614377 0.0024822522 0.01646068
000230 65 92 06 3d 31 1e 71 3b 91 3e 3e 39 6f 69 d9 bc
       0.032854456 0.0036791677 0.0001814312 -0.026539532
000240 cc 53 8a bc 1f 9f ca 3c 9c 5b f0 bc af b0 df bb
       -0.01688566 0.024734078 -0.029340558 -0.0068264822
000250 c0 58 fa 3c 03 1d d1 3b 07 d2 a4 ba 22 6c ce 3c
       0.030559897 0.0063816323 -0.00125748 0.025198046
000260 a4 42 ce 3c 44 b7 02 3c 98 94 24 bd 06 ec 8f bb
       0.025178261 0.007978264 -0.040180773 -0.00439215
000270 30 b3 99 bc bc 26 48 38 a4 e6 23 bd b1 ba 16 3d
       -0.018762201 4.771979e-05 -0.040014878 0.036799137
000280 da ef b3 bc f6 e7 23 bd 12 aa d3 bc 4a 68 f5 bc
       -0.021964956 -0.040016137 -0.025837932 -0.029956955
000290 62 f1 bf 3b 00 75 2d 3c c4 fd ec 3c 94 72 b7 bc
       0.0058576325 0.010586977 0.028929599 -0.022393502
0002a0 8d 1a 43 bd 4d 06 24 bd 6d 18 2a bc e9 dd 1b bd
       -0.047632743 -0.04004507 -0.0103818 -0.038053427
0002b0 43 6f 96 3c d5 5c 04 bd 56 47 49 bc 12 16 1d 3c
       0.0183636 -0.032315094 -0.012285074 0.0095877815
0002c0 9d 7d e5 3b ad d3 0e bd e8 56 c9 3b 4c 24 1a bd
       0.0070034997 -0.03486984 0.0061443932 -0.03763227
0002d0 66 1d b2 3c 31 c0 05 3d 80 b6 bd 3c 1f 27 fa bb
       0.021742534 0.03265399 0.023158312 -0.007634058
0002e0 65 95 47 bc eb 37 b0 bb f2 45 ea bc ad 19 29 3d
       -0.0121816145 -0.0053777597 -0.028597806 0.041284252
0002f0 23 ac 20 3d bc 49 64 bb 23 94 2d 3c 3b c2 b7 3c
       0.039226662 -0.0034833988 0.010594401 0.022431483
000300 33 92 75 3c 13 74 08 3c 8c fc 9c bc 23 e6 08 3d
       0.01498847 0.0083284555 -0.019163392 0.0334226
000310 59 96 62 3c c6 08 98 3c 87 ab bc ba 9a 3d 08 3d
       0.013829791 0.018558871 -0.0014394381 0.033261873
000320 0c fe 9b bc 81 58 8b 3c bc b1 37 3d 2b f4 7b bb
       -0.019042037 0.017009975 0.044847235 -0.0038445096
000330 fb 08 9c 3c 09 68 05 3c 9a e3 56 bc 8c 25 0c bd
       0.019047251 0.00814248 -0.013115788 -0.034215495
000340 e9 42 60 3c 5a 54 3a 3b 43 24 86 bc 1d 07 12 3d
       0.013687828 0.0028431625 -0.016374713 0.035651315
000350 79 70 ed bc 8a 6d f6 bc d4 96 53 bc 5f c8 f3 3c
       -0.028984295 -0.03008153 -0.012914378 0.02975863
000360 d5 b5 12 bd 87 72 04 3c 05 5e e7 bb ad f9 1b bd
       -0.03581794 0.008083946 -0.0070607685 -0.038079906
000370 05 dd b8 3c 82 6a a2 3a fb 32 1d 3d 44 ab 89 bc
       0.022566328 0.0012391361 0.038378697 -0.016805299
000380 26 28 18 3d 26 4c d8 bc d9 72 b1 3c 26 f1 e7 bc
       0.037147664 -0.026403498 0.021661209 -0.02831323
000390 cb f9 92 3c b0 85 0e 3d 09 13 76 bc 3b 66 1d 3c
       0.017941376 0.034795463 -0.015019187 0.009606893
0003a0 b9 2c 03 bc 99 c3 a1 3c af 5b 1e 3d 24 ca f5 3b
       -0.008006268 0.019746589 0.038661655 0.0075009037
0003b0 d3 d3 12 bd 32 10 45 3c 36 e9 e4 3c 77 22 19 bd
       -0.035846543 0.012027787 0.027943235 -0.037386384
0003c0 64 a0 c1 bc 9d ec 3e bd 81 ff 40 bd 16 3e 0c bd
       -0.02363605 -0.04661237 -0.047118668 -0.034238897
0003d0 3f 01 de bc 72 1a 46 bd 12 d1 21 bd a2 4d 96 bc
       -0.027100204 -0.048365064 -0.039506026 -0.018347565
0003e0 45 bb c1 bc c7 d8 3f bd a6 fb cf bc 88 ca 0a bc
       -0.023648867 -0.046837594 -0.02538855 -0.008471139
0003f0 91 9d d0 3c 51 ed e2 3b d5 dd 40 bc bb 89 ca 3c
       0.025465759 0.006925263 -0.011771639 0.024723878

bias f4 [32]
000000 15 12 05 bd f5 f9 2c bc bf e3 08 bd 53 44 30 bd
       -0.032487947 -0.010557641 -0.03342032 -0.04303391
000010 6b 4c 1a 3d 82 72 da 3c 0d 22 08 bd b8 a7 64 3b
       0.037670534 0.02666593 -0.0332356 0.0034890007
000020 82 a6 7b bc 45 c1 28 bb 60 4c 14 bd 54 c8 91 bc
       -0.015359523 -0.0025749963 -0.03620565 -0.01779572
000030 32 87 7d 3c f3 86 0c 3b f8 b2 e1 3c be b8 e8 bc
       0.015474128 0.002144274 0.02755116 -0.028408404
000040 79 c2 34 3d 67 43 0c 3d c9 a0 b4 3a 02 0b 6a bc
       0.044130776 0.034243967 0.0013780828 -0.014284851
000050 c8 3b 95 bc d3 60 99 3c c0 d5 da 3c a0 36 41 bc
       -0.018216982 0.018722927 0.026713252 -0.011792809
000060 95 25 c9 3c c0 30 e9 bc 2b 7c 1c 3b 8e 37 2d ba
       0.024554053 -0.028465629 0.002387772 -0.00066077046
000070 5b db 57 3b a3 3e 19 3c 91 18 dd 3c 82 fa af 3c
       0.0032937143 0.009353313 0.026989253 0.021481756

weight f4 [640]
000000 d9 07 7f 3f 76 6a 7f 3f a8 ef 7f 3f 16 63 7e 3f
       0.9962135 0.9977182 0.9997506 0.99369943
000010 a9 6e 7c 3f 07 4c 7e 3f a3 14 7e 3f 14 b3 7e 3f
       0.98606354 0.9933476 0.9925024 0.99492
000020 d1 8f 80 3f d0 84 7f 3f 3a 8d 7f 3f 29 f9 7e 3f
       1.0043889 0.9981203 0.9982487 0.9959894
000030 d5 d5 80 3f 63 19 81 3f e2 18 7f 3f b8 4e 7e 3f
       1.0065256 1.0085872 0.99647343 0.99338865
000040 d0 28 7d 3f 4f 26 7f 3f 2d 64 80 3f 30 68 7d 3f
       0.988904 0.9966783 1.0030571 0.989871
000050 18 9b 78 3f ec d4 81 3f 56 61 87 3f 16 03 84 3f
       0.97111654 1.0143104 1.057658 1.0313442
000060 6b 9d 81 3f f1 69 7e 3f 02 19 84 3f d0 85 8d 3f
       1.0126165 0.99380404 1.0320132 1.1056461
000070 fa d3 81 3f 1f b8 80 3f 65 5e 7e 3f ef 8f 7d 3f
       1.0142815 1.0056189 0.99362785 0.9904775
000080 7c 26 7f 3f 12 36 80 3f a1 d6 7d 3f 29 e2 80 3f
       0.996681 1.0016501 0.9915562 1.0069019
000090 f5 bb 7f 3f 85 50 80 3f 18 35 7f 3f bd 09 7f 3f
       0.99896175 1.0024573 0.9969039 0.99624234
0000a0 96 8b 7e 3f e4 84 7e 3f 72 6e 7e 3f 65 11 80 3f
       0.9943174 0.99421525 0.99387276 1.0005308
0000b0 47 44 7f 3f 09 65 80 3f e0 26 7f 3f cc 05 81 3f
       0.9971356 1.0030833 0.99668694 1.0079894
0000c0 65 60 7f 3f f1 1d 7f 3f a1 07 7f 3f 0c ec 80 3f
       0.9975646 0.9965506 0.99621016 1.0072036
0000d0 3e 5f 80 3f 29 cd 7f 3f ed 5c 80 3f 56 26 80 3f
       1.0029066 0.99922425 1.0028359 1.0011699
0000e0 1e 02 7f 3f c5 23 7e 3f 56 f4 7e 3f 30 10 7f 3f
       0.99612606 0.9927333 0.9959158 0.99634075
0000f0 4c 85 7f 3f 56 0c 7f 3f e7 c6 7f 3f 3f 18 80 3f
       0.9981277 0.996282 0.99912876 1.0007399
000100 9f 19 7d 3f 3c c7 80 3f d8 f0 7e 3f 41 55 80 3f
       0.9886722 1.0060802 0.9958625 1.0026017
000110 f5 98 7c 3f 8c 93 7c 3f 13 e5 7e 3f ad 9b 7d 3f
       0.98670894 0.9866264 0.9956829 0.9906567
000120 7c 2f 7f 3f 58 a6 7f 3f 6b 47 80 3f d1 94 7d 3f
       0.9968183 0.99863195 1.0021795 0.990552
000130 21 05 81 3f e5 f2 7f 3f 7e 27 80 3f b1 3f 80 3f
       1.007969 0.9998 1.0012052 1.0019437
000140 27 84 7f 3f 23 35 80 3f c0 d0 7f 3f d7 b8 7a 3f
       0.99811023 1.0016216 0.999279 0.97938293
000150 b2 fa 7e 3f 78 c5 80 3f cc bd 7e 3f 84 a2 80 3f
       0.9960128 1.0060263 0.9950836 1.0049596
000160 8e 20 80 3f 26 bc 7e 3f 52 ca 80 3f ef 02 81 3f
       1.0009935 0.9950584 1.0061743 1.007902
000170 c7 15 7e 3f ab ce 80 3f 85 09 80 3f 2f bb 7e 3f
       0.9925198 1.006307 1.0002905 0.9950437
000180 89 8e 80 3f 0b cd 7f 3f 0a b6 80 3f e3 ee 7f 3f
       1.0043498 0.99922246 1.0055554 0.9997389
000190 37 1a 7f 3f 99 40 80 3f fa 5d 7f 3f 7c 0c 80 3f
       0.99649376 1.0019714 0.9975277 1.000381
0001a0 c2 1e 80 3f e6 2c 80 3f 53 74 80 3f cd 14 80 3f
       1.0009387 1.0013702 1.0035499 1.0006348
0001b0 7d 0b 7e 3f d4 c7 7f 3f e9 1a 80 3f 12 f3 7d 3f
       0.9923628 0.9991429 1.0008212 0.9919902
0001c0 80 bd 7d 3f 53 3b 80 3f 16 6d 7e 3f c1 74 7f 3f
       0.9911728 1.0018104 0.993852 0.9978753
0001d0 56 90 7e 3f 10 ab 80 3f 00 84 80 3f 49 2e 7e 3f
       0.9943899 1.0052204 1.0040283 0.99289376
0001e0 bf bb 7d 3f 45 01 80 3f 8a 4d 7f 3f e4 31 7d 3f
       0.991146 1.0000387 0.9972769 0.9890425
0001f0 a8 2b 81 3f 9c a5 80 3f 0c 0b 7d 3f f4 4c 80 3f
       1.0091448 1.005054 0.9884498 1.0023484
000200 4d 10 7f 3f 18 37 7f 3f e3 22 7f 3f 71 31 7f 3f
       0.9963425 0.9969344 0.9966261 0.99684817
000210 0e 3b 7e 3f 40 af 7f 3f c4 9c 80 3f f3 3c 80 3f
       0.9930886 0.99876785 1.0047841 1.00186
000220 2f 2d 7e 3f b6 fa 7e 3f 70 42 7e 3f e4 7e 7e 3f
       0.99287695 0.99601305 0.99320126 0.9941237
000230 7b d0 7f 3f b9 f9 7e 3f c5 e8 7f 3f 6c 24 7d 3f
       0.9992749 0.99599797 0.99964553 0.988837
000240 49 e6 7e 3f f7 6a 80 3f eb 47 80 3f 14 c7 80 3f
       0.9957014 1.0032643 1.0021948 1.0060754
000250 ce f3 7f 3f 3e 75 80 3f 9f 64 7e 3f a2 ee 7b 3f
       0.9998139 1.003578 0.99372286 0.98411
000260 a9 90 80 3f 22 42 7f 3f 01 8a 80 3f 6a 02 80 3f
       1.0044147 0.99710286 1.0042115 1.0000737
000270 59 e3 80 3f 66 d5 80 3f 0a 18 80 3f 7b 02 80 3f
       1.0069381 1.0065124 1.0007336 1.0000757
000280 06 22 81 3f fc 2c 7f 3f 47 d2 7d 3f b5 de 80 3f
       1.0088508 0.99678016 0.9914898 1.0067965
000290 ee ac 7e 3f 0b b9 80 3f f5 46 7e 3f 2f 53 80 3f
       0.9948262 1.0056471 0.9932702 1.0025386
0002a0 a0 ee 80 3f 59 67 82 3f ec ec 7f 3f d0 9b 7e 3f
       1.0072823 1.0187789 0.9997089 0.994565
0002b0 14 48 7f 3f 8b 84 80 3f b4 29 80 3f 7c 42 7e 3f
       0.9971936 1.0040449 1.0012727 0.993202
0002c0 f2 c3 80 3f 3a 86 80 3f a8 2e 80 3f aa 33 80 3f
       1.0059798 1.0040963 1.0014238 1.0015767
0002d0 8b d7 7f 3f 36 27 80 3f d1 fa 7d 3f 21 36 7f 3f
       0.9993827 1.0011966 0.9921084 0.9969197
0002e0 fa ec 83 3f 56 dc 84 3f 4f c7 81 3f 38 c2 81 3f
       1.0306695 1.0379741 1.0138949 1.0137396
0002f0 ce c3 81 3f af 2e 7f 3f b8 7f 7d 3f 53 69 80 3f
       1.013788 0.9968061 0.9902301 1.0032142
000300 93 7e 80 3f a0 87 7e 3f 0a 74 80 3f 7b 1b 7f 3f
       1.0038627 0.994257 1.0035412 0.99651307
000310 a9 0b 7e 3f be 39 80 3f bf 19 7d 3f a1 8a 7f 3f
       0.9923654 1.0017622 0.9886741 0.99820906
000320 8f 31 80 3f 56 89 7e 3f a1 10 80 3f 2a b5 7e 3f
       1.0015124 0.9942831 1.0005075 0.99495184
000330 02 ff 7e 3f 4c 03 7e 3f b6 ae 80 3f be f4 7f 3f
       0.9960786 0.9922378 1.0053318 0.9998282
000340 74 9d 7f 3f 86 8e 80 3f ce a1 7e 3f 11 fc 80 3f
       0.9984963 1.0043495 0.99465644 1.0076925
000350 75 7e 80 3f 03 b3 7f 3f a7 9f 7e 3f 5c ca 7e 3f
       1.0038592 0.99882525 0.9946236 0.99527526
000360 85 5d 80 3f 08 aa 80 3f ed cf 7c 3f 48 93 7e 3f
       1.002854 1.005189 0.9875477 0.99443483
000370 2d 05 7f 3f 02 7a 7f 3f d0 e2 7c 3f 3e aa 7d 3f
       0.9961727 0.99795544 0.9878359 0.99087894
000380 c4 88 7e 3f c0 eb 80 3f 09 fa 7e 3f a5 4c 80 3f
       0.9942744 1.0071945 0.99600273 1.002339
000390 3d fb 7d 3f eb 54 7f 3f fb e9 80 3f 80 7d 7e 3f
       0.99211484 0.9973895 1.0071405 0.9941025
0003a0 7c f4 7d 3f dd f5 7f 3f 08 96 7f 3f 2d 11 80 3f
       0.9920118 0.9998453 0.99838305 1.0005242
0003b0 ec 58 7f 3f f0 74 80 3f 6d 99 7f 3f 28 fe 7f 3f
       0.9974506 1.0035686 0.99843484 0.99997187
0003c0 01 a9 81 3f 02 ce 81 3f 13 2a 81 3f 8e f1 80 3f
       1.0129701 1.0140994 1.0090965 1.0073717
0003d0 61 83 83 3f 37 87 84 3f 4d 69 82 3f c0 6a 82 3f
       1.0274469 1.0353764 1.0188385 1.0188828
0003e0 6f f7 81 3f 6b b9 80 3f 10 40 80 3f b5 bb 7f 3f
       1.0153636 1.0056585 1.001955 0.99895793
0003f0 9e 2d 7e 3f 5e e7 7f 3f 3f a1 7d 3f 0e 69 7f 3f
       0.99288356 0.99962413 0.99074167 0.99769676

bias f4 [640]
000000 26 27 58 bb ab a7 c9 ba 64 02 88 ba 98 f4 ea bb
       -0.0032982319 -0.0015385052 -0.0010376689 -0.007170271
000010 18 c1 62 bc 98 da 12 bc a4 0f ba bb 2e 97 bd bb
       -0.013839982 -0.00896325 -0.005678134 -0.0057858443
000020 a8 71 d8 3b 5a e6 6d ba d8 12 46 bb 7a 19 a4 bb
       0.0066053458 -0.00090751576 -0.0030223634 -0.00500792
000030 b2 e4 67 3b 9f 97 8e 3b 0c 86 ec ba fb db d2 bb
       0.0035384116 0.0043515707 -0.001804532 -0.006434915
000040 b2 d4 21 bc 23 17 9d ba d0 94 de 39 0a 33 24 3c
       -0.009877371 -0.0011985045 0.00042454014 0.010021934
000050 b3 e6 38 3c 94 32 7d 3b 76 ce 6f 3a d6 dd 10 bb
       0.011285472 0.0038634883 0.00091478915 -0.002210488
000060 80 77 d9 b9 6d 4d a7 3b 46 73 29 bc 2f 96 cf 3b
       -0.000414785 0.0051056654 -0.010342425 0.006335042
000070 80 42 0c 3c e7 ac c9 bb 49 ce 9f bb 61 0e 23 bc
       0.008560777 -0.006154645 -0.004876886 -0.009952159
000080 13 34 87 bb 49 c2 37 3b 4a da d5 bb c2 33 02 3c
       -0.004126081 0.0028039387 -0.006526266 0.00794691
000090 7f 0b ba ba 01 b0 93 3b 5d 1d 8e bb d3 0a 63 bb
       -0.00141941 0.0045070653 -0.0043369965 -0.0034643903
0000a0 12 16 89 bb e2 6a ab bb 2c 2e ca bb df b0 ac 3a
       -0.004183539 -0.0052312473 -0.006170055 0.001317527
0000b0 3e 24 0b bb ef b9 e5 3b e1 bd ec ba 86 93 0a 3c
       -0.0021231319 0.0070106904 -0.0018061959 0.008458024
0000c0 1b 4d 30 bb fa 38 d3 3a 69 21 78 3b e8 fd ef bb
       -0.0026901427 0.0016115003 0.003786171 -0.007323969
0000d0 43 14 42 bb 86 65 44 3a f8 b7 3d bb cc 0e a1 ba
       -0.0029614128 0.0007491935 -0.0028948765 -0.0012287735
0000e0 9b ae 7f 3b da e4 ed 3b ab a2 85 3b b2 d6 6e 3b
       0.0039013985 0.0072599472 0.0040782294 0.0036443886
0000f0 0a 40 b3 3a 10 44 73 3b 5c 0a 65 3a 63 97 44 ba
       0.0013675701 0.0037119426 0.00087372004 -0.0007499365
000100 36 bb 39 3c 56 54 c8 bb f0 a2 87 3b 91 65 2c bb
       0.0113361385 -0.0061135693 0.0041392967 -0.0026305655
000110 f3 4f 58 3c 0d f5 34 3c 67 52 31 3b fc d5 19 3c
       0.013202655 0.011044753 0.0027057172 0.009389397
000120 1d 03 4d 3b 4d 4b ac 3a 95 75 0f bb 07 0f 1b 3c
       0.0031282373 0.0013145 -0.0021890153 0.009464032
000130 91 38 03 bc 2d a5 25 39 94 11 a3 ba 96 ab 03 bb
       -0.008009092 0.00015797159 -0.0012441152 -0.0020091287
000140 01 7f f2 3a 9b 02 d8 ba c5 6b 32 3a bf 9a a5 3c
       0.0018500985 -0.0016480269 0.000680622 0.02021539
000150 f9 70 7e 3b 44 6e c9 bb e8 40 9f 3b fb 42 a3 bb
       0.0038824661 -0.006147178 0.0048600323 -0.00498235
000160 cb 55 87 ba 97 43 99 3b 02 77 f1 3b 4e f3 0a 3c
       -0.0010325251 0.004677247 0.007368923 0.00848086
000170 a3 00 04 bc 9c ba f1 3b f8 44 a7 b9 fa 0a ac bb
       -0.008056792 0.007376982 -0.00031904108 -0.005250332
000180 f3 3b 52 3b 9c f6 25 ba ef 09 da 3b d3 86 2b 3a
       0.003207919 -0.0006330998 0.006654016 0.00065432227
000190 4d c7 89 3b 66 91 06 bb 39 a3 1e 3b 73 66 f5 b9
       0.0042046667 -0.0020533442 0.0024206175 -0.00046806372
0001a0 c8 e7 83 ba bc 32 bc ba ff 4b 68 bb 8e c6 36 ba
       -0.0010063583 -0.0014358382 -0.0035445688 -0.0006972336
0001b0 4d 5a f9 3b 07 3a 67 3a b0 8f 0a 3c ef 9f 1e bc
       0.0076096416 0.00088205974 0.008457109 -0.009681686
0001c0 9c c9 3f bc 1d 08 83 3a 40 3b cf bb ea 24 9d b9
       -0.011705782 0.0009996925 -0.006324202 -0.00029972877
0001d0 75 88 c6 bb b9 62 bf 3b a9 a1 ac 3b c6 62 1e bc
       -0.0060587474 0.005840626 0.005268295 -0.009667104
0001e0 b2 6a 20 3c 99 36 a0 b7 c8 c5 33 3b ff 8a 33 3c
       0.009791063 -1.909891e-05 0.002743112 0.010958432
0001f0 ca eb 16 bc 77 8b a8 bb 07 eb 3c 3c b8 36 18 bb
       -0.00921149 -0.0051435786 0.011530644 -0.0023225974
000200 17 6e 6c 3b f5 31 45 3b 85 cf aa 3b be 30 39 3b
       0.003607636 0.003008959 0.0052127265 0.0028257812
000210 61 db d0 3b 05 f5 81 3a 38 9f af bb d5 60 fa ba
       0.0063738083 0.000991494 -0.0053595565 -0.0019102345
000220 6a e5 f0 3b 93 34 2f 3b 0e 9f c2 3b c3 b4 84 bb
       0.007351567 0.0026734218 0.005939371 -0.004049869
000230 98 ba c5 bb 3c b2 67 bb a9 59 3d 3a 2b d1 45 bc
       -0.0060342066 -0.0035354039 0.0007223138 -0.012073795
000240 bf b9 e4 bb 33 71 70 3b ba 1a f1 3a bf 80 d9 3b
       -0.0069801505 0.0036688566 0.0018394806 0.006637662
000250 1e f0 8a ba b8 6a 83 3b 4b 00 cb 3b b2 f4 81 3c
       -0.0010600125 0.0040105246 0.0061951033 0.01586375
000260 6e 06 92 bb 5f ab 3b 3b d9 c9 8c bb 86 67 fd b8
       -0.004456333 0.002863608 -0.004296523 -0.00012083263
000270 8b fc e7 bb b5 9e d5 bb dc d1 43 ba 8a f4 f1 b7
       -0.007079666 -0.0065191635 -0.0007469931 -2.8843311e-05
000280 7b 14 f2 bb ab ab 17 3c 81 3f ce 3b 47 6a d6 3b
       -0.0073876954 0.009257237 0.0062941913 0.006543431
000290 6e cc 8f bb 35 f6 66 bb 58 73 b1 3a 9d e6 6e bb
       -0.0043883836 -0.0035241966 0.0013538403 -0.0036453374
0002a0 42 94 8c ba b0 f7 e7 bb b7 12 8e ba 86 48 b9 bb
       -0.0010725337 -0.007079087 -0.0010839318 -0.0056543974
0002b0 be 66 29 bb ff b1 86 3b 2e 26 9b 3a 56 ee dc bb
       -0.0025848593 0.0041105743 0.001183694 -0.006742279
0002c0 c0 a7 cf 3b 19 69 9b 3b 07 3c cb 3a f0 c5 1e 3b
       0.006337136 0.004742753 0.001550556 0.0024226867
0002d0 8c f3 6b bb 91 2e 43 ba be 29 9b ba 7a 2a 30 ba
       -0.003600332 -0.00074455986 -0.0011838002 -0.00067201967
0002e0 34 be 04 3c 0c 0e 5b 3c 55 3d 46 3b c7 37 df 3a
       0.008101989 0.013370048 0.003024896 0.0017030173
0002f0 3b 69 c2 b9 5b c9 ec 3b 2c d5 1f 3c bc 6d 5b bb
       -0.00037080966 0.007226152 0.009755414 -0.0033482155
000300 1a d0 7f bb c7 d2 bb 3b 1c 2a 6a bb 0c d2 64 3b
       -0.003903395 0.0057319137 -0.0035730666 0.0034915237
000310 25 fa fa 3b b7 84 e8 ba f5 aa 39 3c ce fa e5 3a
       0.007659214 -0.0017739747 0.011332263 0.0017546059
000320 cd 72 18 bb f2 13 cb 3b 14 b3 c1 3b 9a 04 74 3a
       -0.0023261786 0.006197446 0.0059112404 0.0009308547
000330 75 e3 5f ba e5 16 df 3b ef 27 af 3a 2e ea 4f ba
       -0.00085406686 0.006808149 0.0013363342 -0.0007931319
000340 18 54 fc ba 36 44 b4 bb 35 de ad 3b 94 de 00 bc
       -0.0019251136 -0.0055012954 0.00530603 -0.007865567
000350 90 0e 80 bb 4d 84 91 3a 47 0c b1 3b ef a0 9b 3b
       -0.003907986 0.0011102051 0.005403075 0.0047494094
000360 68 5c 41 bb d0 82 aa bb fd f4 4c 3c ed 44 b5 3b
       -0.0029504541 -0.0052035823 0.012509582 0.0055318982
000370 14 8b 7a 3b 2c b7 04 3b 38 fb 44 3c e5 ca 15 3c
       0.003822987 0.002025078 0.012022786 0.009142612
000380 71 20 bb 3b fb 2f ec bb 25 74 83 3b 10 0d 1c bb
       0.0057106544 -0.007207868 0.0040116482 -0.0023811497
000390 b9 e2 00 3c 3a 7f 28 3b 43 e5 ea ba d8 76 bf 3b
       0.007866555 0.0025710599 -0.0017921109 0.0058430247
0003a0 a9 29 03 3c 3a ac 1c 39 08 c7 d2 3a 01 ab 17 ba
       0.008005538 0.00014941479 0.0016081044 -0.00057856744
0003b0 f0 ed 22 3b 51 6c 73 bb bd 87 ce 3a ae b5 03 bb
       0.002486106 -0.003714342 0.0015757006 -0.0020097303
0003c0 32 21 ed 3b 61 1d fc ba 53 20 fc 3a 1b 60 83 bb
       0.007236623 -0.001923483 0.0019235708 -0.0040092594
0003d0 20 2a d3 3a 0e d1 29 bc 93 a8 12 3c a8 20 53 bb
       0.0016110577 -0.010364784 0.008951324 -0.003221551
0003e0 6c 02 b4 3b 46 ff 12 3c c0 01 bf 39 0e b5 5e 3b
       0.005493453 0.008971995 0.00036431663 0.0033982429
0003f0 51 83 c7 3b d1 f7 53 3b fa 25 12 3c 18 cd 9c ba
       0.006088652 0.0032343755 0.008920187 -0.0011962978

weight_ih_l0 f4 [512, 32]
000000 24 c3 09 bd 27 cc a9 bd e3 e7 f1 bc fd 7d b3 bd
       -0.033633366 -0.08290892 -0.029529518 -0.08764265
000010 e4 0b fa 3c 49 59 b6 3c 6b a3 a0 bd 5d 8e d0 bc
       0.030523248 0.022259371 -0.078436695 -0.02545851
000020 9a 46 b3 bd 4c 22 5e bd f7 50 b3 3b 79 14 c0 3c
       -0.087537006 -0.054231927 0.0054722982 0.023447262
000030 e6 9e 00 3d 33 c0 1f bd 13 f6 9c 3d f2 63 a0 3d
       0.031401537 -0.039001655 0.076641224 0.07831563
000040 92 d2 08 bd d8 12 58 bc 78 82 ec 3c a3 84 98 3d
       -0.03340394 -0.013188086 0.028870806 0.074471734
000050 04 39 58 3d 60 e3 82 bd 60 4f a6 bd 3a e9 46 bd
       0.05278875 -0.063910246 -0.08120608 -0.048562266
000060 ce cb 8a bc 17 38 a3 3c 85 eb b5 bc 38 ce 24 3d
       -0.016942885 0.019924207 -0.022207031 0.040235728
000070 fb ba 8f 3d 5e 26 dc bc db a9 76 bd ba 47 00 bd
       0.070180856 -0.026873764 -0.06022058 -0.031318404
000080 7b 00 1c bd 5a 18 4c bd 17 51 7e bd e3 b1 58 3d
       -0.038086396 -0.04982791 -0.062089052 0.05290402
000090 3c 17 b6 3c 03 26 09 3d 61 79 69 bd 13 46 33 3d
       0.022227876 0.033483516 -0.05700052 0.043768
0000a0 c0 06 4c bd 7d 1c b9 3d f1 e4 cc 3c 5c 46 6c bd
       -0.049811125 0.09038637 0.025011512 -0.057684287
0000b0 f2 f6 35 3d 58 94 94 bd c8 99 bc bc de 28 2a bd
       0.04442496 -0.07254857 -0.023022547 -0.04154288
0000c0 b0 70 44 3d f9 aa bf bc 81 5f db bc da 1d 44 3d
       0.04795903 -0.023396956 -0.026778938 0.04788003
0000d0 07 bb b4 bc ae 14 04 bc 1d a6 2f bc 8f 54 9f bd
       -0.022061838 -0.008061571 -0.010720757 -0.077798
0000e0 c1 94 50 bd 50 e7 3a 3a 78 86 71 bd 13 70 4e 3c
       -0.050923113 0.0007129805 -0.05896613 0.012599963
0000f0 c1 86 1e bd 2c 45 5d bd 8c f6 86 3d 0f 23 93 3b
       -0.03870273 -0.054021046 0.06589994 0.0044902633
000100 fa a9 b7 3d ac ec 90 3d 10 81 8c 3d 2d 7d 4f 3c
       0.08967967 0.070763916 0.06860554 0.012664122
000110 98 85 9a bc 39 b8 21 3d bd 65 bc 3c 6f 94 a8 3d
       -0.01886253 0.03948233 0.022997731 0.082314365
000120 15 e1 a8 3d d2 0b 92 3d b9 fc a2 3d 95 e2 1c 3d
       0.08246056 0.07131161 0.07958359 0.038302023
000130 57 b6 4a 3c a2 7a 91 bd 7c 4a a5 bd 63 1c 9d 3b
       0.012372575 -0.071034685 -0.080708474 0.0047946437
000140 b7 b7 74 3d 66 8b b6 bd 81 03 91 3d 21 b6 b8 3c
       0.059745517 -0.08913307 0.070807464 0.022547783
000150 33 7c 76 b8 f8 63 1d 3d 54 5f 87 bd ab 6b 1d bc
       -5.876664e-05 0.038425416 -0.06609979 -0.00960819
000160 f9 ae 59 3b bf ea a9 3d 9f 94 3e bb ac 4d 74 bd
       0.0033215864 0.082967274 -0.0029080284 -0.059644386
000170 cb 68 75 bc a8 4f 32 bd a0 f7 86 bd 92 fd 1c 3d
       -0.014978598 -0.043532997 -0.065901995 0.03832776
000180 bb 15 91 3d 53 29 42 bd 03 f3 06 bd cc 3d 16 3d
       0.07084223 -0.04740269 -0.032946598 0.036680028
000190 e2 2f 70 bd 18 df 6d bc f4 0d a5 bd 11 ea d7 3b
       -0.058639415 -0.014518522 -0.08059302 0.006589182
0001a0 22 3d a3 bd 71 93 33 bd b6 de ab 3d a8 7f 2f 3d
       -0.079706445 -0.043841783 0.08392088 0.04284635
0001b0 ad bf 6b 3d 56 b2 9a bd 83 53 81 3d a8 de 14 3d
       0.057555843 -0.07553546 0.06314757 0.036345154
0001c0 5a 7b 41 3d 68 60 35 3d a1 9f f2 3c 38 25 6f 3d
       0.047236778 0.044281393 0.029617133 0.058385104
0001d0 95 5c 5c bd 15 e4 56 3d 9a 0d 45 bd 28 e8 54 3d
       -0.05379923 0.05246361 -0.048108675 0.051979214
0001e0 1a ee b2 3d e0 b6 9c bd 3c c3 8d ba d9 4d e0 3b
       0.087368205 -0.07652068 -0.0010815631 0.0068452177
0001f0 38 b5 a1 3d 03 74 37 bd 1a 99 5c bc 26 f1 e4 bc
       0.07895893 -0.04478837 -0.013464237 -0.02794702
000200 67 7b c8 3c 52 58 a2 3d c1 b7 97 3a fd 6f 80 bd
       0.024472905 0.07927002 0.0011575149 -0.0627136
000210 3f a1 04 ba e1 05 83 3d a7 f9 86 bc 9f c3 09 bd
       -0.0005059428 0.06397606 -0.016476465 -0.033633824
000220 4a f5 90 3c 11 b0 cb 3b 07 6e 8d 3d d8 94 bd 3c
       0.017695088 0.006216057 0.06905752 0.023142263
000230 ec ac 5b bd 8c cb 03 3d 9d 08 6b 3d 9e a8 97 bd
       -0.053631708 0.03217654 0.05738126 -0.07405208
000240 fc c9 be bc 21 ca 6e 3d 1e 2b 13 bd e5 de 21 bd
       -0.023289673 0.058298234 -0.03592979 -0.03951921
000250 98 37 18 bd 95 a7 6c 3d 3f 6f ad bc 61 01 2c bb
       -0.037162393 0.057777006 -0.02117121 -0.002624594
000260 bb 57 25 bd a0 76 bd 3d c3 ad 7d 3d af 97 27 3d
       -0.04036687 0.092511415 0.06193329 0.04091614
000270 62 c2 b8 bc 61 0a 5a bc b2 5e 7f 3d 54 6d 48 3d
       -0.022553626 -0.013308139 0.062346168 0.04893239
000280 04 8d 82 3d fb 85 a1 3c 86 cd 9b 3d 5f 65 a4 3b
       0.06374553 0.019717207 0.0760756 0.005016967
000290 57 6d 96 3d 6e 41 0b 3d a3 84 80 bd ee 39 3e bd
       0.07345074 0.033997945 -0.062752984 -0.046441965
0002a0 b1 61 8b 3d 09 c9 e8 3c 22 cd e1 3c 4a 61 6b 3c
       0.068057425 0.028416174 0.027563635 0.014366457
0002b0 a3 16 21 bd 2c bb a0 3b 92 73 d1 3d 2a 23 ff bc
       -0.03932823 0.004905125 0.102271214 -0.031144697
0002c0 1a df a4 3d 95 b4 1b 3d 06 d2 87 3d f9 8a 01 bc
       0.08050366 0.038014013 0.06631856 -0.007906669
0002d0 43 9f 74 bd 51 f1 ab 3d cf a7 4d 3d 04 85 bf 3c
       -0.059722196 0.08395637 0.050208863 0.023378856
0002e0 fc 04 96 3d 13 e5 50 bc 11 cb 1e 3d 78 85 11 3d
       0.073251694 -0.012749928 0.038767878 0.035527676
0002f0 fb 79 71 bd 7a 99 6a 3d e3 e1 12 3d dc 0a 3e 3d
       -0.05895422 0.057275273 0.035859954 0.046397075
000300 3f 71 42 bc 5c 64 a9 bd 4c 90 20 3d 52 3f e0 3c
       -0.01186782 -0.08271095 0.039200112 0.027373943
000310 90 b8 7d bd 3c 7f 75 3d 0a 7b 6d bc d9 bc 24 3d
       -0.06194359 0.059935793 -0.014494667 0.04021916
000320 67 b9 81 3c 96 dc a6 bc 5d ee 89 bd b2 06 61 bd
       0.015835477 -0.020368855 -0.06734917 -0.054938026
000330 93 04 91 bd f0 c8 ae bd 71 92 97 3c 1b 89 5b bd
       -0.070809506 -0.085344195 0.018502446 -0.05359755
000340 43 4a 25 3d c4 66 ea 3c 68 d5 89 bd 7c 10 bf 3c
       0.040354025 0.028613456 -0.06730157 0.02332329
000350 7c 3b 8e bd ee 54 8b bd 95 9a 68 3c 41 a7 aa 3d
       -0.069449395 -0.068033084 0.0141970115 0.083326824
000360 1e a3 53 bd b4 de 40 bc 9b eb c3 ba b7 e5 0c ba
       -0.051669233 -0.011771847 -0.0014947535 -0.00053748064
000370 30 fa 7e 3a 8b 65 11 bd be 31 12 bd d7 dd 5c 3d
       0.0009726612 -0.03549723 -0.03569197 0.0539225
000380 de 8a 00 bd 1f 94 91 bd 6e d5 7b bc 1f 2d 1a bd
       -0.031382434 -0.0710833 -0.01537071 -0.037640687
000390 22 54 9a 3d 11 69 12 bc bf 3d bf 3c ed 46 d2 ba
       0.07535578 -0.008936183 0.023344873 -0.0016042866
0003a0 6e 80 b2 bd 5f 9b ad bc 0f 56 93 bc 19 93 fb bc
       -0.08715902 -0.02119225 -0.017985372 -0.03070979
0003b0 77 05 ec bc e3 d9 57 bc 4f 82 b8 3d 13 54 a9 3c
       -0.0288112 -0.013174507 0.090092294 0.020669973
0003c0 91 09 88 bc af 75 38 3d ec a3 18 bd 60 2a 4b bd
       -0.016606124 0.045034107 -0.037265703 -0.04960096
0003d0 7c df 1c 3d 3f d3 53 3d 07 be 98 3d 16 3b 97 3d
       0.03829907 0.05171513 0.0745812 0.073843166
0003e0 53 2e 05 bd 2a b5 a3 3d 34 81 1f bc c6 83 05 bd
       -0.03251488 0.07993539 -0.009735394 -0.032596372
0003f0 eb 37 a5 bc 2b d9 2e bc 78 9a 83 bd e8 b4 66 bd
       -0.020168265 -0.010671894 -0.06425947 -0.05632487

weight_hh_l0 f4 [512, 128]
000000 c2 6d bd bb e9 7a 27 bd 99 76 32 bd 2e d6 df 3b
       -0.0057809064 -0.0408887 -0.043570135 0.006830952
000010 97 77 ab bd a0 ed 6f bb 2b 2c 96 bd d5 de 65 3d
       -0.08372419 -0.0036610141 -0.07332643 0.056120712
000020 81 98 74 3d e0 4b 82 bd aa 44 5c bc 2b b4 96 3c
       0.05971575 -0.06362128 -0.013444105 0.018396458
000030 01 54 64 3d 38 d8 9e 3c dd 9c 89 3d 4b b7 ff bc
       0.055744175 0.01939021 0.067193724 -0.03121533
000040 54 fc d9 3c db dd a2 3c d1 f3 84 bd 2f 30 00 3d
       0.026609577 0.01988118 -0.06491817 0.03129595
000050 c1 f6 51 3c e0 ac 04 bd 25 8d 0d bd 2f f1 25 bc
       0.012815178 -0.03239143 -0.034558434 -0.010128303
000060 30 68 95 3d 16 2a 10 bd 8d 72 50 bd 44 06 1d bd
       0.07295263 -0.035196386 -0.050890494 -0.038336053
000070 25 bd 4d bd d4 f1 95 bd 45 8f b6 bd b5 a8 77 bd
       -0.05022921 -0.07321516 -0.08914045 -0.060463626
000080 34 6b 09 3c 81 5a 80 ba d1 76 14 bc 02 1f e5 bb
       0.008387376 -0.0009792597 -0.009061531 -0.006992222
000090 98 90 18 3d 6f 81 33 3d 51 01 c7 3d bd 86 87 bb
       0.03724727 0.04382461 0.09717048 -0.004135935
0000a0 01 af 37 bd be 62 5a bc 6d 53 f8 3c 56 0d 97 3c
       -0.04484463 -0.013329206 0.030313218 0.018438976
0000b0 bb 05 a3 bc 5a 7a c6 bd 1f 30 8c 3d c6 51 92 bd
       -0.019900193 -0.096913055 0.06845116 -0.07144503
0000c0 c0 9d 3d 3d a8 c7 21 bd 2d ba 21 3d 3d f2 54 bd
       0.04629302 -0.039497048 0.03948419 -0.05198883
0000d0 4d f9 05 3d 3c ff 66 3d 9e 05 aa 3c 46 2a 44 3d
       0.032708455 0.056395754 0.020754632 0.047891878
0000e0 89 c6 5f 3d 99 73 77 3d 6e 7b 99 bb 6a 01 58 3d
       0.054632697 0.060412977 -0.0046839034 0.052735724
0000f0 d7 a2 1e 39 8f 14 84 3d 0f 39 a1 bc b4 4d e5 3c
       0.00015128717 0.06449234 -0.019680528 0.027991153
000100 69 dc 6d 3d dd b3 02 bc c0 81 88 3d 03 04 7c 3d
       0.058071528 -0.007977453 0.06665373 0.061527263
000110 e0 1c 49 3c f5 79 2e bd 31 7f b3 3d 4c 80 66 3d
       0.012274951 -0.042596776 0.08764494 0.056274697
000120 08 ee ac bd 92 40 31 bd 33 96 9d bd c7 48 aa 3d
       -0.08443838 -0.04327447 -0.07694664 0.083146624
000130 00 63 ea 3c 3c 78 95 3d 87 78 ce 3c 11 b0 b1 3d
       0.02861166 0.072983235 0.025203956 0.0867616
000140 31 fb c8 3d a7 e8 76 bd d8 63 70 bb 9a 04 38 bd
       0.09813536 -0.06028047 -0.0036680605 -0.044926263
000150 12 40 14 bd ee e9 a5 3c e9 2f ad bd 68 91 a6 3c
       -0.036193915 0.020253148 -0.08456404 0.020333007
000160 a4 84 23 3d 00 fa 6c bd a4 0e 80 bc be d7 86 bc
       0.039921418 -0.057855606 -0.015631981 -0.016460296
000170 f4 25 63 bd c7 40 90 bd 6d ef c5 bc fd 84 be bd
       -0.055456117 -0.07043605 -0.024162019 -0.09302709
000180 25 f8 3b bd fc 28 20 bd fa a9 a6 3d e0 73 71 bd
       -0.045890946 -0.039101586 0.08137889 -0.058948398
000190 53 c4 08 3d 16 cb 5a bd a8 e4 1e bd 7b 27 81 bc
       0.033390354 -0.053416334 -0.038792282 -0.015765896
0001a0 ad e5 e5 3c 9b ac 8c 3d 0f 06 a8 bd 76 4f 57 3d
       0.02806362 0.068688594 -0.082042806 0.052566014
0001b0 8e d8 97 bd 7c 6f 88 bd 58 6c 84 bc 4f 9c 95 3d
       -0.074143514 -0.06661889 -0.016164944 0.07305204
0001c0 a7 ea 08 bd da 58 34 3d 7c c4 32 3d ab b6 00 bc
       -0.033426907 0.044030048 0.043644413 -0.007856051
0001d0 e1 49 1d bd b4 ea c9 b9 c6 6f 3f bd e1 99 5f 3d
       -0.038400535 -0.00038512575 -0.046737455 0.05459011
0001e0 61 74 dd bc 8c 6c 49 bd 28 c5 0c bc fb d2 44 3c
       -0.027033033 -0.049175784 -0.008591928 0.012013192
0001f0 ad 52 6b 3d c7 b9 72 3d 5d f7 4c bc ff cf 0a 3d
       0.057451893 0.059259202 -0.012510148 0.033889767
000200 cb 3f 08 3d 1b f9 06 3d 79 0e 27 bd 35 f1 8d 3b
       0.033263963 0.03295241 -0.040785287 0.0043317326
000210 c1 6a 27 bd b5 4d 06 3c 94 78 19 bc cc 65 ba bc
       -0.040873293 0.008197238 -0.009367127 -0.022753619
000220 8b 33 03 bc cb 54 18 3b 93 e1 6f bc 7e d5 b9 39
       -0.008007894 0.00232439 -0.014641183 0.00035445014
000230 28 1f a1 bb c7 7b 57 bd 2c 4a 40 bb de 18 97 3d
       -0.004917044 -0.052608278 -0.0029341085 0.0737779
000240 62 d5 6b bd 85 86 7f bd 71 a2 80 3d 1a 45 03 bd
       -0.057576545 -0.062384147 0.06280983 -0.032048322
000250 8d a2 72 bd b1 e3 c8 bc 32 84 c4 bc 67 1f 97 bb
       -0.05923705 -0.024522634 -0.023988817 -0.0046118977
000260 a8 e3 8d 3d cf 21 0a 3d cc 77 5c bc b4 03 7f bd
       0.069281876 0.03372365 -0.013456296 -0.06225939
000270 ca 8c 01 3d d8 a9 1d bd 8c c8 b8 3c 87 ab 39 bd
       0.031628408 -0.038492054 0.022556566 -0.045329597
000280 80 ba b1 3a ca 59 a0 3d 15 43 0e bd c8 6a 5a 3d
       0.001355961 0.07829626 -0.034731943 0.05332449
000290 56 08 90 3d 47 e2 a8 bd 88 3f 95 3d c7 e0 11 3d
       0.0703284 -0.08246284 0.07287508 0.035614755
0002a0 ca b9 da 3c 94 be 73 3d c8 d8 2a bd bc 46 b0 3d
       0.02669992 0.05950792 -0.041710645 0.086072415
0002b0 72 75 a7 bc 7b 70 fc bc 91 54 98 3d 17 11 eb bb
       -0.020441744 -0.030815354 0.07438005 -0.007173668
0002c0 e5 a6 fc 3c 0c 77 72 3d 2b 5b 42 bc ad 81 a8 bd
       0.0308413 0.059195563 -0.011862556 -0.08227859
0002d0 3f 50 25 bd 51 41 93 bd 63 f7 8a bd 59 d5 95 3b
       -0.04035973 -0.071901925 -0.067854665 0.004572552
0002e0 1b ba fa 3c 0a 69 9d bd 62 44 9e bd 43 0f 6e 3d
       0.03060632 -0.0768605 -0.07727887 0.058120023
0002f0 cd 26 48 bb 1e 4a 7c 3d 60 0f a3 3d 7e 97 7d 3b
       -0.0030540705 0.06159412 0.07961917 0.0038695033
000300 30 ee 70 3d c2 d1 bd bd 3e 65 4d 3d cb 9e 16 bd
       0.058820903 -0.09268524 0.05014538 -0.03677253
000310 a0 bf aa 3c 77 86 03 bc fc 1a 84 3d cc c9 5f bd
       0.020843327 -0.008027664 0.06450459 -0.054635808
000320 93 ad b6 bd ce 7d 55 3d 21 e5 1b 3b 83 d0 15 3b
       -0.089198254 0.05212193 0.0023787695 0.0022859878
000330 2a 70 d6 3c e9 bb f3 3c 42 f7 c8 bd 69 ab 19 bd
       0.02617653 0.029752688 -0.09812786 -0.037516985
000340 6f 40 20 3d 5f 9f 0a 3d a9 74 4d 3c 7d 87 ba bc
       0.03912395 0.033843394 0.012540021 -0.022769684
000350 ff 62 44 bd 56 9d 70 bd 64 ad 94 bc 40 46 7d 3d
       -0.047945973 -0.058743797 -0.018149085 0.061834574
000360 ed 78 8b 3c 18 a2 c9 bb 9b c6 2a 3d b2 fd 8a bd
       0.017025435 -0.0061533563 0.04169331 -0.0678667
000370 61 e4 58 bd 1f c7 a6 bd ad b8 58 bd cf 8c 83 bd
       -0.052952174 -0.08143448 -0.052910496 -0.064233415
000380 d7 70 88 3d 2e 0e c6 bc 9e fe 54 bd 29 c9 80 3d
       0.066621475 -0.024176683 -0.052000634 0.06288368
000390 14 9c 12 bc ae 08 a5 3c 97 67 99 bd fe c3 18 bc
       -0.008948345 0.02014574 -0.07490461 -0.009324072
0003a0 31 59 c5 bc 9b b7 80 bd 37 69 5d 3d 2b 3c 10 bd
       -0.024090381 -0.0628502 0.05405542 -0.03521363
0003b0 3a 21 b0 bd ae a6 f7 3c 0f 5b 5d 3d 4e 11 1d bd
       -0.086000875 0.030230846 0.05404192 -0.03834658
0003c0 00 b9 41 bc c7 72 48 3c f3 e5 5e bd 3d 0e b0 3c
       -0.011823893 0.012234396 -0.054418515 0.021491164
0003d0 12 2c 29 3d 3b d9 a4 3c 41 81 1a bd e3 d0 03 3c
       0.041301794 0.020123115 -0.037720922 0.008045408
0003e0 e9 a9 aa 3d 50 21 a2 3d 15 e7 1c 3c 75 3b 69 3d
       0.08333189 0.0791651 0.009576579 0.05694147
0003f0 4b 22 95 3d e5 fd a6 bd 2a 24 b4 bc cf 1b 6a 3d
       0.072819315 -0.08153895 -0.0219899 0.057155427
