Single Battery Model/5. CNN-LSTM Models/model_B0005_combined_rob.pth (torch, 435002 bytes, 15 tensors)

weight f4 [64, 6, 3]
0	0x3cdacc7b	0.026708832
1	0x3e4564ec	0.1927678
2	0x3e527fe0	0.20556593
3	0x3d92cfb0	0.071685195
4	0xbd063313	-0.032763552
5	0x3df4f25a	0.119602874
6	0x3e4f3a98	0.20237195
7	0xbe4c03b1	-0.19923283
8	0xbc870e80	-0.016486406
9	0x3e6414b3	0.22273521
10	0xbe5b3faf	-0.21411012
11	0xbe308059	-0.17236461
12	0x3e15939a	0.14607087
13	0xbe615b40	-0.22007465
14	0xbe390df2	-0.18071726
15	0x3cc6b381	0.024255516
16	0xbd9f575e	-0.07780336
17	0xbdce05ef	-0.100597255
18	0xbcc54e6b	-0.024085244
19	0xbd83ba77	-0.0643205
20	0x3ce23b6a	0.027616221
21	0x3db47cc0	0.08812857
22	0x3ddd3c08	0.10802466
23	0xbd9dd918	-0.07707423
24	0xbe188cb7	-0.14897428
25	0x3e3602ce	0.17774507
26	0x3e4d05a8	0.20021689
27	0x3e1492e1	0.14509155
28	0xbe189411	-0.14900233
29	0xbdce11ee	-0.100620136
30	0xbe57fca1	-0.21092464
31	0xbdc3bf0b	-0.09557923
32	0x3e558fc6	0.20855626
33	0x3e359b01	0.1773491
34	0x3e066b9d	0.13126989
35	0x3d660da9	0.05616537
36	0x3e73e90d	0.2381937
37	0xbd06944e	-0.032856278
38	0x3deb7e50	0.114987016
39	0x3e22a5d1	0.15883566
40	0x3d24ff55	0.040282566
41	0x3e349423	0.17634635
42	0x3dbfc83e	0.09364365
43	0x3e56447b	0.2092456
44	0xbe04f426	-0.1298376
45	0xbe6e9ee1	-0.23302795
46	0x3d8ac0a9	0.06775028
47	0xbe0ed4ea	-0.13948408
48	0xbe047faa	-0.12939325
49	0x3d9a951a	0.0754797
50	0xbdf6940c	-0.120399565
51	0xbe3d10fb	-0.18463509
52	0xbe140562	-0.14455178
53	0xbe1bbd4d	-0.15208931
54	0xbe3505bc	-0.17677969
55	0xbd9c2806	-0.07624821
56	0x3cb53afd	0.022122854
57	0x3e482bec	0.19548005
58	0xbcd5c137	-0.026093109
59	0x3d98839c	0.074469775
60	0x3d804ded	0.06264863
61	0xbd610f32	-0.054946132
62	0x3df3358f	0.1187545
63	0x3e53ce2d	0.20684119
64	0xbe5168da	-0.20450154
65	0x3e309387	0.17243777
66	0x3e2da36c	0.16956872
67	0x3dba4a99	0.090962596
68	0x3e08d712	0.13363293
69	0xbe05cc3e	-0.13066193
70	0xbe12e498	-0.14345014
71	0x3e3b334a	0.18281284
72	0x3ce3e641	0.027819755
73	0x3cebb421	0.028772416
74	0x3dab2484	0.08356574
75	0xbd9902e3	-0.07471254
76	0x3c409c2a	0.011755982
77	0xbd64d573	-0.055867624
78	0xbe4c7b09	-0.19968809
79	0x3e6c7fb3	0.23095588
80	0xbc251805	-0.0100765275
81	0xbe323f65	-0.17406996
82	0x3df0d06d	0.11758504
83	0xb9e5de30	-0.00043843826
84	0x3e04b731	0.12960507
85	0xbcf3c685	-0.029757747
86	0xbe6e5fe1	-0.23278762
87	0xbe61a505	-0.22035606
88	0x3e6db0ed	0.23212023
89	0x3d25dd0b	0.040494006
90	0xbd967478	-0.073464334
91	0xbdf73c43	-0.12072041
92	0x3e3275f8	0.17427814
93	0x3d3bd195	0.04585417
94	0xbe049d27	-0.12950574
95	0x3c363544	0.011121098
96	0xbdb72907	-0.08943372
97	0x3e50f429	0.2040564
98	0x3e2f3e30	0.17113566
99	0xbe2543c7	-0.16139136
100	0xbd9e4cf3	-0.07729521
101	0xbe6a3d2f	-0.22874902
102	0x3d57a1ba	0.05264447
103	0xbe6503b3	-0.22364692
104	0xbdb4f198	-0.08835143
105	0x3b96085a	0.0045786323
106	0xbd233f50	-0.0398553
107	0xbe3882ef	-0.18018697
108	0xbd9301a8	-0.0717805
109	0x3dce6c8d	0.10079298
110	0x3d3202c6	0.043459676
111	0xbdc99fcf	-0.09844934
112	0x3d2f3ca1	0.04278243
113	0xbe38eb46	-0.180585
114	0x3e22e023	0.15905814
115	0xbda6e627	-0.08149367
116	0xbc1491f6	-0.009068003
117	0xbe167699	-0.14693679
118	0x3da27963	0.07933309
119	0x3e353559	0.17696132
120	0x3ddf5e1b	0.10906621
121	0xbd5c8490	-0.05383736
122	0x3e1816eb	0.14852493
123	0xbd92744b	-0.071510874
124	0xbd622981	-0.055215362
125	0x3df00da9	0.117213555
126	0x3e09ac86	0.13444719
127	0x3e30fc5c	0.17283767
128	0x3e0a9972	0.13535097
129	0xbd80d53c	-0.06290671
130	0x3e13c308	0.14429867
131	0x3e3c0ba2	0.18363813
132	0xbd974588	-0.07386309
133	0xbe40253d	-0.18764205
134	0x3c071eb7	0.008247069
135	0xbe043439	-0.12910546
136	0x3e627945	0.22116573
137	0x3e384710	0.17995858
138	0x3e2bdd50	0.16783643
139	0x3c20ff40	0.009826481
140	0x3e18cd6e	0.14922115
141	0xbd4f1ebc	-0.05056642
142	0xbd4b6f94	-0.049666956
143	0x3dd97d89	0.10619647
144	0x3d327d73	0.04357667
145	0xbd4514c0	-0.048115492
146	0x3cc53165	0.024071405
147	0x3e1b6d1d	0.15178342
148	0xbc2f0620	-0.010682613
149	0x3d495c4e	0.049160294
150	0xbdf6b039	-0.120453306
151	0x3dd6ed4c	0.104944795
152	0x3d3b5481	0.045734886
153	0x3e21fa3e	0.15818116
154	0x3e273c08	0.16331494
155	0xbce78f91	-0.0282667
156	0x3c88e400	0.016710281
157	0xbe450b8a	-0.19242683
158	0x3e251fab	0.16125362
159	0xbe5c14ed	-0.21492358
160	0xbe713c4c	-0.23558158
161	0xbd9aebe0	-0.07564521
162	0x3e16102c	0.14654607
163	0xbd028d02	-0.031872757
164	0xbe19396e	-0.14963314
165	0x3e552cb8	0.2081784
166	0x3e1c7b42	0.15281394
167	0x3e5b50de	0.21417567
168	0x3e6f02a1	0.23340847
169	0xbdd8719d	-0.10568545
170	0xbe393461	-0.18086387
171	0xbd7af3bf	-0.06126761
172	0x3e4628d0	0.19351506
173	0x3e0b7aa5	0.13621004
174	0x3d71f53c	0.059071764
175	0xbe0d6966	-0.13809738
176	0xbdb27b76	-0.087149546
177	0xbe5595fd	-0.20857997
178	0x3dd6209b	0.10455438
179	0xbe597527	-0.21236096
180	0xbc83cbda	-0.016088415
181	0x3e1c16d0	0.15243077
182	0xbe223d5e	-0.15843722
183	0xbe00f3e3	-0.12593035
184	0xbd23570d	-0.03987794
185	0x3cee37f4	0.029079415
186	0x3c46fbf2	0.012145029
187	0xbdbd7a2e	-0.092518196
188	0xbdf41181	-0.11917401
189	0x3d36bb6b	0.04461233
190	0xbe6713b2	-0.22566107
191	0xbca65c26	-0.020307612
192	0x3e01ff67	0.12695085
193	0x3e689b4c	0.22715491
194	0xbc6cb0e5	-0.014446472
195	0xbe2a2760	-0.16616583
196	0xbd07f551	-0.033192936
197	0x3e2d76d5	0.16939862
198	0x3e384346	0.17994413
199	0xbe1c0dbf	-0.15239619
200	0xbe72dceb	-0.23717086
201	0x3c9a5020	0.018837035
202	0x3dbe80da	0.0930192
203	0x3d6eb4a9	0.05827776
204	0x3e6cbc47	0.23118697
205	0xbe24acf8	-0.16081607
206	0xbd0a1d0c	-0.033719108
207	0x3e2832bb	0.16425602
208	0xbe0c4537	-0.13698278
209	0x3e00ec43	0.12590127
210	0x3deb05e2	0.114757314
211	0xbe04f0c1	-0.12982465
212	0x3c4265be	0.011865078
213	0xbe6aec52	-0.22941712
214	0x3e3a675e	0.18203494
215	0xbcc6e6ce	-0.024279978
216	0xbdf6a23b	-0.12042662
217	0xbe490b40	-0.19633198
218	0xbe408c69	-0.18803562
219	0xbcda1ce3	-0.026625102
220	0xbe611682	-0.21981242
221	0xbe3efb5f	-0.18650578
222	0xbe396676	-0.18105492
223	0x3d39af21	0.04533303
224	0x3cc9203d	0.024551505
225	0x3dd4becc	0.10387954
226	0x3e1f8bfb	0.15580742
227	0xbb6ed22e	-0.0036441195
228	0x3d2d8ffc	0.042373642
229	0xbe1e7fe5	-0.15478475
230	0xbe17acc9	-0.14812006
231	0xbe2710e8	-0.16315043
232	0xbdb5a50a	-0.08869369
233	0x3e075d12	0.13219097
234	0xbe2b185c	-0.16708511
235	0x3e57013f	0.20996569
236	0xbe2f01b8	-0.170905
237	0x3e2893bf	0.1646261
238	0x3ddfdd30	0.1093086
239	0xbdf3476f	-0.11878859
240	0x3d2acc10	0.041698515
241	0xbd77a951	-0.060464207
242	0x3d03a1db	0.03213678
243	0xbe5ad31a	-0.21369591
244	0xbe5081f2	-0.2036207
245	0x3e2fd237	0.17170034
246	0xbd066153	-0.03280766
247	0xbe53aef8	-0.20672214
248	0xbe6d6a1c	-0.23185009
249	0x3c9079dc	0.017636232
250	0xbca60136	-0.02026425
251	0xbd485c0e	-0.048915915
252	0x3bcdc344	0.006279381
253	0x3cbad104	0.022804745
254	0x3e21fcd9	0.1581911
255	0x3dc325b3	0.09528675

bias f4 [64]
0	0xbdb019c5	-0.08598665
1	0xbd99c1d4	-0.07507673
2	0x3e02f73b	0.12789623
3	0x3dd5e99f	0.1044495
4	0xb9bca05c	-0.0003597763
5	0xbd365d77	-0.04452273
6	0xbe546d04	-0.20744711
7	0x3ad57cd2	0.001628781
8	0xbdde4865	-0.10853652
9	0xbdffc941	-0.12489558
10	0x3db504ab	0.08838781
11	0x3d73ba16	0.059503637
12	0x3dcd94b2	0.10038127
13	0x3e6fd0e5	0.2341953
14	0x3ddf0487	0.108895354
15	0xbb46f272	-0.003035691
16	0x3d4c6c73	0.049908113
17	0xbe3d15d8	-0.18465364
18	0x3d81e058	0.06341618
19	0x3e2ade43	0.16686349
20	0xbd6fd346	-0.058551095
21	0xbe6047d9	-0.21902408
22	0xbc6fbbff	-0.014632224
23	0xbe2768d9	-0.1634859
24	0x3cda3609	0.026637094
25	0x3e5d07af	0.21584962
26	0x3e54e282	0.20789531
27	0x3e68a8d7	0.22720657
28	0x3e630681	0.2217045
29	0xbdbac12c	-0.09118876
30	0x3e53896c	0.20657891
31	0xbcd50a4a	-0.026005883
32	0x3e4b908a	0.19879356
33	0x3e386296	0.18006358
34	0x3dca4179	0.09875769
35	0xbd9de7a4	-0.077101976
36	0x3ddba8e0	0.1072557
37	0x3e1c08ef	0.15237783
38	0xbe6b633b	-0.22987072
39	0x3e10022a	0.14063326
40	0x3e3cef1d	0.1845059
41	0xbe474309	-0.19459166
42	0x3da29664	0.07938841
43	0xbdcec773	-0.10096636
44	0x3d79ca5c	0.060984
45	0x3e61e1f5	0.22058852
46	0x3d5a7f79	0.053344224
47	0xbe497c9e	-0.19676444
48	0xbe47f814	-0.19528228
49	0x3e09bac8	0.13450158
50	0x3df69d5b	0.12041732
51	0xbe2a7e1e	-0.16649672
52	0xbe216653	-0.1576169
53	0xbbce144c	-0.0062890407
54	0xbe4ab382	-0.1979504
55	0x3cb578a0	0.022152245
56	0x3e4d749f	0.20064019
57	0xbe5f4f49	-0.21807589
58	0xbe1f9313	-0.15583448
59	0xbe0e3d7e	-0.13890645
60	0xbd149a5b	-0.036280017
61	0xbe391dcd	-0.18077774
62	0x3dd4e35e	0.10394929
63	0xbe44225e	-0.19153735

weight f4 [32, 640]
0	0xbd1c4ad3	-0.038157295
1	0xbc65a807	-0.014017112
2	0x3ca4065b	0.020022562
3	0xbc83a9b2	-0.016072128
4	0xb749c702	-1.2026869e-05
5	0xbc96b657	-0.018397493
6	0x3c16595d	0.009176579
7	0xbcb07ad4	-0.021542944
8	0x3b6d1f09	0.0036181828
9	0xbd166e52	-0.036726303
10	0xbc16afcf	-0.0091971895
11	0x3ab5390b	0.0013826204
12	0xbd0a96d5	-0.03383525
13	0xbd189e4d	-0.037260342
14	0x3ccf2728	0.025287226
15	0x3c846e4e	0.016165879
16	0x3d0b2418	0.03396997
17	0x3d0302a1	0.03198493
18	0x3c181fb4	0.009284902
19	0xbb02922e	-0.0019923556
20	0x3d1abf55	0.037780125
21	0x3cdcfd86	0.026976358
22	0xbcb874e4	-0.022516675
23	0xbbfb0b34	-0.0076612476
24	0x3ce5a63a	0.028033365
25	0x3820ca0d	3.8335147e-05
26	0xbbbec777	-0.005822118
27	0x3cd9fc50	0.02660957
28	0xbd0a9684	-0.03383495
29	0xbce39b0f	-0.027783899
30	0x3d177919	0.036980722
31	0xbc910cc8	-0.01770629
32	0x3ce920e0	0.028458059
33	0x3d06788e	0.032829814
34	0xbcca1b0e	-0.024671104
35	0x3d2bb2d6	0.041918598
36	0xbce0af3f	-0.027427314
37	0xbd0755bd	-0.03304075
38	0x3c3e09f3	0.011599052
39	0xbc9498b7	-0.018139226
40	0x3bee1727	0.0072659436
41	0xbc88c2f6	-0.016694527
42	0xbc537d6e	-0.012908323
43	0xbcd619fb	-0.026135435
44	0x3c7f4e95	0.0155827
45	0x3cc14dda	0.023596693
46	0xbc46ac52	-0.012126045
47	0x3cfc1844	0.03077329
48	0xbc40bb8d	-0.011763466
49	0xbd1e2192	-0.038606234
50	0x3d02f782	0.031974323
51	0xbb84d441	-0.004053623
52	0xbca69532	-0.020334814
53	0x3b6bd15b	0.003598294
54	0x3908c026	0.00013041552
55	0xbbe88b67	-0.007096696
56	0x3ca71406	0.02039529
57	0x3cd48a23	0.025944775
58	0x3d20970b	0.039206546
59	0xbd21f539	-0.039540503
60	0x3cf05155	0.029335657
61	0xbd11805c	-0.035522804
62	0xbacc55ec	-0.0015589572
63	0xbc44414a	-0.011978457
64	0xbc4e40c3	-0.012588683
65	0x3ca1f2e6	0.019769143
66	0x3be3855f	0.0069433893
67	0xbadeb6a9	-0.0016991693
68	0x3c163643	0.00916821
69	0x3ce43fa6	0.027862381
70	0xbc6c8eb9	-0.014438325
71	0x3c596298	0.0132681355
72	0x3d02eb49	0.031962667
73	0x3b6be9ce	0.0035997513
74	0x3cc44b19	0.02396159
75	0x3c939754	0.018016495
76	0xb998b012	-0.00029122882
77	0xbbe74133	-0.007057333
78	0xbcfcb926	-0.030850004
79	0xbceeca6c	-0.029149257
80	0xbc304695	-0.010759016
81	0xbc159832	-0.0091305245
82	0xbce10a4d	-0.027470732
83	0xbccae473	-0.024767136
84	0xbc98f644	-0.018672116
85	0x3c362354	0.011116821
86	0xbcfaa940	-0.030598283
87	0xbcaf9ae0	-0.021436155
88	0x3cfcc70f	0.030856637
89	0x3c811736	0.015758138
90	0x3cc761f0	0.024338692
91	0xbc51de86	-0.012809401
92	0xbd0e3f3f	-0.034728285
93	0x3c9200ef	0.01782271
94	0x3b25cc81	0.0025298896
95	0x3cc5a3aa	0.024125893
96	0x3bc19907	0.005908135
97	0xbb084f33	-0.002079916
98	0xbb51077e	-0.0031895335
99	0xbc02799d	-0.007963565
100	0xbcb41b9d	-0.021985823
101	0xbcec62a9	-0.028855639
102	0xbbe3cad8	-0.006951671
103	0xbcdbd8a6	-0.026836704
104	0xbc6e09fe	-0.0145287495
105	0x3d036661	0.032080058
106	0xba15307a	-0.00056911225
107	0x3cc304cf	0.023806004
108	0x3cfe5e11	0.031050714
109	0xbba81f54	-0.0051306877
110	0xbb7f22cb	-0.003893065
111	0xbce93820	-0.028469145
112	0x3c69e4ce	0.014275743
113	0xbc2c3b72	-0.01051222
114	0xbd297c5e	-0.04137837
115	0x3b8a0f2a	0.0042132335
116	0xbcb15d99	-0.021651076
117	0xbd22943f	-0.03969216
118	0x3b8abceb	0.0042339466
119	0x3c9b0293	0.018922126
120	0x3d1a12b9	0.03761551
121	0xbcbb9738	-0.022899255
122	0xbcc1c471	-0.02365324
123	0x3c289699	0.0102898115
124	0xbcc2cb5d	-0.023778612
125	0x3c635efe	0.013877628
126	0xba8e9df4	-0.0010880814
127	0x3c957ca1	0.018247904
128	0x3ca1f4e1	0.019770088
129	0x3cebd650	0.028788716
130	0xbc8d60de	-0.017258104
131	0xbc2b4fc9	-0.010456034
132	0xbc9c92bc	-0.019112937
133	0x3d205395	0.03914221
134	0xbd007ef7	-0.031371083
135	0x3d024173	0.0318007
136	0xbbb0b19c	-0.0053922664
137	0xbd0b9046	-0.034073137
138	0xbb7d9bcf	-0.0038697605
139	0x3ccbb205	0.02486516
140	0x390d3f97	0.00013470497
141	0xbd0e7c55	-0.03478654
142	0xbc31c673	-0.010850537
143	0xbcca8c7d	-0.024725193
144	0xbcb1c4b2	-0.021700237
145	0x3d1fe166	0.039033316
146	0xbd0f7a8a	-0.03502897
147	0xbb4a7567	-0.003089273
148	0xbce60ba3	-0.02808172
149	0x3d2c5b40	0.04207921
150	0xbca6211f	-0.020279465
151	0x3c9c88df	0.019108234
152	0xba79c2a7	-0.00095276017
153	0xbbc092a5	-0.0058768564
154	0xbc0c3dfb	-0.008559699
155	0xbd01b15f	-0.031663295
156	0x3cc51d1c	0.024061732
157	0xbcc92304	-0.02455283
158	0x3cf1f376	0.029535037
159	0x3d168187	0.03674462
160	0x3cdb21da	0.02674954
161	0xbcd16e00	-0.025565147
162	0x3cf23239	0.029564964
163	0xbc464c38	-0.012103133
164	0xbc7e203b	-0.015510614
165	0xbce8e382	-0.028428797
166	0x3c04ec2f	0.008112951
167	0x3bcf39b8	0.0063240193
168	0x3cbdf1dd	0.023186618
169	0x3c8dfed0	0.017333418
170	0xbb1d04a8	-0.0023959074
171	0xbd24e307	-0.040255573
172	0xbc62e5df	-0.013848751
173	0x3babddd4	0.00524495
174	0xbc2767e9	-0.010217645
175	0xbcc46eca	-0.02397861
176	0xbc450697	-0.012025497
177	0x3c973ea9	0.018462496
178	0x3c162b5b	0.00916561
179	0xb985869c	-0.0002546803
180	0x3d16de94	0.03683336
181	0x3d106a1d	0.035257448
182	0x3ce16418	0.027513549
183	0xbcd78305	-0.026307592
184	0xbca801c1	-0.020508649
185	0x3bcbf853	0.006224671
186	0xbbbe9d44	-0.0058170874
187	0xbd010df5	-0.03150745
188	0xbd12b8ac	-0.035820648
189	0xbc431ca3	-0.011908683
190	0xbcd57fd1	-0.026061924
191	0x3d258ad3	0.040415596
192	0xbd121ddf	-0.03567302
193	0x3ac262bd	0.0014830452
194	0x3bc9c373	0.0061573326
195	0x3a00f003	0.0004918577
196	0xbc1f2378	-0.009713046
197	0x3c6159c0	0.013754308
198	0xbc9baefa	-0.019004334
199	0x3d18933e	0.037249796
200	0xbccfb64d	-0.025355482
201	0xbca59e70	-0.02021715
202	0x3c035f7f	0.0080183735
203	0xbc52b029	-0.012859383
204	0x3d167da4	0.036740914
205	0x3caa7185	0.020806083
206	0xbd10308a	-0.03520254
207	0x3be3898a	0.006943886
208	0x3d218cc2	0.039440878
209	0xbc747212	-0.014919775
210	0xbc60f6bb	-0.0137307
211	0x3c0f3d02	0.008742573
212	0xbc34b80a	-0.011030206
213	0xbce4cffb	-0.027931204
214	0xbcfae639	-0.030627357
215	0x3b6bd98d	0.0035987825
216	0x3c82ad29	0.01595171
217	0xbc83c09c	-0.016083054
218	0xbc9e541c	-0.019327216
219	0xbce7a0f6	-0.028274994
220	0x3d029306	0.031878494
221	0x3c72506f	0.014789685
222	0xbcd01ead	-0.025405252
223	0x3c6159a0	0.013754278
224	0xbd14a8e5	-0.036293883
225	0xbc343890	-0.010999814
226	0x3d0f1509	0.03493217
227	0xbd0f1844	-0.03493525
228	0xbd28578d	-0.04109912
229	0xbc156c24	-0.009120021
230	0x3bd97da5	0.0066372924
231	0x3cc544ff	0.024080751
232	0x3bd3176f	0.0064420025
233	0xbbcc7566	-0.006239581
234	0xbcc2d123	-0.023781365
235	0x3c48f71a	0.012265945
236	0x3d0cc038	0.034363
237	0xbce2ae46	-0.02767099
238	0xbce57a08	-0.02801229
239	0x3d17edfd	0.037092198
240	0x3cda8699	0.02667551
241	0x3b871d76	0.004123385
242	0x3cf7d58a	0.03025319
243	0x3d1b9a73	0.03798909
244	0xbcd789cf	-0.02631083
245	0x3d1f933c	0.038958773
246	0xbbffd1a1	-0.007806972
247	0x3c11ab6d	0.008890969
248	0xbca3e610	-0.020007163
249	0x3c60bf55	0.013717492
250	0xbc257d99	-0.010100746
251	0x3cbe1bd9	0.023206638
252	0x3d10ee91	0.035383765
253	0x3bb5ea45	0.0055516087
254	0x3cf45d9c	0.029829793
255	0xbc9b54be	-0.018961307

bias f4 [32]
0	0xbc4b5dd2	-0.012412505
1	0x3ca56a6f	0.020192353
2	0xbc81538c	-0.015786909
3	0xbbc93104	-0.0061398763
4	0x3bf96a79	0.0076115695
5	0x3d26a3ca	0.040683545
6	0x3c0788e0	0.00827238
7	0x3d2c58e4	0.04207696
8	0x3d1410d9	0.03614888
9	0x3cd985f6	0.026553135
10	0x3b7f5dea	0.003896589
11	0xbcef076f	-0.02917835
12	0x3cf42ec2	0.029807452
13	0x3cda310f	0.026634721
14	0xbd0da125	-0.034577508
15	0xbd17cd26	-0.03706088
16	0x3cc081ed	0.023499453
17	0xbbe8361e	-0.0070865294
18	0x3cf690b8	0.030098304
19	0xbd226d27	-0.039654877
20	0x3baa6c7d	0.005200921
21	0x3b3cc335	0.0028802876
22	0x3cbab525	0.022791455
23	0x3cb58c65	0.022161672
24	0x3cf1bc08	0.029508606
25	0xbc8be2dd	-0.01707595
26	0xbce413df	-0.027841507
27	0xbc134e0b	-0.008990775
28	0xbb5a579d	-0.0033316382
29	0x3c6b2eaa	0.014354387
30	0xbc5fb2e9	-0.013653495
31	0x3bdde384	0.0067715067

weight f4 [640]
0	0x3f804349	1.0020534
1	0x3f80d41b	1.006473
2	0x3f80a7ad	1.005117
3	0x3f7df54d	0.99202424
4	0x3f7eace7	0.9948258
5	0x3f7ddf84	0.9916918
6	0x3f7f4e7e	0.99729145
7	0x3f7fa845	0.99866134
8	0x3f808c68	1.0042849
9	0x3f7f17f6	0.99645936
10	0x3f7f0f89	0.9963308
11	0x3f7eef91	0.995843
12	0x3f7ff09a	0.99976504
13	0x3f80cb5c	1.006206
14	0x3f8077e4	1.0036588
15	0x3f7f980a	0.9984137
16	0x3f7eef31	0.9958373
17	0x3f801191	1.0005361
18	0x3f802f33	1.0014404
19	0x3f7dfdce	0.992154
20	0x3f7f5c1b	0.99749917
21	0x3f7f4163	0.9970915
22	0x3f801e3c	1.0009227
23	0x3f7e7ef2	0.99412453
24	0x3f7e4a6f	0.99332327
25	0x3f7f715f	0.99782366
26	0x3f7eb686	0.9949726
27	0x3f7f0904	0.9962313
28	0x3f801df6	1.0009143
29	0x3f7ede12	0.995576
30	0x3f7faa54	0.99869275
31	0x3f7d1fcb	0.9887664
32	0x3f7f8d5a	0.9982506
33	0x3f8006a9	1.0002033
34	0x3f7ed2cc	0.995404
35	0x3f80f5dd	1.0075032
36	0x3f7d7aab	0.990153
37	0x3f7f304e	0.9968308
38	0x3f7f7af5	0.9979699
39	0x3f7dd4be	0.99152744
40	0x3f7f3867	0.9969544
41	0x3f801202	1.0005496
42	0x3f7ee899	0.99573666
43	0x3f80770c	1.003633
44	0x3f7e24fe	0.99275196
45	0x3f7ee48c	0.99567485
46	0x3f800670	1.0001965
47	0x3f7ea7af	0.99474615
48	0x3f7ebfbc	0.99511313
49	0x3f8034b8	1.0016088
50	0x3f80b0af	1.005392
51	0x3f8023be	1.0010908
52	0x3f7ea933	0.9947693
53	0x3f7f4105	0.99708587
54	0x3f802a3e	1.0012891
55	0x3f804c09	1.0023204
56	0x3f7ece57	0.995336
57	0x3f80e23b	1.006904
58	0x3f8022c3	1.0010608
59	0x3f80131b	1.000583
60	0x3f806138	1.0029669
61	0x3f7f8aca	0.9982115
62	0x3f81336b	1.0093817
63	0x3f7fc6f2	0.9991294
64	0x3f800126	1.000035
65	0x3f80f457	1.0074567
66	0x3f800d36	1.0004032
67	0x3f804e81	1.0023957
68	0x3f7e6689	0.99375206
69	0x3f8046a9	1.0021564
70	0x3f803b21	1.0018045
71	0x3f80584e	1.0026948
72	0x3f7e6626	0.99374616
73	0x3f8150b8	1.0102758
74	0x3f7e8fea	0.99438345
75	0x3f801078	1.0005026
76	0x3f80b919	1.0056487
77	0x3f805322	1.002537
78	0x3f7f22d9	0.9966255
79	0x3f8127f7	1.0090321
80	0x3f7e1267	0.9924683
81	0x3f80f22e	1.0073907
82	0x3f7feefa	0.99974024
83	0x3f809876	1.0046527
84	0x3f8110d8	1.0083265
85	0x3f80d958	1.0066328
86	0x3f816224	1.0108075
87	0x3f80b1e7	1.0054291
88	0x3f807993	1.0037102
89	0x3f81230a	1.0088818
90	0x3f7df989	0.99208885
91	0x3f80d4a4	1.0064893
92	0x3f7e8936	0.9942812
93	0x3f7f852a	0.9981257
94	0x3f7f19a3	0.99648494
95	0x3f81584c	1.0105071
96	0x3f7cca61	0.98746306
97	0x3f80ada8	1.0052996
98	0x3f7f2895	0.996713
99	0x3f823594	1.0172601
100	0x3f7f73fe	0.99786365
101	0x3f80a9e7	1.005185
102	0x3f815dc4	1.010674
103	0x3f7e0e3c	0.9924047
104	0x3f7f3bad	0.99700433
105	0x3f7fe508	0.9995885
106	0x3f8123fe	1.0089109
107	0x3f807580	1.0035858
108	0x3f8056ab	1.0026449
109	0x3f7fe6d2	0.9996158
110	0x3f8068d6	1.0031993
111	0x3f8028a4	1.0012403
112	0x3f807fd0	1.0039005
113	0x3f7ed3f8	0.9954219
114	0x3f7e0add	0.99235326
115	0x3f7ff06e	0.9997624
116	0x3f80956e	1.0045602
117	0x3f80ecec	1.0072303
118	0x3f805a1e	1.0027502
119	0x3f803e39	1.0018989
120	0x3f802266	1.0010498
121	0x3f803b62	1.0018122
122	0x3f7f54cd	0.9973877
123	0x3f8004e2	1.000149
124	0x3f7f8760	0.9981594
125	0x3f7ffac4	0.9999201
126	0x3f7eaa89	0.99478966
127	0x3f80b61f	1.0055579
128	0x3f80e228	1.0069017
129	0x3f7eddf8	0.9955745
130	0x3f7fc5d5	0.9991124
131	0x3f803f4d	1.0019318
132	0x3f804954	1.0022378
133	0x3f8133b9	1.009391
134	0x3f7e6fca	0.99389327
135	0x3f80b07a	1.0053856
136	0x3f806c9d	1.0033146
137	0x3f7dc2eb	0.99125546
138	0x3f8050da	1.0024674
139	0x3f80d702	1.0065615
140	0x3f7da47c	0.9907911
141	0x3f800a3d	1.0003124
142	0x3f7d24b3	0.98884124
143	0x3f7eca12	0.99527085
144	0x3f7e18b9	0.99256474
145	0x3f808741	1.0041276
146	0x3f7fe928	0.99965143
147	0x3f7ddeac	0.99167895
148	0x3f7dfa4a	0.99210036
149	0x3f7eedb7	0.99581474
150	0x3f7f6ddf	0.99777025
151	0x3f7e8567	0.99422306
152	0x3f80b7e6	1.0056121
153	0x3f7f0343	0.9961435
154	0x3f807a1e	1.0037267
155	0x3f80b890	1.0056324
156	0x3f7fb37e	0.9988326
157	0x3f804e73	1.0023941
158	0x3f804001	1.0019532
159	0x3f80cf49	1.0063258
160	0x3f801e79	1.00093
161	0x3f8017de	1.0007284
162	0x3f812075	1.008803
163	0x3f8165c1	1.0109178
164	0x3f7da102	0.99073803
165	0x3f80aaed	1.0052162
166	0x3f80d366	1.0064514
167	0x3f81017e	1.007858
168	0x3f8171aa	1.0112813
169	0x3f7f52cb	0.9973571
170	0x3f7fcb73	0.99919814
171	0x3f803222	1.0015299
172	0x3f7e8b70	0.99431515
173	0x3f7fcb25	0.9991935
174	0x3f7c8dd1	0.98653895
175	0x3f7e3bfd	0.99310285
176	0x3f7fadc8	0.99874544
177	0x3f8073a7	1.0035294
178	0x3f800a00	1.0003052
179	0x3f7f72bd	0.9978445
180	0x3f808434	1.0040345
181	0x3f7f3bd0	0.9970064
182	0x3f7ea1c9	0.99465615
183	0x3f7fa583	0.99861926
184	0x3f8065f0	1.0031109
185	0x3f7d4944	0.9893992
186	0x3f7e9a4f	0.99454206
187	0x3f7f030f	0.9961404
188	0x3f7f0e47	0.9963116
189	0x3f811125	1.0083357
190	0x3f7fcf98	0.9992614
191	0x3f7fb6c1	0.99888235
192	0x3f7fcde4	0.9992354
193	0x3f801d68	1.0008974
194	0x3f7fcaf5	0.9991906
195	0x3f7f2e2e	0.9967984
196	0x3f8054b8	1.0025854
197	0x3f808ccb	1.0042967
198	0x3f80b7ed	1.005613
199	0x3f7ffa8b	0.99991673
200	0x3f802704	1.0011907
201	0x3f7f8df8	0.99826
202	0x3f7e3ddd	0.99313146
203	0x3f802561	1.0011407
204	0x3f809256	1.0044658
205	0x3f80c98e	1.006151
206	0x3f80e91b	1.0071138
207	0x3f7fbbaf	0.9989576
208	0x3f80261f	1.0011634
209	0x3f7ec14a	0.99513686
210	0x3f7f6bcc	0.9977386
211	0x3f8040d0	1.0019779
212	0x3f7fc3b8	0.9990802
213	0x3f8030e8	1.0014925
214	0x3f8056d3	1.0026497
215	0x3f803261	1.0015374
216	0x3f806d57	1.0033368
217	0x3f808d92	1.0043204
218	0x3f8001e4	1.0000577
219	0x3f8017a7	1.0007218
220	0x3f80d241	1.0064164
221	0x3f7f6fb9	0.9977985
222	0x3f7fc5fa	0.99911463
223	0x3f80ad0b	1.0052809
224	0x3f800c2e	1.0003717
225	0x3f808fde	1.0043905
226	0x3f7f329e	0.9968661
227	0x3f8044de	1.0021017
228	0x3f8072a1	1.0034982
229	0x3f801269	1.0005618
230	0x3f80ee43	1.0072712
231	0x3f807f7f	1.0038909
232	0x3f803661	1.0016595
233	0x3f7fe688	0.9996114
234	0x3f805790	1.0026722
235	0x3f800089	1.0000163
236	0x3f80385a	1.0017197
237	0x3f7de7dd	0.9918192
238	0x3f811c4a	1.0086758
239	0x3f7f8339	0.99809605
240	0x3f808220	1.0039711
241	0x3f80904a	1.0044034
242	0x3f80ce6b	1.0062994
243	0x3f7e4917	0.99330276
244	0x3f7eef9c	0.99584365
245	0x3f809634	1.0045838
246	0x3f7ec839	0.99524266
247	0x3f7e3b19	0.99308926
248	0x3f80c3e2	1.0059779
249	0x3f7dfcf7	0.9921412
250	0x3f801f37	1.0009526
251	0x3f80700d	1.0034195
252	0x3f7d2370	0.988822
253	0x3f804f09	1.002412
254	0x3f7bd32a	0.98369086
255	0x3f7f0bf7	0.9962763

bias f4 [640]
0	0xbb23961a	-0.0024961294
1	0xbbd330bf	-0.00644502
2	0xbbaab811	-0.0052099307
3	0x3bfdb143	0.0077420785
4	0x3ba8c2f4	0.0051501933
5	0x3c084b1a	0.008318687
6	0x3b5a8398	0.0033342596
7	0xb83f2359	-4.557087e-05
8	0xbba63da9	-0.0050732684
9	0x3b649f94	0.0034885155
10	0x3b98ce66	0.0046632765
11	0x3bbab100	0.0056973696
12	0x3b065521	0.0020497518
13	0xbb36720b	-0.002783897
14	0xbb8facf7	-0.0043846327
15	0xbab33773	-0.0013673141
16	0x3b8d8ec4	0.0043199975
17	0xbaeda503	-0.0018130842
18	0x39bd369a	0.0003608957
19	0x3c0b7023	0.008510622
20	0xbb4d6c54	-0.0031345086
21	0xbb5e5401	-0.0033924582
22	0xbaab886d	-0.0013086923
23	0xbbbaf77c	-0.005705772
24	0xbc04c95d	-0.008104649
25	0xbba324ff	-0.0049787755
26	0xbb9bf7e0	-0.0047597736
27	0xbb80e1b4	-0.003933156
28	0x39f69674	0.00047032873
29	0xba9f40c0	-0.0012150034
30	0x3aa7436c	0.0012761182
31	0x3baa478e	0.0051965183
32	0xba9d238b	-0.0011988742
33	0x3b3915b0	0.0028241687
34	0xbc09d7cd	-0.008413267
35	0x3c061d0f	0.008185639
36	0xbb274070	-0.0025520585
37	0xbaa6a2e0	-0.0012713335
38	0x3bd4dff3	0.0064964234
39	0xbb786d0e	-0.0037906799
40	0x3b5996c2	0.003320143
41	0xb9eacbc2	-0.0004478377
42	0x3b87398a	0.0041267322
43	0xbb81644f	-0.0039487253
44	0x3bdf59b9	0.0068161157
45	0x3b8af37c	0.0042404514
46	0xb91a38b3	-0.00014707707
47	0x3ba14690	0.004921742
48	0x3b8d8f74	0.0043200795
49	0xbb0e1548	-0.0021680165
50	0xbb78ebeb	-0.0037982415
51	0x3b1bdbab	0.0023782055
52	0x3babf3f6	0.0052475883
53	0x3b5c9089	0.0033655486
54	0xbab29301	-0.0013624133
55	0xbb723b46	-0.00369616
56	0x3bcdf367	0.0062851193
57	0xbbb54a6c	-0.0055325534
58	0xbb06f60b	-0.002059343
59	0x3a41ea3f	0.0007397271
60	0xbb2dfd22	-0.0026548584
61	0x3af38eaf	0.0018581952
62	0xbc18b09c	-0.009319451
63	0x3a0a6a75	0.00052801456
64	0xb8928064	-6.985737e-05
65	0xbbf6659a	-0.007519436
66	0xb95c3225	-0.00020999515
67	0xbb2ca035	-0.0026340608
68	0x3bc7c460	0.006096408
69	0xbb18a8d4	-0.0023293989
70	0x39a3f4e9	0.00031272255
71	0xbb5b1771	-0.003343072
72	0x3bb584fa	0.0055395337
73	0xbc234dcd	-0.00996728
74	0x3bec6e32	0.0072152847
75	0xba380428	-0.00070196623
76	0xbb85c4f3	-0.004082316
77	0xbaf731c2	-0.0018859433
78	0x3b8611bb	0.004091469
79	0xbaec5e2a	-0.0018033434
80	0xbb01ab68	-0.0019786004
81	0x3b8bf98e	0.0042716926
82	0xbbd1186a	-0.006381084
83	0x3ab2466b	0.0013601308
84	0x3bddd82a	0.0067701535
85	0xbbaf1a43	-0.005343707
86	0xba845e49	-0.00100989
87	0x3b6018ed	0.0034194544
88	0xb9fa6d37	-0.00047765087
89	0xba509915	-0.00079573813
90	0xbba80847	-0.00512794
91	0x3acf0174	0.001579328
92	0xbbd17eeb	-0.0063933036
93	0x3972225f	0.00023091723
94	0xbb309404	-0.0026943693
95	0x3c366041	0.011131347
96	0xbc0ce819	-0.008600258
97	0x3abd1fa2	0.0014428983
98	0xbb36d3dc	-0.0027897274
99	0xbbd20178	-0.0064088665
100	0x3a764456	0.0009394338
101	0xbb7c7085	-0.0038519215
102	0xbbbbe28c	-0.0057337936
103	0x3bc3e3af	0.0059780697
104	0x3b8cdacf	0.004298545
105	0x3b08c7d1	0.0020871053
106	0xbc0c8b36	-0.008578112
107	0xb96b4399	-0.00022436529
108	0xb9a0b14a	-0.0003064967
109	0xbb6cb251	-0.0036117027
110	0x3b3e0291	0.002899323
111	0x3acf1e9e	0.0015801971
112	0x3a9d6916	0.0012009467
113	0xbbfe3598	-0.0077578537
114	0xbc0ac2bf	-0.008469283
115	0xba7a96b0	-0.00095591974
116	0x3aa97d96	0.0012931104
117	0x3c02a179	0.007973068
118	0x3c1173ee	0.008877737
119	0x3bac7669	0.005263139
120	0xba98187f	-0.001160398
121	0x3ac7e42d	0.0015250497
122	0xbb882bcc	-0.0041556116
123	0x38ac575a	8.2178696e-05
124	0xbb1b9db0	-0.0023745112
125	0xb9ae31a4	-0.0003322485
126	0xbb962239	-0.0045817164
127	0x3b89630b	0.004192715
128	0x3b9ec900	0.0048457384
129	0xbbab71bc	-0.005232064
130	0x3b0ff995	0.002196883
131	0x3ac25a72	0.001482798
132	0x3acf2cad	0.0015806161
133	0x3bdf6dba	0.0068185003
134	0xbbab678a	-0.0052308487
135	0x3b786396	0.0037901155
136	0x3b6b3daf	0.003589492
137	0xbc0d60d8	-0.008629046
138	0x3b427033	0.0029668927
139	0x3aede762	0.0018150622
140	0x3bb8c5ec	0.0056388285
141	0x39e14371	0.00042965592
142	0x3b2caf66	0.0026349663
143	0x398920fb	0.0002615525
144	0xbb98d664	-0.004664229
145	0xbb76a350	-0.0037633963
146	0x3b120f01	0.0022286775
147	0x3c12b349	0.008953878
148	0xbb33e2ed	-0.002744849
149	0x3bbad2ee	0.0057014143
150	0x3a4b3bb9	0.0007752735
151	0x3c13a133	0.009010601
152	0xb9250955	-0.00015739103
153	0x3b9a9f86	0.0047187237
154	0x3b86b75a	0.0041112127
155	0xb9480fa4	-0.00019079313
156	0x3ba2f1a0	0.0049726516
157	0x394a74ee	0.00019307781
158	0x38c5001d	9.393713e-05
159	0xba99e666	-0.0011741638
160	0xba8046e3	-0.0009786751
161	0xbb3fa383	-0.0029241748
162	0xbb665027	-0.003514299
163	0x3bd4e6d0	0.0064972416
164	0xbb68d4df	-0.0035527272
165	0x3b6c2b5f	0.0036036593
166	0x3b10082f	0.0021977534
167	0x3a933b29	0.0011232841
168	0x3a5ca58a	0.0008417001
169	0xbb2acdf7	-0.0026062706
170	0x3b373b3f	0.0027958897
171	0xbb0cb5aa	-0.0021470585
172	0x3bd53904	0.006507041
173	0x3aa70d7c	0.0012745108
174	0x3c586038	0.013206534
175	0x3be27179	0.0069104997
176	0x3b13b3e5	0.0022537645
177	0xbb83d54b	-0.0040232292
178	0x3b6818d6	0.0035415194
179	0x3b0af2e1	0.0021201896
180	0xbb47c3d8	-0.0030481722
181	0x3bd97006	0.0066356687
182	0x3ba25b28	0.0049547143
183	0x3b0ce678	0.0021499675
184	0xbb2d9682	-0.0026487415
185	0x3c315eb6	0.0108258035
186	0x3b972776	0.0046128584
187	0x3b6b3148	0.0035887528
188	0xb8823b9a	-6.209985e-05
189	0x3bd0c21f	0.0063707973
190	0x3b83e43b	0.00402501
191	0x3b0b61d4	0.0021268027
192	0xba999e00	-0.0011720061
193	0xbb7d1b46	-0.0038620993
194	0x3a2e0f83	0.00066398847
195	0xbba8c066	-0.005149889
196	0x3b92f3b1	0.0044846167
197	0x3b9f02b6	0.004852618
198	0x3b79dc59	0.0038125722
199	0xb8dfb263	-0.00010666696
200	0xbbb16eb6	-0.005414809
201	0x3b483731	0.0030550475
202	0x3bc8fe6a	0.006133844
203	0xbb33f35a	-0.0027458281
204	0xbb7a69d0	-0.0038210042
205	0x3b7911f7	0.0038005093
206	0xb9d2cb76	-0.00040205912
207	0x3c125f48	0.00893385
208	0xba3e4d66	-0.0007259458
209	0x3b940208	0.0045168437
210	0x3b33ed77	0.0027454772
211	0xbabfd670	-0.0014636051
212	0x3a37a481	0.0007005409
213	0xbad22683	-0.0016033206
214	0xbb3d4920	-0.0028882697
215	0xbb25a0bd	-0.002527281
216	0xbb628d7d	-0.0034569197
217	0xbb768f97	-0.0037622207
218	0xb8caafca	-9.664854e-05
219	0xba16e65d	-0.00057563727
220	0x3bbf996f	0.005847148
221	0xb84d6f0a	-4.8979222e-05
222	0xbb4d051b	-0.003128356
223	0x3b8f0107	0.004364136
224	0xbc1eee39	-0.009700351
225	0x3b895661	0.0041912054
226	0xba88752f	-0.00104109
227	0xbaa53029	-0.0012602854
228	0xb9032932	-0.0001250848
229	0xbb1978cd	-0.002341795
230	0xbaaf5379	-0.0013376317
231	0xbb42cb5c	-0.0029723262
232	0xbad7ad7a	-0.0016454898
233	0xb95b418b	-0.00020909884
234	0xbba2f603	-0.0049731745
235	0xb965aa09	-0.00021902485
236	0xba83f311	-0.0010066946
237	0x3be706fd	0.0070503936
238	0xbbea94e3	-0.007158862
239	0x3b0d34c4	0.0021546343
240	0xbb3159c1	-0.0027061554
241	0xbb1b5425	-0.0023701277
242	0xbae3c541	-0.0017377512
243	0x3b8aa3f5	0.004230971
244	0x3b36f775	0.0027918492
245	0xbb486cfb	-0.0030582536
246	0x3bb3df27	0.0054892483
247	0x3bef12be	0.0072959354
248	0xbbd55dbd	-0.0065114186
249	0x3c3580cb	0.01107807
250	0xba1a63b6	-0.0005889492
251	0xbad024e7	-0.0015880138
252	0xbbe5cddc	-0.0070130657
253	0x3ba31c94	0.004977772
254	0x3c361b56	0.011114916
255	0x3be5bc66	0.0070109842

weight_ih_l0 f4 [512, 32]
0	0x3d90b7bc	0.070662946
1	0xbda17716	-0.07884042
2	0xbbf2e0da	-0.0074120583
3	0xbda63180	-0.0811491
4	0xbd81c4ef	-0.0633639
5	0xbd5d03ad	-0.053958584
6	0x3d2e9004	0.042617813
7	0x3da47de1	0.08031822
8	0xbd949260	-0.07254481
9	0xbc937c5c	-0.018003635
10	0x3d0e226e	0.034700803
11	0xbcfe6229	-0.031052666
12	0x3cc13957	0.023586912
13	0x3d6685c5	0.056279916
14	0xba9287be	-0.001117937
15	0xbd736729	-0.059424553
16	0xbda68800	-0.08131409
17	0x3c856abc	0.016286246
18	0x3dad9950	0.08476508
19	0xbd5dce69	-0.054151926
20	0xbda2e3c9	-0.07953603
21	0xbcf8a6b9	-0.030352937
22	0x3accd022	0.0015625993
23	0x3d904d83	0.07046034
24	0x3bbba3b1	0.0057263006
25	0xbaa2c011	-0.0012416859
26	0xbd2910bb	-0.04127572
27	0x3d2412c0	0.040056944
28	0x3da082e5	0.07837466
29	0x3d8dae6a	0.069180325
30	0xbdac8ada	-0.08424921
31	0x3d943add	0.0723779
32	0xbc4a75c0	-0.012357175
33	0xbca6e323	-0.02037198
34	0xbda16b64	-0.07881811
35	0x3d904e32	0.070461646
36	0x3c8cb69e	0.017176922
37	0xbd9d97e5	-0.07694987
38	0x3d9ed982	0.0775633
39	0xbdae5390	-0.08512032
40	0xbc8272aa	-0.015923817
41	0xbceb1d4e	-0.028700497
42	0xbd30546b	-0.043049257
43	0xbbffa831	-0.0078020324
44	0x3cc5b556	0.02413432
45	0x3bcbc1c8	0.006218169
46	0x3ca627cc	0.020282649
47	0x3b8f6339	0.004375842
48	0x3c47ef1b	0.012203003
49	0xbce22efe	-0.027610298
50	0x3d166825	0.036720414
51	0x3db35b18	0.08757609
52	0x3dadbce6	0.08483295
53	0xbd94d619	-0.072673984
54	0xb9b0733f	-0.000336552
55	0x3d873341	0.06601573
56	0xbd8b1d0c	-0.067926496
57	0xbdad0b41	-0.08449412
58	0xbd6531f2	-0.055955835
59	0xbc6febb3	-0.014643597
60	0xbd281ecd	-0.041045
61	0x3d432891	0.04764611
62	0xbd582a7b	-0.052774888
63	0xbd2b7449	-0.041858945
64	0xbd89634d	-0.06708393
65	0x3b94aa54	0.0045369063
66	0x3da2b59d	0.07944796
67	0xbdb087af	-0.086196296
68	0xbd9d7031	-0.076874144
69	0xbda268f4	-0.079301745
70	0x3d89a5f4	0.06721106
71	0xbd337279	-0.04381034
72	0xbd40bfa9	-0.04705778
73	0x3d4bdabc	0.04976915
74	0xbcadbba3	-0.021207636
75	0xbda0f0ff	-0.07858466
76	0xbcbab9f6	-0.022793751
77	0x3cb09ec8	0.021560088
78	0x3cd3301a	0.025779773
79	0xbd829f0a	-0.063779905
80	0xbd8637b7	-0.065535955
81	0x3d999295	0.074986614
82	0x3b4da6c2	0.0031379913
83	0xbd0e0462	-0.03467215
84	0xbd6df831	-0.058098022
85	0xbd915dba	-0.07097955
86	0xbd448601	-0.04797936
87	0xbd43590d	-0.047692347
88	0x3d0ec330	0.034854114
89	0x3a7f9b0f	0.00097505836
90	0xbd873399	-0.06601638
91	0xbc273b4c	-0.010207009
92	0xbc59dae0	-0.013296813
93	0xbd2d8229	-0.04236046
94	0xbcd1b0b4	-0.025596954
95	0x3cd5a98c	0.026081823
96	0x3bac0ad8	0.005250316
97	0x3cef4ef5	0.029212454
98	0x3d7107cd	0.05884533
99	0xbdab9214	-0.083774716
100	0x3d91624d	0.070988275
101	0x3c049410	0.0080919415
102	0xbd320d6a	-0.043469824
103	0x3cb5e7b0	0.022205204
104	0x3d414c5f	0.047191974
105	0xbb74783b	-0.0037303108
106	0xbcf3b3c4	-0.029748805
107	0x3db9a3ca	0.090644434
108	0x3cac0718	0.020999476
109	0x3c9a1897	0.018810553
110	0x3ac56910	0.0015061218
111	0x3d1bfc37	0.038082328
112	0x3ca98250	0.02069202
113	0x3d994fe5	0.07485942
114	0xbc4920e3	-0.012275907
115	0x3da259d5	0.0792729
116	0x3d244f72	0.040114827
117	0xbc95a3e5	-0.018266628
118	0x3d5200be	0.05127024
119	0xbd9e82d3	-0.077397965
120	0xbc8180be	-0.01580846
121	0x3d09e284	0.033663288
122	0xbd019e0e	-0.031644873
123	0xbd88b68c	-0.06675443
124	0x3ce47105	0.027885923
125	0xbdad78cb	-0.08470305
126	0xbbe5d406	-0.0070138006
127	0xbdb2bb76	-0.087271616
128	0x3c9bbd8c	0.019011281
129	0xbd344fc0	-0.044021368
130	0xbd3eb06f	-0.04655498
131	0xbdaa8470	-0.08326042
132	0x3d2da299	0.042391393
133	0x3d9acc56	0.07558505
134	0xbc5c5edb	-0.01345035
135	0xbccccc30	-0.024999708
136	0x3d8ac44f	0.06775724
137	0xbcc88bd0	-0.02448073
138	0xbd80a4fb	-0.062814675
139	0x3caeb889	0.021328228
140	0xbd246062	-0.04013098
141	0xbd88bd8f	-0.066767804
142	0x3c522448	0.012826033
143	0xbbfd2f08	-0.007726554
144	0x3d8f7b0c	0.07005891
145	0xbd9b05d1	-0.07569469
146	0x3db6a012	0.0891725
147	0xbcbda49c	-0.02314978
148	0xbcdb4c3d	-0.026769752
149	0x3d948d60	0.07253528
150	0x3c53b93c	0.012922581
151	0xbd85eaad	-0.065389015
152	0xbc623920	-0.013807565
153	0xbd9e3fae	-0.0772699
154	0x3d11bfae	0.03558319
155	0xbdabc4ce	-0.08387147
156	0x3d4b8ea3	0.049696576
157	0x3ce82019	0.028335618
158	0x3ca95497	0.020670218
159	0xbd1df66a	-0.038565077
160	0x3da40031	0.08007849
161	0xbd8cdfc0	-0.068786144
162	0xbc845c9a	-0.016157437
163	0xbc1adf6a	-0.00945268
164	0xbd737160	-0.059434295
165	0x3cf2856c	0.029604636
166	0xbcee0dcb	-0.029059311
167	0x3dab2efb	0.0835857
168	0x3cdef5da	0.02721684
169	0x3d089407	0.033344295
170	0xbd380d2f	-0.044934448
171	0xbd49d13d	-0.04927181
172	0x3d860d1c	0.06545469
173	0xbc4c08ff	-0.012453317
174	0x3d20eb32	0.0392868
175	0x3d13e8ff	0.036110874
176	0xbd505707	-0.050864246
177	0x3d4d3cd5	0.050106842
178	0x3cd8a5d0	0.026446253
179	0xbda2f9ac	-0.079577774
180	0x3d846973	0.06465425
181	0x3d0fd13b	0.035111647
182	0xbd75bc87	-0.059994247
183	0xbdc00fd2	-0.093780175
184	0x3da1df81	0.07903958
185	0xbd88f200	-0.06686783
186	0xbd55d8ea	-0.05220882
187	0x3d3f297a	0.046670415
188	0x3c30df57	0.010795436
189	0x3d2f0365	0.042727847
190	0x3d967de8	0.073482335
191	0x3b39dcec	0.002836044
192	0x3d8c5e3a	0.0685391
193	0x3b70904d	0.0036707104
194	0x3dba1d49	0.09087617
195	0xb9ffbc34	-0.00048777612
196	0x3d11a8d9	0.035561416
197	0x3d875cd4	0.066095024
198	0xbd3054d9	-0.043049667
199	0xbbd8cb75	-0.006616051
200	0xbbd8e4fe	-0.006619095
201	0x3cf36268	0.02971001
202	0x3d2c1c21	0.042019013
203	0x3d87e7af	0.06635987
204	0xbc9367c3	-0.017993813
205	0xbca5ebc8	-0.02025403
206	0xbc971d09	-0.018446462
207	0x3d63215a	0.05545173
208	0xbca15cb0	-0.019697517
209	0xbd8c13bf	-0.06839704
210	0xbc88d205	-0.016701708
211	0xbc5bb183	-0.013409021
212	0xbd82e054	-0.063904434
213	0x3c75e1b5	0.015007426
214	0xbd8934e5	-0.06699542
215	0x3d65e43e	0.05612587
216	0xbd0d951a	-0.034566022
217	0x3d811751	0.063032754
218	0x3d4761be	0.0486772
219	0x3d9a5142	0.0753503
220	0x3bc54709	0.006020431
221	0x3b1bd573	0.0023778349
222	0xbd848eba	-0.064725354
223	0x3d5fbfce	0.05462628
224	0x3d6d0a8f	0.057871398
225	0xbd0e241f	-0.034702417
226	0x3d01e330	0.031710804
227	0xbd985232	-0.074375525
228	0xbd31b29a	-0.04338322
229	0xbd81c2d2	-0.06335987
230	0x3d77a01b	0.060455423
231	0xbd4816e4	-0.048849955
232	0xbb05853a	-0.0020373599
233	0xbd4e99aa	-0.050439514
234	0x3ca56df5	0.020194033
235	0x3d470009	0.048584018
236	0x3c99ea8d	0.0187886
237	0x3ca0b896	0.019619267
238	0x3d973994	0.07384029
239	0x3d7a4aab	0.061106365
240	0xbcfd2fc5	-0.030906567
241	0xbd995d7b	-0.07488533
242	0x3c917cb4	0.017759658
243	0xbd092748	-0.033484727
244	0xbd60e67f	-0.05490732
245	0xbd144910	-0.03620249
246	0xbb612351	-0.0034353326
247	0xbd0d4279	-0.03448722
248	0xbd34f0d1	-0.044174973
249	0x3da43288	0.080174506
250	0x3db5f544	0.08884671
251	0xbd338afa	-0.04383371
252	0x3d09401b	0.0335084
253	0x3da7333e	0.081640705
254	0xbd562638	-0.052282542
255	0x3bbd71b4	0.0057813767

weight_hh_l0 f4 [512, 128]
0	0xbda733ae	-0.08164154
1	0xbd891303	-0.06693079
2	0xbd9ee635	-0.07758752
3	0xbd2885e2	-0.041143306
4	0x3d8cc962	0.06874348
5	0xbba1b86d	-0.0049353153
6	0xbd674775	-0.05646463
7	0xbc49ab3a	-0.01230889
8	0x3a26170a	0.00063358305
9	0xbd3439fe	-0.04400062
10	0x3da06f29	0.07833702
11	0xbbb6063f	-0.005554944
12	0x3d241916	0.040062986
13	0xbd963728	-0.07334739
14	0xbd664695	-0.056219656
15	0xbc979d29	-0.018507557
16	0x3d9e6941	0.07734919
17	0x3d598138	0.05310175
18	0xbdb3fdff	-0.0878868
19	0xbd222698	-0.039587587
20	0x3d9f3a05	0.07774738
21	0xbcc6c6ef	-0.02426478
22	0xbd4f54a3	-0.050617825
23	0x3c06c2e1	0.008225174
24	0xbd0400ae	-0.03222721
25	0xbd5a8b1e	-0.05335533
26	0x3d8e0f80	0.0693655
27	0xbd420a8a	-0.047373332
28	0xbc73cddb	-0.014880623
29	0x3d5accc2	0.05341793
30	0x3cd50911	0.0260053
31	0xbd1fb67a	-0.038992383
32	0x3d90af25	0.07064656
33	0x3cc3dc73	0.02390883
34	0x3cfacd2c	0.030615412
35	0x3d500f28	0.050795704
36	0x3c1145d3	0.008866745
37	0x3b6f82d7	0.0036546492
38	0xbd572e07	-0.05253413
39	0xbd721454	-0.059101418
40	0xbcfa17b6	-0.030528884
41	0xbd33e56f	-0.043919977
42	0xbc4c9b01	-0.012488128
43	0x3cbf89f6	0.023381215
44	0x3d1c3206	0.038133644
45	0xb9ae89b9	-0.00033290478
46	0xbd14d1b6	-0.03633281
47	0xbdaeda59	-0.0853774
48	0xbdb0e050	-0.08636534
49	0xbd3047c0	-0.043037176
50	0x3d63c26a	0.05560533
51	0xbc337e02	-0.010955336
52	0x3bcea1e9	0.0063059223
53	0x3da446ac	0.08021292
54	0x3d4e5301	0.050372127
55	0x3db16ae7	0.08662968
56	0x3bb7d09a	0.005609584
57	0xbd94a075	-0.07257167
58	0x3ce35a4e	0.027753022
59	0x3d4815e3	0.048848998
60	0xbd94d5fd	-0.072673775
61	0x3d192117	0.037385073
62	0xbb6e927e	-0.0036403234
63	0x3d3de0f9	0.04635713
64	0x3da4058b	0.0800887
65	0x3d552d2b	0.05204503
66	0xbdb03ead	-0.086057045
67	0xbdb1e8bc	-0.08686969
68	0x3d97175a	0.07377501
69	0x3d6e06c8	0.058111936
70	0xbd22d677	-0.03975531
71	0xbd2fa250	-0.042879403
72	0xbcc7acd4	-0.024374403
73	0x3cf643eb	0.030061683
74	0x3daff105	0.08590893
75	0x3d6a719f	0.057237264
76	0xbd7d6a85	-0.061869163
77	0x3db5bbf3	0.08873739
78	0xbd1e6acf	-0.03867608
79	0x3ac7a6dd	0.0015232224
80	0xbda6f3bc	-0.081519574
81	0x3c4dcf9f	0.012561708
82	0x3d9201e7	0.07129269
83	0x3d94b89e	0.072617754
84	0xbc1a5852	-0.009420471
85	0x3b02da82	0.0019966667
86	0xbd863459	-0.06552953
87	0x3c7e95a0	0.015538603
88	0x3d81072c	0.06300196
89	0xbccb6145	-0.024826655
90	0xb9c1a453	-0.0003693426
91	0x3b9f0944	0.0048533995
92	0xbd9299e5	-0.07158259
93	0x3d7e7506	0.06212332
94	0x3a3cf11b	0.00072075584
95	0x3d5c47cc	0.05377941
96	0x3d086e51	0.03330833
97	0xbd89112f	-0.06692731
98	0x3d812de8	0.06307584
99	0xbc40fded	-0.011779291
100	0xbbc05fa9	-0.0058707786
101	0xbd8807c0	-0.06642103
102	0xbd461c5d	-0.048366893
103	0xbdab4da6	-0.0836442
104	0x3c8d69d6	0.01726238
105	0xbb76c521	-0.003765412
106	0x3d077360	0.033069015
107	0x3d1d4bc8	0.03840235
108	0x3d7a1beb	0.06106178
109	0x3d0142ff	0.031558033
110	0xbc953bc2	-0.018216971
111	0x3d80bc03	0.062858604
112	0xbdab1e9a	-0.08355446
113	0xbcc59640	-0.024119496
114	0x3d95776d	0.07298169
115	0xbcce29c3	-0.025166398
116	0xbd3374da	-0.04381261
117	0xbcac75c4	-0.021052249
118	0xbdae823b	-0.08520933
119	0x3cb611b7	0.022225244
120	0xbd028201	-0.031862263
121	0x3d87f71f	0.066389315
122	0x3d54bf2e	0.051940136
123	0xbd04ebd8	-0.03245148
124	0xbd298b87	-0.04139283
125	0xbd29166e	-0.041281156
126	0x3cfdd4f5	0.030985335
127	0x3ad1fabb	0.0016020158
128	0x3d121fe6	0.035674952
129	0xbd5080f0	-0.050904214
130	0x3cfde4aa	0.030992825
131	0x3d2fb9df	0.04290187
132	0x3cb22b43	0.021749144
133	0x3d0e3b51	0.034724537
134	0x3d5e53d4	0.054279163
135	0x3d109522	0.035298474
136	0x3cc588cd	0.024113083
137	0x3c8dd601	0.01731396
138	0x3c9b8d2c	0.018988214
139	0xbcef2db6	-0.029196601
140	0x3d62ec70	0.055401266
141	0xbd445b29	-0.0479385
142	0x3d88b689	0.06675441
143	0x3d890c2b	0.06691774
144	0xbd8868a6	-0.06660585
145	0x3d3bbb81	0.045833115
146	0x3d4fce4d	0.050733853
147	0x3ce0b6f1	0.027430983
148	0x3ca8bbc4	0.020597346
149	0xbc629c31	-0.013831184
150	0x3d285fd1	0.041107003
151	0x3bca4a66	0.0061734198
152	0x3d1d1b81	0.038356308
153	0xbdabde1f	-0.083919756
154	0x3d6c9917	0.057763185
155	0xbda153aa	-0.07877286
156	0xbcb9b9b1	-0.022671552
157	0x3d5145c3	0.05109192
158	0x3d7af81f	0.061271783
159	0xbda94655	-0.08265368
160	0xbd68d83b	-0.05684684
161	0x3d3538b3	0.044243526
162	0x3d71c83a	0.05902884
163	0x3d8d4b04	0.06899074
164	0xbdbb5061	-0.091461904
165	0xbd4082e5	-0.04699983
166	0x3d146724	0.036231175
167	0x3b5bf7c5	0.003356443
168	0xbda42063	-0.0801399
169	0xbd2699dc	-0.040674075
170	0xbd4fcffa	-0.05073545
171	0xbd813b89	-0.063101836
172	0xbba4fd16	-0.005035053
173	0xbb023966	-0.0019870638
174	0x3d13c358	0.036074966
175	0x3cb0d2cf	0.021584896
176	0xbdb81f88	-0.08990389
177	0xbce59cff	-0.028028963
178	0xbcfc09ac	-0.03076633
179	0xbd64db0e	-0.05587297
180	0xbcaf02cd	-0.02136364
181	0xbdb92d3f	-0.09041833
182	0xbd5ec48e	-0.054386668
183	0xbd451382	-0.048114307
184	0x3d643029	0.05570999
185	0xbd3b2a1a	-0.045694448
186	0xbcc3d1bc	-0.02390372
187	0xbd949f8f	-0.07256996
188	0x3b2bee3f	0.0026234535
189	0xbd950b6d	-0.0727757
190	0x3dbdccdc	0.092675894
191	0x3da73daf	0.08166062
192	0xbc191091	-0.009342329
193	0x3d8eaaa6	0.06966142
194	0x3d1a40c3	0.037659418
195	0xbdb060b0	-0.08612192
196	0xbd200c5b	-0.039074283
197	0xbd03224d	-0.032015134
198	0xbd35ff19	-0.044432733
199	0xbd85bb6f	-0.06529891
200	0x3d26dbbf	0.04073691
201	0x3d845b7c	0.06462762
202	0x3da2d946	0.07951598
203	0x3da4f0e8	0.08053762
204	0xbd82109c	-0.06350824
205	0xbcca80f8	-0.0247197
206	0xbda8d3db	-0.08243533
207	0x3d0c1922	0.034203656
208	0xbbdcc675	-0.006737525
209	0xbda67937	-0.08128589
210	0x3d4bfcd4	0.049801663
211	0x3d2ead69	0.042645846
212	0x3da8a54f	0.08234655
213	0xbc05a4b5	-0.008156945
214	0xbd360586	-0.04443886
215	0xbda05311	-0.07828344
216	0xbc54c6ac	-0.01298682
217	0xbcfd41ea	-0.03091522
218	0x3d08e45a	0.033420898
219	0x3d296f0e	0.041365676
220	0x3cb9734e	0.02263799
221	0xbc28a684	-0.010293607
222	0xbda394e7	-0.07987385
223	0xbd20b0be	-0.039231054
224	0x3cd5a825	0.026081154
225	0xbd9d04b5	-0.076669134
226	0xbd2ff1ba	-0.042955138
227	0xbd49c921	-0.049264077
228	0x3ca2e775	0.019885758
229	0x3d9a415e	0.07531999
230	0x3c8ee330	0.017442316
231	0x3d0263ea	0.031833567
232	0x3cde4703	0.02713347
233	0xbd9f7c80	-0.07787418
234	0xbd048d02	-0.032361038
235	0xbc0b60d7	-0.008506975
236	0x3c94dea4	0.01817257
237	0x3b2130a0	0.0024595633
238	0x3ce6fa99	0.028195666
239	0xbd7c2535	-0.06155892
240	0xbc880c8a	-0.016607542
241	0xbd07d664	-0.033163443
242	0x3dac93eb	0.084266506
243	0x3d8ddc91	0.06926835
244	0x3d57912b	0.052628677
245	0x3db085fa	0.08619304
246	0xbd12b51b	-0.035817247
247	0xbd6b33de	-0.05742251
248	0x3da141d5	0.078738846
249	0xbd4a4ed5	-0.049391586
250	0xbd7cbeb1	-0.061705295
251	0x3d9d8cdd	0.07692883
252	0x3c270bb0	0.010195658
253	0x3c8845a2	0.016634766
254	0x3c9cba00	0.01913166
255	0x3d985079	0.07437224
