Single Battery Model/5. CNN-LSTM Models/model_B0005_discharge_rob.pth (torch, 432718 bytes, 15 tensors)

weight f4 [64, 3, 3]
000000 59 fa b2 3d 8c ff 8f be 0c 7c 51 3d 2c a2 e4 bd
       0.08739156 -0.28124654 0.05114369 -0.11163744
000010 b3 b8 61 3e d0 28 20 be af 70 1f 3e b8 82 a8 be
       0.22043113 -0.15640569 0.15570329 -0.3291223
000020 7f f9 89 be c9 27 20 be 7f 7a 27 bd 25 4c 5b be
       -0.26948163 -0.15640177 -0.040888306 -0.21415766
000030 d4 0e 0c 3e b4 e2 c9 3d 02 6c 70 3e 43 68 5d 3e
       0.13677531 0.09857693 0.23478702 0.21621804
000040 19 11 92 be aa c4 8a 3d 96 b7 67 3d 69 5c 88 3e
       -0.2852867 0.06775792 0.056571566 0.26633003
000050 a3 fa 1f 3d bf 47 3e be 16 5d 09 3e 30 8b 81 3e
       0.039057385 -0.18582056 0.13414416 0.25301504
000060 33 41 87 3e 8d 24 95 3e 81 1d 24 3e 1b 14 39 be
       0.2641693 0.2912945 0.1602688 -0.18074076
000070 0c 70 92 be 63 db 3e 3e 18 60 71 be e5 5e 93 3e
       -0.2860111 0.18638377 -0.23571813 0.28783336
000080 4f ce a2 3e 13 d3 d2 bd 69 60 0d 3e 27 34 d4 3d
       0.31798026 -0.102941655 0.13806309 0.1036151
000090 15 f9 9e bd 82 89 02 be da ec 60 3e 61 55 37 be
       -0.077623524 -0.12747768 0.21965352 -0.17903663
0000a0 c4 5b 7c be b6 79 cf bd 1d 32 93 3d 39 90 90 b9
       -0.24644381 -0.101306364 0.07187293 -0.00027573275
0000b0 c4 1a e1 bd d9 d1 59 3c 3f 5c 06 3d 0c 3d a4 bd
       -0.10991433 0.0132946605 0.032802816 -0.08019456
0000c0 da 9b 75 3e 19 85 90 3e 33 3d a5 be 1e 5d 09 bd
       0.23985234 0.28226545 -0.32273254 -0.03353607
0000d0 aa 8a a7 bd fd 0a 76 3e 2d a1 23 3e 76 c3 59 bd
       -0.08180745 0.24027629 0.15979452 -0.05316492
0000e0 92 a2 87 be 48 16 81 3e 1c 92 4e bd 9a 92 2e be
       -0.2649122 0.25212312 -0.05043231 -0.17048112
0000f0 79 c8 83 3e f8 74 e0 3c c4 63 41 be f1 2a 9b bd
       0.25738886 0.027399525 -0.18885714 -0.0757655
000100 8c ca f8 bd 4a 14 7f 3c 0b 56 15 3e 19 e0 58 be
       -0.12148008 0.015568802 0.14583604 -0.21179236
000110 90 df c9 3d fb f1 8a be da e7 90 bd 0b 35 8d be
       0.09857094 -0.2713774 -0.07075472 -0.2757953
000120 17 9d 2a 3e 97 d4 9d be 27 bd 7e bd 7c 41 3b be
       0.16661488 -0.30826256 -0.06219211 -0.18286699
000130 67 25 f3 3d 45 83 77 bd d7 18 08 3e 84 f2 49 3e
       0.11872368 -0.060427923 0.13290726 0.19721419
000140 be 63 8a 3e 73 59 a6 3d e1 be b2 3e 4d 8c 61 be
       0.27029222 0.0812253 0.34911254 -0.22026177
000150 4a 1d 90 3e 35 fb 67 be d9 84 e6 bd ba 3b 13 be
       0.28147346 -0.22654422 -0.112558074 -0.14378253
000160 aa 82 4f 3e dc 96 f1 bd da 3b dd bd 03 32 03 3d
       0.20264688 -0.11796352 -0.108024314 0.032030117
000170 4f 71 ab bc c8 2d b6 bd 81 78 6c 3d 6d d3 6f be
       -0.020928053 -0.08895451 0.05773211 -0.23420496
000180 cd 9f 27 bd 96 1d 9c 3d b4 81 d1 bd fc 23 95 bd
       -0.040923882 0.076228306 -0.10229817 -0.07282254
000190 82 94 db bd bd b2 ea bd 67 4d e8 3d 1e de 4a bd
       -0.10721685 -0.11459873 0.11342888 -0.049528234
0001a0 f2 d3 34 3e 35 49 8f 3e 01 89 ab be f5 b2 4b bd
       0.17658976 0.2798554 -0.33502963 -0.049731214
0001b0 7d 81 fd bc b9 29 7b 3e d0 c7 98 3e ec f1 57 bd
       -0.030945534 0.24527635 0.29839945 -0.05272095
0001c0 4e e4 ba 3d 31 ef 96 3e 3c da a2 bc a4 6b 82 be
       0.09125577 0.29479364 -0.019879453 -0.25472748
0001d0 ef 62 a5 bd f9 e3 fb 3c 09 9d 68 bc 11 da 09 be
       -0.08075511 0.030748354 -0.014197596 -0.13462092
0001e0 2c 73 70 3e 38 05 53 be 3d f4 37 3e d3 5a 61 bd
       0.23481435 -0.2060746 0.17964263 -0.055018257
0001f0 30 8c 05 3e 51 09 aa bd a4 99 ae bc 77 7d 56 bc
       0.13041759 -0.08302558 -0.021313496 -0.013091437
000200 fc f8 56 3e 8a bd f7 3d a0 68 29 3e 9a 38 6d bd
       0.20993418 0.120966986 0.16543818 -0.057915308
000210 f3 82 10 3e c3 e2 12 3c e8 0f 04 3e ab fa 90 bd
       0.14112453 0.008965197 0.12896693 -0.07079061
000220 42 20 81 be cb 56 35 3e 2e 85 8c be 03 a6 16 be
       -0.25219923 0.1770889 -0.27445358 -0.14711766
000230 f8 f6 55 3e 2b f4 9f be 33 95 6b be f0 c2 32 bc
       0.20894992 -0.31240973 -0.23006134 -0.0109107345
000240 a6 e7 99 be 46 65 68 be bd 48 a7 3e 7f cb de bd
       -0.30059546 -0.22694883 0.32672682 -0.108786575
000250 8c 65 86 3d f9 6c 55 3e df f3 42 be 3f 7f ea 3d
       0.06562337 0.20842351 -0.19038342 0.114500515
000260 ed 1c 95 3e bc 84 4a 3d da ad 70 3e 23 ab 6c 3d
       0.2912363 0.04944299 0.23503819 0.057780396
000270 20 30 8c 3e 9e c3 84 bc 41 5b 79 3e d7 ab 0b 3e
       0.27380466 -0.016206559 0.24351217 0.1363977
000280 6b d8 ad 3d ac 5d 52 be 01 48 9e be 90 62 62 bd
       0.08488544 -0.20543545 -0.3091431 -0.055269778
000290 ea 7e 6f bc c6 8c a7 3e 88 fd 01 be de b2 97 3e
       -0.014617661 0.3272459 -0.12694371 0.29628652
0002a0 ce d3 b3 be 6d ab 3b be bc ff 94 3e f5 81 3d 3e
       -0.35122532 -0.18327112 0.2910136 0.18506606
0002b0 6f 51 29 bd 3d d4 aa 3c d1 94 08 3e bb 2e 9b be
       -0.041337427 0.020853156 0.13338019 -0.3030909
0002c0 44 41 c4 3b 7e 12 09 bd c9 5a 60 3e c5 16 db 3d
       0.0059892256 -0.0334649 0.21909632 0.10697702
0002d0 eb af 98 be 01 1c 62 3e 78 ba 02 3e 4e d9 b4 bd
       -0.29821715 0.22080995 0.12766445 -0.0883051
0002e0 d2 ee 00 3e 0e 2e 86 be a2 c6 7a 3d 9b 86 9a 3e
       0.12591103 -0.26207012 0.061224587 0.3018082
0002f0 a8 97 4c be de 57 7a bd e1 4d 82 3d 31 33 44 3e
       -0.19979727 -0.061118953 0.063625105 0.19160153
000300 83 63 02 3e 50 c7 0b bc 29 cc 5f be c7 a0 3d bc
       0.12733273 -0.0085314065 -0.21855225 -0.011573977
000310 55 64 b0 3d ed 41 98 3e c2 69 9d be 32 54 17 3e
       0.08612887 0.29737797 -0.3074475 0.14778212
000320 d3 26 76 3e 39 5f e7 bd 5c da 07 be 9e fe 25 3e
       0.24038248 -0.11297459 -0.13266891 0.1621041
000330 81 8a 0c 3e f3 0b a3 3e 88 02 ae bd 0f 25 91 be
       0.1372471 0.31845054 -0.084965765 -0.28348586
000340 8b 6f 97 be 9f 21 63 be b6 7b 0c be 1e c0 a2 3e
       -0.29577288 -0.22180794 -0.13719067 0.317872
000350 c8 3e a1 3b 70 4a 96 be ca 9f d7 3d 86 d9 29 3e
       0.004920814 -0.29353666 0.10528524 0.16586885
000360 40 59 92 3e 1d 35 71 bd c2 03 a1 be 66 dd 0d 3e
       0.28583717 -0.058888543 -0.3144818 0.13853988
000370 5c 92 1e be 52 96 ed 3d 6f 63 93 be 27 c3 07 be
       -0.15485519 0.11600937 -0.287868 -0.13258038
000380 45 9d 15 3e 3e 61 91 3e 93 4c b4 bd 08 b0 c2 3c
       0.14610775 0.28394502 -0.08803668 0.023765579
000390 d8 91 81 3e 52 4c 38 3d 3a 0b 90 bd fe 16 d7 3d
       0.25306582 0.04499466 -0.07033391 0.10502432
0003a0 8c 87 24 3e a1 0a 4b be 42 ca 93 be 66 76 50 3e
       0.16067332 -0.19828273 -0.28865248 0.20357665
0003b0 81 bf 91 be 29 58 c3 bd 4f c7 9a be 3e 0a e0 3d
       -0.28466418 -0.095382996 -0.30230185 0.109394535
0003c0 4d 20 9d 3e f1 be c1 3d 2e 7b 8f be 3e de 21 bc
       0.30688706 0.09460247 -0.28023666 -0.009879647
0003d0 3b 7f 23 3c 5f 65 07 be 59 88 25 3e 29 53 9a be
       0.009979065 -0.13222264 0.16165294 -0.3014157
0003e0 30 ef 4b 3d 8e c6 91 be 5d a6 4d be bd d0 7e be
       0.049788654 -0.28471798 -0.20082994 -0.24884315
0003f0 55 06 a9 3e 3a c7 82 3e 00 46 6f be ac 71 10 3e
       0.33012643 0.25542623 -0.23366547 0.14105862

bias f4 [64]
000000 f6 4f d4 bd 5a 5c 63 bd c2 4e a9 3e bb a5 be 3b
       -0.10366814 -0.055507995 0.330679 0.0058180965
000010 84 99 9d be 43 6b 93 be 2b 27 7f 3b 23 57 e2 bd
       -0.30781186 -0.28792772 0.0038933258 -0.11051776
000020 3d 97 9f be 73 a6 c3 bd 1b 84 a5 3e d4 89 45 3e
       -0.31170073 -0.09553232 0.3232735 0.19290859
000030 46 c0 a0 be 53 5f 5a 3e ce 91 8d be e1 fe 6b bb
       -0.31396693 0.21325426 -0.27650303 -0.0036010074
000040 4f 5b 84 bc 21 56 0e bc 59 34 5d be e8 35 5e be
       -0.01615682 -0.008687527 -0.21602 -0.21700251
000050 a6 ab 6c 3d b5 1a 08 3e 85 18 ef 3c 39 59 06 be
       0.057780884 0.13291438 0.029186497 -0.13119973
000060 5c dd ba 3c e6 30 00 3e 0b 79 ea 3d ae 07 8c 3e
       0.02281063 0.12518653 0.11448868 0.2734961
000070 6f f3 34 3d bb 90 cf 3d ca 1b 96 3e 99 38 8c 3e
       0.04417747 0.10135027 0.29318076 0.2738693
000080 3f d1 4a bc eb b5 a0 bd eb df a1 be c2 71 f3 3d
       -0.01237899 -0.07847198 -0.31616148 0.11886932
000090 8c bc 38 bd a0 2f 91 3e 7d 6d 69 3e 0d c4 53 be
       -0.045101687 0.28356647 0.22795673 -0.20680256
0000a0 d7 07 8c be 99 b0 bd 3a 0d 64 81 3b bb e1 97 3d
       -0.2734973 0.0014472186 0.0039486946 0.074161015
0000b0 2b e2 a1 bd 98 bb 24 3e 28 ea 91 bd 29 05 30 bd
       -0.07904466 0.16087186 -0.0712474 -0.04297367
0000c0 80 1b 3c be bd 21 1f 3e 12 2e d7 bd bf 58 9f 3e
       -0.18369865 0.15540214 -0.10506834 0.31122395
0000d0 9a 20 0b 3e 6a c3 4c 3e 8e e2 9d be bc ce 45 be
       0.13586655 0.1999642 -0.3083691 -0.19317144
0000e0 4a 98 fd bd f1 cf 94 3e ec 40 7e 3e 02 5b 91 be
       -0.123825625 0.29064897 0.24829453 -0.28389746
0000f0 cf 10 81 be 63 7e 60 be ec 31 92 3d 2f 9d 00 be
       -0.25208136 -0.21923213 0.07138428 -0.12559961

weight f4 [32, 640]
000000 35 92 de b9 4d fd 93 bc d3 13 65 3c b2 9e 32 bc
       -0.00042452072 -0.01806512 0.013981777 -0.010902094
000010 bf 02 5b 3d 7e 83 fd bc 81 61 12 3d e9 ec ae bc
       0.053469416 -0.03094649 0.03573752 -0.021353202
000020 8a 2f 0a bc 36 e0 56 3c c7 a3 30 3d 51 b1 2a 3d
       -0.008434186 0.0131149795 0.04312494 0.04167301
000030 b4 c5 a5 3b fa 1e bd 3a 48 18 13 3d db 74 3f bc
       0.0050589684 0.0014428787 0.03591183 -0.011685575
000040 a1 64 3c bb 02 64 29 3d b6 ae 0e 3d c1 d4 12 bd
       -0.0028746503 0.04135514 0.034834586 -0.03584743
000050 7d d1 20 bd 78 7e 39 bd f9 af 62 3c c9 e4 6f bd
       -0.039262284 -0.045286626 0.0138359 -0.058567796
000060 5a f3 5b bd d3 f1 8f bc 6e ff 16 bd 27 b8 8d bc
       -0.053698875 -0.017571365 -0.03686469 -0.017299725
000070 93 a7 56 bd 25 e2 3e 3c cf 0a b4 bc a8 20 10 3d
       -0.052405905 0.011650597 -0.02197781 0.035187393
000080 36 93 f6 3c 0e b2 64 bb f6 43 93 3c 57 81 25 3d
       0.030099493 -0.0034896168 0.017976742 0.04040655
000090 a1 38 99 bc 74 ab b7 3c ef 18 ad bc b9 21 0f bb
       -0.01870376 0.022420622 -0.021130053 -0.0021840169
0000a0 4d af 37 ba 03 33 d4 3c 9b 64 06 3c c8 6d 8d bc
       -0.0007007018 0.02590323 0.008202697 -0.017264262
0000b0 d1 0b c3 bc b0 0b e0 3c f7 7c cd bc f0 61 05 3d
       -0.023809345 0.027349323 -0.025084002 0.032564104
0000c0 16 28 da 3b 32 55 57 bc 6c a5 e2 3c 85 95 f6 bc
       0.0066576106 -0.013142871 0.02766677 -0.030100593
0000d0 f3 09 9f 3c 28 e3 17 3c 49 31 08 bc fe 7e 7a 3c
       0.019413924 0.009270467 -0.008312532 0.015289066
0000e0 57 72 cd bc c4 5d 02 3c af 52 c5 bc d0 da 09 bd
       -0.025078936 0.007956926 -0.024087278 -0.03365594
0000f0 e9 72 6d bc 87 6f 1d 3d 31 b7 f6 3c c8 7d 52 bb
       -0.014492729 0.03843644 0.03011665 -0.0032118428
000100 8f 29 cd bc 42 56 93 b9 72 5c a4 3c 52 01 e3 bc
       -0.02504423 -0.00028102292 0.020063613 -0.02771059
000110 a9 d4 18 bd ba 63 fc bc fb 30 ea 3c ca 3c b9 3b
       -0.037312184 -0.030809272 0.028587809 0.0056529986
000120 36 3c 24 bc 71 ea bd bc a9 00 e3 3c a1 3f 64 bb
       -0.010024121 -0.02318308 0.027710276 -0.0034827965
000130 6f 79 2d 3c 16 b7 9d bc 90 8c 45 3d d3 ab 3c bc
       0.010588034 -0.019252341 0.048229754 -0.011515575
000140 0b 96 ad 3c a3 2d 1e 3d b4 d4 f1 bc d1 bb f8 3c
       0.02118971 0.03861774 -0.02952037 0.030362995
000150 0f 5f 0e bd da 03 84 3c aa 3c ab bc d8 91 18 3d
       -0.034758624 0.016115118 -0.02090295 0.037248462
000160 ef 34 c7 3c 1f d2 f0 bb d4 eb ab 3c a2 db e8 bc
       0.024317233 -0.007349267 0.020986475 -0.028425042
000170 a7 cd 0e 3d da e6 0d 3d 95 93 a4 bb 99 c5 9a 3c
       0.034864094 0.034643985 -0.005022476 0.01889305
000180 1e d2 00 bd a5 93 1d 3d bc f6 53 bb d9 9f 38 bd
       -0.031450383 0.038470883 -0.003234311 -0.045074318
000190 3d 40 00 3d 61 04 20 3c a8 ef 00 39 00 88 29 3c
       0.031311262 0.009766669 0.0001229631 0.010347366
0001a0 89 8a 73 bc 63 fc b1 bc f8 7b 9d 3c 00 a3 99 bc
       -0.014864572 -0.021726793 0.019224152 -0.018754482
0001b0 5e 2f 8f bc d9 04 11 bd c9 13 f1 bc 61 14 87 3d
       -0.017478641 -0.035405014 -0.02942838 0.06595684
0001c0 21 90 6d 3d 3d ea 84 3d 26 3c 81 bc 8e fb e2 3c
       0.05799878 0.0648999 -0.015775751 0.027707841
0001d0 c4 2a cd bc de 2e 45 3c 47 8b 0e 3d 88 36 e4 3c
       -0.025044806 0.0120351 0.034800794 0.027858034
0001e0 62 e1 40 bd ed fa 90 3c a3 a3 12 bd ee 8a cc bc
       -0.04708994 0.017697776 -0.035800587 -0.02496859
0001f0 f0 9a d9 3c ee 77 20 bd 2b c8 27 bd 80 37 04 39
       0.026563138 -0.039176874 -0.04096238 0.00012609176
000200 3b e8 38 3c fb d2 cd 3c 15 f9 31 ba bd e3 cb 3a
       0.011285837 0.025125017 -0.000678913 0.0015555542
000210 26 cc 0b bd 78 5c 06 3d a7 b5 f5 39 6e a5 fe 3c
       -0.034130238 0.03280303 0.00046865383 0.031084742
000220 73 39 8b 3c 44 13 ae bc b0 00 b5 3b d2 80 f8 bc
       0.016995167 -0.021249421 0.0055237636 -0.030334864
000230 71 14 be bc 0d db 77 bb dc ab 34 bc 21 b9 98 bb
       -0.023203107 -0.0037819773 -0.011027303 -0.004660741
000240 69 47 fa bc b9 7e a7 bc 91 05 0c bd 82 04 da 39
       -0.03055163 -0.020446168 -0.034184996 0.0004158356
000250 d0 9a fc 3c 30 1d 23 3c 2b 1f f7 3c bf cb cf bc
       0.03083554 0.009955689 0.03016623 -0.025365708
000260 3d f9 0d 3d a4 63 8f bc 0c 0b 75 bc 68 c3 46 bc
       0.03466152 -0.017503567 -0.014956247 -0.012131549
000270 08 51 eb 3c be b3 d7 3c c9 4f 3e bc bd fd c6 3c
       0.028725162 0.026330825 -0.011615702 0.024290914
000280 7f a9 c5 bc 88 aa 0a 3d c3 b2 1b bd d0 c5 88 bc
       -0.024128674 0.033854038 -0.038012277 -0.016695887
000290 39 2f 06 3d e4 86 08 bd f7 d8 b2 3c 23 46 3a 3b
       0.03275988 -0.033331767 0.021831973 0.0028423152
0002a0 be 3f 93 bc 26 30 0f bd 8f 2f 11 bc 48 2f f9 3b
       -0.01797473 -0.034958027 -0.0088614365 0.0076045133
0002b0 0f 59 ee ba 5c a5 14 3c cf 96 1f 3d 35 0d a8 3c
       -0.00181845 0.009072628 0.03896218 0.02051411
0002c0 78 89 64 bb 8a f0 78 bc c9 cb 33 bc 6b 4d d8 bc
       -0.0034871977 -0.015194068 -0.010973879 -0.026404103
0002d0 bd e1 0b 3d 6e c8 c2 3c 7c f9 b7 bc 74 01 cf 3c
       0.034150828 0.023777213 -0.02245783 0.025269248
0002e0 0e 74 c6 3c d7 d5 c1 3c f1 24 95 3c 19 9b 0c 3d
       0.024225261 0.023661537 0.018206092 0.0343276
0002f0 d5 42 bc bc 05 dd 9c 3c c1 c5 df bc 5c c7 8e bc
       -0.022981087 0.01914836 -0.027315976 -0.017429046
000300 25 9d 2d 3c 06 af 03 3d 19 87 8d 3c 90 0c d1 bc
       0.010596548 0.032149337 0.017276334 -0.025518686
000310 68 8d f3 3c 6d 84 03 bd 3f b8 02 3b 43 e5 c0 3b
       0.029730514 -0.032108713 0.0019946245 0.005886705
000320 ec 0e 22 bd ab 41 08 3c b9 fb dc bc c4 6f 22 bd
       -0.03956501 0.008316438 -0.0269755 -0.03965737
000330 4b 1d 17 bd 8b ce a4 3c a9 00 b0 3c a5 ec 58 ba
       -0.03689317 0.020118019 0.02148469 -0.0008275009
000340 5f d7 a7 bc 3d 11 b6 3c db 41 be bc d5 05 af bc
       -0.02048844 0.022225017 -0.023224762 -0.021365086
000350 c4 01 25 bc e4 38 ca 3b c7 87 f3 bc 2c 69 88 bc
       -0.010071222 0.0061713327 -0.02972783 -0.016651712
000360 b8 fb 34 3b 33 5c 13 3c 48 1b 0c 3d e0 8c e6 3c
       0.0027615856 0.00899415 0.034205705 0.028143346
000370 81 d8 2c bd a0 ab fa 3c ec 13 db 3b 5d a3 a6 3b
       -0.04219866 0.030599415 0.0066857245 0.0050853924
000380 88 ca 02 bd a9 94 40 bc fb 22 ba 3c 7b bc ca 3c
       -0.03193143 -0.011754193 0.022721758 0.024748078
000390 a6 f5 a8 bc 5b 07 27 bd 0b 6a 84 bc e8 28 e9 bc
       -0.020624947 -0.0407785 -0.016163846 -0.028461888
0003a0 4d 8a c7 3c bd 33 78 bc 38 1f 9a 3c 00 ac c8 3b
       0.02435794 -0.015149054 0.018813714 0.0061240196
0003b0 5e 45 fb bc 78 30 26 3d 11 88 9e bc e7 6c f1 3c
       -0.030672725 0.040573567 -0.01935199 0.029470874
0003c0 c6 53 24 bc bb 08 ce 3c dd 91 89 3b 1b e0 2d 3d
       -0.010029739 0.025150647 0.0041982965 0.04245005
0003d0 b3 df 10 3c 3d 0b e3 3b fc f5 64 3c 83 2f 1c bc
       0.008842397 0.00692883 0.013974663 -0.009532812
0003e0 46 76 cd 3b 62 84 06 3d cf 5e 08 3c bb 20 29 bd
       0.006270203 0.032841094 0.008323385 -0.04129098
0003f0 d8 97 1b bd 2f a3 96 3b 36 c2 28 bd 17 85 04 bd
       -0.037986606 0.0045970897 -0.04120084 -0.032353487

bias f4 [32]
000000 41 89 1f bc da 72 03 bd e7 96 0c 3d 1f 4a 0e 3d
       -0.009737314 -0.032091953 0.0343236 0.034738656
000010 f4 54 de bb 69 0b 1d bd 1f b2 d9 bc f3 c2 82 3c
       -0.0067850295 -0.03834096 -0.026574193 0.0159621
000020 43 95 73 3c 73 f2 38 3c 61 40 03 bd 06 f2 10 bd
       0.01486713 0.011288273 -0.03204382 -0.03538706
000030 62 bd 85 3c 4d 90 a4 3c c5 85 c4 3b 0e ad b1 3c
       0.016325656 0.02008834 0.005997392 0.021688964
000040 60 85 0f bc 42 e1 a0 bb bf a4 f8 3c 84 cf ea bb
       -0.008759826 -0.0049096653 0.030351995 -0.007165851
000050 7e 2b 7c bc f6 c8 85 3b 8e 18 54 3c 00 e5 bc 3c
       -0.015391229 0.0040827943 0.012945307 0.023058414
000060 b7 17 06 bd 70 61 c7 bb 92 fc 07 3c d1 e4 ab 3c
       -0.03273746 -0.0060846135 0.008299964 0.020983132
000070 cd 87 41 bc 03 71 c8 bc 41 9a 23 3d bc 71 01 3d
       -0.011812163 -0.02446795 0.03994203 0.031602606

weight f4 [640]
000000 43 59 80 3f a8 f2 7b 3f 48 4c 80 3f 22 7b 7d 3f
       1.002724 0.9841714 1.0023279 0.9901601
000010 e8 fc 7d 3f a9 35 80 3f 9a 4e 80 3f 07 1a 7d 3f
       0.9921403 1.0016376 1.0023987 0.9886784
000020 1a e3 7d 3f f6 00 7f 3f 8e 23 81 3f 09 a9 80 3f
       0.99174654 0.9961084 1.0088975 1.0051585
000030 2e 35 7d 3f ce cf 7e 3f 1f b6 7e 3f 96 23 80 3f
       0.9890927 0.99535835 0.99496645 1.001086
000040 b4 68 7e 3f bf 22 80 3f 51 3b 7f 3f d4 0e 7f 3f
       0.99378514 1.0010604 0.99699885 0.99632
000050 5c d8 80 3f 68 d1 80 3f 1f 3b 80 3f 87 d4 7f 3f
       1.0066028 1.0063906 1.0018042 0.99933666
000060 02 73 7f 3f 4b 62 7f 3f d9 0f 80 3f a7 cf 7f 3f
       0.99784863 0.9975936 1.0004836 0.9992623
000070 da 24 81 3f 19 cb 7d 3f 98 ea 7e 3f b1 81 80 3f
       1.0089371 0.9913803 0.9957671 1.0039579
000080 90 3c 7f 3f d7 42 7d 3f 4a 94 80 3f b9 aa 7e 3f
       0.99701786 0.98930115 1.0045254 0.9947925
000090 4d 88 80 3f fa 1a 7f 3f 8b 9a 80 3f 1b 3a 80 3f
       1.0041596 0.9965054 1.0047163 1.0017732
0000a0 b4 52 80 3f a8 8b 80 3f c0 49 7f 3f 61 20 81 3f
       1.0025239 1.004262 0.9972191 1.0088006
0000b0 01 8a 80 3f 88 d6 7f 3f af fa 7f 3f 64 5b 7f 3f
       1.0042115 0.99936724 0.9999189 0.99748826
0000c0 ae a1 7f 3f 7f 00 7f 3f fe 30 80 3f b6 b2 7f 3f
       0.9985608 0.9961013 1.0014951 0.99882066
0000d0 a3 81 7e 3f ad 5a 7e 3f 33 29 80 3f db b2 7f 3f
       0.9941656 0.9935711 1.0012573 0.99882287
0000e0 93 19 7f 3f 39 22 7f 3f a9 12 7f 3f d3 61 7f 3f
       0.996484 0.99661595 0.9963785 0.9975864
0000f0 54 b4 7f 3f 52 98 7f 3f 15 3b 80 3f f8 b0 7d 3f
       0.99884534 0.998418 1.001803 0.9909816
000100 c0 f7 7e 3f 58 c7 7e 3f 5b 1a 7f 3f 29 2b 7f 3f
       0.99596786 0.99522924 0.9964959 0.9967523
000110 f8 97 7e 3f 93 62 7f 3f be 03 7f 3f ad 16 81 3f
       0.99450636 0.9975979 0.99615085 1.0085045
000120 26 55 7f 3f 22 21 80 3f 3f 75 80 3f 03 68 7e 3f
       0.997393 1.0010111 1.0035781 0.9937746
000130 98 61 80 3f 97 4f 7f 3f 23 a4 7e 3f b7 13 7e 3f
       1.0029783 0.9973082 0.994692 0.9924883
000140 19 5b 80 3f 56 4e 80 3f d8 1e 7f 3f fb 35 80 3f
       1.0027801 1.0023906 0.9965644 1.0016474
000150 47 38 7f 3f a4 82 7f 3f b5 ea 7e 3f 3e 45 80 3f
       0.9969525 0.99808717 0.99576885 1.0021131
000160 19 65 7f 3f 7a 4c 80 3f 24 c4 7d 3f e4 69 81 3f
       0.9976364 1.0023339 0.9912741 1.011044
000170 ca 23 80 3f 17 96 80 3f 4f 66 81 3f f3 ac 81 3f
       1.0010922 1.0045804 1.0109347 1.0130905
000180 f3 90 81 3f 9f 02 80 3f e6 43 80 3f f3 bd 81 3f
       1.012236 1.00008 1.0020721 1.0136093
000190 33 1d 80 3f be 44 80 3f d5 34 80 3f 4b 43 80 3f
       1.0008911 1.0020978 1.0016123 1.0020536
0001a0 29 1c 80 3f 2d f5 7e 3f 77 ae 7d 3f 96 f9 7e 3f
       1.0008594 0.9959286 0.9909434 0.9959959
0001b0 a5 53 7c 3f 78 c7 80 3f c9 51 80 3f ef f1 7e 3f
       0.9856513 1.0060873 1.0024959 0.9958791
0001c0 c7 f4 7d 3f 45 ff 7f 3f 82 da 7d 3f 8c 9c 81 3f
       0.99201626 0.99998885 0.9916154 1.0125899
0001d0 d2 a9 7d 3f 74 ec 7e 3f 48 84 7e 3f 92 5e 81 3f
       0.9908725 0.9957955 0.99420595 1.0106986
0001e0 de c8 80 3f 72 1d 80 3f 1b 80 80 3f a2 30 80 3f
       1.00613 1.0008986 1.0039095 1.0014842
0001f0 ed e4 7e 3f 57 98 80 3f 7d 9c 80 3f a0 7b 81 3f
       0.99568063 1.004649 1.0047756 1.0115852
000200 c9 a8 82 3f 7d da 7d 3f 34 65 7e 3f 9e ac 82 3f
       1.0207759 0.9916151 0.99373174 1.0208929
000210 3a cd 80 3f d2 0b 82 3f 8a 5a 81 3f 08 8e 81 3f
       1.006263 1.0159857 1.0105755 1.012147
000220 7a 3f 81 3f 28 d4 80 3f 3a dd 7d 3f 7b 1a 80 3f
       1.0097497 1.0064745 0.9916569 1.0008081
000230 2a ad 7f 3f 41 61 7f 3f bc 65 80 3f bd 1f 81 3f
       0.998736 0.9975777 1.0031047 1.0087811
000240 74 65 80 3f 8c 0d 80 3f 2f a3 81 3f c6 bc 7f 3f
       1.0030961 1.0004134 1.0127925 0.9989742
000250 e3 68 7e 3f 90 ae 7f 3f 8f 08 82 3f a8 76 7f 3f
       0.99378794 0.99875736 1.0158862 0.9979043
000260 bb ff 7d 3f fd b5 7d 3f c5 b9 82 3f 4d 3e 7f 3f
       0.9921834 0.9910582 1.0212942 0.9970444
000270 84 04 80 3f 27 f2 7d 3f 76 2a 7d 3f 37 63 81 3f
       1.0001378 0.9919762 0.98892915 1.0108403
000280 42 04 80 3f 28 fe 7e 3f 0b e4 7e 3f 79 89 7f 3f
       1.0001299 0.9960656 0.99566716 0.9981914
000290 61 a5 80 3f 58 dd 7d 3f f9 de 7f 3f 05 6a 80 3f
       1.005047 0.9916587 0.99949604 1.0032355
0002a0 74 59 80 3f 12 de 80 3f e9 17 82 3f 00 06 81 3f
       1.0027299 1.006777 1.0163547 1.0079956
0002b0 25 e5 81 3f e4 5b 80 3f e6 d2 7d 3f fb 20 7e 3f
       1.0148054 1.0028043 0.9914993 0.99269074
0002c0 1c 11 80 3f 9a c8 80 3f 6f da 7e 3f 87 79 80 3f
       1.0005221 1.0061219 0.99552053 1.0037087
0002d0 c0 c4 7f 3f 7f 63 7d 3f 29 7e 7f 3f cf a2 7f 3f
       0.9990959 0.98979944 0.9980188 0.998578
0002e0 89 10 7f 3f 32 f1 7c 3f ed 59 7f 3f cf c9 7f 3f
       0.99634606 0.98805535 0.9974659 0.9991731
0002f0 9a 0c 80 3f 23 49 81 3f 02 72 80 3f fb 2f 80 3f
       1.0003846 1.0100445 1.0034792 1.0014642
000300 0a 43 81 3f 93 59 7f 3f 5a 65 7e 3f 08 10 80 3f
       1.0098584 0.99746054 0.993734 1.0004892
000310 4f 5a 80 3f ad 2d 80 3f 4b 39 7f 3f 13 70 7f 3f
       1.002756 1.0013939 0.996968 0.99780387
000320 67 62 7d 3f 49 92 7d 3f 26 0f 80 3f 3c 39 80 3f
       0.98978275 0.9905134 1.0004623 1.0017467
000330 81 d4 7c 3f 41 f8 80 3f dd 3c 7f 3f 3d 50 81 3f
       0.98761755 1.0075761 0.99702245 1.0102612
000340 01 3b 7f 3f d0 59 80 3f 4c aa 80 3f ed d6 7e 3f
       0.9969941 1.0027409 1.005197 0.995467
000350 68 4b 80 3f c8 c2 7f 3f 8a d5 7f 3f 4e a4 7d 3f
       1.0023012 0.9990659 0.9993521 0.99078834
000360 07 2b 80 3f 0d 75 80 3f 9e d4 7f 3f 0e 8e 80 3f
       1.0013131 1.0035721 0.99933803 1.0043352
000370 a4 2f 82 3f 28 43 7f 3f 6d 7a 80 3f 1d e6 7e 3f
       1.0170789 0.9971185 1.0037361 0.99569875
000380 65 34 80 3f 89 52 80 3f 06 d8 7e 3f 29 6c 7f 3f
       1.001599 1.0025188 0.99548376 0.99774414
000390 5c a2 7a 3f 6f df 7e 3f ef 5e 80 3f 41 b0 7f 3f
       0.9790399 0.9955968 1.0028971 0.9987832
0003a0 6b e9 7d 3f 44 60 80 3f 56 15 80 3f 0b db 7e 3f
       0.9918429 1.0029378 1.0006511 0.99552983
0003b0 95 a9 7f 3f a3 3c 7e 3f ca 4e 80 3f 3c ba 7f 3f
       0.99868137 0.99311274 1.0024045 0.99893546
0003c0 69 08 7f 3f 92 58 7f 3f c8 ec 7c 3f a3 7f 80 3f
       0.9962221 0.9974452 0.987988 1.0038952
0003d0 77 26 80 3f cf 10 7c 3f 4d 93 7f 3f 11 a8 7e 3f
       1.0011739 0.9846315 0.9983414 0.994752
0003e0 0a dd 7e 3f 1f 54 80 3f ca cf 7e 3f ff 83 7f 3f
       0.9955603 1.0025672 0.9953581 0.99810785
0003f0 88 69 7f 3f 37 49 7e 3f 5c bb 80 3f a6 a9 7f 3f
       0.997704 0.99330467 1.0057178 0.9986824

bias f4 [640]
000000 da 5a 80 bb ab 3d 04 3c c8 80 02 3b 87 11 06 3c
       -0.0039170804 0.008071343 0.0019913185 0.00818289
000010 33 6f d7 3b 7f 1c 97 3a e3 79 53 bb 64 db 5c 3c
       0.0065745353 0.0011528878 -0.0032268695 0.013480041
000020 52 dc 06 3c f1 87 82 3b 1e 13 01 bc ed 73 71 bb
       0.008231239 0.0039834906 -0.007878093 -0.0036842779
000030 89 32 30 3c c4 26 66 3b a0 ed 47 3b 2d 46 90 bb
       0.010754236 0.003511832 0.0030506626 -0.004402897
000040 80 ca 2f 3b 3e b0 09 39 a6 b7 73 3b 1e 7f 6e 3b
       0.002682358 0.00013130993 0.003718832 0.0036391686
000050 6e 9b 68 bb f7 38 93 3b ea 2f e1 ba b7 93 fa 3a
       -0.0035493034 0.0044928747 -0.0017180417 0.0019117509
000060 16 36 57 3b 82 1a 15 3b 86 37 90 3b 50 e9 0b 3b
       0.0032838634 0.0022751396 0.00440115 0.0021348782
000070 31 8a 08 bc 3b 7f da b9 f6 f2 6e ba 59 74 0c bb
       -0.008333729 -0.00041674994 -0.00091151835 -0.0021431653
000080 b4 16 73 3b 16 dd 0c 3c 57 30 61 bb c1 c4 9a 3b
       0.003709239 0.008597633 -0.0034361088 0.004723162
000090 cf 94 c8 bb bc 7c 1e 3a 29 39 c8 b9 dd eb c7 ba
       -0.006121255 0.00060458085 -0.0003818956 -0.0015252788
0000a0 1a f3 2d 3b 7d 7a 43 ba 28 3d 0d 3b 95 ce 1c bc
       0.0026542605 -0.0007456912 0.0021551345 -0.009570737
0000b0 a1 5f 55 bb c8 c8 a1 3a 63 50 bc 3a 0f e8 88 3b
       -0.003255822 0.0012343163 0.0014367219 0.004178054
0000c0 2c 63 1a 3b fa 3b 80 3b 4e 45 b8 ba a6 48 a8 3a
       0.0023557646 0.0039133998 -0.001405874 0.0012839034
0000d0 cb 3a c0 3b aa f7 cf 3b 5a a4 8e ba f4 43 aa 3a
       0.0058663837 0.0063466625 -0.0010882721 0.0012990222
0000e0 95 c1 68 3b a8 66 60 3b ec e1 6d 3b 1e df 11 3b
       0.0035515775 0.0034240875 0.003629799 0.0022258232
0000f0 67 a6 1b b8 80 af 34 3a a7 c4 b3 ba eb d1 0e 3c
       -3.7109854e-05 0.00068926066 -0.0013715223 0.0087170405
000100 41 4a f9 3b b5 dd 75 3b 4b e3 1f 3b b7 e1 fb 3a
       0.0076077287 0.003751618 0.0024396952 0.0019217049
000110 92 8d b1 3b 26 d5 1e 38 b7 ac 53 3b 29 0c 93 b8
       0.005418488 3.7868645e-05 0.003229899 -7.011771e-05
000120 18 02 0d 3c 1a e7 2c 3c 57 21 ff 3a b0 d6 1a bc
       0.008606456 0.010553146 0.0019464892 -0.0094506
000130 72 d8 10 3b aa cc 7f 38 8e c7 86 b9 ba 03 b9 3b
       0.0022101668 6.0987346e-05 -0.00025707152 0.005646196
000140 f1 0b 3b bb a0 2f 53 bb a5 fd 4f 3b c2 0a d3 b8
       -0.0028541053 -0.0032224432 0.0031736877 -0.00010063268
000150 62 e0 66 3b 7c 28 13 39 bd 22 84 3b 95 01 0c bb
       0.0035228957 0.00014034094 0.0040324614 -0.0021363248
000160 4a a5 dc 3a cc 1e 1d bb 24 9e 02 3c 70 4f b7 bb
       0.0016833928 -0.0023974655 0.007972274 -0.0055941865
000170 1d 6e 88 bb 2e d2 8b bb b3 a4 83 3b ec b8 95 ba
       -0.004163517 -0.0042669987 0.0040174364 -0.0011422909
000180 40 44 00 bc 75 9b b8 3a 9a a1 12 bb 8b 62 39 bc
       -0.007828772 0.0014084416 -0.0022374154 -0.011314998
000190 4e 89 aa 3a a6 dd 17 3b a0 d4 eb 3a e9 fe 7c 3b
       0.0013010891 0.0023172884 0.0017992444 0.0038604087
0001a0 5b 1f e0 3a 0d 1e 45 bb 0c 25 ea bb 18 41 ab bb
       0.0017099188 -0.0030077726 -0.0071455296 -0.0052262656
0001b0 82 23 5e bc 82 0d 28 3b c6 66 02 3b 17 96 27 3b
       -0.01355827 0.0025642817 0.0019897684 0.0025571638
0001c0 e2 41 36 bc 87 a0 35 3b f1 33 35 3b 63 5a bd ba
       -0.011124106 0.002771409 0.0027649368 -0.0014446493
0001d0 23 64 25 3c a7 2b 6a 3b d4 36 0b 3c 91 8b aa 39
       0.010094675 0.0035731585 0.008496959 0.00032528912
0001e0 c2 9d a6 3a d6 c4 2e bb 04 cd ed ba 88 f3 28 bb
       0.001271181 -0.0026667616 -0.0018142764 -0.0025779922
0001f0 c2 8e 40 3b ea 19 e2 ba da f0 16 bb 35 93 5a bb
       0.0029381965 -0.0017250155 -0.0023031742 -0.0033351902
000200 60 86 33 bc d1 7e fe 3b ac b7 3f bc c6 ec 9e 3b
       -0.01095733 0.0077665825 -0.011701506 0.004850003
000210 d8 f8 08 bb 5a 40 2e 3c bd c7 5f bb c5 b6 ef 3b
       -0.0020900276 0.01063546 -0.0034146153 0.007315489
000220 9d 15 a1 ba b5 88 ea bb 18 8c 90 bb 8d 5a 23 39
       -0.0012289766 -0.00715741 -0.0044112317 0.00015578624
000230 18 6f c0 3a fc ab 1b 3b 59 dd 4e bb 5a ca 0e bc
       0.0014681546 0.0023753634 -0.003156504 -0.008715237
000240 a9 18 51 bb 13 49 1a ba 68 73 52 bc 9e 6e 9d 3a
       -0.0031905568 -0.00058855227 -0.012844898 0.0012011116
000250 8a 3c c2 3b 76 c0 ae 3a ca a9 e2 b9 58 2e 03 bc
       0.005927627 0.0013332504 -0.00043232582 -0.008006655
000260 bc 87 13 bc 98 99 52 bc 93 76 5c 3a bd c6 8a b9
       -0.00900453 -0.012854002 0.0008410003 -0.00026469483
000270 a4 4c 03 bb 48 13 4d bc f2 7d c6 bb 21 60 07 bc
       -0.0020034695 -0.012516804 -0.0060574943 -0.008262665
000280 9b cb 6c bb 65 96 1a 3b 32 83 46 3a 73 bf b2 39
       -0.00361321 0.0023588177 0.000757265 0.00034093446
000290 cb 05 0f bc 99 a8 f6 3b 54 b8 53 bb 7e e4 11 ba
       -0.0087294085 0.0075274226 -0.0032305913 -0.0005565359
0002a0 bc c0 80 ba 03 a3 df bb ad df a7 bb e8 6a eb bb
       -0.0009823064 -0.0068248524 -0.0051231 -0.007184375
0002b0 d7 92 e2 bb 24 d4 10 bb ac 98 b9 3b 0e 6d d6 3b
       -0.0069144773 -0.0022099102 0.005663952 0.006543762
0002c0 6c 78 10 3a 5e a2 e0 bb af 9c 8a 3a 55 fb 50 bb
       0.00055111083 -0.006855293 0.001057526 -0.0031888087
0002d0 43 73 7e 3a 71 ca 26 3c 8b 04 04 3b 73 b0 ca 3a
       0.00097065064 0.010180102 0.002014431 0.0015463963
0002e0 51 9e 6d 3b c9 18 40 3c 1c f0 26 3b 2c 5e 63 3a
       0.0036257694 0.011724659 0.0025472706 0.00086733955
0002f0 a7 b8 cd b9 fa 57 a7 bb cf 51 72 bb 57 f5 0f bb
       -0.00039238224 -0.005106923 -0.0036975031 -0.0021966302
000300 4c 22 22 bc 2e e3 46 3b 58 83 5e 3b c7 2e 27 3b
       -0.009895872 0.0030347812 0.0033952799 0.002551006
000310 c9 81 5d bb 81 83 fd ba e7 92 5b 3b bd cf 2a 3b
       -0.0033799282 -0.0019341559 0.0033504309 0.0026063763
000320 00 ed 88 ba bc c6 0e 3c 54 84 9f 3a d4 6c 3f 3a
       -0.0010446608 0.008714374 0.0012170174 0.00073022884
000330 ba 39 ed 3b 25 8d 10 bb 2c 82 12 3a d7 e9 3a 3c
       0.0072395476 -0.0022056785 0.0005588855 0.011408291
000340 98 73 43 3b f4 e3 e6 ba 96 63 e9 3a fc f7 17 3b
       0.0029823538 -0.0017615543 0.0017806168 0.0023188582
000350 2d 0d d0 bb 5e 22 23 3b 18 06 2b 3c 9c e5 f8 3b
       -0.006349227 0.002489231 0.010438465 0.007595731
000360 0a be bc ba f3 46 ed ba be 2e ab 3b 63 f9 28 bb
       -0.0014399898 -0.001810281 0.005224078 -0.0025783412
000370 d4 19 ac bb 95 50 ea 3a db 1e 93 bb 93 ee 0b 3b
       -0.0052521024 0.0017876799 -0.0044897622 0.0021351918
000380 70 f5 a3 bb da 2b cc ba 13 53 07 3b 68 ef e7 3a
       -0.0050036237 -0.0015577034 0.0020648881 0.001769525
000390 c0 52 11 3c d6 6c b0 3b 40 bb 1a bb 04 a2 2b 3a
       0.008869827 0.005384068 -0.0023610145 0.00065472745
0003a0 90 c7 1f 3c 15 c6 37 bb 88 f3 43 ba 6d b7 8b 3b
       0.009752169 -0.002804165 -0.00074749487 0.0042638094
0003b0 be 94 bb 3a 02 9a e6 3b ee b3 12 bb 35 c6 95 3a
       0.0014311296 0.007037402 -0.0022385078 0.0011426868
0003c0 98 33 6a 3b 20 4a 1c 3b 9f 01 12 3c f3 1c 89 ba
       0.0035736319 0.0023847893 0.008911519 -0.0010460898
0003d0 56 bc 3e 3a ad 15 2b 3c f0 7b 0f 3b 0a 9d f6 3b
       0.0007275989 0.01044218 0.002189394 0.0075260447
0003e0 1f 97 00 bb d4 57 9c 3a 33 f6 1e 3b 01 da 34 3b
       -0.0019621325 0.001192803 0.0024255633 0.002759576
0003f0 16 19 b8 3b 24 aa 91 b9 08 45 5c bb a7 69 11 bb
       0.005618225 -0.0002778332 -0.0033610482 -0.0022188218

weight_ih_l0 f4 [512, 32]
000000 37 bf 8f bd f4 7b 9b 3d 26 01 97 bd 48 06 81 3c
       -0.07018893 0.075920016 -0.07373266 0.015750065
000010 b3 fb 91 3d e5 16 1f bd da d4 e0 3c 6b 16 0d 3d
       0.07128086 -0.038840193 0.027445246 0.034445208
000020 30 ce 27 3d 66 21 50 b9 da fc 81 3d 86 dd 9c bd
       0.04096812 -0.00019848868 0.06347056 -0.0765944
000030 6e 86 8e 3d dc 26 a0 bd b3 ff 84 bd 33 67 89 bd
       0.06959234 -0.07819912 -0.06494083 -0.06709137
000040 54 13 5d 3d ba 53 94 bd 35 8e 38 bd c1 c0 44 3c
       0.05397351 -0.07242532 -0.045057494 0.012008847
000050 e5 ff a9 bd ce 2b 21 39 dc 38 43 3d 26 c4 85 3d
       -0.08300761 0.00015370475 0.047661647 0.06531553
000060 85 9e d9 3c e4 86 bd 3d b5 0e 4f 3d 39 4a a6 bd
       0.026564846 0.09254244 0.050551135 -0.081196256
000070 cc 98 2b 3d 5a a2 72 bd e8 c8 9c bd f8 79 35 3d
       0.041893765 -0.05923686 -0.07655507 0.04430577
000080 79 02 cf ba 18 e1 de bc e0 df 64 3c 84 bc b1 3d
       -0.0015793584 -0.027206942 0.013969392 0.086785346
000090 3e 21 8d bc ba d6 ee bc 89 6e ac bd 46 27 50 bd
       -0.017227765 -0.029155124 -0.084195204 -0.050818704
0000a0 0f 4c 58 bb b5 c3 eb 3c 38 4a 33 3d 60 55 a8 bc
       -0.0033004319 0.028779844 0.043771952 -0.020548522
0000b0 44 4c 42 3c ba 38 96 bd 27 87 a2 bd 6b 3d 18 bd
       0.011859003 -0.073350385 -0.079359345 -0.037167948
0000c0 0f 63 5b 3d d4 70 b0 3c 6c 99 a3 bd 53 a2 9e 3d
       0.053561267 0.021538176 -0.07988247 0.07745805
0000d0 62 2f 25 3d 01 5b c6 bd 69 54 02 bc 6e 4a 98 3d
       0.04032839 -0.09685326 -0.007954695 0.07436071
0000e0 6d 72 58 3d ed db 81 3d d6 b9 94 bd 05 3b 18 bd
       0.0528435 0.06340776 -0.07262008 -0.03716566
0000f0 ad b7 96 bd aa fd 0f bd fb 04 d3 3c f3 a8 56 3d
       -0.07359252 -0.035154022 0.02575921 0.052407216
000100 cf 12 49 bd c2 aa 56 3d 99 0b 7b bd 3b 69 2d bd
       -0.049090203 0.05240894 -0.061290357 -0.042336684
000110 dc 95 31 bd bd b3 ce 3c 19 0b 32 3d b8 b9 89 bd
       -0.043355808 0.02523219 0.043467615 -0.06724876
000120 31 90 15 3d 55 da a6 3c f0 7d 85 bb 7d 2f b1 3b
       0.036514465 0.02036778 -0.004073851 0.0054072724
000130 41 6a 5b bd 37 fe 68 3d 2a 30 0c bc bd 87 82 3d
       -0.05356813 0.056883063 -0.008556405 0.06373546
000140 dd 64 04 bc 2b c6 30 bd 1d 30 d6 bc 1c f6 b7 3a
       -0.008080688 -0.043157738 -0.02614599 0.0014035138
000150 83 b8 94 bd 70 b2 86 bd f7 ab a4 bd df 4a a4 3d
       -0.07261755 -0.06577003 -0.08040612 0.08022093
000160 c1 d0 f3 bc 61 7d 8d 3d 10 98 87 bd e1 7f 01 bd
       -0.029762628 0.0690868 -0.066208005 -0.031616095
000170 e9 fc 8e bd 01 a1 da bc 98 85 74 bc f4 09 53 3d
       -0.069818325 -0.0266881 -0.014924429 0.051523164
000180 d9 de a3 3d 07 dd d0 3c 9d e5 22 3d ee 72 92 bb
       0.08001489 0.025496019 0.039769758 -0.004469267
000190 3c 63 d2 bc 25 10 20 3d ad 68 85 3d 1b e5 a0 bd
       -0.025682084 0.039077897 0.06514106 -0.078561984
0001a0 74 fd 7e 3d 23 22 9d 3d 01 67 7b bd 42 a6 a3 bd
       0.06225343 0.07672527 -0.06137753 -0.079906955
0001b0 99 cc 7d bd dd 94 8a bd b8 8e 07 bb 91 1f b7 3d
       -0.061962698 -0.06766675 -0.0020684432 0.08941568
0001c0 a6 98 b1 bc 9b e5 04 bd 5a 16 bc ba 59 ed 89 3d
       -0.021679234 -0.03244553 -0.0014349923 0.067347236
0001d0 4f 7a 9c 3d 84 79 86 3d 2a f2 fb 3c ff bd 74 3d
       0.07640516 0.06566146 0.030755121 0.059751507
0001e0 b6 d3 c3 3c 29 92 9d 3d 67 ae 6b 3d 66 25 58 3b
       0.023904663 0.076938935 0.05753937 0.0032981276
0001f0 ac 72 8a 3d b6 48 aa bc 7b 10 19 bd 80 fa 70 3d
       0.06760153 -0.020786624 -0.037369233 0.058832645
000200 1f dc 1c bd d9 9c 87 bd 5b 01 64 3d b1 db 27 bd
       -0.03829586 -0.06621713 0.055665355 -0.040981
000210 9f 38 a1 3d 8a 6d 4c 3b 4e 2f c0 bc c2 ba 34 3d
       0.07872128 0.003119322 -0.023460057 0.04412342
000220 ce cc 8b 3d 76 91 b0 bd f0 32 89 3b f3 e0 7a bd
       0.06826173 -0.086214945 0.0041869804 -0.061249685
000230 f1 f8 30 3d dc 83 e9 3c d0 3d 11 3b 96 c3 a4 3d
       0.04320616 0.028505258 0.0022162087 0.080451176
000240 72 18 80 bc 32 14 99 bc 57 eb 91 3d 36 83 08 bd
       -0.015636656 -0.018686388 0.07124966 -0.033328258
000250 1b ea 56 3c 41 87 3a 3d dd 89 d2 bc 98 35 3a bc
       0.0131173385 0.045539144 -0.025700504 -0.011365317
000260 fd 65 40 bd d1 0f 9f bd 3a 6d bb 3b 58 90 c6 3c
       -0.046972264 -0.077666886 0.005719808 0.02423875
000270 0d fb 22 bd ac e4 c6 bb 6d ea a6 bd 15 cc 4e bd
       -0.039790202 -0.0060697403 -0.08150182 -0.050487597
000280 bf 8c 3e 3c de 7a d7 3c e0 48 b0 3d 57 d6 32 3d
       0.011630236 0.026303705 0.0860765 0.04366144
000290 64 5b a8 bd d6 0e 1b bb 09 89 7a 3c 84 6a 12 bd
       -0.082205564 -0.0023659966 0.015291461 -0.035746112
0002a0 d9 cd 8c bd 88 65 ac bd 0e 5b 5b bd 43 7d 4e 3d
       -0.068752 -0.08417803 -0.053553633 0.050412428
0002b0 0f 22 4d bd 2a 73 b2 bc 23 d5 84 3d f6 f1 63 3d
       -0.05008131 -0.02178343 0.06485965 0.055650674
0002c0 c8 95 72 3d bd b0 75 3d 1c 36 4c bc ba 04 7d bd
       0.059224874 0.059983004 -0.012464073 -0.061772086
0002d0 4e f5 d5 3c fc 5d 0e 3d dc 0c e8 3c 45 94 42 bc
       0.026117947 0.0347576 0.028326444 -0.0118761705
0002e0 8e c1 22 3b 7b fe ae 3c 17 a4 1d bb cc 95 05 bb
       0.0024834606 0.02136158 -0.0024054104 -0.0020383475
0002f0 1e d7 a4 3d 54 19 a4 bd da 60 a4 bc 23 9e 6c bd
       0.08048843 -0.080126435 -0.020065714 -0.057768
000300 0a 91 57 bd 2f d2 e3 3b ee 54 a1 bd c4 a3 87 b9
       -0.052628554 0.006952546 -0.07877527 -0.0002587122
000310 ec 12 cf 3c 2f e8 16 3d 98 1d b0 bd 96 d9 8e 3d
       0.025277577 0.03684252 -0.085993946 0.06975095
000320 91 17 9a bd 49 3d a1 bb e0 ce 84 3d b4 d7 f8 bc
       -0.07524026 -0.004920636 0.06484771 -0.030376293
000330 05 9b 7a bc 49 11 a2 3d 71 f4 c7 bd e8 51 87 bc
       -0.015295749 0.07913453 -0.097634204 -0.016518548
000340 40 ad 44 bd 0c a8 33 bd cd f9 46 3d 10 84 0e bd
       -0.048016787 -0.043861434 0.048578072 -0.034793913
000350 e1 09 ef bc 50 b0 82 3d d7 c7 99 3d a9 28 24 3d
       -0.029179515 0.06381285 0.075088196 0.04007784
000360 21 3f 89 bd 45 78 9a bc 66 95 2c 3c 4d 10 9d bd
       -0.06701494 -0.018856177 0.010533666 -0.07669125
000370 6f f1 ba 3d 0a b0 5f 3d aa fd a1 3d 61 aa c7 3c
       0.09128081 0.054611243 0.07909711 0.024373235
000380 76 a6 8d 3c 8c 0f 9b bc 9a bc 81 bd b1 23 19 3c
       0.017291289 -0.018928312 -0.06334801 0.009346888
000390 f1 c4 6c 3d ed 4c 80 3d ab aa b7 bc 59 79 c5 3d
       0.057805005 0.062646724 -0.022420248 0.09642286
0003a0 df ff 5f 3d 98 65 5c 3c c1 b0 b3 bc 1a dc 85 bd
       0.054687377 0.013451956 -0.021934869 -0.06536122
0003b0 c1 68 48 bd aa 7f 89 bc 8d aa c3 bd 9a 27 8b 3d
       -0.048928026 -0.016784508 -0.09554014 0.06794663
0003c0 21 68 4c 3d 10 9a 3d 3d 84 95 e2 bb d8 c2 97 bd
       0.049903993 0.046289504 -0.0069147963 -0.0741021
0003d0 ef cf fd ba 15 09 cb bc f7 a0 12 bd b2 b8 64 3d
       -0.0019364337 -0.024784604 -0.03579804 0.0558402
0003e0 fe e4 e7 3b 41 64 2d 3d 64 9b 86 3a b6 e6 3c 3c
       0.0070768585 0.042331938 0.0010269699 0.011529615
0003f0 11 0a 29 3d 5c 65 58 3d 1a d8 e9 39 c2 1b 05 3d
       0.041269366 0.05283104 0.0004460223 0.032497175

weight_hh_l0 f4 [512, 128]
000000 a5 7d 75 3d a6 1a 9e bd 68 34 76 3d 88 a6 90 bd
       0.059934277 -0.077199265 0.060108572 -0.07063013
000010 c1 bb 72 bc 0a 02 f5 3c 0e 0c ee 3c db e8 a8 3c
       -0.014815272 0.029908199 0.029058482 0.020618847
000020 c5 04 86 3c 69 c1 7a bc a6 15 94 3d 71 b0 c8 3d
       0.016359696 -0.015304902 0.072306916 0.097992785
000030 80 de 08 3d ab 1b 07 bd b8 2e 87 3d 06 f7 1a 3d
       0.033415318 -0.03298537 0.06600708 0.037833236
000040 43 4a 82 bb 5a 84 f0 3c 36 02 0c 3d cb 18 30 bd
       -0.003976138 0.029359985 0.034181796 -0.042992394
000050 24 67 b0 bd c2 92 b1 bc 0c af cc bc f6 ac 98 bc
       -0.086134225 -0.021676425 -0.024985813 -0.018637162
000060 16 f8 98 bd 8a 51 9a 3d 85 12 48 3d da 96 bf bc
       -0.07469194 0.075350836 0.048845787 -0.023387361
000070 e7 5d a7 3d 0b 65 4e bd cb 56 5a 3d ec 7e 93 bb
       0.08172207 -0.05038933 0.05330543 -0.0045012143
000080 b5 aa 4c bd 1f d4 00 3d d6 80 89 bd 94 81 84 3c
       -0.049967486 0.031452294 -0.06714027 0.016175069
000090 e8 e2 c3 3d 81 d3 38 3d 2e d4 5a bd e8 53 ae bc
       0.09564763 0.04512358 -0.053425007 -0.021280244
0000a0 5d 32 67 3d 63 97 b6 3d 27 0b 8a bd a3 67 93 bc
       0.056444515 0.089155935 -0.067404084 -0.017993754
0000b0 88 43 74 bc 96 a2 29 bc 7b 63 52 bc 68 2b 11 bb
       -0.014908679 -0.010353705 -0.012841101 -0.0022151116
0000c0 cc e8 a6 bd 19 e4 6a 3d 14 62 90 bd f8 ef 88 bc
       -0.08149871 0.057346437 -0.07049957 -0.016715989
0000d0 c9 14 b7 3c 5a 83 27 bd 26 8b 65 bd 69 25 21 bd
       0.022348778 -0.04089675 -0.056040905 -0.039342318
0000e0 24 4d 15 3d ad 86 5e bd f7 5f f5 bc dd bc 4a bc
       0.03645052 -0.054327656 -0.029952986 -0.01237413
0000f0 db 63 3d 3d d2 e8 a8 bd 36 9b 9a bd 67 ee 41 3d
       0.046237808 -0.08247532 -0.075491354 0.0473465
000100 f4 bc 8c bc 77 3d a1 3d 7b 8a 2b bd e5 55 82 bd
       -0.017179944 0.078730516 -0.041880112 -0.06364039
000110 13 48 59 bb 9d df 42 3d f3 cf ef bc c5 ce 62 3d
       -0.0033154532 0.047576535 -0.029273963 0.055372972
000120 e7 25 94 bb b1 a3 b8 bd 9f 48 a4 bd 6c 7b 45 3d
       -0.00452112 -0.09015597 -0.08021664 0.048213407
000130 d6 03 9f 3c f0 63 0c 3a 6f 59 bb 3d 9e ce 97 3d
       0.019411009 0.0005355468 0.091479175 0.07412456
000140 34 f4 7f 3c db f2 e9 3c 91 ec ad bd 36 7c d6 3c
       0.015622187 0.028558185 -0.08492387 0.026182275
000150 aa 81 a8 3d 3b 27 8b 3d 2a 0a d6 bc e3 de 95 ba
       0.082278565 0.06794592 -0.026127893 -0.0011434223
000160 59 74 8c bc b3 2d 3d 3d 50 0a e6 3b b9 40 18 bb
       -0.017145323 0.04618616 0.0070202723 -0.0023231937
000170 74 33 99 bb 89 05 fb ba 5b e3 f6 bb db 87 80 3d
       -0.004675323 -0.001915143 -0.007534427 0.062759124
000180 68 54 84 bd 50 10 d2 bb 4b 33 91 3c 68 b8 8c bd
       -0.06461412 -0.006410636 0.017724654 -0.0687111
000190 6e ed 2a 3d 37 eb 06 bd 0d 09 ee bc 97 ab 8e bd
       0.041730337 -0.032939162 -0.02905705 -0.06966322
0001a0 3d bb 01 3d c1 18 67 3b f8 33 83 bc 58 18 a3 3d
       0.031672705 0.0035262557 -0.016015992 0.079636276
0001b0 30 8a da 3b fd 22 be 3d 6b 64 b6 bd 1c ab 97 3b
       0.0066693053 0.09284017 -0.08905872 0.004628552
0001c0 f6 1a 5e 3d a9 9e 29 bd 3c 2e a0 3d de 57 38 3d
       0.05422493 -0.041411076 0.078213185 0.04500567
0001d0 a5 da fd 3b 17 45 13 bd 50 9b 44 bd 48 6e 9c 3d
       0.0077470117 -0.03595456 -0.04799968 0.07638222
0001e0 b6 51 33 3d 64 8a 1b 3b 7a 6f 81 bd c5 a9 0c bd
       0.043779097 0.002373361 -0.063200906 -0.034341592
0001f0 c7 5b 24 3d b0 26 8e bd 36 96 1e 3d 8b 98 7e bc
       0.04012659 -0.06940973 0.03871747 -0.015539299
000200 48 7c 8a 3b b5 d5 60 bd 8c 05 90 3b 1c d8 6c 3d
       0.0042262413 -0.054891307 0.0043951925 0.057823285
000210 a2 f7 d7 3c 50 0c 80 bd de cf 17 bd 59 63 0d bc
       0.026363198 -0.062523484 -0.037063472 -0.008629643
000220 bf 47 19 bd a7 0c 5b bd 0c 6e 0c 3d 91 a0 0a bd
       -0.037421938 -0.053478863 0.034284636 -0.033844534
000230 8b 26 29 3d 8e 49 25 bd 2b 9b 76 3d e5 8d 59 bd
       0.041296523 -0.04035335 0.060206573 -0.053113837
000240 54 bd c8 3c 67 da 6c 3d eb b5 af 3c 2a a9 02 bd
       0.024504341 0.057825472 0.02144905 -0.03189961
000250 7a ad 4c 3d d4 91 1e 3c 78 a6 ac bd c3 db b7 3d
       0.049970128 0.009678323 -0.08430189 0.08977463
000260 c0 fb b4 3d 8d be 53 bd 92 74 58 3d 31 37 c9 3d
       0.0883708 -0.051695395 0.052845545 0.0982498
000270 3b 40 d8 bc bc 3c 4e 3d 5b 44 99 3d e0 1b 9c bd
       -0.026397815 0.05035089 0.07483741 -0.07622504
000280 ff 21 85 bd af e4 28 3d 4e 8b 07 3d 69 1d 67 3d
       -0.06500625 0.041233715 0.033091836 0.056424532
000290 ec 21 80 bc 33 21 89 3c 86 91 5b bc 7b 52 35 bc
       -0.015641175 0.016739463 -0.013401395 -0.011067028
0002a0 ae 7e 4d bc 66 3a 1e bd fa e0 8e bd 65 0e f9 bc
       -0.01254241 -0.03862991 -0.069765046 -0.030402372
0002b0 04 71 3f 3d d8 15 65 bc b0 60 e2 3c e7 56 9b bc
       0.04673864 -0.013982259 0.027633995 -0.018962337
0002c0 48 a3 ce bc c1 f0 6d 3d ba da 5d bd 49 26 c0 bc
       -0.025224343 0.05809093 -0.054163672 -0.023455756
0002d0 6f e2 97 3c 22 f3 a4 bd 44 db a5 bb d5 f5 ae 3d
       0.01854059 -0.080541864 -0.005061539 0.085429825
0002e0 6a 89 da 3c 9b f9 25 3d 46 95 60 3d 3a fc 1d 3d
       0.026676852 0.040521245 0.05482986 0.03857062
0002f0 46 30 8c 3d a2 f0 f0 ba 89 3f 8b 3c 8f 90 84 3d
       0.06845145 -0.0018382261 0.01699807 0.06472885
000300 bb 97 74 bd b1 6d 97 bd 75 e7 06 3d d3 59 57 bd
       -0.059715014 -0.07393969 0.03293558 -0.052575897
000310 63 77 62 bd 57 59 5c bc ae ed ea 3c 9d 0f 4a bd
       -0.055289637 -0.013449035 0.028677788 -0.049331296
000320 8a db 43 3d 71 df 66 3d 2c c8 b7 bc 52 9f 8c bc
       0.04781679 0.056365434 -0.022434317 -0.017165814
000330 6a 16 90 bc cf e5 95 3d 09 74 d7 bc 8f 22 8b bd
       -0.017588813 0.07319223 -0.026300447 -0.06793701
000340 7a c6 56 3d ac 4f 37 bd ee 52 25 bd 0c 72 a6 bb
       0.052435376 -0.044753715 -0.04036229 -0.0050795134
000350 c0 90 27 3d 16 ff 93 bd fb 66 f5 3b 6e e0 17 bd
       0.04090953 -0.07226388 0.007489083 -0.037079267
000360 bd 5e 3e bc 62 51 80 bd a3 71 53 bc 7b ee 13 bd
       -0.011619267 -0.062655225 -0.012905511 -0.036116105
000370 84 fd 3c 3d 70 69 71 3c 39 52 00 bc dc a1 71 bc
       0.04614021 0.014734611 -0.007832103 -0.014748063
000380 b2 08 c8 3d e7 b3 9b bd 03 88 aa 3d 33 5b 5f bd
       0.097672835 -0.07602673 0.083267234 -0.054530334
000390 e9 42 01 bd 16 39 39 3d b0 9a c9 3d f6 7d 71 bd
       -0.03155795 0.045220457 0.098439574 -0.058958016
0003a0 67 f7 a9 3d 0e 48 01 bd 81 5c c7 bc 1e 93 36 3d
       0.082991414 -0.031562857 -0.024336101 0.044573896
0003b0 59 c4 c3 3d 70 20 a6 3d 8f 03 ad bd 6c 61 9e 3d
       0.09558935 0.08111656 -0.084479444 0.077334255
0003c0 ad e1 33 bd 8a 93 98 bd f1 16 7b 3c c6 0a 12 bd
       -0.043916393 -0.07450016 0.015325294 -0.035654806
0003d0 a8 66 26 3d bd 41 90 3d c8 a8 96 3d ce 2a 81 bd
       0.040625244 0.070437886 0.07356411 -0.063069925
0003e0 2c 3b a8 bd cd 9f 62 bd 49 f8 d4 3c 11 5b 34 3d
       -0.08214411 -0.05532818 0.025997298 0.04403216
0003f0 f3 e4 85 3d de f7 ac 3d 21 28 7b bd dd f1 06 3d
       0.06537809 0.084457144 -0.061317567 0.032945503
