Single Battery Model/5. CNN-LSTM Models/model_B0005_discharge_mm.pth (torch, 432698 bytes, 15 tensors)

weight f4 [64, 3, 3]
-0.21275485 -0.17346388 0.23123191 -0.22620323 -0.07058047 -0.23565578 -0.2053288 -0.13430843
0.06887085 0.3192326 0.011814784 -0.05017755 -0.06875466 0.31496057 -0.09527483 0.22904065
-0.15713805 -0.080263406 -0.052923765 -0.22607657 0.025128769 -0.30688885 -0.1526071 0.22517113
0.29992178 -0.30565906 -0.017879661 -0.21446075 -0.3259182 0.17163447 0.10650228 -0.036242835
0.13450544 -0.3063959 0.06756602 -0.20213383 0.24540311 -0.12447966 0.08167275 0.28639492
-0.18445241 -0.15945047 0.29688504 -0.13461679 -0.014602438 -0.07196871 0.17811207 -0.25654003
-0.21589687 0.1236919 0.03849655 0.036908384 -0.08630977 0.24581386 -0.17219533 -0.20879199
-0.27728075 -0.16969489 0.10081365 0.074656926 -0.1363369 0.0067009935 -0.0929187 0.16522874
-0.28137255 0.18852426 -0.0821329 -0.23975171 0.01251075 0.32167906 -0.11633866 -0.21566997
-0.103478596 -0.30071735 0.20332658 0.17518908 0.25692776 0.0742365 -0.012042211 0.29542136
0.13687684 -0.29330084 0.24299379 -0.17207879 0.16551997 0.278754 0.16787374 -0.089817375
0.13583778 0.19468091 0.31276193 0.07820201 0.15743917 0.10737943 -0.112002574 0.032985292
0.1851946 0.21338274 -0.23851831 -0.248755 0.19475451 -0.120039724 0.28383797 0.038540587
0.3218143 -0.2857834 -0.2270415 -0.08462794 -0.18419345 -0.15335521 0.29777756 -0.075100616
-0.12601219 0.26559865 0.15794788 -0.20005794 0.14577968 -0.093733124 -0.13333964 0.16543384
0.018002361 0.23513635 0.14032197 -0.27761662 -0.18149522 0.065141305 0.16080843 -0.20287664
0.029536864 -0.2275145 0.1452274 0.31792066 0.057181608 -0.033747103 0.1773388 0.31463423
-0.2864363 0.26404777 -0.25434965 0.106182076 0.28844756 0.15415642 0.0027648772 -0.21508905
0.0831962 0.26859692 -0.30268154 -0.27817008 0.34705043 -0.27244177 -0.19889334 -0.10114089
-0.05141638 0.29219028 -0.32311738 0.21792983 0.19844367 -0.04493772 0.1700487 -0.3172371
0.23649468 -0.32272372 0.27961823 0.09095637 -0.17065012 -0.106565446 -0.24507484 0.060590982
-0.045466296 -0.24179147 0.08277465 -0.029055027 0.09923944 -0.03959669 -0.34661758 0.2980424
0.07725343 -0.28400633 -0.2571638 0.09017655 0.2972598 -0.07912569 -0.04390004 -0.2742317
0.25973728 0.17236601 0.33947012 0.15912707 -0.055412598 0.14511128 0.2860473 -0.1623722
0.31461626 0.22340573 -0.11378615 0.04155929 0.16214961 0.09317291 0.33709764 0.041712437
-0.11804769 0.24367468 0.24527408 0.075966544 0.3150055 -0.118146084 0.19843897 -0.30209407
-0.28291723 -0.33482465 0.29490405 0.28592935 0.23321643 0.20562989 -0.123708874 0.24347255
-0.1125909 -0.102542326 -0.11951545 -0.22280103 0.21652341 0.22866467 0.07750843 -0.013812495
0.28518075 -0.21861714 -0.10937882 0.11660827 0.06378275 0.045728553 0.015938412 -0.07727915
-0.2521171 0.08878078 0.2373547 -0.25129822 -0.1870185 -0.019281015 0.1706527 0.3180867
-0.19422126 0.120392956 0.14387211 0.20793411 -0.054226212 0.22513981 0.14677335 0.094076864
0.2286122 -0.3107266 0.18506928 0.058127835 0.0041689877 -0.1320596 0.3132045 0.21996139
00000000: 68dc 59be 84a0 31be 0fc8 6c3e d2a1 67be
00000010: 7e8c 90bd c04f 71be b741 52be 2688 09be
00000020: 290c 8d3d 7572 a33e cc92 413c fa86 4dbd
00000030: 3ecf 8cbd 8342 a13e 731f c3bd a289 6a3e
00000040: cce8 20be 2461 a4bd 97c6 58bd 9e80 67be
00000050: d9da cd3c 8920 9dbe 0945 1cbe 4393 663e
00000060: 598f 993e 587f 9cbe 5e78 92bc 999b 5bbe
00000070: c0de a6be f2c0 2f3e de1d da3d 5e73 14bd
00000080: cbbb 093e ecdf 9cbe 0e60 8a3d 2cfc 4ebe
00000090: f44a 7b3e 31ef febd 0b44 a73d 5ba2 923e
000000a0: 18e1 3cbe fc46 23be 5101 983e fcd8 09be
000000b0: 103f 6fbc 5564 93bd 0363 363e 3759 83be
000000c0: 1214 5dbe 2e52 fd3d 8fae 1d3d 3f2d 173d
000000d0: 2dc3 b0bd a1b6 7b3e f953 30be 91cd 55be
000000e0: bef7 8dbe 7fc4 2dbe 6377 ce3d bbe5 983d
000000f0: e69b 0bbe 0294 db3b 294c bebd b931 293e
00000100: 1010 90be 810c 413e 4b35 a8bd 7981 75be
00000110: e4f9 4c3c 1eb3 a43e f742 eebd 97d8 5cbe
00000120: 96ec d3bd a0f7 99be d834 503e c464 333e
00000130: 098c 833e 4e09 983d b24c 45bc 7841 973e
00000140: 7129 0c3e 872b 96be 5dd3 783e 6c35 30be
00000150: 117e 293e d8b8 8e3e 18e7 2b3e 2cf2 b7bd
00000160: 0f19 0b3e 6f5a 473e 5522 a03e 6028 a03d
00000170: bc37 213e bfe9 db3d 9b61 e5bd 961b 073d
00000180: a7a3 3d3e 0181 5a3e 253e 74be a1b9 7ebe
00000190: ba6d 473e 63d7 f5bd 3653 913e bcdc 1d3d
000001a0: d8c4 a43e 3452 92be 917d 68be 6a51 adbd
000001b0: 359d 3cbe 2609 1dbe 4d76 983e 5ace 99bd
000001c0: 5709 01be 8cfc 873e 17bd 213e fddb 4cbe
000001d0: 4547 153e 27f7 bfbd 308a 08be 7d67 293e
000001e0: b079 933c 95c7 703e 90b0 0f3e c423 8ebe
000001f0: e2d9 39be ce68 853d f7aa 243e e5be 4fbe
00000200: 4bf7 f13c 90f9 68be 7eb6 143e 7fc6 a23e
00000210: 4337 6a3d 673a 0abd 4d98 353e bd17 a13e
00000220: c7a7 92be 4531 873e 1e3a 82be fd75 d93d
00000230: 66af 933e 2edb 1d3e f132 353b 4e40 5cbe
00000240: c562 aa3d 8985 893e 13f9 9abe 4f6c 8ebe
00000250: 98b0 b13e 7d7d 8bbe b2aa 4bbe f422 cfbd
00000260: fb99 52bd f799 953e a46f a5be ff28 5f3e
00000270: d134 4b3e 9d10 38bd 3f21 2e3e e76c a2be
00000280: a92b 723e 0b3c a5be 1f2a 8f3e 5547 ba3d
00000290: e8be 2ebe fc3e dabd e6f4 7abe 402e 783d
000002a0: de3a 3abd 2f98 77be c185 a93d cf04 eebc
000002b0: 0c3e cb3d 2430 22bd dc77 b1be 0399 983e
000002c0: 0c37 9e3d 4769 91be f9aa 83be 7cae b83d
000002d0: 7032 983e a60c a2bd 87d0 33bd 1968 8cbe
000002e0: 49fc 843e b780 303e 07cf ad3e 35f2 223e
000002f0: 52f8 62bd 0d98 143e cb74 923e e644 26be
00000300: 6215 a13e 79c4 643e b708 e9bd 133a 2a3d
00000310: 8c0a 263e 70d1 be3d 1098 ac3e a9da 2a3d
00000320: fdc2 f1bd db85 793e 2129 7b3e 5994 9b3d
00000330: 6748 a13e 93f6 f1bd 9633 4b3e 13ac 9abe
00000340: 87da 90be 236e abbe aafd 963e 5565 923e
00000350: 4ad0 6e3e a490 523e 145b fdbd de50 793e
00000360: 0f96 e6bd b601 d2bd 84c4 f4bd f425 64be
00000370: 50b8 5d3e 1227 6a3e bdbc 9e3d ce4d 62bc
00000380: 3603 923e 2cdd 5fbe 0102 e0bd 51d0 ee3d
00000390: 88a0 823d dd4d 3b3d 4691 823c 8844 9ebd
000003a0: 7e15 81be b3d2 b53d 1c0d 733e 29aa 80be
000003b0: c781 3fbe 38f3 9dbc 95bf 2e3e 43dc a23e
000003c0: f0e1 46be 9590 f63d 3653 133e aeec 543e
000003d0: 4e1c 5ebd 0d8b 663e c14b 163e 5fab c03d
000003e0: 5119 6a3e 8f17 9fbe cd82 3d3e 7417 6e3d
000003f0: 019c 883b a23a 07be 575c a03e 8f3d 613e

bias f4 [64]
0.025730379 0.31239712 0.04408456 -0.27187762 0.24094728 0.2292172 0.3316531 0.12421926
0.29481775 -0.27783343 -0.0036387448 -0.29539976 -0.007109933 -0.053977624 0.27433825 0.26331297
-0.11214624 0.31585225 -0.08795958 0.32184315 -0.2407711 0.32809687 -0.025949022 -0.27935436
-0.2742781 0.32426614 -0.29785678 0.19495562 0.29119098 -0.2697945 0.07070411 -0.24155383
-0.20451246 0.092685126 -0.026883148 -0.13256967 0.27050608 -0.30874348 0.24820016 -0.23697968
0.20085792 0.2263297 0.21458374 -0.06263984 -0.24193066 -0.037048373 -0.0027752435 -0.27444422
-0.11958302 0.14591333 0.24310508 0.109330244 0.17263162 0.033677917 0.3291824 -0.085279584
0.18933384 0.15803537 -0.26797673 -0.12841378 -0.040428333 -0.25220057 -0.1348179 0.022024397
00000000: 84c8 d23c 84f2 9f3e 0392 343d 8b33 8bbe
00000010: e2ba 763e eab7 6a3e 6fce a93e ab66 fe3d
00000020: 5af2 963e 2f40 8ebe 0278 6ebb a33e 97be
00000030: 71fa e8bb a417 5dbd 1076 8c3e f5d0 863e
00000040: eeac e5bd 63b7 a13e 2724 b4bd a0c8 a43e
00000050: b38c 76be 50fc a73e 0b93 d4bc 8907 8fbe
00000060: 2e6e 8cbe 3606 a63e af80 98be 72a2 473e
00000070: fc16 953e 8122 8abe 51cd 903d e359 77be
00000080: b76b 51be b3d1 bd3d 0c3a dcbc 58c0 07be
00000090: c67f 8a3e a013 9ebe 2f28 7e3e cdaa 72be
000000a0: b3ad 4d3e f9c2 673e d7bb 5b3e 5149 80bd
000000b0: acbc 77be 09c0 17bd dce0 35bb f483 8cbe
000000c0: f1e7 f4bd 4e6a 153e 8af0 783e 89e8 df3d
000000d0: 58c6 303e dbf1 093d 988a a83e 10a7 aebd
000000e0: bbe0 413e 06d4 213e 3f34 89be e77e 03be
000000f0: 2e98 25bd 6f20 81be b40d 0abe 826c b43c

weight f4 [32, 640]
-0.014279057 0.026633173 0.029138489 0.020764682 -0.021682955 0.010906491 0.009479431 -0.025155403
-0.035943385 0.022417294 0.022780135 -0.02098057 0.029054932 -0.026744543 -0.029315472 0.028457155
-0.02729274 0.027937904 -0.02413057 0.02439632 -0.040608257 -0.00069343514 0.008421993 -0.032690223
-0.044125117 0.0022487217 0.0013363151 -0.038716637 0.027600141 -0.03173028 -0.038255822 -0.01431327
-0.03129476 -0.023023318 -0.012635461 -0.002810314 -0.04663709 -0.02225439 -0.00063787587 -0.0068230983
0.018675832 0.006065397 0.051233727 -0.029125217 -0.024759617 3.659755e-05 0.042476874 0.021415735
-0.010715144 0.023024445 0.019573461 -0.02349952 -0.024356183 -0.027199786 -0.0059730196 -0.030560073
0.008679643 -0.020678 0.013885517 -0.008323516 0.00050804886 -0.04442885 -0.031689946 0.015568138
0.0076568583 0.013262377 -0.03587715 -0.025846714 -0.045683984 0.0013668601 0.027046226 0.020584485
0.031943273 -0.011338478 -0.00033730952 0.0045114965 0.016522963 -0.044174954 0.0086494 0.019427896
-0.010334324 0.015738105 -0.013941433 -0.002572024 0.027469292 -0.03779981 -0.0182626 -0.0030970194
-0.002055477 0.011978943 -0.024684386 0.0111050885 0.0087124575 -0.040943768 -0.019313443 -0.027950604
0.0087440945 -0.043749735 0.0006854117 -0.032326568 0.046118375 -0.024268316 0.052785125 0.013670334
0.0006898027 0.0006192249 -0.0018432742 -0.027382562 -0.0073142387 -0.020769034 0.012743909 0.026686689
-0.031394016 0.010208625 -0.019089393 0.0063976594 -0.010232501 -0.022443414 0.024857376 -0.02803072
-0.00072043395 -0.020103483 -0.033162337 -0.040542815 -0.022278428 -0.020266708 -0.0032739728 -0.033399023
-0.028296912 0.0082981605 -0.031743266 0.022588555 -0.014748352 -0.010460654 0.01777605 -0.041550986
0.024319617 0.007514511 -0.046833 -0.028557528 0.025949622 0.038841143 0.027621511 0.0352089
0.03775577 0.023712253 -0.015474297 -0.01625374 0.042502113 0.03573529 0.0104041835 0.032715917
0.047905862 0.015493519 0.00043577998 0.043819197 -0.023628088 0.019944014 0.04965064 -0.031275276
0.0073295524 0.022676723 -0.04080202 -0.02515691 0.014736321 -0.0301337 -0.04459441 0.024497258
-0.01701217 0.009330101 0.02891555 0.049105816 -0.00813724 0.013775919 0.042176872 0.02566831
-0.013364331 -0.0021221852 0.028308686 -0.020398514 -0.024922717 -0.01967439 0.017165406 0.027943805
0.01950801 -0.018829713 -0.030241521 -0.03599184 -0.006194074 0.009847285 0.014678449 -0.026266128
0.005467415 0.0041625807 0.008139353 0.010716406 -0.0073441835 0.028561363 0.0033266298 -0.0074637635
0.028596729 -0.0139786275 -0.039197277 -0.024494033 -0.0258104 -0.025653483 0.008377283 0.03498998
0.022514865 -0.03856946 0.046517644 0.02573315 -0.008779891 -0.02778121 -0.031832006 -0.008419601
0.005406852 -0.017725034 -0.0052246833 0.032228477 -0.027691795 -0.014507528 -0.01597077 -0.013522485
0.039722387 -0.0040577017 0.044119827 -0.031099018 0.046642113 -0.012956967 0.007892524 -0.027386196
0.021236915 0.0061327214 -0.023020701 -0.009177377 -0.044930395 0.022528451 0.022915622 0.015964989
-0.018859074 -0.029844359 -0.023478398 -0.04516106 -0.014919346 0.022857333 -0.03190209 -0.045964777
0.02877406 0.028074699 0.036454357 -0.020324914 -0.0298323 -0.056893248 -0.05280187 -0.03440708
00000000: b5f2 69bc d02d da3c d7b3 ee3c b21a aa3c
00000010: 74a0 b1bc 24b1 323c 9e4f 1b3c b412 cebc
00000020: 5f39 13bd 79a4 b73c 689d ba3c 72df abbc
00000030: 9c04 ee3c 5f17 dbbc 0027 f0bc fb1e e93c
00000040: 0695 dfbc 08de e43c 79ad c5bc cbda c73c
00000050: d854 26bd a5c7 35ba 66fc 093c 2fe6 05bd
00000060: 8abc 34bd 4a5f 133b 4b27 af3a 5695 1ebd
00000070: b119 e23c 9cf7 01bd 23b2 1cbd 3582 6abc
00000080: ef2e 00bd 669b bcbc f704 4fbc 3f2d 38bb
00000090: 8906 3fbd d74e b6bc 2037 27ba 4c94 dfbb
000000a0: 0ffe 983c 3dc0 c63b 75da 513d 0298 eebc
000000b0: aed4 cabc 5280 1938 3bfc 2d3d 0d70 af3c
000000c0: 928e 2fbc c39d bc3c 8658 a03c 1182 c0bc
000000d0: 9e86 c7bc 16d2 debc 52b9 c3bb 1e59 fabc
000000e0: 1035 0e3c e964 a9bc 1480 633c 5b5f 08bc
000000f0: 952e 053a 07fb 35bd 51cd 01bd 8111 7f3c
00000100: 62e6 fa3b 714a 593c ebf3 12bd 7dbc d3bc
00000110: 211f 3bbd 3728 b33a 0c90 dd3c cba0 a83c
00000120: f3d6 023d 06c5 39bc ebd8 b0b9 2dd5 933b
00000130: 2a5b 873c ccf0 34bd 37b6 0d3c 4027 9f3c
00000140: 4c51 29bc 33ed 803c 9c6a 64bc 678f 28bb
00000150: 4807 e13c f9d3 1abd 739b 95bc 5df7 4abb
00000160: 2eb5 06bb 5443 443c e936 cabc 1ef2 353c
00000170: b2be 0e3c a7b4 27bd 3a37 9ebc aaf8 e4bc
00000180: 6443 0f3c ec32 33bd 33ad 333a dd68 04bd
00000190: 9fe6 3c3d 59ce c6bc 3735 583d 89f9 5f3c
000001a0: e0d3 343a 7b53 223a 059a f1ba 6551 e0bc
000001b0: 48ac efbb d223 aabc d4cb 503c 0b9e da3c
000001c0: 0397 00bd 1442 273c 5c61 9cbc 75a3 d13b
000001d0: 38a6 27bc 40db b7bc b2a1 cb3c aea0 e5bc
000001e0: 81db 3cba 0fb0 a4bc 3bd5 07bd 3910 26bd
000001f0: 4081 b6bc 5e06 a6bc 2690 56bb 6acd 08bd
00000200: edce e7bc 02f5 073c 3a05 02bd a20b b93c
00000210: 12a3 71bc 2a63 2bbc 149f 913c 5e31 2abd
00000220: ef39 c73c 493c f63b f6d3 3fbd 7af1 e9bc
00000230: 4d94 d43c e417 1f3d 8246 e23c 3537 103d
00000240: cba5 1a3d 3340 c23c e887 7dbc 9026 85bc
00000250: b216 2e3d 2b5f 123d 4f76 2a3c 2001 063d
00000260: f038 443d 87d8 7d3c 6679 e439 c27b 333d
00000270: b18f c1bc a161 a33c 785e 4b3d 811a 00bd
00000280: be2c f03b 89c4 b93c 0520 27bd dd15 cebc
00000290: 9c70 713c f3da f6bc a1a8 36bd 79ae c83c
000002a0: 1b5d 8bbc 48dd 183c 4ee0 ec3c 2e23 493d
000002b0: 0f52 05bc 64b4 613c a8c1 2c3d 5946 d23c
000002c0: 11f6 5abc 5c14 0bbb 9ee7 e73c c91a a7bc
000002d0: ba2a ccbc 302c a1bc 779e 8c3c 68ea e43c
000002e0: 43cf 9f3c c540 9abc 11bd f7bc 2e6c 13bd
000002f0: a9f7 cabb 8256 213c e17d 703c 102c d7bc
00000300: 0028 b33b 4266 883b ec5a 053c dd93 2f3c
00000310: 7aa7 f0bb 85f9 e93c 9603 5a3b 9692 f4bb
00000320: b043 ea3c 9d06 65bc 538d 20bd b6a7 c8bc
00000330: 5570 d3bc 4127 d2bc df40 093c a751 0f3d
00000340: 1871 b83c 03fb 1dbd 4989 3e3d 54ce d23c
00000350: 88d9 0fbc 6c95 e3bc 4762 02bd 5ef2 09bc
00000360: f62b b13b 1734 91bc d233 abbb 0202 043d
00000370: e7d9 e2bc fcb0 6dbc 22d5 82bc 6a8d 5dbc
00000380: f1b3 223d 78f6 84bb feb6 343d 5ec3 febc
00000390: cd0b 3f3d 7549 54bc a54f 013c 0459 e0bc
000003a0: 0af9 ad3c fff4 c83b e995 bcbc b65c 16bc
000003b0: ef08 38bd 968d b83c 8bb9 bb3c 02c9 823c
000003c0: 587e 9abc 287c f4bc c555 c0bc cefa 38bd
000003d0: 4670 74bc 4d3f bb3c c4ab 02bd 9045 3cbd
000003e0: 94b7 eb3c e9fc e53c 2a51 153d 6f80 a6bc
000003f0: de62 f4bc e508 69bd c646 58bd 70ee 0cbd

bias f4 [32]
0.025758961 0.0039716084 0.040071215 0.033383224 0.0038711769 -0.017136157 0.0075640273 0.017682716
0.028995913 0.002727367 0.033164605 0.00984209 0.012226909 0.026385462 0.021774905 -0.029017475
-0.027617369 -0.04490084 -0.03447223 0.009629985 -0.015142403 0.0052117007 0.042620365 -0.03582488
0.028374773 -0.040756162 -0.009457479 0.0036064228 -0.026083885 -0.012318721 -0.02677801 0.04563947
00000000: 7504 d33c 4424 823b b721 243d d9bc 083d
00000010: 92b3 7d3b 2061 8cbc a9db f73b 58db 903c
00000020: d688 ed3c a0bd 323b 9cd7 073d b840 213c
00000030: 6053 483c 5326 d83c 4961 b23c 0eb6 edbc
00000040: d23d e2bc f1e9 37bd c132 0dbd 16c7 1d3c
00000050: d717 78bc eac6 aa3b b192 2e3d 1cbd 12bd
00000060: 3672 e83c efef 26bd 8bf3 1abc bc59 6c3b
00000070: dfad d5bc 76d4 49bc 8f5d dbbc 74f0 3a3d

weight f4 [640]
1.0047339 0.9899916 0.9972813 1.0071896 1.0099168 0.996016 1.000081 0.99278426
0.9959585 1.0013928 0.9920901 0.9977649 1.000813 0.9935036 0.99711096 0.997579
0.9985007 1.0083102 0.99102336 0.998356 0.9962854 1.0078158 1.0092256 0.99943453
1.0079086 1.0070832 0.99965143 0.9961608 1.0087082 0.9896921 0.98882866 1.0038605
1.002892 1.0012188 1.0061074 0.9921657 1.0018709 1.0028591 0.9994027 1.0005991
0.9988615 1.0067661 1.003053 0.9910091 0.99465847 0.99587744 0.998754 0.9930056
1.0066539 1.005353 1.0097451 1.0005573 0.98646665 1.0057503 0.9980462 0.9915808
0.99671924 1.0010312 0.98973304 0.9964216 1.0048852 1.0054781 0.99680334 1.0054541
0.99634826 0.989891 1.0031729 0.99366844 0.9898245 1.0084014 0.99087286 0.9941677
0.9908091 1.0012324 0.99973243 0.9907291 1.0035982 1.0074108 0.99916905 0.9941057
1.0084192 1.0011202 1.0124614 0.9941436 0.99476635 1.0048063 1.0016438 1.0009192
1.0018227 0.99842197 0.9910565 0.99636465 1.0036063 1.0129193 1.0106273 0.99883395
0.99519044 0.99769366 1.006086 0.98956126 1.0005449 0.9976246 1.0075852 1.0142744
1.0022619 0.9917768 1.0021625 0.9932 0.991465 1.0039879 1.0084985 1.0007175
0.99042255 0.9967158 1.0038124 1.0097598 0.9900863 0.99007523 1.0027612 1.0091454
1.0065849 0.99699706 1.0128934 1.0063756 1.001504 0.9959569 1.0017749 0.9964165
0.9974773 0.99811643 1.002609 1.0094999 0.9904558 0.997485 1.0070885 0.9971434
0.99896526 0.99839216 0.99027 1.0079972 0.9954917 1.0071763 1.0100524 1.007683
0.99039716 1.000955 1.0018888 0.99811125 0.9904134 0.9857428 0.9973872 0.994453
0.9917934 1.0062718 0.99558187 0.991297 0.98996675 1.0091368 0.98924106 0.9998657
1.0025445 1.0004209 1.012227 1.003882 0.99432355 1.0008229 0.9964507 0.9878113
1.004083 1.0017083 1.0045567 1.0030493 1.0037487 0.9956279 0.99514586 1.0086987
0.99950653 1.0037689 1.0031983 0.99574137 0.9900967 0.99496955 1.0063022 0.99465066
0.9935755 1.0041969 1.003653 1.0055221 0.98963445 0.9925167 0.990842 0.9952348
1.0005043 0.9870393 0.9922114 1.0088427 1.0060331 0.99582386 1.0078171 1.0030229
0.98944443 0.995602 0.99525285 0.9982251 0.98726135 1.0104107 1.0094111 1.0249113
1.0091478 1.0059716 0.9981751 1.0072095 0.98829144 0.99216306 0.99955416 1.0013896
1.0033826 1.0037953 0.99800456 1.003267 1.0052395 1.0079528 1.0038285 0.99290025
1.0061626 0.9899593 0.9994549 0.99910355 0.9980032 1.0071112 0.9977535 1.0123024
1.0019542 0.99864155 0.99431545 0.9890758 1.0072042 1.0003552 1.0065087 1.0006945
1.0012755 0.9924565 1.006584 1.0017247 1.0049297 0.9974206 0.9964657 0.9968193
0.98903203 1.0010623 0.99663347 0.9996492 1.0308319 1.0281265 1.118477 1.0130949
00000000: 1f9b 803f 1770 7d3f d44d 7f3f 97eb 803f
00000010: f444 813f e8fa 7e3f a702 803f 1c27 7e3f
00000020: 23f7 7e3f a42d 803f 9ef9 7d3f 856d 7f3f
00000030: a41a 803f 4056 7e3f aa42 7f3f 5661 7f3f
00000040: be9d 7f3f 4f10 813f b5b3 7d3f 4294 7f3f
00000050: 8f0c 7f3f 1c00 813f 4e2e 813f f1da 7f3f
00000060: 2603 813f 1ae8 803f 28e9 7f3f 6504 7f3f
00000070: 5a1d 813f 765c 7d3f e023 7d3f 807e 803f
00000080: c45e 803f f027 803f 21c8 803f 92fe 7d3f
00000090: 4e3d 803f b05d 803f dbd8 7f3f a213 803f
000000a0: 63b5 7f3f b6dd 803f 0a64 803f c6b2 7d3f
000000b0: f0a1 7e3f d3f1 7e3f 58ae 7f3f 9d35 7e3f
000000c0: 09da 803f 68af 803f 543f 813f 4312 803f
000000d0: 1489 7c3f 6dbc 803f f57f 7f3f 3dd8 7d3f
000000e0: fe28 7f3f ca21 803f 255f 7d3f 7c15 7f3f
000000f0: 14a0 803f 82b3 803f 812e 7f3f b8b2 803f
00000100: ae10 7f3f 7f69 7d3f f867 803f 0e61 7e3f
00000110: 2365 7d3f 4c13 813f d8a9 7d3f c681 7e3f
00000120: aaa5 7d3f 6228 803f 77ee 7f3f 6ca0 7d3f
00000130: e875 803f d6f2 803f 8bc9 7f3f b67d 7e3f
00000140: e113 813f b524 803f 5698 813f 3280 7e3f
00000150: 02a9 7e3f 7e9d 803f dd35 803f 1f1e 803f
00000160: ba3b 803f 9598 7f3f e1b5 7d3f c111 7f3f
00000170: 2c76 803f 57a7 813f 3c5c 813f 95b3 7f3f
00000180: cdc4 7e3f da68 7f3f 6dc7 803f e353 7d3f
00000190: db11 803f 5364 7f3f 8df8 803f bed3 813f
000001a0: 1e4a 803f 16e5 7d3f dc46 803f 5b42 7e3f
000001b0: a6d0 7d3f ad82 803f 7b16 813f 8317 803f
000001c0: 558c 7d3f c428 7f3f ed7c 803f cf3f 813f
000001d0: 4c76 7d3f 9275 7d3f 7b5a 803f ad2b 813f
000001e0: c6d7 803f 333b 7f3f 7ea6 813f ead0 803f
000001f0: 4831 803f 08f7 7e3f 293a 803f 2715 7f3f
00000200: ac5a 7f3f 8f84 7f3f 7e55 803f 4b37 813f
00000210: 838e 7d3f 2d5b 7f3f 47e8 803f ca44 7f3f
00000220: 30bc 7f3f a196 7f3f 5682 7d3f 0d06 813f
00000230: 8bd8 7e3f 27eb 803f 6649 813f c2fb 803f
00000240: ab8a 7d3f 4b1f 803f e43d 803f 3884 7f3f
00000250: bc8b 7d3f a459 7c3f c454 7f3f 7994 7e3f
00000260: 2ce6 7d3f 84cd 803f 74de 7e3f a4c5 7d3f
00000270: 766e 7d3f 652b 813f e73e 7d3f 33f7 7f3f
00000280: 6153 803f cb0d 803f a890 813f 357f 803f
00000290: fd8b 7e3f f71a 803f 6517 7f3f 34e1 7c3f
000002a0: cb85 803f fa37 803f 5095 803f eb63 803f
000002b0: d67a 803f 78e1 7e3f e1c1 7e3f 0a1d 813f
000002c0: a9df 7f3f 807b 803f cd68 803f e8e8 7e3f
000002d0: fa76 7d3f 53b6 7e3f 83ce 803f 6da1 7e3f
000002e0: f75a 7e3f 8689 803f b477 803f f3b4 803f
000002f0: af58 7d3f 9315 7e3f d2a7 7d3f b5c7 7e3f
00000300: 8610 803f 9cae 7c3f 9101 7e3f c221 813f
00000310: b1c5 803f 50ee 7e3f 2700 813f 0e63 803f
00000320: 3b4c 7d3f c6df 7e3f e4c8 7e3f ae8b 7f3f
00000330: 29bd 7c3f 2355 813f 6234 813f 4b30 833f
00000340: c12b 813f adc3 803f 6788 7f3f 3eec 803f
00000350: ab00 7d3f 66fe 7d3f c8e2 7f3f 892d 803f
00000360: d76e 803f 5d7c 803f 3a7d 7f3f 0e6b 803f
00000370: b0ab 803f 9904 813f 747d 803f b62e 7e3f
00000380: f0c9 803f f96d 7d3f 47dc 7f3f 40c5 7f3f
00000390: 237d 7f3f 05e9 803f c66c 7f3f 2093 813f
000003a0: 0940 803f f9a6 7f3f 758b 7e3f 1234 7d3f
000003b0: 11ec 803f a40b 803f 47d5 803f c216 803f
000003c0: cc29 803f a111 7e3f bfd7 803f 8438 803f
000003d0: 89a1 803f f556 7f3f 6018 7f3f 8d2f 7f3f
000003e0: 3431 7d3f cf22 803f 5f23 7f3f 03e9 7f3f
000003f0: 4df2 833f a699 833f 412a 8f3f 18ad 813f

bias f4 [640]
-0.0046545914 0.009952959 0.0026475668 -0.0073175244 -0.00975269 0.004052262 -0.00020289309 0.007084755
0.003983061 -0.0012820947 -0.0075650467 -0.0032353757 5.5825214e-05 -0.0066290833 -0.0027546783 -0.003355799
-0.0014636797 0.007817706 -0.009208031 -0.001764946 0.0036245037 -0.0076571875 -0.009212527 0.00050182216
-0.0077595026 -0.006942661 0.00050476356 0.00401359 -0.008566221 0.010280048 0.011400241 -0.0037526244
-0.0030051596 -0.0012457782 -0.0061062383 0.00791814 -0.0017398024 -0.0027026369 0.00074617093 -0.00027200836
0.0031928709 0.0061793486 0.0035840345 -0.009407832 -0.0035383683 -0.004196248 -0.0011946307 -0.006382249
0.0036096135 0.0061862725 0.009644862 6.0163955e-05 -0.009414728 -0.008164678 -0.0033325031 -0.008968991
-0.0017115143 0.0010229999 -0.010511416 -0.0029506779 0.00926097 -0.0053868615 0.0031555837 -0.0049858023
0.0035268639 0.0101106 -0.002985486 0.006363526 0.010233156 -0.008136333 0.009190116 0.011015706
0.007822816 -0.002448296 -0.0016988756 0.009341842 -0.0017020701 -0.009327192 8.910471e-06 0.005695085
0.00906303 0.0028582537 0.0054173693 -0.0051504336 -0.00030378695 -0.0038717662 0.0028957322 0.0017329315
0.0026989414 0.0024252017 0.0065475833 0.0036898025 -0.003755846 -0.009305992 -0.009767376 0.0017625596
0.00038837132 0.0025604945 -0.006071082 0.010618263 -0.0006165731 -0.0059625017 0.0018037293 -0.0026765454
-0.0025900635 -0.008871167 0.00022756509 -0.005825309 -0.009701592 0.003655102 -0.008458371 -0.00082387985
0.009532029 0.0031604841 -0.0038663733 -0.0096088555 0.010074458 0.00987192 -0.0027159294 -0.008999734
0.009749034 0.00079826737 -0.005710427 -0.0023180335 -0.0023077796 0.00086091703 -0.0033805054 0.0034028753
0.00049603137 0.0018494454 0.0009281199 -0.009519453 0.009606675 0.00278498 -0.007014862 0.002812864
0.0011824302 0.0015521182 0.009800107 -0.007944578 -0.0029576756 0.009173579 0.009570157 0.0065322365
-0.009810225 0.0007369294 0.0024664635 -0.0016887916 -0.009451655 -0.0063322824 -0.002657573 -0.0057320325
-0.008252799 0.006114386 -0.0043941853 -0.008429577 -0.00962847 0.01015012 -0.008850254 -0.0011775823
-0.0024722347 -0.0002542591 -0.012044702 -0.003779551 0.0056798053 -0.0007113557 0.0036976584 0.0121054575
-0.0040675565 0.004152736 0.0017751745 0.0009980046 0.0024047522 -0.0045508347 -0.0042366413 0.008200004
-0.0010652585 0.0017648883 0.003135611 -0.0063772425 0.009878312 0.005204918 -0.0057572415 0.005106446
0.0066134804 -0.0043023685 -0.0041172067 -0.0064083287 0.010170963 0.006114836 -0.009972795 -0.0066774306
0.001639943 -0.011154006 -0.00041465982 0.0030355307 0.00844093 -0.0045529786 0.008099969 0.001580436
0.010509234 0.0034169122 0.0053100744 0.00073527114 0.010098836 -0.009023476 -0.009009446 -0.0110198455
-0.0044735707 -0.0020347303 -0.001184068 0.0061895773 -0.011997894 -0.007859867 -0.00048780575 7.923641e-05
0.0041636615 0.004159813 -0.0014900086 0.007117243 -0.0053927745 -0.00397769 0.0072369915 -0.0039674453
0.007176945 -0.011448753 0.00051807455 0.0003876128 -0.0001954134 0.009941574 0.00260385 -0.0110407565
-0.0016698043 0.0015260967 0.006825817 0.012301335 -0.00697802 -0.00014148984 -0.0078318855 -0.0006388689
-0.0015258767 0.007516049 -0.0064554983 -0.0011854584 -0.004707493 0.0026246565 0.0035369194 0.003223232
0.011058638 -0.0011212021 -0.0036628034 -0.0044432734 -0.005413377 -0.0072585144 0.007481536 -0.009422153
00000000: 8b85 98bb bc11 233c cd82 2d3b d8c7 efbb
00000010: bfc9 1fbc d6c8 843b b3bf 54b9 3c27 e83b
00000020: 5684 823b f60b a8ba 36e4 f7bb 9908 54bb
00000030: de25 6a38 c838 d9bb d587 34bb f7ec 5bbb
00000040: f1d8 bfba d615 003c 48dd 16bc c355 e7ba
00000050: 1589 6d3b 25e9 fabb 24f0 16bc b78c 033a
00000060: 6d43 febb 437f e3bb 1c52 043a 6f84 833b
00000070: 5659 0cbc a56d 283c 14c8 3a3c 97ee 75bb
00000080: 36f2 44bb 6149 a3ba d716 c8bb 16bb 013c
00000090: 150a e4ba b91e 31bb af9a 433a 589c 8eb9
000000a0: 7c3f 513b 227c ca3b 1fe2 6a3b 4f23 1abc
000000b0: f8e3 67bb ae80 89bb 2895 9cba 2f22 d1bb
000000c0: 448f 6c3b 37b6 ca3b 7c05 1e3c 8e58 7c38
000000d0: 3b40 1abc 24c5 05bc 2066 5abb adf2 12bc
000000e0: e454 e0ba 2e16 863a 1338 2cbc 2960 41bb
000000f0: 53bb 173c 4584 b0bb e9cd 4e3b f15f a3bb
00000100: f522 673b eea6 253c 25a8 43bb 2085 d03b
00000110: f8a8 273c 414e 05bc 2492 163c 387b 343c
00000120: 452b 003c 9773 20bb ceac deba 860e 193c
00000130: ff17 dfba 14d1 18bc 2e7e 1537 d69d ba3b
00000140: 1a7d 143c 8a51 3b3b 3084 b13b f8c4 a8bb
00000150: 9845 9fb9 75bd 7dbb 53c6 3d3b 8823 e33a
00000160: b9e0 303b 22f0 1e3b 1c8d d63b 9dd0 713b
00000170: a424 76bb 2978 18bc 5807 20bc b005 e73a
00000180: 519e cb39 f8cd 273b edef c6bb 39f8 2d3c
00000190: 85a1 21ba 1761 c3bb 1d6b ec3a fb68 2fbb
000001a0: 0ebe 29bb 5f58 11bc 8a9e 6e39 3ce2 bebb
000001b0: 6df3 1ebc 708a 6f3b fb94 0abc a4f9 57ba
000001c0: 3a2c 1c3c 2020 4f3b fb62 7dbb 766e 1dbc
000001d0: 570f 253c d5bd 213c bcfd 31bb 9f73 13bc
000001e0: 6aba 1f3c d142 513a 891e bbbb 26ea 17bb
000001f0: 1e3e 17bb 2aaf 613a 788b 5dbb c602 5f3b
00000200: 1a08 023a 1769 f23a 124d 733a 7bf7 1bbc
00000210: 5165 1d3c 3684 363b eddc e5bb 0758 383b
00000220: c6fb 9a3a 7270 cb3a a190 203c fa29 02bc
00000230: 90d5 41bb c74c 163c 26cc 1c3c 5f0c d63b
00000240: 11bb 20bc 7f2e 413a 64a4 213b 715a ddba
00000250: 1ddb 1abc 097f cfbb ad2a 2ebb c6d3 bbbb
00000260: bf36 07bc 305b c83b 19fd 8fbb 351c 0abc
00000270: bbc0 1dbc b04c 263c a800 11bc 1b59 9aba
00000280: 3705 22bb 144e 85b9 2457 45bc 58b2 77bb
00000290: a91d ba3b 467a 3aba 6a54 723b f855 463c
000002a0: 2349 85bb ad13 883b f9ac e83a 7acf 823a
000002b0: 0c99 1d3b 2b1f 95bb 86d3 8abb 4f59 063c
000002c0: 25a0 8bba d353 e73a d37e 4d3b 30f8 d0bb
000002d0: a5d8 213c 048e aa3b 3ea7 bcbb f953 a73b
000002e0: e5b5 d83b e2fa 8cbb a2e9 86bb f5fc d1bb
000002f0: 1ca4 263c f65e c83b ef64 23bc 59ce dabb
00000300: 5bf3 d63a 4bbf 36bc b366 d9b9 c1ef 463b
00000310: d44b 0a3c 2731 95bb bbb5 043c a226 cf3a
00000320: ec2e 2c3c 46ee 5f3b 2200 ae3b 36bf 403a
00000330: 9775 253c 34d7 13bc 5b9c 13bc 958c 34bc
00000340: 0897 92bb 1c59 05bb bb32 9bba f0d1 ca3b
00000350: d192 44bc acc6 00bc 2ec0 ffb9 b92b a638
00000360: 536f 883b 0a4f 883b 644c c3ba c337 e93b
00000370: dfb5 b0bb 4857 82bb 4924 ed3b 5801 82bb
00000380: 942c eb3b 8d93 3bbc 65cf 073a 8238 cb39
00000390: e3e7 4cb9 fce1 223c 5ba5 2a3b 4ae4 34bc
000003a0: 56dd daba 4f07 c83a 1aab df3b 8a8b 493c
000003b0: e0a7 e4bb e45c 14b9 4f51 00bc c479 27ba
000003c0: edff c7ba 3049 f63b a588 d3bb 6261 9bba
000003d0: 5041 9abb 6e02 2c3b a9cb 673b dc3c 533b
000003e0: 4a2f 353c 4df5 92ba a50b 70bb e198 91bb
000003f0: b362 b1bb d5d8 edbb ac27 f53b 605f 1abc

weight_ih_l0 f4 [512, 32]
0.08871335 -0.06226891 0.04424963 0.07671437 -0.07057634 0.0079748 0.053756632 0.008652028
0.047828984 -0.06630367 -0.06776442 -0.057795685 0.031076606 0.03260874 0.0147951 0.05699779
-0.030377176 -0.009972173 0.02562838 -0.058211546 0.08440418 0.0052137445 -0.004988245 -0.022205194
-0.03568516 -0.006969122 -0.04320858 0.010660172 -0.041863862 -0.036144737 -0.07499979 0.005560406
-0.057174467 0.0023695535 0.0102659995 -0.047784925 0.010668616 -0.007949625 -0.08271233 0.030425182
0.07223379 0.0035027429 -0.021228183 -0.014804895 -0.004967364 0.031741984 0.03842228 0.07777953
0.09120628 0.05001849 -0.08001248 0.004934205 -0.031067567 -0.07508706 0.04294565 -0.067677006
0.05320111 -0.07355155 0.06090915 -0.081364796 -0.038021408 -0.025089681 0.09262154 0.015618738
0.0018586854 0.07536684 0.044312004 0.0736268 0.04082173 -0.08947681 -0.042001434 0.07442691
-0.08953184 -0.04668754 -0.050577324 -0.026805243 -0.07812507 0.0019858107 -0.09775536 -0.093938485
0.005208688 -0.042055197 -0.032036126 0.0313401 0.045224637 0.05933978 -0.016150754 -0.060961325
-0.0047897846 0.08078152 0.02422546 -0.0070778136 0.0813205 0.07923345 -0.055386182 -0.07105616
0.0006741688 -0.0019731144 0.07452384 0.043619994 -0.01677172 0.03514474 -0.006017394 0.05418422
0.01759915 -0.024558568 -0.0487599 -0.008086463 -0.014703453 0.08644107 -0.060448546 -0.07792749
0.01501951 -0.0008679003 0.050823208 0.07524284 -0.037153784 -0.055469647 -0.016294496 0.08290166
-0.07108775 0.01940464 -0.038578335 0.0027558838 -0.08933004 -0.017895501 -0.023140823 0.0581593
0.041871637 0.012180434 0.08982895 0.041378632 0.0051716473 0.062064316 -0.05642627 -0.027101573
0.064354 -0.018351495 -0.05644855 -0.030089958 -0.038412057 -0.035597198 0.040836245 -0.05481033
0.06740405 -0.07393047 0.055722985 0.059431523 0.07638299 0.0075569698 0.07278494 -0.067022875
-0.026799478 -0.07470889 -0.0066893436 0.07246708 -0.011192752 0.0032354207 0.014514489 0.023575967
-0.0077918917 -0.02752987 -0.039302196 0.05147286 0.08292745 -0.055545434 -0.04117475 -0.0672617
-0.00079018465 0.014890201 0.0052388706 0.05274317 -0.069968 0.033760037 -0.06464254 -0.039386988
0.093034975 0.069756605 0.013132831 0.049387757 0.06521015 -0.001623637 -0.086745314 0.041872796
-0.04366902 0.08300974 0.035381407 0.03704627 0.079997875 0.008771507 0.014406035 0.031989224
0.071389966 0.05945808 0.08331932 0.025052322 0.01411858 0.0330761 0.074073754 -0.038714238
-0.08792357 -0.039936673 0.00085929874 0.039241895 0.06103749 0.046030108 0.05558604 0.032375626
0.09298503 0.08010224 0.08601569 -0.029430991 0.006360599 0.032166053 -0.026066765 0.056673933
0.007018375 0.080096595 -0.045274906 -0.021849062 -0.038492274 0.03259869 -0.044308808 0.069089726
-0.015813593 -0.011806518 0.07677451 -0.041000947 0.0667505 0.071618944 0.060249522 0.034815304
0.05818724 -0.08074584 -0.023858842 -0.07811631 -0.066830225 0.06986466 -0.06640079 -0.03074492
0.07635699 -0.06472367 0.057397112 0.046359442 -0.031674717 -0.046725303 -0.054874197 -0.028179685
-0.08419863 -0.05247022 -0.06926424 0.0615954 -0.09051582 0.006660591 0.092259094 0.055762935
00000000: 58af b53d af0d 7fbd 1a3f 353d 6c1c 9d3d
00000010: 548a 90bd bca8 023c ea2f 5c3d 3cc1 0d3c
00000020: 53e8 433d 38ca 87bd 12c8 8abd 2bbb 6cbd
00000030: 5e94 fe3c be90 053d 2667 723c 8476 693d
00000040: 8ed9 f8bc 5362 23bc 9cf2 d13c 3b6f 6ebd
00000050: 19dc ac3d 0fd8 aa3b 6f74 a3bb abe7 b5bc
00000060: 9a2a 12bd 3c5d e4bb 7bfb 30bd 01a8 2e3c
00000070: 7179 2bbd 810c 14bd 7d99 99bd 1134 b63b
00000080: c62f 6abd 834a 1b3b b932 283c 20ba 43bd
00000090: 6bcb 2e3c 253f 02bc 1565 a9bd 3b3e f93c
000000a0: 4fef 933d 468e 653b bae6 adbc 3b90 72bc
000000b0: 45c5 a2bb e203 023d ae60 1d3d e04a 9f3d
000000c0: 5cca ba3d 30e0 4c3d 95dd a3bd 1daf a13b
000000d0: 6981 febc 3fc7 99bd c7e7 2f3d 3e9a 8abd
000000e0: 68e9 593d 32a2 96bd df7b 793d 96a2 a6bd
000000f0: 56bc 1bbd e088 cdbc 5db0 bd3d bce5 7f3c
00000100: 229f f33a ee59 9a3d 8180 353d a6c9 963d
00000110: b034 273d 9e3f b7bd b209 2cbd 236d 983d
00000120: 785c b7bd 6f3b 3fbd 2b2a 4fbd ab96 dbbc
00000130: 0900 a0bd 6024 023b f633 c8bd d262 c0bd
00000140: a4ad aa3b 1242 2cbd 5038 03bd 7a5e 003d
00000150: 783d 393d 450e 733d 964e 84bc 95b2 79bd
00000160: a0f3 9cbb c870 a53d 7974 c63c 01ed e7bb
00000170: 5d8b a63d 2645 a23d 9fdc 62bd e485 91bd
00000180: b4ba 303a 5e4f 01bb f49f 983d e1aa 323d
00000190: d964 89bc eef3 0f3d 8f2d c5bb 46f0 5d3d
000001a0: 182c 903c 0d2f c9bc 76b8 47bd 167d 04bc
000001b0: c0e6 70bc 0408 b13d e598 77bd 7398 9fbd
000001c0: 6414 763c ce83 63ba ff2b 503d eb18 9a3d
000001d0: 912e 18bd 2434 63bd 097c 85bc 58c8 a93d
000001e0: 7496 91bd 7bf6 9e3c 5104 1ebd 0f9c 343b
000001f0: abf2 b6bd 9699 92bc d391 bdbc 7238 6e3d
00000200: 9881 2b3d 7190 473c 3ef8 b73d a47c 293d
00000210: ec76 a93b 2737 7e3d 3c1f 67bd 1e04 debc
00000220: 08cc 833d e055 96bc 9836 67bd 377f f6bc
00000230: f655 1dbd 5ece 11bd e843 273d cc80 60bd
00000240: 220b 8a3d dc68 97bd c93d 643d 786e 733d
00000250: af6e 9c3d 75a0 f73b 4510 953d 4a43 89bd
00000260: 948a dbbc f900 99bd 4832 dbbb 9f69 943d
00000270: ce61 37bc 5a09 543b 2ece 6d3c 6322 c13c
00000280: 2053 ffbb 5286 e1bc 57fb 20bd 35d5 523d
00000290: ded5 a93d 9c83 63bd dba6 28bd 81c0 89bd
000002a0: 6524 4fba 08f6 733c d5aa ab3b 3909 583d
000002b0: 624b 8fbd f747 0a3d 4f63 84bd 4054 21bd
000002c0: 1f89 be3d 8ddc 8e3d 162b 573c d14a 4a3d
000002d0: e68c 853d 38d0 d4ba 87a7 b1bd cf82 2b3d
000002e0: 49de 32bd 0301 aa3d 18ec 103d d4bd 173d
000002f0: edd5 a33d 5eb6 0f3c 4a07 6c3c 2207 033d
00000300: e734 923d 518a 733d 52a3 aa3d 873a cd3c
00000310: 9e51 673c ce7a 073d fbb3 973d d292 1ebd
00000320: 4611 b4bd a394 23bd 9042 613a 1cbc 203d
00000330: 7202 7a3d 118a 3c3d 30ae 633d 4e9c 043d
00000340: ef6e be3d a50c a43d fe28 b03d 4319 f1bc
00000350: 926c d03b 8dc0 033d f889 d5bc ed22 683d
00000360: 66fa e53b af09 a43d 2e72 39bd cefc b2bc
00000370: 13aa 1dbd 3486 053d 277d 35bd ea7e 8d3d
00000380: 828b 81bc 2070 41bc f43b 9d3d 9cf0 27bd
00000390: 7cb4 883d f4ac 923d 34c8 763d 7e9a 0e3d
000003a0: be55 6e3d 135e a5bd 9e73 c3bc 72fb 9fbd
000003b0: 49de 88bd 3415 8f3d 23fd 87bd c5dc fbbc
000003c0: 0e61 9c3d d88d 84bd 3c19 6b3d 66e3 3d3d
000003d0: 59bd 01bd 0863 3fbd c4c3 60bd 15d9 e6bc
000003e0: 5570 acbd 03eb 56bd 69da 8dbd 754b 7c3d
000003f0: 5c60 b9bd 1641 da3b 56f2 bc3d ad67 643d

weight_hh_l0 f4 [512, 128]
-0.021121338 0.0010497394 0.072638676 0.01571214 0.043116 0.01248652 -0.014798687 -0.033211168
-0.086375296 -0.03725043 0.05055293 -0.066944845 -0.07378923 -0.08996931 -0.09283195 0.0013227648
-0.002302809 -0.01685703 -0.068546556 0.004977341 0.018896926 0.038685724 0.05166584 0.05125187
-0.002798594 0.0070501524 -0.0760263 0.047277536 0.055644825 0.08738143 0.059660494 -0.06079149
-0.042709764 -0.008788102 0.09231579 -0.03148955 -0.055639703 0.0034871295 0.096562974 -0.09974331
0.038397398 0.033463772 0.043199606 -0.022094276 -0.01193464 -0.03922015 -0.06127423 0.07773036
-0.052112333 -0.0005427733 -0.0061630937 0.015777161 0.010153418 0.10274596 -0.006933214 0.0017712152
0.047674637 -0.06277169 -0.02348734 -0.06826093 0.005678203 0.042920306 -0.07051109 -0.029040692
0.0823361 -0.021797065 -0.025977094 -0.024992103 -0.07286476 -0.038867436 -0.05350239 -0.0031942094
-0.05313393 0.04360975 -0.025818164 -0.032610722 0.079589546 0.006922364 -0.030358812 0.014688917
-0.056461312 0.09735372 -0.034871113 0.07332068 0.08978235 -0.09871913 0.038496647 0.014247819
0.030505667 -0.0675655 0.044319157 0.002285827 0.09912865 -0.066208005 0.04370762 -0.036316905
0.06516027 -0.058324303 0.05419354 0.016285704 -0.01036435 -0.012435296 0.046534836 0.09266393
0.002475396 0.03376238 -0.043640673 -0.04456948 0.03408166 -0.016020546 -0.062061496 0.016358707
0.048717543 -0.09491456 -0.001158142 0.06472881 0.064206496 -0.025895653 0.0011938246 0.06758417
-0.08202942 -0.006201055 -0.043716382 -0.093345515 0.09466574 0.07199796 0.009060763 0.0030061684
0.0760596 0.08056386 0.046995502 -0.02867622 -0.01653253 -0.072607525 -0.07054808 -0.07442441
-0.014678925 0.088946745 0.036111195 0.0129338 -0.061615128 0.03162911 -0.015952092 -0.07835324
0.045253213 -0.0016189533 0.023708452 0.05576575 0.060512256 -0.049388733 0.087275356 -0.025629332
0.03903466 -0.039306715 -0.059299175 -0.07714376 0.03827236 -0.056762498 -0.029293306 -0.0113619175
-0.014715938 0.023145052 -0.08531823 -0.0024408232 -0.084492095 -0.012089325 -0.011079178 0.038115192
0.07237672 -0.07904889 0.06540551 -0.05515068 0.036116403 0.06301548 0.078448504 0.05377694
0.027132003 -0.018412745 -0.08602641 0.045247596 -0.08516255 -0.01117003 -0.023514237 -0.073572166
-0.04195746 -0.006926885 0.097334564 0.08596398 -0.023873607 0.05872825 0.010084473 0.016656477
0.027691044 -0.05218317 -0.08065879 0.031044293 -0.06927378 -0.021700218 -0.013559533 -0.07633261
0.06554083 -0.024835119 0.038284265 -0.013672715 -0.023787178 -0.02486098 -0.026139684 0.029930409
0.050065864 0.03373534 0.059194844 0.05752032 0.010717316 -0.05883393 0.030591663 0.06041222
0.06108612 -0.045289725 -0.055556316 0.04881826 -0.08885153 -0.011925431 0.08697754 -0.07052511
-0.015204022 -0.080315985 0.067117475 0.024118708 0.011432592 -0.029346984 0.07931303 0.07627437
0.008217277 -0.019391231 -0.08851958 -0.0013626508 0.07408631 -0.028694512 0.037191145 0.012433621
0.045731958 0.020396601 0.0719557 -0.022230169 -0.089601405 0.09372553 0.016694875 -0.056601405
-0.083901726 -0.08961493 0.055874065 0.059042994 -0.01067319 0.038368195 -0.01804935 -0.045101013
00000000: a806 adbc 6997 893a 96c3 943d bfb6 803c
00000010: 679a 303d 4394 4c3c 3176 72bc 6f08 08bd
00000020: 88e5 b0bd e893 18bd 9710 4f3d 611a 89bd
00000030: cf1e 97bd d441 b8bd ad1e bebd 9f60 ad3a
00000040: b9ea 16bb c117 8abc 2362 8cbd f618 a33b
00000050: bacd 9a3c ec74 1e3d 8f9f 533d 7bed 513d
00000060: 9e68 37bb f704 e73b adb3 9bbd 17a6 413d
00000070: d4eb 633d 09f5 b23d 905e 743d 7f00 79bd
00000080: 6ff0 2ebd f9fb 0fbc 1010 bd3d 30fb 00bd
00000090: 75e6 63bd 5388 643b cfc2 c53d 3846 ccbd
000000a0: 9746 1d3d 4f11 093d 12f2 303d 0eff b4bc
000000b0: 8289 43bc 4fa5 20bd b0fa 7abd 1831 9f3d
000000c0: be73 55bd e648 0eba c7f3 c9bb 1b3f 813c
000000d0: 865a 263c 796c d23d 0430 e3bb 1f28 e83a
000000e0: 7b46 433d 728e 80bd 8668 c0bc 63cc 8bbd
000000f0: 3810 ba3b 34cd 2f3d 1e68 90bd bfe6 edbc
00000100: d49f a83d c28f b2bc eacd d4bc 3dbc ccbc
00000110: 1f3a 95bd 7633 1fbd 5225 5bbd f155 51bb
00000120: f7a2 59bd 23a0 323d 9d80 d3bc d292 05bd
00000130: d8ff a23d ffd4 e23b 0bb3 f8bc c9a9 703c
00000140: fa43 67bd 6361 c73d 03d5 0ebd 2729 963d
00000150: cfdf b73d 412d cabd a9ae 1d3d af6f 693c
00000160: 05e7 f93c c85f 8abd 0188 353d d0cd 153b
00000170: f603 cb3d 1098 87bd c306 333d 09c1 14bd
00000180: bf72 853d 77e5 6ebd 0cfa 5d3d 9969 853c
00000190: 3ccf 29bc 69bd 4bbc 509b 3e3d 96c6 bd3d
000001a0: 413a 223b 6c4a 0a3d 90c0 32bd 7d8e 36bd
000001b0: 3699 0b3d 853d 83bc 3234 7ebd b202 863c
000001c0: 0c8c 473d 9162 c2bd cccc 97ba 8a90 843d
000001d0: b27e 833d 1f23 d4bc 1b7a 9c3a 9269 8a3d
000001e0: 0aff a7bd 3832 cbbb f30f 33bd ef2b bfbd
000001f0: 1de0 c13d ab73 933d 9873 143c 2303 453b
00000200: 23c5 9b3d aafe a43d 5b7e 403d 64ea eabc
00000210: 3a6f 87bc 41b3 94bd 837b 90bd d36b 98bd
00000220: e07f 70bc b629 b63d 55e9 133d 4ae8 533c
00000230: 2560 7cbd 878d 013d f6ad 82bc aa77 a0bd
00000240: 6f5b 393d 0f33 d4ba 3a38 c23c a16a 643d
00000250: b3db 773d d74b 4abd 6cbd b23d 9bf4 d1bc
00000260: cfe2 1f3d 1400 21bd b1e3 72bd 8cfd 9dbd
00000270: 7ac3 1c3d cb7f 68bd 84f8 efbc 5627 3abc
00000280: 1e1b 71bc b19a bd3c 53bb aebd 38f6 1fbb
00000290: 310a adbd 4e12 46bc 7185 35bc ad1e 1c3d
000002a0: 3f3a 943d 62e4 a1bd 53f3 853d aee5 61bd
000002b0: cbee 133d 430e 813d 9ca9 a03d 3545 5c3d
000002c0: ef43 de3c 53d6 96bc 9d2e b0bd 8b55 393d
000002d0: b469 aebd 8002 37bc eea0 c0bc 01ad 96bd
000002e0: 96db 2bbd ecfa e2bb 5857 c73d e20d b03d
000002f0: 9592 c3bc 098d 703d 5839 253c 2a73 883c
00000300: 54d8 e23c 05be 55bd 7030 a5bd 9a50 fe3c
00000310: 69df 8dbd a8c4 b1bc ce28 5ebc 4554 9cbd
00000320: 453a 863d 0573 cbbc f6cf 1c3d 8603 60bc
00000330: 54dd c2bc 41a9 cbbc e422 d6bc 9e30 f53c
00000340: dd11 4d3d 112e 0a3d 4b76 723d 6d9a 6b3d
00000350: ae97 2f3c d9fb 70bd 5e9b fa3c ce72 773d
00000360: 7035 7a3d b881 39bd 058f 63bd a8f5 473d
00000370: caf7 b5bd e262 43bc 4821 b23d 786f 90bd
00000380: 4a1a 79bc b57c a4bd e374 893d 9994 c53c
00000390: c44f 3b3c 1669 f0bc df6e a23d bd35 9c3d
000003a0: c2a1 063c 5cda 9ebc c149 b5bd f99a b2ba
000003b0: 90ba 973d c110 ebbc be55 183d 63b6 4b3c
000003c0: 6f51 3b3d c616 a73c 835d 933d 0b1c b6bc
000003d0: f180 b7bd 2cf3 bf3d b1c3 883c e0d6 67bd
000003e0: abd4 abbd 0888 b7bd 34dc 643d 11d7 713d
000003f0: 9ade 2ebc f827 1d3d 3bdc 93bc d7bb 38bd

bias_ih_l0 f4 [512]
0.026642445 -0.08609801 0.058511756 -0.0066050226 0.035097525 0.050277784 0.08233257 0.030799495
-0.060812317 0.07620284 -0.06476542 -0.016295522 0.071222045 -0.015572178 0.08547162 0.08493739
-0.008140406 0.06668152 -0.022205343 -0.043345585 0.0004990966 0.07921918 -0.022598855 0.01966678
-0.035163 -0.08007566 0.010649945 0.05976872 0.023362275 0.044593815 -0.07051983 -0.05251012
-0.054377005 -0.016693033 -0.036093246 0.072731696 -0.024273483 0.0306136 -0.03097261 0.06980713
-0.08694596 0.00068991486 -0.033487782 -0.021071011 -0.003919523 -0.010112854 -0.034346957 -0.068267524
0.023480112 0.022578051 -0.02173354 -0.09043723 -0.0560016 0.06373379 0.047113128 -0.017627014
-0.0061117606 -0.07463144 -0.040732395 -0.07842156 -0.004934898 0.030392023 -0.046450835 0.06167742
0.009309258 -0.053534452 0.024068275 0.04303849 -0.032499988 0.043670062 0.023482671 -0.08953333
0.030784607 0.07118004 0.049281456 0.07138834 0.012363152 0.0434617 0.042280648 0.020616945
-0.08874361 -0.0872741 0.054645278 0.01449285 0.023779724 0.04391731 0.089232825 -0.055356577
0.039017506 -0.07703064 -0.060672168 0.07438919 -0.06433283 0.08340427 -0.07010235 -0.07718979
-0.030033922 -0.0037898414 -0.014536342 -0.012281863 -0.001960834 0.027565407 0.012793238 0.0040464113
-0.06377453 0.061898664 0.06283324 -0.043813325 -0.012098373 -0.07555262 -0.0329812 -0.054117333
0.031571623 0.052419823 -0.078347676 -0.001971373 -0.033267386 -0.046698093 -0.0613661 -0.07436101
0.022689283 0.042757813 0.038942974 0.09051759 -0.030816475 -0.06495729 -0.010975231 -0.021702996
-0.05663473 -0.041452616 -0.06933856 -0.019499894 0.09146591 -0.08548111 -0.054601863 0.016152512
0.0020861682 0.03546994 -0.034285344 0.0055011166 -0.0753636 -0.040388852 -0.061541382 0.0014319505
-0.04379593 0.074348725 0.07865756 0.07536751 -0.039429724 0.025169052 -0.059844933 -0.017651586
0.0076440377 0.020293958 -0.0800053 -0.065333314 -0.07186397 -0.0048562284 -0.04468391 -0.07387633
-0.03144335 0.035489306 0.010272477 0.0022284703 0.103075266 -0.09771226 0.07090531 -0.025297755
0.048512653 -0.05479032 0.043219004 -0.0003587657 0.013186133 0.0075940383 -0.042428795 0.08592888
0.049736835 0.072623886 -0.07060201 0.07253344 -0.0140596535 -0.007933616 -0.0891253 0.046082895
0.028187638 -0.032466874 -0.04030755 0.01677456 -0.020796321 -0.0854326 0.051400103 0.08539142
0.010328412 -0.02306153 -0.03446678 -0.063950285 -0.09031199 0.0691581 0.042691924 -0.04474387
-0.010642117 -0.008766256 0.010017369 -0.06491675 0.02009046 0.021614052 -0.058525328 -0.061023038
-0.090753764 -0.05401346 0.05937579 -0.026326258 -0.018112792 0.04909042 0.046476837 -0.0064344085
0.017611278 0.017203389 -0.071275495 -0.08956351 0.003104665 -0.04245608 0.044467438 0.08300693
-0.045514155 -0.017060673 0.06030464 -0.024450244 0.018254045 0.048188 -0.074891 -0.0060525704
0.086753756 -0.046228915 -0.09007864 0.0036266816 -0.0059779133 -0.008366373 0.032330267 -0.055259775
-0.084687 -0.045384534 0.057956234 -0.039199196 -0.028049462 0.07300249 -0.00012112492 -0.03264904
-0.012099156 -0.015036063 0.025672236 0.034181744 0.056790255 -0.08077581 0.05655616 -0.08928909
00000000: 4241 da3c 2754 b0bd 06aa 6f3d f26e d8bb
00000010: 6cc2 0f3d 14f0 4d3d fa9d a83d 394f fc3c
00000020: 5616 79bd 3c10 9c3d bca3 84bd 307e 85bc
00000030: dddc 913d 7322 7fbc bf0b af3d a8f3 ad3d
00000040: 565f 05bc 5290 883d fbe7 b5bc 248b 31bd
00000050: ced5 023a aa3d a23d 3c21 b9bc 3a1c a13c
00000060: 1407 10bd b5fe a3bd 1b7d 2e3c 0cd0 743d
00000070: 3e62 bf3c 01a8 363d b36c 90bd da14 57bd
00000080: 6cba 5ebd d4bf 88bc 83d6 13bd 5bf4 943d
00000090: 2fd9 c6bc 5fc9 fa3c 45ba fdbc 0af7 8e3d
000000a0: b910 b2bd 67db 343a 7c2a 09bd 1d9d acbc
000000b0: 586f 80bb 62b0 25bc 65af 0cbd d8cf 8bbd
000000c0: 5d59 c03c 9bf5 b83c 890a b2bc 2837 b9bd
000000d0: ef61 65bd dc86 823d b2f9 403d 8766 90bc
000000e0: 2a45 c8bb 5ed8 98bd 03d7 26bd 7c9b a0bd
000000f0: edb4 a1bb b1f8 f83c 3b43 3ebd 76a1 7c3d
00000100: dc85 183c f146 5bbd d52a c53c 2149 303d
00000110: b51e 05bd 61df 323d bb5e c03c 405d b7bd
00000120: 0030 fc3c d7c6 913d 5adb 493d 0d34 923d
00000130: d18e 4a3c e504 323d 792e 2d3d dee4 a83c
00000140: 36bf b5bd c3bc b2bd bad3 5f3d 6b73 6d3c
00000150: b2cd c23c a3e2 333d b3bf b63d 94bd 62bd
00000160: d2d0 1f3d 3dc2 9dbd 6183 78bd 5c59 983d
00000170: eec0 83bd dccf aa3d d291 8fbd ae15 9ebd
00000180: b309 f6bc fd5e 78bb d629 6ebc de39 49bc
00000190: 5681 00bb d9d0 e13c bb9a 513c c297 843b
000001a0: 399c 82bd 7489 7d3d b7ae 803d 9a75 33bd
000001b0: 4138 46bc 55bb 9abd 4b17 07bd 23aa 5dbd
000001c0: 3f51 013d 2bb6 563d bf74 a0bd 2732 01bb
000001d0: 6243 08bd 8046 3fbd 055b 7bbd 964a 98bd
000001e0: e0de b93c d122 2f3d ab82 1f3d 4961 b93d
000001f0: d572 fcbc 5408 85bd 75d1 33bc 7bca b1bc
00000200: d2f9 67bd 38ca 29bd 6001 8ebd 3ebe 9fbc
00000210: 7b52 bb3d b810 afbd 34a6 5fbd 4652 843c
00000220: 18b8 083b ee48 113d ca6e 0cbd b642 b43b
00000230: 3b58 9abd c86e 25bd d112 7cbd 49b0 bb3a
00000240: 5c63 33bd 2544 983d 3717 a13d 485a 9a3d
00000250: 1081 21bd 542f ce3c f61f 75bd 0f9a 90bc
00000260: d67a fa3b 843f a63c d2d9 a3bd 79cd 85bd
00000270: 6b2d 93bd ff20 9fbb 7a06 37bd 794c 97bd
00000280: beca 00bd 3c5d 113d e44d 283c 870b 123b
00000290: 2019 d33d 5e1d c8bd ce36 913d 3d3d cfbc
000002a0: 34b5 463d d16b 60bd 6906 313d b818 bcb9
000002b0: a60a 583c 69d7 f83b d1c9 2dbd 7bfb af3d
000002c0: dab8 4b3d d5bb 943d c997 90bd 6a8c 943d
000002d0: 765a 66bc fffb 01bc 5387 b6bd 6bc1 3c3d
000002e0: c3e9 e63c fcfb 04bd 8819 25bd cd6a 893c
000002f0: 0c5d aabc 49f7 aebd ea88 523d b2e1 ae3d
00000300: 8038 293c 89eb bcbc 0a2d 0dbd 5ef8 82bd
00000310: 7ef5 b8bd c3a2 8d3d badd 2e3d 5945 37bd
00000320: 465c 2ebc 58a0 0fbc e41f 243c 13f3 84bd
00000330: c094 a43c f40f b13c 41b8 6fbd 4bf3 79bd
00000340: 1cdd b9bd 383d 5dbd 0734 733d 2aaa d7bc
00000350: 4761 94bc 0913 493d 7f5e 3e3d bbd7 d2bb
00000360: 8745 903c 1fee 8c3c e3f8 91bd 136d b7bd
00000370: a377 4b3b 6de6 2dbd 7d23 363d 8aff a93d
00000380: 0d6d 3abd d3c2 8bbc 0002 773d e14b c8bc
00000390: 8289 953c c860 453d 7460 99bd a454 c6bb
000003a0: f4ab b13d 885a 3dbd 267b b8bd 9fad 6d3b
000003b0: 5fe2 c3bb 1d13 09bc be6c 043d 1358 62bd
000003c0: 6170 adbd 22e5 39bd 8463 6d3d 568f 20bd
000003d0: fcc7 e5bc 5482 953d 7204 feb8 00bb 05bd
000003e0: 8a3b 46bc d259 76bc 954e d23c 2802 0c3d
000003f0: e69c 683d ca6d a5bd 6fa7 673d 33dd b6bd
