Single Battery Model/6. LSTM Models/model_B0006_discharge_mm.pth (torch, 334412 bytes, 7 tensors)

weight_ih_l0 f4 [512, 30]
0	0x3bb52f91	0.005529352
1	0x3da378f8	0.07982057
2	0xbd1f1f60	-0.03884828
3	0x3d02da54	0.031946495
4	0x3c131517	0.008977196
5	0xbdafb45b	-0.08579322
6	0xbd0b586c	-0.034019873
7	0xbccbe867	-0.024891092
8	0x3cee3c84	0.02908159
9	0x3ca13d84	0.019682653
10	0x3ccbf099	0.024895
11	0x3d9ace9f	0.07558941
12	0xbd39e4e6	-0.04538431
13	0xbd655eea	-0.05599872
14	0x3cd82421	0.026384415
15	0xbd46bab0	-0.048517883
16	0x3bde0106	0.0067750243
17	0xbda4ebd7	-0.080527954
18	0x3d286946	0.04111602
19	0x3cb9383e	0.022609826
20	0xbd790607	-0.060796764
21	0xbd094b6a	-0.033519186
22	0x3d1c5ae4	0.038172618
23	0x3c108c90	0.008822575
24	0xbdb27e25	-0.087154664
25	0x3ca3c804	0.019992836
26	0x3d70b304	0.058764473
27	0xbd01b11d	-0.03166305
28	0x3c519027	0.012790716
29	0x3d215239	0.039385054
30	0x3d5587ac	0.05213134
31	0xbcf85ebb	-0.030318609
32	0x3d03a7ff	0.032142635
33	0xbcfab033	-0.030601596
34	0xbd03f4dd	-0.03221594
35	0xbcbc3bf1	-0.022977801
36	0x3c88ea0f	0.01671317
37	0xbb93afc7	-0.0045070383
38	0x3d4f773a	0.050650813
39	0x3cef72c4	0.02922953
40	0xbd8d32d1	-0.06894458
41	0x3d42ebe3	0.04758824
42	0xbd327d64	-0.043576613
43	0xbd548cb5	-0.051892
44	0xbda6ef7f	-0.08151149
45	0x3cafe273	0.021470284
46	0x3caf097e	0.02136683
47	0x3d3f20ce	0.046662144
48	0x3d30635d	0.04306351
49	0xbd23d421	-0.039997224
50	0xbc61eeea	-0.013789872
51	0x3d78398f	0.060601767
52	0x3c87b708	0.016566768
53	0x3c0bbcae	0.008528871
54	0xbdb3d61f	-0.08781075
55	0xbd57aaba	-0.052653052
56	0xbca00c37	-0.019537074
57	0x3ca6dba1	0.0203684
58	0x3d4a67bb	0.04941533
59	0x3d7d668f	0.061865386
60	0xbc217c09	-0.009856232
61	0xbd3b08c2	-0.04566265
62	0x3c472291	0.012154237
63	0x3d853d7c	0.06505868
64	0x3da16b35	0.07881776
65	0x3cd74688	0.02627875
66	0x3cee1a99	0.029065417
67	0xbc88544d	-0.01664176
68	0x3d2bff45	0.04199149
69	0x3c166874	0.009180177
70	0x3b071e16	0.0020617298
71	0x3c9d6bb1	0.01921639
72	0xbc84a62f	-0.016192524
73	0x3d967ac9	0.07347638
74	0x3d6b2c66	0.05741539
75	0x3db3f9cc	0.08787879
76	0x3ca146a9	0.019687014
77	0x3d842788	0.064528525
78	0xbdad7841	-0.08470202
79	0x3c37e70a	0.011224518
80	0x3c62e870	0.013849363
81	0xbcc5fcdd	-0.024168426
82	0xbcb9e115	-0.022690335
83	0xbd0747b4	-0.033027366
84	0xbc41741d	-0.011807469
85	0x3d9aefc0	0.0756526
86	0xbda71fbb	-0.08160349
87	0x3d1e67f9	0.038673375
88	0x3d45a969	0.048257265
89	0x3c8a3076	0.016868811
90	0xbd857b97	-0.065177135
91	0xbcff2d0d	-0.031149412
92	0x3d753599	0.059865568
93	0xbc97bdef	-0.018523185
94	0xbd0e94a0	-0.03480971
95	0x3dbf37e5	0.09336833
96	0xbd65ea6b	-0.05613176
97	0xbd71d309	-0.05903915
98	0x3dd178d9	0.10228128
99	0x3d746db4	0.059674934
100	0xbd40e861	-0.047096614
101	0x3d258208	0.04040721
102	0xbd3e28eb	-0.04642574
103	0xbd4a1265	-0.04933395
104	0xbd4ca5b8	-0.04996273
105	0x3cd35154	0.025795616
106	0xbc31a69f	-0.010842948
107	0x3ce25bf2	0.027631734
108	0xbc643ba6	-0.013930237
109	0x3c70084f	0.014650418
110	0x3d96e4ba	0.07367845
111	0x3cf5f038	0.030021772
112	0x3dc5c408	0.096565306
113	0x3d51d8ed	0.051232267
114	0x3c0df0a2	0.008663328
115	0x3cffe8b8	0.031238899
116	0x3daada1f	0.083423845
117	0x3d12a253	0.035799336
118	0x3cd72766	0.026263904
119	0x3d895212	0.06705107
120	0xbd4a05db	-0.04932199
121	0xbc9dfa02	-0.019284252
122	0x3bb572a7	0.0055373493
123	0x3d3be8fb	0.045876484
124	0xbd04779d	-0.032340635
125	0xbd906c5f	-0.0705192
126	0x3c1c8e8a	0.009555468
127	0xbd969fde	-0.07354711
128	0xbc4577c6	-0.012052482
129	0x3da27d7d	0.07934091
130	0xbd97772a	-0.073957756
131	0x3d90b5ab	0.070659004
132	0xbb621e47	-0.003450291
133	0xbdb42695	-0.087964214
134	0xbd0cc224	-0.034364834
135	0xbda4987a	-0.08036895
136	0xbda9fd7d	-0.08300302
137	0x3ba7dad9	0.005122524
138	0x3bb53cf1	0.0055309464
139	0xbd967659	-0.07346792
140	0x3da46d3c	0.08028647
141	0xbd8a7b85	-0.06761841
142	0x3c40f613	0.011777419
143	0x3d7bf088	0.061508685
144	0x3c591257	0.0132490015
145	0xbc79e418	-0.015252136
146	0x3d08eb5f	0.033427592
147	0x3d337ff1	0.043823186
148	0x3d9c8278	0.076420724
149	0x3d2ff738	0.042960376
150	0x3dade41e	0.084907755
151	0xbd9ba876	-0.07600491
152	0x3db0b3f5	0.08628074
153	0xbd9c1075	-0.076203264
154	0x3d4067d4	0.04697402
155	0xbcea8fc4	-0.028633006
156	0x3d4e37d2	0.050346203
157	0x3ce31900	0.027721882
158	0xbd6ad9f0	-0.057336748
159	0x3b6b9d17	0.0035951787
160	0xbcb23267	-0.02175255
161	0x3d57ec24	0.052715436
162	0xbdaae381	-0.08344174
163	0x3d8a4ad6	0.06752555
164	0x3dad8851	0.08473266
165	0xbd09836e	-0.033572607
166	0xbd2b0ccc	-0.04176025
167	0xbb9d455c	-0.004799528
168	0xbd71e467	-0.059055712
169	0xbba6870d	-0.0050820173
170	0xbd263f1e	-0.040587537
171	0x3d20602d	0.03915422
172	0x3daa8f84	0.08328155
173	0x3d470096	0.048584543
174	0xbcdeacd1	-0.027182015
175	0xbd0bd0be	-0.03413462
176	0x3b6617ff	0.0035109518
177	0xbd51565b	-0.051107746
178	0xbc897773	-0.01678059
179	0x3d688e8b	0.056776565
180	0x3d417394	0.047229365
181	0x3d1a26a7	0.037634518
182	0xbd980306	-0.07422452
183	0xbd5a54b5	-0.05330344
184	0xbda6668a	-0.081250265
185	0x3d8b6b3c	0.06807563
186	0x3d2031bb	0.039109927
187	0x3d98b7ea	0.07456954
188	0xbd12c476	-0.03583189
189	0xbd07b901	-0.033135418
190	0xbda0376d	-0.07823072
191	0x3d5bd373	0.05366845
192	0xbd39400b	-0.04522709
193	0xbdaf0a3d	-0.08546875
194	0x3d0f4f86	0.03498795
195	0x3da67b65	0.081290044
196	0xbd3ea995	-0.046548445
197	0xbdb76a5d	-0.08955834
198	0x3c2939dc	0.010328736
199	0x3cca6286	0.024705183
200	0x3c80c5dc	0.015719347
201	0x3d420e6d	0.04737704
202	0x3d8ba70e	0.068189725
203	0x3d489166	0.048966788
204	0x3d9a835b	0.07544585
205	0x3cd06419	0.025438355
206	0x3d01b542	0.031667
207	0x3d8fef31	0.07028044
208	0x3d72039a	0.059085466
209	0x3d50d1ae	0.050981216
210	0xbac59c0e	-0.0015076415
211	0xbcdc4c01	-0.02689171
212	0x3d9b0133	0.07568588
213	0xbda0efe9	-0.07858259
214	0x3ce134da	0.027491022
215	0x3d3eebde	0.04661166
216	0x3d9215e3	0.07133081
217	0xbc46eece	-0.012141896
218	0xbda318cf	-0.07963716
219	0xbd78c7c5	-0.06073739
220	0xbd06b32e	-0.032885723
221	0xbcaae6be	-0.02086198
222	0xbdb361d9	-0.08758897
223	0x3b235c08	0.002492668
224	0x3d540dcd	0.051770974
225	0xbda5fbed	-0.08104692
226	0x3d7e6f73	0.062118005
227	0x3d195608	0.03743556
228	0xbdb87454	-0.09006563
229	0xbccdbdef	-0.025114981
230	0xbd1a9c85	-0.037746925
231	0xbacd7542	-0.0015675204
232	0x3cb15d60	0.02165097
233	0xbc3cdc86	-0.011527186
234	0x3c76c790	0.015062228
235	0xbc0b22dd	-0.008492199
236	0x3b3b45f6	0.0028575636
237	0xbd1d3758	-0.038382858
238	0xbd685616	-0.056722723
239	0xbc07addb	-0.0082811965
240	0xbc7572ae	-0.014980955
241	0xbdae3ed5	-0.08508078
242	0xbdc424b6	-0.095773146
243	0xbc945bd7	-0.018110199
244	0xbdc43ab9	-0.09581513
245	0x3ccbecc7	0.024893178
246	0xbdad3f40	-0.084593296
247	0x3d83cab9	0.06435151
248	0xbce7d409	-0.028299348
249	0xbda97800	-0.08274841
250	0x3d30b953	0.04314549
251	0x3d058a6d	0.032602716
252	0x3dac1162	0.08401753
253	0x3d1e31eb	0.038621824
254	0x3d7a84fa	0.061161973
255	0x3d06c486	0.032902263

weight_hh_l0 f4 [512, 128]
0	0xbcfcba0c	-0.030850433
1	0x3d71b1a3	0.0590073
2	0x3d7422b2	0.0596034
3	0x3d3b9495	0.045795996
4	0xbd61e75e	-0.05515229
5	0x3d8aa411	0.067695744
6	0x3d07bf67	0.03314152
7	0xbdbb70ca	-0.09152372
8	0x3cdc6108	0.026901737
9	0xbd7b0979	-0.06128833
10	0xbc81ab7f	-0.015828846
11	0x3d57797b	0.052606087
12	0x3dae1475	0.084999956
13	0x3d2df2e7	0.042467978
14	0x3d27934c	0.040911958
15	0xbb611cff	-0.0034349558
16	0x3cb98b60	0.022649467
17	0x3dc0d4df	0.09415602
18	0x3c87e67c	0.016589396
19	0x3d898e2a	0.06716569
20	0xbc0746db	-0.008256639
21	0x3d140a3a	0.036142565
22	0x3d9d30a5	0.07675294
23	0x3d7f066e	0.06226199
24	0xbcebf73f	-0.02880442
25	0x3c1e35f5	0.009656419
26	0x3d88b15c	0.066744536
27	0xbd840b12	-0.06447424
28	0x3d91afc0	0.071136
29	0x3d66c378	0.056338757
30	0x3a7f2bde	0.0009734015
31	0xbd07d231	-0.03315944
32	0xbda09c78	-0.07842344
33	0x3d07c7b3	0.033149432
34	0xbc79a0cf	-0.015236094
35	0xbc9a95ab	-0.018870195
36	0xbda0f61d	-0.078594424
37	0x3d973bc7	0.073844485
38	0xbd1aff05	-0.03784086
39	0x3d6b47f6	0.057441674
40	0xbc0036d3	-0.007825571
41	0xbd28d3cb	-0.041217607
42	0x3d9e2c8f	0.077233426
43	0x3d0099a1	0.031396512
44	0x3cffa017	0.031204266
45	0xbca15d13	-0.019697702
46	0xbc96c503	-0.01840449
47	0xbd38b0e7	-0.045090582
48	0x3d38c8f3	0.045113515
49	0x3d1c2928	0.038125187
50	0x3db3bd09	0.0877629
51	0xbcbec02e	-0.023284998
52	0xbc366d73	-0.011134493
53	0x3d9562b0	0.07294214
54	0xbc8bb949	-0.017056124
55	0xbcb7db6f	-0.022443501
56	0x3d5f67ee	0.054542474
57	0xbd4b425b	-0.04962383
58	0x3da3c43b	0.07996412
59	0x3d7b3973	0.061334085
60	0x3d854d69	0.065089054
61	0xbd379e94	-0.044828966
62	0xbdaa7343	-0.08322766
63	0x3c2c6018	0.010520957
64	0x3d2ba9b4	0.04190989
65	0xbc9d715a	-0.01921909
66	0x3c7ca8c2	0.015421094
67	0xbd43ea74	-0.047831014
68	0xbd251291	-0.04030091
69	0xbd3cad4c	-0.046063706
70	0xbcb9ec5c	-0.022695713
71	0xbb0c5fda	-0.0021419437
72	0x3d42e754	0.047583893
73	0xbc722b88	-0.0147808865
74	0xbd896a7e	-0.06709765
75	0x3d82e78b	0.063918196
76	0xbd73490a	-0.059395827
77	0xbcd72a0d	-0.026265169
78	0x3c8553b7	0.01627527
79	0xbd3f3789	-0.04668382
80	0x3da47385	0.08029846
81	0x3d82d1f5	0.063877024
82	0xbd04d356	-0.03242811
83	0xbd1e8d6e	-0.038709097
84	0xbd9098a3	-0.07060363
85	0x3c9f2b5e	0.019429859
86	0xbdb5d104	-0.08877757
87	0x3c082726	0.008310115
88	0xbd3bb2b7	-0.045824733
89	0x3afa761a	0.0019108683
90	0xbcde3cb5	-0.027128557
91	0xbd46a4a4	-0.048496857
92	0x3da50444	0.08057454
93	0x3c44019f	0.011963277
94	0x3db4d4a6	0.08829622
95	0xbd655635	-0.055990417
96	0xbd81d1a9	-0.063388176
97	0xbc9d6ad1	-0.019215973
98	0xbd92e167	-0.07171898
99	0x3c1fef7b	0.009761686
100	0xbcfe9fec	-0.031082116
101	0x3d9c4131	0.07629622
102	0x3d9d9fca	0.07696493
103	0xbda32a74	-0.07967082
104	0x3d09f833	0.033683967
105	0x3d496e7d	0.049177635
106	0xbd5e560d	-0.054281283
107	0x3d6cd784	0.05782272
108	0x3be6b9d7	0.007041197
109	0xbd3c248f	-0.045933302
110	0xbd146a7c	-0.036234364
111	0x3d548a7f	0.051889893
112	0x3da87969	0.08226282
113	0x3d2c5bba	0.042079665
114	0x3db626c6	0.08894114
115	0xbd7bc388	-0.06146577
116	0xbd8e6fee	-0.06954943
117	0xbd1fef8f	-0.03904682
118	0x3d42e233	0.047579
119	0xbd541cec	-0.051785395
120	0xbd2250fc	-0.039628014
121	0xbc369aea	-0.011145333
122	0xbc2aafb6	-0.010417869
123	0x3d9f7338	0.07785648
124	0x3d830eb2	0.06399287
125	0x3d4e5a87	0.050379302
126	0x3d07d7cf	0.033164795
127	0x3aed03c0	0.0018082783
128	0xbd992968	-0.07478601
129	0xbdae5a1e	-0.08513282
130	0x3d52ccd5	0.051464874
131	0x3db61b61	0.08891941
132	0x3cc70187	0.02429272
133	0x3d5237a9	0.051322613
134	0xbd095ae4	-0.033533946
135	0xbd2ab228	-0.04167381
136	0x3d2edccd	0.04269104
137	0xbccbc4a0	-0.024874032
138	0xbd5d9dad	-0.05410545
139	0x3d98fc9e	0.07470058
140	0xbbd8a060	-0.006610915
141	0xbbc983d2	-0.0061497474
142	0x3c661d30	0.014045045
143	0xbc446cd2	-0.011988835
144	0x3d6b4d33	0.05744667
145	0x3c914f33	0.01773796
146	0x3d395d51	0.04525501
147	0x3cc018ea	0.02344938
148	0x3d9b5d7a	0.075861886
149	0x3d0cab9c	0.034343347
150	0x3d2ea13c	0.042634234
151	0x3d90bdb4	0.07067433
152	0xbd81b3eb	-0.06333145
153	0x3c57058c	0.013123881
154	0xbd432338	-0.04764101
155	0xbd5d4509	-0.054020915
156	0x3b35716c	0.0027686013
157	0xbd69a616	-0.057043158
158	0xbca957f6	-0.020671826
159	0xbd6e0064	-0.05810584
160	0x3cf1e76a	0.029529292
161	0x3c4e3568	0.012585975
162	0x3be22eb6	0.006902541
163	0xbaa899f3	-0.0012863263
164	0xbd8eecaf	-0.069787376
165	0x3ca9cb16	0.020726722
166	0x3d997e38	0.074947774
167	0x3bfa69ef	0.007642023
168	0x3d81a2e5	0.06329898
169	0xbd1828f9	-0.03714845
170	0x3da2023c	0.079105824
171	0xbd47dc66	-0.048794173
172	0xbdb591b5	-0.08865682
173	0xbce3e97b	-0.027821293
174	0x3d8eb23a	0.06967588
175	0xbb6ad807	-0.0035834329
176	0xbb53770f	-0.003226701
177	0xbd30f37b	-0.04320095
178	0x3c076314	0.008263368
179	0x3cebc63f	0.028781055
180	0xbd45298b	-0.04813532
181	0xbd067979	-0.03283069
182	0x3d44238b	0.04788546
183	0x3a12fa76	0.00056067796
184	0x3d56ced2	0.052443333
185	0x3db86665	0.09003905
186	0x3c335729	0.010946074
187	0xbd54f50a	-0.0519915
188	0x3bad853b	0.0052954233
189	0xbd5d6530	-0.054051578
190	0xbc4045cb	-0.01173539
191	0x3d1df051	0.03855926
192	0xbd8f1280	-0.069859505
193	0xbd0ac363	-0.03387774
194	0x3c929b1c	0.017896228
195	0x3c3c8f7b	0.011508818
196	0x3bd3f9f5	0.006469006
197	0xbd90f4f4	-0.07077971
198	0x3da7359c	0.08164522
199	0xbd365714	-0.044516638
200	0xbd39ba6c	-0.0453438
201	0xbccb4a9c	-0.02481585
202	0xbd3e9534	-0.04652901
203	0xbd20848f	-0.039188918
204	0xbd90b064	-0.07064894
205	0x3d6592de	0.056048267
206	0xbd80ca3a	-0.06288572
207	0xbd87a76b	-0.06623729
208	0x3d07a8b9	0.03311989
209	0xbd6b6820	-0.05747235
210	0xbb48d67c	-0.003064542
211	0xbb3ba8bd	-0.0028634511
212	0x3d93949b	0.072060786
213	0xbd1d6795	-0.03842886
214	0xbd284a42	-0.041086443
215	0xbd146140	-0.036225557
216	0xbd3dccf5	-0.04633804
217	0xbbca92ff	-0.006182074
218	0xbdbdabc2	-0.09261276
219	0x3ce70b8f	0.028203754
220	0xbc0aba4a	-0.008467266
221	0xbc04a39e	-0.00809565
222	0x3d2fecd7	0.042950477
223	0x3d22bc6f	0.039730486
224	0x3d7471ba	0.05967877
225	0xbc1ce00f	-0.009574904
226	0xbd7e4c16	-0.06208428
227	0x3dabd563	0.0839031
228	0xbd97e8ef	-0.074174754
229	0x3b1ae301	0.002363384
230	0x3d0a5fc3	0.03378273
231	0xbd90b341	-0.0706544
232	0xbd0e0fa5	-0.03468289
233	0x3db363cd	0.0875927
234	0x3c334cac	0.010943573
235	0x3dc675ea	0.09690459
236	0xbdb61b94	-0.08891979
237	0x3d75ece2	0.060040362
238	0x3d3374a8	0.043812424
239	0x3d945a33	0.07243767
240	0x3d7c3046	0.061569475
241	0xbd6a2794	-0.05716665
242	0xbc3e0731	-0.011598394
243	0x3d8da611	0.0691644
244	0x3d627789	0.05528978
245	0xbcfd7020	-0.030937254
246	0xbc1ef0bb	-0.009700949
247	0xbda268d9	-0.07930154
248	0x3d08f4b7	0.033436503
249	0xbc99a909	-0.01875736
250	0xbc6acb7b	-0.01433074
251	0x3db78ac1	0.08962012
252	0xbdb1a241	-0.086735256
253	0xbd8fd07b	-0.07022186
254	0xbd675c25	-0.05648436
255	0xbd46d2b7	-0.048540797

bias_ih_l0 f4 [512]
0	0x3d510262	0.051027663
1	0xbd55b92d	-0.05217855
2	0x3d9012dd	0.07034848
3	0x3d582f0f	0.052779254
4	0x3da65c09	0.08123023
5	0x3d90dd46	0.070734546
6	0x3d452b11	0.048136774
7	0xbcc2bc81	-0.023771526
8	0xbd9cd3ba	-0.07657571
9	0xbd2f9d69	-0.042874727
10	0xbbd27090	-0.00642211
11	0x3c1bef4a	0.0095175
12	0xbda384e2	-0.0798433
13	0xbca9841c	-0.020692877
14	0x3c1066aa	0.0088135395
15	0xbd25739f	-0.040393468
16	0xbcea9c0a	-0.028638858
17	0x3dae08ca	0.0849777
18	0x3d1dab29	0.03849331
19	0xbdae4595	-0.085093655
20	0xbdab09a8	-0.08351451
21	0xbce6fea0	-0.028197587
22	0xbc8dc592	-0.017306123
23	0xbca4424b	-0.020051142
24	0xbd389ea8	-0.04507318
25	0x3da420c2	0.080140606
26	0xbc7d35e2	-0.015454741
27	0xbdae12b1	-0.08499659
28	0x3cbd81d2	0.023133192
29	0xbd0da92e	-0.03458517
30	0xbd1d2131	-0.038361732
31	0xbccf1f5a	-0.025283504
32	0xbd2a7a1e	-0.041620366
33	0x3d78563b	0.06062911
34	0x3d0decc4	0.034649625
35	0xbcd68081	-0.026184322
36	0x3d3f2d39	0.046673987
37	0x3ab4da8c	0.0013798042
38	0xbcfdd06f	-0.030983178
39	0xbdabd52a	-0.08390267
40	0x3d848047	0.064697795
41	0xbc0beb21	-0.008539946
42	0x3c90887a	0.017643202
43	0xbda29f0e	-0.079404935
44	0xbd7440e2	-0.05963219
45	0xbd7d8090	-0.061890185
46	0x3d30225c	0.043001518
47	0x3bf0d8a8	0.007350046
48	0xbd149099	-0.03627071
49	0x3ccc1923	0.02491433
50	0xbd09b435	-0.033619124
51	0xbdb4e6ea	-0.08833106
52	0x3d98f11c	0.07467863
53	0x3da90181	0.0825224
54	0x3d4f072d	0.050543953
55	0x3ca9a841	0.020710113
56	0xbcacb0aa	-0.021080334
57	0xbd44d172	-0.048051305
58	0xbd8911f4	-0.066928774
59	0xbce2d7f7	-0.02769087
60	0xbd918321	-0.07105089
61	0x3d0c87f0	0.034309328
62	0x3d916830	0.0709995
63	0x3dab103b	0.08352705
64	0xbc57252b	-0.01313142
65	0xbd221c7b	-0.039577942
66	0xbd106eb1	-0.035261814
67	0x3d956e94	0.07296482
68	0xba4227e6	-0.0007406458
69	0xbd5395df	-0.0516566
70	0xbd34cbc2	-0.04413963
71	0x3d2734f6	0.04082199
72	0x3d205bf7	0.039150205
73	0xbbf058b8	-0.007334795
74	0xbd99a0b7	-0.07501357
75	0xbd8989f1	-0.06715763
76	0x3d08b621	0.033376817
77	0x3d08f751	0.033438984
78	0xbd2c3b52	-0.04204876
79	0xbc95ed52	-0.01830164
80	0xbcb79876	-0.022411566
81	0xbb6e316b	-0.0036345373
82	0x3d8ac008	0.06774908
83	0x3d534835	0.051582534
84	0x3d16efdf	0.036849853
85	0xbc24d003	-0.0100593595
86	0x3d9e6b87	0.07735353
87	0xbd2efc7c	-0.042721257
88	0xbdb01354	-0.085974365
89	0xbd9c93d8	-0.076453865
90	0x3c4f2972	0.012644159
91	0xbd162a7a	-0.036661603
92	0x3c24ec68	0.010066129
93	0x3ceb7556	0.028742474
94	0x3cb9d947	0.022686614
95	0x3d4803b4	0.048831657
96	0x3cb6501a	0.022254992
97	0x3d2a3d4c	0.041562364
98	0xbca394d0	-0.01996842
99	0xbc32048c	-0.010865342
100	0xbd82fd8c	-0.063960165
101	0xbdaa7a2d	-0.083240844
102	0xbcba131d	-0.022714192
103	0x3d995f32	0.0748886
104	0x3cf35086	0.029701483
105	0x3d4f1e13	0.05056579
106	0xbcf93205	-0.030419359
107	0xbd3d0f98	-0.04615745
108	0x3cae67a2	0.02128965
109	0x3d7fa70a	0.06241516
110	0x3bcfec52	0.0063453102
111	0x3cc64f1e	0.024207648
112	0xbd56d169	-0.052445803
113	0xbd92464a	-0.07142313
114	0x3da63a2a	0.08116563
115	0xbd3ae7c5	-0.04563119
116	0x3d5f42a6	0.05450692
117	0xbd30d5c3	-0.04317261
118	0xbd993d25	-0.074823655
119	0xbc1f601b	-0.009727503
120	0x3d335031	0.04377765
121	0x3cb9604e	0.02262893
122	0xbd8c1313	-0.068395756
123	0xba97172a	-0.0011527289
124	0xbd1319a8	-0.03591314
125	0xbd9a2136	-0.07525866
126	0xbaee6cd9	-0.0018190398
127	0x3ca5f470	0.020258158
128	0xbd6a8bc7	-0.05726221
129	0xbd3e1047	-0.046402242
130	0x3d53ced8	0.051710933
131	0x3c33dea8	0.010978378
132	0x3d98d7a3	0.074630044
133	0x3da810df	0.08206343
134	0x3c818f33	0.015815353
135	0x3cc5c8cf	0.024143605
136	0x3ce34227	0.027741505
137	0xbda62f5a	-0.081145
138	0x3d3d783f	0.046257254
139	0x3d1bb790	0.038016856
140	0xbd03646c	-0.03207819
141	0xbd85ef5a	-0.06539793
142	0x3d1bea5a	0.038065292
143	0x3d75323e	0.059862368
144	0x3d54a77b	0.051917534
145	0xbd9941f6	-0.07483284
146	0xbd868839	-0.06568951
147	0x3dac4c9c	0.084130496
148	0x3baeafd8	0.005331021
149	0xbbac9456	-0.0052667065
150	0x3cd1def9	0.025619017
151	0x3b38b29b	0.002818263
152	0xbcc75cdf	-0.024336277
153	0xb813c8ce	-3.5234545e-05
154	0x3a83ae1a	0.0010046393
155	0x3d903e29	0.07043106
156	0xbcb4f7ae	-0.02209076
157	0xbc970b04	-0.01843787
158	0x3d26e89a	0.04074917
159	0xbcc747e2	-0.024326269
160	0x3d40ed57	0.047101345
161	0xbccecf0e	-0.025245216
162	0xbd84c511	-0.064829
163	0xbd7cb65d	-0.061697353
164	0xbce71a45	-0.028210768
165	0x3d1f0231	0.03882045
166	0x3d2e587f	0.042564865
167	0xbd83d29e	-0.064366564
168	0x3d69dabf	0.05709338
169	0x3d72ab13	0.05924518
170	0xbd809d14	-0.0627996
171	0xbd993ab8	-0.07481903
172	0xbd040c75	-0.032238442
173	0xbd6d268a	-0.05789808
174	0xbda349f4	-0.0797309
175	0xbd51cf9d	-0.051223386
176	0x3d982f68	0.07430917
177	0x3dad8527	0.084726624
178	0x3d034c5d	0.032055248
179	0xbd139467	-0.0360302
180	0xbca70725	-0.020389149
181	0xb9eeb0f5	-0.0004552674
182	0x3c03625e	0.008019058
183	0xbd7f09ec	-0.06226532
184	0xbda6a658	-0.08137196
185	0x3d4b756b	0.049672525
186	0xbcf39fc2	-0.029739264
187	0xbd65db4a	-0.056117333
188	0x3acffaa0	0.0015867539
189	0xbda5fa50	-0.08104384
190	0xbcf9df77	-0.030502064
191	0x3caaf9de	0.0208711
192	0xbca210f8	-0.019783482
193	0x3d0311be	0.031999342
194	0x3d365991	0.04451901
195	0x3ccc2298	0.02491884
196	0xbc7ef379	-0.015560978
197	0x3d8f8083	0.070069335
198	0x39fad4a4	0.00047842145
199	0xbcd779a3	-0.026303118
200	0xbd4e68f6	-0.050393067
201	0x3d867556	0.06565349
202	0xbc053a5a	-0.008131588
203	0x3d57a13d	0.052644003
204	0x3d11df1f	0.035613175
205	0xbcc3bfcc	-0.023895167
206	0x3b98bf40	0.0046614707
207	0x3d260228	0.0405294
208	0x3db70fe1	0.089385755
209	0xbd8e2ed5	-0.06942526
210	0xbd0bb9d8	-0.03411278
211	0x3dd197e6	0.102340505
212	0x3c95ec3c	0.018301122
213	0xbd87fdde	-0.06640218
214	0xbd6c21e5	-0.05764951
215	0x3d170313	0.036868166
216	0xbdb97e21	-0.0905726
217	0x3dac40df	0.08410811
218	0x3d741727	0.059592392
219	0x3d4851ac	0.048906013
220	0x3d99463b	0.074840985
221	0xbb6c3f01	-0.0036048295
222	0xbdb8af9a	-0.09017868
223	0x3db73311	0.08945287
224	0x3d135847	0.03597286
225	0xbd53a5ee	-0.051671915
226	0x3db0498d	0.08607779
227	0x3c039dce	0.008033229
228	0xbb3578ea	-0.0027690479
229	0x3c8c8fa8	0.017158344
230	0xbd4ba79d	-0.049720395
231	0xbd87d8fe	-0.06633185
232	0xbd2e959f	-0.04262316
233	0xbd1b0e68	-0.037855536
234	0xbd213fa4	-0.039367333
235	0x3c93b213	0.018029248
236	0x3d1452d3	0.0362118
237	0x3db60219	0.08887119
238	0xbcdb01c5	-0.026734242
239	0x3d86cac3	0.065816425
240	0x3da562df	0.08075499
241	0x3c9aed73	0.018912053
242	0x3da52e85	0.080655135
243	0xbd6233b5	-0.055225093
244	0xbd2a8c37	-0.041637626
245	0xbdad0a3a	-0.08449216
246	0x3c13ab75	0.0090130465
247	0x3d250c4c	0.04029493
248	0xbd9c6671	-0.07636727
249	0x3cfc1b15	0.030774632
250	0xbd9ee183	-0.07757857
251	0x3c9eb0c4	0.019371398
252	0x3d591035	0.05299397
253	0xbc8da1b4	-0.01728902
254	0x3d1ff0e6	0.039048098
255	0x3d62844e	0.055301957

bias_hh_l0 f4 [512]
0	0xbc810c7b	-0.015753021
1	0x3b455fb0	0.0030116849
2	0xbd28e556	-0.041234337
3	0x3d66596d	0.056237627
4	0x3d70aad9	0.058756683
5	0xbd1ccf1b	-0.03828345
6	0xbd1fcdb2	-0.039014526
7	0x3d8e8c26	0.06960325
8	0xbc7fd1e6	-0.0156140085
9	0x3c8e3dfd	0.017363543
10	0xbdc381aa	-0.09546216
11	0xbc14fce4	-0.009093497
12	0x3d83a20f	0.064273946
13	0x3da43d43	0.08019497
14	0xbca0f274	-0.01964686
15	0xbc783e99	-0.015151643
16	0x3d9ea867	0.07746964
17	0xbd81e5c3	-0.06342652
18	0x3d8a41d8	0.0675084
19	0x3d8d12b6	0.068883345
20	0xbb9ded57	-0.004819553
21	0x3c28a423	0.0102930395
22	0x3d438456	0.047733627
23	0x3cc66e49	0.02422251
24	0xbda6ffc1	-0.0815425
25	0xbd606204	-0.054780975
26	0x3db149c0	0.08656645
27	0xbbe30ced	-0.006929031
28	0x3cce73be	0.025201675
29	0x3bc0fb57	0.005889337
30	0xbceec312	-0.029145751
31	0xbd40ea15	-0.047098238
32	0xbd9bf577	-0.07615178
33	0x3d6a5c0d	0.057216693
34	0xbd85d791	-0.06535257
35	0x3c3b934d	0.011448693
36	0xbd15f7e4	-0.03661336
37	0x3c03fa94	0.008055348
38	0x3da4637a	0.08026786
39	0xbdb41d4c	-0.087946504
40	0x3cac314b	0.021019598
41	0x3d9aa7ff	0.07551574
42	0xbc438c9c	-0.011935379
43	0x3c57769a	0.013150835
44	0xbb995a64	-0.004679965
45	0x3cbcd4e6	0.023050737
46	0x3d3af098	0.045639604
47	0xbd75d84e	-0.060020737
48	0xbd546af5	-0.051859815
49	0x3cda61df	0.026657997
50	0x3c092b86	0.008372193
51	0xbdbeb4ce	-0.093118295
52	0x3a08bb50	0.00052159
53	0x3d6dad4f	0.058026608
54	0x3d8987e4	0.06715372
55	0xbcfdfc98	-0.031004235
56	0xbd817e04	-0.06322864
57	0xbd0f3c56	-0.03496965
58	0x3d147875	0.03624769
59	0xbcec1301	-0.028817656
60	0xbbdad50e	-0.00667823
61	0xbda6d37e	-0.08145808
62	0xbcd47e53	-0.025939142
63	0x3b92e18a	0.0044824528
64	0xbcd9a1c0	-0.026566386
65	0xbd0251b7	-0.03181621
66	0xbbead0cb	-0.0071660033
67	0x3d91ea1e	0.071247324
68	0x3cb96dbd	0.022635335
69	0xbd029433	-0.031879615
70	0xbc508707	-0.0127275055
71	0x3d98f376	0.074683115
72	0x3d09fbc1	0.033687357
73	0xbc588614	-0.0132155605
74	0x3d861dd8	0.06548661
75	0xbccd35be	-0.02505004
76	0xbcc2012e	-0.023682203
77	0x3d6dc4dd	0.05804907
78	0xbdacb3d1	-0.08432735
79	0xbd104773	-0.03522439
80	0xbd429cd2	-0.047512837
81	0xbda3fa6f	-0.08006751
82	0xbd349f63	-0.044097316
83	0x3d086d7b	0.033307534
84	0xbda18a87	-0.0788775
85	0xbbea5971	-0.0071517755
86	0xbdb1429d	-0.086552836
87	0xbd32018d	-0.04345851
88	0xbd0f9bc7	-0.03506067
89	0xbb431881	-0.0029769244
90	0xbd7bde6d	-0.06149142
91	0xbc5ffd65	-0.013671254
92	0xbd375583	-0.044759285
93	0xbd2f761d	-0.04283725
94	0xbdc0f2d6	-0.09421317
95	0x3b2c044e	0.0026247683
96	0x3db3fc08	0.087883055
97	0x3bf5eb5e	0.0075048646
98	0x3d86362e	0.06553303
99	0xbd352a6e	-0.044229917
100	0x3b539882	0.0032286947
101	0x3d955093	0.07290759
102	0x3d81ce88	0.06338221
103	0x3c8b9416	0.017038386
104	0x3d891b3e	0.06694649
105	0xbd968375	-0.07349292
106	0x3d407ef7	0.046996083
107	0xbdabafab	-0.083831154
108	0x3daa3f0d	0.08312807
109	0xbd4f7787	-0.0506511
110	0xbcca71f0	-0.024712533
111	0x3d6972b2	0.056994148
112	0xbc6011f0	-0.013676152
113	0x3c986a8a	0.01860549
114	0xbdaeaf78	-0.08529562
115	0x3d47fd8d	0.04882579
116	0x3d24bbce	0.040218167
117	0xbaf69c22	-0.0018814842
118	0xbd21548c	-0.03938727
119	0xbd2fe000	-0.042938232
120	0xbc2a6bc0	-0.010401666
121	0xbd6b5187	-0.057450797
122	0x3d7ae847	0.061256673
123	0xbd736500	-0.059422493
124	0x3d84b5c4	0.064799815
125	0x3d8e1211	0.0693704
126	0xbda3cdae	-0.07998215
127	0xba210f03	-0.00061438995
128	0x3b7f23e5	0.0038931307
129	0x3cf12f3e	0.029441472
130	0x3da24b8f	0.07924568
131	0xbbb452f2	-0.005503052
132	0xbd36c031	-0.04461688
133	0x3d17a49e	0.037022226
134	0xbc8d10fb	-0.017220011
135	0xbda2c890	-0.079484105
136	0x3d6f1c88	0.05837682
137	0x3c9cbcb1	0.019132944
138	0xbda46ed3	-0.080289505
139	0xbd08a818	-0.03336343
140	0xbd8a8012	-0.06762709
141	0xbd6b8c04	-0.057506576
142	0x3c7cf607	0.015439517
143	0xbd8229fa	-0.06355663
144	0x3cb977d7	0.022640152
145	0xbd970269	-0.073735066
146	0xbd1529c8	-0.0364168
147	0xbd9e69be	-0.077350125
148	0x3b4b9149	0.0031061938
149	0xbd83c30f	-0.06433689
150	0xbc14523c	-0.009052809
151	0xbd9c2633	-0.076244734
152	0x3bfc3030	0.007696174
153	0xbd211380	-0.039325237
154	0x3d812bbf	0.06307172
155	0xbd953d6f	-0.07287108
156	0xbb9d73d7	-0.004805069
157	0x3b8d7c2e	0.004317782
158	0x3d436f62	0.047713645
159	0xbba84571	-0.005135231
160	0x3c9ebea0	0.019378006
161	0xbda9f8a4	-0.082993776
162	0x3da76042	0.081726566
163	0xbd3ef93c	-0.046624407
164	0xbcaee8a7	-0.021351172
165	0xbd4ecb45	-0.05048682
166	0xbd66cc22	-0.05634702
167	0x3d8047be	0.06263684
168	0xbd3fe680	-0.04685068
169	0xbcc93ef1	-0.024566146
170	0x3c94c085	0.018158207
171	0x3d5e0df9	0.054212544
172	0xbd00644b	-0.031345647
173	0x3d8209fd	0.06349561
174	0x3da320eb	0.07965263
175	0x3ca08a09	0.01959707
176	0xbd40a266	-0.047029875
177	0x3ca78757	0.020450277
178	0x3dab4dab	0.08364423
179	0x3d6cf9d1	0.05785543
180	0xbd04ec18	-0.03245172
181	0x3dc4e1a7	0.09613352
182	0x3d5384a2	0.05164016
183	0x3b993ac4	0.004676195
184	0x3da0ddd0	0.078548074
185	0x3d6c05a1	0.057622556
186	0x3d28f24b	0.041246694
187	0x3d8f1ab5	0.06987516
188	0x3c7b01ad	0.015320224
189	0x3cfd78f3	0.030941462
190	0x3d705461	0.05867422
191	0xbc703ea2	-0.01466337
192	0x3bd0e411	0.006374844
193	0x3d4d0c22	0.0500604
194	0xbc81bdf5	-0.015837649
195	0xbd84f989	-0.064929076
196	0xbc3852f9	-0.011250251
197	0x3d1d8b8c	0.03846316
198	0xbd896394	-0.06708446
199	0x3d65c76d	0.05609839
200	0xbdad085d	-0.08448861
201	0xbc28abe1	-0.010294885
202	0x3d4ee8cb	0.050514977
203	0x3d45cac9	0.048289094
204	0xbced20a4	-0.028946228
205	0x3d907184	0.070529014
206	0xbd2f8f35	-0.042861182
207	0x3ba9ffc2	0.0051879594
208	0xbd184103	-0.037171375
209	0x3d446578	0.04794833
210	0xbdbdaa7b	-0.09261032
211	0x3d8b9d71	0.06817139
212	0xbd09dd65	-0.033658404
213	0xbd4140b1	-0.047180835
214	0xbca2a5d3	-0.019854462
215	0x3d915426	0.07096128
216	0xbd44849b	-0.047978025
217	0x3cf3576c	0.029704772
218	0x3d30cdcb	0.04316501
219	0xbd989676	-0.07450573
220	0xbbc396c7	-0.005968902
221	0xbd3fb773	-0.04680581
222	0xbdc5315d	-0.09628556
223	0xbd40fb72	-0.047114797
224	0x3d6f7883	0.05846454
225	0x3d1329a6	0.03592839
226	0x3d1c010d	0.03808694
227	0xbdb005aa	-0.0859483
228	0xba65d22e	-0.0008766976
229	0xbbd92ee9	-0.0066279066
230	0x3d2b4398	0.04181251
231	0x3db1734b	0.086645685
232	0xbd1b954a	-0.03798417
233	0x3d92e86d	0.07173238
234	0x3caa0a23	0.020756787
235	0x3db2cdd2	0.08730663
236	0xbd918a2f	-0.071064346
237	0xbcfeb7b1	-0.03109345
238	0x3d67e698	0.056616396
239	0xbbc5793b	-0.0060264147
240	0x3b63e0ff	0.003477156
241	0xbd7bb17d	-0.061448563
242	0xbdb6295e	-0.08894609
243	0x3bfec263	0.0077746375
244	0x3cfcbab7	0.030850751
245	0x3dac2763	0.0840595
246	0xbbefd1e5	-0.0073187225
247	0x3da3eb3f	0.08003854
248	0xbcbadb95	-0.022809783
249	0x3c82162e	0.015879717
250	0x3d5a996f	0.053368982
251	0xbcd58039	-0.026062118
252	0xbd5fb782	-0.054618366
253	0xbb4ab9d6	-0.003093352
254	0xbdacabbb	-0.084311925
255	0x3d91f6d8	0.0712716

weight f4 [1, 128]
0	0xbd0f5bba	-0.034999587
1	0xbd6754b0	-0.05647725
2	0x3d6cbfd2	0.05780012
3	0xbc721318	-0.01477506
4	0xbcd96630	-0.026537985
5	0xbca65a7f	-0.020306824
6	0x3d4b213f	0.049592253
7	0x3d082a3a	0.033243395
8	0xbcdf4ca8	-0.027258232
9	0x3ce1e819	0.027576493
10	0x3d545582	0.05183936
11	0xbd671478	-0.056416005
12	0x3d464f44	0.048415437
13	0xbd0cd10d	-0.034379054
14	0x3d964e18	0.07339114
15	0xbc689749	-0.014196225
16	0x3cd09bae	0.025464859
17	0x3d91a61c	0.07111761
18	0xbd1b47f1	-0.037910406
19	0x3cd8ecbd	0.026480073
20	0xbc3fabf8	-0.011698715
21	0xbd07b6c5	-0.033133287
22	0x3cc87825	0.024471352
23	0xbd7af363	-0.061267268
24	0x3d5bfca0	0.05370772
25	0xbd318f5f	-0.04334962
26	0x3d621ec1	0.05520511
27	0xbda9cb8c	-0.082907766
28	0xbd3b7d4f	-0.0457738
29	0x3a527545	0.0008028339
30	0x3d5aaef4	0.053389505
31	0xbda98665	-0.08277587
32	0xbd46a4d8	-0.04849705
33	0xbc9038dc	-0.017605238
34	0xbd3219e0	-0.043481708
35	0x3cc23a6c	0.023709498
36	0x3d9fc568	0.07801324
37	0xbd9862b8	-0.07440704
38	0x3d7a0d37	0.06104776
39	0x3d944740	0.07240152
40	0x3d40fa5e	0.04711377
41	0x39887038	0.0002602355
42	0xbc789827	-0.015172995
43	0x3d8e1c44	0.06938985
44	0x3d6a0c42	0.057140596
45	0x3d40cc18	0.04706964
46	0xbd441cd8	-0.04787907
47	0xbd98f597	-0.074687175
48	0x3c0ff55f	0.008786528
49	0x3b94fcae	0.0045467233
50	0x3cee8378	0.029115424
51	0xbce43ca7	-0.027860953
52	0xbc21771b	-0.009855057
53	0x3c4dfe6b	0.012572865
54	0x3d8b2a4e	0.06795178
55	0xbd833617	-0.06406801
56	0xbca048fd	-0.019566054
57	0xbd776107	-0.060395267
58	0x3cf4b092	0.029869352
59	0x3c5c1663	0.013433072
60	0x3d0057d0	0.031333745
61	0xbcb9610d	-0.022629285
62	0xbccc2395	-0.02491931
63	0xbd9b1d34	-0.075739294
64	0xbd96b728	-0.07359153
65	0xbd21dca6	-0.039517067
66	0x3d978985	0.07399277
67	0xbd6e6de2	-0.05821026
68	0xbcac8617	-0.021060033
69	0xbd9784de	-0.07398389
70	0xbd13f27e	-0.03611993
71	0xbd6443bf	-0.05572867
72	0xbc439b53	-0.011938888
73	0xbd3314ae	-0.043720894
74	0xbdae6bde	-0.08516668
75	0x3c0777e8	0.008268334
76	0xbd20c63b	-0.039251547
77	0xbca8f5ed	-0.020625079
78	0x3a0bd43f	0.00053340563
79	0x3cf58127	0.029968811
80	0x3ca6deba	0.020369876
81	0xbd7b2c1f	-0.061321374
82	0xbc6bba7d	-0.014387724
83	0x39ae51a7	0.00033248702
84	0x3d140e0a	0.0361462
85	0x3c3730f1	0.011181102
86	0xbd00afd4	-0.031417683
87	0x3d800eeb	0.062528454
88	0x3d032c04	0.0320244
89	0x3d8ca816	0.06867997
90	0xbd02bd6b	-0.031918924
91	0xbc6d3979	-0.014479035
92	0x3c112759	0.008859479
93	0x3da641e7	0.081180386
94	0x3d7e1d83	0.062039863
95	0xbd3e626e	-0.04648059
96	0xbdad2eb9	-0.08456177
97	0x3c341a8c	0.010992657
98	0xbd360b58	-0.044444412
99	0x3cf590f3	0.029976344
100	0x3d846e45	0.06466345
101	0x3d6aadb8	0.057294577
102	0x3cf3d433	0.02976427
103	0x3d2b26e7	0.041785147
104	0x3ca1a5e9	0.019732432
105	0x3996614e	0.00028682727
106	0x3d866dfa	0.06563945
107	0xbccbc1dd	-0.024872715
108	0x3d7358cc	0.059410855
109	0x3d5e459d	0.054265607
110	0xbd96f624	-0.07371166
111	0x3a3626e2	0.0006948543
112	0x3ca43c98	0.020048425
113	0xbc856bd8	-0.016286775
114	0x3aedb7ff	0.00181365
115	0xbd08ecf9	-0.03342912
116	0xbad499a4	-0.0016220105
117	0xbd673547	-0.056447294
118	0x3d19a6e5	0.03751268
119	0x3d3cc823	0.046089303
120	0xbd644fa8	-0.05574003
121	0xbd392218	-0.04519853
122	0xbb0a98b2	-0.0021148142
123	0xbb4a2c2c	-0.0030849082
124	0xbcbf3955	-0.023342768
125	0xbdb20e5c	-0.08694145
126	0xbcbbee57	-0.022940798
127	0xbc428b3e	-0.011874018

weight f4 [128]
0	0x3f7f260d	0.99667436
1	0x3f7d755f	0.9900722
2	0x3f7f99a7	0.9984383
3	0x3f7fced9	0.99925
4	0x3f800a65	1.0003172
5	0x3f7fdb1b	0.99943703
6	0x3f7f3969	0.99696976
7	0x3f7fea35	0.99966747
8	0x3f7e9d6e	0.9945897
9	0x3f7e7c51	0.9940844
10	0x3f7cb91f	0.9871997
11	0x3f7ecdb6	0.9953264
12	0x3f7fb55d	0.99886113
13	0x3f7f9290	0.9983301
14	0x3f7f70bf	0.9978141
15	0x3f8001fa	1.0000603
16	0x3f7fc697	0.999124
17	0x3f7f1e40	0.9965553
18	0x3f7f3291	0.99686533
19	0x3f7e48d0	0.99329853
20	0x3f7f12f5	0.996383
21	0x3f7f2911	0.9967204
22	0x3f7ef749	0.9959608
23	0x3f7f228b	0.99662083
24	0x3f7f2649	0.99667794
25	0x3f7f394d	0.9969681
26	0x3f7fa8e1	0.99867064
27	0x3f7f70de	0.99781597
28	0x3f7f650e	0.9976357
29	0x3f7dd15e	0.99147594
30	0x3f7f7031	0.99780566
31	0x3f8004b4	1.0001435
32	0x3f7e9574	0.994468
33	0x3f7e5d41	0.99361044
34	0x3f7ef1a3	0.9958746
35	0x3f7fa8db	0.9986703
36	0x3f7fdd66	0.999472
37	0x3f7f5503	0.9973909
38	0x3f7fb6dc	0.99888396
39	0x3f7f8675	0.9981454
40	0x3f7edd96	0.99556863
41	0x3f7b4843	0.9815714
42	0x3f7f4d31	0.9972716
43	0x3f7f52e3	0.9973585
44	0x3f7f91ac	0.9983165
45	0x3f7ad7e3	0.97985667
46	0x3f7f6747	0.99766964
47	0x3f7f18c2	0.9964715
48	0x3f7f53ce	0.9973725
49	0x3f7f72be	0.9978446
50	0x3f7f3e6c	0.99704623
51	0x3f7eacd9	0.99482495
52	0x3f7f6181	0.99758154
53	0x3f7fa836	0.99866045
54	0x3f7fc451	0.9990893
55	0x3f7ee645	0.99570113
56	0x3f7f6fb7	0.9977984
57	0x3f7cef73	0.9880287
58	0x3f7f7fc4	0.9980433
59	0x3f7f897c	0.9981916
60	0x3f7fa0d0	0.99854755
61	0x3f7f44ac	0.9971416
62	0x3f7fe513	0.99958915
63	0x3f7fcf56	0.99925745
64	0x3f7f21f7	0.996612
65	0x3f7f0c49	0.9962812
66	0x3f7e4217	0.99319595
67	0x3f7e0b86	0.99236333
68	0x3f7f63ac	0.9976146
69	0x3f7f79c1	0.99795157
70	0x3f7f3351	0.9968768
71	0x3f7e6fb0	0.9938917
72	0x3f806025	1.0029341
73	0x3f7facf9	0.9987331
74	0x3f7f3ed7	0.9970526
75	0x3f7fcb11	0.9991923
76	0x3f7ec79c	0.9952333
77	0x3f7f3ebc	0.997051
78	0x3f7b7884	0.9823077
79	0x3f7f754e	0.9978837
80	0x3f800f3a	1.0004647
81	0x3f7e0041	0.9921914
82	0x3f7f9742	0.99840176
83	0x3f7ab2d8	0.97929144
84	0x3f7f64df	0.9976329
85	0x3f7fac4c	0.9987228
86	0x3f7f5716	0.9974226
87	0x3f7d76a8	0.9900918
88	0x3f7efd54	0.996053
89	0x3f7f62cb	0.9976012
90	0x3f7f783d	0.99792844
91	0x3f7bd87c	0.98377204
92	0x3f7f8395	0.99810153
93	0x3f7f9880	0.9984207
94	0x3f7d6172	0.98976815
95	0x3f8002bc	1.0000834
96	0x3f7fa1d3	0.998563
97	0x3f7fcdc4	0.9992335
98	0x3f7fc192	0.9990474
99	0x3f7f814d	0.9980667
100	0x3f7f7e29	0.9980188
101	0x3f7fe4b5	0.99958354
102	0x3f7f2920	0.99672127
103	0x3f7f1122	0.9963552
104	0x3f7f7b80	0.9979782
105	0x3f7c18f3	0.9847557
106	0x3f7fc66d	0.9991215
107	0x3f7fad31	0.99873644
108	0x3f7f6551	0.9976397
109	0x3f7fbf94	0.999017
110	0x3f7f72dd	0.9978464
111	0x3f7e63c3	0.99370974
112	0x3f7ff9d2	0.9999057
113	0x3f7ff07c	0.99976325
114	0x3f7e8995	0.99428684
115	0x3f7f8a06	0.9981998
116	0x3f7e542d	0.9934719
117	0x3f7fecc3	0.99970645
118	0x3f7e5a9a	0.99356997
119	0x3f7fca03	0.9991762
120	0x3f7e3b9d	0.9930971
121	0x3f7f7c9e	0.99799526
122	0x3f7d7886	0.9901203
123	0x3f7e578e	0.9935235
124	0x3f7f575d	0.9974268
125	0x3f7fad0f	0.9987344
126	0x3f7f52fd	0.99736005
127	0x3f7f7734	0.99791265

bias f4 [128]
0	0xba443c02	-0.00074857485
1	0xba23ed78	-0.0006253342
2	0x3a293273	0.0006454356
3	0x3a01ac16	0.0004946602
4	0xb914da23	-0.00014195642
5	0x3898b7bd	7.282149e-05
6	0x39ed887c	0.0004530585
7	0x39037828	0.00012537895
8	0xba4ded01	-0.0007855446
9	0x3a0bce9c	0.00053332164
10	0x3a12cadc	0.00055996864
11	0xb9daeffa	-0.00041758997
12	0x39903f39	0.00027512925
13	0xb97113f9	-0.00022990991
14	0x3a21c308	0.00061707245
15	0x39d41e82	0.0004045852
16	0x3842b786	4.6424124e-05
17	0x3a100ad6	0.0005494779
18	0xb9607e29	-0.00021409303
19	0x3a522122	0.00080158014
20	0xba476e5a	-0.0007607691
21	0xb96fe49e	-0.00022877983
22	0x391b218f	0.00014794453
23	0xba249255	-0.00062779087
24	0x39850f81	0.00025379288
25	0xba342bbb	-0.00068729714
26	0x3a27914c	0.00063921954
27	0xba182391	-0.00058036397
28	0xb97fce52	-0.00024395555
29	0x3ae02e97	0.0017103729
30	0x3a26f22a	0.0006368483
31	0xb9ceebe0	-0.00039467122
32	0xb9e02a85	-0.0004275629
33	0xba60602f	-0.00085592543
34	0xba3373de	-0.00068455737
35	0x362fc9e0	2.6194539e-06
36	0x39b34edc	0.00034200295
37	0xba2073ce	-0.0006120772
38	0x39a11e5a	0.00030730927
39	0x39c0866c	0.00036721246
40	0x39b2adce	0.000340803
41	0xbc2f2fc5	-0.0106925415
42	0xba239a2c	-0.000624093
43	0x3a2351a4	0.0006230122
44	0x39d15e7b	0.0003993398
45	0x39d55271	0.0004068795
46	0xba33da66	-0.0006860852
47	0xba1c3de7	-0.0005960152
48	0xba10bc53	-0.00055212266
49	0xbae1a180	-0.0017214268
50	0x3a5228bb	0.00080169336
51	0xba38c454	-0.0007048298
52	0xba757828	-0.0009363913
53	0xb9c579a4	-0.00037665397
54	0x39a9689f	0.0003231214
55	0xba11ce62	-0.00055620645
56	0x3819b446	3.6645935e-05
57	0xb9f42928	-0.0004656997
58	0x3a569486	0.0008185584
59	0x3a9637d5	0.0011460731
60	0x3a4dcdcb	0.0007850795
61	0xba6db46c	-0.00090677175
62	0xb693d6f0	-4.4059634e-06
63	0xb9aa4f10	-0.00032483833
64	0xb9d187ac	-0.0003996467
65	0xb99f8775	-0.00030427767
66	0x3a02bac1	0.0004986935
67	0xb9b50573	-0.0003452707
68	0xb9716a34	-0.00023023115
69	0xba20b979	-0.0006131153
70	0xb96dbde1	-0.00022672817
71	0xb99f34c6	-0.00030366163
72	0x3a5aa750	0.00083409715
73	0xb98341f5	-0.0002503541
74	0xba180d62	-0.0005800334
75	0xba13e313	-0.00056414417
76	0xb9946c5c	-0.00028309494
77	0xb96a704e	-0.00022357816
78	0xbc72401d	-0.014785794
79	0x39123b7a	0.00013945802
80	0xb99774d4	-0.00028888008
81	0xb9c18f02	-0.00036918378
82	0xba1f14bc	-0.00060684583
83	0x3c97603b	0.018478503
84	0x39991634	0.00029198977
85	0xb9a58f60	-0.00031578075
86	0xba507f62	-0.0007953552
87	0x39bec8e0	0.00036389288
88	0x39ed45de	0.00045256218
89	0x39ae9a45	0.00033302806
90	0xba280bd2	-0.0006410453
91	0xba438de9	-0.0007459806
92	0xba74d121	-0.0009339024
93	0x39b8b89c	0.0003523276
94	0x39d9cd0c	0.00041542237
95	0xb9845720	-0.00025241915
96	0xb9bcf143	-0.00036037908
97	0xba10f0ee	-0.00055290654
98	0xb983d17a	-0.0002514234
99	0x3a538401	0.00080686813
100	0x3a224531	0.000619012
101	0x39966bcf	0.00028690553
102	0x3a4c0652	0.0007782924
103	0x3a27addb	0.0006396451
104	0x3a8302bd	0.0009995323
105	0x3c441c02	0.011969568
106	0x39a54f86	0.00031530502
107	0xb7452890	-1.1751559e-05
108	0x39b4380e	0.0003437404
109	0x3a25ecdc	0.0006329545
110	0xb9cbeaa5	-0.00038894
111	0xbb80f66b	-0.0039356253
112	0x36ac5070	5.1353636e-06
113	0x3920d39c	0.0001533762
114	0x3b2cdf54	0.002637823
115	0xb9907ef2	-0.00027560402
116	0x3781efc8	1.5489655e-05
117	0xb997b1d9	-0.0002893347
118	0x3a113cfe	0.00055403996
119	0x39881084	0.00025952247
120	0xb9f9148c	-0.0004750829
121	0xb98b5b8c	-0.00026580354
122	0x3aa7c5f5	0.0012800085
123	0x3bdcb166	0.0067350147
124	0xba736c75	-0.0009285876
125	0xb9bcef7e	-0.0003603659
126	0xba422eb1	-0.000740747
127	0xbac928cd	-0.0015347243
