Single Battery Model/6. LSTM Models/model_B0006_combined_std.pth (torch, 395916 bytes, 7 tensors)

weight_ih_l0 f4 [512, 60]
0	0x3da780cb	0.08178862
1	0x3d00daaf	0.031458553
2	0xbd8ff14c	-0.070284456
3	0xbda00f09	-0.07815368
4	0x3dbcfc4c	0.09227809
5	0xbd6df659	-0.058096264
6	0x3c257ccf	0.0101005575
7	0x3c380abb	0.011233027
8	0x3c1cc4d8	0.009568416
9	0xbd20bfd5	-0.039245445
10	0xbd9be6f4	-0.0761241
11	0xbcc7657a	-0.02434038
12	0x3d08dd4e	0.033414178
13	0x3c6999c2	0.01425785
14	0xbcb835a7	-0.02248652
15	0xbca85867	-0.020549966
16	0xbdaa597c	-0.08317849
17	0x3cea9df3	0.02863977
18	0xbd83b66c	-0.064312786
19	0xbd5d3f6d	-0.054015566
20	0x3ca66917	0.020313783
21	0xbd659197	-0.05604705
22	0xbd59dd36	-0.05318948
23	0xbd9f61d1	-0.07782329
24	0xbd1fca6b	-0.0390114
25	0x3ca30e97	0.019904418
26	0xbd9ec068	-0.07751542
27	0x3cb9fdf3	0.0227041
28	0xbcca9b7c	-0.024732344
29	0xbd67ebfc	-0.056621537
30	0xbd61d1ed	-0.05513184
31	0xbc2ca50e	-0.010537399
32	0x3d2ce21c	0.042207822
33	0xbcbf0852	-0.023319397
34	0x3c6543dc	0.01399323
35	0x3da7b337	0.081884794
36	0xbd08a640	-0.033361673
37	0xbda8c05a	-0.08239813
38	0xbd9f0dbf	-0.07766294
39	0xbd3e0ade	-0.046397083
40	0xbda40a86	-0.0800982
41	0xbd3c7668	-0.04601136
42	0xbd96d772	-0.07365312
43	0xbd1ccc4f	-0.03828078
44	0xbd39d608	-0.04537013
45	0x3d5aff6d	0.05346625
46	0xbcaddac5	-0.021222482
47	0xbd917b55	-0.07103602
48	0x3b1b9c28	0.00237442
49	0x3d50700a	0.0508881
50	0x3d484144	0.048890367
51	0x3d824b64	0.06362036
52	0xbcf3d530	-0.029764742
53	0xbd9ec443	-0.07752278
54	0x3da63f0f	0.08117496
55	0x3da94c86	0.08266549
56	0x3cda43f0	0.026643723
57	0xbc5f19e2	-0.013617011
58	0xbd640ce5	-0.05567636
59	0x3da9757f	0.08274364
60	0xbdb34a2f	-0.08754384
61	0xbcb6f1d7	-0.022332115
62	0x3d8ea3b5	0.069648184
63	0xbd991811	-0.074752934
64	0xbc5f587f	-0.013631939
65	0x3c194127	0.009353912
66	0xbda03bd6	-0.07823913
67	0x3d9dbca0	0.07701993
68	0xbce30467	-0.02771206
69	0xbbd73f64	-0.006568836
70	0xbda92e58	-0.082607925
71	0xbd0d42fb	-0.034487706
72	0x3d717702	0.058951385
73	0xbda7b0f5	-0.08188049
74	0xbd93c77f	-0.07215785
75	0xbd4398e1	-0.04775322
76	0x3c6092a1	0.013706834
77	0xbd67af37	-0.056563582
78	0xbcb0225f	-0.021500764
79	0x3d2ebdb4	0.042661384
80	0xbd73ef93	-0.059554648
81	0xbc55b2b4	-0.013043094
82	0x3b38af7c	0.0028180769
83	0x3d9cc80d	0.07655344
84	0xbc132061	-0.008979888
85	0x3bae5ade	0.005320891
86	0x3db643de	0.088996634
87	0xbd2e5120	-0.042557836
88	0x3c044200	0.008072376
89	0x3d97594d	0.0739008
90	0xbcf343c6	-0.029695403
91	0xbd9221dc	-0.071353644
92	0xbd2fd0c3	-0.0429237
93	0xbc1e0b7f	-0.009646296
94	0xbcc68981	-0.024235489
95	0x3db06b78	0.08614248
96	0x3d522266	0.051302336
97	0xbc618eba	-0.013766939
98	0xbd97f083	-0.07418921
99	0x3cccc284	0.024995096
100	0x3d8e2dc3	0.06942322
101	0xbd847428	-0.064674675
102	0x3da1437e	0.07874201
103	0xbdb58adf	-0.08864378
104	0x3d4c4db4	0.04987879
105	0xbda3d119	-0.079988666
106	0xba80cb6f	-0.0009826253
107	0xbc9c512a	-0.01908167
108	0xbd930cba	-0.07180162
109	0xbc943464	-0.018091388
110	0x3d2e11d5	0.042497475
111	0x3c8bb280	0.017052889
112	0xbc170f84	-0.009220008
113	0xbd53adf5	-0.05167957
114	0xbb7b10e5	-0.003830963
115	0x3d817a0d	0.063221075
116	0xbd52c3a3	-0.051456105
117	0xbd8ce77d	-0.068800904
118	0x3c93558f	0.017985133
119	0x3d209268	0.039202124
120	0x3c444d2a	0.011981288
121	0x3d073eb8	0.033018798
122	0xbcd91665	-0.026499936
123	0x3d7959ee	0.06087678
124	0xbc822c24	-0.015890189
125	0xbd590b9f	-0.0529896
126	0x3d734f5a	0.059401847
127	0x3d695140	0.05696225
128	0xbdb389c3	-0.0876651
129	0x3c809919	0.015698003
130	0x3da805f2	0.08204259
131	0xbc1be8c9	-0.0095159495
132	0x3d69fff3	0.057128858
133	0xbb8b7e09	-0.004256968
134	0xbbe4daf5	-0.0069841095
135	0x3d8182ca	0.06323774
136	0xbd0a95d7	-0.033834305
137	0x3d89023c	0.06689879
138	0x3d5f19fe	0.054468147
139	0xbc3522e6	-0.011055684
140	0xbd63c103	-0.055603992
141	0xbd6e8cf0	-0.058239877
142	0x3a960f88	0.001144872
143	0x3c37bfa7	0.011215127
144	0xbd21a4a8	-0.03946367
145	0x3d66a027	0.056305077
146	0x3d42a3be	0.047519438
147	0xbd85cdaa	-0.06533368
148	0xbd475fcc	-0.048675343
149	0xbba455d1	-0.005015113
150	0x3d009da2	0.03140033
151	0x3da295d0	0.07938731
152	0x3d41acf0	0.047284067
153	0xbc0b07da	-0.008485759
154	0xbc3e0b7d	-0.011599419
155	0x3b21676a	0.002462829
156	0x3d4331e1	0.04765499
157	0x3ca70693	0.020388877
158	0xbd7cd611	-0.061727587
159	0xbce6e0aa	-0.0281833
160	0x3d2be28d	0.041964103
161	0x3cdfa775	0.02730153
162	0x3d83944f	0.06424772
163	0xbc583a9b	-0.013197566
164	0xbd357178	-0.044297665
165	0x3d9b8e3e	0.0759549
166	0x3d8ce428	0.06879455
167	0x3c62fac1	0.01385373
168	0x3d894cb7	0.06704085
169	0xbc7c5333	-0.015400696
170	0x3d7bbf76	0.06146189
171	0xbd9bd0cc	-0.07608184
172	0xbd2d90a9	-0.042374287
173	0x3c2c49ff	0.010515689
174	0x3bd96bc0	0.0066351593
175	0x3d98886b	0.07447895
176	0x3d757b43	0.059932005
177	0xbd4aec7f	-0.049541947
178	0x3d84c18b	0.06482228
179	0xbd9a8843	-0.07545521
180	0xbd01bbff	-0.031673428
181	0x3d7f6b57	0.062358227
182	0xbd6167cd	-0.055030633
183	0x3c7483d6	0.01492401
184	0xbd875b27	-0.06609183
185	0xbd34988f	-0.044090804
186	0x3d4757ce	0.04866772
187	0xbd649e41	-0.055814985
188	0xbcf8bc28	-0.030363157
189	0xbd981634	-0.0742611
190	0x3d6c017f	0.057618614
191	0xbd99af85	-0.07504181
192	0xbc0d38e4	-0.008619521
193	0x3d40d809	0.047081027
194	0xbd96e967	-0.07368737
195	0x3d31d568	0.04341641
196	0xbd720a2b	-0.05909173
197	0x3cdaf74b	0.026729247
198	0x3d0b586a	0.034019865
199	0x3c3136b8	0.010816269
200	0xbc032aa7	-0.008005775
201	0xbd15326e	-0.036425047
202	0xbc50c5c7	-0.012742466
203	0x3ba526f4	0.005040044
204	0x3c0c2298	0.00855317
205	0x3db413db	0.0879285
206	0x3db89de4	0.0901449
207	0x3db016a7	0.085980706
208	0xbd84d425	-0.06485776
209	0x3d2a0aa5	0.041514058
210	0xbd8b4eb7	-0.06802123
211	0x3d8d2411	0.06891645
212	0xbd8fc125	-0.07019261
213	0x3c957512	0.0182443
214	0x3d50ec7a	0.05100677
215	0x396b2fd5	0.00022429165
216	0x3d4fe5c7	0.050756242
217	0xbd0471a5	-0.032334942
218	0xbd1ca277	-0.038240876
219	0x3d22969a	0.039694406
220	0x3d86a182	0.06573774
221	0xbd9b1943	-0.07573178
222	0x3d71fd31	0.059079353
223	0x3cf02127	0.029312683
224	0x3d257587	0.040395286
225	0x3c1161de	0.008873431
226	0xbcb0d191	-0.021584304
227	0xbd1d4a84	-0.03840114
228	0xbd029de9	-0.031888876
229	0x3aa7738c	0.0012775525
230	0x3c45f028	0.0120811835
231	0xbc1a50db	-0.0094186915
232	0xbbf7058b	-0.0075385026
233	0x3d8226cb	0.063550554
234	0x3dab2c7f	0.08358096
235	0x3c5c1557	0.013432822
236	0x3db3f6b2	0.08787288
237	0x3d92eb3e	0.07173775
238	0xbbe152ab	-0.00687631
239	0x3d33d11f	0.043900605
240	0x3d9e9ea4	0.07745102
241	0x3c47f4b8	0.012204342
242	0xbd924047	-0.07141166
243	0xbd45e651	-0.04831535
244	0x3d8ddefb	0.06927296
245	0x3d7bb453	0.061451267
246	0x3ca60ef2	0.020270798
247	0xbcdab540	-0.026697755
248	0x3d48aff9	0.048995946
249	0x3ba8a279	0.0051463214
250	0x3d9be902	0.07612802
251	0x3cbc2f07	0.022971643
252	0x3d1061ed	0.03524964
253	0x3d7228ee	0.059121065
254	0xbc879cfa	-0.016554344
255	0x3d874465	0.06604842

weight_hh_l0 f4 [512, 128]
0	0x3d23b1e7	0.039964583
1	0xbd1f6142	-0.03891111
2	0x3c906d5b	0.01763027
3	0x3c8a0a6b	0.01685067
4	0xbca6bc94	-0.020353593
5	0xbd561ee2	-0.052275546
6	0xbcd0d0f0	-0.025490254
7	0x3da9c4ee	0.082895145
8	0x3d22d6cf	0.03975564
9	0xbd6a2f63	-0.057174098
10	0xbd4b0ffe	-0.0495758
11	0xbd811607	-0.063030295
12	0x3b863a31	0.0040962924
13	0xbd8b3d48	-0.06798798
14	0x3cd5d063	0.026100343
15	0x3ccf0b00	0.0252738
16	0x3d733db1	0.059385005
17	0xbcb2d098	-0.02182798
18	0xbd14c006	-0.03631594
19	0x3d0aa348	0.033847123
20	0x3da7f87e	0.08201693
21	0xbd952ab0	-0.072835326
22	0x3c7731ba	0.015087539
23	0xbd152c73	-0.036419343
24	0xbd9b3952	-0.07579292
25	0xbca3b3eb	-0.019983253
26	0x3cae4a2d	0.021275604
27	0xbdabf200	-0.08395767
28	0xbcc1e65d	-0.023669416
29	0x3d72ab65	0.059245486
30	0x3d3bb3e2	0.045825846
31	0xbc9db976	-0.019253474
32	0xbd0f9feb	-0.03506462
33	0xbd8d8283	-0.06909659
34	0xbcb7917b	-0.022408238
35	0x3dbac1bf	0.091189854
36	0xbcd8c1fd	-0.026459688
37	0x3d50d715	0.05098637
38	0xbdb4d967	-0.08830529
39	0x3d060879	0.032722924
40	0x3d820302	0.0634823
41	0xbcdb25da	-0.026751447
42	0x3dbcc46c	0.09217152
43	0x3d46c903	0.048531543
44	0x3d416a7e	0.0472207
45	0xbc104049	-0.008804389
46	0x3d86484a	0.06556757
47	0xbc366a00	-0.011133671
48	0x3d10ec2b	0.035381477
49	0xbdac9b62	-0.084280744
50	0xbda2868f	-0.07935821
51	0xbdb10e4a	-0.086453035
52	0xbcdbf694	-0.026850976
53	0xbd734b24	-0.05939783
54	0xbd16edd6	-0.03684791
55	0x3d3e55c2	0.046468504
56	0x3d819177	0.06326573
57	0xbc312615	-0.010812302
58	0xbc744cfe	-0.0149109345
59	0xbdaa2c6f	-0.08309256
60	0x3d76470c	0.06012635
61	0x3d33ce27	0.043897774
62	0xbd1a1222	-0.03761495
63	0x3caad16c	0.020851813
64	0x3d35d930	0.04439658
65	0x3d70ce67	0.05879059
66	0xbd832238	-0.06403011
67	0xbd434388	-0.047671825
68	0xba64ad63	-0.00087233464
69	0x3d398ea9	0.045302067
70	0xbda33ad4	-0.07970205
71	0xbd6c2c25	-0.057659287
72	0xbce02034	-0.027359106
73	0x3d91a1e4	0.07110956
74	0x3d3166d3	0.04331095
75	0xbca2dab6	-0.01987968
76	0x3d12cc83	0.03583957
77	0xbd5cfd4e	-0.053952508
78	0x3ab2377d	0.0013596859
79	0x3d96d653	0.07365098
80	0x3d4101df	0.047120925
81	0x3c016b5c	0.007899132
82	0x3d4721a1	0.048616055
83	0x3d7fdf09	0.062468562
84	0x3da5d637	0.08097499
85	0x39bcb42a	0.00035992387
86	0xbd5aa49c	-0.05337964
87	0x3c3b5f87	0.01143635
88	0x3d154735	0.03644486
89	0xbd2cd519	-0.042195413
90	0x3c42eea0	0.011897713
91	0x3c5408b9	0.012941533
92	0x3cc60bb3	0.0241755
93	0xbd6ce591	-0.05783612
94	0x3c9f9138	0.019478425
95	0xbd54841e	-0.05188381
96	0xbcc09175	-0.02350686
97	0x3d5bdccc	0.053677365
98	0xbd35fdb9	-0.044431422
99	0x3c682929	0.01416997
100	0xbd5ac13d	-0.053406943
101	0xbd4d27df	-0.050086852
102	0xbda6406b	-0.081177555
103	0x3d134a2b	0.035959404
104	0xbda4d274	-0.08047953
105	0x3cf90e06	0.030402195
106	0x3be203eb	0.0068974397
107	0xbb3f0f59	-0.0029153435
108	0x3c39d0e0	0.011341304
109	0xbd8fbbb9	-0.07018227
110	0xbda97b53	-0.08275475
111	0x3cf9e73d	0.03050577
112	0x3ca5ea43	0.020253306
113	0x3d8f779a	0.07005234
114	0x3d9a732b	0.07541498
115	0x3d76e630	0.060278118
116	0xbcf912e6	-0.03040452
117	0x3d23e7fa	0.040016152
118	0x3d0b7253	0.034044575
119	0xbcd37ab3	-0.025815343
120	0xbd82f2ea	-0.063939884
121	0x3d3b3a64	0.045709983
122	0xbc257205	-0.010097985
123	0xbb9adec8	-0.0047262646
124	0x3c8a9946	0.01691879
125	0x3d5b4a13	0.05353744
126	0xbd35d525	-0.044392724
127	0xbc4711ad	-0.01215021
128	0x3da954d9	0.082681365
129	0xbd7b88d4	-0.061409786
130	0x3d06b65f	0.032888766
131	0x3a8cf57a	0.001075431
132	0xbd87608d	-0.066102125
133	0xbd8c7185	-0.0685759
134	0x3d850964	0.06495932
135	0xbd7ec286	-0.06219723
136	0x3cdb7acd	0.026791954
137	0xbd7af55f	-0.06126916
138	0x3c7c14b0	0.015385792
139	0xbdade270	-0.08490455
140	0xbd2872a6	-0.041124962
141	0x3d3d5035	0.04621907
142	0xbd90952e	-0.07059704
143	0x3d5913fd	0.052997578
144	0x3d28db10	0.04122454
145	0xbcf87737	-0.030330284
146	0x3d82bbda	0.06383486
147	0x3d84e2e3	0.06488588
148	0x3add5047	0.0016884886
149	0x3da72c31	0.08162726
150	0xbd6e8738	-0.058234423
151	0x3d07498e	0.03302913
152	0x3d9004b0	0.07032144
153	0xbd1a220e	-0.037630133
154	0xbd28eae3	-0.04123963
155	0x3d174101	0.036927227
156	0xbd590e04	-0.052991882
157	0xbcf1ac04	-0.029500969
158	0x3bc25b6f	0.00593131
159	0x3c0f3311	0.0087402025
160	0xbc6bd640	-0.014394343
161	0xbca558d8	-0.020183966
162	0x3d96d645	0.073650874
163	0xbd3e12d7	-0.046404686
164	0x3c9b72ab	0.018975576
165	0xbd013f48	-0.03155449
166	0x3db9eeef	0.09078776
167	0x3dae9a1d	0.085254885
168	0x3da10913	0.07863059
169	0x3d9e4634	0.07728234
170	0xbbf81a7e	-0.0075715175
171	0xbda0c10c	-0.07849321
172	0x3d6181be	0.055055372
173	0xbd5daccb	-0.054119866
174	0x3cf24ee9	0.029578643
175	0x3d05a5d6	0.032628857
176	0xbdbac963	-0.09120443
177	0x3d9e19eb	0.07719787
178	0xbda0f105	-0.07858471
179	0x3dab9933	0.0837883
180	0xbda1f66a	-0.07908328
181	0xbda7c4b5	-0.08191816
182	0xbdac3833	-0.08409157
183	0x3c63403a	0.013870293
184	0x3d7d2edd	0.06181227
185	0x3c747209	0.014919766
186	0x3d2492de	0.040179126
187	0xbd8d6f42	-0.06905986
188	0xbda33f11	-0.07971013
189	0x3c9d8fee	0.01923367
190	0xbd2af810	-0.041740477
191	0x3ccf2f34	0.025291063
192	0x3d78f4df	0.060780402
193	0xbb0eebbe	-0.0021807994
194	0x3d8e200f	0.069397084
195	0x3d9f9ad7	0.07793205
196	0xbd8c2c33	-0.06844368
197	0x3c78351d	0.015149382
198	0x3c833742	0.01601756
199	0x3c50c6f5	0.012742748
200	0x3db7da0c	0.08977136
201	0xbd35931b	-0.044329744
202	0xbd21541c	-0.039386854
203	0xbaf5b731	-0.0018746612
204	0x3c14fa6b	0.009092907
205	0xbd4abe0f	-0.04949766
206	0x3cb25520	0.021769106
207	0x3da7fe4b	0.082027994
208	0x3c5afe66	0.013366317
209	0xbd6c70d1	-0.057724778
210	0x3cf1cdc8	0.02951707
211	0xbcbc92f7	-0.023019297
212	0xbc34949a	-0.0110217575
213	0x3d882060	0.066468
214	0xbd80370f	-0.062605016
215	0x3d48f0a8	0.049057633
216	0x3da9c9e7	0.08290463
217	0x3d9a7e08	0.0754357
218	0xbd95b02b	-0.07308992
219	0xbc2ad348	-0.01042635
220	0xbd38addf	-0.04508769
221	0xbd1c7350	-0.038195908
222	0xbd2f3e44	-0.04278399
223	0xbda60228	-0.0810588
224	0xbc28080e	-0.010255827
225	0x3d03e5e0	0.032201648
226	0xbd3570f4	-0.044297174
227	0x3d8ced7f	0.06881236
228	0xbd813d9a	-0.06310578
229	0x3cdd1032	0.026985262
230	0xbc5ad53c	-0.013356503
231	0xbd514520	-0.051091313
232	0x3d50fbaa	0.051021256
233	0x3daca7f0	0.08430469
234	0x3bb70171	0.0055848886
235	0xbd99adfd	-0.07503889
236	0x3d6c497c	0.057687268
237	0x3d515eda	0.051115848
238	0x3cb20984	0.021733053
239	0x3daae5ad	0.083445884
240	0x3ce9eabf	0.028554318
241	0x3d2ffbb7	0.042964663
242	0xbcf03edd	-0.02932685
243	0x3d8c5021	0.06851221
244	0xbd4b5ba6	-0.04964795
245	0xbcfb62fe	-0.030686852
246	0x3db52c55	0.08846346
247	0x3d083f78	0.033263654
248	0x3cf13f4e	0.029449131
249	0xba7dd28e	-0.0009682559
250	0x3d5a5553	0.053304028
251	0x3c4dc6c9	0.012559601
252	0x3db56a9c	0.08858225
253	0x3da8a355	0.08234278
254	0xbd8340f6	-0.06408875
255	0xbd848839	-0.06471295

bias_ih_l0 f4 [512]
0	0x3d9fa381	0.07794858
1	0xbd800220	-0.06250405
2	0x3d6bb5ba	0.057546355
3	0xbd7cbaa3	-0.06170143
4	0x3db44cd7	0.088037185
5	0x3d6ad4ca	0.057331838
6	0x3d89124c	0.06692943
7	0x3cfb8915	0.030705014
8	0x3da8dc4c	0.08245143
9	0xbdb82d23	-0.08992984
10	0x3d12961b	0.035787683
11	0x3d5439ca	0.051812924
12	0x3cddb531	0.027063938
13	0xbda9ae37	-0.08285182
14	0xbd6465fc	-0.055761322
15	0x3cbd7723	0.023128098
16	0x3b1f7a5c	0.0024334406
17	0xbd0c8064	-0.03430213
18	0xbd31d203	-0.043413173
19	0x3dc608ad	0.096696235
20	0x3aa91d9a	0.0012902499
21	0x3d768aaa	0.060190834
22	0x3d2ced5d	0.042218555
23	0xbd0171b8	-0.03160259
24	0xbd5288a4	-0.051399842
25	0x3da799be	0.08183621
26	0x3c6c60dd	0.014427391
27	0x3d478b02	0.048716553
28	0x3d1dffa1	0.038573865
29	0x3cb7d92d	0.022442425
30	0x3d387272	0.04503102
31	0xbd652746	-0.055945657
32	0xbd9de395	-0.077094235
33	0xbdbbddc4	-0.09173158
34	0xbcb1b944	-0.021694787
35	0xbc2790b7	-0.010227374
36	0x3d7d2ba1	0.061809186
37	0xbdc0f2cc	-0.0942131
38	0x3c40a700	0.011758566
39	0xbcf3f46b	-0.029779634
40	0x3cf705ec	0.030154191
41	0x3d528e7a	0.051405407
42	0x3daa3713	0.08311286
43	0xbd9072c2	-0.07053138
44	0x3da358a9	0.07975895
45	0xbd9e2315	-0.07721535
46	0xbcfa06b3	-0.030520773
47	0x3d88f8ec	0.06688103
48	0xbd58f2d7	-0.052965965
49	0xbd4e3d7e	-0.050351612
50	0xbd840116	-0.064455196
51	0xbc01185a	-0.007879341
52	0xbc466252	-0.012108402
53	0xbba16681	-0.0049255495
54	0x3d6909d0	0.056894124
55	0x3d0a8bc9	0.033824716
56	0xbd5147c7	-0.051093843
57	0xbaaded20	-0.0013269521
58	0xbc91b12f	-0.017784683
59	0x3c49bb68	0.012312748
60	0x3c86d522	0.016459052
61	0x3cea5954	0.028607048
62	0x3d392768	0.045203596
63	0xbd3efcfd	-0.046627987
64	0x3d9c3978	0.07628149
65	0xbdb3609b	-0.087586604
66	0x3d9e533c	0.077307194
67	0xbd9a1f56	-0.07525508
68	0x3db18f9e	0.08669971
69	0xbd788278	-0.0606713
70	0xbd132632	-0.035925098
71	0x3ca0687b	0.01958107
72	0x3db39e7b	0.08770462
73	0x3d9cc692	0.07655062
74	0x3d96a4bf	0.073556416
75	0xbc45c88a	-0.012071738
76	0x3d454861	0.04816473
77	0xbd8d9566	-0.06913261
78	0xbdb548aa	-0.0885175
79	0xbd83171d	-0.06400893
80	0x3d820b53	0.06349816
81	0x3d9fd6b9	0.07804627
82	0x3b973ceb	0.0046154163
83	0x3c2b705d	0.010463801
84	0xbc1ba8e3	-0.009500715
85	0xbcf5a476	-0.029985648
86	0xbd41081b	-0.04712687
87	0xbd520382	-0.051272877
88	0x3d93e398	0.072211444
89	0x3d825ffa	0.06365962
90	0xbd2eddca	-0.042691983
91	0x3d340c64	0.04395713
92	0xbd176287	-0.036959197
93	0x3d35e6a6	0.044409417
94	0x3d29c1c8	0.04144457
95	0x3d0b1997	0.03395995
96	0x3d2272a2	0.039660104
97	0x3d3da8e9	0.046303663
98	0xbd52b759	-0.051444385
99	0xbd8acd2f	-0.06777417
100	0xbc616df1	-0.013759122
101	0x3d912930	0.07087934
102	0xbdab2871	-0.08357323
103	0xbd1c58e6	-0.038170718
104	0xbcfccb0f	-0.030858545
105	0xbc5c6a44	-0.01345307
106	0xbb25a0d7	-0.002527287
107	0x3dc3a899	0.09553642
108	0x3d3f3320	0.046679616
109	0xbd8166cc	-0.06318435
110	0x3c3082b5	0.0107733505
111	0xbd48c8f1	-0.049019758
112	0xbd6063db	-0.05478273
113	0x3cb5e63c	0.02220451
114	0x3d9fe1ef	0.07806765
115	0x3cbd0707	0.02307464
116	0x3d6e37af	0.058158573
117	0x3db13a93	0.0865375
118	0x3d98e15d	0.0746486
119	0x3d60d029	0.054886017
120	0x3d6c5551	0.05769855
121	0xbd0edec4	-0.034880415
122	0xbd4927c2	-0.04911018
123	0x3c1fb217	0.00974705
124	0xbd93aef4	-0.07211104
125	0xbc93f6a7	-0.018061949
126	0xbca8f52b	-0.020624718
127	0xbd57fe60	-0.052732825
128	0xbd8f9101	-0.07010079
129	0x3d977d9d	0.07397006
130	0x3dafa965	0.08577231
131	0xbd18d5fe	-0.037313454
132	0xbd3d3631	-0.04619426
133	0x3cd67173	0.026177144
134	0x3d545a33	0.051843833
135	0xbda82ac1	-0.0821128
136	0x3b265414	0.0025379704
137	0xbdb0fcf5	-0.08641998
138	0xbd5241ac	-0.05133216
139	0x3d86175d	0.06547425
140	0xbb1b01e6	-0.0023652255
141	0xbd589307	-0.05287459
142	0xbd5f2b3f	-0.054484602
143	0xbd63a6c1	-0.05557895
144	0xbca9a9d5	-0.020710865
145	0xbd22ce5c	-0.03974758
146	0x3c2de0ad	0.010612649
147	0x3d764ccc	0.060131833
148	0x3c41aeed	0.011821491
149	0xbd14f3dc	-0.036365375
150	0xbd00b8d3	-0.031426262
151	0xbcb6502f	-0.022255031
152	0xbd8235db	-0.06357928
153	0x3d8ff78b	0.07029637
154	0xbdb58dc9	-0.08864934
155	0x3d20e446	0.0392802
156	0xbcaaf6d0	-0.020869642
157	0xbcebc715	-0.028781453
158	0xbcae36bd	-0.021266336
159	0x3d9582cd	0.07300339
160	0x3da9ba3d	0.08287475
161	0x3bb1c68b	0.0054252795
162	0x3db37fdb	0.08764621
163	0xbda0fd28	-0.07860786
164	0xbd565041	-0.05232263
165	0x3cd93c8a	0.026518125
166	0xbd46d932	-0.048546977
167	0xbd6f260e	-0.0583859
168	0x3d685c2a	0.05672852
169	0x3dae4af6	0.085103914
170	0xbd9b9ee2	-0.07598664
171	0x3d11456b	0.035466593
172	0xbda8535d	-0.08219025
173	0x3c0f1693	0.008733409
174	0x3cd781ee	0.026307072
175	0x3bd66990	0.0065433457
176	0x3c1f3b3c	0.009718712
177	0xbd91f651	-0.07127059
178	0xbd109a29	-0.03530327
179	0x3d19d819	0.037559602
180	0x3da9c8d0	0.08290255
181	0x3dadd396	0.084876224
182	0x3c83e464	0.016100116
183	0xbccef74b	-0.025264403
184	0xbd9c6ada	-0.07637568
185	0xbd20b1ca	-0.039232053
186	0xbd0dda20	-0.03463185
187	0xbda1785e	-0.07884286
188	0x3d20fda0	0.039304376
189	0x3d902a8b	0.070393644
190	0x3d20d0a2	0.039261468
191	0x3d1079da	0.035272457
192	0x3d95b8c0	0.07310629
193	0xbd88c9ae	-0.06679092
194	0x3ce90fa6	0.028449845
195	0xbd18be11	-0.037290636
196	0xbce8164b	-0.028330943
197	0xbcb5a653	-0.022174036
198	0xbd00c51f	-0.03143799
199	0xbdb2157e	-0.086955056
200	0xbc607374	-0.013699401
201	0x3d209dc2	0.03921295
202	0xbd869739	-0.06571812
203	0x3c156fff	0.00912094
204	0xbd35bd3d	-0.044369925
205	0x3d8f042a	0.06983216
206	0xbda86288	-0.08221918
207	0xbcecedbe	-0.028921958
208	0x39d35204	0.00040306163
209	0x3bbb02c9	0.005707119
210	0x3d968ef3	0.07351484
211	0xbd822838	-0.06355327
212	0x3d142568	0.036168486
213	0x3d0228ab	0.031777065
214	0xbcd83433	-0.026392078
215	0xbd68f96b	-0.05687849
216	0x3c7f97c0	0.015600145
217	0x3d065d43	0.032803785
218	0xbcbe935e	-0.02326363
219	0x3d274732	0.04083938
220	0x3d8f3f7b	0.0699453
221	0xbd028d53	-0.03187306
222	0x3cfb14e5	0.030649612
223	0x3ca7abf0	0.020467728
224	0x3d1e947e	0.038715832
225	0xbd3a4352	-0.045474358
226	0x3c8c1de3	0.017104095
227	0x3d90ba7b	0.07066818
228	0x3da67014	0.08126846
229	0x3d2bd81a	0.041954137
230	0x3d7aa481	0.06119204
231	0x3b9db615	0.0048129656
232	0xbd53207b	-0.051544648
233	0x3d7f0700	0.062262535
234	0x3c6ee83f	0.014581739
235	0x3dba0833	0.09083595
236	0x3d3d2d07	0.04618552
237	0xbccd6257	-0.025071306
238	0x3c4d1aa7	0.012518561
239	0x3bbb8c51	0.005723514
240	0x3cf7ed83	0.030264622
241	0xbda7293e	-0.08162163
242	0xbdcb6386	-0.09931092
243	0xbda4ed8b	-0.0805312
244	0xbd32a5e7	-0.043615248
245	0xbbf14df7	-0.0073640305
246	0x3d7bf3a9	0.06151167
247	0xbda4d11a	-0.080476955
248	0x3d853049	0.0650335
249	0x3d7decbe	0.061993353
250	0x3b4087d9	0.0029377847
251	0x3a4af118	0.0007741614
252	0x3d6282d0	0.055300534
253	0x3d2f94b9	0.042866442
254	0x3ccd914e	0.0250937
255	0x3d391db0	0.045194328

bias_hh_l0 f4 [512]
0	0xbbd3a3e5	-0.0064587467
1	0x3da0d9c8	0.078540385
2	0x3da85785	0.08219818
3	0x3c9f2d1c	0.01943069
4	0x3d89bee7	0.06725865
5	0x3dbe3f69	0.09289438
6	0x3d04dfcb	0.032439988
7	0xbd048158	-0.032349914
8	0x3d5bdbf8	0.053676575
9	0xbcdbf5ca	-0.0268506
10	0x3d8005a3	0.06251075
11	0xbd81c514	-0.06336418
12	0xbd81179f	-0.063033335
13	0x3d4f7214	0.050645903
14	0xbd765ec6	-0.060148977
15	0xbd44968e	-0.047995143
16	0xbb523563	-0.0032075278
17	0x3d99d28b	0.07510861
18	0xbcd25f87	-0.025680317
19	0x3d8ab72a	0.06773217
20	0x3db2b894	0.08726612
21	0x3d1a7590	0.037709773
22	0x3da033db	0.07822391
23	0xbd0a4e75	-0.03376623
24	0x3c844f23	0.016151017
25	0x3d5eb786	0.05437424
26	0xbd261850	-0.04055053
27	0xbbee7a3e	-0.007277756
28	0x3d582fcd	0.05277996
29	0xbd58ff68	-0.05297795
30	0x3c1458a8	0.00905434
31	0xbd57a47e	-0.052647106
32	0xbcfc12a9	-0.030770617
33	0x3d6099b8	0.054834098
34	0xbd48b7d6	-0.049003445
35	0x3d904561	0.07044483
36	0x3d882156	0.06646983
37	0x3d8719bb	0.065967046
38	0x3c847c9c	0.0161727
39	0xbcea8d77	-0.028631909
40	0xbd816f71	-0.06320084
41	0x3ba6dcc2	0.0050922344
42	0xbd58bbeb	-0.052913588
43	0xbda8b87e	-0.08238314
44	0x3d1cfc16	0.038326345
45	0x3c30ba24	0.010786567
46	0x3d98adf9	0.07455058
47	0xbd8b502c	-0.06802401
48	0xbdac472c	-0.084120125
49	0x3d671790	0.056418955
50	0xbc9ab098	-0.018883035
51	0xbd86778b	-0.0656577
52	0x3c1fcf3c	0.009753998
53	0xbd9f10be	-0.07766865
54	0x3cce2d30	0.025168031
55	0xbd8ed7cf	-0.06974756
56	0xbcd4bb82	-0.025968317
57	0xbd9b274b	-0.07575854
58	0x3d141257	0.036150303
59	0x3d9baded	0.07601533
60	0x3d339201	0.043840412
61	0xbc950da7	-0.018194987
62	0xbd44ed79	-0.048078034
63	0xbd9ae552	-0.07563271
64	0x3d65b35e	0.05607926
65	0x3ce6c779	0.028171288
66	0xbd4c5248	-0.049883157
67	0xbd81b910	-0.06334126
68	0x3db69af6	0.08916275
69	0x3d7a78a2	0.0611502
70	0x3d50d8e5	0.050988097
71	0x3dafe326	0.08588247
72	0xbd23808a	-0.039917506
73	0xbbe3bcee	-0.0069500124
74	0x3d0a9802	0.033836372
75	0x3d670b96	0.056407534
76	0xbd8713da	-0.06595583
77	0x3d83c796	0.06434552
78	0xbc85e917	-0.016346497
79	0x3d714e8e	0.058912806
80	0xbcff9e20	-0.03120333
81	0xbd5eb3d3	-0.054370712
82	0x3c95608d	0.018234516
83	0xbc99bbdd	-0.018766338
84	0xbc3a087b	-0.011354561
85	0xbd2e3f87	-0.042541053
86	0xbd1c707d	-0.038193215
87	0xbd913b85	-0.070914306
88	0x3b43bf4b	0.0029868658
89	0xbc73d8df	-0.014883249
90	0x3cae3987	0.021267666
91	0x3d018c3c	0.03162788
92	0xbc91df84	-0.017806776
93	0xbd484548	-0.048894197
94	0x3da7b553	0.08188882
95	0xbcaf42e7	-0.021394206
96	0x3dbe9fcc	0.093078226
97	0x3d3d0241	0.046144728
98	0xbd91a3e0	-0.07111335
99	0x3d952863	0.07283094
100	0x3c9a091a	0.018803168
101	0x3d425d26	0.047452115
102	0xbbae6203	-0.0053217425
103	0x3cdb606b	0.026779374
104	0xbd8ce818	-0.06880206
105	0x3d032e88	0.032026798
106	0xbc880918	-0.016605899
107	0x3d947243	0.07248356
108	0x3db8e417	0.0902788
109	0xbd567966	-0.05236187
110	0xbd73c841	-0.05951715
111	0x3cb586fe	0.022159096
112	0xbb260420	-0.0025332049
113	0x3d64217d	0.055696
114	0xbdae68fd	-0.08516119
115	0xbd24500f	-0.040115412
116	0xbdabdad9	-0.08391351
117	0x3db18343	0.08667614
118	0xbb1f8a0d	-0.002434376
119	0xbbabd56f	-0.005243949
120	0xbdb0fd78	-0.08642095
121	0x3d9ec47e	0.07752322
122	0x3d294a0a	0.041330375
123	0x3d709e2e	0.058744602
124	0x3d5f65f9	0.054540608
125	0xbd9c86c9	-0.07642896
126	0x3da3864e	0.07984601
127	0xbd40e575	-0.047093827
128	0xbc9473f0	-0.01812169
129	0xbca4f7d5	-0.020137707
130	0xbd9d4db5	-0.07680837
131	0x3d488c3c	0.048961863
132	0xbcf3e4b4	-0.02977214
133	0x3d8e6a20	0.069538355
134	0xbad5483e	-0.001627214
135	0x3d0f46ca	0.03497962
136	0x3c8aab6a	0.01692744
137	0xbd961ac0	-0.07329321
138	0x3d461ed2	0.048369236
139	0x3d443e5e	0.04791104
140	0xbd830e16	-0.06399171
141	0xbd8c7475	-0.0685815
142	0xbd5e3501	-0.054249767
143	0xbd93a3f6	-0.072090074
144	0x3d97bdff	0.07409286
145	0xbd9b6ec7	-0.075894885
146	0x3cecee04	0.028922088
147	0xbd9296b3	-0.0715765
148	0x3dab1cdc	0.08355114
149	0x3d9ac920	0.07557893
150	0xbd5ebae1	-0.05437744
151	0x3db20c6f	0.08693778
152	0x3cabe8d7	0.02098505
153	0x3d7570fe	0.05992221
154	0xbd30208a	-0.04299978
155	0xbd9dfac4	-0.07713845
156	0xbd4f43cc	-0.050601766
157	0x3d2d25bf	0.042272326
158	0x3d5963a7	0.05307355
159	0x3c9a8192	0.018860612
160	0xbd32f868	-0.04369393
161	0x3d3bc37d	0.04584073
162	0xbd1af004	-0.037826553
163	0xbaf36259	-0.0018568739
164	0xbdb9feca	-0.090818
165	0x3cc44dc0	0.023962855
166	0xbda4e3c3	-0.080512546
167	0xbc3f9bfb	-0.0116949035
168	0xbd9899ca	-0.07451208
169	0xbd1d870d	-0.038458873
170	0xbd9103a3	-0.07080772
171	0x3d7032bf	0.058642145
172	0x3c9b7aaa	0.01897939
173	0xbd51746a	-0.05113641
174	0x3cbf7fd6	0.023376387
175	0xbd566533	-0.052342605
176	0xbcf8c1fd	-0.030365938
177	0x3da80687	0.0820437
178	0xbaa277e6	-0.0012395352
179	0xbd47744a	-0.048694886
180	0xbc98f9b5	-0.018673757
181	0xbb8b6337	-0.0042537707
182	0xbd03cf40	-0.03218007
183	0xbd7958c5	-0.060875673
184	0xbd5dbecf	-0.054137047
185	0x3d981ef9	0.074277826
186	0xbc2e2a6c	-0.010630231
187	0x3c9f9c94	0.019483842
188	0x3a731449	0.0009272737
189	0xbd38078e	-0.04492908
190	0xbca2a89f	-0.019855795
191	0xbc360bf2	-0.011111246
192	0x3d388926	0.04505267
193	0x3d1a1fb9	0.03762791
194	0x3d492e2e	0.049116306
195	0x3d634d39	0.055493567
196	0x3d9345fe	0.07191084
197	0x3c8b6271	0.017014714
198	0xbcb02948	-0.02150406
199	0xbd762c82	-0.06010104
200	0x3db60d28	0.08889228
201	0xbcc55bc2	-0.024091605
202	0x3d55e1ac	0.05221717
203	0x3d8c92f3	0.06863966
204	0xbc2f38a1	-0.010694654
205	0xbcb452ee	-0.0220122
206	0xbbde74aa	-0.00678881
207	0x3d9715e2	0.07377221
208	0x3d8f542d	0.06998477
209	0xbd2468b1	-0.040138904
210	0xba662792	-0.00087797
211	0x3daabd80	0.083369255
212	0x3c946bad	0.01811775
213	0xbd9bea08	-0.07612997
214	0xbd5a7104	-0.053330436
215	0xbd82591e	-0.06364654
216	0xbd716c70	-0.058941305
217	0x3db0c7fc	0.08631894
218	0xbc95e612	-0.018298183
219	0xbd540e9e	-0.051771753
220	0x3ca8efb9	0.020622121
221	0xbd83ddd1	-0.064387925
222	0x3cc54649	0.024081366
223	0x3daf9768	0.085738
224	0xbd231214	-0.039812163
225	0x3d046e84	0.03233196
226	0xbda874d3	-0.082254075
227	0x3ce85b67	0.028363897
228	0xbd9214ae	-0.071328506
229	0x3d442466	0.047886275
230	0x3dae4f1e	0.08511184
231	0x3d618a7c	0.05506371
232	0x3b2f0cc7	0.0026710497
233	0x3dc2dd7b	0.095149
234	0xbc9a7c3e	-0.018858071
235	0xbccaca92	-0.024754796
236	0x3d7e2a18	0.062051862
237	0x3c34a91b	0.011026646
238	0xbd3ffcce	-0.046871953
239	0xbd8cc9bc	-0.06874415
240	0xbc0068b5	-0.007837464
241	0x3cfb17ce	0.030651
242	0xbd67fcf6	-0.056637727
243	0xbbb92418	-0.0056500547
244	0x3d58a769	0.05289403
245	0xbcdcc586	-0.026949655
246	0x3d2c3f0f	0.042052325
247	0x3d73bc87	0.059505966
248	0xbd1c3d75	-0.038144547
249	0xbca5baf5	-0.02023075
250	0x3d83edd7	0.06441849
251	0xbc3636bd	-0.011121449
252	0x3c4e88bd	0.012605843
253	0xbc66c0ff	-0.0140841
254	0x3d62ea19	0.055399034
255	0xbc90dcd1	-0.017683418

weight f4 [1, 128]
0	0xbc960922	-0.018314902
1	0xbd506297	-0.050875273
2	0x3d1f9697	0.038961973
3	0xbd36a91c	-0.04459487
4	0x3d09617f	0.033540245
5	0xbc49783a	-0.012296731
6	0x3c80204b	0.015640398
7	0x3d8e4a32	0.069477454
8	0xbd1393bf	-0.036029574
9	0xbd85cce9	-0.06533224
10	0x3da190a6	0.078889176
11	0xbd225ab5	-0.039637286
12	0xbda47672	-0.08030404
13	0x3d661be3	0.05617894
14	0x3d5108a5	0.051033635
15	0x3ceb1181	0.02869487
16	0x3d491f88	0.049102336
17	0xbda678fb	-0.08128544
18	0xbd3983d9	-0.045291755
19	0xbc72e1ee	-0.014824374
20	0xbc4ca7c5	-0.012491171
21	0xbccf569f	-0.025309859
22	0xbd6be2b4	-0.057589248
23	0xbcf7309d	-0.030174548
24	0xbda2ff0e	-0.07958804
25	0xbc820c5f	-0.01587504
26	0xbd1e4b0a	-0.03864578
27	0xbd8329cd	-0.06404457
28	0x3d28e3d6	0.041232906
29	0xbd57744f	-0.052601155
30	0x3c754d5b	0.014972056
31	0xbcecfbdb	-0.028928688
32	0xbb193dbb	-0.0023382741
33	0x3af82db5	0.001893452
34	0x3c193b54	0.009352524
35	0x3d39f8df	0.045403358
36	0x3da821a0	0.082095385
37	0x3da8e6ac	0.08247122
38	0xbd9eac09	-0.07747657
39	0xbcecc89b	-0.02890425
40	0xbcd285e2	-0.025698606
41	0xba7c8fe3	-0.0009634478
42	0x3c22a0b1	0.009926007
43	0x3d506ec5	0.050886888
44	0x3c57d09f	0.013172298
45	0xbda6d593	-0.08146205
46	0xbd1f30f6	-0.038865052
47	0x3c7da7f8	0.015481941
48	0x3cd5c9b4	0.026097156
49	0xbc869a98	-0.016431138
50	0x3d39130a	0.045184173
51	0x3c737b22	0.0148609
52	0xbcb58f87	-0.022163166
53	0xbd34ccc1	-0.04414058
54	0x3d3bac89	0.04581884
55	0xbcd77576	-0.026301127
56	0xbd9231b9	-0.0713839
57	0x3b9c1417	0.004763137
58	0xbd9239d4	-0.07139936
59	0xbd5c8219	-0.05383501
60	0x3d90b7f7	0.070663385
61	0x3d10393a	0.035210826
62	0x3ba5e671	0.005062871
63	0x3d6ad7c4	0.057334676
64	0x3ce800bd	0.028320665
65	0xbd573bb1	-0.05254716
66	0xbc849ae5	-0.01618714
67	0x3db37ebe	0.087644085
68	0xbcd6ed22	-0.02623612
69	0x3d0f52d9	0.03499112
70	0xbd3d187f	-0.04616594
71	0x3d5a537d	0.053302277
72	0x3cd03855	0.025417486
73	0x3d24b93b	0.040215712
74	0xbd8a71bc	-0.06759974
75	0x3d04c17f	0.032411095
76	0xbd3b21c0	-0.045686483
77	0x3d096d98	0.033551782
78	0xbd529421	-0.051410798
79	0xbcf07a5f	-0.029355226
80	0x3bf11eef	0.007358424
81	0xbd2f2db3	-0.04276819
82	0x3d752f4c	0.05985956
83	0xbcd3b796	-0.025844377
84	0xbd85b076	-0.06527798
85	0xbdac71cb	-0.08420142
86	0x3d11e149	0.03561524
87	0x3c0df656	0.008664688
88	0xbd9efd3d	-0.07763145
89	0x3ba19fab	0.004932364
90	0x3d9e5f41	0.07733012
91	0x3d33958d	0.043843795
92	0xba6ea6e2	-0.0009103847
93	0x3d802fde	0.0625913
94	0xbd9b4def	-0.07583224
95	0x3d5fe7ee	0.054664545
96	0xbbf599ef	-0.007495157
97	0xbd1f0645	-0.03882434
98	0xbd15fd7c	-0.036618695
99	0xbd3bc7f2	-0.04584498
100	0xbda6c96b	-0.08143886
101	0x3d4048d4	0.046944454
102	0xbd90b531	-0.070658095
103	0xbd81e507	-0.063425116
104	0xbd989fea	-0.07452376
105	0x3c0f0c31	0.008730934
106	0xbd0142ef	-0.031557973
107	0xbd7a32ca	-0.061083592
108	0xbcab7c45	-0.02093328
109	0xbd21ad89	-0.039472137
110	0x3bc436d4	0.0059879813
111	0xbc6f33e7	-0.014599777
112	0xbd2016c5	-0.039084215
113	0xbcd20f78	-0.025642142
114	0x3d145554	0.036214188
115	0x3d94c818	0.07264727
116	0xb9af9115	-0.00033486696
117	0xbd6a7baf	-0.05724686
118	0xbd145b02	-0.036219604
119	0xbb30d7cc	-0.0026984094
120	0xbd3fc67b	-0.046820145
121	0x3c99a68e	0.018756177
122	0xbcf858ba	-0.030315746
123	0x3da13fc5	0.07873491
124	0xbccaffbe	-0.02478015
125	0xbd11997f	-0.035546776
126	0xbb94fbe8	-0.004546631
127	0x3d858f31	0.06521452

weight f4 [128]
0	0x3f7e463b	0.99325913
1	0x3f7fe2b7	0.99955314
2	0x3f7f9af8	0.9984584
3	0x3f7f2524	0.9966605
4	0x3f7f8fdb	0.9982888
5	0x3f7fb7a3	0.9988958
6	0x3f7ea975	0.9947732
7	0x3f7fcd83	0.9992296
8	0x3f7f6285	0.99759704
9	0x3f7f04a1	0.9961644
10	0x3f7e6489	0.99372154
11	0x3f7e6cec	0.9938495
12	0x3f7f7514	0.9978802
13	0x3f7e1f95	0.9926694
14	0x3f7f5f73	0.9975502
15	0x3f7f1c86	0.996529
16	0x3f7e5062	0.99341404
17	0x3f7fe489	0.9995809
18	0x3f7f4ad7	0.9972357
19	0x3f800a1b	1.0003084
20	0x3f80ce85	1.0063025
21	0x3f7eceea	0.99534476
22	0x3f7f8bc6	0.9982265
23	0x3f8025c6	1.0011528
24	0x3f7e9dce	0.9945954
25	0x3f7f01fa	0.9961239
26	0x3f7f6d23	0.99775904
27	0x3f7fba47	0.9989361
28	0x3f7ee60b	0.9956977
29	0x3f7fa36c	0.99858737
30	0x3f7dc649	0.99130684
31	0x3f7fb784	0.998894
32	0x3f7daa38	0.9908786
33	0x3f7ae2c9	0.98002297
34	0x3f8009d4	1.0002999
35	0x3f7e6856	0.99377954
36	0x3f7f4ea7	0.9972939
37	0x3f7e9dcb	0.9945952
38	0x3f7e2ace	0.99284065
39	0x3f7fbc43	0.9989664
40	0x3f7fbfc8	0.9990201
41	0x3f7db090	0.9909754
42	0x3f7e8b0b	0.9943091
43	0x3f7fe42c	0.9995754
44	0x3f7effdd	0.99609166
45	0x3f7ee62d	0.9956997
46	0x3f7ed160	0.9953823
47	0x3f8008bf	1.0002669
48	0x3f7ea6db	0.9947335
49	0x3f7e33c4	0.9929774
50	0x3f7f576a	0.9974276
51	0x3f7fd8c0	0.9994011
52	0x3f7f3383	0.99687976
53	0x3f7e9602	0.99447644
54	0x3f7e4c82	0.9933549
55	0x3f7eeb63	0.9957792
56	0x3f7f8eac	0.99827075
57	0x3f7e536b	0.99346036
58	0x3f7d86ca	0.99033797
59	0x3f7efe36	0.99606645
60	0x3f7ebe44	0.9950907
61	0x3f7e2204	0.99270654
62	0x3f7f0cbb	0.996288
63	0x3f7ff2ed	0.9998005
64	0x3f7f6bec	0.9977405
65	0x3f7f13d9	0.9963966
66	0x3f7f8294	0.9980862
67	0x3f802e66	1.001416
68	0x3f7e45f7	0.9932551
69	0x3f7e8064	0.9941466
70	0x3f7f2cd3	0.9967777
71	0x3f7f9ac0	0.99845505
72	0x3f7fb426	0.9988426
73	0x3f7f6a12	0.99771225
74	0x3f80041e	1.0001256
75	0x3f7f114e	0.9963578
76	0x3f7f910a	0.9983069
77	0x3f7e529b	0.99344796
78	0x3f7f41a6	0.99709547
79	0x3f7f2a87	0.99674267
80	0x3f7f836d	0.99809915
81	0x3f7f727e	0.99784076
82	0x3f7fbb29	0.9989496
83	0x3f7e60de	0.9936656
84	0x3f7f13be	0.996395
85	0x3f7f5267	0.9973511
86	0x3f7fc3f6	0.9990839
87	0x3f7e7c8e	0.99408805
88	0x3f7ecfc3	0.9953577
89	0x3f7eb458	0.9949393
90	0x3f7ef3ea	0.99590933
91	0x3f7dccb0	0.99140453
92	0x3f787b3f	0.9706306
93	0x3f7e0537	0.9922671
94	0x3f7effee	0.9960927
95	0x3f7e7756	0.9940084
96	0x3f7eb8c0	0.99500656
97	0x3f7f2675	0.99668056
98	0x3f7fcd69	0.99922806
99	0x3f7dffe5	0.9921859
100	0x3f7ea1d8	0.99465704
101	0x3f7e56ce	0.99351203
102	0x3f800307	1.0000924
103	0x3f7eb83c	0.9949987
104	0x3f7e10ce	0.9924439
105	0x3f7fa80f	0.9986581
106	0x3f7df8cc	0.9920776
107	0x3f7f58fe	0.99745166
108	0x3f7eaaea	0.99479544
109	0x3f80040b	1.0001234
110	0x3f7e9e72	0.9946052
111	0x3f7fb34f	0.9988298
112	0x3f8012e9	1.0005771
113	0x3f7eeaf3	0.99577254
114	0x3f7f4abf	0.9972343
115	0x3f7e3525	0.9929984
116	0x3f7e513d	0.9934271
117	0x3f7f29e1	0.9967328
118	0x3f7de548	0.9917798
119	0x3f7ea453	0.9946949
120	0x3f7e912a	0.9944025
121	0x3f7e63af	0.99370855
122	0x3f7f9482	0.9983598
123	0x3f7da06c	0.9907291
124	0x3f7ece48	0.9953351
125	0x3f7baecd	0.983136
126	0x3f7e9ee7	0.99461216
127	0x3f7f0a67	0.9962525

bias f4 [128]
0	0xbb28f607	-0.002578141
1	0xbadd7418	-0.001689556
2	0x3ad3a2ac	0.0016146502
3	0xbb093b54	-0.0020939903
4	0x3acd0b48	0.0015643621
5	0xba12b0f8	-0.00055958284
6	0x3b149974	0.0022674473
7	0x3af562d5	0.0018721471
8	0xbaeec247	-0.0018215858
9	0xbb06412e	-0.0020485627
10	0x3b023f54	0.0019874172
11	0xbada133c	-0.0016637812
12	0xbb03bb0e	-0.0020100507
13	0x3b0cdd73	0.0021494299
14	0x3b055f62	0.0020351042
15	0x3b0dde6e	0.002164747
16	0x3b10aa01	0.0022073986
17	0xbafa544d	-0.001909861
18	0xbaeab2c4	-0.001790606
19	0xba439bac	-0.00074618566
20	0xb7f594a0	-2.9275485e-05
21	0xbb1ff419	-0.0024406968
22	0xbae774bf	-0.0017658694
23	0xbabf41ce	-0.0014591755
24	0xbb03690c	-0.0020051626
25	0xbade7625	-0.0016972466
26	0xbaec4795	-0.0018026704
27	0xbae7624e	-0.0017653198
28	0x3b0580e5	0.0020371017
29	0xbb06ee89	-0.0020588955
30	0x3b1718f9	0.0023055656
31	0xbad4bdd9	-0.0016230895
32	0xbbe64a59	-0.007027906
33	0x3ba301bf	0.0049745734
34	0x3998fe96	0.0002918138
35	0x3b0e30b8	0.002169652
36	0x3aee309a	0.0018172443
37	0x3af0b05a	0.0018363104
38	0xbb023a21	-0.0019871073
39	0xbb155e3d	-0.0022791766
40	0xbac92a02	-0.0015347602
41	0xbbc80888	-0.0061045326
42	0x3b02e42e	0.0019972431
43	0x3adee50e	0.001700552
44	0x3b24a912	0.0025125188
45	0xbb03151c	-0.0020001596
46	0xbb0233fe	-0.0019867416
47	0x3a71111e	0.0009195971
48	0x3b07458f	0.0020640825
49	0xbb0a9e41	-0.0021151456
50	0x3afd12fa	0.0019308024
51	0x3a8ae48e	0.0010596679
52	0xbad53a9f	-0.0016268081
53	0xbb0367f8	-0.0020050984
54	0x3b0682c7	0.0020524727
55	0xbb09c35c	-0.0021020984
56	0xbae283a9	-0.001728167
57	0x3b338f7c	0.0027398756
58	0xbaed2207	-0.0018091806
59	0xbb0be886	-0.0021348312
60	0x3afec53e	0.0019437445
61	0x3aea517e	0.001787707
62	0x3a80257e	0.0009776799
63	0x3aeb1c31	0.0017937479
64	0x3ae35b6e	0.0017345974
65	0xbaf1a445	-0.0018435797
66	0xbb24ad0f	-0.0025127565
67	0x3aeed88d	0.0018222496
68	0xbaefd21a	-0.0018296868
69	0x3b10f447	0.0022118257
70	0xbadcd380	-0.00168477
71	0x3ae0ada6	0.0017141595
72	0x3abe4830	0.0014517363
73	0x3ae4d6c2	0.0017459022
74	0xbae53c11	-0.0017489215
75	0x3ae9f16e	0.0017848441
76	0xbadb323f	-0.0016723349
77	0x3b17496e	0.002308454
78	0xbaf0b44c	-0.001836428
79	0xbad1e8a7	-0.001601477
80	0x39ab7a49	0.0003270677
81	0xbaefde4a	-0.00183005
82	0x3ae17a91	0.0017202665
83	0xbb12c012	-0.0022392315
84	0xbb022e8d	-0.0019864172
85	0xbaf17408	-0.0018421421
86	0x3adfb712	0.0017068109
87	0x3b3236a2	0.0027193208
88	0xbaec01b5	-0.001800588
89	0x3b23705c	0.0024938798
90	0x3b03db58	0.0020119753
91	0x3b0c2278	0.002138285
92	0xbc4ac79f	-0.012376695
93	0x3b07ea49	0.002073901
94	0xbb09daef	-0.0021035036
95	0x3b0c93f1	0.0021450485
96	0xbb358b1c	-0.0027701324
97	0xbb0a8c0e	-0.0021140608
98	0xbadafca0	-0.0016707368
99	0xbae87971	-0.0017736388
100	0xbaeac69a	-0.0017911971
101	0x3ae6fd10	0.0017623026
102	0xbae5d084	-0.0017533456
103	0xbaf3f1d6	-0.0018611501
104	0xbafd1ff6	-0.0019311893
105	0x3afa6419	0.0019103318
106	0xbb08b998	-0.0020862576
107	0xbb053ac6	-0.002032922
108	0xbb062ecb	-0.0020474668
109	0xbad3f55d	-0.0016171146
110	0x3b3c494f	0.0028730219
111	0xbb29c4c5	-0.0025904637
112	0xbad6878f	-0.0016367304
113	0xbb11dc20	-0.002225645
114	0x3aee9e9e	0.0018205231
115	0x3b0543a9	0.0020334518
116	0x3ba06473	0.004894787
117	0xbb01ca1b	-0.0019804302
118	0xbb0983f2	-0.0020983187
119	0x3a6f0082	0.0009117202
120	0xbada8005	-0.0016670233
121	0x3b055713	0.002034609
122	0xbada1848	-0.0016639316
123	0x3b049921	0.0020232874
124	0xbb0e4a04	-0.0021711597
125	0xbb0eecf9	-0.0021808727
126	0x39125e99	0.00013958885
127	0x3af43b70	0.0018633436
