Single Battery Model/6. LSTM Models/model_B0005_charge_mm.pth (torch, 334312 bytes, 7 tensors)

weight_ih_l0 f4 [512, 30]
0	0xbd5c1ff9	-0.05374143
1	0x3cfc951b	0.030832818
2	0xbd6a99ad	-0.057275463
3	0x3c372385	0.011177902
4	0x3daf8a1e	0.08571266
5	0x3c4e14db	0.0125782145
6	0xbbd2db2a	-0.006434818
7	0xbd804d3f	-0.062647335
8	0x3ccf7193	0.025322711
9	0xbd0e49c6	-0.034738325
10	0xbcfd4d20	-0.030920565
11	0x3ba41aeb	0.0050080917
12	0x3bd67340	0.0065445006
13	0x3d322fc7	0.043502595
14	0x3da7fad7	0.08202141
15	0xbd2f4bc2	-0.042796858
16	0xbdaca11a	-0.08429165
17	0xbcd6d51e	-0.02622467
18	0x3d89f53f	0.0673623
19	0xbd04337b	-0.032275658
20	0xbd92662a	-0.071483925
21	0xbd949b1a	-0.07256146
22	0xbd734702	-0.05939389
23	0xbd7d2e5a	-0.061811782
24	0x3cc93e84	0.024565943
25	0xbd995b9c	-0.07488176
26	0x3d1d7a59	0.038446758
27	0xbd94b9d5	-0.07262007
28	0xbd0bda88	-0.034143955
29	0xbd033ffa	-0.032043435
30	0x3da10181	0.07861615
31	0xbccecbfc	-0.025243752
32	0x3d39b61a	0.04533968
33	0x3db49256	0.08816974
34	0x3d6c2889	0.057655845
35	0xbc7aae34	-0.015300322
36	0xbccd60e3	-0.025070613
37	0x39bcc2b1	0.0003600321
38	0x3b6ceba0	0.0036151186
39	0xbc49d4af	-0.012318774
40	0x3da1018b	0.078616224
41	0xbdb31de3	-0.08745935
42	0x3d893347	0.066992335
43	0xbdb63bbe	-0.08898114
44	0xbc8743a2	-0.016511742
45	0xbd8ff308	-0.070287764
46	0xbd7c1cc3	-0.061550867
47	0xbc8e68e2	-0.017383996
48	0xbd0b6de7	-0.034040358
49	0xbd5aa8fd	-0.053383816
50	0x3b6d461d	0.003620512
51	0x3d087c2a	0.033321537
52	0xbd3af4a4	-0.045643464
53	0x3d8ea525	0.069650926
54	0xbcc06a5e	-0.02348822
55	0xbd9323f5	-0.07184593
56	0x3d98a958	0.07454175
57	0xbd85b7b1	-0.06529177
58	0xbda0cc13	-0.07851424
59	0x3cbcfa95	0.023068706
60	0xbcaa9d81	-0.020827057
61	0xbd2eafe8	-0.042648226
62	0xbd4f81d9	-0.05066094
63	0xbc42955b	-0.011876429
64	0xbcfb1f62	-0.030654613
65	0x3c89cd15	0.016821424
66	0xbd256aa2	-0.040384896
67	0x3d8c4343	0.06848767
68	0xbc15bc28	-0.009139098
69	0x3da102c4	0.078618556
70	0x3ca50b4a	0.020146985
71	0x3ca71fe8	0.020400956
72	0xbd9c9b73	-0.07646837
73	0xbd4c4d4d	-0.049878407
74	0xbc01b94a	-0.0079177115
75	0x3d7baaa9	0.06144205
76	0x3da8aa87	0.082356505
77	0xbda19645	-0.0788999
78	0x3d9193fd	0.07108305
79	0xbd0f9c0c	-0.035060927
80	0x3c19ceb9	0.009387665
81	0xbd4eaa10	-0.050455153
82	0x3cd4abab	0.025960764
83	0xbcde7e12	-0.027159724
84	0xbc8dc151	-0.017304095
85	0x3be7c4d6	0.007073025
86	0xbbd4d6c0	-0.0064953268
87	0xbd111ef0	-0.035429895
88	0xbd5eb1fe	-0.054368965
89	0xbd7e30bd	-0.0620582
90	0x3d9f86f4	0.07789412
91	0xbd711e75	-0.058866937
92	0x3d93150e	0.0718175
93	0xbc5afaad	-0.01336543
94	0xbd5fd46a	-0.054645933
95	0x3c9ab469	0.018884854
96	0x3cc1c071	0.023651334
97	0x3cebe4d1	0.028795632
98	0x3d99ddf1	0.07513035
99	0x3d508d24	0.050915852
100	0x3d8d19ad	0.06889663
101	0x3a64255f	0.00087030785
102	0x3c5bf5d3	0.013425308
103	0xbd995b2a	-0.07488091
104	0xbcb77908	-0.02239658
105	0xbcb3572b	-0.02189215
106	0xbbd33720	-0.0064457804
107	0xbd06bb44	-0.032893434
108	0x3d6fd0c7	0.058548715
109	0xbd395bcb	-0.045253556
110	0xbc3f6a3b	-0.011683042
111	0xbdb632bb	-0.08896395
112	0xbc17be30	-0.009261653
113	0x3d6d6655	0.05795892
114	0xbd5a0e1f	-0.053236123
115	0xbcf27fda	-0.02960198
116	0x3d43dcac	0.04781787
117	0xbd72b406	-0.059253715
118	0x3cdc05f6	0.026858311
119	0x3bb24b25	0.005441087
120	0x3d56db0a	0.052454986
121	0xbcbf5e6a	-0.02336045
122	0xbd620f28	-0.055190235
123	0x3c4673a6	0.012112534
124	0x3c1a5913	0.009420651
125	0xbd03a639	-0.032140944
126	0x3b1750e1	0.002308898
127	0x3d4dca9d	0.050242055
128	0x3d1b44a0	0.037907243
129	0xbd0162c8	-0.031588346
130	0x3db40f71	0.08792008
131	0xbcfd1625	-0.030894348
132	0x3da79da8	0.081843674
133	0x3d23d498	0.039997667
134	0x3d848a80	0.06471729
135	0x3d8cdc12	0.068779126
136	0xbd4f0b5f	-0.050547954
137	0x3d64a24d	0.055818845
138	0x3db7682d	0.08955417
139	0xbd625623	-0.055257928
140	0x3c12b713	0.008954781
141	0xbd8bfcaa	-0.06835301
142	0x3d5a00ab	0.053223293
143	0x3d47f3e2	0.04881657
144	0x3da07ad3	0.07835927
145	0xbcc63129	-0.024193363
146	0x3bec80f1	0.0072175195
147	0x3c5d619e	0.013512043
148	0xbd8ae4b4	-0.06781903
149	0xbcde8f4a	-0.027167935
150	0x3db46e7f	0.08810138
151	0x3d9f7c1f	0.07787346
152	0x3dabe22b	0.083927475
153	0xbcf2ea6b	-0.029652795
154	0x3da3e5f7	0.08002847
155	0xbd0ac97a	-0.03388355
156	0x3d988efc	0.07449147
157	0xbd1aec24	-0.037822857
158	0x3dbdcbb3	0.09267368
159	0xbd50cab8	-0.050974578
160	0xbd4b18d6	-0.049584232
161	0x3d45426a	0.04815904
162	0xbd1a436e	-0.037661962
163	0xbdb38a63	-0.087666295
164	0x3ba9ebc8	0.005185578
165	0x3981b2b6	0.00024737947
166	0xbd7aeae5	-0.06125917
167	0x3d92237f	0.071356766
168	0x3c9b46c5	0.018954644
169	0xbdabf366	-0.08396034
170	0xbda9f4ed	-0.08298669
171	0xbd43b2ea	-0.047778048
172	0xbb1e4623	-0.0024150691
173	0x3c23950c	0.009984266
174	0xbdb0d454	-0.086342484
175	0xbcec0f6f	-0.028815953
176	0xbd84a9af	-0.06477677
177	0x3d197914	0.037468985
178	0xbcda3407	-0.026636137
179	0x3d33c482	0.043888576
180	0x3caf48cc	0.021397017
181	0x3ce20bf9	0.0275936
182	0x3d5421fb	0.05179022
183	0x3da3280c	0.07966623
184	0x3dbb60e1	0.091493376
185	0xbd70eff1	-0.058822576
186	0xbc813b36	-0.015775304
187	0xbd856cce	-0.065148935
188	0xbd8d3277	-0.06894391
189	0x3d6c1ebf	0.05764651
190	0xbd329389	-0.04359773
191	0xbdb248c3	-0.087052844
192	0x3d8790e6	0.06619434
193	0xbd14c6c9	-0.03632239
194	0x3d3ecb79	0.046580765
195	0xbd444af8	-0.04792306
196	0x3b6ed63a	0.0036443607
197	0xbd8db5e5	-0.06919459
198	0xbbb5ea4f	-0.0055516134
199	0x3c93f551	0.018061312
200	0x3d2b391b	0.041802507
201	0xbd959cc4	-0.07305291
202	0x3bdf6b6d	0.006818226
203	0xbcf6e845	-0.030140052
204	0xbd628259	-0.05530009
205	0x3c6dc7bd	0.014512953
206	0x3d53165c	0.051534995
207	0xbcd2c41e	-0.025728282
208	0xbc88b46d	-0.016687596
209	0xbcb7f3bd	-0.02245509
210	0x3d87f327	0.066381745
211	0xbd375fb9	-0.044769023
212	0x3cfa21d9	0.030533718
213	0xbb2fba85	-0.0026814055
214	0xbccf6d65	-0.025320718
215	0xbd406000	-0.046966553
216	0xbcf78e73	-0.030219292
217	0xbd1f989e	-0.038963906
218	0x3d0b6163	0.034028422
219	0xbc912ed2	-0.017722521
220	0x3d257821	0.040397767
221	0xbd8aa985	-0.067706145
222	0xbdaf8d09	-0.08571822
223	0x3b9f3343	0.004858406
224	0xbdb076b1	-0.086163886
225	0x3c2886e4	0.010286067
226	0x3c504f87	0.012714273
227	0xbbae4751	-0.00531856
228	0xbda1a8a4	-0.07893494
229	0xbd865ed2	-0.06561054
230	0x3cc1eb92	0.023671899
231	0xbdd7ab9f	-0.10530781
232	0xbced1076	-0.028938513
233	0x3c4ed16e	0.012623174
234	0xbcc6b948	-0.02425827
235	0x3d69002c	0.05688493
236	0x3d41c4b2	0.047306724
237	0xbda2477f	-0.07923793
238	0xbd88c7d7	-0.066787414
239	0xbdb74e85	-0.08950523
240	0xbba3a70c	-0.004994279
241	0xbcd01dfe	-0.025404926
242	0x3d24f0fc	0.040268883
243	0xbdc050a4	-0.09390381
244	0x3b917a45	0.0044396245
245	0xbdb97112	-0.090547696
246	0x3d4136c7	0.04717138
247	0xbda3de69	-0.08001406
248	0xbdc70780	-0.097182274
249	0x3d674e02	0.05647088
250	0xbb91c2b7	-0.0044482606
251	0xbd7bd2aa	-0.0614802
252	0xbc8b44d4	-0.017000593
253	0x3d7093d5	0.058734734
254	0x3dc87b60	0.09789157
255	0x3dec5a69	0.11540682

weight_hh_l0 f4 [512, 128]
0	0xbd503f21	-0.050841454
1	0x3d7cb818	0.061699003
2	0x3cd48aeb	0.025945147
3	0xbd34238b	-0.04397921
4	0xbd3942a2	-0.04522956
5	0x3d86fd89	0.06591327
6	0xbdc03f8f	-0.09387123
7	0xbd35938d	-0.04433017
8	0xbd838577	-0.06421941
9	0xbdaaa123	-0.08331516
10	0x3d0c93c2	0.0343206
11	0xbd45277e	-0.048133366
12	0xbd9e9350	-0.077429414
13	0xbd3b9ac0	-0.045801878
14	0x3cb8f782	0.022578958
15	0xbdad9783	-0.08476164
16	0xbd1409a5	-0.03614201
17	0x3db9d895	0.09074513
18	0x3d02707e	0.031845562
19	0x3d5be5dd	0.05368601
20	0xbd9e9dc1	-0.07744933
21	0x3d984f27	0.07436972
22	0x3af021f7	0.0018320669
23	0xbcc3f524	-0.023920603
24	0xbd5094dc	-0.050923213
25	0x3d567aa8	0.052363068
26	0x3ca3c80b	0.019992849
27	0x3ca88eea	0.02057596
28	0x3d04a22a	0.032381214
29	0xbd035092	-0.03205926
30	0xbaf3f317	-0.0018611875
31	0x3d9e3251	0.07724441
32	0x3d80c661	0.06287838
33	0x3da03072	0.0782174
34	0xbcd89786	-0.02643944
35	0x3d7cd74c	0.06172876
36	0xbd31ad90	-0.043378413
37	0x3cb1110f	0.02161458
38	0xbceca802	-0.028888706
39	0xbd28632f	-0.041110214
40	0x3d19fb64	0.03759326
41	0xbdc47621	-0.09592844
42	0xbd9d4096	-0.076783344
43	0xbca849fb	-0.02054309
44	0xbd24ef3a	-0.040267207
45	0xbd97860b	-0.073986135
46	0x3d11f865	0.035637278
47	0xbc32606b	-0.010887246
48	0x3d329617	0.043600168
49	0xbd7b2495	-0.061314184
50	0xbcc22eb6	-0.023703914
51	0xbd2cff5e	-0.042235725
52	0x3d12e087	0.035858657
53	0xbb56cf2e	-0.0032777297
54	0xbd31c998	-0.043405145
55	0xbd83f59e	-0.06443332
56	0x3d8f2cc1	0.06990958
57	0xbb45bd67	-0.0030172707
58	0x3da623c7	0.08112293
59	0xbce44b5e	-0.02786797
60	0xbd9caac5	-0.07649759
61	0xbd240c55	-0.040050823
62	0xbcadf2fe	-0.021234032
63	0xbd9e3268	-0.07724458
64	0xbd3e9157	-0.046525326
65	0x3d15e35a	0.036593772
66	0x3da3f1b3	0.08005085
67	0x3a8c3b92	0.0010698906
68	0x3d2b654e	0.04184466
69	0xbd24159f	-0.040059682
70	0x3d299042	0.04139734
71	0xbb9d029c	-0.004791571
72	0x3ca82a3f	0.020527957
73	0x3d1fc448	0.039005548
74	0xbd645d52	-0.05575306
75	0x3c21ce76	0.009875884
76	0x3a83e00a	0.0010061276
77	0x3d80af65	0.06283454
78	0x3d869e1c	0.06573126
79	0xbc6cc550	-0.01445134
80	0x3b1b48ad	0.0023694441
81	0xbc8f89a6	-0.01752169
82	0x3d6e0d9a	0.05811844
83	0xbb6570d8	-0.0035009887
84	0xbd368d63	-0.04456843
85	0xbcb1188b	-0.021618148
86	0xbc88a14f	-0.01667848
87	0xbd7286ce	-0.05921059
88	0xbd7b70a4	-0.06138672
89	0xbd7e90a3	-0.062149655
90	0xbdb83729	-0.08994896
91	0xbdbf53c5	-0.0934215
92	0x3cafa7eb	0.021442374
93	0xbd4083e1	-0.04700077
94	0xbd554d1a	-0.052075483
95	0xbc974f31	-0.018470379
96	0x3db30ea9	0.087430306
97	0x3db1c405	0.08679966
98	0xbd12824b	-0.03576879
99	0xbda85e2b	-0.08221086
100	0xb9e2bc53	-0.00043246392
101	0xbd781691	-0.060568396
102	0x3cb2c26c	0.021821223
103	0xbd66bc08	-0.056331664
104	0x3d6b2002	0.057403572
105	0x3d2f35ca	0.042775907
106	0x3d9f8be7	0.07790356
107	0x3d068b5b	0.032847743
108	0xbd3779db	-0.044793945
109	0xbd0e2e57	-0.034712162
110	0x3a22c6de	0.0006209443
111	0x3db48ba2	0.08815695
112	0x3d9b963b	0.075970136
113	0xbc9690b8	-0.018379554
114	0xbd5842f2	-0.05279822
115	0xbc090cc6	-0.008364862
116	0x3c7d2f2b	0.01545314
117	0xbb486b38	-0.0030581485
118	0xbc51ef9a	-0.012813473
119	0xbc86032e	-0.016358938
120	0x3bc756c4	0.0060833413
121	0x3d57e54d	0.052708913
122	0x3cca0e10	0.024664909
123	0x3d949251	0.0725447
124	0x3d351e0b	0.044218104
125	0xbc59e1f9	-0.013298505
126	0x3ce41706	0.02784301
127	0xbdbfe0f4	-0.09369078
128	0xbdab5a68	-0.08366853
129	0x3d02b6c9	0.0319126
130	0xbb1117a5	-0.0022139337
131	0xbcd3aee2	-0.025840227
132	0x3d037a2c	0.032098934
133	0xbb8a0081	-0.004211486
134	0x3cfd2118	0.03089957
135	0x3d4e02e9	0.050295744
136	0xbd7f2e8c	-0.06230025
137	0xbc075a1a	-0.008261228
138	0x3d338e81	0.043837074
139	0x3ae7baac	0.0017679534
140	0x3b91ab85	0.0044454955
141	0x3d3d5d13	0.04623134
142	0xbd9e48cb	-0.07728728
143	0xbba25d3c	-0.004954962
144	0x3d8c2fdb	0.06845065
145	0xbc735682	-0.014852168
146	0x3d085bba	0.033290602
147	0x3d6790db	0.05653463
148	0xbd104ed1	-0.035231415
149	0x3ce78d13	0.028265512
150	0x3da85a60	0.08220363
151	0x3da7e75d	0.08198426
152	0xbdae7c89	-0.08519847
153	0xbc017fbc	-0.007903989
154	0xbd1fa08a	-0.03897146
155	0x3da522a3	0.08063247
156	0xbd9d2b57	-0.07674282
157	0xbcb9c8c7	-0.022678746
158	0x3d4a87ae	0.0494458
159	0xbce90acd	-0.028447533
160	0x3d9f26c6	0.07771067
161	0xbcf24709	-0.029574888
162	0xbbe4c153	-0.006981054
163	0xbd12c151	-0.035828892
164	0xbcb355e5	-0.021891544
165	0x3d966ab7	0.07344573
166	0xbd2b001c	-0.04174815
167	0xbd81cd69	-0.06338007
168	0x3d89b591	0.06724084
169	0x3c409751	0.011754827
170	0xbcf1199a	-0.029431153
171	0x3c8c6ca9	0.017141657
172	0x3dabf48f	0.08396255
173	0xbd21d62a	-0.039510883
174	0xbd9286c5	-0.071546115
175	0xbcc7aa64	-0.02437324
176	0x3bb000dd	0.0053711967
177	0xbd883b71	-0.066519625
178	0x3d861bc0	0.06548262
179	0xbc6b2b6e	-0.014353616
180	0x3d83fbc1	0.064445026
181	0x3d060c02	0.032726295
182	0xbd31bc3c	-0.043392405
183	0x3d379fb7	0.04483005
184	0x3d605561	0.054768924
185	0x3d4f7195	0.05064543
186	0x3d6bfffc	0.057617173
187	0xbcbfe0d4	-0.023422636
188	0xbd70a164	-0.058747664
189	0x3cf0e712	0.029407058
190	0xbd8eb8e9	-0.069688626
191	0x3cf74882	0.030185942
192	0x3d2fbe4f	0.0429061
193	0xbd188989	-0.03724054
194	0xbce5a742	-0.028033856
195	0x3d9431a7	0.07236033
196	0xbcc8092d	-0.024418438
197	0xbd97becd	-0.07409439
198	0xbd05f65f	-0.03270566
199	0x3cb1f525	0.02172334
200	0x3c7f9059	0.01559838
201	0xbd843c32	-0.06456794
202	0xbda09ed9	-0.07842798
203	0xbdc3385e	-0.095322356
204	0x3d1b5888	0.037926227
205	0x3ab81a02	0.0014045837
206	0x3d4a7233	0.049425315
207	0xbc35ddff	-0.011100291
208	0x3d53a7ae	0.051673584
209	0xbd35a7be	-0.044349425
210	0xbd869f02	-0.06573297
211	0x3dc455ee	0.09586702
212	0x3d91f031	0.07125891
213	0x3d7d01fd	0.061769474
214	0xbc810442	-0.0157491
215	0xbdb897f3	-0.09013357
216	0xbb83869d	-0.00401385
217	0x3cdfb1f0	0.027306527
218	0x3d6ee3bf	0.058322664
219	0xbda61b22	-0.08110644
220	0x3d64906e	0.0558018
221	0xbd2a2a59	-0.041544292
222	0xbd52b368	-0.051440626
223	0xbcbb6660	-0.022875965
224	0x3da9c812	0.082901135
225	0xbc41049c	-0.011780884
226	0xbc9a5c90	-0.018842965
227	0xbd2f05e3	-0.042730223
228	0x3d1a82fb	0.03772257
229	0xbdb5c370	-0.08875167
230	0x3d637c8c	0.0555387
231	0x3cfa8360	0.030580223
232	0xbdab2906	-0.08357434
233	0x3cddadef	0.027060477
234	0xbd3affd6	-0.04565414
235	0x3c0acb6d	0.008471352
236	0xbd42418d	-0.047425795
237	0xbd981ee6	-0.074277684
238	0x3d2e16a1	0.04250205
239	0xbd97902a	-0.07400544
240	0xbc5c651d	-0.013451842
241	0xbd274a17	-0.040842142
242	0xbd1db2b6	-0.03850051
243	0xbd59c737	-0.0531685
244	0x3dbd826d	0.09253392
245	0x3d22d81f	0.03975689
246	0xbd4b470f	-0.049628314
247	0xbac628ed	-0.0015118398
248	0xbdb85dd7	-0.090022735
249	0x3d7e927c	0.062151417
250	0xbd4afdfb	-0.04955862
251	0x3dae1aba	0.085011914
252	0x3da4d03a	0.080475286
253	0x3d317e7a	0.043333508
254	0xbd8ec321	-0.06970812
255	0xbbd56b09	-0.0065130037

bias_ih_l0 f4 [512]
0	0xbd102e69	-0.03520051
1	0xbda8ce37	-0.08242457
2	0x3d029eff	0.03188991
3	0xbcee8a06	-0.02911855
4	0xbd73aaf5	-0.05948921
5	0xbda1e957	-0.07905834
6	0xbce0c972	-0.027439807
7	0x3cc0fccf	0.023558049
8	0x3da8d50b	0.0824376
9	0x3d884d3e	0.06655358
10	0xbdc1877a	-0.09449668
11	0xbd0964a6	-0.03354325
12	0xbb0d09be	-0.00215207
13	0x3d1afa2a	0.03783623
14	0x3d019efc	0.03164576
15	0x3d7335ec	0.059377596
16	0xbb8eb619	-0.004355204
17	0xbd937f40	-0.072020054
18	0x3d429854	0.047508553
19	0x3c030c7b	0.007998581
20	0xbd4c7b6e	-0.0499224
21	0x3d7fc409	0.062442813
22	0x3d86dd47	0.06585174
23	0xbdac1e16	-0.08404176
24	0x3d921de2	0.07134606
25	0xbd687b5a	-0.056758262
26	0xbd8aebe3	-0.06783273
27	0x3c930dbd	0.017950887
28	0x3d436233	0.047701072
29	0x3d8a9cc0	0.06768179
30	0xbdb908a2	-0.0903485
31	0x3cbb396b	0.022854527
32	0x3c2ceb9e	0.010554222
33	0x3dbce65b	0.09223624
34	0xbd5850fa	-0.0528116
35	0x3cd267d2	0.025684271
36	0x3d902742	0.07038738
37	0xbd0cd447	-0.03438213
38	0xbd1500a2	-0.036377557
39	0xbdada6cd	-0.0847908
40	0x3cd9d9f2	0.026593182
41	0x3da5062e	0.08057819
42	0xbd0c563d	-0.03426193
43	0xbd32f940	-0.043694735
44	0x3d3e361b	0.046438318
45	0x3d80ec35	0.06295053
46	0x3d79f3dc	0.061023578
47	0x3d70e0e7	0.058808234
48	0x3d83f793	0.064437054
49	0xbd3346d0	-0.043768704
50	0x3d4dac9c	0.05021344
51	0xbd5c85b8	-0.05383846
52	0x3db12053	0.086487435
53	0xbcb35ec6	-0.021895777
54	0xbd6e0287	-0.05810788
55	0xbb6fb389	-0.0036575517
56	0x3d5601f2	0.05224795
57	0xbd80e037	-0.062927656
58	0x3cedafeb	0.029014548
59	0x3c637c01	0.013884545
60	0x3d8f2535	0.069895186
61	0x3cf48791	0.0298498
62	0xbca6a7a3	-0.020343607
63	0xbd329333	-0.04359741
64	0x3d8b7ad2	0.068105355
65	0xbd3ebcd3	-0.046566796
66	0x3d14cce7	0.036328223
67	0xbd05e5ce	-0.032689862
68	0xbd663996	-0.056207262
69	0x3d0450c5	0.03230359
70	0xbd4bfee0	-0.049803615
71	0xbc974f53	-0.018470442
72	0x3dadea5a	0.08491965
73	0x3cce1155	0.025154749
74	0x3dac4483	0.08411505
75	0xbd25d24a	-0.04048375
76	0xbd517a2e	-0.05114191
77	0xbd4f2c1f	-0.050579187
78	0xbd386c08	-0.0450249
79	0xbc3e5a99	-0.01161828
80	0xbd727f59	-0.05920348
81	0xbd5770d5	-0.05259784
82	0xbdaa82ef	-0.08325755
83	0xbc07e980	-0.008295417
84	0xbd0dbebd	-0.03460573
85	0x3d252f03	0.040328037
86	0x3d36a563	0.04459132
87	0xbd02fc6a	-0.031979002
88	0xbcaee50c	-0.021349452
89	0xbdad2c51	-0.08455718
90	0xb9a8ba86	-0.00032182428
91	0xbd6b9f27	-0.057524826
92	0xbd976d76	-0.07393925
93	0x3d4edbc1	0.050502542
94	0x3cb3a0c7	0.02192725
95	0xbd95b44d	-0.0730978
96	0xbd170de5	-0.036878485
97	0xbd8591b6	-0.06521933
98	0x3b952f1e	0.004552736
99	0x3b9a93a6	0.004717308
100	0xbc14553d	-0.0090535255
101	0x3d94a6c2	0.07258369
102	0x3d621ca6	0.055203103
103	0x3c7f88ba	0.015596563
104	0xbbcdfbec	-0.006286135
105	0x3d24b180	0.04020834
106	0x3c13d104	0.009022001
107	0xbda7adbe	-0.081874356
108	0xbc467c72	-0.012114631
109	0x3a6caf28	0.0009028786
110	0xbc18bc94	-0.009322304
111	0x3db7e9e9	0.08980162
112	0xbcd71809	-0.026256578
113	0x3d3c3159	0.0459455
114	0x3cc6b8bb	0.024258008
115	0x3d1afd3b	0.037839156
116	0x3d43f9b1	0.047845546
117	0x3ca2d402	0.019876484
118	0x3d978db8	0.074000776
119	0xbd86f0d6	-0.065889046
120	0x3b60dda8	0.0034311805
121	0x3daaf792	0.083480015
122	0x3b34610c	0.0027523665
123	0x3d977085	0.07394508
124	0x3d193f7d	0.037414063
125	0xbd8d540b	-0.069007955
126	0x3dbf2206	0.09332661
127	0xbd1ae004	-0.037811294
128	0xbd208dbd	-0.039197672
129	0x3baa8e97	0.0052049863
130	0x3d91107f	0.070832245
131	0x3d684da3	0.056714665
132	0x3c93d704	0.018046863
133	0x3d9c3b67	0.076285176
134	0x3db11c26	0.08647947
135	0x3d5b5175	0.05354448
136	0xbd61b7a5	-0.055106778
137	0x3d875c67	0.06609421
138	0x3c221c24	0.009894405
139	0x3da463e3	0.080268644
140	0x3d9575b6	0.07297842
141	0x3d8ce2f9	0.06879229
142	0x3a834418	0.00100148
143	0xbd31c69a	-0.04340229
144	0xbc565c4a	-0.013083527
145	0x3d22ee5b	0.039778095
146	0xbd95890f	-0.073015325
147	0xbd00441e	-0.03131496
148	0xbd6d0561	-0.057866458
149	0x3bb7ade2	0.0056054452
150	0x3d611e86	0.05496075
151	0xbda677b8	-0.08128303
152	0x3c80e0a0	0.01573211
153	0xbd30bbcd	-0.04314785
154	0xbdb2f840	-0.08738756
155	0x3d86e080	0.06585789
156	0x3c855af8	0.016278729
157	0xbd56b4cb	-0.05241851
158	0xbd94745a	-0.07248755
159	0x3da84a04	0.08217242
160	0xbd8664af	-0.065621726
161	0x3d2d0b84	0.04224731
162	0xbd2de1b6	-0.042451583
163	0x3ca0fc1b	0.019651463
164	0xbd5f5c89	-0.054531608
165	0x3da2f1a6	0.07956247
166	0x3d5c58f0	0.053795755
167	0xbdb478c2	-0.08812095
168	0x3c1344b7	0.008988551
169	0xbd0f628c	-0.03500609
170	0x3d89dfd6	0.067321464
171	0xbcbdf5bc	-0.023188464
172	0x3ca4fb00	0.020139217
173	0xbcde3b3c	-0.027127855
174	0x3d9cae22	0.07650401
175	0x3d720d48	0.059094697
176	0xbd670f8b	-0.056411307
177	0xbc9ccf26	-0.019141745
178	0x3d60e800	0.054908752
179	0x3d552ae5	0.05204286
180	0xbd77c5bd	-0.060491312
181	0x3c99e4e9	0.01878591
182	0xbc95591b	-0.018230965
183	0xbc6f653f	-0.014611541
184	0xbc75bd09	-0.014998683
185	0xbd787360	-0.060656905
186	0xbd9524c0	-0.072824
187	0x3c8e234e	0.017350819
188	0xbc122b29	-0.008921423
189	0x3d3ecbbf	0.046581026
190	0xbd4789d4	-0.048715428
191	0x3da70691	0.08155549
192	0xbca216d3	-0.019786274
193	0x3d3b877f	0.045783516
194	0x3dbd6d2f	0.09249341
195	0xbd30f0f2	-0.043198533
196	0x3c2272a7	0.009915031
197	0xbc2bf677	-0.0104957735
198	0x3d501a97	0.050806608
199	0xbc66e4a5	-0.014092599
200	0x3d191e08	0.037382156
201	0x3bcd3f7d	0.006263672
202	0xbd830e6b	-0.063992344
203	0x3bc1bf22	0.0059126774
204	0xbb8b2813	-0.0042467206
205	0xbd80cec7	-0.0628944
206	0xbcb64ac4	-0.022252448
207	0x3c173390	0.009228602
208	0x3d32342f	0.043506797
209	0xbcdd8632	-0.027041528
210	0x3cfaf82f	0.030635921
211	0xbd392b71	-0.045207445
212	0xbcbb79d7	-0.022885246
213	0xbd2d4f77	-0.04231211
214	0xbda2925d	-0.07938073
215	0xbd8a0fff	-0.06741332
216	0xbd0963ba	-0.033542372
217	0x3c03a6f2	0.008035408
218	0x3d9a2bdb	0.07527896
219	0x3cfcc264	0.030854411
220	0xbda3f726	-0.08006124
221	0xbd74b718	-0.059744924
222	0xbd9b0bbe	-0.07570599
223	0x3d1a29e3	0.037637603
224	0xbd8a2935	-0.06746141
225	0x3d7bf22d	0.061510254
226	0xbc2f8130	-0.010711953
227	0xbd4d8756	-0.050177895
228	0xbd622e29	-0.055219803
229	0x3da52fb6	0.08065741
230	0xbcc80f50	-0.024421364
231	0x3cd09472	0.02546141
232	0x3d8cb383	0.06870177
233	0x3ccb77bf	0.024837373
234	0x3d0b525d	0.034014095
235	0x3cc4b1d1	0.02401057
236	0xbb6b056e	-0.003586139
237	0x3d9a448b	0.07532605
238	0xbdb2e91e	-0.0873587
239	0xbc947bd3	-0.01812545
240	0xbd95bd70	-0.07311523
241	0xbd33fcc0	-0.043942213
242	0xbdaba216	-0.08380525
243	0x3d56c9ab	0.05243842
244	0xbd628067	-0.055298235
245	0x3d5d402d	0.05401628
246	0x3d98e51c	0.07465574
247	0x3d97e1e5	0.07416133
248	0x3cba370d	0.022731328
249	0xbd3bf5d9	-0.045888755
250	0x3b8273db	0.003981096
251	0xbd71369d	-0.058889974
252	0xbd91dbc7	-0.07121997
253	0xbd86588c	-0.06559858
254	0x3d01c04b	0.031677525
255	0xbcef546c	-0.02921506

bias_hh_l0 f4 [512]
0	0xbc645482	-0.013936164
1	0x3d59ef98	0.05320701
2	0xbc33433c	-0.010941323
3	0x3ce34694	0.027743615
4	0xbd57faa7	-0.052729275
5	0x3c8d5a62	0.017255012
6	0xbcdf18fa	-0.02723359
7	0xbb14d53e	-0.002271011
8	0x3db6241b	0.08893605
9	0x3a5eee84	0.00085041695
10	0x3a9f77b7	0.0012166415
11	0xbd67b93a	-0.05657313
12	0xbd52d4f1	-0.051472608
13	0x3d5ade26	0.053434514
14	0xbb9e9aae	-0.0048402166
15	0xbc6af5ef	-0.014340862
16	0x3d9e3b87	0.07726198
17	0x3d669ce1	0.056301955
18	0xbd9037d7	-0.070419006
19	0xbd210817	-0.039314356
20	0xbd8fe90e	-0.070268735
21	0x3d80d4de	0.06290601
22	0xbb9e5219	-0.004831564
23	0xbd92d3bd	-0.07169292
24	0x3a90efd4	0.0011057802
25	0xbd01ddcf	-0.031705674
26	0x3dae2525	0.085031785
27	0xbd9f8ae6	-0.07790165
28	0xbd2c9a82	-0.042139538
29	0x3d8ceeda	0.06881495
30	0xbda660a4	-0.081239015
31	0xbd40f41c	-0.0471078
32	0x3bae1582	0.0053126225
33	0x3d819044	0.063263446
34	0xbdc189f0	-0.094501376
35	0x3d9933d5	0.07480589
36	0x3cbbc7f4	0.022922494
37	0x3dbdfd2d	0.09276805
38	0x3cd762dc	0.026292257
39	0xbd1be46d	-0.03805964
40	0x3d4df709	0.05028442
41	0xbd1111ec	-0.035417482
42	0x3d77fbc7	0.060542848
43	0xbc1efe89	-0.009704241
44	0xbd9634b4	-0.07334271
45	0x3da06362	0.07831456
46	0x3c509bfa	0.0127325
47	0x3c03117a	0.007999772
48	0x3c5c8046	0.013458317
49	0x3d4aa4d5	0.049473602
50	0x3d69e078	0.057098836
51	0x3d296b5a	0.041362144
52	0xbcce8573	-0.025210118
53	0xbd231468	-0.039814383
54	0x3d4856df	0.04891097
55	0x3ba2637d	0.0049557076
56	0xbd7495a7	-0.059713032
57	0xbcd9747d	-0.026544804
58	0xbb0d5726	-0.0021566837
59	0xbc98fc1e	-0.018674906
60	0x3c9ba62d	0.019000137
61	0xbd901462	-0.07035138
62	0xbd6fc736	-0.05853959
63	0x3d01ef1a	0.031722166
64	0xbd3deef8	-0.046370476
65	0x3bb4e486	0.005520406
66	0xbd3f5db8	-0.046720237
67	0xbd3d6ac4	-0.046244398
68	0x3b598cc9	0.0033195487
69	0xbd8902ed	-0.06690011
70	0x3ca5bc47	0.02023138
71	0x3ce3a85b	0.02779024
72	0xbca90433	-0.020631885
73	0xbd18af84	-0.03727676
74	0xbd208de4	-0.039197817
75	0x3cc66c33	0.024221515
76	0x3c2de1c7	0.010612912
77	0xbce1f5f5	-0.027583102
78	0xbc1f345e	-0.009717075
79	0x3d00d897	0.031456556
80	0xbd22603f	-0.03964257
81	0xbd2767b4	-0.040870383
82	0x3d8f9a29	0.070118256
83	0xbc9ad40e	-0.018899944
84	0x3da52069	0.08062822
85	0xbd750642	-0.05982042
86	0xbc738814	-0.0148639865
87	0xbb6fb0ea	-0.0036573955
88	0x3ae6ee82	0.0017618688
89	0x3c0b1f0c	0.008491289
90	0xbd7e7ccf	-0.062130746
91	0xbc187d43	-0.0093072085
92	0x3c301aae	0.010748548
93	0xbd489141	-0.04896665
94	0x3bfc4fd9	0.0076999483
95	0x3d03ee36	0.032209598
96	0x3c907d0e	0.017637756
97	0xbd8948de	-0.067033514
98	0xbda79409	-0.08182532
99	0xbd0d62fd	-0.03451823
100	0xbccafd4c	-0.024778984
101	0x3c24fe08	0.010070331
102	0xbdb6957c	-0.08915231
103	0x3d4b9ede	0.049712054
104	0xbd6d3df5	-0.057920415
105	0x3d7044e2	0.05865944
106	0xbd822096	-0.063538715
107	0xbd9b2c78	-0.07576841
108	0x3d0e9a9b	0.034815412
109	0xbd38ffc4	-0.045165792
110	0xbdb6637b	-0.08905693
111	0x3db0fa2f	0.08641469
112	0xbd3242ff	-0.043520924
113	0x3cd27a3b	0.02569305
114	0x3cad7f63	0.021178907
115	0x3c81f3ab	0.01586326
116	0x3c62f877	0.013853184
117	0xbbe62255	-0.0070231357
118	0xbca003d9	-0.019533085
119	0xbd94b665	-0.072613515
120	0x3d8617f0	0.065475345
121	0xbd827bbc	-0.06371257
122	0xbda8e640	-0.08247042
123	0xbd31e85e	-0.043434493
124	0xbd695491	-0.056965414
125	0x3d9c6e61	0.076382406
126	0xbd9ecfda	-0.07754488
127	0xbd870859	-0.06593389
128	0x3c80bea4	0.015715905
129	0xbca0a468	-0.019609645
130	0x3d31ee98	0.04344043
131	0xbd372e22	-0.04472173
132	0xbd0de088	-0.034637958
133	0x3ceab65a	0.028651405
134	0xbd9df788	-0.077132285
135	0xbc6ed674	-0.014577497
136	0xbd7a4864	-0.061104193
137	0x3da970dd	0.0827348
138	0xbda763c4	-0.08173326
139	0xbd6734c3	-0.056446802
140	0x3c9a5da8	0.018843487
141	0x3ce7a507	0.028276933
142	0xbd845766	-0.064619824
143	0x3d896582	0.06708814
144	0x3d81045e	0.06299661
145	0x3d7033cf	0.05864316
146	0xbd37ba9c	-0.0448557
147	0x3da72cf0	0.08162868
148	0x3a1d310d	0.0005996384
149	0xbda45bd8	-0.0802533
150	0x3d2ae3aa	0.041721024
151	0xbd9df009	-0.07711799
152	0xba1d5dfd	-0.000600308
153	0xbc9ec696	-0.019381803
154	0x3cd64e01	0.026160242
155	0x3dacbf76	0.08434956
156	0x3d81c3f4	0.06336203
157	0xbc96c232	-0.018403146
158	0x3d95640e	0.072944745
159	0x3d9ff784	0.07810882
160	0x3d017e98	0.03161487
161	0x3d147dce	0.03625279
162	0xbd186345	-0.037204046
163	0x3d75f08d	0.06004386
164	0x3d821bae	0.06352936
165	0xbd702e10	-0.05863768
166	0xbd926758	-0.071486175
167	0x3d74ece7	0.05979624
168	0xbd4a7184	-0.049424663
169	0x3d9b0558	0.075693786
170	0xbc58fd37	-0.013243965
171	0x3d56bfbf	0.052428957
172	0x3d7ffc8c	0.062496707
173	0xbc9eb628	-0.019373968
174	0x3cfa5a10	0.030560523
175	0xbcafbe85	-0.021453151
176	0x3d80fbf9	0.0629806
177	0x3da5f431	0.081032164
178	0xbd950fda	-0.07278414
179	0x3d86ac0f	0.06575786
180	0x3cd74630	0.026278585
181	0x3c0c49e4	0.008562539
182	0xbd240712	-0.040045805
183	0x3bdabb41	0.0066751544
184	0x3c35cc87	0.011096126
185	0xbae11451	-0.0017172192
186	0xbd82f89f	-0.06395077
187	0xbc11594c	-0.008871388
188	0xbb3576da	-0.002768925
189	0xbc7bc559	-0.015366876
190	0x3c8f3266	0.017480087
191	0x3da30897	0.07960623
192	0xbbadc78e	-0.00530333
193	0x3d907d99	0.07055206
194	0xbd2da460	-0.04239309
195	0xbd03e27b	-0.03219841
196	0x3ca66fe9	0.020317035
197	0xbd944f6f	-0.07241713
198	0x3d85ed98	0.06539458
199	0x3d87de42	0.06634189
200	0x3da8e48c	0.08246717
201	0xbcaeb28a	-0.021325368
202	0x3db724c5	0.0894256
203	0x3aec1532	0.0018011688
204	0x3cc85f88	0.024459615
205	0x3bc13775	0.0058965036
206	0xbb9912c7	-0.004671428
207	0x3da1daf3	0.079030894
208	0xbd901d38	-0.07036823
209	0xbd5c80cc	-0.053833768
210	0x3da51451	0.08060516
211	0x3d40a7fc	0.047035202
212	0x3db6d985	0.08928207
213	0x3d8f3e20	0.06994271
214	0xbc1a5447	-0.009419507
215	0xbd3910fd	-0.045182217
216	0x3d894290	0.06702149
217	0xbd824b0c	-0.0636197
218	0xbd9b5d8b	-0.07586201
219	0xbcf6e05b	-0.030136278
220	0xbc59b2e3	-0.013287279
221	0x3c96b12c	0.018395029
222	0x3c3cdece	0.01152773
223	0xbd5b9b92	-0.05361516
224	0x3d40bbc6	0.047054075
225	0xbcc395ab	-0.023875078
226	0xbd686098	-0.056732744
227	0xbda1f1a0	-0.079074144
228	0x3d8240f3	0.06360044
229	0x3c90ea99	0.01768999
230	0xbdae6fa3	-0.08517387
231	0x3d8a067e	0.067395195
232	0xbb8d36c5	-0.0043095076
233	0x3d8b36e3	0.06797578
234	0xbd1cf417	-0.03831872
235	0x3ca5a3ed	0.020219767
236	0x3d746ef0	0.05967611
237	0x3d187bee	0.037227564
238	0xbd8beaed	-0.06831918
239	0x3d02a385	0.031894226
240	0xbdaef1cc	-0.08542213
241	0x3d28d0e0	0.041214824
242	0xbcabdc6f	-0.020979134
243	0x3d1bc00d	0.03802495
244	0xbdb5bda8	-0.08874065
245	0xbd8c3afe	-0.06847189
246	0x3da0ad84	0.078455955
247	0x3d75ed33	0.060040664
248	0x3c1648a8	0.009172596
249	0x3d6a2335	0.057162482
250	0xbd9d6b61	-0.076864965
251	0x3bbd3a53	0.005774775
252	0x3d34e120	0.04416001
253	0xbc7c7e33	-0.015410948
254	0x3dba619c	0.09100649
255	0x3dbf87d3	0.09352078

weight f4 [1, 128]
0	0xbce52d02	-0.027975563
1	0x3d8dde61	0.06927181
2	0x3d4147d2	0.047187634
3	0xbcbd8195	-0.023133079
4	0xbd84889b	-0.06471368
5	0xbd714729	-0.058905754
6	0x3d84a536	0.06476824
7	0xbd95d3f6	-0.07315819
8	0x3c8670c0	0.016411185
9	0xbd3f86e8	-0.046759516
10	0x3d70dc7b	0.058804017
11	0xbd5bab5e	-0.053630225
12	0x3cbd7742	0.023128156
13	0x3d9ae352	0.07562889
14	0xbd1e4275	-0.038637597
15	0xbd36e84c	-0.04465513
16	0xba3e3de3	-0.00072571466
17	0xbd0fb08e	-0.035080485
18	0x3cd6df12	0.026229415
19	0x3d292bea	0.041301645
20	0xbcebbf37	-0.028777702
21	0x3cc031eb	0.023461303
22	0xbd12397a	-0.035699345
23	0x3d73c8f3	0.059517812
24	0x3cfc66a4	0.030810662
25	0xbb964254	-0.0045855436
26	0x3cf973c1	0.030450704
27	0xbc8507e5	-0.016239116
28	0xbd56b7ba	-0.05242131
29	0x3ce8ea4c	0.028432034
30	0x3d850264	0.064945966
31	0xbcff5180	-0.031166792
32	0xbd36666e	-0.04453128
33	0xbbcc53d9	-0.0062355814
34	0xbc870c60	-0.016485393
35	0xbd152483	-0.036411773
36	0x3d885e68	0.066586316
37	0x3d78dea2	0.060759194
38	0xbd9b038c	-0.07569036
39	0x3d69db59	0.05709395
40	0x3bcc14bb	0.006228057
41	0x3d880f66	0.06643562
42	0xbd694598	-0.056951135
43	0x3d938c95	0.07204548
44	0x3cf55ba0	0.029950917
45	0xbd8c9cfd	-0.06865881
46	0xbd4df771	-0.050284807
47	0xbc411a73	-0.011786091
48	0x3acb71cd	0.0015521586
49	0xbc56402c	-0.013076823
50	0x3da7c2f2	0.0819148
51	0xbd06c1c9	-0.03289965
52	0xbd0c2967	-0.03421917
53	0x3c9e3785	0.019313583
54	0x3d561e0f	0.05227476
55	0xbda6b5ce	-0.08140145
56	0xbd6a6c0b	-0.057231944
57	0xbd8fb736	-0.070173666
58	0x3d865006	0.06558232
59	0xbb2fb0e2	-0.0026808311
60	0xbd790860	-0.060799003
61	0xbd972584	-0.073802024
62	0xbc8393d2	-0.016061697
63	0xbd043587	-0.03227761
64	0xbd90a392	-0.070624486
65	0x3d73a989	0.059487853
66	0x3c4da55b	0.012551631
67	0xbdb4ca66	-0.08827667
68	0x3ca1fada	0.019772936
69	0x3d5efc4b	0.054439824
70	0xbcfc6de3	-0.030814117
71	0xbc60771c	-0.013700273
72	0x3d1ab183	0.037766945
73	0xbb26bab7	-0.002544088
74	0x3c4ebeea	0.01261876
75	0xbd930908	-0.07179457
76	0x3d32bdb1	0.043637935
77	0xbd830a8c	-0.06398496
78	0xbccec3de	-0.025239881
79	0x3da56fd6	0.08077972
80	0x3bddf723	0.0067738458
81	0x3d84f34c	0.06491718
82	0x3b2a486c	0.0025983108
83	0x3b8bd71f	0.004267588
84	0xbd38030b	-0.044924777
85	0xbcd2c38b	-0.025728008
86	0xbcb97a65	-0.02264137
87	0xbd140b2c	-0.036143467
88	0x3d1a1005	0.037612934
89	0xbc91560a	-0.017741222
90	0x3d51dcfc	0.051236138
91	0x3d96f326	0.07370596
92	0xbd69da50	-0.057092965
93	0xbd898578	-0.0671491
94	0xbd5090db	-0.050919395
95	0x3d727941	0.059197668
96	0x3da41809	0.08012397
97	0xbceefcb9	-0.029173242
98	0xbd9df656	-0.077130005
99	0x3da500f9	0.08056826
100	0x3c70fff0	0.014709458
101	0xbda9a498	-0.08283347
102	0x3cc3f3d4	0.023919977
103	0xbd8c37b9	-0.06846566
104	0xbcf54be5	-0.029943416
105	0xbbe17c44	-0.0068812687
106	0xbb9881a5	-0.0046541267
107	0x3d4a0dc2	0.049329527
108	0xbcc35748	-0.02384533
109	0x3d0e932f	0.034808334
110	0x3d0d6fd3	0.034530472
111	0xbd940795	-0.07228009
112	0x3d998601	0.07496262
113	0x3da768ac	0.081742615
114	0x3da0b30c	0.078466505
115	0x3daab7ce	0.08335839
116	0x3dac0e96	0.084012195
117	0x3d38f479	0.045155022
118	0xbbb145ca	-0.005409931
119	0xbd593119	-0.05302534
120	0xbcab1a8f	-0.020886688
121	0xbcbce2aa	-0.0230573
122	0x3d804146	0.0626245
123	0x3cef447b	0.029207459
124	0xbd7ccb4f	-0.061717328
125	0x3b448c76	0.0029990948
126	0xbca2dc64	-0.019880481
127	0x3d1a0cfc	0.03761004

weight f4 [128]
0	0x3f7f85cb	0.99813527
1	0x3f7f57cd	0.9974335
2	0x3f7fd9af	0.99941534
3	0x3f7fe69e	0.9996127
4	0x3f7f72f9	0.9978481
5	0x3f7f327b	0.996864
6	0x3f807917	1.0036954
7	0x3f7e0d0a	0.99238646
8	0x3f7fc2b2	0.99906456
9	0x3f7f8da1	0.99825484
10	0x3f7e2245	0.9927104
11	0x3f7fe0c4	0.9995234
12	0x3f807165	1.0034605
13	0x3f7f82b3	0.99808806
14	0x3f7fc8c2	0.9991571
15	0x3f7f7c92	0.99799454
16	0x3f7aa106	0.9790195
17	0x3f7fc1ab	0.9990489
18	0x3f7fa0fe	0.9985503
19	0x3f800f8f	1.0004748
20	0x3f7eef27	0.9958367
21	0x3f7f3f6b	0.99706143
22	0x3f7e6089	0.9936605
23	0x3f7f1cd0	0.9965334
24	0x3f7d366f	0.98911184
25	0x3f7e438c	0.9932182
26	0x3f7f4410	0.9971323
27	0x3f7fcffa	0.9992672
28	0x3f7f0128	0.9961114
29	0x3f7d7337	0.9900393
30	0x3f7efb92	0.99602616
31	0x3f7f2bbe	0.9967612
32	0x3f7f6822	0.9976827
33	0x3f7d54e2	0.98957646
34	0x3f7bbc52	0.9833423
35	0x3f80428f	1.0020312
36	0x3f7f4d79	0.9972759
37	0x3f80a2e4	1.004971
38	0x3f7fc315	0.99907047
39	0x3f7f0a3d	0.99625
40	0x3f7e2c8c	0.99286723
41	0x3f7fc9eb	0.9991748
42	0x3f7e0445	0.99225265
43	0x3f7d52f3	0.98954695
44	0x3f803e31	1.0018979
45	0x3f7de2d5	0.99174243
46	0x3f7e7094	0.9939053
47	0x3f7f0aa0	0.9962559
48	0x3f7d3eae	0.98923767
49	0x3f7f6593	0.99764365
50	0x3f80188d	1.0007492
51	0x3f7ef66f	0.9959478
52	0x3f7fa05c	0.99854064
53	0x3f7ff5b7	0.99984306
54	0x3f7ffabd	0.9999197
55	0x3f7e7ff6	0.99414
56	0x3f7ea61d	0.9947222
57	0x3f7f35ac	0.9969127
58	0x3f7e15cb	0.99252003
59	0x3f7e726a	0.9939333
60	0x3f7e5c18	0.99359274
61	0x3f7f8317	0.998094
62	0x3f7f2026	0.9965843
63	0x3f7f1fdc	0.9965799
64	0x3f7e99be	0.9945334
65	0x3f7dbd78	0.9911723
66	0x3f7fd1e8	0.99929667
67	0x3f80019c	1.0000491
68	0x3f7e1687	0.99253124
69	0x3f7dc9e9	0.99136215
70	0x3f7e0a9d	0.99234945
71	0x3f7f4bc1	0.99724966
72	0x3f7fb7ad	0.9988964
73	0x3f7eab22	0.9947988
74	0x3f7f925b	0.99832696
75	0x3f7e4021	0.993166
76	0x3f80240e	1.0011003
77	0x3f7fa855	0.9986623
78	0x3f7fa636	0.9986299
79	0x3f7f8b77	0.9982218
80	0x3f7f1b70	0.9965124
81	0x3f7e4571	0.9932471
82	0x3f7e5c41	0.9935952
83	0x3f7d7c8c	0.9901817
84	0x3f7fe028	0.9995141
85	0x3f8038cf	1.0017337
86	0x3f8006c4	1.0002065
87	0x3f7d2842	0.98889554
88	0x3f7c1b88	0.9847951
89	0x3f7dd790	0.9915705
90	0x3f7f1599	0.9964233
91	0x3f7f2d1e	0.9967822
92	0x3f7e2eee	0.9929036
93	0x3f7dd0b1	0.9914656
94	0x3f80aae5	1.0052153
95	0x3f7fb82c	0.998904
96	0x3f7e5f4f	0.9936418
97	0x3f7fdbc9	0.9994474
98	0x3f802fee	1.0014627
99	0x3f7fc312	0.9990703
100	0x3f7f3898	0.9969573
101	0x3f7efa01	0.99600226
102	0x3f7e5274	0.99344563
103	0x3f8032a6	1.0015457
104	0x3f7e2739	0.992786
105	0x3f7e8715	0.9942487
106	0x3f7e5a37	0.99356407
107	0x3f7ec233	0.99515074
108	0x3f7f13b1	0.9963942
109	0x3f7fe06f	0.99951833
110	0x3f7e5eec	0.9936359
111	0x3f8026b1	1.0011808
112	0x3f800db5	1.0004183
113	0x3f7eeb81	0.995781
114	0x3f7e714c	0.9939163
115	0x3f7f6bda	0.99773943
116	0x3f7f10b8	0.99634886
117	0x3f7d3c89	0.98920494
118	0x3f7f85dc	0.9981363
119	0x3f7f73c5	0.99786025
120	0x3f7f8f92	0.99828446
121	0x3f80a764	1.0051084
122	0x3f7f5150	0.9973345
123	0x3f7e27ff	0.9927978
124	0x3f7fed07	0.9997105
125	0x3f7e65ef	0.9937429
126	0x3f7fac42	0.9987222
127	0x3f80352d	1.0016228

bias f4 [128]
0	0xbabed55a	-0.0014559433
1	0x3abfb6b2	0.0014626591
2	0x3a9216a4	0.0011145663
3	0xba5e3a48	-0.00084773125
4	0xba9938d4	-0.001168991
5	0xbac0b94d	-0.0014703661
6	0x3a9a0ba8	0.0011752741
7	0xbab5fdea	-0.0013884876
8	0x3a04a110	0.00050594006
9	0xba8e4ad4	-0.0010856041
10	0x3a9d4cec	0.0012001074
11	0xba92ddcd	-0.0011205018
12	0x3ab62734	0.0013897181
13	0x3a9bdf38	0.0011892086
14	0xba8d5c02	-0.0010784867
15	0xba8e295c	-0.0010846066
16	0x3c688d31	0.014193819
17	0xbad64157	-0.0016346377
18	0x3a73ef6e	0.0009305392
19	0x3aadfa8e	0.0013273524
20	0xbadb6b41	-0.0016740338
21	0x3ae354df	0.0017344019
22	0xba905bd2	-0.0011013693
23	0x3ac03c5d	0.0014666427
24	0x3ac48584	0.0014993404
25	0xbb6f0e3c	-0.003647699
26	0x3a78c1b9	0.0009489316
27	0xba9b7349	-0.0011859919
28	0xbac6fb25	-0.0015181048
29	0x3ab9b476	0.0014168161
30	0x3abdccad	0.0014480554
31	0xbacce66a	-0.0015632634
32	0xbacb74ad	-0.0015522443
33	0x39b8d067	0.00035250487
34	0xbac8e0b9	-0.0015325762
35	0xba80a818	-0.0009815721
36	0x3a9e0307	0.0012055346
37	0x3aaadef0	0.0013036411
38	0xbabc5242	-0.0014367776
39	0x3ac1da73	0.0014789834
40	0x3a6f09cf	0.0009118588
41	0x3a980c6b	0.001160038
42	0xbabada95	-0.0014255816
43	0x3ab51213	0.0013814591
44	0x3ab928aa	0.0014126499
45	0xbab2fda4	-0.0013655913
46	0xbaad74b2	-0.001323363
47	0xbb03ffaf	-0.0020141413
48	0x3c35df58	0.011100613
49	0xbb0d9d53	-0.0021608665
50	0x3a9bbde6	0.0011882156
51	0xba969016	-0.0011487033
52	0xbad6585e	-0.001635324
53	0x3a2a380a	0.0006493336
54	0x3a9232e6	0.0011154085
55	0xbaa141f1	-0.0012302977
56	0xbac22265	-0.0014811276
57	0xba9b89e5	-0.0011866657
58	0x3ab1c915	0.0013563955
59	0xbba2d8d4	-0.0049696956
60	0xbaaf55e4	-0.0013377038
61	0xba9a0261	-0.0011749977
62	0xba003f53	-0.00048922485
63	0xbad11a65	-0.0015953301
64	0xbab99dc0	-0.0014161393
65	0x3aa9b6e2	0.001294818
66	0x3a02347e	0.00049669284
67	0xbabd84ba	-0.0014459111
68	0x3a992027	0.0011682556
69	0x3aaa4f41	0.001299359
70	0xbaccc88f	-0.0015623736
71	0xbb18b0ad	-0.0023298666
72	0x3a82d2a3	0.0009980988
73	0xbbb5bb78	-0.0055460297
74	0x39f42573	0.00046567208
75	0xbab8ed87	-0.0014108875
76	0x3a995315	0.0011697734
77	0xba988d01	-0.0011638702
78	0xba6c4a0d	-0.000901372
79	0x3a9e8901	0.0012095274
80	0x39ff9bdd	0.00048753517
81	0x3aafeb82	0.0013421627
82	0xbacd9fd8	-0.0015687896
83	0x3a67549a	0.00088245573
84	0xba8c9e98	-0.0010728417
85	0xba8380c1	-0.0010032878
86	0xba516daf	-0.00079890614
87	0xbad3d89c	-0.0016162577
88	0x3a9c8ef1	0.0011944455
89	0xba9b3996	-0.0011842723
90	0x3ac28a9f	0.0014842338
91	0x3aa0b743	0.0012261647
92	0xbabf6a31	-0.0014603791
93	0xbaa8ea13	-0.0012887142
94	0xba97e462	-0.0011588449
95	0x3a96b571	0.0011498166
96	0x3aa9b013	0.0012946151
97	0xba4acf7e	-0.0007736607
98	0xba9ae638	-0.0011817878
99	0x3a9cf2dc	0.0011974233
100	0x3afd839a	0.0019341588
101	0xbabaf108	-0.0014262507
102	0x3ad177e4	0.0015981165
103	0xba9f2a41	-0.001214333
104	0xbac97ca4	-0.0015372229
105	0xbb16ed1f	-0.0023029519
106	0x3bfe62d2	0.007763245
107	0x3ac44849	0.0014975156
108	0xba83d50a	-0.0010057997
109	0x3a888c55	0.0010417799
110	0x3ac9bf91	0.0015392174
111	0xba99b204	-0.0011726026
112	0x3abf29ce	0.0014584602
113	0x3a9e0c3e	0.0012058092
114	0x3abae809	0.0014259826
115	0x3abb29af	0.001427939
116	0x3a9e44ec	0.0012074984
117	0x3abb0406	0.0014268167
118	0x3aa26f24	0.0012392742
119	0xbac4c63a	-0.0015012689
120	0xba62eae4	-0.0008656217
121	0xba2fbf96	-0.0006704269
122	0x3ac167f6	0.0014755714
123	0x3acb1cd4	0.0015496262
124	0xba9710ae	-0.0011525357
125	0x3bee8d4c	0.0072800275
126	0xba86ee39	-0.0010294385
127	0x3a8e9e87	0.0010880985
