Single Battery Model/6. LSTM Models/model_B0006_combined_rob.pth (torch, 395916 bytes, 7 tensors)

weight_ih_l0 f4 [512, 60]
-0.0687351 -0.039875757 -0.07164077 0.01827563 0.070046894 -0.07242396 -0.029264702 -0.08814322
0.038033087 -0.039321862 0.0032348782 0.0654127 0.04149177 0.03671811 -0.08163579 0.043282952
0.024026273 -0.020387601 0.055541642 0.030019678 -0.071396984 0.08605565 -0.050299596 0.0011575232
-0.052345853 0.011501939 0.044663448 0.036937833 0.060780376 0.0020057368 0.040693913 -0.026944557
0.089123525 -0.06707545 0.07993174 -0.025546703 0.08757249 -0.05953616 -0.00027960353 -0.047084853
-0.027491702 -0.0012016146 -0.07788181 -0.041666828 -0.049753617 0.001114549 -0.09284509 0.030056953
0.03998935 -0.0069179796 0.015918111 0.040984847 -0.057618644 0.02379323 -0.010677048 0.06036353
-0.028807517 -0.071341686 0.04005464 -0.08173521 -0.031577148 -0.023058182 -0.007658817 0.03395401
-0.0082384925 -0.08716698 -0.032378525 0.0153016485 -0.008812995 0.061708637 -0.0098658735 0.08121662
0.0016766699 0.06767435 0.08096314 -0.046222832 -0.026254645 -0.04489526 0.011305963 -0.08355998
-0.062415063 -0.007311301 0.041811857 -0.030376125 -0.086143285 -0.012589328 -0.08917041 0.055298127
-0.09677344 -0.057790533 -0.035507593 -0.061981365 -0.07139837 0.054610915 -0.041111823 0.03978315
-0.03962762 0.012020553 -0.078687824 -0.04673395 0.05580951 0.0035426505 -0.05493807 -0.022642886
-0.026589487 -0.07067613 -0.045211032 0.07266252 0.00905249 0.018730242 0.04808015 0.007930453
-0.08226836 -0.034913443 0.016514173 0.018316736 -0.06301017 0.014384225 0.072808355 0.033677988
-0.0879626 -0.014708107 -0.08016237 0.07684283 -0.024385368 -0.08143455 -0.07611718 -0.07851562
-0.094573766 0.042541377 0.08090209 0.015710166 0.05499194 0.0078800665 -0.05147699 0.057634704
0.044759583 -0.06179587 -0.068950675 -0.03047809 0.066213585 -0.035653386 0.010163036 0.080852464
-0.003675467 0.066411704 0.072253235 -0.016937487 -0.028792275 -0.007037198 0.08924858 0.056228746
0.09292225 0.028989 0.08409786 0.02476675 0.07173623 0.09368417 -0.017094117 0.05668146
0.016208833 0.006608945 -0.0009298231 -0.09218656 0.018349916 0.035373993 0.037274837 -0.03645648
-0.05393152 0.018521486 -0.01598169 0.04400237 -0.062148873 -0.06347469 0.069773816 0.05386443
0.0441181 0.015599424 -0.05971693 -0.023126107 0.016797999 -0.008401899 -0.0075184563 -0.020719104
-0.051485673 0.06806678 0.07261437 -0.08071088 -0.06469265 0.07950945 -0.06270598 0.030476935
0.05284893 0.054459725 -0.021017728 -0.042036593 -0.0038886862 0.006027499 -0.053087708 -0.004272475
-0.074960515 0.034416806 -0.009578431 0.046613935 0.024949774 0.07902877 -0.04013781 -0.02376523
-0.0025818136 -0.019395737 -0.0031065186 0.011993353 0.013506415 -0.04991258 0.036275078 0.07759409
-0.062087808 0.07495091 0.027404068 -0.08029624 0.030117555 -0.082623005 -0.015935678 0.07692057
-0.061256524 -0.024741195 -0.02888229 -0.09027023 0.06138073 -0.0053721573 0.07939491 -0.042641502
-0.016289841 0.039301448 -0.035415005 -0.046608593 0.06610644 0.015375659 0.0508119 0.0051362156
-0.084734626 0.020909218 0.031971607 0.053817384 -0.03227996 0.05173686 0.026217917 -0.026664281
0.017966585 -0.068032436 -0.013093932 0.00037073452 -0.027788268 -0.08270043 -0.043318417 -0.025912035
00000000: fdc4 8cbd c354 23bd 65b8 92bd c6b6 953c
00000010: bf74 8f3d 0353 94bd 87bc efbc 6f84 b4bd
00000020: 95c8 1b3d f60f 21bd 4000 543b 18f7 853d
00000030: 46f3 293d bb65 163d aa30 a7bd 7749 313d
00000040: bfd2 c43c e603 a7bc a27f 633d d4eb f53c
00000050: 9538 92bd f23d b03d f306 4ebd 09b8 973a
00000060: 9b68 56bd a172 3c3c 05f1 363d 204c 173d
00000070: d8f4 783d ae72 033b a9ae 263d d5ba dcbc
00000080: 6586 b63d db5e 89bd 41b3 a33d 5247 d1bc
00000090: 3559 b33d 30dc 73bd c097 92b9 0cdc 40bd
000000a0: 4736 e1bc 7f7f 9dba 8080 9fbd d6aa 2abd
000000b0: 73ca 4bbd 0f16 923a 9125 bebd 003a f63c
000000c0: dfcb 233d 38b0 e2bb b366 823c badf 273d
000000d0: 8701 6cbd 05ea c23c c9ee 2ebc c03f 773d
000000e0: befd ebbc 971b 92bd 5610 243d ca64 a7bd
000000f0: 0a57 01bd 83e4 bcbc d0f6 fabb 5c13 0b3d
00000100: befa 06bc 9a84 b2bd 589f 04bd c4b3 7a3c
00000110: 6164 10bc 32c2 7c3d 79a4 21bc e654 a63d
00000120: b5c3 db3a da98 8a3d 01d0 a53d 2754 3dbd
00000130: fb13 d7bc 18e4 37bd a53c 393c 7f21 abbd
00000140: f0a6 7fbd a393 efbb e942 2b3d 5ad7 f8bc
00000150: e46b b0bd 7843 4ebc fa9e b6bd 4a80 623d
00000160: 2731 c6bd c4b5 6cbd 6970 11bd 2ce0 7dbd
00000170: 4f39 92bd b2af 5f3d df64 28bd a8f3 223d
00000180: 9250 22bd dbf1 443c 1527 a1bd 196c 3fbd
00000190: 8398 643d d02b 683b be06 61bd 937d b9bc
000001a0: 32d2 d9bc a6be 90bd 342f 39bd 16d0 943d
000001b0: e550 143c 2a70 993c b1ef 443d bbee 013c
000001c0: 507c a8bd 6601 0fbd bb48 873c fb0c 963c
000001d0: 7a0b 81bd d0ab 6b3c 8c1c 953d eef1 093d
000001e0: bc25 b4bd 46fa 70bc 2b2c a4bd c65f 9d3d
000001f0: d3c3 c7bc 28c7 a6bd 53e3 9bbd cccc a0bd
00000200: e4af c1bd de3f 2e3d ffaf a53d 9bb2 803c
00000210: 3a3f 613d 651b 013c 89d9 52bd 5e12 6c3d
00000220: d355 373d ab1d 7dbd 0336 8dbd 30ad f9bc
00000230: fd9a 873d 4909 12bd dd82 263c fa95 a53d
00000240: 1be0 70bb dc02 883d 81f9 933d 7cc0 8abc
00000250: c7dd ebbc 4c98 e6bb f6c7 b63d 1d50 663d
00000260: 054e be3d 577a ed3c 803b ac3d a4e3 ca3c
00000270: 72ea 923d 7cdd bf3d f608 8cbc d22a 683d
00000280: 63c8 843c d98f d83b 5fbf 73ba 4fcc bcbd
00000290: 9052 963c 52e4 103d 80ad 183d 6453 15bd
000002a0: 4ce7 5cbd 5fba 973c 08ec 82bc d43b 343d
000002b0: d18f 7ebd 05ff 81bd 93e5 8e3d f3a0 5c3d
000002c0: 2eb5 343d ba94 7f3c bd99 74bd f672 bdbc
000002d0: f59b 893c 1ea8 09bc 625d f6bb 1cbb a9bc
000002e0: a4e2 52bd 9966 8b3d d8b6 943d bf4b a5bd
000002f0: 957d 84bd dad5 a23d fe6b 80bd c4aa f93c
00000300: 1f78 583d 2911 5f3d 5f2d acbc 902e 2cbd
00000310: 54d9 7ebb 5482 c53b 7f72 59bd 1e00 8cbb
00000320: e684 99bd a3f8 0c3d daee 1cbc 41ee 3e3d
00000330: 7863 cc3c d6d9 a13d 8b67 24bd 4daf c2bc
00000340: a533 29bb cfe3 9ebc bc96 4bbb c57f 443c
00000350: 034a 5d3c 2271 4cbd 2d95 143d a6e9 9e3d
00000360: c94f 7ebd dd7f 993d 7f7e e03c 5b72 a4bd
00000370: 17b9 f63c 4036 a9bd 8a8b 82bc 8888 9d3d
00000380: 1fe8 7abd 0cae cabc 8d9a ecbc 99df b8bd
00000390: 5c6a 7b3d ec08 b0bb cc99 a23d dba8 2ebd
000003a0: 4672 85bc 8efa 203d 530f 11bd a7e8 3ebd
000003b0: d062 873d 30ea 7b3c 2420 503d b34d a83b
000003c0: 5989 adbd cf49 ab3c a9f4 023d 9e6f 5c3d
000003d0: fe37 04bd 08ea 533d f5c6 d63c 0d6f dabc
000003e0: a92e 933c 9754 8bbd ee87 56bc 255f c239
000003f0: 39a4 e3bc d85e a9bd a76e 31bd 7a45 d4bc

weight_hh_l0 f4 [512, 128]
0.027524116 -0.00840553 0.07493269 -0.018930122 0.041043688 0.0026004664 -0.07169342 -0.024754763
-0.016522603 -0.0028397886 0.02221067 0.06720781 -0.016945526 -0.0011822106 0.014256782 0.013354659
-0.015358179 0.077462636 -0.005879004 -0.05705781 0.034270827 0.022115622 -0.07012179 0.06542418
-0.02227037 -0.015533299 0.034865838 -0.015991513 -0.025419977 -0.082318954 0.049944036 -0.060429975
0.030750819 0.018218951 0.048574477 -0.01822298 -0.026316127 0.026432812 0.06863994 0.060058203
0.06943079 0.07755065 0.040563624 0.03269531 0.037313715 0.037133418 -0.06709245 -0.049275763
0.07408143 -0.06889086 0.034218844 0.055498812 0.036241155 -0.064478785 -0.053678256 -0.0557734
0.07051795 0.014798202 0.040278744 -0.06658222 -0.013407683 0.014326854 -0.06026841 -0.027884487
0.069918565 -0.06254459 0.08705334 -0.060389012 -0.0054964926 -0.08792265 0.060556687 0.07163895
0.06944964 -0.0042844424 0.038564343 0.06591777 -0.05745496 0.018710628 0.06637436 -0.05221168
0.010049731 0.09008392 0.03436669 0.006396363 0.021030886 0.08928093 0.021113522 0.0715424
-0.06585862 -0.036895677 -0.08790497 -0.053421047 -0.0553917 0.006988151 -0.09200088 -0.03231317
-0.03181254 -0.075465366 -0.05391428 0.004036093 0.021958439 -0.0072116572 -0.06112819 0.070771694
-0.051512767 -0.08200938 -0.010263691 -0.0055857194 0.08715577 0.09086248 -0.023773635 -0.012208593
-0.027340634 0.00592408 0.009010658 -0.016756108 -0.012996524 0.027856348 -0.07065483 0.027615808
-0.044041935 0.056901257 0.0187656 0.08758429 -0.004008439 0.024185872 -0.029329855 -0.05556715
0.0599865 -0.033768497 0.007453465 0.012970903 0.055887233 -0.0021060049 0.029102003 0.08419874
0.0578309 0.08126957 0.036390677 0.06957577 -0.043403145 -0.08905152 0.08244073 -0.06820837
-0.021395177 -0.045846213 0.024065204 -0.061262753 -0.013364882 -0.0879563 0.022581292 -0.08168361
-0.07175872 0.060885698 -0.03554067 0.007071049 0.017830623 0.025069267 0.012327682 -0.00038567674
0.024043364 0.027086353 -0.061786264 0.062833555 -0.050748244 0.08984888 0.079170704 0.0065265032
-0.017007655 0.014377402 0.06323091 0.02168307 0.03172242 -0.034441967 -0.017647117 -0.0027375775
-0.010265862 -0.056382153 0.05646349 0.09010757 0.04490472 0.022842642 -0.08315341 -0.07267598
0.024414537 -0.024998527 0.08462855 0.008850567 0.060524266 -0.045549296 -0.05735696 -0.044509005
-0.05123582 -0.07137663 0.085544944 -0.07042359 0.012022558 -0.07573834 0.07791765 0.043770894
-0.064257175 0.0068499013 0.06584965 -0.065469496 0.016532186 -0.007931891 0.030022513 -0.06939329
0.025689505 -0.07382716 0.04909846 -0.032791134 0.07176105 0.07934974 -0.023743838 -0.082989804
-0.062037345 -0.06956932 0.088709295 0.05847401 0.057830866 -0.040039085 -0.073678546 -0.06203575
0.045693856 -0.04110358 0.097919255 0.005629625 -0.06742886 0.070996754 -0.05196185 -0.06808773
0.024046538 -0.08460385 0.032614145 0.04768406 -0.058507875 0.049453523 -0.059362095 0.033701353
0.035115674 -0.08601616 -0.04738122 0.06376055 0.09531641 0.01559638 -0.0014073241 0.045754466
-0.040946066 -0.08601091 0.007240841 0.051151413 -0.0048527694 0.0069418857 -0.05142377 0.077791736
00000000: 417a e13c 59b7 09bc 4f76 993d 5813 9bbc
00000010: 6d1d 283d 966c 2a3b 00d4 92bd 80ca cabc
00000020: 695a 87bc bf1b 3abb 27f3 b53c 40a4 893d
00000030: 58d1 8abc 68f4 9aba 4795 693c 80cd 5a3c
00000040: dfa0 7bbc bba4 9e3d a9a4 c0bb 73b5 69bd
00000050: 915f 0c3d d22b b53c 039c 8fbd 1dfd 853d
00000060: 5a70 b6bc 617f 7ebc 7bcf 0e3d a200 83bc
00000070: 8e3d d0bc d796 a8bd 1e92 4c3d 6c85 77bd
00000080: 24e9 fb3c e93f 953c 08f6 463d 5c48 95bc
00000090: eb94 d7bc a089 d83c 1993 8c3d 97ff 753d
000000a0: bb31 8e3d e0d2 9e3d 0b26 263d 84eb 053d
000000b0: 44d6 183d 3619 183d c467 89bd 62d5 49bd
000000c0: 01b8 973d a716 8dbd 0f29 0c3d b952 633d
000000d0: 9b71 143d 740d 84bd bbdd 5bbd a672 64bd
000000e0: b76b 903d 2874 723c 53fb 243d 425c 88bd
000000f0: e6ab 5bbc 2ebb 6a3c 02dc 76bd 026e e4bc
00000100: 7731 8f3d 6117 80bd 0649 b23d 785a 77bd
00000110: ec1b b4bb ca10 b4bd 4a0a 783d 71b7 923d
00000120: 9d3b 8e3d 8264 8cbb a5f5 1d3d e5ff 863d
00000130: e455 6bbd 0847 993c 48ef 873d eadb 55bd
00000140: a0a7 243c eb7d b83d 16c4 0c3d 9598 d13b
00000150: f748 ac3c ecd8 b63d 44f6 ac3c d284 923d
00000160: e2e0 86bd ec1f 17bd 8507 b4bd 07d0 5abd
00000170: 68e2 62bd dcfc e43b f56a bcbd d15a 04bd
00000180: de4d 02bd 968d 9abd 38d5 5cbd 3441 843b
00000190: 2fe2 b33c c44f ecbb 8e61 7abd c0f0 903d
000001a0: 0dff 52bd 89f4 a7bd 0a29 28bc 6908 b7bb
000001b0: b97e b23d 1c16 ba3d edc0 c2bc 8d06 48bc
000001c0: 77f9 dfbc c91e c23b 70a1 133c 1b44 89bc
000001d0: 5fef 54bc ff32 e43c 7bb3 90bd 8c3a e23c
000001e0: 5165 34bd 4b11 693d 51ba 993c 645f b33d
000001f0: 3959 83bb 7321 c63c 2a45 f0bc 619a 63bd
00000200: 67b4 753d d650 0abd 323c f43b e983 543c
00000210: 03ea 643d e604 0abb 5367 ee3c 6470 ac3d
00000220: 18e0 6c3d a970 a63d 640e 153d be7d 8e3d
00000230: 7fc7 31bd a560 b6bd afd6 a83d d4b0 8bbd
00000240: f044 afbc 3dc9 3bbd 6424 c53c a7ee 7abd
00000250: 61f8 5abc 6f22 b4bd 67fc b83c bd49 a7bd
00000260: 3cf6 92bd 4863 793d 1893 11bd 42b4 e73b
00000270: 8711 923c 105e cd3c 0cfa 493c a834 cab9
00000280: 97f6 c43c 33e4 dd3c 9813 7dbd e1ae 803d
00000290: 64dd 4fbd b102 b83d 4024 a23d 47dc d53b
000002a0: a353 8bbc 328f 6b3c 357f 813d b2a0 b13c
000002b0: 5eef 013d 0513 0dbd b090 90bc ee68 33bb
000002c0: 2532 28bc f9f0 66bd 4346 673d 518a b83d
000002d0: 03ee 373d 7e20 bb3c 564c aabd 25d7 94bd
000002e0: ff00 c83c b6c9 ccbc bc51 ad3d f801 113c
000002f0: 4be8 773d e691 3abd 22ef 6abd 134f 36bd
00000300: a7dc 51bd e92d 92bd 3032 af3d 3e3a 90bd
00000310: 43fa 443c b41c 9bbd 4a93 9f3d 1c49 333d
00000320: 4499 83bd 2375 e03b 2edc 863d df14 86bd
00000330: 826e 873c c3f4 01bc c6f1 f53c 121e 8ebd
00000340: cc72 d23c b232 97bd 771b 493d ff4f 06bd
00000350: 75f7 923d 1e82 a23d 7082 c2bc 8ff6 a9bd
00000360: df1a 7ebd 5c7a 8ebd 38ad b53d 7282 6f3d
00000370: 0fe0 6c3d 0600 24bd c7e4 96bd 3319 7ebd
00000380: 7b29 3b3d 3a5c 28bd e489 c83d b878 b83b
00000390: 2418 8abd bf66 913d f3d5 54bd 9471 8bbd
000003a0: 3ffd c43c c944 adbd 6996 053d 5c50 433d
000003b0: f4a5 6fbd c78f 4a3d ab25 73bd 6e0a 0a3d
000003c0: 74d5 0f3d 3e29 b0bd cf12 42bd e494 823d
000003d0: 4035 c33d f687 7f3c f675 b8ba 0969 3b3d
000003e0: 10b7 27bd 7d26 b0bd 9444 ed3b 2584 513d
000003f0: fb03 9fbb c278 e33b bba1 52bd 4651 9f3d

bias_ih_l0 f4 [512]
0.041311413 0.08815818 -0.020258188 0.021059461 0.05841328 -0.005136512 -0.0020051107 0.014313911
0.008209789 0.04732502 0.009787083 0.016381778 0.055719066 -0.024906712 0.011552111 0.02466504
-0.063709185 0.0688198 -0.06290088 0.08820036 0.061496638 0.04572425 -0.010299688 0.047368445
0.0153019605 -0.032570735 -0.020747209 -0.027591813 -0.012462319 0.031480048 -0.014184763 0.05687439
-0.07796387 0.06052162 0.05589716 0.07263917 -0.04320799 0.029833516 0.03274051 -0.073779516
-0.025461769 -0.0654385 0.075491354 -0.05176842 0.03162748 0.051181566 0.0013743277 -0.006200986
0.009338903 0.008967134 0.009281692 0.06960176 -0.007633421 -0.07418333 0.021801194 -0.055146463
0.07830993 -0.043786973 0.0047729546 -0.036323585 -0.07022571 0.083648644 -0.08064104 -0.08010141
0.04432714 0.07889189 0.004631769 0.08115958 -0.057192974 -0.049182806 0.026436942 -0.0073321247
-0.09005942 0.004979246 0.07004048 -0.021808706 0.07766866 0.0041388324 0.079014614 -0.021741083
0.07993198 0.052859183 -0.014437134 -0.04009041 0.028359259 -0.0043580877 -0.042885087 0.06278627
-0.04044926 0.07532836 -0.053807825 -0.03414279 -0.064334825 -0.04371223 0.051014587 -0.0824497
0.03560077 0.05533383 -0.049427487 0.008004919 -0.016189361 0.043886095 0.056271356 0.036640212
0.031145332 0.067957096 0.0655617 -0.019176064 -0.08500284 0.08700219 0.0098916115 0.02730153
0.03361797 0.010208473 -0.02648673 -0.035563637 -0.048580788 -0.06919918 -0.04324996 -0.046725817
-0.023438714 0.0656655 -0.06590428 0.059638906 0.0036438215 -0.01578068 -0.07884351 -0.0544935
-0.015939647 -0.027994225 -0.040975954 -0.046839923 -0.048817694 -0.048363887 0.03742279 0.08028408
0.05024262 0.017382644 0.022363743 0.08690117 -0.016466333 -0.08290169 0.07591294 -0.023968851
-0.015722506 -0.014062454 0.0565981 -0.05350787 -0.03166842 0.059452787 -0.035058953 0.035984486
0.0748766 0.07664266 -0.012216412 -0.061874583 -0.051558074 0.045164246 0.05385645 -0.048270285
-0.06795525 -0.024839422 -0.027432157 -0.007111818 -0.055478014 0.033514522 -0.049572315 -0.079557486
-0.07755365 -0.021444434 -0.04435245 0.016352434 -0.029157972 -0.004763754 -0.042989653 0.025489546
-0.032756604 0.012560298 -0.06811341 -0.058257863 -0.05074046 -0.047836754 -0.036300994 -0.07476687
-0.0070100036 0.08344777 -0.022158742 -0.07000269 -0.07464241 -0.019954085 0.075911015 0.019365087
0.006760598 -0.05006924 0.09051697 -0.0019203906 -0.062981434 0.07266211 -0.050747566 -0.046792194
0.032845777 -0.031361733 0.01689677 0.061020482 -0.05855212 -0.03256004 -0.07047741 -0.08872311
0.033102386 0.025278103 0.06605567 0.046145868 0.021019105 -0.08552534 -0.03448838 -0.07783234
-0.084691584 -0.05413281 0.039025925 -0.07219745 0.0036838488 -0.04058839 0.07031599 -0.04797153
0.005881167 0.059775267 -0.08287376 0.0042527677 -0.0013645989 -0.07292988 0.0196848 -0.046380658
0.021785237 0.028166516 0.037035424 0.07507571 0.03573253 0.043325875 0.054141037 -0.07717066
-0.07880644 -0.045221046 -0.036942687 -0.019651499 0.072541006 0.022034295 -0.0548355 0.07380965
-0.049215607 -0.038078602 0.039711062 0.0018935981 -0.054174848 -0.03868732 0.0127056595 -0.054514155
00000000: 2836 293d 478c b43d 80f4 a5bc e484 ac3c
00000010: c342 6f3d 3050 a8bb 2d68 03bb e584 6a3c
00000020: 5a82 063c e1d7 413d 005a 203c 1433 863c
00000030: ad39 643d 2909 ccbc 1145 3d3c 570e ca3c
00000040: f679 82bd 65f1 8c3d 2dd2 80bd 64a2 b43d
00000050: e6e3 7b3d 5a49 3b3d 06c0 28bc 6a05 423d
00000060: 13b5 7a3c e468 05bd 0df6 a9bc 3a08 e2bc
00000070: c12e 4cbc 39f1 003d 3567 68bc 1ff5 683d
00000080: 85ab 9fbd 85e5 773d 6cf4 643d d8c3 943d
00000090: dcfa 30bd 6b65 f43c ea1a 063d b719 97bd
000000a0: 3395 d0bc 9f04 86bd 369b 9a3d 1f0b 54bd
000000b0: d18b 013d c3a3 513d c922 b43a a431 cbbb
000000c0: 3302 193c e3ea 123c 3d12 183c 5e8b 8e3d
000000d0: c721 fabb 6eed 97bd 6b98 b23c 42e1 61bd
000000e0: f560 a03d f859 33bd 7266 9c3b 0ac8 14bd
000000f0: 7fd2 8fbd fb4f ab3d 2127 a5bd 350c a4bd
00000100: 6090 353d 1292 a13d 18c6 973b fe36 a63d
00000110: 2e43 6abd e973 49bd 4992 d83c 5242 f0bb
00000120: 1371 b8bd f128 a33b 6271 8f3d 2ca8 b2bc
00000130: bf10 9f3d 0b9f 873b 6ad2 a13d 5b1a b2bc
00000140: 61b3 a33d df82 583d bb89 6cbc d735 24bd
00000150: ad51 e83c 4ace 8ebb 46a8 2fbd 1796 803d
00000160: 20ae 25bd c145 9a3d 9865 5cbd 4fd9 0bbd
00000170: fac1 83bd 980b 33bd acf4 503d 63db a8bd
00000180: 1dd2 113d baa5 623d 7a74 4abd 1027 033c
00000190: 8d9f 84bc e8c1 333d cb7c 663d 0c14 163d
000001a0: 7f24 ff3c 172d 8b3d 3645 863d 1f17 9dbc
000001b0: f815 aebd 342e b23d 6d10 223c 75a7 df3c
000001c0: ffb2 093d 7041 273c b3fa d8bc 2dab 11bd
000001d0: a6fc 46bd 4db8 8dbd df26 31bd 9263 3fbd
000001e0: 8c02 c0bc a27b 863d d3f8 86bd ed47 743d
000001f0: 2ecd 6e3b 7c46 81bc b578 a1bd 9434 5fbd
00000200: dd93 82bc 2554 e5bc 67d6 27bd 38db 3fbd
00000210: 10f5 47bd 3619 46bd a448 193d fb6b a43d
00000220: 35cb 4d3d 0c66 8e3c 2b34 b73c 3ef9 b13d
00000230: 67e4 86bc 5cc8 a9bd 3e78 9b3d 535a c4bc
00000240: 7ccc 80bc 3566 66bc 69d3 673d 112b 5bbd
00000250: bfb6 01bd c484 733d fa99 0fbd 7864 133d
00000260: e758 993d d4f6 9c3d 5927 48bc 3470 7dbd
00000270: 8f2e 53bd 25fe 383d 9598 5c3d 10b7 45bd
00000280: 1f2c 8bbd 0b7c cbbc 67b9 e0bc 410a e9bb
00000290: ea3c 63bd 8646 093d 570c 4bbd 09ef a2bd
000002a0: 73d4 9ebd 3dac afbc eaaa 35bd 8af5 853c
000002b0: b3dc eebc 4419 9cbb eb15 30bd 74cf d03c
000002c0: ca2b 06bd b5c9 4d3c 0b7f 8bbd cc9f 6ebd
000002d0: 3bd5 4fbd 79f0 43bd 5ab0 14bd 5f1f 99bd
000002e0: 2cb4 e5bb aae6 aa3d 4086 b5bc 925d 8fbd
000002f0: 1fde 98bd c076 a3bc 3c77 9b3d 88a3 9e3c
00000300: 0288 dd3b 6715 4dbd f660 b93d 9eb5 fbba
00000310: 69fc 80bd dfcf 943d aedc 4fbd 2ca9 3fbd
00000320: 4b89 063d 2975 00bd 186b 8a3c 9df0 793d
00000330: 59d4 6fbd ad5d 05bd 7656 90bd 76b4 b5bd
00000340: 5e96 073d 0614 cf3c 3248 873d 7303 3d3d
00000350: 4230 ac3c e927 afbd b043 0dbd 9066 9fbd
00000360: c872 adbd 5eba 5dbd a6d9 1f3d 42dc 93bd
00000370: ba6c 713b 0340 26bd d401 903d cc7d 44bd
00000380: ceb6 c03b e9d6 743d b8b9 a9bd cd5a 8b3b
00000390: 57dc b2ba 435c 95bd 0542 a13c a5f9 3dbd
000003a0: f476 b23c 77bd e63c 75b2 173d 4bc1 993d
000003b0: 465c 123d 7976 313d fec2 5d3d a70b 9ebd
000003c0: 4565 a1bd b439 39bd 3751 17bd 2efc a0bc
000003d0: 6190 943d 4481 b43c 309b 60bd 8429 973d
000003e0: 4e96 49bd 4ff8 1bbd 11a8 223d 9c32 f83a
000003f0: 72e6 5dbd 9876 1ebd 662b 503c 3c4a 5fbd

bias_hh_l0 f4 [512]
0.05439444 -0.04359766 -0.08361363 0.007435146 0.040083613 -0.061146036 -0.05095194 -0.047999658
-0.059999578 -0.084164165 0.05715387 -0.07983918 0.018686788 -0.02781243 -0.025764987 -0.046909023
-0.045256026 0.052147523 0.06962059 0.026301417 -0.008703398 -0.08850544 0.049832743 -0.0030509825
-0.025616867 -0.07310657 -0.009614415 0.027491137 -0.047942124 0.057981927 -0.05443369 -0.0052122925
-0.035837118 -0.022490203 0.041178018 -0.05665667 -0.022387054 0.015332651 -0.034859043 -0.06073071
0.024287602 -0.052341275 -0.057887115 -0.02473402 -0.06535243 -0.013686198 0.0525909 -0.0500473
0.017378874 -0.042387538 -0.007409943 -0.004285398 0.034850203 0.066039786 -0.046159763 -0.051047206
0.07879155 -0.064049676 0.060385287 0.05831892 -0.06250023 0.057996348 -0.030555371 -0.016411878
0.08533343 0.06926283 -0.021248797 -0.03091205 0.064090945 0.046320688 -0.02496212 0.005024173
-0.043572348 -0.04908136 -0.02199726 0.004439043 -0.07508087 0.054125115 -0.0036802702 -0.07054601
-0.04058559 0.052890744 0.076936044 0.09096879 -0.0363849 -0.006624241 0.049864687 -0.05626614
-0.074722216 0.047797482 0.08436691 -0.060616765 0.020224787 -0.06919695 0.073679775 -0.055872172
-0.044270743 -0.010309206 -0.042479694 0.049494866 -0.0875239 0.038411632 -0.015475817 0.08663464
-0.08674985 0.088276096 0.026739385 -0.040075615 -0.017296799 0.06945185 0.008181487 -0.077054024
-0.049063787 -0.0743984 -0.060931843 0.011642836 -0.042210415 -0.08184884 0.010789632 0.0011569647
-0.083835565 -0.030198762 -0.0002861607 -0.022272555 0.01551876 0.0022703572 -0.079162546 -0.027070196
0.06953224 -0.07967851 -0.0540911 -0.074581854 0.020235019 -0.05407348 -0.05957552 0.07851545
-0.023792047 0.038100313 0.03319303 -0.047925264 -0.034079466 0.06887506 0.07379405 -0.03679531
-0.059375625 0.014072366 0.02415356 -0.0038247332 -0.03569765 -0.08857526 0.0213419 -0.037170287
-0.04612205 -0.065060735 -0.01568176 0.042925935 -0.0010270808 -0.077346146 -0.024972305 -0.060931936
-0.08398186 -0.035861716 0.06240938 -0.051003937 0.08721673 -0.03409485 -0.05255503 -0.07068065
-0.012472016 -0.054863937 0.023067862 0.03436626 -0.003834114 -0.049517266 0.028026443 0.088441126
-0.002276718 0.06526324 0.03656128 0.06365958 0.020716181 -0.042148933 -0.02198557 0.031567525
-0.027977075 -0.0012477891 -0.059718143 -0.00411045 -0.052613765 -0.026804557 -0.0012774033 0.05076833
0.065802805 0.027962415 0.021744326 0.024311848 -0.072274365 -0.04094597 -0.05650844 0.08323407
-0.0331261 0.05138195 -0.039306287 -0.026334073 -0.023916788 0.010415125 0.06189415 0.06851891
-0.051065404 0.06681066 0.03169666 0.026298294 -0.07798198 -0.07927368 0.09109515 0.043922856
-0.077823006 0.079325184 -0.06360482 0.0023513758 -0.023773607 -0.053640407 -0.037335392 0.052493617
-0.05952412 -0.012518262 -0.016312147 -0.034787886 0.005355169 -0.007383686 0.05449923 0.0014428797
-0.014611677 -0.012770892 0.014540651 0.050158978 -0.04743325 -0.06925921 0.027312597 -0.049887985
-0.07192914 -0.06192699 -0.06101583 0.08963039 -0.0009156206 -0.07541216 0.06546888 0.060581133
-0.017486699 -0.02714262 -0.035410363 0.055307034 0.058508117 -0.015618281 0.028508952 -0.052064467
00000000: b4cc 5e3d 7693 32bd 9f3d abbd 86a2 f33b
00000010: b72e 243d 4474 7abd fbb2 50bd 4a9b 44bd
00000020: 1ec2 75bd 435e acbd 2d1a 6a3d b982 a3bd
00000030: 0915 993c e5d6 e3bc 1811 d3bc ad23 40bd
00000040: 625e 39bd a498 553d 3d95 8e3d 1276 d73c
00000050: b298 0ebc 5742 b5bd 6b1d 4c3d fef2 47bb
00000060: 77da d1bc e6b8 95bd c785 1dbc 1835 e13c
00000070: f65e 44bd 757e 6d3d dcf5 5ebd e1cb aabb
00000080: f1c9 12bd 603d b8bc 48aa 283d d310 68bd
00000090: 0e65 b7bc cd35 7b3c 5bc8 0ebd c4c0 78bd
000000a0: cbf6 c63c ce63 56bd 0a1b 6dbd 009f cabc
000000b0: 7fd7 85bd 133c 60bc 8e69 573d 66fe 4cbd
000000c0: 245e 8e3c 8e9e 2dbd 1bcf f2bb 866c 8cbb
000000d0: 16bf 0e3d de3f 873d 0512 3dbd e016 51bd
000000e0: 775d a13d 7a2c 83bd 9056 773d d2df 6e3d
000000f0: 1f00 80bd 948d 6d3d 424f fabc 3472 86bc
00000100: 4bc3 ae3d acd9 8d3d f511 aebc 443b fdbc
00000110: 1d42 833d c3ba 3d3d 5c7d ccbc d1a1 a43b
00000120: eb78 32bd 8909 49bd 9933 b4bc 6475 913b
00000130: 00c4 99bd 4cb2 5d3d b030 71bb 6d7a 90bd
00000140: 133d 26bd f7a3 583d a590 9d3d d84d ba3d
00000150: 5508 15bd 2910 d9bb ea3e 4c3d 5377 66bd
00000160: f607 99bd 4bc7 433d 8fc8 ac3d 4949 78bd
00000170: 74ae a53c 21b7 8dbd 6ce5 963d 38da 64bd
00000180: 3d55 35bd f2e7 28bc 30ff 2dbd 21bb 4a3d
00000190: bb3f b3bd 8455 1d3d 488e 7dbc 816d b13d
000001a0: e8a9 b1bd 19ca b43d 8e0c db3c 5426 24bd
000001b0: 04b2 8dbc c63c 8e3d a50b 063c 80ce 9dbd
000001c0: 1cf7 48bd 305e 98bd ab93 79bd 98c1 3e3c
000001d0: d4e4 2cbd 5da0 a7bd ffc6 303c 4ba5 973a
000001e0: fbb1 abbd 6563 f7bc d707 96b9 ef74 b6bc
000001f0: 6642 7e3c 46ca 143b f91f a2bd 51c2 ddbc
00000200: eb66 8e3d 7d2e a3bd a18e 5dbd 5fbe 98bd
00000210: e9c3 a53c 277c 5dbd 7605 74bd b5cc a03d
00000220: 8ae7 c2bc 130f 1c3d 6af5 073d 484d 44bd
00000230: e996 0bbd 5e0e 8d3d 5621 973d aeb6 16bd
00000240: db33 73bd c88f 663c b0dd c53c 60a8 7abb
00000250: b337 12bd f266 b5bd 35d5 ae3c df3f 18bd
00000260: 7aea 3cbd 903e 85bd 0977 80bc 1bd3 2f3d
00000270: 1d9f 86ba a867 9ebd b892 ccbc c493 79bd
00000280: aefe abbd bce3 12bd faa0 7f3d 81e9 50bd
00000290: af9e b23d 0ba7 0bbd f143 57bd 04c1 90bd
000002a0: 6d57 4cbc 02b9 60bd d0f8 bc3c a3c3 0c3d
000002b0: c245 7bbb 9ed2 4abd b697 e53c 9f20 b53d
000002c0: fd34 15bb bca8 853d 48c1 153d f45f 823d
000002d0: fbb4 a93c 5ca4 2cbd 151b b4bc f34c 013d
000002e0: 2e30 e5bc db8c a3ba 039b 74bd f4b0 86bb
000002f0: 8881 57bd 3b95 dbbc 8b6e a7ba 74f2 4f3d
00000300: 9fc3 863d 6f11 e53c 2821 b23c a429 c73c
00000310: 9504 94bd f6b6 27bd 6575 67bd a076 aa3d
00000320: 3caf 07bd e175 523d a1ff 20bd 8eba d7bc
00000330: 24ed c3bc 33a4 2a3c b884 7d3d a453 8c3d
00000340: f529 51bd 07d4 883d 5bd4 013d 856f d73c
00000350: 04b5 9fbd 3d5a a2bd 1890 ba3d 74e8 333d
00000360: ab61 9fbd 3e75 a23d 3e43 82bd 8a19 1a3b
00000370: dec0 c2bc 0bb6 5bbd ffec 18bd 8c03 573d
00000380: 90cf 73bd 6519 4dbc 0da1 85bc be7d 0ebd
00000390: 6a7a af3b d9f2 f1bb 963a 5f3d 021f bd3a
000003a0: d165 6fbc 013d 51bc e93b 6e3c 8073 4d3d
000003b0: 5e49 42bd c6d7 8dbd abbe df3c 5857 4cbd
000003c0: 964f 93bd 28a7 7dbd bceb 79bd 2390 b73d
000003d0: 4206 70ba b171 9abd 8c14 863d ec23 783d
000003e0: 4440 8fbc 335a debc 750a 11bd a189 623d
000003f0: 35a6 6f3d d2e3 7fbc 9b8b e93c 8d41 55bd

weight f4 [1, 128]
-0.02602406 -0.008097104 -0.0024098302 0.07810151 -0.059752997 -0.06877265 0.071251936 0.062645175
-0.024933781 -0.028803479 0.04551797 0.029483711 0.04705074 -0.05522836 -0.028352518 -0.010003053
-0.072067246 -0.08152308 -0.08132715 0.084031664 -0.04017377 0.06284875 0.05692226 -0.05091477
-0.07781863 0.042417355 0.054432116 -0.045174472 0.07171547 0.048546594 0.010701286 -0.052867174
0.015132722 -0.07703933 -0.04713229 0.0067570796 -0.009837679 -0.05178824 -0.015107794 -0.06584918
-0.029759783 0.034689944 0.06254689 -0.080497816 0.05052008 -0.043266084 -0.030195843 -0.018036177
0.0627233 0.082293555 0.056740455 0.069072075 -0.064243 -0.06687407 0.0046233 0.080596745
-0.07990526 -0.039598584 0.042810895 -0.026259027 -0.027434383 -0.03976753 -0.058565516 0.019082693
-0.080256686 0.048181362 0.019500382 -0.03703007 -0.066174984 0.004231535 -0.08206435 -0.014346502
0.0785557 -0.07297974 0.06477844 0.03920709 -0.050886285 -0.02592566 -0.011381145 0.061653133
0.0754262 -0.039442286 0.056851473 -0.02569717 -0.06595561 -0.039134666 0.008691815 -0.01841356
-0.060268454 -0.0027613544 0.0076805823 -0.0531653 -0.074318446 -0.08202919 0.04445516 -0.054465972
-0.026060404 -0.064992554 0.04476184 -0.077321574 -0.08411958 -0.043436818 0.012551357 0.028694307
-0.08115523 -0.012440987 0.021494966 -0.06821838 0.074550636 0.037434503 0.05742931 0.028313333
-0.083885066 0.054825287 0.0060894755 0.013219606 -0.02709641 0.009682749 0.07563801 0.036876466
0.066394284 0.038129784 0.05430596 -0.020122265 -0.025101595 -0.027792126 -0.024256026 0.080575466
00000000: 6930 d5bc b7a9 04bc 3eee 1dbb aff3 9f3d
00000010: 8fbf 74bd add8 8cbd 89ec 913d 1d4c 803d
00000020: ee41 ccbc 46f5 ebbc 0d71 3a3d d387 f13c
00000030: 47b8 403d 2237 62bd 8a43 e8bc d8e3 23bc
00000040: fe97 93bd 93f5 a6bd d98e a6bd cb18 ac3d
00000050: 408d 24bd d8b6 803d 5127 693d 028c 50bd
00000060: 605f 9fbd d2bd 2d3d 36f4 5e3d de08 39bd
00000070: 8fdf 923d cbd8 463d 7254 2f3c 408b 58bd
00000080: 3def 773c ccc6 9dbd ca0d 41bd 7e6a dd3b
00000090: 372e 21bc e81f 54bd ae86 77bc efdb 86bd
000000a0: caca f3bc 0b17 0e3d 9518 803d 0adc a4bd
000000b0: 25ee 4e3d c737 31bd 465d f7bc 9bc0 93bc
000000c0: 1375 803d 8689 a83d ae68 683d a975 8d3d
000000d0: d591 83bd 46f5 88bd 0d7f 973b e80f a53d
000000e0: 5ea5 a3bd 2032 22bd 7a5a 2f3d 2c1d d7bc
000000f0: 12be e0bc 47e3 22bd 65e2 6fbd 4f53 9c3c
00000100: 9e5d a4bd d259 453d 44bf 9f3c d8ac 17bd
00000110: c086 87bd b0a8 8a3b 5b11 a8bd 970d 6bbc
00000120: d0e1 a03d 6776 95bd 8faa 843d 9d97 203d
00000130: 236e 50bd 0d62 d4bc fb77 3abc ff87 7c3d
00000140: 0d79 9a3d 3c8e 21bd 17dd 683d df82 d2bc
00000150: bc13 87bd ac4b 20bd 1d68 0e3c 09d8 96bc
00000160: 0edc 76bd d7f7 34bb 65ad fb3b dcc3 59bd
00000170: 4534 98bd ecfe a7bd 9d16 363d b617 5fbd
00000180: a17c d5bc d11a 85bd 3158 373d c65a 9ebd
00000190: e346 acbd ceea 31bd 35a4 4d3c 5310 eb3c
000001a0: b734 a6bd 48d5 4bbc 3616 b03c 14b6 8bbd
000001b0: 01ae 983d ec54 193d ff3a 6b3d 5df1 e73c
000001c0: efcb abbd 7b90 603d 398a c73b 0c97 583c
000001d0: 4af9 ddbc 65a4 1e3c 1ae8 9a3d c70b 173d
000001e0: baf9 873d fa2d 1c3d ed6f 5e3d 73d7 a4bc
000001f0: dca1 cdbc 50ac e3bc 93b4 c6bc c004 a53d

weight f4 [128]
0.99926114 1.0035079 0.99589664 0.9981796 0.9988631 0.99444354 0.99847853 0.994258
0.9963618 0.99633545 0.9963651 0.9975069 0.9995462 0.99732006 0.9948107 1.0009127
0.9903387 0.9983184 0.9992565 1.0014434 0.99844635 0.99594146 0.993688 1.000466
0.9973532 0.99224836 0.99624413 0.9973352 0.99546707 0.9996609 0.9996247 0.9994285
0.9968813 0.99794835 0.9954885 0.9991176 0.9999658 0.9975505 1.0015283 0.9988353
0.9999162 0.9964468 0.99958163 0.99663365 0.99743277 0.99608076 0.9984044 0.99280727
0.994845 0.999654 0.9956755 0.99792427 0.99570197 0.99713176 0.9968776 0.99998397
1.0008287 0.99493825 0.9980599 0.9981061 0.9954954 0.9956968 1.0010462 0.9994061
0.99676526 0.9993948 0.99964124 0.99899346 0.9986975 0.9971781 0.99365366 0.9986833
0.9906684 0.9957194 0.99963623 0.9952858 0.99970037 0.99891907 1.0055751 0.99499834
0.99793524 0.9969044 0.9981042 1.0002906 0.9998691 0.99961364 0.99896264 0.99842775
0.9981618 0.9986741 0.9958293 0.9960723 0.99995244 0.99741054 0.99641573 0.9972786
0.9981957 0.997492 0.9972665 0.9985233 0.9985988 0.9967389 0.99627835 0.9969254
0.99670887 1.0020523 0.99844664 0.99692345 0.9982737 0.9983886 0.9972439 0.99640924
1.0003277 0.9941754 0.99726194 1.0002912 0.99861026 0.99963033 0.99620247 0.9997558
0.99694186 0.9996142 0.9946859 0.99646264 1.0003376 0.9942289 0.999594 0.9999753
00000000: 94cf 7f3f f272 803f 15f3 7e3f b388 7f3f
00000010: 7eb5 7f3f da93 7e3f 4a9c 7f3f b187 7e3f
00000020: 9111 7f3f d70f 7f3f c811 7f3f 9d5c 7f3f
00000030: 42e2 7f3f 5e50 7f3f eaab 7e3f e81d 803f
00000040: d686 7d3f cb91 7f3f 46cf 7f3f 4c2f 803f
00000050: 2e9a 7f3f 05f6 7e3f 5662 7e3f 450f 803f
00000060: 8a52 7f3f fd03 7e3f db09 7f3f 5c51 7f3f
00000070: eed6 7e3f c7e9 7f3f 68e7 7f3f 8cda 7f3f
00000080: 9d33 7f3f 8b79 7f3f 56d8 7e3f 2cc6 7f3f
00000090: c2fd 7f3f 785f 7f3f 1432 803f acb3 7f3f
000000a0: 82fa 7f3f 2317 7f3f 95e4 7f3f 6223 7f3f
000000b0: c157 7f3f 26ff 7e3f 6e97 7f3f 9e28 7e3f
000000c0: 29ae 7e3f 53e9 7f3f 97e4 7e3f f777 7f3f
000000d0: 53e6 7e3f 0744 7f3f 5f33 7f3f f3fe 7f3f
000000e0: 281b 803f 46b4 7e3f db80 7f3f e283 7f3f
000000f0: c9d8 7e3f fce5 7e3f 4822 803f 14d9 7f3f
00000100: 022c 7f3f 56d8 7f3f 7de8 7f3f 09be 7f3f
00000110: a4aa 7f3f 1047 7f3f 1660 7e3f b5a9 7f3f
00000120: 729c 7d3f 77e7 7e3f 29e8 7f3f 0dcb 7e3f
00000130: 5dec 7f3f 29b9 7f3f afb6 803f 36b8 7e3f
00000140: af78 7f3f 2035 7f3f c283 7f3f 8609 803f
00000150: 6cf7 7f3f aee6 7f3f 04bc 7f3f f698 7f3f
00000160: 8887 7f3f 1ba9 7f3f abee 7e3f 98fe 7e3f
00000170: e2fc 7f3f 4c56 7f3f 1a15 7f3f a64d 7f3f
00000180: c189 7f3f a35b 7f3f db4c 7f3f 399f 7f3f
00000190: 2ca4 7f3f 482a 7f3f 190c 7f3f 8136 7f3f
000001a0: 5028 7f3f 4043 803f 339a 7f3f 6036 7f3f
000001b0: dd8e 7f3f 6596 7f3f 604b 7f3f ad14 7f3f
000001c0: bd0a 803f 4782 7e3f 8f4c 7f3f 8b09 803f
000001d0: eca4 7f3f c6e7 7f3f 2007 7f3f ffef 7f3f
000001e0: 9537 7f3f b7e6 7f3f bca3 7e3f 2d18 7f3f
000001f0: 100b 803f c985 7e3f 64e5 7f3f 62fe 7f3f

bias f4 [128]
5.473697e-05 0.00037422188 0.005193767 6.431393e-05 -0.00017174362 -0.00011624841 5.643004e-05 0.00016616115
-0.00030642241 -0.00013476374 0.00022393644 7.392181e-05 1.3170153e-05 -5.9630773e-05 -0.00017900673 0.00058448775
-0.00019163566 -0.00013785374 -0.00013614702 0.00012913777 2.3768429e-05 0.00012523998 0.00022509915 -0.0001283409
-9.5626165e-05 6.2237326e-05 9.977696e-05 -0.00012300668 0.00010163284 0.00016883228 -0.00041368403 -3.8902694e-05
0.00042463292 -8.137805e-05 -0.0001937323 0.0009027675 -0.00042185426 -0.00021071761 0.00032975886 -6.570481e-05
6.553066e-05 0.00013807551 0.00019070483 -0.0001769811 7.302593e-05 -7.569997e-05 -0.00016282353 -0.0001142702
0.00014708794 0.000101295984 0.00022301647 4.671326e-05 -0.00016396091 -8.86938e-05 -0.0004698825 0.00016477036
-0.00015094507 -0.00024967606 0.00018178596 -0.00011075833 -0.0002721192 -0.00025270338 -1.0460215e-05 0.00035226683
-0.00011378665 0.00018914333 -0.00012060626 -0.00021565016 -0.00016522084 0.001217621 -0.00012449683 0.00016186736
0.00019164989 -8.384197e-05 0.00015495425 6.841883e-05 -0.0001434658 -0.0002612925 0.00061565323 0.00019216083
7.606772e-05 -0.0002295858 0.00017224028 -6.206472e-05 -0.00015767092 -0.00017679342 -0.0005559842 4.3745793e-05
-2.5686419e-05 -0.0014638617 0.00012780822 -8.589191e-05 -0.00014859805 -0.00013860184 0.00016120265 -9.258794e-05
-0.00031999985 -7.2180424e-05 1.6790469e-05 -0.00014111542 -6.652079e-05 -9.219248e-05 0.0005220883 0.0001752377
-0.00010367653 0.00018301095 0.00023814756 -9.210951e-05 4.795269e-05 5.5646582e-05 0.00017413837 0.0002168772
-0.00013207042 0.00019971929 0.00050281535 -0.00042398754 -0.00019713337 -0.0006191688 8.8855966e-05 -4.6641635e-05
0.00018551848 0.00017283433 0.000100041725 -0.00035656206 -1.2237459e-05 -0.0003076329 -0.00019546671 0.00012777658
00000000: 6095 6538 3633 c439 7a30 aa3b 47e0 8638
00000010: 1416 34b9 64ca f3b8 4baf 6c38 8b3b 2e39
00000020: 52a7 a0b9 5e4f 0db9 7bd0 6a39 7806 9b38
00000030: 60f5 5c37 0e1c 7ab8 c1b3 3bb9 4f38 193a
00000040: cef1 48b9 d58c 10b9 b0c2 0eb9 2869 0739
00000050: 5062 c737 da52 0339 9808 6c39 3f93 06b9
00000060: e88a c8b8 6985 8238 593f d138 5bfb 00b9
00000070: b723 d538 9208 3139 bbe3 d8b9 732b 23b8
00000080: 44a1 de39 82a9 aab8 9e24 4bb9 b4a7 6c3a
00000090: 522c ddb9 14f4 5cb9 7ce3 ac39 00cb 89b8
000000a0: 816d 8938 5dc8 1039 f0f7 4739 0194 39b9
000000b0: 7f25 9938 1dc1 9eb8 9cbb 2ab9 59a4 efb8
000000c0: 9e3b 1a39 de6e d438 87d9 6939 fbed 4338
000000d0: ecec 2bb9 1f01 bab8 905a f6b9 35c6 2c39
000000e0: 0247 1eb9 f4e6 82b9 cc9d 3e39 ed46 e8b8
000000f0: 39ab 8eb9 467d 84b9 487e 2fb7 74b0 b839
00000100: bea0 eeb8 c754 4639 feed fcb8 2620 62b9
00000110: 223f 2db9 9598 9f3a 5d8b 02b9 f0ba 2939
00000120: a0f5 4839 51d4 afb8 377b 2239 147c 8f38
00000130: 4f6f 16b9 16fe 88b9 ca63 213a c87e 4939
00000140: 8c86 9f38 f8bc 70b9 669b 3439 be28 82b8
00000150: 7754 25b9 9f61 39b9 78bf 11ba b07b 3738
00000160: 2a79 d7b7 0cdf bfba 4204 0639 de20 b4b8
00000170: fcd0 1bb9 a655 11b9 8208 2939 c62b c2b8
00000180: a7c5 a7b9 925f 97b8 42d9 8c37 62f8 13b9
00000190: 1481 8bb8 7657 c1b8 c1dc 083a 03c0 3739
000001a0: ea6c d9b8 a1e6 3f39 40b7 7939 eb2a c1b8
000001b0: cf20 4938 1066 6938 ea98 3639 8869 6339
000001c0: 627c 0ab9 bd6b 5139 5ecf 033a a54a deb9
000001d0: 96b5 4eb9 b74f 22ba 2f58 ba38 13a1 43b8
000001e0: bd87 4239 dd3a 3539 7ecd d138 f3f0 bab9
000001f0: 7c4f 4db7 ca49 a1b9 32f6 4cb9 c4fb 0539
