Single Battery Model/6. LSTM Models/model_B0005_charge_rob.pth (torch, 334388 bytes, 7 tensors)

weight_ih_l0 f4 [512, 30]
00000000: f112 6d3d 1609 8d3d 311e 8abd 38e1 ac3d
00000010: 0c6b 4f3d 799b 363d 3376 27bd ec20 64bd
00000020: ee4f 483d 8370 40bc e26b d4bc d8e8 15bd
00000030: 4dbc cbbc c6fb acbb 9568 943d 7874 4f3d
00000040: f991 91bd c16a b13d 730f ca3c 23f3 4abc
00000050: 3815 0bbd 8b8e 883d 50f6 13bd 2b65 5f3b
00000060: 0644 94bd a648 a6bd 9748 973d 0490 6dbd
00000070: 9ca8 4a3d 161b 95bd 6052 67bd 46f8 ad3c
00000080: a7c8 143d 2b27 803c d09f cc3b 5f93 a73d
00000090: 856f 213d 2813 033d b481 ef3c bc06 9cbd
000000a0: 5d6b 92bd b3e0 c5bc 0462 cfbc 5067 3c3d
000000b0: deda 8f3d a06f 343d 7cce d53c 0cc0 7cbd
000000c0: a741 52bd 1f77 623d 8fe3 3b3d 5e9c cdbc
000000d0: db19 3fbd e5e4 96bd 12b4 b73c 6962 1f3d
000000e0: 2147 e0bc b500 0f3d 516f 96bd 744e 7ebb
000000f0: c0a3 24bd a145 883d fef2 e73c 1ea0 9abd
00000100: 12f0 aa3b 9da6 adbc 7b53 5ebc e32d 2b3c
00000110: bab8 d73a 0280 b03d 86ec 1e3d ee36 963c
00000120: ebbb 793d 3f76 b7bc 452f ae3d 3122 3bbd
00000130: 7cec 6ebd dc9b 7bbd 494c 42bd e797 afbd
00000140: f9cd 56bd 49f0 903d b7e5 8bbd d645 70bd
00000150: 7527 9dbb 0e34 5bbd 1616 8bbd 3767 1ebd
00000160: 8e2b 80bd 58cb a3bd e64a 9cbd 8fb7 003d
00000170: 047d 003c 5794 3dbd 4108 473d d5d3 cb3b
00000180: 85af 7b3d 2979 af3d 7c53 973c 00c7 713d
00000190: 29c8 4fbc c6ee 75bb 087d 013a 5a5a 05bd
000001a0: 8be6 aebd a6c5 ea3b ca2b 6b3b b188 a5bd
000001b0: 2def 5e3d 75b1 e5bc 0a7d a9bd 4bf5 a23d
000001c0: d95a 273d 47a2 893d ed21 543d a347 88bd
000001d0: 4c59 063d bd95 a43a cb90 8f3d 6469 5b3d
000001e0: 0a2f 45bd aa9e 39bc 0d2e 5dbd b0cb 9e3c
000001f0: f72b e03b 61f8 213d 912a 993d 0048 0c3d
00000200: 5bdd b33a c08b 61bd de4d 68bd daad b2bd
00000210: 63db a83d b279 a73c fd27 9cbd 1df1 b13d
00000220: bd2c 83bb c40e a1bd f850 043d 42eb f3bb
00000230: 9555 3d3a 10d6 8d3d 948c 02bd 62c3 c5ba
00000240: 5e59 953d f41b 023d 8cc5 afbd 6965 8a3d
00000250: 1508 d53a 263a 26bd d349 9f3d 6297 313d
00000260: 7fcb 98bd c0e0 b23d 8f40 f8bc 06b7 1e3d
00000270: ab67 393d 07df 8dbd e481 c23c 12ff b2bc
00000280: f74f 73bd 1146 cfbc 4ec8 02bc 5711 263d
00000290: d28a a23d 9296 1e3d 48cf aabd a463 2f3d
000002a0: 81d5 a9bd f906 283d 19f2 aa3c dc99 323d
000002b0: 941d 07bd 9181 4dbd 546c 32bc f9ab fa3c
000002c0: 32fa a83d 3a5d 4abd c56f 92bb e5d0 8bbd
000002d0: 2f78 273d 9b42 85bc 8fa9 8e3d 56a2 a03d
000002e0: dede e1bc 5ca9 613d eac4 0fbc 5624 d7bc
000002f0: 33ba aabd 7893 0fbd b943 0e3d 16ed a83d
00000300: f5e8 8d3d 6bd1 593d 7ee9 b13d f374 5f3d
00000310: a5f3 e0bc f58d 64bc 0353 6dbd 67d2 d83c
00000320: baeb 483d d87e 92bd 79f7 973d b85a 183b
00000330: 7e5d 67bd b836 323d 368a f6bc 4f65 7d3d
00000340: d2e8 37bd a5b9 e03b 82e2 f9bc c24b c9bc
00000350: 0109 803d 1972 90bd 3dee b4bd b936 823d
00000360: db0e 3a3d 9e3f 55bd 3e59 9bbd 1ceb 00bc
00000370: dfd8 51bd fce0 8cbd feec 9abd 1929 04bd
00000380: 8176 92bd 2784 943d 1488 143d 9263 ac3c
00000390: 97a8 a7bd 541e 203d 4106 18bd b278 60bd
000003a0: 5e47 b0bd 944f 6cbd 352f 0dbc f913 f7bc
000003b0: 1b9d a9bd 300c 273d 9030 ca3a 9534 be3b
000003c0: cfa0 ac3d 7ac9 0e3d 0dae 45bd d894 5b3d
000003d0: eb5d 0dbd 9b0c 313d 55a6 a43d b5a8 7a3c
000003e0: 09d7 84bd 986b cfba 49a3 f53c a2bd 86ba
000003f0: 5823 283d 2d89 c7bc 7e6f 4fbd e20f 64bc
0.057879392 0.06886499 -0.0674404 0.084413946 0.050639197 0.044581864 -0.040884208 -0.05569546
0.048904352 -0.011745575 -0.025930349 -0.03659901 -0.024870062 -0.005279037 0.0724651 0.050648183
-0.0710792 0.0866294 0.02466557 -0.01238707 -0.033955783 0.06667813 -0.036123574 0.00340874
-0.07239537 -0.08119325 0.07386892 -0.057998672 0.049477205 -0.07280557 -0.056475043 0.02123655
0.03632417 0.015643677 0.006244637 0.08182406 0.039412994 0.03200069 0.029236652 -0.07618472
-0.07149384 -0.024154996 -0.025315292 0.045996964 0.070241675 0.044051766 0.026099436 -0.061706588
-0.051332142 0.055289384 0.045871314 -0.025098976 -0.046655517 -0.07367877 0.022424731 0.03891221
-0.027377667 0.034912784 -0.07345451 -0.0038804086 -0.040195227 0.06653906 0.02831411 -0.07550071
0.005216607 -0.021197611 -0.013569708 0.010447952 0.0016458251 0.086181656 0.038799785 0.01833674
0.06097023 -0.022395251 0.0850511 -0.045686904 -0.058330998 -0.061427936 -0.047436032 -0.08573895
-0.052442525 0.07077081 -0.06830924 -0.05866035 -0.0047959634 -0.05351644 -0.06791322 -0.038672652
-0.062583074 -0.07997769 -0.07631473 0.031425055 0.007842306 -0.046284046 0.048591856 0.0062203207
0.061446685 0.08568031 0.018472426 0.05902767 -0.012681999 -0.0037526353 0.00049395906 -0.03255687
-0.08540066 0.007164675 0.0035884255 -0.080827124 0.054427315 -0.02803872 -0.082758024 0.07956942
0.040858123 0.06720405 0.051790167 -0.066542886 0.032800004 0.0012556833 0.07010039 0.053567305
-0.048140563 -0.011329332 -0.053998996 0.019384235 0.0068411785 0.039543513 0.07478822 0.034248352
0.0013722585 -0.055064917 -0.056714885 -0.08724566 0.0824497 0.020443771 -0.07624815 0.08688567
-0.004003136 -0.078641444 0.03230378 -0.0074438164 0.00072225305 0.06925595 -0.031872347 -0.0015088136
0.07292436 0.03176494 -0.08582601 0.06757624 0.0016253019 -0.0405828 0.07777753 0.04335726
-0.07460689 0.08734274 -0.030304221 0.038748764 0.04526488 -0.06927305 0.023743577 -0.021850143
-0.059402432 -0.025301965 -0.007982327 0.04054388 0.07936634 0.038717814 -0.08340317 0.042819634
-0.08292676 0.041022275 0.020867394 0.043603763 -0.032987192 -0.050172392 -0.010890085 0.030599581
0.08250846 -0.049405314 -0.0044688904 -0.06826953 0.0408861 -0.016267112 0.069659345 0.07843463
-0.027572092 0.055093154 -0.008774975 -0.026262444 -0.08336296 -0.035052747 0.034732554 0.082483456
0.06929199 0.053178232 0.08687113 0.05455489 -0.027459929 -0.013949861 -0.057940494 0.026467515
0.04905293 -0.071531 0.074202485 0.0023247432 -0.056485645 0.043509215 -0.030095201 0.061864194
-0.04489977 0.006858068 -0.030503515 -0.024572257 0.06251717 -0.070530124 -0.08834503 0.06358094
0.045424324 -0.052062623 -0.07585381 -0.007868554 -0.051232215 -0.0687885 -0.07564734 -0.032265756
-0.07151509 0.072517686 0.036262587 0.021043573 -0.08186453 0.039091423 -0.03711534 -0.054802604
-0.08607362 -0.05769308 -0.008617212 -0.03016089 -0.082819186 0.040783107 0.001542585 0.005804608
0.08429109 0.03486011 -0.04826169 0.053608745 -0.034513395 0.043224912 0.08039538 0.015299012
-0.06486327 -0.0015824912 0.029985087 -0.0010279904 0.04104933 -0.024357403 -0.050643437 -0.013919802

weight_hh_l0 f4 [512, 128]
00000000: 2dda 173d e9fb 853d 65ee 24bd 2a0d 4c3d
00000010: b6f3 21bd 9755 7e3d a942 abbd 22fe acbd
00000020: ca22 1e3d b833 97bd 70c8 9f3d dfff 3dbd
00000030: ac32 883c 0847 b0bd dcf4 d739 5e33 073d
00000040: 644d 7e3d 3a77 95bd 4dbe 0c3d a9e7 91bd
00000050: 43fa 6abd 9b56 86bd cdc3 37bd bf91 523d
00000060: 1aca 82ba 5d14 40bd 295a 8dbd 7c0c b13c
00000070: 172e b4bd 997b 81bd 9e22 313d 844a 4e3d
00000080: 1c91 363c e8a2 bb3d 8108 82bd 18d8 65bd
00000090: 1ce2 5abd af2d acbd 4d93 1e3d f0d7 613d
000000a0: 875d 393d b135 b5bd 2936 62bd 6fd3 b7bc
000000b0: 4261 f83c b74b 95bd f5e3 97bd 3bfd 963d
000000c0: f170 f4bb 1cfa b63b 17f3 723d d511 393d
000000d0: e5c2 0b3d 2506 93bd 5add b3bd 9f7c 8d3d
000000e0: 54bc 17bc 7b55 833d bf9e dd3c dfd8 b5bc
000000f0: d4f2 a43c 4f37 aabd 693b f5bc 4126 02bd
00000100: 031f 7a3d f004 a2bd 4829 34bd d496 053d
00000110: 889c bf3c 51cf 86bd e4f0 383d 84ce e6bc
00000120: de42 113d eeb4 c53b fdea a23d c06f 913c
00000130: 4e43 983d 1f11 023d 8dc2 163c bd46 a7bd
00000140: dc67 8d3c cd60 b23c 5d3c ecbc 7af1 bcbb
00000150: 8271 38bc 9224 56bd 8733 00bd 3137 943c
00000160: 24e5 abbc 7c53 e73c f551 5dbd 324a 80bc
00000170: 9a0f a63c 905b 6d3d 9253 68bd 3a24 843d
00000180: 4112 b1bd 692b 6dbc 6c51 26bd 2e94 aa3c
00000190: a69a 463d 48b9 543d 63ae e43c b221 9fbd
000001a0: 107a 253d 80a8 fbbc 663c 903d 4ab5 4e3d
000001b0: 0db6 543d 0082 6d3d 71c2 3ebd e4e1 79bd
000001c0: a4cd edb8 5562 a2bd 8e91 da3c 616b 923c
000001d0: 35e4 a03d 0bac 65bd 2364 04bd a325 61bd
000001e0: 37f2 7c3d eee5 0ebd 0a2c eb3a 213a 303d
000001f0: b5f8 fe3c 5700 97bd 883c a53d 95f2 afbc
00000200: c89e 85bc 7f5e cd3c 7f54 b7bd 9713 5c3c
00000210: d839 23bd d688 2f3d b0c0 8dbd 87a1 b23d
00000220: 42d7 123b 98e7 32bd 13b8 70bd 5636 3cbd
00000230: f278 b3bd 52c1 7ebd 414b 203d b948 6c3d
00000240: da38 babd e5b1 463d 0cee 86bd 7b16 8e3d
00000250: bd80 98bc 1a22 4dbd f301 ab3d 659f 84bd
00000260: 6609 c1bc 6102 3cbd 5451 babb 070d a53c
00000270: ffae 9a3d 6fa5 40bd 922e 9f3c 49a5 163b
00000280: a981 6d3d 6b2e 87bc 4c98 d83c 4bd7 cd3b
00000290: 1377 93bd 5d50 16bd 4622 5e3d 339b c73c
000002a0: 560c aebd b64d 2ab9 c5a6 813b 945e 0cbd
000002b0: 6d71 82bc 8d0e a93d 0dd0 b2bd 80ca e4bc
000002c0: 192c 8d3d a076 33bd cb90 ae3d 2923 32bc
000002d0: 3087 a7bb fa0c 1cbd ee3d 1fbc 1906 47bd
000002e0: 4136 1a3d f90c 4dbd 5580 b1bd 0351 8ebd
000002f0: 6265 8e3d 32c5 02bb 6a39 b7bb 083a 293d
00000300: 0727 e2bc 85ec e8bb e84f 86bd e0c1 58bd
00000310: 5653 30b8 e3aa a8bd 586a 3a3c 8569 2f3d
00000320: ab39 c53c d518 98bc 73c1 8b3c bbd3 1a3d
00000330: bcd0 adbd a713 453d a483 103c e5cd bd3c
00000340: efe6 993d 156a 88bd 4d86 f13c 4ebd f93c
00000350: 85b3 29bd d5b8 093c a898 123d 4da8 5d3d
00000360: a271 dd3c f9f6 533c 3203 1bbc 5d24 833c
00000370: 998d 2b3d 1549 7cbd 356c 083c 5ecf 40bd
00000380: 020a 5cba fdb6 a7bd 64a1 b43c dba7 abbd
00000390: 95d3 a13d d3f4 31bc 251b a4bc 1dea 8b3d
000003a0: d9c0 993d c5ea 5cbd 0fda 43bd a565 9e3d
000003b0: a778 d3bc a983 6f3c 75ad 62bd 5053 54bd
000003c0: 66e3 883d a7d8 0a3d 3136 15bc 9998 59bd
000003d0: 7a0c a6bd 6f27 a43d 3dbc 3e3c 991f 523d
000003e0: 16cf 71bd cbcc 6cbd 7250 6e3d caa0 95bd
000003f0: 4e28 b33d c712 cc3c 2e0a 9a3d 35fa a7bc
0.037073303 0.06542189 -0.040266413 0.04981724 -0.03953906 0.062093344 -0.08362324 -0.084469095
0.038607396 -0.073829114 0.07801902 -0.046386596 0.016625725 -0.08607298 0.0004119043 0.033007972
0.062085524 -0.07298131 0.034361172 -0.07124264 -0.057367574 -0.065594874 -0.044864465 0.051408526
-0.0009978444 -0.04689442 -0.06901962 0.021612398 -0.087978534 -0.063224025 0.043245904 0.050364032
0.011142995 0.09161931 -0.06349278 -0.056114286 -0.05343829 -0.08407151 0.038714696 0.055137575
0.04525521 -0.088481314 -0.055227432 -0.022439687 0.030319814 -0.07289832 -0.07416526 0.07372519
-0.0074597527 0.0055840146 0.05931386 0.04518302 0.034121413 -0.07178906 -0.08782454 0.06908535
-0.0092612095 0.064127885 0.027053235 -0.022198139 0.02013532 -0.083113305 -0.029935556 -0.031774763
0.06106473 -0.07911098 -0.04398468 0.032614544 0.02339007 -0.06582511 0.045151606 -0.028174646
0.03546416 0.0060335314 0.07954977 0.017753482 0.07434712 0.03175461 0.009201658 -0.08167789
0.017261438 0.021774674 -0.028837377 -0.005766091 -0.011257531 -0.05228097 -0.03129914 0.018092724
-0.020983286 0.02823805 -0.05403324 -0.01566038 0.020271111 0.05794865 -0.056720324 0.06452222
-0.0864606 -0.014475682 -0.040604994 0.02082261 0.048487328 0.05193451 0.027915185 -0.07770099
0.04039961 -0.030719995 0.0704277 0.05046586 0.05193143 0.057985306 -0.046572153 -0.06100644
-0.00011339344 -0.079289116 0.026680734 0.017873468 0.07856027 -0.056072276 -0.03232206 -0.054967534
0.06175443 -0.034887247 0.0017942202 0.043024186 0.031124452 -0.07373112 0.08068186 -0.021477977
-0.016311064 0.025069473 -0.08951663 0.013432405 -0.039850086 0.042855106 -0.06921518 0.08722215
0.0022406136 -0.043677896 -0.058769297 -0.045950256 -0.08763303 -0.062196083 0.039134268 0.05768654
-0.09092875 0.048509497 -0.065883726 0.069378816 -0.018616075 -0.05008135 0.08349981 -0.064757146
-0.023564052 -0.045900706 -0.0056859646 0.020147813 0.07552909 -0.04703277 0.019431386 0.0022986701
0.05798498 -0.016501626 0.026439808 0.0062817684 -0.07200446 -0.036697734 0.054231904 0.024365997
-0.08498447 -0.00016241413 0.003956648 -0.034269884 -0.015923226 0.082547285 -0.08731089 -0.02792859
0.068931766 -0.0438143 0.08523711 -0.010872641 -0.005112551 -0.038098313 -0.009719355 -0.0485898
0.037649397 -0.0500612 -0.086670555 -0.069490455 0.06952931 -0.0019953963 -0.005591561 0.04131511
-0.0276065 -0.0071082735 -0.0655821 -0.05291927 -4.2039283e-05 -0.08235719 0.011377893 0.04282524
0.02407535 -0.018566528 0.017060017 0.03779958 -0.084870785 0.048114445 0.008820448 0.023169467
0.0751475 -0.066608585 0.029482985 0.030485775 -0.04143097 0.008405884 0.035790116 0.054115582
0.027031723 0.012937301 -0.009461211 0.01600855 0.041883085 -0.061593134 0.00832658 -0.04707276
-0.0008393825 -0.08189199 0.022049613 -0.08381625 0.07901684 -0.010861593 -0.020032475 0.06831763
0.07507486 -0.05393483 -0.04781538 0.07734231 -0.025814367 0.014618793 -0.055341203 -0.051837265
0.06683998 0.033898022 -0.0091071585 -0.053124044 -0.081078485 0.08015334 0.011641559 0.051299665
-0.059035383 -0.057812493 0.058182187 -0.07306059 0.08747922 0.024911297 0.07521473 -0.02050505

bias_ih_l0 f4 [512]
00000000: ab04 393c 1486 febc 1903 e23c f001 ac3d
00000010: d502 573d 0f75 b33b 52a5 35bc 24f7 803d
00000020: 44a0 2e3c dda9 0abd 998a abbd 72aa 46bd
00000030: f380 463c e33a b838 56ca 85bd 7773 0b3d
00000040: dd1a 93bd 16be debc 4288 27bd ed95 5a3d
00000050: ba05 6e3d f4ff 953c ddc6 883d b949 fb3c
00000060: b313 55bd 195e 9cbd e26d ac3d 55ba 9abd
00000070: f986 ddbb 8ff7 00bd 2bf6 2839 6e97 ad3d
00000080: d087 993d d18f bcbd 89d2 b2bd 60b2 8ebd
00000090: 7c9d bcbd e5e3 cf3c 3ba9 91bb 8853 99bd
000000a0: 008c 2dbb 4a80 79bc b225 843d fcdf afbd
000000b0: c974 a8bd 5d89 dc3c 88e2 ff3c 7eac 81bc
000000c0: c6b7 863d da76 b73d 50e0 56bd 63b1 583d
000000d0: 955f 95bd 1178 6f3d b627 8b3d 294e 023c
000000e0: 6d47 4dbd 6b0c 403d 02c8 9d3d c17d 213c
000000f0: defc 4e3d fed9 253d c756 a33c f7a4 62b9
00000100: e723 36bd c51f 713d 0248 a3bd 6769 003d
00000110: 7b46 d2bc 67b9 93bd b430 28bd 2bfb 79bd
00000120: 0e10 9e3d daf0 b9bd b7c7 9cbd 5226 873d
00000130: fa2d 713d 6081 d2bc a0f8 513d 843f 403d
00000140: 4a20 803d 0ae5 903c 38c9 02bd 6e27 dcbc
00000150: fe70 513d 4295 733d 5f7c 933d d072 793d
00000160: 17bc 4cbd 4662 bc3c 210f 963c a760 3d3d
00000170: e907 b73c 09f7 a0bd 356f d83c b7cf e43c
00000180: 2c01 8c3c cba5 17bd 38d9 9fbd 5a90 ab3d
00000190: 5e74 8e3c efb1 6ebd f466 453c 5b51 6a3c
000001a0: ce88 7dbc 3ef3 283b 4b08 393d 2c3a 19bd
000001b0: 3acf 57bd a0fa bd3b f9bf 73bd 8153 1abd
000001c0: 26f0 99bd 081c 60bb 8f61 1bbb 2e63 823d
000001d0: f26b 9f3d 8c12 713d f3b8 b13d 3f79 39bc
000001e0: 6ade 08bd 9a99 abbd 77c8 923c e331 493c
000001f0: 70a9 263d 8267 0c3d 7350 4fbc ba26 3d3d
00000200: affe 82bd dfe2 21bd 3763 9a3c d93f 8fba
00000210: b266 57bc ec59 0d3d 415c 76bb 9827 a53d
00000220: 0601 51bd a3a6 89bd 8903 31bd e479 313d
00000230: aa2c acbd d9c8 5cbc e273 9c3d d1ca 8a3c
00000240: 8b4f 0f3d 96b7 da3c 496e df3c 1c46 a73d
00000250: 2d7b f5bc 3865 99bd 6cd3 343a 5c4d 7abc
00000260: d58c c03c 2ea7 fcba 8b10 25bd a8bb a23d
00000270: 181f 3d3d 37ec a33d e5c9 873c dc61 16bd
00000280: f642 4a3d 0c06 7f3c 3276 9c3d 74d6 77bd
00000290: 8bbb 81bd 876c b03d 6652 afbd f75d 583d
000002a0: f805 ad3d 1dc2 d23c 0190 413d 6546 7b3d
000002b0: 4b28 81bd cca7 70bd 7f43 0f3d 6567 6a3c
000002c0: 5202 b3bd 3076 90bd d70a 963c 33b3 a4bd
000002d0: b93d bcbd e0d4 b23d bcdf 95bd 86ef 54bd
000002e0: 7073 8239 7d58 1cbd 8718 9b3d 0337 f63c
000002f0: 4e51 0ebd d4e8 7cbd fd50 9ebc 3c5d a73c
00000300: 0b67 1b3d 96ec c63b 5c74 6e3d 3a0f 6ebd
00000310: 6071 69bd 5fe8 1fbd 88ff a93d 6484 0fbd
00000320: a72d d5bc eead 693d 5ae5 94bd a708 473b
00000330: 4acc 5dbd f484 563d 97b4 9bbd b8d3 013d
00000340: 5bb7 973d 6e37 343d acf9 b2bd 838e aa3d
00000350: 69d1 123d 8e51 cfbc f17a 3dbd 6cbf 51bc
00000360: d128 a6bc e91e cd3b d4d0 2f3d ec9b 2ebc
00000370: e009 843d 05c4 8a3d fa43 a2bd 410b a23d
00000380: 0ac2 5c3d 56f3 703d fe60 efbc 0465 94bd
00000390: b68e 4abd a929 80bd f271 443d 6e58 25bd
000003a0: 9253 683b 4100 cb3b 0ed4 963c ccd3 4bbd
000003b0: a690 993d 688d a33d 8ed3 253d 8e4b 933c
000003c0: 4dcd a33d 85fd 86bc caba dcbc a046 8ebc
000003d0: 3f97 67bc 9fa3 15bc cfc9 7bbd 80b9 a73d
000003e0: 231d b03d ab78 a4bd cb0f 993d 89ce 32bd
000003f0: 443f 47bd 4ea8 c5bc b1ff 81bd 81f2 80bc
0.011292617 -0.031069793 0.027589368 0.08398807 0.052492935 0.005476601 -0.011086779 0.06297138
0.0106583275 -0.0338534 -0.08376045 -0.048502393 0.012115705 8.784772e-05 -0.06532733 0.034045663
-0.07182858 -0.02719025 -0.04090143 0.053365637 0.05811093 0.018310525 0.06678555 0.030674802
-0.05202074 -0.07635135 0.08419396 -0.07555071 -0.0067604748 -0.03148609 0.00016113433 0.084761485
0.07496607 -0.09207118 -0.08731563 -0.06967616 -0.09209725 0.025377223 -0.0044452227 -0.074866354
-0.0026481152 -0.01522834 0.06452502 -0.085876435 -0.082254 0.026920969 0.031235948 -0.015829321
0.06578021 0.08958216 -0.052460015 0.052903544 -0.072936215 0.058464114 0.06794684 0.007953205
-0.050116945 0.046886843 0.07704164 0.009856642 0.05053412 0.040491097 0.01993884 -0.00021614494
-0.044467833 0.05886819 -0.07972719 0.03135052 -0.025668373 -0.07213097 -0.041062072 -0.061030548
0.07717906 -0.09079142 -0.0765528 0.06599106 0.058881737 -0.025696456 0.051262498 0.046935573
0.06256159 0.01768734 -0.03193018 -0.02687427 0.05113315 0.059468515 0.07201456 0.06090051
-0.049984064 0.02299608 0.01831776 0.046234753 0.022342639 -0.07859618 0.026420215 0.027931077
0.017090403 -0.037023347 -0.07805103 0.08377142 0.017389473 -0.05827516 0.012048472 0.014301623
-0.015474511 0.002577975 0.045173924 -0.037408993 -0.05268786 0.005797699 -0.05950925 -0.03767729
-0.07516508 -0.0034196395 -0.0023709273 0.06366573 0.07784261 0.05885558 0.086778544 -0.011320411
-0.033415236 -0.083789065 0.017917855 0.01227996 0.040688932 0.0342784 -0.012653458 0.04617951
-0.06396233 -0.039523 0.018846137 -0.0010929062 -0.013147043 0.034509584 -0.0037591609 0.080641925
-0.051026367 -0.067212366 -0.043216262 0.043329135 -0.084069565 -0.01347562 0.076392904 0.016942414
0.034987967 0.026698869 0.027274268 0.08167669 -0.029965961 -0.07490009 0.00068979594 -0.015277233
0.023504654 -0.0019275898 -0.04029898 0.07945949 0.04617223 0.08004039 0.016575763 -0.03671442
0.049380265 0.0155654065 0.076397315 -0.060507253 -0.06334599 0.0861445 -0.08560638 0.052823987
0.08448404 0.025727326 0.047256473 0.06134643 -0.063065134 -0.058753774 0.03497648 0.014306878
-0.08740677 -0.070537925 0.018315716 -0.08041992 -0.0919146 0.08732009 -0.073180646 -0.05198624
0.0002488154 -0.038170327 0.075730376 0.030055529 -0.034745507 -0.06174548 -0.019325728 0.0204302
0.037940066 0.0060706837 0.058216438 -0.05811999 -0.05699289 -0.039039966 0.08300692 -0.035038367
-0.026022745 0.057050638 -0.07270308 0.0030370147 -0.054149903 0.052372888 -0.07602804 0.03169605
0.07408019 0.043998174 -0.087390274 0.08327963 0.03584424 -0.025307443 -0.046259824 -0.012801986
-0.020283135 0.0062597883 0.042923763 -0.010657292 0.06447196 0.06775669 -0.07923122 0.07912303
0.053895988 0.058825813 -0.029221054 -0.0724583 -0.049452506 -0.06257946 0.04796023 -0.040367536
0.0035450202 0.0061950986 0.018411662 -0.049762532 0.074982926 0.079859555 0.040484957 0.017980363
0.079981424 -0.01647831 -0.026944537 -0.017367661 -0.014135181 -0.009133249 -0.061471757 0.08189678
0.085993074 -0.08030828 0.074737154 -0.043654 -0.04864432 -0.024128105 -0.063475974 -0.015740635

bias_hh_l0 f4 [512]
00000000: f740 ac3d 1a99 333d 5d32 4b3d 2cea 1f3c
00000010: 2972 7bbd 2a0f dfbc bce4 163b 99dd 56bb
00000020: 7e99 ee3c f421 3dbd 3726 163d d0a0 733c
00000030: 6e6f 65bd 7dbb 9bbc db19 c6bc 1351 de3c
00000040: fb47 1d3d 0b09 403d 5fe8 85bd 4565 ed3b
00000050: 2578 5dbd 1d1d ad3c 64d7 88bd cccc 9abd
00000060: ae80 92bd 9849 54bc f83d 59bd 248a 293d
00000070: da85 663d 1f88 963d 25ab b3bd ee05 a2bd
00000080: 4b84 96bd fcc1 2ebc e421 40bc 9260 b1bd
00000090: 03a4 b0bd c535 6b3d bb7b fa3c 3d9d 7d3c
000000a0: bd18 b4bd a27c 233d 31e6 f13c 84dd 94bd
000000b0: b236 17bd ee7c 8abd 1820 a93c 8dd5 02bd
000000c0: d4ba f03c 232b 8f3c be02 c0bb 4749 6e3d
000000d0: 03a3 aebd 7194 8b3d a072 b4ba 5541 993d
000000e0: 8491 923d 4833 1bbc 4d0d 163d 13f1 1a3a
000000f0: fafe 74bd 1e93 79bd de45 4ebc d4e6 3e3d
00000100: ca73 81bd fd73 b5bd 6a13 763d 2648 a73d
00000110: 812d 623d 3ef2 973c 3f43 36bd c0b3 38bd
00000120: e553 2dbd 2fd7 49bd 584b 35bd 65be fbbc
00000130: 896c aabd c8e8 843d 2484 473d 8242 ae3d
00000140: 3564 62bc c1b9 abbd 4854 873c 48f2 923d
00000150: 7091 a03d 1766 833d 9db7 6d3c 9e40 e2bc
00000160: f0ee 8a3d 8a0f e03c ae53 b03d 1be0 6ebd
00000170: 46fa 1cbd d756 ac3b e517 9f3d 7c9f a93d
00000180: 22b2 bb3d 9e62 a4bd 54e5 943d 40cb 213c
00000190: e062 e2bc 16ff b53d 2593 44bd 7c9f 923b
000001a0: 8ea7 683d 1c66 0ebd 635e f7bc 58bc 9c3c
000001b0: ac95 1c3d 3378 2fbd 5646 0abd ed73 633d
000001c0: 8cdb a1bc f929 6fbd 6b34 a63c 0ac3 01bd
000001d0: 724f 5e3d 4b11 533c a637 aa3b 6df1 663d
000001e0: 600b 29bc e33d 883d 4fb8 5bbd 7156 a5bd
000001f0: 39a2 243c 95b8 923c da78 a2bc 50c7 09bc
00000200: f16b dabc d26a 51bd d38a e239 792e 473d
00000210: 925f 1e3d 2134 aa3b eac8 513d 34c0 93bd
00000220: 7c90 f4bc 3290 52bd bef8 693d 356e abbc
00000230: 0d1d 2c3d 4a90 0fbd 954b dfba a575 ac3c
00000240: e5d1 1d3d feba 07bd 8f58 5e3d cfd0 c6bb
00000250: fdf6 8f3c 0379 c43c 0988 033d 52fb 9b3d
00000260: 5475 e53a e338 b6bd f9db 08bd 072e 1f3d
00000270: 76fb 18bd 594e 813d 61a1 643c bd2c 70bd
00000280: 2cc7 79bc ea33 57bd 522e 983d 5acc 9fbd
00000290: 6d51 73bc 7e85 863c efe7 473d 6933 bfbc
000002a0: 31dd bd3c a8f3 033d e12f 8cbd ffaf 92bd
000002b0: 90a7 8e3b 6804 693d 8194 adba 5fba 103d
000002c0: 21cd b73c 30e4 33bd 676f 473d ba5e 6abd
000002d0: f704 50bc 5bc4 9abc 29fa 463d 3a78 493d
000002e0: bae5 963b eab6 c7bc 596d 2a3d ea73 abbd
000002f0: 026e 86bc 3356 89bd 2eae 80bd ca13 8dbd
00000300: d5fb 973d d960 183c ac22 00bd f13b b5bc
00000310: 18c8 87bc 8621 77bd 7cde 593d 8dc0 86bd
00000320: 456b 7f3d 3e59 a2bd 990e 88bd d2d4 f83c
00000330: 2179 1ebc 6013 8e3b 5a9d 0dbd c138 e8ba
00000340: 36e4 37bd 4c33 07bd 73b9 553d 8c16 92bd
00000350: 3526 29bd 0b60 033d 861e 383d e37d ccbc
00000360: 6946 40bd 2e95 02bd 6abe 963d 273c 933d
00000370: 335b 39bd e1a8 903d bac7 963d e333 053c
00000380: e7ff ac3d ba1a 2bbc f977 d83b 0340 bb3c
00000390: 7c19 b6bc ef33 49bd ea86 51bd 7d45 823d
000003a0: ca28 9ebd b2e2 803d b618 8b3d 9396 973d
000003b0: ba1e 72bd 7627 10bd e91e 6e3c 0c15 f23b
000003c0: db8a 2abd 5141 81bd 0b39 3abd bca5 1fbd
000003d0: bcfb 90bc 0865 73bd 316c 9a3d 1ae2 223d
000003e0: 8ee3 233d 014a 583c 8a6b ecbb 70dc dcbb
000003f0: 4c72 b13d 36b3 b03d 8ad6 ee3c 458e a63d
0.084108286 0.04384718 0.049608577 0.009760421 -0.06138817 -0.02722891 0.002302452 -0.003278589
0.029125925 -0.04617496 0.03665754 0.014869884 -0.05601447 -0.0190103 -0.02418225 0.027138269
0.038398724 0.046883624 -0.06538462 0.0072447383 -0.054069657 0.021132046 -0.066817075 -0.07558593
-0.0715345 -0.012956999 -0.053037614 0.041391507 0.056279995 0.07350182 -0.087728776 -0.07911287
-0.07349452 -0.010666367 -0.01172683 -0.086609975 -0.08625033 0.057424325 0.030576577 0.015479383
-0.08793781 0.03991378 0.02952871 -0.07268813 -0.036917396 -0.0676211 0.020645186 -0.03194194
0.029385962 0.017476624 -0.005859702 0.05817535 -0.08527186 0.06815422 -0.0013767071 0.07483164
0.07156661 -0.009472676 0.03663378 0.00059105566 -0.059813477 -0.060931318 -0.0125899 0.046606854
-0.06320913 -0.08860014 0.06007711 0.08168058 0.055219177 0.018548127 -0.044497725 -0.045093298
-0.042316336 -0.04927748 -0.044261307 -0.030730436 -0.08321483 0.06489712 0.048710003 0.08508779
-0.0138178365 -0.08385039 0.01651968 0.07175118 0.0784024 0.064159565 0.014509109 -0.027618703
0.06783855 0.02735116 0.08609711 -0.058319192 -0.038324617 0.0052593756 0.077682294 0.08282372
0.091648355 -0.08026622 0.07270303 0.009875119 -0.027635038 0.088865444 -0.04799189 0.0044745784
0.056800418 -0.034765348 -0.030196374 0.019132778 0.038228676 -0.04283924 -0.033758484 0.055530477
-0.019758008 -0.058389638 0.020288667 -0.031680144 0.054274984 0.012882541 0.005194622 0.056382585
-0.010317653 0.06652429 -0.053642567 -0.08073128 0.0100484425 0.017910281 -0.019833017 -0.008409336
-0.026662799 -0.051127262 0.0004320951 0.048628304 0.03866536 0.0051942025 0.051216997 -0.07214394
-0.029854052 -0.051407047 0.057121985 -0.020926574 0.042019892 -0.035049714 -0.0017036075 0.021052191
0.03853025 -0.033137314 0.054283675 -0.0060673724 0.017573828 0.023983484 0.032112155 0.07616295
0.001750628 -0.08897569 -0.033412907 0.038862254 -0.037349187 0.06313772 0.013954491 -0.058636416
-0.01524524 -0.052539743 0.0743071 -0.07802649 -0.014850956 0.016421076 0.048805173 -0.023339944
0.023176761 0.03221479 -0.0684507 -0.07162475 0.004353471 0.056888968 -0.001324311 0.035333987
0.02243668 -0.04391879 0.048690226 -0.057219245 -0.012696496 -0.018892458 0.048578415 0.049186923
0.0046050223 -0.024379212 0.04160819 -0.08371718 -0.016409878 -0.06705894 -0.06283222 -0.0688854
0.0742108 0.009300434 -0.031283066 -0.022123309 -0.016574904 -0.060334705 0.053190693 -0.06579695
0.06235816 -0.07927178 -0.06643409 0.030374918 -0.009672434 0.004335806 -0.03457389 -0.0017717109
-0.044895373 -0.033007905 0.05217881 -0.07133207 -0.041296203 0.032074016 0.044950984 -0.024962371
-0.04694215 -0.03188055 0.07360537 0.071892075 -0.04525299 0.07063461 0.073623136 0.008130047
0.08447247 -0.010443384 0.0066060987 0.022857672 -0.022228949 -0.049121793 -0.051154055 0.0636091
-0.07722624 0.06293239 0.067918226 0.07401767 -0.059111334 -0.035193883 0.014533737 0.007387763
-0.04163633 -0.06311286 -0.045464557 -0.038976416 -0.017698161 -0.059422523 0.07540167 0.03976641
0.040011935 0.013201238 -0.007214968 -0.0067401454 0.086643785 0.08627932 0.029155035 0.081326045

weight f4 [1, 128]
00000000: e453 d5bc b43a 03bd 82b9 30bd 2cf0 45bd
00000010: abc9 0bbd c8ce d43a 8adf 94bb 2570 afbd
00000020: 0a26 853c 9f03 eabb 8563 863d efef ae3d
00000030: bf1b 493c f330 aebb c360 db3c e3e5 12bd
00000040: 34a7 6dbd 3eac 853d cf53 7abd b57a 22bd
00000050: dda7 94bd 40b7 893b 04f0 093d 5106 e9bb
00000060: c854 cdba 1ec6 0dbd 7909 4b3d 054e 2e3d
00000070: 7660 33bc 281a 82bd bf94 9d3d efcf 9f3c
00000080: 4481 a23d e7e2 003d d259 a83d bb84 ac3d
00000090: f5c9 a23d a4f0 87bd aa2b 9d3c 90d0 d13c
000000a0: 190c 1cbd 38cb 54bc d9e3 9fbd 7aa9 a0bc
000000b0: 7afa 193c f40f 8fbd c850 053a c289 aabd
000000c0: d49f 2c3d a1fa 8a3c ea65 773d c187 3dbd
000000d0: dd58 7c3d 425e 3c3c b204 abbc b4d0 3d3c
000000e0: 6c07 883c 8f3e 51bd 70af 843d b2f3 093d
000000f0: d9c9 4fbd 3ed1 97bd e1f8 9bbc e969 29bd
00000100: cca9 933c 0c70 303d aa5a 99bc 16c1 993d
00000110: b10a 9cbd 0369 fb3b eeb8 913d 3fcb 13bd
00000120: 01dc 4fbd 7635 8cbd 2d92 8f3d dc79 05bd
00000130: 2aa5 fcbc b0ef 29bd 0c59 93bd 9717 bdbc
00000140: 28ff e83b f59a 2b3d 7b6d 9f3d 9f88 9d3d
00000150: 7cba 74bd d6ae 8f3d 3c31 ad3d 8f84 9dbd
00000160: 3a1a a7bd 6977 7b3d 0ee2 2abd 1fd8 833d
00000170: bdec cf3c 70ea a33c a25e 8e3d 516c 103d
00000180: 04e6 323b c85e 3cbc e0a1 e83c e3e2 ae3c
00000190: 5e11 df3c 89bb 2a3d 9602 1cbc f44a f73a
000001a0: d1b8 8cbd dd08 cbbc 56a0 e83c e28f 453c
000001b0: 1e03 91bd a151 c23c 16ed 2d3c d1e1 afbd
000001c0: 9ce8 13ba e919 9dbd bad4 d03b c88c 94bd
000001d0: 88e9 86bd 31a5 32bd ffdc d8bc f440 38bd
000001e0: b937 97ba 378d eb3c 9728 9dba 1ea8 ab3d
000001f0: fa90 60bc 2a74 9c3d 73a0 b1bc 036b 8d3d
-0.026040979 -0.032038406 -0.043145664 -0.04832475 -0.034127872 0.0016235942 -0.0045432495 -0.08566312
0.01625349 -0.007141545 0.065619506 0.085418575 0.012274682 -0.005315894 0.026779538 -0.03586377
-0.058020785 0.06526993 -0.061115082 -0.039667804 -0.0725858 0.0042027533 0.033676162 -0.0071113487
-0.0015665526 -0.034612767 0.04956958 0.042554874 -0.010948291 -0.06352645 0.07694387 0.01950833
0.07934812 0.03146639 0.08220257 0.08423754 0.079486765 -0.066376954 0.01918586 0.025612146
-0.038097475 -0.012987904 -0.0780713 -0.019612063 0.009398097 -0.06985465 0.00050855847 -0.083270565
0.04214461 0.016965212 0.060399927 -0.046272043 0.061608184 0.011497082 -0.020876262 0.011585403
0.016605102 -0.05108505 0.064787745 0.03367967 -0.050729606 -0.07412957 -0.019039573 -0.04136077
0.018025301 0.043075606 -0.01871999 0.07507531 -0.07619227 0.0076724305 0.07115351 -0.036082502
-0.05074692 -0.06846134 0.07010303 -0.032586917 -0.030840475 -0.04148835 -0.07194719 -0.023082538
0.007110495 0.041895825 0.077845536 0.07692074 -0.059748158 0.07015769 0.08456656 -0.07691299
-0.08159299 0.061393175 -0.04171949 0.06437706 0.02538144 0.02000925 0.069516435 0.03525955
0.0027297745 -0.011497207 0.0283975 0.021348422 0.027229961 0.041682754 -0.009522101 0.0018866942
-0.068711884 -0.0247845 0.028396767 0.01205823 -0.07080673 0.023720564 0.010615608 -0.08587993
-0.00056422665 -0.076709576 0.006373015 -0.072534144 -0.06587511 -0.04361457 -0.026472567 -0.04498382
-0.0011536992 0.02875386 -0.0011990246 0.08381675 -0.01370644 0.07639344 -0.021682953 0.069051765

weight f4 [128]
00000000: bddb 7f3f 56f3 7f3f 6a84 7f3f 7932 7f3f
00000010: d9d0 7f3f 17e0 7e3f 100c 7f3f 92ae 7f3f
00000020: 6a7c 7f3f e400 803f 59b0 7f3f 4596 7f3f
00000030: fef9 7f3f 14b0 7f3f b6f4 7e3f 588a 7f3f
00000040: 811b 803f 7f52 7f3f 966a 7f3f e3d0 7f3f
00000050: 1089 7e3f 8ab9 7f3f fdb3 7f3f 350c 803f
00000060: a076 7f3f 1583 7f3f 7441 803f b672 7f3f
00000070: 8a94 7f3f a9e2 7e3f 5586 7f3f d8e9 7f3f
00000080: dd9b 7f3f bda2 7e3f 5eb1 7f3f 5486 7f3f
00000090: c3bd 7e3f 6c9f 7f3f 0e61 7f3f da72 7f3f
000000a0: f966 7f3f f5a7 7f3f d514 7f3f 0569 7f3f
000000b0: eb96 7f3f 03b5 7f3f 00d6 7c3f 47e2 7e3f
000000c0: b880 7f3f 4b97 7f3f 32f5 7e3f fd90 7f3f
000000d0: c8c4 7d3f 9493 7f3f 5594 7f3f ae71 7f3f
000000e0: 532b 7f3f 6493 7f3f 5bc8 7f3f 47d2 7f3f
000000f0: eeb0 7f3f e88e 7f3f 1095 7f3f 36ab 7f3f
00000100: 3d96 7f3f d8b4 7f3f 5c18 803f 3ae4 7e3f
00000110: 264f 7f3f 3bd2 7f3f f363 7f3f b955 7f3f
00000120: 4d76 7f3f 70fa 7e3f c7d5 7f3f d183 7f3f
00000130: 3bac 7f3f beb8 7f3f c2d1 7f3f 1109 803f
00000140: 058b 7f3f 9e2f 803f b37a 7f3f f05b 7f3f
00000150: 8783 7d3f 80d0 7e3f ca86 7f3f 7dbe 7f3f
00000160: cab9 7f3f 6782 7f3f 2ec5 7f3f 48c2 7f3f
00000170: 85a4 7f3f b423 803f 5673 7f3f 5036 7f3f
00000180: 11a8 7e3f 6cca 7d3f 85e5 7f3f 9dec 7f3f
00000190: 8aaa 7f3f 4b3e 803f a347 803f d810 7f3f
000001a0: 8e31 803f 7b3f 7f3f adc3 7f3f 93cd 7f3f
000001b0: 6e57 7f3f 27cc 7f3f 9792 7f3f d6a7 7f3f
000001c0: 0a92 7c3f 0a08 7f3f b219 7f3f a691 7f3f
000001d0: 8637 7f3f df0f 803f d9c2 7f3f a784 7f3f
000001e0: 2d82 7e3f f70b 803f a74f 7e3f 3ee0 7f3f
000001f0: d98b 7f3f 86be 7f3f 627f 7f3f 1483 7f3f
0.9994467 0.99980676 0.9981142 0.9968639 0.9992805 0.99560684 0.9962778 0.9987575
0.99799216 1.0000272 0.9987846 0.9983867 0.9999083 0.9987805 0.9959215 0.9982047
1.0008394 0.99735254 0.9977201 0.9992811 0.9942789 0.99892485 0.99884015 1.0003725
0.9979038 0.9980939 1.0019975 0.9978441 0.9983603 0.99564606 0.9981435 0.9996619
0.99847203 0.9946707 0.99880016 0.99814343 0.99508303 0.99852633 0.9975747 0.99784625
0.997665 0.9986566 0.9964116 0.9976962 0.9983966 0.99885577 0.9876404 0.9956402
0.99805784 0.9984023 0.9959289 0.9983061 0.9912839 0.9983456 0.9983571 0.99782836
0.9967548 0.99834275 0.99915093 0.9993023 0.9987935 0.9982743 0.99836826 0.9987062
0.9983862 0.9988532 1.0007434 0.99566996 0.99730146 0.9993016 0.99761885 0.9974018
0.9978989 0.9960089 0.99935573 0.9981051 0.9987218 0.9989127 0.9992944 1.0002767
0.998215 1.0014532 0.997966 0.9974966 0.9902882 0.99536896 0.99815047 0.9990004
0.99892867 0.99808353 0.9991025 0.99905825 0.9986041 1.0010896 0.99785364 0.9969225
0.994752 0.99136996 0.99959594 0.9997042 0.99869597 1.001901 1.0021862 0.99635077
1.0015123 0.9970624 0.9990795 0.99923056 0.9974278 0.99920887 0.99833053 0.9986547
0.9866034 0.9962164 0.9964858 0.99831617 0.996941 1.0004843 0.9990669 0.99811786
0.9941738 1.0003651 0.9934029 0.9995154 0.99822766 0.9990009 0.99803746 0.99809384

bias f4 [128]
00000000: bcf1 17ba 0c05 fab9 deb3 a8b9 29dd 21b9
00000010: 829d cbb9 0c89 18bb 9534 ae3a 7714 65b9
00000020: 6a12 04b9 9ee5 86ba c19e a939 ea0b a239
00000030: d013 6338 284d b0ba 277c 3d39 f40a e9b8
00000040: 0ff9 b3b9 07c9 4939 48e6 96b9 2d32 04ba
00000050: af7a 6bb9 c005 adba e015 c238 5b75 baba
00000060: bc20 87b8 2e5d 1eb9 844b e039 60b0 5139
00000070: 5030 13ba 7b11 42b9 5516 6f39 5b07 1b3a
00000080: f062 6839 d49e bd38 9d0e 4439 97b5 3139
00000090: 4050 3239 49e8 46b9 81de 3d39 d81f 1339
000000a0: 9892 e5b9 18d3 1e39 f006 9cb9 f0a2 0bb8
000000b0: 0810 c5b9 4091 5db9 bcc0 cb3b 9383 3eb9
000000c0: e07c 9d39 64cb edb8 e638 9639 74c8 a8b9
000000d0: d643 a239 1067 9139 6e15 a2b9 e4ad 2d38
000000e0: 7a5a fb39 d87c 26b9 e208 4f39 ef39 ef39
000000f0: e1d4 35b9 6d38 97b9 b009 72b8 0696 25b9
00000100: d2ee 433a abb4 2939 62c6 2cba 4864 3639
00000110: 92f7 8ab9 ebc0 e7b9 c2d4 b639 a388 83b9
00000120: 0ca3 49b9 c9d9 63b9 dcc6 9b39 740c eab8
00000130: 3e80 efb8 1853 63b9 5e49 bab9 3ced 0aba
00000140: 0a0b 913a f2a8 d439 dc7c ae39 d6cc a539
00000150: 4ed7 b0b9 864b 9b39 bece 8039 2a22 afb9
00000160: 10e6 abb9 4039 5939 4258 cdb9 723b ba39
00000170: 1ab5 a738 e337 2c3a 00a5 4139 aec9 6539
00000180: 8c5f a23a 6a6c ddb9 8b02 8839 6c04 ff39
00000190: f305 013a fdea cd39 0c84 09ba 28ba ae39
000001a0: de91 b7b9 0d95 6bb9 368f 8338 0590 323a
000001b0: ce23 88b9 e234 003a 370c 1cb9 ca43 aab9
000001c0: 4a81 45bc f66d 67b9 4d88 473a 1e08 aab9
000001d0: 3455 b2b9 02d6 d2b9 fa21 08ba 87b5 1bb9
000001e0: ff54 c03b 653b ed39 60c9 d2b9 5ebd b039
000001f0: 323b c938 d855 4939 9c33 b9b8 f35c 1f39
-0.0005796214 -0.00047687476 -0.00032177469 -0.00015436545 -0.0003883653 -0.0023275046 0.0013290817 -0.00021846766
-0.00012595361 -0.001029182 0.00032352473 0.00030907925 5.413947e-05 -0.0013450729 0.00018070695 -0.00011112346
-0.00034327104 0.00019243742 -0.00028781802 -0.0005042877 -0.0002245705 -0.0013200566 9.2547154e-05 -0.0014225648
-6.443399e-05 -0.00015102766 0.00042780873 0.00019997498 -0.0005614804 -0.00018507794 0.00022801135 0.0005913877
0.00022162101 9.041806e-05 0.0001869746 0.00016947683 0.00017005298 -0.00018969284 0.00018107334 0.00014030875
-0.00043787505 0.00015146693 -0.00029759808 -3.329193e-05 -0.00037586712 -0.00021130312 0.006218044 -0.00018168827
0.00030038413 -0.00011338925 0.00028652622 -0.00032192806 0.0003094959 0.00027733343 -0.00030915014 4.1408362e-05
0.0004794186 -0.00015877502 0.00019744367 0.00045628796 -0.00017340809 -0.00028843005 -5.770632e-05 -0.00015791514
0.00074742467 0.000161844 -0.00065908406 0.0001739423 -0.00026505865 -0.00044203489 0.00034872262 -0.0002508807
-0.00019229593 -0.00021729538 0.00029712066 -0.00011160309 -0.00011420295 -0.00021679362 -0.00035531347 -0.0005299633
0.0011065912 0.00040561665 0.00033280894 0.00031623867 -0.0003372975 0.00029620173 0.00024568097 -0.00033404055
-0.00032787072 0.0002071606 -0.00039166404 0.00035520975 7.996913e-05 0.0006569607 0.00018467382 0.00021914273
0.0012388094 -0.0004223318 0.00025941836 0.00048640685 0.0004921846 0.00039275727 -0.0005245812 0.00033326563
-0.0003501316 -0.00022466872 6.273242e-05 0.0006811622 -0.00025966618 0.00048906927 -0.0001488187 -0.00032475434
-0.012054751 -0.0002207084 0.0007611558 -0.00032430975 -0.00034014287 -0.0004021377 -0.0005193051 -0.00014849576
0.0058695073 0.00045248415 -0.00040204357 0.00033710425 9.595453e-05 0.00019200833 -8.8311004e-05 0.00015198048
