Single Battery Model/6. LSTM Models/model_B0005_discharge_std.pth (torch, 334424 bytes, 7 tensors)

weight_ih_l0 f4 [512, 30]
0.064483695 -0.04904371 0.037034612 0.0677253 -0.066744514 0.02787554 0.029176226 0.07865982
0.030943569 -0.023965867 0.020595964 -0.053450823 -0.014361067 -0.047791388 -0.0077685495 -0.057891667
0.0017023422 -0.010394022 -0.0049270336 -0.054120325 0.0628633 0.024038052 0.04886113 0.08322022
0.03606884 -0.020920312 -0.072756775 0.049488906 -0.024432566 -0.048147574 0.027755775 0.08019465
0.009070996 -0.060777746 -0.07211778 0.08630346 0.0048021595 0.04363137 -0.048240807 0.035990242
-0.021747703 0.04988174 0.01170591 -0.050519213 -0.06827664 0.04539488 0.07068622 -0.01683784
-0.0006857525 0.040155962 0.07098465 -0.022894876 -0.03870811 -0.02750404 -0.0020643554 0.049401414
-0.04695251 -0.074940555 0.086035915 -0.05174143 -0.051727895 -0.021675056 -0.06844939 0.06574011
0.03208199 0.08223341 -0.06955019 0.060662124 -0.07583763 0.077480204 -0.049807288 0.056841902
0.038557313 0.034061432 -0.040757373 -0.075612314 -0.060187005 -0.0122678755 0.06330105 0.049830023
0.033967223 -0.046108086 -0.0678554 -0.05621132 0.025729353 -0.078020304 -0.044415355 -0.024982568
0.021682538 0.044884015 -0.039557997 -0.046949748 0.021049967 -0.012144038 -0.04750421 0.022688223
-0.08306295 0.004581853 -0.09122027 -0.05153077 -0.071794346 0.016102439 0.027422408 0.00078300136
0.048020493 0.11197289 -0.03608342 -0.007546682 0.08248138 0.004218738 -0.08245274 0.08448138
0.08149248 0.037311397 0.020674067 0.051637568 -0.033467278 -0.08876794 0.02714844 -0.084275015
0.06125899 -0.01932838 -0.04368225 -0.0966825 -0.03531558 0.05865439 0.030170672 0.078624226
0.055742186 -0.05122145 -0.08193939 0.0711907 0.02694051 0.039873824 -0.011745682 -0.023317976
-0.007869499 -0.029778307 0.0253517 0.02093895 -0.055957545 -0.012783193 -0.06573943 0.048120935
0.030372648 0.04522068 0.08316152 -0.026323076 0.0020902425 -0.031681497 -0.056183495 0.019369965
0.05581485 -0.066371 -0.01296602 -0.012615222 -0.045731544 -0.0007432265 -0.02325287 0.055901993
0.0885198 -0.08463146 0.0012869522 0.017207883 0.029940225 0.06151028 -0.061663624 -0.0069117593
-0.0018219695 -0.018614357 -0.06365447 0.026861897 -0.014828103 -0.013462618 -0.06834216 0.042206377
-0.0398874 0.05270851 -0.0032800382 -0.023786873 -0.01696871 0.0602619 0.011871738 0.0415628
0.045189586 0.073016055 0.06990533 -0.06447531 0.012648166 0.057478603 -0.05355639 -0.0048138574
0.044996295 0.06984626 0.0703819 0.036571603 -0.011404678 0.035458274 -0.080588296 0.001363533
-0.06423572 -0.06250096 0.042888798 0.053615715 0.082610026 0.06048066 0.07417853 -0.0685794
-0.0715165 -0.03796531 0.009588855 0.032669853 0.06632655 -0.058373835 0.038416784 -0.0050431574
-0.005875312 0.0049271183 -0.0014455147 0.05054439 -0.023629328 -0.01669491 -0.06808148 -0.02600423
0.04872173 0.02867714 0.03806561 0.027438035 0.08427436 -0.062588505 -0.0466137 0.08306954
0.034647122 -0.055259213 -0.0039738724 -0.021433687 0.05884525 -0.049974773 -0.043250456 -0.037598066
-0.072810635 0.005267478 0.0038820433 -0.07271002 0.0063152486 0.08116846 -0.0655587 0.093013905
-0.00631285 -0.026733015 -0.035347182 -0.07015301 0.05104622 0.06203943 0.08531183 -0.07861034
00000000: 0710 843d 0fe2 48bd 9bb1 173d 90b3 8a3d
00000010: 59b1 88bd 3f5b e43c fb02 ef3c 6618 a13d
00000020: 5e7d fd3c 1154 c4bc deb8 a83c 40ef 5abd
00000030: ae4a 6bbc e7c0 43bd 518f febb d01f 6dbd
00000040: 2021 df3a b04b 2abc f472 a1bb 46ad 5dbd
00000050: 79be 803d 73eb c43c 9c22 483d 5d6f aa3d
00000060: ecbc 133d 1361 abbc 8101 95bd e1b4 4a3d
00000070: ce26 c8bc 6436 45bd 1460 e33c 183d a43d
00000080: 849e 143c 16f2 78bd 7db2 93bd debf b03d
00000090: 6f5b 9d3b cfb6 323d 2798 45bd 816a 133d
000000a0: 3d28 b2bc cc50 4c3d 25ca 3f3c 3ced 4ebd
000000b0: 9fd4 8bbd fbef 393d f0c3 903d 83ef 89bc
000000c0: 12c4 33ba 947a 243d 6660 913d 098e bbbc
000000d0: 658c 1ebd 2750 e1bc 234a 07bb 2359 4a3d
000000e0: 4651 40bd 6f7a 99bd 9933 b03d d2ee 53bd
000000f0: a1e0 53bd e38f b1bc 322f 8cbd c0a2 863d
00000100: 6868 033d fd69 a83d 5470 8ebd d978 783d
00000110: c250 9bbd f1ad 9e3d ba02 4cbd 0ed3 683d
00000120: 46ee 1d3d 0084 0b3d 34f1 26bd a1da 9abd
00000130: a686 76bd 33ff 48bc fba3 813d 911a 4c3d
00000140: 3721 0b3d d5db 3cbd c6f7 8abd d73d 66bd
00000150: 5dc6 d23c 1cc9 9fbd e0ec 35bd 3ea8 ccbc
00000160: 949f b13c 4dd8 373d 9107 22bd 614e 40bd
00000170: fb70 ac3c caf7 46bc c693 42bd a7dc b93c
00000180: e81c aabd 5e23 963b b1d1 babd ee11 53bd
00000190: ea08 93bd 43e9 833c f5a4 e03c 5542 4d3a
000001a0: 23b1 443d 0b52 e53d 35cc 13bd 284a f7bb
000001b0: ffeb a83d 573d 8a3b fbdc a8bd 9304 ad3d
000001c0: 88e5 a63d d6d3 183d a95c a93c ea81 533d
000001d0: fc14 09bd f7cb b5bd 6866 de3c 6198 acbd
000001e0: b5ea 7a3d 8d56 9ebc 29ec 32bd 7901 c6bd
000001f0: 12a7 10bd 963f 703d 7c28 f73c bd05 a13d
00000200: eb51 643d 95cd 51bd d7cf a7bd 6ecc 913d
00000210: 58b2 dc3c bc52 233d f670 40bc 5705 bfbc
00000220: 12ef 00bc a3f1 f3bc 5eae cf3c 2988 ab3c
00000230: bd33 65bd 9970 51bc 65a2 86bd 751a 453d
00000240: 0fd0 f83c 5239 393d 9650 aa3d 7ea3 d7bc
00000250: 73fc 083b 75c4 01bd aa20 66bd c3ad 9e3c
00000260: 1d9e 643d 85ed 87bd 6e6f 54bc 13b0 4ebc
00000270: 0051 3bbd 16d5 42ba ce7c bebc 7df9 643d
00000280: de49 b53d 4253 adbd f3ae a83a 8cf7 8c3c
00000290: 3445 f53c 34f2 7b3d ff92 7cbd 0a7c e2bb
000002a0: 27cf eeba 237d 98bc 465d 82bd 7b0d dc3c
000002b0: 92f1 72bc 5092 5cbc f9f6 8bbd 98e0 2c3d
000002c0: f860 23bd e1e4 573d e9f5 56bb b0dc c2bc
000002d0: f701 8bbc 2fd5 763d ae81 423c c13d 2a3d
000002e0: b718 393d 7189 953d 872a 8f3d a20b 84bd
000002f0: 413a 4f3c af6e 6b3d f25d 5bbd 90bd 9dbb
00000300: 094e 383d 8e0b 8f3d 6324 903d 1bcc 153d
00000310: b0da 3abc b23c 113d 7a0b a5bd 93b8 b23a
00000320: 048e 83bd 8100 80bd 2aac 2f3d 279c 5b3d
00000330: 722f a93d 92ba 773d eaea 973d 5b73 8cbd
00000340: 3e77 92bd 8381 1bbd 931a 1d3c d3d0 053d
00000350: 37d6 873d 6719 6fbd eb5a 1d3d 1241 a5bb
00000360: b085 c0bb aa73 a13b 6d77 bdba a207 4f3d
00000370: 4b92 c1bc c4c3 88bc 4e6e 8bbd d306 d5bc
00000380: 7090 473d 52ec ea3c afea 1b3d bbc5 e03c
00000390: 0998 ac3d 672e 80bd 02ee 3ebd 5d20 aa3d
000003a0: 24ea 0d3d 7c57 62bd 4237 82bb b395 afbc
000003b0: b807 713d 59b2 4cbd 6427 31bd 6e00 1abd
000003c0: be1d 95bd cf9a ac3b e169 7e3b fee8 94bd
000003d0: 25f0 ce3b a63b a63d a443 86bd 137e be3d
000003e0: 06dc cebb 32ff dabc 35c8 10bd 62ac 8fbd
000003f0: d715 513d 0f1d 7e3d f8b7 ae3d 75fe a0bd

weight_hh_l0 f4 [512, 128]
0.015471844 -0.02361206 -0.06352365 -0.06844972 -0.061614264 -0.080486454 -0.030171953 0.02420338
0.08929903 0.03395701 0.06258535 0.017856067 0.024163261 -0.047805935 -0.081476554 -0.06831789
0.040294014 0.039817214 0.014791963 -0.040604163 0.0300069 -0.089639716 0.06949148 0.0660789
-0.092728235 -0.08896276 0.06634436 0.049580358 -0.041240573 0.0045073954 -0.04980366 -0.04866035
-0.08360354 0.04702677 -0.024935313 -0.02483608 -0.06688776 0.056527283 0.080901824 -0.07785014
0.08194835 -0.074955165 0.07602122 -0.07868982 0.01140201 0.073726565 -0.065729074 0.038633715
-0.042663973 -0.06881339 0.022807645 -0.05976611 0.0884822 0.04000298 -0.040568378 -0.025292283
-0.0013998983 -0.058205023 -0.010450049 -0.026034774 -0.06072109 0.02087249 0.0852864 -0.07113979
-0.020777151 0.053640652 -0.058406528 -0.06873826 -0.0010913475 0.074718185 -0.05427901 -0.04858556
-0.020669248 0.054721165 -0.07697744 0.012119335 -0.091303274 0.066233054 -0.059742816 -0.07099384
0.046559606 -0.027980642 0.027372412 0.029355856 0.060631257 0.059779238 -0.08874812 -0.038656995
-0.02197865 0.037475523 -0.006627842 -0.087750696 0.01642272 0.02030402 0.03150433 0.017963598
-0.06839832 -0.022483684 -0.032834746 -0.059956443 0.03969599 -0.056065593 -0.018386053 -0.03276571
-0.067123845 0.025902703 -0.04075181 0.015548664 0.020599175 0.07184461 -0.055846415 0.08086223
4.1656436e-05 0.07498023 -0.028563572 -0.0042580124 -0.023061065 -0.03123374 -0.04491889 -0.036199123
-0.04298777 0.019158054 0.047635254 0.006153335 -0.041825976 0.043282926 -0.031955466 0.052941278
-0.037233476 0.027717916 0.017424688 0.11607032 0.061948013 -0.10511522 0.0033910773 -0.047177516
-0.032823045 -0.04420138 0.008533393 0.053354606 0.034733735 -0.06204723 0.068980455 0.06780489
0.004937435 -0.007968497 0.048989415 -0.08104312 0.047873184 0.014135886 -0.0002037527 -0.092609026
-0.06020706 -0.028742585 0.07359263 0.084695004 -0.079668924 -0.0086200945 0.01012138 -0.084110744
-0.011956299 -0.054101832 0.05676768 0.061097812 0.038612153 0.033385243 -0.020231161 0.05585897
-0.07162629 -0.041811053 0.016792316 0.051730458 0.08117871 -0.10374792 0.034414176 0.11718168
0.066402726 0.057524983 -0.06339604 -0.046118304 0.0050621103 0.075041525 0.015763931 -0.05075868
-0.06605285 0.030402437 0.01907149 0.062193908 -0.09026497 -0.018763652 -0.060985688 0.038583115
-0.04456293 -0.036517806 0.053832322 0.07921763 0.05640903 -0.06700002 0.02005217 0.036361735
0.041676644 -0.016143382 -0.09381418 -0.050108254 0.022543667 -0.06448416 0.05729336 0.038972255
-0.07470565 -0.023370514 -0.024198202 0.01734866 0.043122515 -0.07000137 0.025492737 -0.0006039378
0.06544618 -0.09055225 -0.0065583196 0.04491072 0.08934422 -0.038148783 0.00601557 -0.03891993
0.019873293 -0.060898498 0.070345014 0.030339472 0.08074204 0.04290807 -0.03763843 0.09790976
0.05596514 -0.06173377 0.07892129 -0.045557402 -0.08433218 -0.07667799 -0.018324334 -0.0069353674
0.0060897153 -0.053409822 0.029659808 -0.024608498 0.06794192 -0.01576541 0.013342697 0.08195588
-0.049119763 0.03168283 -0.07709443 -0.052046653 -0.0820136 -0.07251017 -0.0019061635 0.0012220741
00000000: 9e7d 7d3c 146e c1bc b018 82bd 5e2f 8cbd
00000010: 3d5f 7cbd 15d6 a4bd 2c2b f7bc 2b46 c63c
00000020: 69e2 b63d 8116 0b3d bf2c 803d e346 923c
00000030: 08f2 c53c 28d0 43bd 2edd a6bd 40ea 8bbd
00000040: 560b 253d 6017 233d fd59 723c 8d50 26bd
00000050: 08d1 f53c 0795 b7bd 8d51 8e3d 6054 873d
00000060: 4de8 bdbd 1c32 b6bd 8ddf 873d c614 4b3d
00000070: e0eb 28bd c6b2 933b ecfe 4bbd 1350 47bd
00000080: 5538 abbd 249f 403d 2445 ccbc 0975 cbbc
00000090: 73fc 88bd 2789 673d dbaf a53d e56f 9fbd
000000a0: 89d4 a73d 1882 99bd 03b1 9b3d 2128 a1bd
000000b0: 7fcf 3a3c f4fd 963d f79c 86bd 633e 1e3d
000000c0: 6bc0 2ebd 09ee 8cbd 19d7 ba3c 4fcd 74bd
000000d0: 2836 b53d 2ada 233d 072b 26bd c331 cfbc
000000e0: cb7c b7ba 6468 6ebd af36 2bbc e146 d5bc
000000f0: adb6 78bd c9fc aa3c a3aa ae3d bdb1 91bd
00000100: d834 aabc 4db6 5b3d af3b 6fbd a5c6 8cbd
00000110: 8c0b 8fba d905 993d ab53 5ebd a701 47bd
00000120: 8e52 a9bc 4d23 603d 59a6 9dbd 2d90 463c
00000130: 36fd babd 32a5 873d e2b4 74bd 3865 91bd
00000140: 49b5 3e3d a937 e5bc 1c3c e03c b17b f03c
00000150: 7b58 783d 13db 743d 93c1 b5bd cc56 1ebd
00000160: 920c b4bc ef7f 193d 5e2e d9bb a3b6 b3bd
00000170: f188 863c 9e54 a63c af0a 013d 6528 933c
00000180: 6b14 8cbd b42f b8bc ba7d 06bd e394 75bd
00000190: 4398 223d 09a5 65bd 599e 96bc 5635 06bd
000001a0: 3a78 89bd e831 d43c 5feb 26bd d3bf 7e3c
000001b0: 9abf a83c 4423 933d 36bf 64bd 199b a53d
000001c0: 42b8 2e38 3c8f 993d 27fe e9bc cc86 8bbb
000001d0: 8fea bcbc e6dd ffbc dffc 37bd 8845 14bd
000001e0: f213 30bd 5af1 9c3c 2f1d 433d eaa1 c93b
000001f0: b751 2bbd 7049 313d bce3 02bd f4d8 583d
00000200: 2182 18bd af10 e33c 38be 8e3c 47b6 ed3d
00000210: 33bd 7d3d a646 d7bd d63c 5e3b 363d 41bd
00000220: 7571 06bd 820c 35bd a5cf 0b3c 5c8a 5a3d
00000230: f644 0e3d 3c25 7ebd a045 8d3d 4add 8a3d
00000240: 35ca a13b 4d8e 02bc 20a9 483d eff9 a5bd
00000250: ac16 443d 349a 673c 73a6 55b9 cda9 bdbd
00000260: ae9b 76bd 9275 ebbc bcb7 963d 9374 ad3d
00000270: 7629 a3bd 4c3b 0dbc 25d4 253c 4142 acbd
00000280: 5ae4 43bc e299 5dbd 3a85 683d b341 7a3d
00000290: c727 1e3d f7be 083d d2bb a5bc 60cc 643d
000002a0: ceb0 92bd 1142 2bbd 0a90 893c 51e3 533d
000002b0: 0641 a63d ca79 d4bd e1f5 0c3d f3fc ef3d
000002c0: 27fe 873d 519f 6b3d c8d5 81bd 8ce6 3cbd
000002d0: 0fe0 a53b 5faf 993d 5c23 813c 55e8 4fbd
000002e0: b746 87bd 880e f93c d03b 9c3c 0abf 7e3d
000002f0: d7dc b8bd 3bb6 99bc 21cc 79bd 5409 1e3d
00000300: 9e87 36bd b293 15bd 487f 5c3d da3c a23d
00000310: 280d 673d 4e37 89bd 7344 a43c 0bf0 143d
00000320: 21b5 2a3d 203f 84bc a621 c0bd 503e 4dbd
00000330: 7fad b83c 4510 84bd 71ac 6a3d 5fa1 1f3d
00000340: 47ff 98bd 8573 bfbc 4f3b c6bc c71e 8e3c
00000350: 3ca1 303d e15c 8fbd 25d6 d03c 9451 1eba
00000360: a608 863d 7573 b9bd 2ce7 d6bb 4ef4 373d
00000370: 1afa b63d e641 1cbd 421e c53b 816a 1fbd
00000380: 51cd a23c b470 79bd 0c11 903d 7c8a f83c
00000390: 155c a53d 5fc0 2f3d c12a 1abd ea84 c83d
000003a0: b43b 653d 8ddc 7cbd 7ca1 a13d 669a 3abd
000003b0: 5ab6 acbd 5a09 9dbd ea1c 96bc 1442 e3bb
000003c0: 3c8c c73b 42c4 5abd 20f9 f23c c397 c9bc
000003d0: 2225 8b3d 7626 81bc 549b 5a3c 7cd8 a73d
000003e0: ce31 49bd dbc5 013d afe3 9dbd df2e 55bd
000003f0: bff6 a7bd 3680 94bd 3cd8 f9ba 012e a03a

bias_ih_l0 f4 [512]
-0.07459671 -0.035834696 -0.062503085 0.042799324 -0.026974836 -0.008684439 -0.056286957 0.05394931
0.0005881835 -0.019989327 0.081229046 0.044180274 -0.07527454 -0.087122306 0.08217875 0.004191682
-0.035927974 -0.049660552 -0.025612738 -0.09329425 -0.026764004 0.049989995 -0.037428193 0.0653773
-0.039725155 -0.050405975 -0.078435294 0.002126984 -0.060835727 -0.06905127 0.060509037 0.063374795
0.010606092 0.017504796 0.048018713 -0.028770965 0.07828678 -0.03385017 -0.06498895 -0.06844108
-0.09326174 -0.032762025 0.010423313 0.06859947 -0.05953194 0.003951553 0.07334256 -0.037274215
0.08333246 0.07889348 -0.046620555 -0.08544213 0.018134939 -0.029299473 -0.07034707 -0.0385673
-0.022636812 -0.08149416 0.07578599 0.0032583312 -0.07703127 0.04930461 -0.08300744 -0.011637875
-0.06994183 -0.054171737 -0.053305868 -0.07783698 -0.08182675 -0.02169195 -0.0016801079 -0.05041237
-0.034075405 0.076844804 -0.044116225 0.07026649 0.013243869 0.031723488 0.07394867 -0.027769849
-0.08515616 -0.04418186 0.03519132 -0.040031705 0.059718423 -0.09210244 -0.06362542 0.0024827775
-0.059830897 0.00586598 0.11772861 -0.067891896 0.07873141 0.0202226 0.06714005 0.057827465
-0.048899174 -0.0003985923 0.08109806 0.04647506 0.04260312 -0.012435335 0.059946254 0.08269144
0.08171718 -0.053405214 -0.067939505 -0.051354777 -0.07255591 -0.08941239 -0.024102738 -0.07473085
0.08305362 -0.062225323 0.029213317 -0.021221964 -0.06452164 -0.09477372 -0.06706283 -0.026156161
-0.06868699 -0.08721974 0.07216325 -0.038587734 -0.050424863 0.021677302 -0.06851109 -0.020912662
0.078483194 0.025261652 -0.040351372 -0.06144869 -0.0044143344 0.03181907 -0.01457722 0.053809933
0.03587384 0.0006589948 0.044544708 -0.063576214 -0.054534018 -0.051370513 -0.049529467 -0.012102414
-0.023253394 -0.05726954 0.05974252 -0.04190451 0.020052863 0.08340072 -0.012386757 0.065641
-0.039518345 0.032062236 -0.049241245 0.06878917 -0.01415135 -0.049720187 0.06881923 -0.08429247
0.0008539942 -0.027897488 -0.07578667 -0.053422533 0.028399197 -0.021868793 -0.007058584 -0.08003585
-0.064544216 0.018178575 0.035579406 0.04388625 0.073253565 0.0698912 0.06475988 -0.06893417
-0.033734776 0.036263324 0.030417236 0.038946215 -0.08828966 0.01803932 -0.058969524 0.0704615
-0.06758531 -0.0045612073 0.061958075 0.06192847 -0.08978815 -0.03211975 -0.0905933 -0.0024095997
-0.06829692 -0.0036331941 0.015008174 0.00036585127 0.04583995 0.032206208 -0.06437763 0.045434088
-0.07468545 0.016096907 -0.07762825 0.048438508 0.0017225314 0.006091455 0.0769877 -0.032948833
0.03782858 -0.07645926 0.0033868721 -0.058475446 0.015110222 -0.059205066 -0.084481955 0.07774683
0.043264292 -0.028493492 -0.018970594 -0.024270477 0.0049881544 0.040996302 -0.046909213 -0.057809535
0.058951955 -0.0015995622 -0.040771447 -0.02479232 -0.02271426 0.05006121 0.05894511 0.08088152
-0.056830823 0.04549456 -0.06945085 -0.026408847 -0.046719294 0.022895925 0.060987607 0.083560064
0.08251711 0.081460506 0.067062564 -0.007140219 0.007628459 -0.019184038 -0.015799472 -0.032903325
-0.071638756 0.06306777 0.051838335 0.059281815 -0.028374935 0.05941297 0.044770617 -0.059317138
00000000: 29c6 98bd 67c7 12bd 9e01 80bd 584e 2f3d
00000010: 55fa dcbc 2d49 0ebc 278d 66bd f4f9 5c3d
00000020: 5430 1a3a a8c0 a3bc 6a5b a63d 60f6 343d
00000030: 8a29 9abd 2e6d b2bd 554d a83d 615a 893b
00000040: 3629 13bd dd68 4bbd ced1 d1bc 0e11 bfbd
00000050: 2f40 dbbc 4fc2 4c3d 4e4e 19bd 89e4 853d
00000060: d8b6 22bd 7f76 4ebd afa2 a0bd df64 0b3b
00000070: e22e 79bd c16a 8dbd 53d8 773d a5ca 813d
00000080: 2dc5 2d3c 3866 8f3c 45af 443d 16b1 ebbc
00000090: d254 a03d 7aa6 0abd ed18 85bd d62a 8cbd
000000a0: 0300 bfbd 7931 06bd 8bc6 2a3c e17d 8c3d
000000b0: c3d7 73bd 077c 813b a034 963d d9ac 18bd
000000c0: 35aa aa3d e892 a13d 32f5 3ebd 49fc aebd
000000d0: b98f 943c 7305 f0bc 2012 90bd bff8 1dbd
000000e0: d670 b9bc 69e6 a6bd af35 9b3d ba89 553b
000000f0: 92c2 9dbd a1f3 493d ceff a9bd c9ac 3ebc
00000100: aa3d 8fbd 2fe3 5dbd 4157 5abd ff68 9fbd
00000110: c894 a7bd 51b3 b1bc 1137 dcba 347d 4ebd
00000120: a792 0bbd cf60 9d3d 37b3 34bd e1e7 8f3d
00000130: d0fc 583c 7df0 013d 6672 973d 987d e3bc
00000140: 5a66 aebd 0af8 34bd c624 103d 49f8 23bd
00000150: 4e9b 743d 34a0 bcbd 0b4e 82bd 18b6 223b
00000160: 3e11 75bd 6837 c03b b31b f13d e80a 8bbd
00000170: ef3d a13d dea9 a53c b980 893d 7edc 6c3d
00000180: 804a 48bd 27fa d0b9 bd16 a63d a25c 3e3d
00000190: 9c80 2e3d 93bd 4bbc 348a 753d 215a a93d
000001a0: 565b a73d 6dbf 5abd de23 8bbd 6359 52bd
000001b0: 3198 94bd d81d b7bd 1b73 c5bc 7d0c 99bd
000001c0: 0418 aa3d fbdf 7ebd c450 ef3c afd9 adbc
000001d0: ec23 84bd b918 c2bd 3d58 89bd 7245 d6bc
000001e0: c4ab 8cbd 43a0 b2bd 53ca 933d 2c0e 1ebd
000001f0: 4d8a 4ebd 9994 b13c 8b4f 8cbd 0851 abbc
00000200: ccbb a03d 86f1 ce3c 7b47 25bd 9fb1 7bbd
00000210: 1fa6 90bb b754 023d 4bd5 6ebc ce67 5c3d
00000220: 73f0 123d 64c0 2c3a 8374 363d 3f34 82bd
00000230: 105f 5fbd e369 52bd 69df 4abd 3449 46bc
00000240: e77d bebc 7793 6abd 93b4 743d 10a4 2bbd
00000250: e745 a43c ffcd aa3d d3f1 4abc ca6e 863d
00000260: fddd 21bd b153 033d 30b1 49bd 56e1 8c3d
00000270: 10db 67bc 65a7 4bbd 19f1 8c3d 88a1 acbd
00000280: 95de 5f3a 4689 e4bc 0b36 9bbd 96d1 5abd
00000290: 6fa5 e83c 2f26 b3bc b24b e7bb d6e9 a3bd
000002a0: c22f 84bd 3ceb 943c b6bb 113d 12c2 333d
000002b0: f705 963d 1e23 8f3d d4a0 843d 5c2d 8dbd
000002c0: 7a2d 0abd da88 143d 912d f93c 1186 1f3d
000002d0: 36d1 b4bd 32c7 933c 078a 71bd 1e4e 903d
000002e0: 2b6a 8abd 2e76 95bb c0c7 7d3d b5a8 7d3d
000002f0: d9e2 b7bd 0090 03bd fb88 b9bd 60ea 1dbb
00000300: 41df 8bbd e21a 6ebb d8e4 753c bacf bf39
00000310: acc2 3b3d a8ea 033d 6bd8 83bd 1819 3a3d
00000320: aff4 98bd a9dd 833c 8ffb 9ebd 7567 463d
00000330: 90c6 e13a d49a c73b baab 9d3d 5bf5 06bd
00000340: 24f2 1a3d ac96 9cbd 49f6 5d3b f383 6fbd
00000350: dd90 773c 0381 72bd e004 adbd bb39 9f3d
00000360: e635 313d 2f6b e9bc 3868 9bbc e1d2 c6bc
00000370: ac73 a33b bdeb 273d e023 40bd b1c9 6cbd
00000380: 9b77 713d 67a8 d1ba f6ff 26bd 4319 cbbc
00000390: 4113 babc fc0c 4d3d 6d70 713d 36a5 a53d
000003a0: 70c7 68bd 8158 3a3d 3f3c 8ebd 5e57 d8bc
000003b0: bb5c 3fbd 3c90 bb3c 24ce 793d 8a21 ab3d
000003c0: bbfe a83d c4d4 a63d 1958 893d 80f8 e9bb
000003d0: 27f8 f93b d827 9dbc e56d 81bc a3c5 06bd
000003e0: 57b7 92bd ad29 813d 6f54 543d 7dd1 723d
000003f0: 8d72 e8bc 045b 733d 6561 373d 87f6 72bd

bias_hh_l0 f4 [512]
-0.052713428 -0.017667709 0.014802205 0.089540415 -0.07690755 0.023029886 0.0777879 0.08550754
0.06396088 0.036865793 0.0781578 0.03139145 0.023105953 -0.050330397 -0.023751283 0.007423546
0.049995847 -0.019922465 0.009689759 0.05801656 -0.04293336 0.054705527 0.033434864 0.08989438
-0.0027628066 -0.05687465 0.0054236082 0.08613868 0.02656577 -0.05496016 -0.06952339 -0.042372573
-0.047738377 -0.058315765 0.028016543 0.060698103 -0.09341021 -0.07733923 0.03640872 -0.038596556
-0.02578448 0.0522285 -0.00074923044 -0.069799714 0.024297355 -0.08388962 -0.04382468 -0.031246822
-0.08877803 0.038920682 0.0605769 -0.07720006 -0.028980242 0.057105437 0.08922211 -0.040739443
-0.078200854 0.03560887 -0.04187534 0.01944822 -0.013625915 -0.10176978 -0.052282643 -0.01749936
-0.011667118 0.066636376 -0.010845148 0.056351453 -0.018494686 -0.07750589 0.055240538 -0.07787901
0.06194999 0.046534806 -0.05488458 0.04652076 0.031279977 0.057910778 -0.027978614 0.081220746
-0.040530898 0.002655368 0.043880418 0.08927474 -0.030825127 -0.023886666 0.034399804 -0.04225654
-0.008261061 -0.08329652 0.061280098 -0.09637407 -0.05983197 -0.0761626 0.06281886 0.027389275
-0.060526647 -0.015822016 -0.02346622 0.047440946 0.08057226 -0.013284336 -0.00055481045 -0.05311939
0.035913333 -0.08559743 0.008431476 0.022143256 -0.032494657 0.035425775 0.011367259 0.035767585
-0.032803137 -0.06435298 0.052749295 0.048493844 0.043898795 0.06700601 0.0061258003 0.04405499
-0.08910127 -0.00031317078 -0.03336794 0.019955138 -0.08756307 -0.08477392 0.077392496 0.06428986
-0.008764932 0.075462826 -0.06874303 0.021984916 0.019275015 0.06922865 -0.08699995 0.0940062
-0.015376624 -0.032759745 -0.0034114164 0.017419623 0.040112726 -0.08444126 -0.052119303 -0.013512385
0.07245627 -0.09223186 0.014462895 0.08046102 -0.07342234 -0.043034885 -0.05290177 -0.020141669
-0.022764795 0.07465228 0.013369953 0.056655988 0.017395027 0.028797552 0.052069344 -0.08763628
0.020320918 -0.050630715 -0.04764822 -0.056266673 -0.054385617 0.005918405 -0.07203292 -0.00085134734
-0.06852079 -0.07969352 0.020986436 -0.038418435 -0.027406981 0.059917573 -0.00978284 0.03323803
-0.004247667 0.04575657 0.06678515 -0.077253185 -0.06872034 -0.06454978 -0.06090354 0.00014429977
0.01865046 0.010091856 0.02362166 0.067453705 0.0064095063 -0.0829113 -0.023274112 -0.018521188
-0.06915537 0.025824767 -0.056257732 0.013922637 0.010625502 0.040923953 0.05681148 -0.05862304
-0.053830247 0.050467517 -0.02429062 -0.05695603 0.04335025 -0.038900834 -0.04800666 -0.05888391
-0.0512278 0.021744475 -0.07334155 0.072850764 0.030906271 -0.08155572 0.034143113 0.010246704
-0.018419042 -0.024207098 0.093433775 -0.008073666 0.028535666 -0.08896897 0.045348216 0.027363135
0.0339364 -0.0035340828 0.039551854 0.050273295 0.07203745 0.022712445 0.07467132 0.034683213
0.06071934 -0.006099977 0.05511356 -0.029611077 -0.011513843 -0.0063871723 -0.05944139 -0.04568162
-0.015559969 0.073402196 0.00085185096 -0.07926493 0.018593479 -0.031088354 -0.021870451 -0.03562206
0.0453045 0.083560124 -0.086786315 -0.008630039 -0.005735051 -0.04116595 0.04142331 -0.007603779
00000000: 09ea 57bd dfbb 90bc f384 723c f760 b73d
00000010: b581 9dbd 2ca9 bc3c 434f 9f3d 941e af3d
00000020: ecfd 823d 9600 173d 3211 a03d 5294 003d
00000030: b248 bd3c 3f27 4ebd 0d92 c2bc 3841 f33b
00000040: 72c8 4c3d 7034 a3bc ccc1 1e3c c6a2 6d3d
00000050: e4da 2fbd e712 603d fff2 083d 8b1a b83d
00000060: 3410 35bb 65f5 68bd 86b8 b13b 7a69 b03d
00000070: 75a0 d93c e81d 61bd 4762 8ebd dd8e 2dbd
00000080: 5189 43bd 83dc 6ebd f382 e53c 939e 783d
00000090: da4d bfbd 0864 9ebd 4f21 153d 6c17 1ebd
000000a0: f939 d3bc 8ded 553d 0168 44ba 27f3 8ebd
000000b0: 3f0b c73c 52ce abbd 8281 33bd 56f9 ffbc
000000c0: 41d1 b5bd 4b6b 1f3d 7c1f 783d 111b 9ebd
000000d0: f967 edbc 64e7 693d 15ba b63d 67de 26bd
000000e0: c527 a0bd 9bda 113d 7a85 2bbd e051 9f3c
000000f0: 3b3f 5fbc ad6c d0bd 5326 56bd d15a 8fbc
00000100: 7127 3fbc a778 883d d9af 31bc c8d0 663d
00000110: 2b82 97bc 68bb 9ebd e743 623d 087f 9fbd
00000120: 46bf 7d3d 489b 3e3d a7ce 60bd 8d8c 3e3d
00000130: 6f1f 003d da33 6d3d 6833 e5bc 1057 a63d
00000140: ba03 26bd af05 2e3b f4bb 333d add5 b63d
00000150: fa84 fcbc f8ad c3bc cfe6 0c3d 3215 2dbd
00000160: 6759 07bc 5e97 aabd d700 7b3d c55f c5bd
00000170: 5e12 75bd 23fb 9bbd 2da7 803d 795f e03c
00000180: caea 77bd 2c9d 81bc 3b3c c0bc 7051 423d
00000190: 1203 a53d 8ba6 59bc b370 11ba b893 59bd
000001a0: dc19 133d b54d afbd 2c24 0a3c c665 b53c
000001b0: 1e19 05bd 9e1a 113d bd3d 3a3c 0881 123d
000001c0: 955c 06bd 7fcb 83bd a50f 583d 7ba1 463d
000001d0: 39cf 333d 723a 893d f0ba c83b 0173 343d
000001e0: ba7a b6bd 1231 a4b9 d2ac 08bd f578 a33c
000001f0: 4454 b3bd f39d adbd f57f 9e3d 67aa 833d
00000200: ca9a 0fbc 418c 9a3d 25c9 8cbd b619 b43c
00000210: a3e6 9d3c c0c7 8d3d 082d b2bd 5386 c03d
00000220: 3cee 7bbc 152f 06bd 1292 5fbb 99b3 8e3c
00000230: 3e4d 243d 8aef acbd 0d7b 55bd 0d63 5dbc
00000240: f463 943d 0fe4 bcbd c7f5 6c3c bfc8 a43d
00000250: 745e 96bd 5945 30bd 87af 58bd 2400 a5bc
00000260: 3c7d babc 4be3 983d a60d 5b3c 1c10 683d
00000270: 0480 8e3c d8e8 eb3c aa46 553d a67a b3bd
00000280: 0e78 a63c 2762 4fbd c82a 43bd e277 66bd
00000290: 74c3 5ebd 2eef c13b ff85 93bd f42c 5fba
000002a0: a154 8cbd 5b36 a3bd bfeb ab3c a65c 1dbd
000002b0: 9b84 e0bc 216c 753d 3448 20bc 9a24 083d
000002c0: 0330 8bbb 3e6b 3b3d a7c6 883d eb36 9ebd
000002d0: 40bd 8cbd ad32 84bd fe75 79bd 2d4f 1739
000002e0: d9c8 983c 5058 253c 3682 c13c 2b25 8a3d
000002f0: d606 d23b 66cd a9bd 5aa9 bebc bfb9 97bc
00000300: 55a1 8dbd 768e d33c 826e 66bd c61b 643c
00000310: 9616 2e3c e09f 273d 28b3 683d b61e 70bd
00000320: 1b7d 5cbd 07b7 4e3d 1ffd c6bc ba4a 69bd
00000330: 0890 313d 7b56 1fbd a2a2 44bd 4130 71bd
00000340: 3ed4 51bd 7821 b23c 1834 96bd c832 953d
00000350: 262f fd3c af06 a7bd a6d9 0b3d cbe1 273c
00000360: 88e3 96bc f74d c6bc 355a bf3d 6947 04bc
00000370: a1c3 e93c 5d35 b6bd 0dbf 393d a728 e03c
00000380: e500 0b3d 129c 67bb 2001 223d 5feb 4d3d
00000390: 5f88 933d 730f ba3c 47ed 983d fc0f 0e3d
000003a0: d8b4 783d 51e2 c7bb c2be 613d ee92 f2bc
000003b0: 8fa4 3cbc 7c4b d1bb d178 73bd a61c 3bbd
000003c0: 3def 7ebc e453 963d c04e 5f3a a755 a2bd
000003d0: 5a51 983c 01ad febc a929 b3bc 70e8 11bd
000003e0: 3691 393d 9221 ab3d 06bd b1bd 0265 0dbc
000003f0: 18ed bbbb a19d 28bd 7dab 293d 1f29 f9bb

weight f4 [1, 128]
-0.061302945 -0.009167438 0.0133484015 0.012228883 0.054180805 0.04702089 -0.056385092 -0.034228586
-0.007867306 0.062091596 -0.037331823 -0.018634 0.026679883 -0.05993518 0.072987296 -0.071665086
0.0058028363 0.02379641 0.016821736 0.05753542 -0.054174207 -0.036224425 0.03283299 -0.0883039
-0.005434177 -0.055903103 -0.025971098 -0.019212374 0.039955977 -0.031027237 0.04117262 -0.0013114315
-0.022497227 -0.0194619 0.044933785 0.041415356 0.04674737 0.071985126 -0.070451766 0.07618201
-0.04967599 0.051302813 0.076171115 -0.0745281 0.05475227 -0.03893193 -0.073260985 0.0066314572
-0.024026236 0.052992843 0.009093731 0.06446364 -0.08462964 0.028446833 -0.01577979 0.046347532
-0.081400394 -0.0023665081 -0.07514577 0.004057185 0.027325343 0.023641389 -0.07274403 -0.013036396
-0.07663058 0.033490032 -0.064461045 -0.029326936 -0.032229774 -0.04127119 -0.0731287 0.023964766
-0.010382567 -0.055329263 -0.06123967 0.084831364 -0.06526771 0.061644588 -0.029062726 0.044986196
-0.028201675 0.07931522 0.027575552 -0.03680296 -0.0451552 0.049149662 0.03756304 -0.019071495
-0.05656808 0.02692669 -0.0024784915 0.056330014 -0.081663676 -0.04591704 0.08614491 0.04941647
-0.046882905 0.038478274 0.07364359 -0.0010765239 -0.02337559 0.081791505 0.061038565 0.049607944
-0.03791807 0.022641558 -0.002375874 -0.03217088 -0.021760968 0.08436419 -0.048985206 -0.027299013
0.06476322 0.019092662 0.015593054 -0.0021406754 0.07102885 0.07023852 0.023599489 -0.028976066
-0.055655118 -0.0009788139 0.0619645 -0.06723306 0.07531306 0.062272444 0.032615732 0.046505604
00000000: cc18 7bbd 0633 16bc 41b3 5a3c a75b 483c
00000010: b1ec 5d3d fa98 403d 0ef4 66bd 4633 0cbd
00000020: dfe5 00bc c253 7e3d 41e9 18bd 55a6 98bc
00000030: c58f da3c 977e 75bd 5d7a 953d 25c5 92bd
00000040: b825 be3b b0f0 c23c bdcd 893c 43aa 6b3d
00000050: c6e5 5dbd 1060 14bd e37b 063d add8 b4bd
00000060: 2e11 b2bb a7fa 64bd 57c1 d4bc 4563 9dbc
00000070: e1a8 233d d52c febc 9fa4 283d 57e4 abba
00000080: 1b4c b8bc 906e 9fbc 7d0c 383d 26a3 293d
00000090: 2c7a 3f3d f06c 933d 0449 90bd 5005 9c3d
000000a0: 0d79 4bbd e622 523d 9aff 9b3d 30a2 98bd
000000b0: eb43 603d 1677 1fbd db09 96bd b24c d93b
000000c0: abd2 c4bc 060f 593d dffd 143c 8305 843d
000000d0: 4e52 adbd 5509 e93c 9e44 81bc e9d6 3d3d
000000e0: 40b5 a6bd 6b17 1bbb 07e6 99bd 22f2 843b
000000f0: 66d9 df3c 96ab c13c d2fa 94bd 9c96 55bc
00000100: 7ef0 9cbd d82c 093d 2704 84bd 0b3f f0bc
00000110: 5e03 04bd fb0b 29bd 80c4 95bd c251 c43c
00000120: a41b 2abc f0a0 62bd 73d6 7abd 11bc ad3d
00000130: 14ab 85bd 097f 7c3d f414 eebc 7243 383d
00000140: 3307 e7bc 0570 a23d 20e6 e13c b3be 16bd
00000150: a9f4 38bd 2851 493d b4db 193d d33b 9cbc
00000160: eeb3 67bd 5d95 dc3c 306e 22bb 4dba 663d
00000170: 493f a7bd 8213 3cbd be6c b03d ed68 4a3d
00000180: 4a08 40bd 659b 1d3d 73d2 963d 261a 8dba
00000190: 2a7e bfbc 4e82 a73d 9303 7a3d b331 4b3d
000001a0: fa4f 1bbd ca7a b93c 8db4 1bbb 9dc5 03bd
000001b0: 0f44 b2bc 22c7 ac3d b6a4 48bd 2ea2 dfbc
000001c0: 94a2 843d 3768 9c3c 027a 7f3c 934a 0cbb
000001d0: 9377 913d 37d9 8f3d b753 c13c 375f edbc
000001e0: 9ff6 63bd 8b4b 80ba 7dce 7d3d 7db1 89bd
000001f0: bc3d 9a3d 6411 7f3d 1398 053d a97c 3e3d

weight f4 [128]
0.9930164 0.9943594 0.99678975 1.003462 0.98908687 0.9948962 1.0008719 0.9993285
0.99789244 0.9978063 0.9999707 1.000481 1.0003347 0.9993909 0.9989163 0.98739254
0.998996 0.9854531 0.9925219 0.9976254 0.9941277 0.9953064 0.9899135 1.0042514
0.99499995 0.98824596 0.9953084 0.9943601 0.9959419 0.9863421 0.99878615 0.9851795
0.99382246 0.99192256 1.0008142 1.0007349 0.9915904 0.98772424 0.9953064 0.9944698
0.99328274 0.99847263 1.0005856 0.99621624 0.9972019 0.9975961 1.0033989 0.9913758
0.9947269 1.0014225 0.9965768 0.99707574 0.997208 0.9954637 0.9981918 0.9993452
0.9948104 0.9918571 0.9987236 0.9955789 0.99237514 0.9918295 0.9964887 1.0049921
0.99523085 0.998608 0.9995503 0.9923254 0.98925704 0.98983735 0.9905889 0.9979142
0.9865539 0.9977533 0.9974119 0.99871844 0.9866702 0.9914124 0.99283826 1.0021266
0.9913415 0.9980368 1.0003787 0.9966197 0.9970532 0.9918002 1.000808 0.9976778
1.0015028 0.9987487 0.97767425 0.99502283 0.99503523 0.98756224 1.0008985 0.99178874
1.0001235 0.99526614 0.9968213 0.99316454 0.99157804 0.9963114 0.9922805 0.9984411
0.9989167 1.0041128 0.9752844 1.0087394 1.0035524 0.9969347 0.99307024 0.99799615
1.0058461 0.99618727 0.9886321 0.9925677 0.99461657 0.9901142 0.9983646 1.0008047
0.9904609 0.9934404 0.99314696 0.9960101 0.99667466 0.9935157 0.9969008 1.01031
00000000: 5336 7e3f 568e 7e3f 9d2d 7f3f 7171 803f
00000010: cc34 7d3f 84b1 7e3f 921c 803f fed3 7f3f
00000020: e175 7f3f 3c70 7f3f 14fe 7f3f c30f 803f
00000030: f80a 803f 15d8 7f3f fbb8 7f3f c2c5 7c3f
00000040: 34be 7f3f a846 7c3f ea15 7e3f 6164 7f3f
00000050: 277f 7e3f 66cc 7e3f f96a 7d3f 4f8b 803f
00000060: 51b8 7e3f b0fd 7c3f 88cc 7e3f 628e 7e3f
00000070: 0cf6 7e3f ea80 7c3f 73b0 7f3f b934 7c3f
00000080: 266b 7e3f a3ee 7d3f ae1a 803f 1518 803f
00000090: ded8 7d3f 7fdb 7c3f 66cc 7e3f 9395 7e3f
000000a0: c747 7e3f e79b 7f3f 3013 803f 0708 7f3f
000000b0: a048 7f3f 7562 7f3f 606f 803f ceca 7d3f
000000c0: 6ca6 7e3f 9d2e 803f a81f 7f3f 5b40 7f3f
000000d0: 0649 7f3f b6d6 7e3f 7f89 7f3f 16d5 7f3f
000000e0: e5ab 7e3f 59ea 7d3f 5aac 7f3f 42de 7e3f
000000f0: 4c0c 7e3f 8ae8 7d3f e219 7f3f 95a3 803f
00000100: 73c7 7e3f c6a4 7f3f 87e2 7f3f 0a09 7e3f
00000110: f33f 7d3f fb65 7d3f 3c97 7d3f 4e77 7f3f
00000120: cc8e 7c3f c36c 7f3f 6356 7f3f 03ac 7f3f
00000130: 6b96 7c3f 34cd 7d3f a62a 7e3f af45 803f
00000140: 8ec8 7d3f 577f 7f3f 690c 803f 7822 7f3f
00000150: e13e 7f3f 9ee6 7d3f 7a1a 803f d067 7f3f
00000160: 3e31 803f ffad 7f3f dc48 7a3f d1b9 7e3f
00000170: a1ba 7e3f e1d0 7c3f 711d 803f dee5 7d3f
00000180: 0c04 803f c3c9 7e3f ae2f 7f3f 0840 7e3f
00000190: 0fd8 7d3f 440e 7f3f 1806 7e3f d699 7f3f
000001a0: 01b9 7f3f c586 803f 3dac 793f 5f1e 813f
000001b0: 6874 803f 1d37 7f3f da39 7e3f ad7c 7f3f
000001c0: 91bf 803f 2106 7f3f fe16 7d3f eb18 7e3f
000001d0: 319f 7e3f 2078 7d3f d394 7f3f 5e1a 803f
000001e0: d88e 7d3f 1c52 7e3f e13e 7e3f 85fa 7e3f
000001f0: 1226 7f3f 0b57 7e3f e434 7f3f d751 813f

bias f4 [128]
-0.00017931312 -0.0014034953 0.0011687549 0.00015207213 0.00032934835 0.00033798255 0.00026043798 0.00041974528
-0.0036731076 -9.506522e-05 0.00039201736 -0.0006440344 3.5711237e-05 0.0001980368 -0.000104155115 -0.00032952658
-0.002423854 0.00045011015 0.0006161317 0.0001744759 -0.00031031363 -0.0005127432 0.00021068526 0.0002484534
-0.0005175083 7.478907e-05 -9.886108e-05 -0.0009220372 -8.590469e-05 -0.00021715598 0.00032495477 -0.0009118208
-0.00069527654 -0.0006034168 -0.000390735 -9.294365e-05 7.248344e-05 -6.432774e-06 1.8707598e-05 0.00019617507
-0.00031222517 0.00030902767 -9.649928e-05 0.00010089968 -0.00022152138 0.00031659668 0.00026770023 0.0009606302
2.8294071e-05 5.6294975e-05 -0.001727692 0.00028865656 0.0001612313 -0.00040848812 -0.0010153104 0.00013540902
6.047219e-05 -0.005050611 0.00012081963 -0.001985184 0.00071363425 0.00029306376 8.7362474e-05 0.0017381305
-0.0001806715 0.00033325562 -8.2608116e-05 2.7881142e-05 -0.00043502494 5.3918095e-05 -0.00028806116 -0.000540282
-0.0005848447 -0.00020769074 8.548371e-05 -6.5841195e-05 -0.00031265194 0.00030640507 -0.00023126524 -0.00017626904
-0.00014112768 0.00024738908 -0.00015523852 0.00025493035 0.0003489762 0.00029282912 -0.00031911785 -0.00077886804
0.0003123185 0.0005120154 0.017747639 0.00016055546 -5.6969617e-05 -0.0004131392 -0.00019956358 0.00013807297
-0.00025822365 0.0003936286 0.00016262538 -0.00083458377 -0.001046294 2.1225385e-05 0.0003498933 -0.00021968543
0.00035655178 0.00020757274 -0.002800609 0.0009194358 -0.0002696537 0.00017251016 -0.0001811447 0.0003112185
3.574796e-05 -0.00011509965 -0.0001473051 -0.0036821987 -9.715765e-05 0.00019349909 -0.00032549995 0.00016739716
-0.0001311181 -0.002069915 0.0002634651 7.205066e-05 0.00022436079 0.00012206047 0.0003592194 -0.00040938577
00000000: 0006 3cb9 7df5 b7ba e830 993a 8d75 1f39
00000010: 63ac ac39 4033 b139 658b 8839 4211 dc39
00000020: 85b8 70bb c05d c7b8 ae87 cd39 6bd4 28ba
00000030: a6c8 1538 19a8 4f39 da6d dab8 4fc4 acb9
00000040: 86d9 1ebb c3fc eb39 e683 213a 85f3 3639
00000050: 97b1 a2b9 9d69 06ba 65eb 5c39 da42 8239
00000060: 65a9 07ba 14d8 9c38 a353 cfb8 deb4 71ba
00000070: bb27 b4b8 5db4 63b9 b15e aa39 4207 6fba
00000080: 3843 36ba 9e2e 1eba 90db ccb9 beea c2b8
00000090: 4002 9838 1cd9 d7b6 43ee 9c37 58b4 4d39
000000a0: 27b2 a3b9 fe04 a239 a85f cab8 1a9a d338
000000b0: 3148 68b9 e3fc a539 1e5a 8c39 cdd2 7b3a
000000c0: 0e59 ed37 451e 6c38 b973 e2ba d456 9739
000000d0: 3310 2939 592a d6b9 2a14 85ba 95fc 0d39
000000e0: 85a3 7d38 997f a5bb 8c60 fd38 dc19 02bb
000000f0: 2f13 3b3a 5aa6 9939 5f36 b738 fbd1 e33a
00000100: a372 3db9 d0b8 ae39 e53d adb8 4ce2 e937
00000110: 0f14 e4b9 1d26 6238 ea06 97b9 b6a1 0dba
00000120: 4350 19ba 8fc7 59b9 b845 b338 3914 8ab8
00000130: 6feb a3b9 fea4 a039 ca7f 72b9 dcd4 38b9
00000140: acfb 13b9 00b4 8139 86c7 22b9 2ca8 8539
00000150: cbf6 b639 dc86 9939 464f a7b9 f32c 4cba
00000160: aebe a339 c638 063a 7f63 913c c75a 2839
00000170: a9f2 6eb8 9b9a d8b9 f141 51b9 aec7 1039
00000180: 3162 87b9 f05f ce39 6b86 2a39 f8c7 5aba
00000190: cd23 89ba 2b0d b237 e271 b739 5c5b 66b9
000001a0: 92ef ba39 e2a7 5939 6c8a 37bb 4b06 713a
000001b0: 4f60 8db9 d8e3 3439 a9f1 3db9 0a2b a339
000001c0: 14f0 1538 a761 f1b8 e975 1ab9 0b51 71bb
000001d0: 1ec1 cbb8 04e6 4a39 dda7 aab9 5587 2f39
000001e0: bf7c 09b9 69a7 07bb b021 8a39 e719 9738
000001f0: 6442 6b39 b7fa ff38 9d55 bc39 d4a2 d6b9
