Single Battery Model/6. LSTM Models/model_B0005_discharge_mm.pth (torch, 334412 bytes, 7 tensors)

weight_ih_l0 f4 [512, 30]
0	0xbb8a601e	-0.004222884
1	0x3be73a13	0.0070564835
2	0xbda66420	-0.08124566
3	0xbd8737d8	-0.06602448
4	0xbd6c827c	-0.057741627
5	0x3cb86c5d	0.02251261
6	0xbc14fdab	-0.009093682
7	0xbd44c4cd	-0.048039246
8	0x3d2c0fd0	0.042007267
9	0xbdbdfc5a	-0.09276648
10	0x3d879725	0.066206254
11	0xbb0b011a	-0.0021210373
12	0xbd881cb9	-0.066461034
13	0xbcc9ffd7	-0.024658127
14	0x3d5ee068	0.05441323
15	0xbbedafb1	-0.00725361
16	0xbd8c4f9d	-0.068511225
17	0x3da61eb9	0.08111329
18	0xbd72e983	-0.059304725
19	0xbd7bf299	-0.061510656
20	0xbd1400da	-0.036133625
21	0xbd7e8fe4	-0.062148944
22	0xbdac6925	-0.08418492
23	0xbc3f6523	-0.011681828
24	0x3d9a2f3e	0.07528542
25	0x3dad1a89	0.08452327
26	0xbcdadb73	-0.02671597
27	0x3da70f3c	0.081572026
28	0x3c0f8c86	0.008761531
29	0xbd3ba72a	-0.045813717
30	0xbd9ed0f6	-0.077547
31	0x3d14ab3b	0.03629611
32	0xbc834202	-0.016022686
33	0x3cebd4f2	0.028788064
34	0x3c6d3f30	0.014480397
35	0xbcb5b5b3	-0.022181368
36	0xbd66d013	-0.05635078
37	0x3d4724be	0.048619024
38	0xbd9daf07	-0.076993994
39	0x3d95f43d	0.073219754
40	0x3da16822	0.0788119
41	0xbce8d8b1	-0.028423639
42	0xbc861cb5	-0.01637111
43	0x3d1c1559	0.038106296
44	0xbd435d02	-0.04769612
45	0x3d92b00b	0.07162484
46	0x3b3c6ce5	0.002875143
47	0x3cbc87f2	0.023014043
48	0x3d97ab9a	0.07405777
49	0x3c757439	0.014981323
50	0x3d3118d8	0.043236583
51	0xbbc8b44d	-0.006125009
52	0x3d96a744	0.07356122
53	0xbca71267	-0.020394517
54	0xbd6c050a	-0.057621993
55	0x3da6e714	0.081495434
56	0xbd34d248	-0.044145852
57	0x3c8a272f	0.016864387
58	0xbcc59fd1	-0.024124058
59	0x3cc57fcf	0.024108795
60	0x3d8ea863	0.06965711
61	0xbd6c1523	-0.057637345
62	0x3d772ff2	0.06034846
63	0xbbf05a2a	-0.007334967
64	0xbd231c60	-0.039821982
65	0xbbd42fed	-0.0064754398
66	0xbdadd2ba	-0.084874585
67	0x3d7267d2	0.059181042
68	0x3d8de98e	0.06929313
69	0xbd799835	-0.06093617
70	0xbc933b9d	-0.017972762
71	0xbcb1d0c4	-0.021705993
72	0xbca4f151	-0.0201346
73	0xbd7436a7	-0.059622433
74	0x3caacc1b	0.020849278
75	0x3c991698	0.018687531
76	0xbd7cfae8	-0.06176272
77	0xbd7db362	-0.06193865
78	0xbcf32aa1	-0.029683413
79	0xbd0fbb64	-0.03509082
80	0xbbd7349f	-0.006567552
81	0xbcd8cde4	-0.026465364
82	0x3c65ccff	0.014025926
83	0xbc805ab6	-0.015668254
84	0x3a5882a7	0.0008259215
85	0x3ccf90f1	0.025337668
86	0xbd16a251	-0.03677589
87	0x3d7c7916	0.061638914
88	0x3d3e77b0	0.04650086
89	0xbd9f5b4b	-0.077810846
90	0x3d103a50	0.03521186
91	0x3d50e7a7	0.05100217
92	0xbd95d50e	-0.073160276
93	0x3cc72afa	0.024312485
94	0xbbb425ec	-0.0054976847
95	0x3d373736	0.044730388
96	0xbd853bad	-0.06505523
97	0xbda90421	-0.08252741
98	0x3d03932b	0.032122772
99	0xbca27f7b	-0.019836178
100	0x3d723cbf	0.059139963
101	0xbd17aef9	-0.0370321
102	0xbcdc01b5	-0.026856283
103	0x3d9a6e14	0.07540527
104	0x3cdb2199	0.026749419
105	0xbd9e4386	-0.07727723
106	0x3c965b50	0.018354088
107	0x3d358ce2	0.04432381
108	0xbd31671a	-0.043311216
109	0x3d88e2c3	0.06683876
110	0xbd8a5af7	-0.067556314
111	0xbc32b288	-0.010906823
112	0x3cc041ad	0.023468817
113	0xbb43c738	-0.0029873382
114	0xbd0e4c62	-0.034740813
115	0xbda682c5	-0.08130411
116	0xbd10891d	-0.03528701
117	0x3dae34f1	0.085061915
118	0xbb0dc310	-0.002163116
119	0xbd191ebe	-0.037382834
120	0x3db649e9	0.08900816
121	0xbba03257	-0.0048888135
122	0x3bb1e416	0.0054288013
123	0x3d9eae25	0.07748059
124	0x3d1e6433	0.038669776
125	0xbd6ca045	-0.057770032
126	0xbd814049	-0.063110895
127	0xbcb05d6e	-0.021528926
128	0x3da037d5	0.07823149
129	0xbc1c5a9e	-0.009543089
130	0xbd70359c	-0.058644876
131	0x3d84af14	0.06478706
132	0x3d46e285	0.04855587
133	0x3d0241a6	0.03180089
134	0x3b107b58	0.0022046175
135	0x3da72975	0.08162204
136	0x3d049b2d	0.03237455
137	0xbd34fc5f	-0.044185992
138	0xbbde9d6c	-0.0067936685
139	0xbd892878	-0.06697172
140	0xbd403441	-0.046924833
141	0x3db0c43a	0.08631177
142	0x3c6823ab	0.01416866
143	0xbd47c69d	-0.048773397
144	0x3c6c8970	0.0144370645
145	0x3d963811	0.073349126
146	0xbc5c6d74	-0.01345383
147	0xbd86ec5c	-0.06588051
148	0xbcbd7ff4	-0.023132302
149	0xbd87ef92	-0.06637491
150	0x3c8884cb	0.016664883
151	0xbce34ef6	-0.027747612
152	0x3da91082	0.08255102
153	0xbd020383	-0.03174163
154	0x3d94ba1a	0.072620586
155	0x3cb5a056	0.02217118
156	0x3d587c32	0.052852817
157	0x3bc970de	0.006147488
158	0x3d6be7d1	0.057594124
159	0xba594610	-0.0008288333
160	0x3dbb7854	0.0915381
161	0xbd7a8ed3	-0.061171364
162	0x3db1e9f8	0.08687204
163	0xbd0158b6	-0.031578742
164	0x3d4ac97d	0.04950856
165	0x3d89d085	0.06729225
166	0x3dbb9d19	0.091608234
167	0xbca522c9	-0.020158188
168	0xbb4d566a	-0.0031332024
169	0x3cff1a8d	0.03114059
170	0x3c8a890e	0.016911056
171	0xbcc737c8	-0.02431859
172	0x3d526b45	0.05137183
173	0x3b3d1a76	0.0028854883
174	0xbd0f80ea	-0.03503505
175	0x3d96808d	0.07348738
176	0x3dbdaaf4	0.09261122
177	0x3d0a21ff	0.033723827
178	0xbd7aa291	-0.06119019
179	0x3d35527a	0.04426811
180	0xbd634c86	-0.0554929
181	0xbcc8804e	-0.024475243
182	0xbce55c96	-0.02799825
183	0x3ca95bdd	0.020673687
184	0x3d8edd89	0.06975848
185	0x3c768271	0.015045748
186	0x3d584d85	0.052808303
187	0x3d69d17a	0.057084538
188	0x3d5255b8	0.05135128
189	0x3c5e9131	0.013584421
190	0xbd7c392f	-0.061577972
191	0x3d8a9870	0.067673564
192	0xbd32d2df	-0.043658134
193	0xbd83f328	-0.06442863
194	0x3cc726c7	0.024310483
195	0x3b3056ce	0.0026907208
196	0xbd8e65aa	-0.06952985
197	0x3d933b1b	0.07189008
198	0x3d871398	0.06595534
199	0xbd60bfef	-0.054870542
200	0xbdb0014d	-0.08593998
201	0x3d3b013c	0.045655474
202	0x3cbaa963	0.022785848
203	0x3d0ddf89	0.034637008
204	0xbcf89015	-0.030342141
205	0x3daab61b	0.08335515
206	0x3c66035b	0.014038886
207	0xbc9f25e4	-0.019427247
208	0x3cbceb34	0.023061372
209	0xb9aa7287	-0.00032510256
210	0x3d7c680e	0.06162267
211	0xbd5df447	-0.05418804
212	0x3d94ad0b	0.07259568
213	0x3c00596d	0.007833821
214	0xbc9ef4ee	-0.019403901
215	0x3d8ab2f9	0.067724176
216	0xbc1012e1	-0.008793564
217	0x3d2a9bee	0.041652612
218	0x3d5d31a7	0.05400243
219	0x3da325d9	0.07966203
220	0xbbc54588	-0.0060202517
221	0xbd0ba5b1	-0.034093563
222	0xbc3e8416	-0.011628171
223	0x3d5eed30	0.05442542
224	0x3d2326cb	0.039831918
225	0x3c37a3a2	0.011208447
226	0xbda5ae86	-0.08089928
227	0x3d060563	0.03271998
228	0x3c8eeeed	0.017447913
229	0x3cba23a4	0.022722073
230	0xbcb236a7	-0.021754576
231	0x3bed6acb	0.0072453967
232	0xbdafcdb7	-0.08584159
233	0x3c99e93d	0.018787974
234	0x3d9c8aac	0.07643637
235	0xbd4e82a7	-0.05041757
236	0xbd1bf4ae	-0.03807514
237	0xbc9f790c	-0.0194669
238	0xbd07e6e1	-0.033179168
239	0x3c394fee	0.011310561
240	0x3ce11c33	0.027479267
241	0xbd01593d	-0.031579245
242	0xbd4075df	-0.04698741
243	0xbd9bc3c7	-0.07605701
244	0xbcd6c98e	-0.026219156
245	0x3cce0381	0.025148155
246	0xbdb81ba6	-0.089896485
247	0xbd730fd1	-0.059341256
248	0x3d99f390	0.07517159
249	0x3c843ec2	0.016143207
250	0x3d805c2a	0.06267579
251	0xbcd22375	-0.025651673
252	0x3d4677ae	0.04845398
253	0x3c188167	0.009308196
254	0x3d5fe655	0.05466302
255	0xbd28169b	-0.041037183

weight_hh_l0 f4 [512, 128]
0	0xbcec2ef9	-0.028830992
1	0xbc1c554c	-0.009541821
2	0x3ce88304	0.028382786
3	0x3d6f5051	0.058426205
4	0x3d8c597c	0.06853005
5	0xbcd9bfa8	-0.026580647
6	0x3d4ee6c2	0.050513037
7	0xbd6e8829	-0.05823532
8	0xbce29522	-0.027659003
9	0x3d53eb31	0.051737968
10	0x3db13127	0.08651953
11	0xbc462668	-0.012094118
12	0x3d9bbe2b	0.07604631
13	0x3d776881	0.060402397
14	0xbd85f153	-0.065401696
15	0xbd716f18	-0.058943838
16	0x3cc126b6	0.02357803
17	0x3d5eaa44	0.054361597
18	0xba8860be	-0.0010404808
19	0xbd600748	-0.054694444
20	0xbd5a365b	-0.053274494
21	0xbd94fbfd	-0.072746255
22	0xbd2937fe	-0.041313164
23	0xbd367ae7	-0.044550803
24	0x3c8a5468	0.016885951
25	0x3d07c8b4	0.03315039
26	0xbb3b29ca	-0.0028558844
27	0x3b2ccfda	0.0026369006
28	0x3d2d270f	0.042273577
29	0xbd265ce1	-0.04061592
30	0x3db7cc28	0.089744866
31	0xbcc273aa	-0.023736794
32	0x3cfa84b1	0.03058085
33	0x3d5f3501	0.054493908
34	0xbda895e5	-0.08231715
35	0x3c5d851b	0.013520504
36	0x3d1b2ae8	0.037882715
37	0xbd75d1cb	-0.060014527
38	0x3cb0da61	0.021588506
39	0x3cbe3748	0.02321972
40	0xbd10d131	-0.03535575
41	0x3d84b391	0.06479562
42	0x3dbbe659	0.09174795
43	0x3d2ce3bc	0.042209372
44	0xbc4c62dd	-0.012474743
45	0x3d8c9247	0.06863838
46	0x3c97ab07	0.01851417
47	0xbd3c223f	-0.045931097
48	0x3d0a4630	0.033758342
49	0x3db20a6a	0.086933926
50	0x3d838343	0.064215206
51	0x3cbcd608	0.023051277
52	0xbd374cf6	-0.04475113
53	0xbd8826b3	-0.06648006
54	0xbcefdf49	-0.029281275
55	0xbd3e6baa	-0.046489395
56	0x3c6c7ea6	0.014434492
57	0x3c0fb8b2	0.008772062
58	0x3d5a1a00	0.05324745
59	0x3d8b58c4	0.0680404
60	0xbc9e22fc	-0.019303791
61	0xbca9805f	-0.020691095
62	0x3bbf3f20	0.0058363825
63	0xbd930cb4	-0.07180157
64	0xbdb0031d	-0.08594344
65	0x3d9bb4d4	0.076028496
66	0xbce2ecf7	-0.027700884
67	0xbc953ae0	-0.01821655
68	0xbd97203a	-0.073791936
69	0x3cee35c2	0.029078368
70	0x3ce9a231	0.028519722
71	0xbdcc5113	-0.09976401
72	0xbd97f552	-0.07419838
73	0x3d49cb03	0.049265873
74	0xbda0f8ee	-0.078599796
75	0xbda316ff	-0.079633705
76	0xbd140eca	-0.036146916
77	0xbce17c69	-0.027525144
78	0x3cc9fa03	0.024655348
79	0x3c99aee4	0.018760152
80	0xbd915efe	-0.070981964
81	0x3d207187	0.039170768
82	0x3d2352e0	0.039873958
83	0x3a86985d	0.0010268796
84	0xbd012b8d	-0.031535674
85	0x3c9d4a32	0.019200418
86	0x3d80413b	0.06262442
87	0x3dc8024a	0.097660616
88	0xbd3213f9	-0.04347608
89	0xbd80c73a	-0.062879995
90	0xbd28a515	-0.04117306
91	0xbd9e53df	-0.07730841
92	0xbcf10543	-0.029421454
93	0x3d1b912a	0.037980236
94	0xbd26d434	-0.040729716
95	0x3d85e7af	0.06538331
96	0x3c834332	0.016023252
97	0xbd85432a	-0.06506951
98	0xbc4f5856	-0.012655338
99	0xbcf17243	-0.02947343
100	0x3d5e2514	0.05423458
101	0x3bf331fb	0.0074217296
102	0x3d67e6d3	0.056616616
103	0x3d16d93f	0.036828276
104	0xbd8538b7	-0.06504958
105	0x3d200840	0.039070368
106	0xbbc56d79	-0.006025013
107	0xbd324c31	-0.043529693
108	0x3c4c5182	0.012470605
109	0xbc99a84e	-0.018757012
110	0xbd3d85cf	-0.046270188
111	0xbd1d57b6	-0.038413726
112	0xbd9700c0	-0.0737319
113	0x3da284b1	0.07935465
114	0x3d990d87	0.07473283
115	0xbd987aa0	-0.07445264
116	0x3d15a226	0.03653159
117	0x3bf71191	0.007539936
118	0xbcfca4e3	-0.030840343
119	0xbd551861	-0.052025203
120	0xbd9deb0e	-0.07710849
121	0xbc844f38	-0.016151056
122	0xbc40c207	-0.01176501
123	0x3d839b16	0.06426065
124	0xbd90aa5b	-0.07063743
125	0x3b916d1e	0.0044380566
126	0x3c6d3427	0.014477766
127	0xbc84953a	-0.016184438
128	0x3b5f6885	0.0034089398
129	0x3d6bb0a2	0.057541497
130	0xbc48dc76	-0.012259593
131	0xbda1581c	-0.07878134
132	0xbd034877	-0.03205153
133	0x3cbc457e	0.022982355
134	0x3d232152	0.0398267
135	0x3cce8e1c	0.025214247
136	0xbd3f45e1	-0.0466975
137	0xbd3f55f6	-0.046712838
138	0x3d9465e5	0.07245997
139	0xbdb115c1	-0.08646727
140	0xbd0440b3	-0.032288264
141	0x3d52c53c	0.05145763
142	0x3cddb1dd	0.02706235
143	0x3d87b70d	0.06626711
144	0xbd58871d	-0.05286323
145	0x3c561eaf	0.013068839
146	0x3cceea82	0.025258306
147	0xbd25292c	-0.040322468
148	0x3b1e421c	0.002414829
149	0x3cc52610	0.024066001
150	0x3dbada1c	0.09123632
151	0x3d9c010e	0.07617389
152	0x3d4c1484	0.049824253
153	0xbda9bb03	-0.08287623
154	0xbd7380ce	-0.05944901
155	0x3d8167aa	0.063186005
156	0xbd914348	-0.07092911
157	0xbcb4403f	-0.022003291
158	0x3d8e441a	0.06946583
159	0x3d502f8c	0.050826594
160	0xbd597af8	-0.053095788
161	0x3c6ab0b1	0.014324353
162	0x3b9d332b	0.0047973595
163	0x3d88f929	0.066881485
164	0xbd8218f4	-0.06352416
165	0x3d17d362	0.037066825
166	0x3daf39b6	0.08555929
167	0xba268299	-0.0006351858
168	0xbc451c60	-0.012030691
169	0x3d2e8d26	0.04261508
170	0xbd967282	-0.073460594
171	0x3c53eb1b	0.0129344715
172	0x3d7f2036	0.062286578
173	0x3d43fd66	0.04784908
174	0x3d349375	0.04408594
175	0xbd1f9f77	-0.038970437
176	0xbd2c0f31	-0.042006675
177	0xbc232c90	-0.009959355
178	0x3d14b003	0.03630067
179	0xbd2a8fe5	-0.041641135
180	0xbd274085	-0.040833015
181	0x3bc5fc2e	0.006042025
182	0x3d7db7ae	0.06194275
183	0xbcf02127	-0.029312683
184	0xbd433c7d	-0.047665108
185	0xbabbdc7a	-0.0014332675
186	0x3da8d0ae	0.082429275
187	0xbd6016ef	-0.05470937
188	0xbd7d6685	-0.06186535
189	0x3c1997a8	0.009374537
190	0xbcef3ed4	-0.029204763
191	0xbd983a87	-0.07433038
192	0xbd98cd29	-0.07461006
193	0x3db0a961	0.086260565
194	0xbad15110	-0.0015969593
195	0xbceb20a5	-0.02870209
196	0x3d5544ea	0.052067675
197	0xbd608769	-0.054816637
198	0xba142be3	-0.00056522916
199	0x3d4642b0	0.048403442
200	0x3ba72412	0.0051007355
201	0x3d981f61	0.0742786
202	0xbdacfe62	-0.08446957
203	0x3c7828b3	0.015146422
204	0xbd9c475b	-0.076307975
205	0xbd3bcb73	-0.04584832
206	0xbdc0e75c	-0.09419128
207	0xbc5e8cf0	-0.013583407
208	0xbaa508dc	-0.0012591141
209	0xbd055cc5	-0.032559175
210	0xbb108156	-0.0022049746
211	0x3cbe6b51	0.023244532
212	0xbda084dd	-0.07837842
213	0xbd56f45f	-0.052479144
214	0xbc3fcc6f	-0.011706456
215	0x3d91565d	0.070965506
216	0xbbf80f1b	-0.00757016
217	0xbd6a0700	-0.057135582
218	0x3cbdcc97	0.023168845
219	0xbd76a09f	-0.060211774
220	0x3d1c097a	0.038094975
221	0xbd0f4bf8	-0.03498456
222	0xbdaaf899	-0.083481975
223	0xbc071537	-0.008244804
224	0x3dac8aa5	0.08424882
225	0x3da18142	0.07885982
226	0xbc941ade	-0.018079218
227	0x3c446765	0.011987542
228	0xbd3ab8e2	-0.045586474
229	0x3d78e86a	0.060768522
230	0x3c8945f8	0.016756997
231	0xbc20c1d2	-0.009811835
232	0x3d79f41e	0.061023824
233	0xbcc06d1b	-0.023489526
234	0x3d739f5e	0.059478156
235	0xbdb822cf	-0.08991014
236	0xbc9937bd	-0.018703336
237	0x3d8967b1	0.06709231
238	0xbcb30882	-0.021854643
239	0xbd7dd608	-0.061971694
240	0x3db240d3	0.087037705
241	0xbcd4bf58	-0.025970146
242	0xbd8835cb	-0.06650885
243	0xbd486af3	-0.04893012
244	0x3d5aaa7c	0.053385243
245	0x3d9a9437	0.07547801
246	0xbc8758de	-0.016521867
247	0xbd722bb0	-0.059123695
248	0xbcccf4d4	-0.025019087
249	0x3d4b644d	0.0496562
250	0xb9a33d2e	-0.00031135365
251	0x3da1292f	0.07869183
252	0xbd80cc1e	-0.06288932
253	0xbcbd7fe7	-0.023132278
254	0x3d789113	0.06068523
255	0xbc3f589a	-0.011678839

bias_ih_l0 f4 [512]
0	0x3d1d01a3	0.03833164
1	0x3d2ee1da	0.042695858
2	0xbdaf66dd	-0.085645415
3	0xbb80d87d	-0.0039320574
4	0x3da12c23	0.078697465
5	0xbc8ba032	-0.01704416
6	0xbd96fa77	-0.07371991
7	0xbdac0785	-0.08399872
8	0xbd092699	-0.033484075
9	0x3c9db3e4	0.019250818
10	0x3d905794	0.07047954
11	0xbb99faca	-0.004699086
12	0xbd8076cb	-0.06272658
13	0xbd2a0318	-0.041506857
14	0x3d42fe28	0.047605664
15	0xbd580a50	-0.05274421
16	0x3da984e8	0.08277303
17	0xbbb4ac8f	-0.0055137346
18	0xbc44ccca	-0.012011716
19	0x3c003ada	0.007826531
20	0xbd9903f7	-0.07471459
21	0x3c61d307	0.013783223
22	0x38f69f0b	0.00011759818
23	0xbd48cf07	-0.04902556
24	0xbc1fae98	-0.009746216
25	0x3b808abd	0.003922789
26	0xbc9a82f0	-0.018861264
27	0x3d2c58f1	0.04207701
28	0xbd10bf9d	-0.035338987
29	0xbc8ffd92	-0.017576966
30	0xbd845812	-0.064621106
31	0xbd7674bd	-0.060169924
32	0xbd7ada77	-0.0612435
33	0x3d8e977c	0.06962487
34	0x3caf8bbc	0.021428935
35	0xbb999c3b	-0.0046878136
36	0x3d9de515	0.077097096
37	0xbd92055a	-0.07129927
38	0xbbc41c13	-0.005984792
39	0xbc7eff20	-0.015563756
40	0xbbad96b4	-0.005297506
41	0xbc8186c3	-0.01581133
42	0xbd6f0952	-0.058358498
43	0x3c5d25fc	0.013497826
44	0x3db16a7e	0.0866289
45	0x3d96f812	0.073715344
46	0x3d311a86	0.043238185
47	0x3cc3ac75	0.023885945
48	0xbdbacbb8	-0.091208875
49	0x3d2ddb5b	0.04244552
50	0xbbb88caf	-0.005632005
51	0xbd4bb18e	-0.049729876
52	0xbd3eb4f6	-0.046559297
53	0xbd93b03f	-0.07211351
54	0x3c198705	0.00937057
55	0xbc4d1494	-0.012517113
56	0xbcba1487	-0.022714866
57	0x3b3c443a	0.002872719
58	0xbd6479ca	-0.05578021
59	0x3d28e885	0.041237373
60	0x3da4558c	0.08024129
61	0xbd4237d4	-0.047416523
62	0x3d203b48	0.039119035
63	0xbda11616	-0.07865541
64	0xbd651be6	-0.05593481
65	0xbd622e84	-0.055220142
66	0xbd1a231d	-0.037631143
67	0xbce2c2ea	-0.027680833
68	0xbae78fb8	-0.0017666733
69	0xbd7203cc	-0.059085652
70	0x3d412e9b	0.047163587
71	0x3d31721d	0.043321718
72	0x3cb85f72	0.02250645
73	0x3d201a8f	0.03908783
74	0x3cf6751f	0.030085145
75	0x3d7fe377	0.062472787
76	0xbc394a14	-0.0113091655
77	0xbda09370	-0.078406215
78	0xbcc4bc50	-0.024015576
79	0xbd1ccf55	-0.038283665
80	0xbc4eb146	-0.0126155075
81	0xbd2a01d9	-0.04150567
82	0x3c3735d7	0.01118227
83	0x3daf1118	0.08548182
84	0x3c28a2ba	0.010292703
85	0xbc9c34c4	-0.01906813
86	0x3d664abb	0.056223612
87	0x3d54e347	0.05197456
88	0xbce4bd49	-0.02792229
89	0xbd8dc2d6	-0.06921928
90	0x3d03d7a1	0.03218806
91	0xbbc2dc85	-0.005946698
92	0x3d9c7614	0.07639709
93	0xbb78a77c	-0.0037941625
94	0x3d30e3db	0.04318605
95	0xbcffd8e6	-0.031231355
96	0x3d6c9ef9	0.057768796
97	0xbb17e940	-0.00231798
98	0x3cb07e58	0.02154462
99	0xbc828e6a	-0.015937049
100	0xbdae2f9f	-0.08505177
101	0xbd850c01	-0.0649643
102	0x3daf0a4b	0.08546885
103	0x3d1682d8	0.036745876
104	0x3d39c748	0.045356065
105	0x3cf8825c	0.030335598
106	0x3d850fec	0.064971775
107	0xbcbe9351	-0.023263605
108	0x3c331a04	0.010931496
109	0xbcec3e26	-0.028838228
110	0x3d9a6a13	0.07539763
111	0x3c8cc471	0.017183514
112	0x3d60dd48	0.05489853
113	0x3da98969	0.08278162
114	0xbd3ed527	-0.046589997
115	0xbd5e618a	-0.05429224
116	0x3ba9917e	0.0051748147
117	0x3d52dda8	0.05148092
118	0x3d05e857	0.03269228
119	0xbd843fcf	-0.06457483
120	0x3c7052ae	0.01466815
121	0x3d46d4cc	0.048542783
122	0xbc867a11	-0.016415628
123	0xbd1d179c	-0.038352594
124	0xbd9883f3	-0.07447042
125	0x3d82e2e9	0.06390936
126	0xbbe0ddcb	-0.0068623773
127	0x3da3823a	0.07983823
128	0x3d51ab3c	0.051188692
129	0x3cb8c7d1	0.022556217
130	0x3ce35cdd	0.027754242
131	0xbd006931	-0.03135032
132	0x3d41b88e	0.047295146
133	0xbd21ee74	-0.039534047
134	0xbd92d6b0	-0.07169855
135	0x3d5abf32	0.053404994
136	0x3d28311f	0.04106247
137	0x3d3303ab	0.04370467
138	0x3bb8855c	0.005631132
139	0x3cc49a23	0.02399928
140	0xbc85182c	-0.016246878
141	0x3c3d2fd6	0.0115470495
142	0x3d55def8	0.052214593
143	0x3ccdc61b	0.025118878
144	0x3dbcc01d	0.0921633
145	0x3c982283	0.018571144
146	0xbc1f1517	-0.009709618
147	0xbd895f3f	-0.0670762
148	0xbc9e9817	-0.019359631
149	0xbdb5d0ec	-0.08877739
150	0xbbc1b36f	-0.0059112827
151	0xbd7cc394	-0.061709955
152	0xbcda20a7	-0.026626898
153	0xbd3a7c9d	-0.045528997
154	0xbb8eabc4	-0.004353972
155	0x3d74cf48	0.05976799
156	0x3cfa9aad	0.030591333
157	0x3d471333	0.048602294
158	0x3da75949	0.08171327
159	0x3d387988	0.045037776
160	0xbd15ac86	-0.036541484
161	0xbd3a5694	-0.045492724
162	0xbd4f4828	-0.050605923
163	0xbd796ea8	-0.060896546
164	0x3d90de8c	0.070736974
165	0xbcedb28e	-0.029015806
166	0x3d1dc37c	0.038516507
167	0x3d56dfac	0.052459404
168	0xbd395d07	-0.045254733
169	0xbd72b69d	-0.059256185
170	0xbcf1fdb1	-0.029539915
171	0x3d9d10dd	0.07669232
172	0x3ccb854f	0.02484384
173	0x3d90a7d6	0.07063262
174	0x3c505afd	0.012717006
175	0x3d6408dc	0.05567251
176	0xbd1d4d9d	-0.038404096
177	0x3d641f38	0.055693835
178	0xbd7dc1a3	-0.061952244
179	0xbd873b1e	-0.066030726
180	0x3d716e69	0.058943186
181	0xbc8f0b05	-0.01746131
182	0xbd64f3fb	-0.05589674
183	0xbd07a121	-0.03311265
184	0xbd89416f	-0.067019336
185	0xbdaf44b5	-0.08558027
186	0xbccf52e7	-0.025308086
187	0x3d1015f2	0.03517718
188	0x3d5a2879	0.053261254
189	0xbbbc3c09	-0.0057444614
190	0x3d9b3f35	0.07580415
191	0xbd5e4d5d	-0.054272998
192	0xbd30f200	-0.04319954
193	0xbceca997	-0.02888946
194	0x3bd33162	0.006445096
195	0x3d8e8205	0.06958393
196	0xbc29146b	-0.010319809
197	0xbd1b6ab0	-0.037943542
198	0xbd0bdba6	-0.03414502
199	0xbcb4f18b	-0.022087833
200	0x3c49fc0e	0.012328161
201	0x3c849d1c	0.016188197
202	0x3d9f11fe	0.077671036
203	0xbda260db	-0.0792863
204	0x3d820c73	0.06350031
205	0x3d905e6c	0.070492595
206	0x3cbf36e8	0.023341611
207	0x3d167041	0.036728147
208	0x3caf78d5	0.021419922
209	0x3d4793dc	0.048724994
210	0x3da0aeeb	0.07845863
211	0xbda1d6a2	-0.07902266
212	0xbc5bb408	-0.013409622
213	0x3d30096c	0.042977735
214	0x3d08877e	0.03333234
215	0xbc024c4a	-0.007952759
216	0xbd766df1	-0.060163442
217	0x3d359f32	0.044341274
218	0x3c29b065	0.010356997
219	0xbd9722ab	-0.07379659
220	0xbda05187	-0.0782805
221	0x3d5609d5	0.05225547
222	0x3d494247	0.049135473
223	0x3d88f732	0.06687774
224	0xba25f83a	-0.0006331239
225	0x3da84d89	0.08217914
226	0x3d940672	0.07227792
227	0xbce341fc	-0.027741425
228	0xbd48a083	-0.0489812
229	0x3d649f80	0.055816174
230	0xbd1b6732	-0.03794021
231	0x3b9e6c78	0.004834708
232	0xbd6169b4	-0.055032447
233	0x3d2114c3	0.03932644
234	0x3ccefc5a	0.025266815
235	0xbcaec77a	-0.021335352
236	0x3d7fa148	0.06240967
237	0x3c93ef2b	0.01805838
238	0xbca8a31b	-0.020585587
239	0xbd9cf63d	-0.07664154
240	0x3c68fd4d	0.014220548
241	0x3cbbf1e1	0.022942485
242	0x3cc57e7c	0.024108164
243	0xbbcb5fdf	-0.006206497
244	0xbdac7620	-0.08420968
245	0x3cf57f9f	0.029968081
246	0xbc7e6ae6	-0.015528416
247	0x3d355ec2	0.04427982
248	0xbd600adc	-0.054697856
249	0x3c954ea4	0.018225975
250	0xbd94c318	-0.07263774
251	0xbbfd0233	-0.0077212094
252	0x3d877ed1	0.06615985
253	0xbce96708	-0.028491512
254	0xbda7b5f7	-0.08189004
255	0x3ce9e41a	0.02855115

bias_hh_l0 f4 [512]
0	0x3d628747	0.05530479
1	0x3d9e92c5	0.07742838
2	0x3d2a3317	0.04155263
3	0x3c6bcbf2	0.014391886
4	0xbd84f8c5	-0.064927615
5	0xbd8cd18c	-0.068759054
6	0xbd59d8bb	-0.053185206
7	0x3d68cacb	0.056834023
8	0x3d8be430	0.06830633
9	0x3d1766ea	0.03696338
10	0x3b4e8325	0.0031511274
11	0x3d8b57f4	0.06803885
12	0xbc5fbdb6	-0.01365607
13	0x3b22703c	0.0024786135
14	0xbd3e2288	-0.04641965
15	0xbd212439	-0.039341185
16	0x3d8ee73a	0.06977697
17	0xbdad7f9b	-0.084716044
18	0x3d4d914d	0.050187398
19	0x3d88b71a	0.06675549
20	0xbdbc041d	-0.09180472
21	0xbdb6aa4d	-0.08919201
22	0x3d92f27d	0.07175157
23	0x3d3cc7a4	0.04608883
24	0x3d80c5cf	0.06287729
25	0x3d50a61e	0.05093967
26	0x3cc2ea70	0.02379343
27	0x3dd8d0e1	0.105867155
28	0xbcb849d4	-0.022496141
29	0xbd5318aa	-0.051537193
30	0x3d8a079a	0.06739731
31	0xbc1f7adc	-0.009733882
32	0x3d8b800f	0.068115346
33	0x3d99afd2	0.07504238
34	0xbd29a4cc	-0.04141693
35	0x3d07ce34	0.033155635
36	0xbafcdc69	-0.0019291762
37	0xba44340c	-0.0007484562
38	0xbb6e60c7	-0.0036373602
39	0x3c4c120a	0.012455473
40	0xbd4ba5c1	-0.049718622
41	0xbd66b620	-0.05632603
42	0xbdbac8c0	-0.09120321
43	0x3d6e8d50	0.058240235
44	0xbd9545dd	-0.07288716
45	0x3d25a15f	0.0404371
46	0x3c5f52da	0.013630593
47	0xbd8e787c	-0.06956574
48	0x3b0b96cf	0.0021299606
49	0x3d9ebb17	0.07750528
50	0xbd7ad751	-0.061240498
51	0xbd3c2a50	-0.04593879
52	0x3d0a87b8	0.033820838
53	0x3d847698	0.064679325
54	0xbd708352	-0.058718987
55	0x3d16e1bd	0.036836375
56	0x3d3de863	0.0463642
57	0xbd8e5de1	-0.069515
58	0x3d349afc	0.044093117
59	0x3db5feec	0.08886513
60	0x3b8b63cd	0.0042538405
61	0x3cee2740	0.02907145
62	0x3c2887e1	0.010286302
63	0xbd69a3dc	-0.057041034
64	0xbcaaf40e	-0.020868327
65	0x3cc98b3d	0.024602527
66	0xbcb2b886	-0.021816503
67	0xbd254275	-0.04034658
68	0x3d3252bf	0.043535944
69	0xbb2e2921	-0.0026574808
70	0x3c0cb34d	0.0085876705
71	0xbda02d59	-0.078211494
72	0xbd9c7120	-0.076387644
73	0xbb169d97	-0.0022982114
74	0x3d2224ca	0.039585866
75	0x3d8e15aa	0.06937726
76	0x3dafecd5	0.08590094
77	0x3c13390b	0.008985768
78	0xbd5f0d24	-0.05445589
79	0x3b696be9	0.0035617298
80	0xbda682fd	-0.08130453
81	0x3d63b6c0	0.055594206
82	0x3d28cd46	0.04121139
83	0x3dbcadbc	0.09212825
84	0xbd139ca9	-0.036038075
85	0x3d642755	0.055701572
86	0x3d9dfe83	0.0771456
87	0x3c9ca1c9	0.019120114
88	0x3d029a35	0.031885345
89	0xbd7e3a17	-0.062067118
90	0x3d40f6d9	0.047110412
91	0x3d9692dc	0.0735223
92	0xbb2c2b26	-0.0026270836
93	0xbd5c1e03	-0.05373956
94	0xbd0d143f	-0.034443136
95	0xbd992695	-0.07478062
96	0xbcd5ef8f	-0.026115207
97	0xbd3a8366	-0.045535468
98	0x3ca5ba30	0.020230383
99	0xbd131c76	-0.035915814
100	0xbc434009	-0.011917123
101	0x3d57cf6d	0.05268805
102	0xbc8f7723	-0.017512864
103	0x3d9f8ecd	0.07790909
104	0x3da16af2	0.07881726
105	0xbcca29a0	-0.024678051
106	0xbd143c3c	-0.036190256
107	0xbcb88a55	-0.0225269
108	0x3d86e6bc	0.06586978
109	0xbcb273d6	-0.02178375
110	0x3c0ef263	0.008724782
111	0x3d73dd73	0.059537362
112	0xbc7a5da5	-0.015281116
113	0xbd0337be	-0.03203558
114	0x3bfe1846	0.0077543585
115	0x3b3e4515	0.0029032875
116	0x3bffa9c3	0.0078022196
117	0x3d209f68	0.03921452
118	0xbd82bf97	-0.06384199
119	0xbc9b3414	-0.018945731
120	0x3dd4008e	0.10351668
121	0xbdb42aea	-0.08797248
122	0x3c08cb14	0.008349199
123	0xbd479980	-0.048730373
124	0xbd98c53b	-0.07459494
125	0x3d94c7ef	0.07264697
126	0xbd42ca59	-0.047556255
127	0x3ceba2d5	0.028764168
128	0xbd0651cd	-0.032792855
129	0xbcc4d4ad	-0.024027193
130	0xbd96530e	-0.0734006
131	0x3d9ef949	0.07762391
132	0x3d3034ce	0.04301911
133	0x3d755e1a	0.059904195
134	0x3beef4a9	0.0072923494
135	0xbd9ce580	-0.07660961
136	0xbcd8151e	-0.026377257
137	0xbd5b1b74	-0.05349298
138	0x3d789136	0.06068536
139	0x3dce2a72	0.100666896
140	0xbd80a0e8	-0.062806904
141	0xbdb05253	-0.08609452
142	0xbdbb4a0b	-0.09144982
143	0xbc149cfa	-0.009070629
144	0x3cbf5a2d	0.023358429
145	0x3d518700	0.051154137
146	0x3d41bb3d	0.047297705
147	0x3d5b1c83	0.053493988
148	0x3d9f138c	0.077674
149	0xbd54200b	-0.05178837
150	0xbc3bd2c2	-0.011463823
151	0xbdb37f33	-0.08764496
152	0xbd98d51d	-0.07462523
153	0x3d072e47	0.033003118
154	0x3d49e0b1	0.049286548
155	0x3db1d33c	0.08682868
156	0xbda67d62	-0.081293836
157	0xbd860f46	-0.06545882
158	0x3d9e96e7	0.07743626
159	0x3d75e67e	0.060034268
160	0x3d72ec44	0.05930735
161	0x3ce39463	0.027780717
162	0xbd0008ef	-0.03125852
163	0xbc5abb23	-0.013350281
164	0x3d85f2f4	0.0654048
165	0xbdad3050	-0.084564805
166	0x3d8952de	0.06705259
167	0xbcafff5c	-0.02148407
168	0x3c3885d6	0.011262378
169	0xbd9dc541	-0.07703639
170	0x3d81d680	0.06339741
171	0xbc0a3ffe	-0.0084381085
172	0xbd815794	-0.06315532
173	0xbc0e5c15	-0.008688946
174	0xbba682cc	-0.00508151
175	0x3d184d90	0.037183344
176	0x3ba964e9	0.0051695
177	0xbda2b9e9	-0.07945616
178	0xbd5ffc84	-0.054684177
179	0x3cf3136f	0.029672353
180	0xbcb78dc0	-0.022406459
181	0x3d9232c8	0.07138592
182	0xbd0af09f	-0.03392088
183	0xbd581ad9	-0.05275998
184	0x3d20ddc6	0.039274
185	0x3d09eda6	0.033673905
186	0xbbbaa6a6	-0.0056961356
187	0xbd5f925e	-0.054582946
188	0xbd956936	-0.07295458
189	0xbca0cad3	-0.019627964
190	0xbdb61ad6	-0.08891837
191	0xbd2d8463	-0.042362582
192	0xbdaee3c6	-0.08539538
193	0xbcf4abd3	-0.029867088
194	0xbd832e2e	-0.064052925
195	0x3b5f5124	0.0034075463
196	0x3da42e38	0.08016628
197	0xbdaf9a71	-0.08574379
198	0xbc0a408b	-0.00843824
199	0x3d03b05b	0.032150608
200	0x3c1451b1	0.00905268
201	0x3d0a5ddb	0.033780914
202	0xbd216ee9	-0.039412413
203	0x3d17face	0.03710442
204	0xbd9dda74	-0.07707682
205	0xbbb3b9f6	-0.0054848148
206	0xbbe20396	-0.0068974
207	0x3d310af1	0.043223325
208	0xbd88bc68	-0.06676561
209	0xbc0a7d02	-0.008452656
210	0xbce4eb16	-0.027944129
211	0x3d26cc91	0.040722433
212	0xbc890b3d	-0.016728992
213	0x3d81201c	0.063049525
214	0x3d800a56	0.062519714
215	0xbc5ce628	-0.013482608
216	0x3d112341	0.03543401
217	0x3ce8bde1	0.028410854
218	0x3d83fe8d	0.06445036
219	0xbd89edbf	-0.067347996
220	0xbd4737ec	-0.048637316
221	0xbd7fc520	-0.062443852
222	0xbc658d4f	-0.014010741
223	0x3d87c55a	0.06629439
224	0xbd9228d5	-0.07136694
225	0x3d915b35	0.070974745
226	0x3d4e31c6	0.050340436
227	0x3da0628d	0.07831297
228	0xbd55f7d6	-0.052238308
229	0xbd9ab491	-0.075539716
230	0x3c7a34f8	0.015271418
231	0x3d94e675	0.07270519
232	0x3b7b6d14	0.0038364576
233	0xbca26b59	-0.019826578
234	0xbd7753da	-0.0603827
235	0x3c41725f	0.011807053
236	0xbbcf5fd0	-0.0063285604
237	0xbc508b7c	-0.012728568
238	0x3d0026a3	0.031286847
239	0x3c528e89	0.012851366
240	0xbd9e353b	-0.07724997
241	0x3d5be632	0.05368633
242	0xbd14dd8c	-0.036344096
243	0x3d6243ef	0.055240568
244	0xbd089b89	-0.033351455
245	0xbd9713b3	-0.07376804
246	0x3abbc11a	0.0014324517
247	0xbd86d395	-0.06583325
248	0xbd11fa3a	-0.035639025
249	0x3d55e4d7	0.05222019
250	0xbd3caf5d	-0.046065677
251	0x3d8b849c	0.068124026
252	0xbdaeaa43	-0.085285686
253	0xbcd73904	-0.026272304
254	0x3bd94fe6	0.006631839
255	0x3d22445d	0.039615978

weight f4 [1, 128]
0	0x3d55fbf1	0.052242223
1	0xbcd8b3a0	-0.02645284
2	0x3d7415fb	0.059591275
3	0xbbe60e43	-0.007020743
4	0x3d9c1937	0.07621997
5	0x3c9b1ca3	0.018934553
6	0x3d841e07	0.0645104
7	0xbd104eb3	-0.035231303
8	0x3d16c666	0.0368103
9	0xbd9d87bf	-0.07691907
10	0x3d9d58b3	0.07682934
11	0xba89e54e	-0.0010520609
12	0xbcaadfe1	-0.020858707
13	0x3cb7e91d	0.022450024
14	0x3c17f01f	0.009273558
15	0xbbffd09f	-0.007806852
16	0x3ba3a6a3	0.00499423
17	0xbce6ad89	-0.02815892
18	0x3d8e0596	0.06934659
19	0x3b440e8d	0.00299159
20	0xbd1c9960	-0.038232207
21	0x3cfbc990	0.03073576
22	0xbcbe5952	-0.02323595
23	0x3cbc9d9c	0.023024373
24	0xbd356cb7	-0.04429313
25	0x3d44ff74	0.04809518
26	0x3cb88550	0.022524506
27	0xbbbdfcc2	-0.0057979533
28	0x3d848345	0.0647035
29	0xbcfe3d6b	-0.031035146
30	0x3d7ba413	0.06143577
31	0x3d86edb6	0.065883085
32	0x3ced42c7	0.028962506
33	0xbd0dd76e	-0.034629278
34	0xbda01b14	-0.07817665
35	0x3d104255	0.03521951
36	0x3d38050d	0.04492669
37	0xbcf0d411	-0.029397996
38	0xbd5584cf	-0.05212861
39	0xbd18485b	-0.03717838
40	0xbd5fdce4	-0.054654017
41	0xbd415e43	-0.047209036
42	0x3d0e96eb	0.034811895
43	0xbcd89e6d	-0.02644273
44	0x3b6eb06e	0.0036421078
45	0x3d074b51	0.03303081
46	0x3d9dc8a5	0.077042855
47	0xbcb3b66b	-0.02193757
48	0x3d0442fd	0.032290448
49	0xbd84da04	-0.06486896
50	0x3d663fd2	0.056213208
51	0xbcf13555	-0.029444376
52	0x3cb03152	0.021507893
53	0x3d73d95b	0.05953346
54	0xbd9fd29e	-0.07803844
55	0x3dab02d7	0.08350151
56	0xbda2fa47	-0.07957893
57	0x3d81b183	0.06332686
58	0x3d8bf708	0.06834227
59	0x3c8e44eb	0.017366847
60	0xbc80bf5d	-0.01571625
61	0x3d1e2ebb	0.038618784
62	0xbd0ef376	-0.03490015
63	0x3d7955a1	0.060872678
64	0xbd7eec0d	-0.062236834
65	0x3c684f54	0.01417907
66	0xbbabedeb	-0.005246868
67	0x3d1a4f8b	0.037673514
68	0xbd417abe	-0.047236197
69	0x3da135fb	0.07871624
70	0x3c1095df	0.008824795
71	0xbc3cce34	-0.011523772
72	0xbd72b981	-0.05925894
73	0xbb05e9d6	-0.0020433567
74	0xbd2aa812	-0.04166419
75	0xbcc379b2	-0.02386174
76	0x3c96c4c3	0.01840437
77	0x3d9a9995	0.07548825
78	0x3c9f55a4	0.019450016
79	0x3d210b74	0.039317563
80	0xbd2bc502	-0.04193593
81	0xbdae773b	-0.08518835
82	0xbd804613	-0.062633656
83	0xbacda69f	-0.0015689916
84	0xbbe0f9c7	-0.0068657133
85	0xbb64fdcf	-0.003494132
86	0xbc5297cc	-0.012853574
87	0x3cd1874b	0.025577208
88	0xbcc6af08	-0.024253383
89	0xbd4199e3	-0.0472659
90	0xbc5dba8d	-0.013533247
91	0xbc25a4ea	-0.010110119
92	0x3c3e3c65	0.011611079
93	0xbd2fe427	-0.042942192
94	0x3d0644db	0.03278051
95	0x3c8c9598	0.017161176
96	0xbc1d5483	-0.009602669
97	0xbd4840cf	-0.04888993
98	0x3d9555c0	0.07291746
99	0xbd56d7de	-0.05245196
100	0x3d148412	0.036258765
101	0x3c4aaae3	0.012369844
102	0x3d98a253	0.07452836
103	0xbcbe5a6c	-0.023236476
104	0x3d95bc71	0.07311333
105	0x3d56f532	0.05247993
106	0x3d7b71ad	0.061387707
107	0x3da9e520	0.08295655
108	0x3da763ef	0.08173358
109	0x3d9a25b0	0.075267196
110	0xbcaf43b6	-0.021394592
111	0x3befe2ca	0.0073207365
112	0xbd10e630	-0.035375774
113	0xbcb44d8c	-0.022009633
114	0x3c996d17	0.018728776
115	0xbca1e508	-0.01976253
116	0x3d908356	0.070563
117	0x3d0b2af5	0.033976514
118	0xbd7a8cf4	-0.06116958
119	0x3d868ff6	0.06570427
120	0x3b9cf0d0	0.0047894493
121	0xbd67d46c	-0.056599066
122	0x3aa34236	0.0012455645
123	0xbb41b367	-0.0029556395
124	0x3d3f734e	0.046740822
125	0xbcc716cf	-0.024302868
126	0x3d8c174c	0.06840381
127	0xbd44199e	-0.047875993

weight f4 [128]
0	0x3f7f164b	0.9964339
1	0x3f7f5e24	0.9975302
2	0x3f7f9415	0.9983533
3	0x3f7e70ca	0.9939085
4	0x3f7fc7c5	0.999142
5	0x3f801166	1.000531
6	0x3f7eb579	0.99495655
7	0x3f7f1573	0.99642104
8	0x3f7f1c57	0.9965262
9	0x3f7f465f	0.9971675
10	0x3f7f3908	0.996964
11	0x3f791357	0.97295135
12	0x3f7f99df	0.99844164
13	0x3f7f33a6	0.99688184
14	0x3f7efed6	0.996076
15	0x3f7e11e2	0.99246037
16	0x3f7e9d2b	0.9945857
17	0x3f7fbdea	0.9989916
18	0x3f8003a1	1.0001107
19	0x3f7d3559	0.9890953
20	0x3f7e6fb0	0.9938917
21	0x3f7ecd96	0.9953245
22	0x3f7dc533	0.9912903
23	0x3f7f35cd	0.9969147
24	0x3f7f669e	0.99765956
25	0x3f7dd896	0.9915861
26	0x3f7eac64	0.994818
27	0x3f7f0843	0.9962198
28	0x3f7f215d	0.99660283
29	0x3f806286	1.0030067
30	0x3f7ef9e9	0.9960008
31	0x3f7f5e49	0.9975324
32	0x3f7f54f5	0.9973901
33	0x3f7f507a	0.9973217
34	0x3f7e8fc5	0.99438125
35	0x3f8006c2	1.0002062
36	0x3f7f95ac	0.99837756
37	0x3f7fc8dd	0.9991587
38	0x3f7ce6a6	0.9878944
39	0x3f7f0dbd	0.9963034
40	0x3f7e2b9a	0.9928528
41	0x3f7da27c	0.99076056
42	0x3f7eaaaf	0.9947919
43	0x3f7d938b	0.9905326
44	0x3f7efb60	0.9960232
45	0x3f802233	1.0010437
46	0x3f7f687e	0.9976882
47	0x3f7fdcd0	0.9994631
48	0x3f7e5a9d	0.99357015
49	0x3f7f366e	0.9969243
50	0x3f7fa4df	0.9986095
51	0x3f7f2604	0.9966738
52	0x3f7fb4aa	0.99885046
53	0x3f7fe499	0.9995819
54	0x3f7f1ca0	0.99653053
55	0x3f7fff6a	0.99999106
56	0x3f7ebef6	0.99510133
57	0x3f7d240e	0.9888314
58	0x3f7efb46	0.9960216
59	0x3f7f2efe	0.9968108
60	0x3f7e9acd	0.9945496
61	0x3f7fb763	0.998892
62	0x3f7d7400	0.99005127
63	0x3f7ee441	0.9956704
64	0x3f7f77c5	0.9979213
65	0x3f805404	1.002564
66	0x3f7f9bc3	0.9984705
67	0x3f7fd1e8	0.99929667
68	0x3f7ff731	0.9998656
69	0x3f7eb83b	0.99499863
70	0x3f7e8a69	0.9942995
71	0x3f7d1bfc	0.98870826
72	0x3f7d93e0	0.99053764
73	0x3f7eb56d	0.99495584
74	0x3f7fa1a0	0.99855995
75	0x3f7f4266	0.9971069
76	0x3f7f9928	0.9984307
77	0x3f7f3366	0.996878
78	0x3f7e9472	0.9944526
79	0x3f7f7320	0.9978504
80	0x3f7fd0f7	0.9992823
81	0x3f7f77f7	0.99792427
82	0x3f7fde93	0.99948996
83	0x3f7e1494	0.9925015
84	0x3f7e1ca0	0.9926243
85	0x3f7e6ec4	0.99387765
86	0x3f7fd05d	0.9992731
87	0x3f7da73e	0.99083316
88	0x3f801253	1.0005592
89	0x3f7fefe3	0.99975413
90	0x3f7e11ee	0.9924611
91	0x3f7db58a	0.9910513
92	0x3f80111b	1.000522
93	0x3f7dea90	0.9918604
94	0x3f7e886b	0.9942691
95	0x3f7fb87b	0.9989087
96	0x3f7f0c17	0.9962782
97	0x3f7f7dcb	0.9980132
98	0x3f7ca5da	0.9869057
99	0x3f7fbad2	0.9989444
100	0x3f7c79a2	0.98623097
101	0x3f7f605c	0.9975641
102	0x3f7f3a0b	0.9969794
103	0x3f7f3921	0.99696547
104	0x3f7fa604	0.99862695
105	0x3f7e0f08	0.99241686
106	0x3f7fd919	0.9994064
107	0x3f7ee60a	0.9956976
108	0x3f7f98a5	0.9984229
109	0x3f7e7bd7	0.99407715
110	0x3f7e9694	0.99448514
111	0x3f7f42e5	0.9971145
112	0x3f7c7b48	0.9862561
113	0x3f7f9851	0.9984179
114	0x3f7fdde6	0.99947965
115	0x3f7f3381	0.99687964
116	0x3f7f2bb3	0.99676055
117	0x3f7efd57	0.99605316
118	0x3f7ffb1d	0.99992543
119	0x3f7f1644	0.9964335
120	0x3f7f2361	0.9966336
121	0x3f7e96ae	0.9944867
122	0x3f793dd3	0.9735996
123	0x3f7e7a8c	0.9940574
124	0x3f7cad4b	0.98701924
125	0x3f7d5eed	0.9897297
126	0x3f7f873e	0.9981574
127	0x3f7f9fff	0.9985351

bias f4 [128]
0	0x3ab3aaec	0.0013707555
1	0xba1a0ec2	-0.0005876833
2	0x3aafa3ef	0.0013400296
3	0xbad2fe52	-0.0016097522
4	0x3a7774ca	0.0009439705
5	0x384049bf	4.584505e-05
6	0x3aac69fe	0.0013154147
7	0xbac5ebd8	-0.0015100194
8	0x3ab5d967	0.0013873995
9	0xbaab10ed	-0.0013051309
10	0x3a7940c4	0.0009508247
11	0x3c2bece0	0.010493487
12	0xb9aec93a	-0.00033337792
13	0x3a109d1f	0.0005516577
14	0x3b09cc4f	0.0021026318
15	0xbaba87b0	-0.0014231112
16	0x3b8b4115	0.0042497017
17	0xba0f7f34	-0.0005473972
18	0x3a6de03b	0.00090742455
19	0x3af7c1ac	0.0018902323
20	0xba6873cf	-0.00088673545
21	0x3ac6a73d	0.0015156042
22	0xbac91c18	-0.0015343456
23	0x3ae14368	0.0017186226
24	0xba58b040	-0.00082660094
25	0x3a77a532	0.0009446918
26	0x3a241eb3	0.0006260678
27	0x3ae56815	0.0017502332
28	0x3ab00a09	0.0013430725
29	0xba11beab	-0.0005559723
30	0x3ab346f6	0.0013677764
31	0x3a74bb0a	0.00093357323
32	0x3add37ca	0.0016877588
33	0xbac25511	-0.0014826377
34	0xbaaa4f28	-0.0012993561
35	0x3a299a22	0.0006469806
36	0x3a5e79de	0.00084867876
37	0xba23ace7	-0.0006243721
38	0xbaa87341	-0.0012851731
39	0xbac30a38	-0.0014880365
40	0xbab0a056	-0.0013475518
41	0xba9df357	-0.001205067
42	0x3ac0c186	0.0014706112
43	0xbabef260	-0.0014568083
44	0xbb0af2b4	-0.0021201791
45	0x3a10525f	0.00055054383
46	0x3a7612c2	0.00093869504
47	0xb9d2ae6d	-0.0004018428
48	0x3a5afccf	0.00083537115
49	0xba6e2847	-0.0009084981
50	0x3a676d32	0.0008828222
51	0xba37836f	-0.0007000481
52	0x3ae92054	0.0017786124
53	0x3a687ca3	0.000886867
54	0xbaab8710	-0.0013086516
55	0x3a769b12	0.00094072626
56	0xba809217	-0.0009809163
57	0x3ab13e8e	0.0013522671
58	0x3aafe9d6	0.0013421129
59	0x3b0c86bf	0.002144262
60	0xbaeefd15	-0.0018233383
61	0x3ac480bf	0.0014991983
62	0xba68d6f0	-0.0008882126
63	0x3aaf2cb6	0.0013364765
64	0xba6b7e85	-0.00089833915
65	0xba053348	-0.0005081189
66	0x3b28947d	0.0025723272
67	0x3a386b03	0.0007034989
68	0xba51755b	-0.00079902046
69	0x3aab3737	0.001306272
70	0x3aeba3b3	0.0017977863
71	0xbabbd057	-0.0014329058
72	0xbaa4f0a7	-0.0012583927
73	0xba1112b1	-0.0005534096
74	0xba4ea0fe	-0.0007882266
75	0xbac50924	-0.0015032631
76	0x39e0c909	0.00042874392
77	0x3aabab32	0.0013097285
78	0x3aea13a9	0.0017858642
79	0x3a528e58	0.0008032075
80	0xba4a78d5	-0.0007723694
81	0xbaa8c288	-0.0012875358
82	0xba689d9c	-0.0008873583
83	0xbbd1d9a7	-0.00640412
84	0x39829ef0	0.0002491395
85	0xbb68b251	-0.0035506675
86	0x3a5774fc	0.0008219031
87	0x3ab9968a	0.0014159244
88	0xb9ee94d3	-0.0004550578
89	0xba55f720	-0.00081621297
90	0xbab34658	-0.001367758
91	0xba0bf798	-0.00053393235
92	0xba09382d	-0.0005234506
93	0xbab341cd	-0.0013676226
94	0x3a4cdc2d	0.0007814791
95	0x394fc576	0.00019814618
96	0xbb2b6a11	-0.002615575
97	0xba5ca1b3	-0.0008416429
98	0x3a9b800e	0.0011863725
99	0xbaa9a8a9	-0.0012943941
100	0x3aa54f33	0.0012612104
101	0x380fd4e8	3.429214e-05
102	0x3aad8b0e	0.0013240294
103	0xbadf9895	-0.0017059023
104	0x3a7776da	0.00094400125
105	0x3aa6a82b	0.0012714913
106	0x3a695448	0.00089008035
107	0x3aa98eea	0.0012936268
108	0x3aab3d74	0.0013064579
109	0x3aa808dd	0.0012820024
110	0xba3b8509	-0.00071533077
111	0xbb83bb58	-0.004020136
112	0xba8ae3ff	-0.0010596513
113	0xb9f519aa	-0.00046749163
114	0x395f6725	0.00021305362
115	0xbad90a92	-0.0016558936
116	0x3aae4368	0.0013295235
117	0x3ac4a548	0.0015002871
118	0xba628389	-0.0008640816
119	0x3aaef575	0.0013348298
120	0xbb6ddc48	-0.0036294628
121	0xbab19c5e	-0.0013550629
122	0xbcbdb15d	-0.023155862
123	0xbba29613	-0.004961738
124	0x3aa20bbe	0.0012363119
125	0xba6a0e80	-0.0008928552
126	0x3a738d53	0.00092907733
127	0xba574dd5	-0.0008213197
