Single Battery Model/6. LSTM Models/model_B0007_combined_std.pth (torch, 395916 bytes, 7 tensors)

weight_ih_l0 f4 [512, 60]
000000 ae 12 aa bc 58 23 2f bd d7 a8 8f bc 77 f4 6d 3c
       -0.02076086 -0.042758316 -0.017536564 0.014523617
000010 fa 38 a3 bd bb 9d b8 bd c4 a3 01 bc 3c 2e 60 bd
       -0.07969852 -0.0901446 -0.00791258 -0.054731593
000020 9e a4 9d bc 93 63 52 bd 06 78 92 bc 02 c1 c2 ba
       -0.019243535 -0.051364493 -0.017879497 -0.0014858546
000030 57 ec 6e bd bf ef 54 bd c2 af a5 3d 7d 07 c9 3d
       -0.05833086 -0.051986452 0.08090164 0.098158814
000040 1f ba a8 3d 01 bf 82 bd c7 b1 10 bd 64 34 2a 3d
       0.08238625 -0.06384087 -0.03532579 0.04155387
000050 08 c7 87 3d d4 d6 8e bd f5 a3 58 3c 8d 4b 9c 3d
       0.06629759 -0.06974569 0.013222684 0.07631598
000060 bd ec 9f bc 6e 3e ca 3d ee 34 93 3d f0 db 78 bd
       -0.019522065 0.09875189 0.0718783 -0.060756624
000070 6c d1 43 bd 49 04 68 bc 15 a0 8d bd c1 b7 05 3d
       -0.047807142 -0.014161178 -0.06915299 0.032645945
000080 e4 05 99 bd 3a 17 6a bd a6 4f 1b 3d 22 d6 69 bd
       -0.07471827 -0.057151057 0.037917756 -0.05708898
000090 17 26 9e 3c 25 59 88 3d 12 d4 b9 bd b8 ab 01 bc
       0.019305272 0.06657628 -0.09073652 -0.007914476
0000a0 1a cb 49 bc 6b ec d4 bc cd d8 11 bd 0b 46 b2 bc
       -0.01231649 -0.02599164 -0.035607148 -0.021761915
0000b0 3b 79 e6 3b 31 55 78 bd de 9e 46 3d c6 bc 52 3d
       0.0070334948 -0.06062812 0.04849135 0.05144956
0000c0 9d 39 3f bd a3 73 8e bd 3e a5 b5 3d c0 79 1a bd
       -0.046685804 -0.0695565 0.08869408 -0.037713766
0000d0 83 00 8f bd 5f 7d a6 bd 85 23 24 3d 42 20 fe bc
       -0.069825195 -0.081293814 0.040072937 -0.031021241
0000e0 fd 3a bf 3d 72 98 a8 3d a2 90 67 bd a9 81 2b bd
       0.09337423 0.08232202 -0.056534417 -0.0418717
0000f0 6c 3a 88 bd 66 be b7 3d 8b 8f 9a 3d a6 74 a6 3d
       -0.06651768 0.089718625 0.0754691 0.08127718
000100 93 e2 29 39 85 0f d2 bc 0e 3e 91 3d 62 a9 e1 bc
       0.00016201501 -0.025642166 0.07091914 -0.027546588
000110 c2 49 6b 3d e8 25 e4 3c 5e 93 a3 bd 65 8e a6 bd
       0.057443388 0.027850106 -0.079870924 -0.08132628
000120 da 65 7c bd 3c 78 56 3d 06 f7 a9 3c 2c 89 95 3b
       -0.06162057 0.05236076 0.020747673 0.0045634713
000130 20 1c 6e 3d ac 4d 82 bd 59 ca b9 bd af 25 ab 3d
       0.05813229 -0.06362471 -0.09071798 0.08356797
000140 a5 d8 fb 3c 9b be a5 bd 1d 00 2d 3d 28 a1 56 bd
       0.030742953 -0.08092996 0.042236436 -0.052399784
000150 e7 b9 63 3d 2e b1 be bd 25 ac a7 3c a8 46 83 3d
       0.055597212 -0.09311138 0.020467827 0.06409961
000160 da 88 14 3c 7e 1f 4b 3b a8 aa 80 3d d6 72 29 3d
       0.009065831 0.0030994113 0.0628255 0.04136928
000170 ec 7b 11 3d ed f1 9e bd 5d 1a 78 3d 19 b8 d6 3c
       0.03551857 -0.077609874 0.060572017 0.026210831
000180 cf 17 8a bd 02 bc 62 bd 40 a0 ec 3c ad a5 8d bd
       -0.067428224 -0.05535508 0.028885007 -0.06916366
000190 33 c3 18 3d 3f 35 35 bd 52 9a fa 3b 0b 76 80 bc
       0.03729553 -0.044240233 0.007647791 -0.015681287
0001a0 2f d6 09 3d fe 9f f0 3c c7 83 8b 3d 60 5d a6 bd
       0.033651527 0.029373165 0.06812244 -0.081232786
0001b0 48 03 42 3d 97 72 9e bd af 35 74 bc b9 2e 0a 3d
       0.04736641 -0.077367 -0.014905377 0.033735964
0001c0 06 3e 6d bd 08 a3 9f 3d a2 cb bb bd 34 b0 7b bd
       -0.05792048 0.077947676 -0.09169699 -0.061447337
0001d0 71 d9 ef 3c 9a a4 b0 bd fb 50 83 bd 91 76 8d 3d
       0.029278489 -0.08625145 -0.0641193 0.0690738
0001e0 85 78 97 bc 49 ed 12 3d 45 f9 c6 3a 2d df 03 bd
       -0.018490085 0.035870824 0.0015180489 -0.03219526
0001f0 d8 cd 03 3d 3f 6a d5 bd f0 d6 4d bd 73 ef 75 bc
       0.03217873 -0.104206555 -0.05025381 -0.015010702
000200 12 dc 53 bd 6d 5b 8b bd 61 7b ad bc b1 e7 91 bd
       -0.051723547 -0.068045475 -0.021176996 -0.0712427
000210 94 39 23 bd 0e 23 42 3d d3 f3 f4 bc 4c 0f a8 3d
       -0.039849833 0.047396712 -0.02990142 0.08206043
000220 15 fb 4c 3d 32 8a e3 bb 2c ec 91 3b c4 1d 8c 3d
       0.050044138 -0.0069439644 0.0044532027 0.06841615
000230 c7 5b 9f bc e6 d1 19 bd 64 00 c4 bd 80 63 6b bb
       -0.019452943 -0.03755369 -0.09570387 -0.003591746
000240 0a 1f 27 bd a3 3a ee 3c a4 40 89 3d 4a 58 c4 bd
       -0.040801086 0.029080695 0.06701782 -0.09587152
000250 19 17 aa bc 93 dc cc 3c 38 e8 3c bd 8f 9b 92 3c
       -0.020762967 0.025007522 -0.0461199 0.017896442
000260 47 9a ac bb 0e fa 20 bd 86 6c 35 bd 35 6e da bc
       -0.0052674147 -0.03930097 -0.04429295 -0.026663879
000270 58 d1 fb 3c 3c a8 33 3d 02 66 2e 3d ff 8a 8a 3d
       0.030739471 0.043861613 0.04257775 0.06764793
000280 fe 98 3f bb de 1a 66 3d c3 bb 3f 3d 67 37 bd ba
       -0.0029235478 0.056177966 0.046809923 -0.0014436067
000290 80 c0 a8 3d 97 33 f9 3c 44 ed 16 bd 87 00 d7 3b
       0.082398415 0.030420108 -0.036847368 0.006561342
0002a0 56 d3 a9 bc 91 bd fe 3c 48 c4 a4 bd 09 3d 59 3c
       -0.020730656 0.031096252 -0.0804525 0.013259181
0002b0 6a b8 90 bd cd f7 a9 bd d6 0d d6 bc b9 6c 81 bd
       -0.07066424 -0.082992174 -0.026129644 -0.06319565
0002c0 38 67 d8 bc 99 52 10 3c 8d 3d c6 3c 7c 10 93 bd
       -0.026416406 0.008808755 0.024199272 -0.071808785
0002d0 41 86 81 bd ff 36 81 3d d8 89 4c 3d 88 64 7d bd
       -0.06324435 0.06309318 0.049936146 -0.061863452
0002e0 98 f9 6f 3d 11 d3 63 bd 94 1a 53 3d f2 92 d8 3b
       0.05858764 -0.05562121 0.05153902 0.006609314
0002f0 52 6c 68 3d fb 5d 92 bd 2d 1d a1 3d b7 82 ab bd
       0.056743927 -0.071468316 0.07866893 -0.08374541
000300 c7 ba b4 3c e8 e6 2f bd 8a 76 d5 bc 7d 9f 7c bd
       0.022061719 -0.04294482 -0.0260575 -0.061675537
000310 b4 85 a9 bd df 9f 9a 3d 48 86 32 3d 8a ae b9 bd
       -0.08277455 0.07550024 0.04358509 -0.09066494
000320 97 f4 a4 bd 46 5c 3a bd cd 9d ad bd 07 5d 69 3c
       -0.08054464 -0.045498155 -0.08477364 0.014243371
000330 cf 3f b9 3c 66 96 80 3d 25 1f 01 3d 0e 78 da bb
       0.022613434 0.06278686 0.031523842 -0.0066671437
000340 a4 6f 3c 3a c7 97 5e bb 5e 40 fd 3c 85 64 2a 3c
       0.00071882666 -0.0033964978 0.030914482 0.010399942
000350 1e 43 82 bd d5 2a 9e bb 3a 17 95 bd 49 da d7 bb
       -0.06360458 -0.0048268833 -0.07279821 -0.006587301
000360 e8 24 a3 bd b1 b5 90 3c 7f 73 54 3d 02 f7 8a bd
       -0.07966024 0.017664762 0.05186796 -0.06785394
000370 c7 9e b4 3d a6 0b 2d 3d 82 5c 9c bc 7c 03 50 3d
       0.08819347 0.042247437 -0.01908708 0.050784573
000380 e9 b1 de 3c 6b d2 88 3c 36 28 85 3d f9 f0 b2 3d
       0.027184444 0.016701898 0.0650181 0.08737368
000390 5a 97 86 3d d6 ad 80 3c ee 63 11 3d 72 33 08 bb
       0.06571837 0.015707891 0.03549569 -0.0020782617
0003a0 1e 70 1e 3d bc be 59 3d df 79 92 3d 5b 58 8b bd
       0.038681142 0.053160414 0.07152151 -0.06803962
0003b0 ce e2 85 3d bf 9c 6a 3d 5f a6 54 bc c6 a5 82 3c
       0.065374 0.05727839 -0.012979119 0.015948188
0003c0 a0 78 86 3d f8 cc 84 bd d9 a2 1e 3d bb c9 c6 bc
       0.06565976 -0.06484407 0.038729522 -0.024266114
0003d0 3d 66 c0 3d 38 30 9e 3d 36 a2 cb bc 4f 00 57 bc
       0.093945004 0.07724041 -0.024857622 -0.013122632
0003e0 9b 70 2f bd fa 89 9c 3b b5 54 75 3c b2 f5 a7 bd
       -0.042832 0.0047771903 0.014973809 -0.082011595
0003f0 62 c8 34 3d e1 40 28 bb 4a d6 e3 3c 97 f0 dc 3a
       0.044136412 -0.0025673436 0.027812142 0.0016856369

weight_hh_l0 f4 [512, 128]
000000 5e 38 8d bc 4c e7 73 bd 3e b2 87 bc c7 e1 49 bd
       -0.017238792 -0.059546754 -0.016564485 -0.049287584
000010 b8 87 89 bd f3 b8 d3 bc 21 c3 1e bc 30 4e 80 bd
       -0.067153394 -0.025845027 -0.009690077 -0.06264913
000020 10 5e 75 3d cf e3 46 3d 7c f4 b2 3d c0 80 61 bd
       0.059904158 0.0485571 0.08738038 -0.055054426
000030 8a ea a5 bd ac 92 88 3c 81 34 93 bc 39 73 47 bd
       -0.081013754 0.016671501 -0.017969372 -0.04869387
000040 04 26 b3 3d 1a b1 ac 3d 33 04 ed 3d 30 82 ab bc
       0.08747485 0.08432217 0.115730666 -0.020936102
000050 74 2d 8d bd 54 70 6a bd 95 60 59 3d 32 31 89 3d
       -0.06893435 -0.05723603 0.053070623 0.066988364
000060 cf fb 15 3d 23 e7 c9 3d 38 79 83 3d 6e 44 f3 bb
       0.036617097 0.09858539 0.06419605 -0.007423929
000070 e1 b0 cc 3c f5 9f bd 3b 85 a5 7b 3d 1c e9 3b 3d
       0.024986686 0.0057868906 0.06143715 0.045876607
000080 2b 24 89 bc b1 2d 90 bc f7 2a e1 bc b3 97 a4 bd
       -0.016740879 -0.017599912 -0.027486308 -0.08036747
000090 b9 9d 64 3c b5 8a 88 bd 0f 08 e0 3c be f2 c9 bb
       0.01395362 -0.06667081 0.027347593 -0.0061629703
0000a0 90 8a 86 3c 42 ca 8c 3d 32 47 07 3d 02 de 95 bc
       0.016423494 0.06874515 0.03302688 -0.018294338
0000b0 75 29 88 3d fd a0 09 3d f2 07 c0 bc 81 c2 01 bc
       0.06648532 0.033600796 -0.023441289 -0.0079199085
0000c0 33 a7 90 bd 0d bd 12 bd d6 72 65 bd db 7f 73 3d
       -0.07063141 -0.035824824 -0.05601772 0.059448104
0000d0 fb c1 85 3d d4 e4 b4 bd fd a4 bd 3d ce f9 94 bd
       0.065311395 -0.08832708 0.09259985 -0.07274209
0000e0 6e bd 29 3d 1d 82 77 bc ab 37 63 bd cc 12 53 3d
       0.04144042 -0.015106705 -0.05547301 0.051531598
0000f0 d8 18 54 3d e2 bf 0f 3c 1c 5b 25 bc c4 89 ab 3c
       0.051781505 0.008773776 -0.010092523 0.020939715
000100 9f 0f 8a 3d 5a 92 55 bc 78 f1 b8 3d 55 50 3d bd
       0.06741261 -0.013035381 0.090304315 -0.04621919
000110 01 28 04 bd b6 19 3c 3c b1 f7 b1 3d eb a3 8f bd
       -0.032264713 0.011480739 0.086898215 -0.07013687
000120 c8 c7 ac 3d 78 a4 67 3d e6 a7 98 bd 91 2e 41 bd
       0.08436543 0.056553334 -0.07453899 -0.04716355
000130 b3 5e 4f bd 91 de 54 3d 98 fb c4 3c c0 23 47 3d
       -0.05062742 0.05197007 0.02404575 0.04861808
000140 80 ae 88 3c bc 43 bc 3d ad 7d 42 bd 64 32 71 3d
       0.01668477 0.09192607 -0.047483135 0.058885947
000150 14 23 b2 bd 7a c0 e1 bc 5a af 53 3d 94 28 0a bd
       -0.08698097 -0.0275576 0.0516809 -0.033730105
000160 23 08 4a bc b1 e1 01 bd ba a3 7e 3d 72 34 c3 bd
       -0.0123310415 -0.031709377 0.06216786 -0.095314875
000170 b0 c6 b3 3c b3 22 7c bd 71 da a5 bd 85 5e ed 3c
       0.021945328 -0.06155653 -0.08098305 0.028975734
000180 fb 9e 59 3d 82 fe 1e bd 67 91 19 3d 3a 3b 85 3d
       0.05313013 -0.038816936 0.037492182 0.06505437
000190 7a 82 7a bd a3 bb 8f bd 33 0f 86 bd 84 f4 e6 bc
       -0.06115959 -0.07018211 -0.06545868 -0.028192766
0001a0 23 12 3a 3d ec 80 e7 bc e4 5e e8 bc 7b 05 ff bb
       0.045427453 -0.028259717 -0.02836556 -0.0077826357
0001b0 98 51 d2 3d 10 78 0f bd b3 d4 a3 bd 4c fb 9d bd
       0.10269469 -0.03502661 -0.079995535 -0.07713947
0001c0 c5 9f 5d bd 94 90 30 bd b1 ea 81 3d 16 58 25 3d
       -0.054107446 -0.04310663 0.06343592 0.04036721
0001d0 5f 18 fe bc 6c ff 5c bd 91 18 93 bb 09 83 36 3d
       -0.03101748 -0.053954527 -0.0044890125 0.04455856
0001e0 a6 6b 62 3d d9 ae 52 bd 6b 94 22 bd f4 83 2d bd
       0.055278443 -0.05143628 -0.039692324 -0.04236217
0001f0 77 b1 01 bd 68 df 70 39 d9 23 25 bd 90 d6 8a bd
       -0.031663384 0.00022971409 -0.04031739 -0.06779206
000200 61 22 51 3d e4 f8 c4 3d 9f 04 21 bd a8 16 8f 3d
       0.051058177 0.096177846 -0.039311048 0.06986743
000210 91 76 25 3d b2 6e 81 3d fa 12 e6 3b 79 9d 75 3d
       0.040396277 0.063199416 0.007021305 0.05996463
000220 bd 71 b4 3c c5 04 1e bd 44 6a af 3d 04 5b 4b 3c
       0.02202689 -0.038578767 0.085651904 0.012411837
000230 93 cb 5e 3d 02 4d 80 3d a6 18 95 3c 99 28 3d bd
       0.054393362 0.06264688 0.01820023 -0.046181295
000240 eb 7b 83 3d 02 9c 89 bd 98 a4 88 bd 3d c8 c0 3d
       0.0642012 -0.06719209 -0.06672019 0.094131924
000250 b8 6b 8c 3d 2c 77 3b bc 40 12 0a 3c 75 4b 82 3d
       0.06856483 -0.011441987 0.008427203 0.063620485
000260 b5 e8 28 bd de 15 26 bd 76 26 69 bd f8 a2 cd 3c
       -0.04123755 -0.040548198 -0.056921445 0.025102124
000270 f4 29 a9 3d 3f 7a 7d bd 39 a6 9c 3d ee da 29 bb
       0.08259955 -0.06188416 0.07648892 -0.0025917846
000280 e4 3c 3b bb fc 6f 9e bd 5d 37 a7 3d 65 eb a3 3d
       -0.002857023 -0.07736203 0.081648566 0.08003882
000290 b9 d8 0c bc 8b 19 5d 3c 58 0d 62 bd 34 78 65 3c
       -0.008596593 0.013494859 -0.055188507 0.014005709
0002a0 24 c4 a9 3d 00 c8 22 3d 3f 9d aa bc 4e bc a1 3d
       0.08289364 0.039741516 -0.020826934 0.078972444
0002b0 64 5c 1b 3d be 9b 65 3d 9e 1f 3a bd 0f bf 8f bb
       0.037929907 0.05605673 -0.04544031 -0.0043867896
0002c0 52 69 18 bc c0 b7 b9 3d aa aa 9a bd 48 04 00 bd
       -0.009302454 0.09068251 -0.07552083 -0.031254083
0002d0 f4 cb 7e bd 5c 01 b4 3d fd 34 ba bd 8e ea c4 3d
       -0.062206224 0.08789322 -0.09092138 0.0961505
0002e0 a7 e5 af 3d 30 a5 8f bd 7c 94 23 bd c1 f5 31 bc
       0.085887246 -0.07013929 -0.039936528 -0.010861815
0002f0 d6 7a 44 3d 72 95 94 3c 42 78 aa bd 0f 4c 9e 3d
       0.047968708 0.018137667 -0.083237186 0.07729351
000300 f7 4c 8e bd 14 6e 83 bc a5 7e 32 bd 25 e6 11 3b
       -0.06948274 -0.0160437 -0.04357781 0.002226242
000310 e7 a8 2d bd b2 fd 4a 3c bb 20 80 3d d8 01 6a bd
       -0.042397406 0.012389587 0.06256243 -0.057130665
000320 dd 9c 4b bb 41 fb 13 3d fc 1a 0a 3d a1 92 9e bd
       -0.003106884 0.036128286 0.03371714 -0.07742811
000330 9b b0 8e 3b b8 80 35 3d 06 59 f1 3c 8f b1 cf 3d
       0.004354549 0.04431221 0.029461395 0.101412885
000340 09 71 c9 3d 88 0b 2c bd dc d4 58 bd da 28 00 3d
       0.09836013 -0.042003185 -0.052937374 0.03128896
000350 26 05 66 3c 52 e5 99 bd e4 61 7c 3d ab b3 cb ba
       0.014039313 -0.075144425 0.061616793 -0.0015541216
000360 07 fc 9a bc 16 07 cd 3c 31 12 dd bc 98 ec 93 3b
       -0.018919004 0.025027793 -0.026986213 0.004514288
000370 74 5f 95 bd 59 3e a5 3b 98 47 ef 3c 59 3c 1a 3d
       -0.07293597 0.005042833 0.029208943 0.03765521
000380 11 a0 11 3c df f3 7a 3d cf 7e ca bc d5 07 32 bd
       0.00888826 0.06126773 -0.02471867 -0.0434645
000390 04 82 74 bc 3b 0a 05 bd 60 b8 b4 bb 14 fe 86 3d
       -0.014923576 -0.03248046 -0.0055151433 0.0659143
0003a0 13 a6 16 3d b2 08 6b 3d 5d bf 9e 3c 75 f3 2c 3d
       0.036779474 0.05738134 0.019378358 0.042224366
0003b0 37 54 2c bd 52 00 e7 bc ac 2b ee 3c fc 04 46 bd
       -0.0420725 -0.028198395 0.029073559 -0.048344597
0003c0 db 22 86 bd d4 50 87 3b 29 f8 7e 3d 82 aa 5c 3d
       -0.06549617 0.0041295085 0.062248383 0.053873546
0003d0 cb b5 5c bd 19 ab 9f bb 04 c3 9b 3c 70 2f 86 bd
       -0.05388431 -0.0048726914 0.01901389 -0.06552017
0003e0 62 e6 e0 bc aa eb 88 bd fe fc 17 bd b6 11 a4 bd
       -0.027453605 -0.06685574 -0.037106507 -0.080111906
0003f0 5f 0d b8 3d c0 9c a0 3d 0b 97 79 bd 1d e2 67 bd
       0.08986925 0.07842398 -0.06093506 -0.056612123

bias_ih_l0 f4 [512]
000000 81 cf 14 bc 94 9c 0e 3d b4 de b8 3c 55 b3 21 bd
       -0.009082676 0.034817293 0.02256713 -0.039477665
000010 06 44 1e 3d 1a 80 ac bd 4a 90 35 3d 33 3e 00 bd
       0.03863909 -0.08422871 0.044327058 -0.031309318
000020 ba 3a 98 3d b9 89 34 3c 6d ae 48 3d de a8 b8 bc
       0.07433076 0.011019164 0.04899447 -0.02254146
000030 ff 5b 9e bd 21 6e 45 bd 11 ba bb 3b ef 84 55 bd
       -0.077323906 -0.04820073 0.005728968 -0.05212873
000040 5d fe 08 3c 31 1f 80 3d 89 0d 68 bc 87 86 b9 3c
       0.008361426 0.06255949 -0.014163383 0.022647155
000050 ee 67 99 bc 64 8c 69 3d 02 d9 a5 ba 58 7b 91 3d
       -0.018726315 0.057018653 -0.0012653174 0.07103604
000060 88 99 9b 3c 27 e4 cb bc 79 9b 39 3d 0a 31 dd 3c
       0.018994108 -0.024889065 0.045314286 0.027000923
000070 04 89 16 3d c1 35 db bc be 31 c9 3b 37 b1 26 bc
       0.036751762 -0.02675903 0.006139963 -0.010174087
000080 de ce ca 3c 8a 1f 85 bc 08 b7 1f 3d d0 5b 8d 3a
       0.024756845 -0.01625039 0.03899291 0.0010784809
000090 79 eb e5 bc 40 5c 7b 3d 6c f2 b3 3d 6d 0a 09 3d
       -0.028066384 0.061367273 0.08786473 0.03345721
0000a0 53 e0 9b 3d 8d 7b 66 3d c8 62 0c 3c 60 88 a9 bd
       0.07611146 0.05627017 0.008568473 -0.082779646
0000b0 29 f0 69 bd b9 36 b7 3d d4 ed bd 3c 04 86 81 3d
       -0.0571138 0.089459844 0.023184694 0.063243896
0000c0 6a 61 e8 bc ba 9c 8d 3d 6c 10 b2 3c 3d 40 53 3d
       -0.028366763 0.06914659 0.021736346 0.051574934
0000d0 2c c9 cf 3a 33 c1 a8 3c 88 b6 e2 3b cc 9a c0 bd
       0.00158528 0.020599937 0.006918732 -0.09404525
0000e0 44 95 b5 bb 8f cd 50 bd 27 0e 4e bd 1f d4 6b bd
       -0.0055414755 -0.050977286 -0.050306465 -0.05757534
0000f0 69 02 e1 3c 7a f3 9f 3d dd 60 86 3d b4 82 25 bc
       0.02746697 0.07810111 0.06561444 -0.010101963
000100 b7 03 50 3d c7 85 83 3d db d5 c3 bc 4c 8d a4 3c
       0.050784793 0.064220004 -0.023905685 0.020086907
000110 6a 9d 85 3d d7 8a b2 bc 93 ce a3 3d 24 6b 37 3d
       0.06524165 -0.02179472 0.07998385 0.04477991
000120 67 4c bd 3c 12 e5 0e bb b0 5a 0d bd 76 93 b8 3c
       0.02310772 -0.0021804017 -0.034510314 0.022531252
000130 bc 12 97 3d 4f d0 0a bd 73 d8 81 3d 22 ac 5a bd
       0.0737662 -0.033890065 0.063401125 -0.053386815
000140 9a 75 a1 bc fe 06 dd bc b3 04 85 bd f5 c2 9e 3d
       -0.019709397 -0.026980873 -0.06495037 0.07752029
000150 d4 a4 9a 3d 1d 31 19 3d 12 1d 46 3d 2c de 99 3d
       0.0755097 0.037400354 0.048367567 0.07513079
000160 1d 05 a7 bd 81 5c 81 bd b6 0f 57 bd b1 47 74 3d
       -0.08155272 -0.06316472 -0.052505217 0.059638683
000170 ed ab 7c 3c 49 79 c2 3c 7c 93 06 3d cb 30 a3 bc
       0.01542185 0.023739474 0.032855496 -0.019920727
000180 b1 77 23 3c 84 71 45 3d d4 1d 40 3d 03 8e ab 3d
       0.009977267 0.04820396 0.046903446 0.08376696
000190 d3 af 68 3d 62 d9 a3 bd 88 65 e8 bc ec ad 2b bd
       0.056808304 -0.08000447 -0.028368726 -0.04191391
0001a0 24 76 9f bd 2e c8 50 3d 4e 2d be bc 34 92 2c 3d
       -0.077862054 0.050972156 -0.023214962 0.042131618
0001b0 dd 0b 05 ba 86 4b 5d bd 43 dc 69 bd e6 7a 90 bd
       -0.0005075315 -0.054027103 -0.057094824 -0.07054691
0001c0 fc 61 a6 bd f2 09 96 bd 96 16 ca bd b2 84 a2 3d
       -0.08124158 -0.07326116 -0.09867589 0.07935466
0001d0 35 29 0b 3c 02 39 40 3d 32 1f 29 3d ef c7 d9 3c
       0.008493711 0.046929367 0.041289516 0.026584594
0001e0 37 05 62 bd 0a 9e 7b bd 2f 93 ad bd b6 aa 80 bd
       -0.055180755 -0.061430015 -0.08475339 -0.062825605
0001f0 33 fd c9 3c c3 1e 64 bd 14 0c 96 bd eb a0 9a bc
       0.024656868 -0.0556934 -0.073265225 -0.01887556
000200 aa 34 39 bd d2 aa f1 bc 05 cc 9a bd 1a bc 89 3d
       -0.04521624 -0.029500399 -0.07558445 0.06725331
000210 40 5c 57 bd 5f cf 2b bd 9e 62 72 bd 59 78 ad 3d
       -0.05257821 -0.04194581 -0.05917608 0.0847022
000220 9a 8f 1b 3c 31 03 89 bd d7 61 7d bc d6 48 83 bd
       0.0094946865 -0.06690062 -0.015465221 -0.06410377
000230 81 3b b7 bc d1 f2 f7 3c 73 30 ab bc 13 d6 ee 3d
       -0.02236724 0.030267151 -0.020897126 0.11661925
000240 d5 fe f5 bc d1 1c 8b bd 85 68 0e bd 8d ec ae 3b
       -0.03002874 -0.06792606 -0.034767646 0.0053382576
000250 6e dd 14 bd 2a de a5 bd 8e 78 5a 3d 00 7c 95 3d
       -0.036343984 -0.08099015 0.053337626 0.07299042
000260 d2 fe 19 bd c3 e9 4f bc bb 45 7d 3c 6e a1 14 3d
       -0.03759653 -0.0126900105 0.01545852 0.036286764
000270 23 ec 69 bd d9 7b 80 bd 43 f1 d6 bc 4f 2e 42 bc
       -0.057109963 -0.06273622 -0.02623809 -0.011851861
000280 d2 14 9a 3b 01 0f 4f bc 17 26 9f bd 5e 74 5c 3b
       0.004702189 -0.012637855 -0.07770937 0.0033638696
000290 80 a9 fe bb d8 d3 b9 3c 26 c2 fa 3b ad ce e2 bc
       -0.007771671 0.022684023 0.007652539 -0.027686441
0002a0 e1 f6 8e bd 9b fd 43 3b 79 03 e1 3c 89 f9 27 bd
       -0.06980682 0.00299058 0.027467476 -0.04100946
0002b0 8c 1a 40 3d 01 34 81 3d 0a 4c 25 3d 3e b1 b5 3c
       0.046900317 0.06308747 0.04035572 0.022179242
0002c0 44 20 02 bd 63 cc 0e 3c f0 30 bd bd 8f 43 02 bd
       -0.031769052 0.008715722 -0.0923785 -0.03180271
0002d0 bc 54 ad 3c 97 6e c1 3c 75 c6 95 bc 66 14 ae bd
       0.021158569 0.023612304 -0.018283108 -0.084999844
0002e0 7a 86 98 3d 12 d7 03 3d 23 51 95 3d bd bd 18 3d
       0.07447524 0.03218753 0.07290866 0.037290324
0002f0 41 a2 08 bd c7 ef 92 bd 87 a3 cd 3b 25 c8 9d 3d
       -0.033357862 -0.0717464 0.0062755975 0.0770419
000300 d8 0c 95 3d fd 3d 3a 3d 77 90 0b bd c4 ba 38 3d
       0.072778404 0.045469273 -0.03407332 0.04509999
000310 f3 83 79 3d 67 ef 89 3d 2a 41 81 3d 56 c3 43 3c
       0.060916852 0.067351155 0.06311257 0.011948427
000320 d2 36 98 bd b6 4d 0b bc 4e f1 86 bd 4a 0e 0b 3d
       -0.07432331 -0.008502414 -0.06588994 0.033949174
000330 29 8d 86 bd 7e 42 8a bd 8e 33 57 bb 83 b2 aa 3c
       -0.06569893 -0.06750964 -0.0032837125 0.020837074
000340 e7 91 37 3c b6 36 12 3c 99 ba a7 3c 19 ef 29 bc
       0.011204219 0.008924177 0.020474719 -0.010371947
000350 33 f7 a4 bc e4 fd a3 ba 88 95 ae 3d 22 15 7e 3d
       -0.020137405 -0.0012511578 0.085246146 0.062031873
000360 13 75 a4 3d f2 f2 50 3d 6c 27 25 3c dc e5 27 bd
       0.08030143 0.05101294 0.0100802 -0.040990695
000370 52 27 6b bd 95 e8 b1 bd 2c 30 db bc 4f 3b 85 bd
       -0.057410546 -0.086869396 -0.026756369 -0.06505453
000380 48 ea 13 3c b6 4b 75 3d fd 0d 6d bd bc 2c 7c 3c
       0.009028025 0.059886657 -0.05787467 0.015391525
000390 58 20 64 3d e7 e2 38 3d 5e 2a 8c 3a 9c c0 b9 3d
       0.055694908 0.045138266 0.0010693779 0.090699404
0003a0 00 2a 54 bd ca 07 53 3c 43 90 af bd 62 c5 78 bc
       -0.051797867 0.012880275 -0.085724376 -0.0151837785
0003b0 ac 21 d9 bc a3 bd 4e bd 2c 58 e4 3c d5 3f cc 3b
       -0.026505314 -0.05047382 0.027874075 0.0062331953
0003c0 85 c9 7d 3c 77 77 5e 3b eb 38 e6 bc 25 29 df 3d
       0.0154899405 0.0033945718 -0.028103312 0.108965196
0003d0 bc cd 8b 3d c5 24 fb 3c d1 96 54 bc 56 14 45 3d
       0.0682635 0.030657182 -0.012975411 0.048115097
0003e0 82 ce 15 bd 73 51 88 3d 75 4d 8e 3c bc b4 b2 bd
       -0.036573894 0.0665616 0.017370919 -0.087258786
0003f0 58 cb 42 3d 34 c7 3a bd 75 66 80 3d 1e 86 ff bc
       0.047557205 -0.04560013 0.06269542 -0.031191882

bias_hh_l0 f4 [512]
000000 1a 8d 78 3d 24 e6 93 3b 72 65 88 3d 75 75 db 3b
       0.06068144 0.004513519 0.06659974 0.0066973516
000010 44 53 aa 3b bc e8 9c bd 73 90 d1 3d 52 77 0a 3d
       0.0051979143 -0.07661578 0.102326296 0.0338052
000020 f9 ff 44 bd fc 7d 4e 3d 3b 1e 76 3d 94 a9 c4 3d
       -0.048095677 0.050413117 0.060087424 0.09602657
000030 0c 51 ef bc 61 d0 07 3d 9b 88 2f bd c6 d3 e0 3a
       -0.02921345 0.03315771 -0.042854887 0.0017152957
000040 eb 23 2f 3d ae 74 85 bd 0f af 9c bc 80 68 78 3c
       0.042758863 -0.065163955 -0.019126443 0.0151616335
000050 5d 77 52 3d 5b ca a2 bc 07 1e 2c bd 34 07 63 bd
       0.051383365 -0.019871881 -0.042020824 -0.05542679
000060 ad 5e 4a 3d 11 bf f8 3c f0 7b da 3d 36 a6 b6 bc
       0.049406696 0.030364545 0.106681705 -0.022296052
000070 f0 d2 56 bd 8b 1c 25 bd fa da 83 3d a1 b6 97 bd
       -0.05244726 -0.040310424 0.06438251 -0.074078806
000080 c2 45 98 3d 80 2c 6f ba 87 2a 3d bd cd 26 19 bd
       0.0743518 -0.00091237575 -0.046183135 -0.03739052
000090 8d fe 1b 3d 40 86 6a 3d ec 0f 8a 3d b4 c3 bc 3d
       0.038084555 0.057256937 0.06741318 0.09217015
0000a0 4e 39 2b bc 7f 3c 49 3a bf 04 4b bd 21 56 23 bd
       -0.010450674 0.0007676556 -0.049565073 -0.03987706
0000b0 f7 2e 4e 3d 4b e8 aa 3d 3c 7e 92 bd ee a3 ae bc
       0.050337758 0.083450876 -0.071529835 -0.021318402
0000c0 af b7 7c bd a8 35 41 bc 67 96 e6 3c 41 9a 20 bc
       -0.06169861 -0.011792578 0.02814789 -0.009802402
0000d0 00 f6 ba bd ab fa eb bb 0f b6 2c bd ad a0 5e 3d
       -0.09128952 -0.007201513 -0.042165812 0.05435245
0000e0 74 77 2c 3c 0b db 1d 3d cf 12 a8 bd d3 40 30 3b
       0.010526527 0.038538974 -0.082067125 0.0026894107
0000f0 5b f3 24 bd f2 4a 58 bd 8b f4 73 3d b6 34 db 3b
       -0.040271144 -0.05280585 0.059559386 0.0066896332
000100 7e 05 77 3d 0f d3 bc bd c1 6b 41 3c 15 11 af bd
       0.060307972 -0.09219944 0.011805476 -0.0854818
000110 ce 2c 3d 3d e3 ca b1 3d 7f 82 e2 bc a7 3d 57 3b
       0.046185307 0.08681276 -0.027650116 0.0032843144
000120 11 c8 8b 3d 3f 30 a8 3c 92 52 34 bd ef 60 79 3d
       0.06825269 0.020530818 -0.044024058 0.06088346
000130 0f 9a 84 3d 00 17 af 3d b2 7a d7 3c 73 38 39 bd
       0.06474697 0.08549309 0.026303623 -0.04521985
000140 fc 48 5f bd 12 e8 b0 bc b1 4e 2b bb 14 47 43 3c
       -0.054512963 -0.021595035 -0.0026139433 0.011918802
000150 5e 41 84 bb 37 56 40 3d 12 5e 8c bc 9c 37 4f 3b
       -0.0040361127 0.04695722 -0.0171347 0.003161884
000160 44 54 9f bd e2 73 34 bd 2f e6 8c 3d ad 95 6a 3d
       -0.07779744 -0.044055827 0.068798415 0.05727165
000170 8c 35 b2 3c 15 55 89 bd 77 c0 54 3d c0 07 44 3d
       0.021754049 -0.06705681 0.05194136 0.047858953
000180 3c e3 a8 3d ea b8 ce 3d d6 b6 9e 3d 26 da b0 3a
       0.082464665 0.10093863 0.07749717 0.0013492748
000190 d5 2b 54 bc e5 b0 e1 3c 12 fd 9b bd f0 99 07 bd
       -0.0129499035 0.02755017 -0.07616629 -0.03310579
0001a0 0a bd 8e 3d 5f 69 9f bd 1a a8 5b bd c0 46 b2 3d
       0.0696965 -0.0778377 -0.05362711 0.08704901
0001b0 bf c3 91 3d d4 9f 41 bd d6 c4 b1 bc e0 76 96 3a
       0.07117414 -0.047271565 -0.021700304 0.0011479519
0001c0 c4 c2 7e bd c5 3c f8 3b 33 21 75 bd 11 73 69 3d
       -0.06219746 0.0075756037 -0.059846114 0.0569945
0001d0 17 1c 86 3d 14 4c 2e 3d 9b 88 c1 bd 37 ea 90 bd
       0.065483265 0.042553023 -0.094498836 -0.07075923
0001e0 88 1e 93 3d db 9f 05 bc f2 06 4b bd dc b7 28 bd
       0.07183558 -0.008155788 -0.04956717 -0.041190967
0001f0 24 81 b7 3d ae 3b 74 bd ee 24 9c 3d c1 e0 64 bd
       0.089601785 -0.059627227 0.07624231 -0.055878405
000200 9a 9b 38 bb 10 8e 88 3c 32 78 a2 3d 84 47 a1 bc
       -0.0028168918 0.016669303 0.07933082 -0.019687422
000210 78 99 aa 3c d9 7c dd bc dc 70 63 3d fc 8e 53 3d
       0.020825133 -0.027037071 0.055527553 0.051650032
000220 37 5a 1b bd 7d 1a 12 bd 4d db 91 bd 19 a2 1e 3d
       -0.037927832 -0.035669792 -0.071219064 0.038728807
000230 a2 4a 98 bd 7d 37 27 3d c7 cc 4b bd be 68 b0 3d
       -0.0743611 0.040824402 -0.049755838 0.08613728
000240 f3 9c 87 3d 6e 67 fd bc 32 e5 81 3d c0 bb 81 bd
       0.066217326 -0.030933108 0.06342544 -0.063346386
000250 f6 40 5e 3d e5 1d 42 b9 4a d3 ac bd 6f b0 99 bc
       0.05426117 -0.00018512418 -0.08438738 -0.018760888
000260 13 74 9f 3d 60 57 60 bd da 74 7d bc 05 53 ba bc
       0.07785811 -0.054770827 -0.015469754 -0.022744665
000270 f1 d5 a7 bd 6a 1c 59 3c 88 c5 8b bc 4e 0a 8a 3a
       -0.08195103 0.013251403 -0.017061964 0.0010531635
000280 59 c8 48 bc b0 66 a8 bc 59 68 b3 3c 18 11 67 3d
       -0.012254798 -0.020556778 0.021900343 0.056412786
000290 bd 1f 48 ba e1 8a b4 3d a6 e9 4d bc 4a 8f 4b 3c
       -0.0007634124 0.088155515 -0.012567913 0.0124242995
0002a0 5a be 61 3d a3 65 55 3b 89 e1 7a bd 60 4a 2f 3d
       0.055113174 0.00325618 -0.061250243 0.04279554
0002b0 70 42 13 bd f9 c0 9b 3c 71 61 9a bd 3e f3 75 3a
       -0.03595203 0.019012915 -0.07538117 0.0009382254
0002c0 46 43 a1 bd 19 d9 ac bc 81 cc c1 bb e2 f7 8c 3d
       -0.078741595 -0.021099614 -0.0059142713 0.068832174
0002d0 99 a6 88 bd a0 ba 2b 3d eb b6 b5 bd 6e 28 aa 3d
       -0.06672401 0.041926026 -0.088727795 0.083084926
0002e0 9c 5e 39 bd 58 8a 6a bd d4 3f 94 bd 65 90 94 bc
       -0.045256242 -0.05726084 -0.07238737 -0.018135259
0002f0 fc ee 98 3d 21 25 64 bd f1 f1 87 bd 0b 81 8e bd
       0.07467458 -0.05569947 -0.066379435 -0.06958207
000300 44 4b 9d 3d 35 a8 1e 3d d4 90 9c 3c 14 ec e2 3b
       0.076803714 0.038734633 0.019112028 0.0069251154
000310 b5 ab a0 3d f2 a3 fc bc 5f 97 9b bb d0 62 af bd
       0.078452505 -0.030839894 -0.0047482694 -0.08563769
000320 83 9b 1d 3c 78 d1 60 3d d7 40 0a 3c 4d 1f e8 bc
       0.009619596 0.054887265 0.008438311 -0.028335238
000330 98 c4 2f 3d c2 4a 51 3d c5 66 7e bd 7f 52 e7 3c
       0.042912096 0.051096685 -0.062109727 0.02823758
000340 0a b9 a3 bd ee bb f6 bc e6 a4 41 bd c4 33 c4 3c
       -0.07994278 -0.030118909 -0.0472764 0.023950465
000350 3b 57 25 3d 9a d4 19 3d ec c0 d0 3d 82 e1 48 3d
       0.040366393 0.03755627 0.10193047 0.049043186
000360 93 1c ad bb 48 c7 bb 3d 86 e3 81 bd a3 f3 6c bc
       -0.0052829473 0.09168869 -0.06342225 -0.014462384
000370 e5 b7 91 3b a8 7a 3a 3d 24 a0 98 bb b7 76 a0 3c
       0.0044469708 0.04552713 -0.004657762 0.019587858
000380 fd f6 02 bc 0e 51 04 bd b1 3d 1f bd 6f 35 fc bc
       -0.007993457 -0.032303862 -0.038877193 -0.030787198
000390 05 c5 46 bc f2 79 8c bd 65 a7 42 3d 58 84 b7 3d
       -0.012131934 -0.06859197 0.04752292 0.089607894
0003a0 34 29 bb 3c 13 00 a0 bd 66 1e 14 bd 8d db 99 bd
       0.022846796 -0.07812514 -0.036161803 -0.07512579
0003b0 42 ef 62 bd 7a 9c 82 bd 2b a7 c4 bb ac bd 67 bc
       -0.055403955 -0.06377502 -0.0060013733 -0.014144342
0003c0 10 f3 01 bd 99 79 ac 3d 38 a6 b3 3b 49 4f 96 3d
       -0.031725943 0.084216304 0.0054824613 0.07339341
0003d0 29 49 5e 3d 2f d8 8d bd 82 ee 73 3d 67 58 19 bd
       0.05426899 -0.069259994 0.05955363 -0.037437823
0003e0 bf 90 9e 3d a9 15 a4 3d 2f 1a 23 bc f0 5c a3 bd
       0.07742452 0.08011944 -0.009954973 -0.07976711
0003f0 62 a4 ea bb 3c a6 70 3d 33 24 b8 bd 20 78 86 bd
       -0.0071607092 0.058752283 -0.089912795 -0.06565881

weight f4 [1, 128]
000000 5f 29 43 3d ea 68 2e 3d f2 82 96 bd 5d 3d 5d 3d
       0.047646876 0.042580523 -0.073491946 0.0540136
000010 f6 74 61 bb f6 bc 9e bd 88 2d 62 ba 39 f0 25 3d
       -0.003440199 -0.07750885 -0.00086280005 0.040512297
000020 19 29 bc 3c 1a 4c 83 bd a4 af 57 3c a8 82 a8 3d
       0.022968816 -0.064109996 0.013164435 0.08228046
000030 bc 2c c5 bc 32 d1 5d bd 00 7b 42 bd 40 6c cb 3c
       -0.024069183 -0.054154582 -0.047480583 0.024831891
000040 09 dd 91 3d 66 cd 13 3d 4c 19 5d bd 88 14 89 bb
       0.07122237 0.036084555 -0.053979203 -0.0041833557
000050 3b 1e 01 3c 96 9a 8f bd 92 6b 6b bd b8 e0 09 bd
       0.007880743 -0.07011907 -0.057475634 -0.033661574
000060 61 8c 67 3d 5a d6 b2 3c 21 15 ad 3c e3 91 95 3c
       0.05653036 0.021830726 0.02112824 0.01825804
000070 cf 54 9c bd 8e 7d 53 bd 60 b8 1b bb a0 c3 2b bd
       -0.076333635 -0.05163341 -0.002376102 -0.04193461
000080 04 c8 33 3d 73 17 14 3c a8 c1 73 bd bd c1 9f bc
       0.04389192 0.009038794 -0.059510857 -0.019501561
000090 21 9c af 3d 85 dc 1d bd 75 69 23 3c f5 7a 25 3d
       0.08574701 -0.038540382 0.009973873 0.040400464
0000a0 6c f8 d5 bc 37 03 9e 3d 72 46 7e 3d 1e 8b 50 bc
       -0.026119433 0.07715457 0.0620789 -0.012728481
0000b0 bb 73 65 bc a4 b9 29 bd ba 94 5d bd 04 31 ae bd
       -0.014004643 -0.041436806 -0.054096915 -0.08505443
0000c0 21 a2 38 3d c0 71 92 bd c3 24 8a 3d fe d1 73 bc
       0.045076493 -0.07150602 0.06745293 -0.014881609
0000d0 63 d7 37 bd d7 db 52 bd ab d9 82 3d fb a3 0c 3d
       -0.044883143 -0.051479187 0.06389173 0.03433607
0000e0 ff 81 a2 3d 44 e2 11 bd 77 eb 92 3d ce 66 96 bd
       0.07934951 -0.035616174 0.071738176 -0.07343827
0000f0 b7 36 35 3d 29 23 3b 3d c8 b7 46 bd c0 95 6c bd
       0.044241633 0.04568783 -0.04851511 -0.05776
000100 a8 3f 3b 3d f4 b2 63 3d 01 ea 4f 3d d9 bf a7 3d
       0.045715004 0.055590585 0.050760273 0.08190889
000110 37 36 ee 3c 2e 58 7f 3c 16 8d c0 ba dc 5c 6b bd
       0.029078586 0.0155849885 -0.0014690484 -0.057461604
000120 22 68 66 3c 85 0a 98 bd 4b 78 35 bd 70 39 a7 3a
       0.014062913 -0.074238814 -0.044304173 0.0012758207
000130 61 94 d9 39 bf 08 0a 3c 70 c9 83 3c 25 47 2c 3c
       0.00041500016 0.008424937 0.016087264 0.010515009
000140 ef bd 49 3c b5 a7 8e bd e2 b9 8e bc 2c 23 bc bc
       0.01231335 -0.06965581 -0.01742262 -0.02296599
000150 8a fa 14 bc 9e af e4 3c 42 0f 10 bc c1 e9 8c bc
       -0.009092936 0.027915772 -0.0087927 -0.017201306
000160 4e a3 5c bc db 46 fe ba ce fa 30 3d 9c 9d 5f bd
       -0.013466669 -0.0019399779 0.043207936 -0.054593667
000170 19 21 c9 bc 6c 5b 6b 3d a9 77 58 bd 30 53 88 bd
       -0.024551915 0.057460234 -0.05284849 -0.06656492
000180 74 95 76 3b 75 53 0d 3c c6 bc fe bc d7 1b c9 3c
       0.0037625702 0.008625855 -0.031095874 0.024549408
000190 19 5e 46 bb e7 73 98 bd 40 5a a0 bb be 29 56 3c
       -0.003026849 -0.074439816 -0.004893571 0.013071476
0001a0 2a dd 66 3d b2 94 93 3d cc d1 8c bd e9 22 1d bd
       0.056363262 0.07206096 -0.06875953 -0.03836337
0001b0 8b 78 7e 3b 38 e9 68 bd f7 b5 2b bd 14 ed 87 3d
       0.0038829173 -0.05686304 -0.041921582 0.06637016
0001c0 a0 2b 67 3d d2 d1 13 3d d7 58 42 3d 94 0d 27 3c
       0.05643809 0.036088772 0.047448006 0.010196108
0001d0 d5 b5 5f 3d e1 68 83 bd d4 35 21 bd 51 bc 4b 3d
       0.054616768 -0.064164884 -0.039357975 0.04974014
0001e0 77 89 a3 3d 13 d4 b3 bc 39 93 65 3c 97 80 15 3d
       0.07985204 -0.02195171 0.014012151 0.036499586
0001f0 4a f4 c4 bc a9 cc a9 3d 07 c9 99 bd ca 8b d3 bc
       -0.024042267 0.08290989 -0.07509046 -0.025823493

weight f4 [128]
000000 31 4d 7e 3f 0a ac 7e 3f c1 db 7d 3f da 41 7f 3f
       0.99336535 0.9948126 0.9916344 0.99709857
000010 88 5a 7d 3f e3 d5 7f 3f ce 09 79 3f e9 b6 7e 3f
       0.98966265 0.9993574 0.97280586 0.9949785
000020 f1 62 7f 3f f5 77 7d 3f ec 5f 7e 3f 89 23 81 3f
       0.9976035 0.99011165 0.99365115 1.008897
000030 d9 fb 7b 3f e0 f8 7e 3f 30 1e 7f 3f 07 56 80 3f
       0.98431164 0.99598503 0.9965544 1.0026253
000040 25 26 7c 3f 92 1f 7d 3f a2 3c 80 3f 91 2b 79 3f
       0.98495704 0.988763 1.0018504 0.973321
000050 f5 72 7e 3f b7 4c 7f 3f 9b 2d 80 3f 30 8e 7d 3f
       0.9939416 0.9972643 1.0013918 0.99045086
000060 c1 0d 7d 3f 67 a3 7f 3f b5 c1 7f 3f 62 34 7f 3f
       0.9884911 0.9985871 0.9990495 0.99689305
000070 71 26 7f 3f d6 85 7c 3f c5 5d 7c 3f b2 56 7e 3f
       0.9966803 0.9864172 0.9858058 0.99351037
000080 4c 20 7f 3f b0 5d 7f 3f ac ea 7d 3f 8d 6a 7d 3f
       0.99658656 0.9975233 0.99186206 0.9899071
000090 87 58 7f 3f 08 92 7f 3f 6c 36 7f 3f cd 97 7f 3f
       0.99744457 0.998322 0.99692416 0.99841005
0000a0 e4 69 7f 3f 50 06 7f 3f ce e1 7d 3f ca 6f 7e 3f
       0.9977095 0.9961901 0.99172676 0.99389327
0000b0 ca 5b 7e 3f e7 c5 7f 3f 9a 4e 7e 3f ad 4c 7f 3f
       0.9935881 0.9991135 0.99338686 0.9972637
0000c0 a0 61 7e 3f 05 bd 7e 3f 34 18 7c 3f d5 45 7f 3f
       0.99367714 0.9950717 0.9847443 0.9971593
0000d0 14 b8 7d 3f 97 8a 7e 3f 4a 25 7f 3f 8b 3c 7d 3f
       0.99109006 0.9943022 0.99666274 0.98920506
0000e0 d8 13 7e 3f ab 47 7e 3f 89 f2 7d 3f 10 d4 7d 3f
       0.9924903 0.99328107 0.99198204 0.99151707
0000f0 06 7f 7e 3f ca c5 7f 3f 1a 59 80 3f 6c a8 7f 3f
       0.9941257 0.9991118 1.0027192 0.99866366
000100 e8 70 7d 3f 02 78 7d 3f 7c c7 7c 3f 78 9c 7f 3f
       0.99000406 0.9901124 0.9874189 0.9984813
000110 e3 40 7e 3f 63 47 7e 3f 0f 1e 78 3f d9 4e 7e 3f
       0.9931776 0.9932768 0.96920866 0.9933906
000120 e6 1b 7d 3f ff 55 7d 3f ab 5e 7d 3f 11 4d 7b 3f
       0.98870695 0.98959345 0.98972577 0.9816447
000130 4c cb 7a 3f 86 ed 7d 3f 0d a9 7e 3f 17 e8 7e 3f
       0.97966456 0.99190557 0.994767 0.9957289
000140 ba 04 7e 3f f3 ce 7c 3f 78 c0 7c 3f 16 04 80 3f
       0.9922596 0.9875328 0.98731184 1.0001247
000150 52 a5 7b 3f f6 22 7f 3f 30 63 7f 3f 99 d3 7b 3f
       0.98299134 0.9966272 0.99760723 0.9836975
000160 5b d4 7e 3f 65 50 7b 3f 39 bd 7a 3f a4 a4 7f 3f
       0.9954278 0.9816955 0.9794498 0.99860597
000170 b0 b9 7f 3f 97 22 7d 3f 5a 1d 80 3f ba 7a 7f 3f
       0.9989271 0.98880905 1.0008957 0.9979664
000180 e6 6f 7d 3f ac 6a 7d 3f 53 95 7f 3f af 49 7f 3f
       0.9899887 0.98990893 0.99837226 0.9972181
000190 02 a6 78 3f 8e 40 7e 3f 09 aa 7d 3f 12 5e 7e 3f
       0.9712831 0.9931725 0.9908758 0.9936229
0001a0 de 8d 7e 3f cc cf 7e 3f 8d cb 7c 3f da 18 80 3f
       0.9943522 0.9953582 0.98748094 1.0007584
0001b0 56 34 7c 3f 89 7c 7e 3f aa 8e 7e 3f e9 0a 7f 3f
       0.9851736 0.99408776 0.9943644 0.9962602
0001c0 70 14 7d 3f 0c 6d 7e 3f 21 0a 7e 3f d1 c1 7e 3f
       0.9885931 0.9938514 0.99234205 0.9951449
0001d0 0b 76 7f 3f 2b 05 80 3f 16 5b 7c 3f 04 c1 7d 3f
       0.99789494 1.0001577 0.98576486 0.99122643
0001e0 01 e7 7f 3f 92 20 7d 3f e1 c6 7e 3f 87 d3 7b 3f
       0.9996186 0.98877823 0.99522215 0.9836964
0001f0 5f af 7e 3f c3 f1 7e 3f 9b e2 7f 3f 92 08 80 3f
       0.99486345 0.9958765 0.9995515 1.0002615

bias f4 [128]
000000 98 6b 2e 3b 0b 07 ea 3a 2a 9d 13 bb ad 6a ed 3a
       0.0026614424 0.0017854882 -0.0022524097 0.0018113457
000010 27 f7 e1 3a 59 76 08 bb 93 7b d7 3b 1c 06 26 3b
       0.0017239795 -0.0020822494 0.0065760105 0.0025333231
000020 36 d0 8d 3a 97 a1 1d bb 8d 93 be 3a a9 ef 16 3b
       0.0010819498 -0.0024052614 0.0014539823 0.0023031032
000030 5a 1a 14 bb 2e 98 2d bb 71 ae 29 bb ce bd 18 3b
       -0.0022598715 -0.0026488411 -0.0025891329 0.0023306492
000040 f4 ff 15 3b 73 d3 47 3b 0d 94 21 bb d7 ee b9 3b
       0.0022888156 0.0030491024 -0.0024654896 0.005674224
000050 03 2e 51 3b ef 06 1b bb d5 b4 04 bb 32 f6 3e bb
       0.0031918294 -0.0023655256 -0.0020249386 -0.0029138443
000060 9b 6c 25 3b 36 42 d1 3a 0a 86 05 3a e7 c5 66 3b
       0.0025241736 0.0015965167 0.0005093521 0.0035213174
000070 61 25 1b bb 4a 55 1c bb 72 2e f3 b7 70 e8 f6 ba
       -0.0023673403 -0.0023854547 -2.8989485e-05 -0.0018837582
000080 b7 f1 26 3b 44 bc ba ba d8 5c 04 bb 7b 10 73 bb
       0.0025473663 -0.0014246781 -0.002019694 -0.003708868
000090 ac d2 14 3b f2 a0 d9 ba f7 ed 86 38 99 6f 38 3b
       0.0022708578 -0.0016603752 6.433942e-05 0.002814269
0000a0 14 aa f0 ba 69 93 24 3b 1c 08 24 3b a5 71 42 bb
       -0.0018361234 0.0025112277 0.0025029248 -0.0029669788
0000b0 0c a1 b1 ba 18 6f 06 bb 6c 2f 23 bb 10 d9 0d bb
       -0.0013552024 -0.0020512994 -0.0024900092 -0.0021644272
0000c0 e9 99 f7 3a 15 48 14 bb a7 1b 04 3b b0 f2 ab bb
       0.0018890473 -0.0022625972 0.0020158084 -0.0052474365
0000d0 50 84 1a bb 3f 0b 28 bb cd 2e 0b 3b f6 75 20 3b
       -0.00235774 -0.0025641469 0.0021237612 0.0024484373
0000e0 a8 47 10 3b 30 30 2d bb e2 2f 27 3b 1d d5 17 bb
       0.0022015367 -0.0026426427 0.0025510718 -0.0023167797
0000f0 0f 55 1e 3b c8 3a 22 3b c8 06 04 bb 98 43 2b bb
       0.0024159586 0.0024754275 -0.0020145644 -0.0026132818
000100 1d 2c 40 3b cc 65 25 3b e9 23 04 3b 90 b9 07 3b
       0.0029323169 0.0025237678 0.0020163006 0.002070997
000110 9c ba 0e 3b 65 f0 8d 3a 94 b8 aa bc 3e 38 17 bb
       0.0021778708 0.001082909 -0.020839967 -0.0023074294
000120 9e 8e 80 3b 23 41 09 bb 15 23 00 bb a3 cc 34 3c
       0.0039232513 -0.0020943366 -0.001955216 0.011035117
000130 88 cb 1b bc 5d bf 6c 3b 83 9b 33 3b 56 51 96 3a
       -0.009508975 0.0036124804 0.0027405925 0.0011468332
000140 5a e4 be 3a ee 31 0d bb 4d bb b1 ba d8 1e 8a ba
       0.0014563904 -0.0021544653 -0.0013559848 -0.0010537757
000150 13 a7 a3 bb 8d 1b 0b 3b 4e ae 9d b8 65 82 c9 ba
       -0.004994282 0.0021226138 -7.51881e-05 -0.0015373944
000160 dd 5f c3 ba 47 ae 90 bc 6d d8 12 3b 44 ca 14 bb
       -0.0014905889 -0.017661227 0.0022406832 -0.0022703568
000170 03 bc d7 ba 38 80 11 3b cc 8d 0e bb ac 9e 0b bb
       -0.001645923 0.0022201668 -0.0021751998 -0.0021304293
000180 e9 af ed bb d5 f0 0b 3c 92 ea 1a bb 98 0d b8 3a
       -0.007253636 0.008541306 -0.002363835 0.0014042137
000190 f1 9d 11 3b 03 15 11 bb 27 f5 69 ba 6f 40 8f 3b
       0.0022219385 -0.0022137768 -0.0008924775 0.0043716948
0001a0 d8 72 fd 3a 38 07 16 3b 86 d5 1a bb 21 07 ec ba
       0.0019336594 0.0022892486 -0.0023625805 -0.0018007496
0001b0 3f 01 68 39 29 05 06 bb 7c 5b 08 bb ae b1 07 3b
       0.00022125708 -0.0020449853 -0.0020806482 0.002070527
0001c0 58 f2 04 3b 0c 0c 23 3b 40 32 f9 3a 54 d0 23 3b
       0.002028605 0.0024879007 0.0019012168 0.0024996
0001d0 44 41 f2 3a 06 ad 00 bb 56 f2 0d bb 68 41 24 3b
       0.0018482585 -0.001963438 -0.0021659336 0.00250634
0001e0 93 57 0a 3b 94 1f af ba 11 58 42 3a 45 27 03 3b
       0.0021109327 -0.0013360851 0.00074136356 0.002001242
0001f0 c5 86 00 bb 68 b6 1d 3b 5a de 18 bb ee f4 ca ba
       -0.001961158 0.0024065021 -0.0023325891 -0.0015484372
