Single Battery Model/6. LSTM Models/model_B0006_charge_rob.pth (torch, 334388 bytes, 7 tensors)

weight_ih_l0 f4 [512, 30]
0	0xba7f705b	-0.00097442203
1	0xbd846b5f	-0.06465792
2	0xbd90a370	-0.07062423
3	0x3c5cd724	0.013479028
4	0xbd49e538	-0.049290866
5	0x3c0851b2	0.008320259
6	0x3d4bc2d9	0.049746368
7	0x3d0da6dd	0.03458296
8	0x3c187301	0.009304763
9	0xbd8b5784	-0.06803802
10	0x3d6ece59	0.058302257
11	0x3da49a88	0.08037287
12	0x3d94a211	0.07257474
13	0x3d42143b	0.047382575
14	0xbbe135ff	-0.006872892
15	0xbd1a1093	-0.037613463
16	0xbc62b1ea	-0.013836363
17	0x3d10fba4	0.035396233
18	0x3d7ce6a8	0.06174341
19	0x3d34e090	0.044159472
20	0xbd717158	-0.058945984
21	0xbd9eccca	-0.07753904
22	0x3d45371a	0.048148252
23	0x3d35a67c	0.044348225
24	0xbd34ef4b	-0.04417352
25	0xbc1a0809	-0.00940133
26	0xbd8e50d3	-0.0694901
27	0xbd3c10a2	-0.0459143
28	0xbc6f0897	-0.01458945
29	0xbd027734	-0.031851962
30	0xbd9fd4ab	-0.07804235
31	0xbd77bf85	-0.06048538
32	0x3d14ea4e	0.036356263
33	0xbcf53169	-0.029930787
34	0x3d0c80d9	0.034302566
35	0xba253fd3	-0.0006303761
36	0xbd1bea23	-0.038065087
37	0xbdb60f42	-0.08889629
38	0xba74398a	-0.00093164353
39	0xbd9f392a	-0.07774575
40	0x3b51a969	0.0031991845
41	0x3d30bf1b	0.043151002
42	0xbc1a82d3	-0.009430605
43	0xbd8c5eb6	-0.06854002
44	0x3dacd16f	0.08438384
45	0xbce03734	-0.027370073
46	0x3caf74b4	0.021417953
47	0x3d2623a7	0.040561344
48	0x3d928980	0.07155132
49	0xbd8e88bb	-0.06959673
50	0xbd00adb2	-0.03141565
51	0x3c74d514	0.01494338
52	0xbd31d3c4	-0.043414846
53	0x3d9f77b7	0.07786506
54	0xbc1186e7	-0.008882261
55	0x3d433897	0.04766139
56	0xbd08c67e	-0.033392422
57	0xbcd88b31	-0.02643356
58	0x3c93354e	0.017969754
59	0xbd21e7ac	-0.03952758
60	0x3d092f0e	0.03349214
61	0x3ce6fb03	0.028195864
62	0xbca7e325	-0.020494053
63	0xbd8915ed	-0.06693635
64	0xbd280f28	-0.04103008
65	0x3d2497a6	0.040183686
66	0x3db08da2	0.08620764
67	0xbd45b046	-0.04826381
68	0xbc64af97	-0.0139578795
69	0xbd5779d2	-0.05260641
70	0x3d7c2318	0.061556906
71	0xbd715b14	-0.05892475
72	0x3db3b3f0	0.08774555
73	0x3d89394c	0.06700382
74	0xbca3203c	-0.019912831
75	0x3d017c0b	0.031612437
76	0xbd8cd5fe	-0.06876753
77	0x3d8fb390	0.07016671
78	0x3d2ab9e0	0.04168117
79	0x3d5f012f	0.05444449
80	0xbc575df1	-0.013144956
81	0xbd8efebf	-0.06982183
82	0x3d592854	0.053016976
83	0x3d8cd056	0.068756744
84	0xbdb54e37	-0.08852809
85	0xbd47438b	-0.0486484
86	0xbce71dce	-0.028212454
87	0xbd9690eb	-0.0735186
88	0xbd6801ab	-0.056642216
89	0xbcc04408	-0.02346994
90	0xbd5e8d12	-0.054333754
91	0xbd3d30ee	-0.04618924
92	0xbd705b47	-0.0586808
93	0x3dab60b0	0.08368051
94	0xbd89f3c6	-0.06735949
95	0xbcfedccb	-0.031111142
96	0xbc7d1d8c	-0.015448939
97	0x3d703c96	0.05865153
98	0x3b8e0782	0.004334391
99	0x3d4a1457	0.049335804
100	0x3ba1e309	0.004940395
101	0x3bc879db	0.006118042
102	0x3c651a9e	0.013983397
103	0x3c5382dc	0.012909617
104	0x3caa90f6	0.020821076
105	0xbdb2c44b	-0.08728846
106	0xbcc64512	-0.024202857
107	0xbce31d3e	-0.027723905
108	0x3d090de3	0.03346051
109	0x3cfcd328	0.030862406
110	0xbd81ca6e	-0.063374385
111	0x3da68f9a	0.081328586
112	0xbbfb44c4	-0.0076681096
113	0xbd98a5c2	-0.07453491
114	0xbcbac4e6	-0.022798967
115	0xbc530a76	-0.012880912
116	0xbd9d7753	-0.07688775
117	0xbbcbbd4f	-0.0062176357
118	0xbc78f80d	-0.015195859
119	0xbdbc15e5	-0.091838636
120	0x3d825efe	0.063657746
121	0xbd774d86	-0.060376666
122	0x3d72bc5e	0.059261672
123	0x3d235151	0.03987247
124	0x3cbd5bb8	0.023115024
125	0xbcfe22cd	-0.031022454
126	0xbd7d7008	-0.06187442
127	0x3da46f2e	0.08029018
128	0xbbee6846	-0.007275614
129	0xbd235e1e	-0.03988468
130	0x3d919ec8	0.07110363
131	0x3d817f05	0.06323055
132	0xbcd349e2	-0.025792066
133	0xbd9f245a	-0.077706054
134	0x3db1c4b6	0.08680098
135	0xbd53be41	-0.051695112
136	0xbc5c18cf	-0.013433649
137	0xbcbecdd1	-0.0232915
138	0xbdaf0c0b	-0.08547219
139	0xbc38c46e	-0.011277301
140	0x3da59d4d	0.08086643
141	0x3acccd8f	0.0015625226
142	0x3d8be066	0.0682991
143	0x3d0bd2d3	0.034136605
144	0xbd2314b7	-0.039814677
145	0x3d282715	0.041052897
146	0x3da5cee4	0.08096102
147	0xbcbec0e6	-0.02328534
148	0xbd4373ed	-0.047717977
149	0xbd5e04eb	-0.05420391
150	0x3d9a50ad	0.07534919
151	0xbd05f1dc	-0.03270136
152	0xbd5376fd	-0.051627148
153	0xbd66ce94	-0.056349352
154	0x3d3123dd	0.043247093
155	0x3d854c22	0.06508662
156	0xbc1d3dce	-0.009597255
157	0x3d54d94c	0.051965043
158	0x3d93c4ac	0.072152466
159	0xbd8b41ba	-0.06799646
160	0xbd3a7633	-0.04552288
161	0x3d709890	0.058739245
162	0xbbc3ac49	-0.0059714657
163	0x3ca208cf	0.01977959
164	0xbd6c3bad	-0.0576741
165	0xbc90b2ea	-0.017663438
166	0x3d630288	0.055422336
167	0xbcd4a514	-0.025957622
168	0xbceb7aff	-0.028745173
169	0xbd1844d6	-0.037175022
170	0x3ce5c491	0.028047832
171	0x3d6d9678	0.058004826
172	0xbce89b43	-0.028394347
173	0xbd0eed1f	-0.034894105
174	0xbc756a0a	-0.014978895
175	0x3d97bde3	0.07409265
176	0x3d0198c1	0.031639818
177	0xbd249e30	-0.04018992
178	0xbcc55f53	-0.024093306
179	0xbdbac1fb	-0.0911903
180	0x3d260cbe	0.040539496
181	0xbbd7c1d7	-0.006584387
182	0x3cbc07f7	0.022953017
183	0x3d1b7476	0.037952863
184	0x3c4ddd15	0.012564917
185	0xbd31ccfb	-0.043408375
186	0xbc3c31a3	-0.011486444
187	0xbdacaff1	-0.08431996
188	0xbb371139	-0.002793385
189	0x3d108083	0.03527881
190	0xbc82283c	-0.015888326
191	0x3c984e76	0.0185921
192	0xbd18524d	-0.037187863
193	0x3dac3568	0.08408624
194	0x3d118127	0.03552356
195	0xbd94c597	-0.0726425
196	0x3d01893c	0.031625018
197	0xbce12dbe	-0.027487632
198	0x3d974edc	0.07388088
199	0xbc204f0c	-0.009784471
200	0x3a82edcc	0.0009989082
201	0xbda2e1b2	-0.07953204
202	0x3ceecf83	0.029151684
203	0x3d92add3	0.071620606
204	0xbd11f937	-0.03563806
205	0xbc2dc3a6	-0.010605728
206	0x3c798266	0.015228843
207	0xbdaf0802	-0.08546449
208	0x3d852c6f	0.06502616
209	0xbb1c3dbb	-0.0023840505
210	0xbda9df00	-0.08294487
211	0xbcaf8f98	-0.021430776
212	0x3c03dc1e	0.0080480855
213	0x3d68b64a	0.05681447
214	0xbd048bae	-0.03235977
215	0xbdaaf51b	-0.083475314
216	0x3da5a0e0	0.08087325
217	0xbcca7d56	-0.024717968
218	0xbdb4ecd3	-0.08834233
219	0x3db226a9	0.0869878
220	0x3cc2f1dc	0.023796968
221	0x3cb1bed2	0.021697436
222	0x3c3399b8	0.010961942
223	0x3cc64c94	0.024206437
224	0x3c951213	0.018197095
225	0x3d234b5a	0.039866783
226	0xbd8a6ac9	-0.06758649
227	0x3cb29273	0.021798348
228	0xbc632bd8	-0.013865434
229	0xbd7a499a	-0.06110535
230	0xbd7deef0	-0.061995447
231	0xbd6dc8bb	-0.05805276
232	0xbd0b0b7d	-0.033946503
233	0xbd5a29bb	-0.053262454
234	0x3d9e589e	0.07731746
235	0x3d9d813a	0.07690664
236	0xbd0444f4	-0.03229232
237	0x3d8488cf	0.06471407
238	0x3da0dab2	0.07854213
239	0xbd53af6c	-0.051680967
240	0x3d816e83	0.063199066
241	0xbd814a91	-0.063130505
242	0x3d8b3102	0.06796457
243	0xbd8692de	-0.065709814
244	0x3d9b1052	0.07571472
245	0xbc9f242e	-0.019426432
246	0xbbd70d9c	-0.0065629017
247	0x3d80a538	0.06281513
248	0x3d7738ed	0.060357023
249	0xbd71bcc8	-0.059017926
250	0x3d0f9a60	0.035059333
251	0x3d98f8df	0.074693434
252	0xbd911713	-0.07084479
253	0x3c048b92	0.008089917
254	0x3d3ae551	0.04562885
255	0xbc4dc22c	-0.012558501

weight_hh_l0 f4 [512, 128]
0	0xbd8ec020	-0.06970239
1	0x3d8025fc	0.06257245
2	0x3d21a408	0.039463073
3	0x3d979272	0.07400979
4	0x3cad290a	0.021137733
5	0x3c5e6a8c	0.013575207
6	0xbda13d7e	-0.07873057
7	0xbda73f4e	-0.08166371
8	0xbd8c59ab	-0.0685304
9	0x3c6cda10	0.014456287
10	0xbd59344f	-0.0530284
11	0xbc25c4df	-0.0101177385
12	0xbd07f1b7	-0.0331895
13	0xbc9cfb0b	-0.019162675
14	0x3cd8f71c	0.026485018
15	0xbdaaca16	-0.08339326
16	0x3c8bffe1	0.017089786
17	0x3d89f898	0.067368686
18	0x3d748c18	0.059703916
19	0xbd120b96	-0.03565558
20	0xbd9f184f	-0.07768308
21	0x3d5c23c5	0.05374505
22	0x3d445d48	0.047940522
23	0x3c19537b	0.009358282
24	0xbd58538d	-0.052814055
25	0xbb6bf138	-0.0036001932
26	0xb99f8d7f	-0.00030432266
27	0xbb2c255c	-0.0026267385
28	0x3d9fd10f	0.07803547
29	0xbd036476	-0.03207823
30	0xbdaa84a1	-0.08326078
31	0x3d6a8dfe	0.05726432
32	0xbd1eab63	-0.038737666
33	0x3c32c508	0.010911234
34	0x394a19ff	0.00019273905
35	0x3db4fcc3	0.08837273
36	0xbdbb5eca	-0.09148939
37	0xbca194e6	-0.01972432
38	0x3cbf98d3	0.023388302
39	0x3d18705d	0.037216533
40	0x3cf83ada	0.0303015
41	0xbd3c3118	-0.045945257
42	0xbd08408e	-0.03326469
43	0x3d600391	0.0546909
44	0x3d8ffe8a	0.07030971
45	0xbd80ca81	-0.062886246
46	0xbca10a2b	-0.019658169
47	0xbd0aec1b	-0.033916574
48	0xbd80d97d	-0.062914826
49	0xbb6b46ef	-0.0035900434
50	0xbc43dd47	-0.011954612
51	0x3ac545ab	0.001505067
52	0x3db1fddb	0.08690997
53	0xbc54dcf0	-0.012992129
54	0x3c57403a	0.013137871
55	0xbda89927	-0.082323365
56	0xbd998493	-0.0749599
57	0xbd073eb0	-0.033018768
58	0x3d9c5517	0.07633417
59	0xbdb898b4	-0.09013501
60	0xbd223833	-0.039604377
61	0xbd3b1195	-0.045671064
62	0x3ccc2d5b	0.02492397
63	0xbd2e11a1	-0.04249728
64	0xbd16823d	-0.0367453
65	0x3c40d59e	0.01176968
66	0x3bfa7594	0.007643411
67	0xbd80d4f2	-0.06290616
68	0x3ccb2525	0.024797985
69	0x3d830364	0.06397131
70	0xbd3d6f1f	-0.04624855
71	0xbd90b1e2	-0.070651785
72	0x3d84c723	0.06483295
73	0xbd018760	-0.031623244
74	0x3d018456	0.031620346
75	0x3d9e2a16	0.07722871
76	0xbd091a7d	-0.033472527
77	0xbd9aba28	-0.07555038
78	0xbda258a1	-0.07927061
79	0xbda3ba26	-0.07994489
80	0xbd33a14c	-0.043854997
81	0x3da7f057	0.08200138
82	0x3cf27423	0.029596394
83	0x3d7ade16	0.061246954
84	0xbd7a95c8	-0.061178
85	0x3d9af298	0.07565802
86	0xbdaef514	-0.08542839
87	0x3d278424	0.040897503
88	0xbd75f12a	-0.060044445
89	0xbd52fdd4	-0.0515116
90	0x3d13b43c	0.036060557
91	0xbc929307	-0.017892374
92	0x3d2359de	0.039880626
93	0xbd9faf53	-0.07797112
94	0x3d42a07b	0.047516327
95	0x3d6b484e	0.057442002
96	0x3d33e1d5	0.043916542
97	0x3d459c7f	0.04824495
98	0x3d8c136c	0.06839642
99	0x3b72e03c	0.0037059924
100	0xbcb70aae	-0.02234396
101	0x3c917f79	0.017760979
102	0xbd966381	-0.073431976
103	0x3da17a0c	0.07884607
104	0xbcda73a9	-0.02666648
105	0x3d36f040	0.044662714
106	0x3c0376cf	0.008023932
107	0xbd8ea1b7	-0.069644384
108	0xbcef8c23	-0.029241627
109	0xbd42e43b	-0.04758094
110	0x3d9eab2c	0.07747492
111	0x3c707e54	0.0146785565
112	0x3d9aa559	0.07551069
113	0x3cd28fa7	0.025703264
114	0xbce600f8	-0.028076634
115	0xbd088f1d	-0.03333961
116	0xbae397f7	-0.0017364015
117	0xbcd974f1	-0.02654502
118	0xbcf9f721	-0.030513348
119	0xbcf98ea7	-0.03046353
120	0x3d36623a	0.04452727
121	0xbd280e63	-0.041029345
122	0xbcb08876	-0.021549445
123	0x3b6cd42f	0.0036137213
124	0x3d1ca601	0.03824425
125	0x3ccdf0f9	0.025139319
126	0xbd9bdf8f	-0.07611
127	0x3d2184b4	0.039433196
128	0x3d54a488	0.05191472
129	0x3d68d8e9	0.056847487
130	0x3d5c6f92	0.05381734
131	0xbce6aee2	-0.028159562
132	0x3d2366a3	0.039892804
133	0x3da10a33	0.078632735
134	0x3d068bbf	0.032848116
135	0x3d993aa0	0.07481885
136	0x3cddb72e	0.027064886
137	0x3b968d92	0.004594513
138	0xbd3b83f4	-0.045780137
139	0x3d7d894a	0.061898507
140	0x3d1de354	0.038546875
141	0xbce67992	-0.028134141
142	0xbbd4f72f	-0.006499193
143	0x3ce874e2	0.028376047
144	0x3c412b5f	0.011790126
145	0xbd3de173	-0.046357583
146	0x3d7a2987	0.06107476
147	0x3d59d6a6	0.05318322
148	0x3d90c6fb	0.070692025
149	0x3d95a38f	0.07306587
150	0xbd857efc	-0.06518361
151	0xbd18a9a1	-0.037271146
152	0xbd56eac3	-0.05246998
153	0xbd57ecb1	-0.05271596
154	0x3dad575a	0.084639266
155	0xbd81fee6	-0.06347446
156	0x3d3cba75	0.046076257
157	0x3d7ced3e	0.06174969
158	0xbc16c75d	-0.009202805
159	0x3da3f65d	0.080059744
160	0xbd8bb232	-0.068210974
161	0xbd41a565	-0.047276873
162	0xbd0d04b8	-0.03442833
163	0xbd552f82	-0.05204726
164	0x3d63f426	0.05565276
165	0xbd9e6f6a	-0.07736094
166	0x3c89f1b7	0.016838891
167	0xbad1d670	-0.0016009342
168	0xbd9194cb	-0.07108458
169	0x3d1da791	0.038489882
170	0x3c200b5f	0.009768336
171	0xbd6322e6	-0.055453204
172	0xbd2a0e2b	-0.041517418
173	0x3c8c301d	0.017112786
174	0xbc7aa23a	-0.015297467
175	0xbda1aa94	-0.07893863
176	0x3d6280cb	0.055298608
177	0x3cd97bcb	0.026548287
178	0xbcc2ec01	-0.023794176
179	0xbb9c2817	-0.0047655213
180	0xbd4ae830	-0.049537838
181	0xbd6050af	-0.054764446
182	0xbd83b978	-0.0643186
183	0xbdb35afa	-0.08757587
184	0x3d48eb23	0.04905237
185	0x3c988b68	0.018621162
186	0x3d67a304	0.05655195
187	0x3d6f7cd8	0.05846867
188	0x3c338d52	0.010958986
189	0xbd340363	-0.043948542
190	0xbdac7df2	-0.0842246
191	0xbcf6acab	-0.030111631
192	0xbd844660	-0.064587355
193	0x3d7d9b04	0.061915413
194	0x3d5cc693	0.053900313
195	0xbd040af7	-0.03223702
196	0x3c2b5291	0.010456697
197	0x3da2fc7d	0.079583146
198	0x3dab89c8	0.08375889
199	0xbdaf9884	-0.08574012
200	0x3d73ff9a	0.059569933
201	0xbd8b4d34	-0.06801835
202	0x3daf0519	0.08545894
203	0x3d80bdf1	0.062862284
204	0xbd5a263c	-0.05325912
205	0xbda040bb	-0.07824846
206	0x3cbb85a6	0.022890877
207	0x3d6f1360	0.058368087
208	0xbd803cac	-0.06261572
209	0xbd129b23	-0.03579248
210	0x3d3fde00	0.046842575
211	0x3d60d8f4	0.054894403
212	0xbd8d639a	-0.06903763
213	0xbd425c9f	-0.04745161
214	0xbd39c6d3	-0.04535563
215	0xbd209b8d	-0.039210845
216	0x3caa79e4	0.020810075
217	0xbda06434	-0.07831612
218	0xbd55ac69	-0.052166376
219	0x3d6161fa	0.05502508
220	0x3d012d7f	0.03153753
221	0x3d86056c	0.06544003
222	0x3d06b5b0	0.032888114
223	0xbcfa7d5d	-0.030577356
224	0xbd11acec	-0.0355653
225	0xbd44de7b	-0.048063736
226	0xbc56b1df	-0.013103931
227	0x3cdf3d20	0.027250826
228	0x3d7ee7f1	0.062232915
229	0x3dacc768	0.08436471
230	0x3a2d6cdf	0.00066156493
231	0x3bcf36ee	0.006323687
232	0xbd86ab0f	-0.065755956
233	0xbc99debf	-0.018782971
234	0xbd509e86	-0.05093243
235	0x3d80326b	0.062596165
236	0x3c2695df	0.010167568
237	0x3da2765f	0.07932734
238	0x3d023171	0.031785432
239	0x3d1b583f	0.037925955
240	0xbd8d2aa3	-0.06892898
241	0x3c067b30	0.008208081
242	0x3af32792	0.0018551222
243	0xbd632d55	-0.055463154
244	0xbd0b9923	-0.03408159
245	0xbc38d282	-0.011280658
246	0xbd8f6a3b	-0.07002684
247	0xbc441d5b	-0.0119698895
248	0xbda8f8a3	-0.08250549
249	0x3cb849d7	0.022496147
250	0xbdbd27f5	-0.09236137
251	0x3d5ba9c8	0.053628713
252	0xbcf5ab9d	-0.029989058
253	0x3cb16ee6	0.021659326
254	0xbd7d814d	-0.06189089
255	0x3ca4e8cf	0.020130543

bias_ih_l0 f4 [512]
0	0xbca358b9	-0.019939767
1	0x3da3ac17	0.07991808
2	0xbd7a3f10	-0.061095297
3	0xbd321b23	-0.04348291
4	0xbc692f98	-0.014232539
5	0x3d23082f	0.039802726
6	0x3db3ea98	0.087849796
7	0x3c5bbbcf	0.013411476
8	0xbcd12f79	-0.025535332
9	0x3c194fe7	0.009357429
10	0x3d50a14e	0.050935082
11	0xbd88dd2c	-0.0668281
12	0x3d0bdf98	0.034148782
13	0x3c31ddc1	0.010856093
14	0xbdb12800	-0.086502075
15	0x3d5b2901	0.0535059
16	0xbba05dff	-0.0048940177
17	0x3da681ef	0.081302516
18	0xbba96fd2	-0.0051708007
19	0xbda8e5ab	-0.08246931
20	0xbda1e30a	-0.079046324
21	0xbd82a82e	-0.06379734
22	0x3db2590c	0.087083906
23	0xbd188f84	-0.037246242
24	0xbb141253	-0.002259393
25	0xbbbbcdd9	-0.005731326
26	0x3b0c916c	0.0021448983
27	0xbdb86359	-0.09003324
28	0xbb726794	-0.0036988007
29	0xbd4f07d3	-0.05054457
30	0xbdadca8f	-0.084859006
31	0x3d2e87a8	0.04260984
32	0xbd892b1d	-0.06697676
33	0x3ce5468a	0.027987737
34	0xbd5eea86	-0.054422878
35	0xbd898983	-0.067156814
36	0x3d595b08	0.05306533
37	0xbc56797a	-0.013090486
38	0xbd463b53	-0.04839642
39	0xbbfdf952	-0.0077506686
40	0x3db94b86	0.09047608
41	0xbc9fa0b6	-0.019485813
42	0x3c85e12f	0.016342727
43	0xbc83717c	-0.016045325
44	0x3c6386a2	0.013887079
45	0x3d886963	0.06660726
46	0xbd940ec9	-0.072293825
47	0xbd29efb9	-0.041488383
48	0xbd3ee257	-0.046602573
49	0x3c2deac9	0.010615059
50	0xbda998f0	-0.08281124
51	0x3d08be25	0.03338446
52	0x3d51fa17	0.051263895
53	0x3bd6c6dc	0.0065544676
54	0x3cff109f	0.031135855
55	0x3b7271fc	0.003699421
56	0xbd9304eb	-0.071786724
57	0xbcde9c93	-0.02717427
58	0xbc95052e	-0.018190946
59	0x3b7cf974	0.0038600834
60	0xbd3cf1f6	-0.04612919
61	0x3d41fa2e	0.04735773
62	0xbdb2db5b	-0.08733245
63	0x3ae6641a	0.001757744
64	0x3cc2f18c	0.02379682
65	0xbd383722	-0.044974454
66	0xbd862d53	-0.06551614
67	0xbd3ba17f	-0.04580831
68	0xbcc5dec7	-0.02415408
69	0x3d2a3669	0.041555796
70	0xbd978cf4	-0.073999316
71	0xbced17e4	-0.028942056
72	0x3d53ad79	0.05167911
73	0xbd8439e5	-0.06456355
74	0x3d3bb01d	0.04582225
75	0x3c9914f4	0.018686749
76	0xbdb96487	-0.09052377
77	0x3d17f1fe	0.037096016
78	0xbc9ce5a7	-0.019152476
79	0x3ccec224	0.025239058
80	0xbd34e434	-0.044162944
81	0x3d0401ab	0.032228153
82	0xbda9f3fc	-0.082984895
83	0xbd25a4f5	-0.04044052
84	0xbb3eeaba	-0.0029131607
85	0x3d6c2484	0.05765201
86	0xbd96615c	-0.073427886
87	0x3dad0a8e	0.08449279
88	0xbb966fc8	-0.004590962
89	0x3cd1a7ba	0.025592674
90	0xbc159357	-0.009129367
91	0x3bd7d360	0.006586477
92	0xbd9adf72	-0.0756215
93	0xbd8eab35	-0.06966249
94	0xbd8ac194	-0.06775203
95	0x3d088d61	0.033337954
96	0xbcb8c332	-0.022554014
97	0xbcde6d03	-0.02715159
98	0x3cf2262e	0.029559221
99	0x3bc5af63	0.0060328706
100	0xbd39f279	-0.045397256
101	0x3c258abc	0.010103878
102	0xbd8be9ea	-0.06831725
103	0x3d94683b	0.07246443
104	0xbd9902d3	-0.07471242
105	0x3d3242f8	0.043520898
106	0xbbd75b49	-0.0065721613
107	0xbc5d777d	-0.013517258
108	0x3d0a08bd	0.03369974
109	0x3b0bfd4b	0.0021360691
110	0xbce03286	-0.027367841
111	0x3d03722d	0.03209131
112	0x3c9af5d6	0.018916052
113	0xbd9f583d	-0.07780502
114	0xbd396704	-0.04526426
115	0xbc7ce33f	-0.015435039
116	0xbd81f405	-0.06345371
117	0xbd08d2bc	-0.033404097
118	0xbd769fef	-0.06021112
119	0xbcd86d5b	-0.026419332
120	0xbd98d32f	-0.07462155
121	0x3d59a998	0.053140253
122	0xbcfe6eb4	-0.031058647
123	0xbd55d519	-0.05220518
124	0xbdbb3b34	-0.091421515
125	0xbcac274e	-0.021014836
126	0x3d836bb9	0.06417031
127	0x3d43d7cc	0.04781322
128	0x3d3a12a5	0.045427937
129	0x3ca1daab	0.01975759
130	0x3d83643b	0.06415602
131	0x3d998b91	0.07497323
132	0x3d90a34c	0.070623964
133	0x3cf0f3a9	0.029413061
134	0x3d605776	0.05477091
135	0x3d98d3f6	0.07462303
136	0xbd334f9f	-0.043777104
137	0x3cd16d58	0.025564834
138	0x3d1e00cb	0.038574975
139	0xbd6e3059	-0.058151577
140	0xbd9d1388	-0.07669741
141	0x3d452d19	0.04813871
142	0xbd8519a5	-0.06499032
143	0x3da72f27	0.081632905
144	0xbd456710	-0.04819399
145	0xbce7704f	-0.028251795
146	0xbcf73ad0	-0.030179411
147	0xbd49c3ea	-0.049259104
148	0xbd4e87b0	-0.05042237
149	0x3bad071c	0.0052803885
150	0xbd9d9108	-0.07693678
151	0xbd122aaf	-0.035685237
152	0x3d86c410	0.06580365
153	0xbc0b637d	-0.008507607
154	0x3ce34f83	0.027747875
155	0xbda2e740	-0.07954264
156	0x3d8c6b40	0.06856394
157	0xbb46a019	-0.0030307828
158	0xbd22109a	-0.039566614
159	0xbd27903e	-0.040909044
160	0x3d33dcbb	0.043911677
161	0xbd70a9ae	-0.05875557
162	0x3d2404a1	0.040043477
163	0x3b483c69	0.0030553585
164	0xbc93cad7	-0.018041058
165	0xbd5f3d35	-0.05450173
166	0xbdab1b17	-0.08354776
167	0xbd15a4b6	-0.036534034
168	0xbc86ca73	-0.016453957
169	0xbd75a707	-0.059973743
170	0xbd6bed9b	-0.057599645
171	0x3c34bd97	0.01103153
172	0x3cf3ae7d	0.029746288
173	0xbd9641fa	-0.07336803
174	0xbd96034d	-0.07324848
175	0x3da7c57d	0.08191965
176	0x3d7ac836	0.061226092
177	0xbd099756	-0.03359159
178	0xbd7ef4cb	-0.06224517
179	0x3c55b405	0.013043408
180	0x3d98132a	0.0742553
181	0xbd910269	-0.07080538
182	0x3ceee27a	0.029160727
183	0xbb393f5e	-0.002826653
184	0x3c7fcbdc	0.015612569
185	0x3d0e168a	0.034689464
186	0x3d8f886a	0.07008441
187	0xbc9944e6	-0.018709611
188	0x3da1fde3	0.07909753
189	0xbd3e1bf0	-0.046413362
190	0x3c78c69b	0.01518407
191	0x3da27439	0.07932324
192	0xbd1b5015	-0.03791817
193	0xbd8f9c5e	-0.070122465
194	0x3d245d35	0.04012795
195	0xbd81f478	-0.06345457
196	0xbd04429b	-0.032290082
197	0x3d198b73	0.037486505
198	0xbc9da611	-0.019244226
199	0x3bcf8d2d	0.006333968
200	0xbd816147	-0.06317382
201	0xbd0e2956	-0.03470739
202	0xbd977287	-0.07394891
203	0x3d2ae730	0.041724384
204	0xbcabf0ad	-0.020988787
205	0xbc1ef811	-0.009702698
206	0x3c790925	0.015199934
207	0xbdb3bb2b	-0.08775934
208	0xbd16d37e	-0.03682279
209	0xbda8e8ee	-0.08247553
210	0x3d26b830	0.040703
211	0xbda8138a	-0.08206852
212	0xbbae057f	-0.005310714
213	0xbd839054	-0.06424013
214	0xbccdcfd3	-0.025123512
215	0xbc2bd462	-0.010487648
216	0x3c138e76	0.009006133
217	0x3d9cafb4	0.076507
218	0xbc388fa3	-0.011264714
219	0xbc116965	-0.008875226
220	0x3c5e3e8c	0.013564717
221	0xbb7d38bf	-0.003863856
222	0xbd7a3ee7	-0.061095145
223	0xbd0565ad	-0.03256767
224	0xbdb1ee48	-0.08688027
225	0xbda182fe	-0.07886313
226	0x3d49d5f3	0.049276303
227	0xbd371bdc	-0.044704303
228	0x3d4aea66	0.049539946
229	0x3d558844	0.052131906
230	0xbd467bcc	-0.048457906
231	0x3da27ba1	0.079337366
232	0x3db3f5c0	0.087871075
233	0xbce6f895	-0.028194705
234	0x3d0f2eb6	0.034956656
235	0xbcd656fc	-0.026164524
236	0x3d2a8b35	0.041636664
237	0xbd4bef9e	-0.049789064
238	0xbdac7948	-0.0842157
239	0xbd8e8424	-0.069587976
240	0xbd506f59	-0.05088744
241	0xbd5897a0	-0.052878976
242	0x3c9fc197	0.01950149
243	0x3ceb9417	0.028757138
244	0x3cdad457	0.02671258
245	0x3cf98ba7	0.0304621
246	0xbdb008a4	-0.08595398
247	0xbd55f3ea	-0.052234568
248	0x3d105e91	0.035246436
249	0xbd97b1bf	-0.07406949
250	0x3d523caa	0.051327385
251	0xbd82c245	-0.0638471
252	0xbd181c0f	-0.037136134
253	0x3d097cdc	0.03356634
254	0x3d3da09b	0.046295743
255	0xbd79181e	-0.060814016

bias_hh_l0 f4 [512]
0	0x3d0c7de0	0.03429973
1	0x3d37b189	0.044847045
2	0x3d11c914	0.035592154
3	0x3dad60d5	0.08465735
4	0x3c68cebd	0.0142094465
5	0x3d820e34	0.06350365
6	0x3db53a62	0.08849026
7	0xbbcb6c73	-0.0062079965
8	0xbdae2156	-0.08502452
9	0xbd6154cc	-0.05501251
10	0x3d636aea	0.055521883
11	0xbd6c1bf4	-0.057643846
12	0xbd81a2c9	-0.06329877
13	0x3d68adf6	0.056806527
14	0x3da529ac	0.08064589
15	0x3d97c03c	0.07409713
16	0xbd096a0f	-0.03354841
17	0xbd9ca250	-0.07648146
18	0xbcc2ac23	-0.023763722
19	0x3bf03f61	0.007331774
20	0xbcc41e3d	-0.0239402
21	0x3cbef306	0.023309242
22	0xbd5c35b6	-0.05376216
23	0x3db3ba15	0.08775727
24	0xbd084844	-0.033272043
25	0xbd8cb1ce	-0.06869851
26	0x3cda1ba2	0.026624504
27	0x3d924327	0.071417145
28	0x3bc4d5b4	0.0060069207
29	0xbd3d81ac	-0.046266243
30	0xbc2899eb	-0.010290603
31	0xbd447f66	-0.04797306
32	0x3cfc2c0a	0.030782718
33	0xbd8ea5bc	-0.06965205
34	0xbd659024	-0.056045666
35	0x3c5e987a	0.013586158
36	0xbdad2325	-0.08453969
37	0xbd9278b8	-0.071519315
38	0x3d33c456	0.043888412
39	0xbd2a274f	-0.041541394
40	0x3c9d8d2f	0.01923236
41	0xbce1501e	-0.027504023
42	0xbc9009e6	-0.017582845
43	0x3d2e9bb1	0.042628948
44	0x3da8d77a	0.08244224
45	0x3dadaea7	0.08480578
46	0x3c8e878e	0.017398622
47	0xbd3f9a41	-0.046777967
48	0x3d760dad	0.060071636
49	0x3d9fb45b	0.07798072
50	0x3ce89881	0.028393032
51	0x3dbb1432	0.09134711
52	0xbda705f1	-0.0815543
53	0xbbb636f2	-0.005560749
54	0xbd99f105	-0.07516674
55	0xbd714c5d	-0.058910716
56	0xbd8dd638	-0.069256246
57	0x3d7ddddf	0.06197917
58	0xbd7bfa24	-0.06151785
59	0x3d66522b	0.056230705
60	0xbcd6a4ae	-0.026201572
61	0xbd4e986a	-0.050438322
62	0xbcceacfe	-0.025228973
63	0x3d4bf61d	0.04979526
64	0xbda5eee6	-0.08102207
65	0x3dbc2988	0.09187609
66	0xbc94e741	-0.018176677
67	0x3c25b3e9	0.010113695
68	0x3d5879f5	0.052850682
69	0x3cbf6d51	0.023367556
70	0x3ccb7fad	0.024841154
71	0x3da087fb	0.07838436
72	0xbcc9525d	-0.024575407
73	0x3d9e11a5	0.07718209
74	0x3d78d2a1	0.060747746
75	0x3d981df7	0.0742759
76	0xbd0d83f5	-0.034549672
77	0xbb8f8b23	-0.0043806
78	0x3cd66309	0.02617027
79	0x3d862fa2	0.06552054
80	0x3d01a067	0.031647112
81	0xbd737789	-0.05944017
82	0x3c324dac	0.010882776
83	0x3d799fd0	0.060943425
84	0x3d73f004	0.05955507
85	0x3cfc93cd	0.030832196
86	0xbd7a6bc9	-0.06113795
87	0xbd86bc7a	-0.06578918
88	0xbae937df	-0.001779314
89	0x3c10fe61	0.008849711
90	0x3d021248	0.031755716
91	0x3ba18ba2	0.0049299756
92	0xbda44a5c	-0.080219954
93	0xbd15a5f4	-0.03653522
94	0xbd50a2ee	-0.05093663
95	0xbd8f070d	-0.06983767
96	0x3da40372	0.0800847
97	0x3a292206	0.0006451908
98	0x3da29093	0.079377316
99	0x3d7baa31	0.061441604
100	0xbd3fe72b	-0.04685132
101	0x3cfa6666	0.030566406
102	0xb986fa3a	-0.00025744905
103	0x3d363d78	0.044492215
104	0x3c0290a2	0.007969053
105	0xbc921baf	-0.017835466
106	0xbc3b47ec	-0.011430722
107	0x3d78f672	0.060781904
108	0xbdb328f9	-0.08748049
109	0x3add87d6	0.0016901444
110	0xbc297f87	-0.010345346
111	0xbc0f7867	-0.0087567335
112	0x3d003a25	0.03130545
113	0x3ce92e55	0.028464476
114	0xbba7017b	-0.005096612
115	0xbcf1c226	-0.029511523
116	0xbd77c664	-0.060491934
117	0xbdb8e6a7	-0.090283684
118	0x3d3fa997	0.046792593
119	0x3d6a1214	0.057146147
120	0x3cd08cab	0.0254577
121	0x3d8a7821	0.06761194
122	0xbcc9bc96	-0.024626058
123	0xbd925bb0	-0.07146394
124	0xbdab52df	-0.08365416
125	0x3ca07d89	0.01959111
126	0x3d090b8b	0.033458274
127	0x3dbf3b0f	0.093374364
128	0xbd828ce0	-0.06374526
129	0x3c13f979	0.009031647
130	0xbccbf12b	-0.024895271
131	0xbbbf6625	-0.005841034
132	0x3d73820d	0.059450198
133	0xbda2d520	-0.079508066
134	0x3d9ad5e7	0.0756033
135	0x3da36878	0.0797891
136	0xbccf4e5e	-0.025305923
137	0x3d4c1bd4	0.049831226
138	0x3d288017	0.04113778
139	0x3d5cbca7	0.05389085
140	0x3c19ffda	0.009399379
141	0x3d51c3d5	0.05121215
142	0x3c9293f9	0.017892824
143	0x3ae7e505	0.0017692155
144	0xbd207311	-0.039172236
145	0x3c7e17b4	0.015508581
146	0xbd889dda	-0.06670733
147	0xbbe571c5	-0.007002088
148	0xbdb4e88c	-0.08833417
149	0xbcea584c	-0.028606556
150	0xbd485a6d	-0.04891436
151	0xbd9b3574	-0.07578555
152	0x3d63fe4c	0.05566244
153	0xbd9c90e4	-0.07644823
154	0xbda6ca6a	-0.08144076
155	0x3d4a4344	0.049380556
156	0xbd9d0bfe	-0.07668303
157	0x3d636424	0.055515423
158	0xbd60550a	-0.0547686
159	0x3ce3d5df	0.027811943
160	0xbd6b05bd	-0.05737852
161	0x3d84b2d9	0.06479425
162	0x3d23b401	0.039966587
163	0x3d0714ef	0.03297895
164	0x3d9f6948	0.07783753
165	0x3b02be37	0.0019949803
166	0x3cdddffc	0.027084343
167	0xbbf721c4	-0.007541867
168	0x3da8a46c	0.08234486
169	0x3d55267c	0.052038655
170	0x3d69d924	0.057091847
171	0x3ccd0a13	0.025029218
172	0xbd49920e	-0.049211554
173	0x3d53bbec	0.05169289
174	0x3d94ddc9	0.07268865
175	0xbdaa3dc2	-0.083125606
176	0x3d21f1fc	0.039537415
177	0xbd83321c	-0.06406042
178	0x3c8438c4	0.01614035
179	0xbc5084ab	-0.012726943
180	0xbd735295	-0.05940493
181	0x3d0a7d2c	0.03381078
182	0x3da680ba	0.081300214
183	0xbcdf708f	-0.027275352
184	0xbda67bee	-0.081291065
185	0xbd7bfc6d	-0.06152003
186	0x3c8e80eb	0.017395457
187	0xbcdc5f93	-0.026901042
188	0x3c810d0e	0.015753295
189	0xbd2508c4	-0.040291563
190	0xbd9c434a	-0.07630022
191	0x3d2ec14d	0.042664815
192	0xbcfc8d8b	-0.030829212
193	0x3be98cb7	0.00712737
194	0x3d8f63f7	0.07001489
195	0xbd0f2491	-0.03494698
196	0xbbf10396	-0.007355164
197	0xbd33270e	-0.043738417
198	0xbd1c4c5c	-0.03815876
199	0xbc82d1b8	-0.015969142
200	0xbd6a92c5	-0.057268877
201	0xbb3eeb87	-0.0029132084
202	0x3cf78c97	0.030218406
203	0x3cbb80da	0.02288859
204	0xbc9bfa16	-0.019040149
205	0x3d8ef257	0.069798164
206	0xbcd8b4e2	-0.02645344
207	0xbd7d0610	-0.06177336
208	0xbd3a5aa3	-0.045496594
209	0x3d285718	0.041098684
210	0xb958d784	-0.00020679651
211	0x3d8f998c	0.070117086
212	0xbd8c7256	-0.06857745
213	0xbd406e49	-0.046980176
214	0xbc80bf09	-0.015716093
215	0xbd9ace0b	-0.07558831
216	0xbd0b0794	-0.033942774
217	0xbd373c9c	-0.044735536
218	0xbc11e722	-0.008905204
219	0x3cbad5c9	0.022807019
220	0x3d7d9dde	0.061918132
221	0x3d878c2d	0.06618533
222	0xbd979d9f	-0.07403111
223	0x3d55712c	0.052109882
224	0x3d14e354	0.03634961
225	0xbd2520d7	-0.04031452
226	0x3d18f997	0.037347402
227	0xbbdf4052	-0.0068130875
228	0xbc50f535	-0.012753774
229	0xbda117ec	-0.07865891
230	0xbcfaf3ba	-0.030633796
231	0xbd36a521	-0.044591073
232	0xbcbb9a29	-0.022900658
233	0xbbba8853	-0.0056925206
234	0x3cc53451	0.024072798
235	0xbb050cf8	-0.002030192
236	0x3d27c751	0.040961567
237	0x3d1e60d7	0.038666572
238	0xbdaeadac	-0.08529219
239	0x3d74e34d	0.059787083
240	0x3d54cf17	0.05195531
241	0xbda7442c	-0.081673
242	0x3db8b49e	0.09018825
243	0xbd99e86c	-0.07515034
244	0xbc3ed41f	-0.011647253
245	0xbd86e81f	-0.06587242
246	0x3cda3923	0.026638573
247	0x3cdbd748	0.026836053
248	0x3c801e44	0.015639432
249	0xbcf11793	-0.029430186
250	0xbd6ec74b	-0.05829553
251	0xbd0c1c43	-0.03420664
252	0xbd71456c	-0.058904096
253	0xbd961866	-0.073288724
254	0x3cd9eba9	0.02660163
255	0x3db06ae1	0.086141355

weight f4 [1, 128]
0	0x3d798a8b	0.06092314
1	0xbd985609	-0.07438285
2	0xbcd01b33	-0.025403595
3	0xbb6b58a4	-0.0035910988
4	0xbbfb6a52	-0.0076725865
5	0xbd4877a9	-0.04894224
6	0xbc355930	-0.011068627
7	0xba01612f	-0.0004935441
8	0xbcbcee56	-0.023062866
9	0xbc022048	-0.007942267
10	0xbd46bb14	-0.048518255
11	0xbd4b91d2	-0.049699612
12	0x3c4fdf83	0.012687567
13	0xbd0fce63	-0.035108935
14	0xbd92c05f	-0.07165598
15	0x3cf842ac	0.03030523
16	0xbcf6bb21	-0.030118527
17	0x3dad3bca	0.084586695
18	0xbd8bd620	-0.068279505
19	0x3d9dad31	0.07699049
20	0x3d8c80dd	0.06860516
21	0x3da26387	0.079291396
22	0xbd98b861	-0.074570425
23	0xbc961edf	-0.018325267
24	0xbd15e5d0	-0.03659612
25	0xbd83ec67	-0.064415745
26	0x3d1e3457	0.038624134
27	0x3ccac089	0.024750011
28	0xbd762128	-0.060090214
29	0x3d457d7f	0.048215386
30	0x3d9e2731	0.07722319
31	0xbc0ab2a8	-0.0084654465
32	0x3af88728	0.0018961178
33	0x3ceb1384	0.02869583
34	0x3d271e52	0.0408004
35	0x3d1cc141	0.03827024
36	0x3c9f6c70	0.019460887
37	0xbd221461	-0.039570216
38	0xbd8dd4ca	-0.06925352
39	0xbcc5fb6e	-0.024167743
40	0x3d97b9bd	0.07408474
41	0xbcc78717	-0.024356408
42	0x3d6ec918	0.058297247
43	0x3d2b4158	0.041810364
44	0xbca54235	-0.020173172
45	0x3d035de6	0.03207197
46	0x3cfa4495	0.03055028
47	0xbd43875f	-0.04773652
48	0x3d6087ff	0.054817196
49	0x3d4e796b	0.050408762
50	0x3d84094a	0.06447084
51	0xbd4234d3	-0.04741366
52	0xbbd98059	-0.0066376147
53	0xbd8ebe0b	-0.069698416
54	0xbc65a2fe	-0.014015911
55	0x3b474574	0.0030406388
56	0x3da351a3	0.07974555
57	0x3cf2aa1f	0.029622136
58	0x3d75d1e3	0.060014617
59	0x3c38d069	0.011280158
60	0xbd9d43e3	-0.07678964
61	0xbcf65804	-0.030071266
62	0xbce2d6f9	-0.027690398
63	0xbd362174	-0.044465497
64	0x3d3ce155	0.04611333
65	0x3cd73f43	0.026275283
66	0xbda6c4cd	-0.081430055
67	0xbc845820	-0.016155303
68	0xbda4a38f	-0.08039009
69	0x3d7fa523	0.062413346
70	0xbd5876f6	-0.052847825
71	0x3c728b44	0.014803711
72	0x3cc62871	0.024189206
73	0x3d61a25c	0.05508648
74	0xbda6f80a	-0.081527784
75	0xbcb1deca	-0.02171268
76	0xbd49846e	-0.04919856
77	0xbd3242ee	-0.04352086
78	0x3d1d9106	0.038468383
79	0xbd36a7bb	-0.044593554
80	0x3da41621	0.08012033
81	0x3baeddb4	0.0053364877
82	0xbda6d276	-0.08145611
83	0x3d996f03	0.07491877
84	0xbba37745	-0.0049885833
85	0x3c6fb57d	0.0146306725
86	0x3cfd396e	0.030911174
87	0x3c2b9fa6	0.010475075
88	0xbcbc046c	-0.022951327
89	0x3d99f016	0.07516496
90	0x3cd0c74c	0.025485657
91	0xba881759	-0.0010382935
92	0xbd556590	-0.05209881
93	0x3c82cdfa	0.015967358
94	0xbd9ce36e	-0.07660566
95	0x3d328692	0.043585368
96	0x3d56203c	0.052276835
97	0xbc747c7d	-0.014922258
98	0x3d56ae71	0.052412454
99	0x3d567ad2	0.052363224
100	0xbb6e6750	-0.0036377497
101	0xbc5d2c44	-0.013499323
102	0x3b28c368	0.0025751237
103	0xbd816aa6	-0.0631917
104	0xbb5d526b	-0.0033771049
105	0xbcad6d40	-0.021170259
106	0x3d9d2805	0.07673649
107	0x3c8fabbd	0.017537946
108	0xbcc85c6b	-0.02445813
109	0x3db18336	0.086676046
110	0x3db3d7a9	0.08781368
111	0x3d50e074	0.050995305
112	0x3dad8b11	0.084737904
113	0xbd884164	-0.06653097
114	0xbce5fe47	-0.02807535
115	0x3d21e264	0.039522544
116	0x3c8ade1e	0.016951617
117	0x3c608deb	0.013705711
118	0x3d9115d7	0.07084244
119	0x3d148dec	0.03626816
120	0x3b9f0561	0.004852936
121	0x3d54b074	0.05192609
122	0x3daa31a8	0.083102524
123	0x3d00ad38	0.031415194
124	0xbd808a09	-0.06276328
125	0x3d8277de	0.06370519
126	0x3cc6199a	0.02418213
127	0xbc1ddf22	-0.009635719

weight f4 [128]
0	0x3f801eec	1.0009437
1	0x3f80253a	1.0011361
2	0x3f7e93c5	0.9944423
3	0x3f7e3d49	0.99312264
4	0x3f7e50ff	0.9934234
5	0x3f7e447a	0.99323237
6	0x3f7fe220	0.99954414
7	0x3f7e59b5	0.9935563
8	0x3f7f1863	0.99646586
9	0x3f7e9392	0.99443924
10	0x3f800321	1.0000955
11	0x3f7f2bc6	0.9967617
12	0x3f80275d	1.0012013
13	0x3f7e8317	0.9941878
14	0x3f7e8114	0.9941571
15	0x3f7fe544	0.99959207
16	0x3f7f673c	0.997669
17	0x3f7f416b	0.99709195
18	0x3f7ed725	0.99547035
19	0x3f7f8591	0.9981318
20	0x3f7e7cae	0.99408996
21	0x3f7fc2d1	0.9990664
22	0x3f7fadf4	0.99874806
23	0x3f7f9927	0.99843067
24	0x3f7f890f	0.9981851
25	0x3f7e68d1	0.9937869
26	0x3f7f05f4	0.9961846
27	0x3f7eef74	0.99584126
28	0x3f7f4777	0.9971842
29	0x3f7f81e8	0.99807596
30	0x3f7eea69	0.9957643
31	0x3f7feddc	0.9997232
32	0x3f7e7a6d	0.99405557
33	0x3f7f4422	0.9971334
34	0x3f7ecda0	0.9953251
35	0x3f7fe880	0.9996414
36	0x3f7ec6d5	0.99522144
37	0x3f7fd2f6	0.99931276
38	0x3f7f4ec2	0.9972955
39	0x3f7e120d	0.99246293
40	0x3f800e2f	1.0004328
41	0x3f7e82be	0.99418247
42	0x3f7dbae5	0.99113303
43	0x3f7f05d5	0.99618274
44	0x3f7ee5ad	0.9956921
45	0x3f7f9634	0.99838567
46	0x3f7f3f6e	0.9970616
47	0x3f7ed6da	0.9954659
48	0x3f7f08a6	0.9962257
49	0x3f7d997e	0.99062335
50	0x3f801e7b	1.0009302
51	0x3f800665	1.0001951
52	0x3f7e2bc9	0.9928556
53	0x3f7e17ef	0.9925527
54	0x3f7f2610	0.99667454
55	0x3f7eb513	0.9949505
56	0x3f7e4029	0.9931665
57	0x3f7f3ae1	0.9969922
58	0x3f7eee8e	0.99582756
59	0x3f7e2d62	0.99288
60	0x3f7ecad5	0.9952825
61	0x3f7e6faf	0.99389166
62	0x3f7e52cb	0.9934508
63	0x3f7fa875	0.9986642
64	0x3f7ee219	0.9956375
65	0x3f7f24a8	0.9966531
66	0x3f7f15e1	0.9964276
67	0x3f7ef8b5	0.99598247
68	0x3f7ec55a	0.99519885
69	0x3f7f0d3a	0.9962956
70	0x3f7f7f63	0.9980375
71	0x3f7ee000	0.99560547
72	0x3f7ed8af	0.9954938
73	0x3f7fb901	0.9989167
74	0x3f7f0c3e	0.99628055
75	0x3f7f1b6c	0.9965122
76	0x3f7eeb74	0.9957802
77	0x3f7e8726	0.9942497
78	0x3f7ee612	0.9956981
79	0x3f7fc4dd	0.99909765
80	0x3f7dff18	0.9921737
81	0x3f7fc9f0	0.9991751
82	0x3f7f8682	0.9981462
83	0x3f801435	1.0006167
84	0x3f7f2a1f	0.99673647
85	0x3f8016f8	1.000701
86	0x3f8014af	1.0006312
87	0x3f7fd570	0.99935055
88	0x3f7f13ab	0.99639386
89	0x3f7f1cd6	0.99653375
90	0x3f7edc1a	0.995546
91	0x3f7d420f	0.9892892
92	0x3f8006e1	1.0002099
93	0x3f7ee4f8	0.9956813
94	0x3f8025bb	1.0011514
95	0x3f7f5e29	0.9975305
96	0x3f7e93d5	0.99444324
97	0x3f7fb2b5	0.9988206
98	0x3f7ee1e0	0.9956341
99	0x3f7e5948	0.9935498
100	0x3f7f384e	0.9969529
101	0x3f7fada8	0.99874353
102	0x3f7d480c	0.9893806
103	0x3f7f0c25	0.99627906
104	0x3f7eec95	0.99579746
105	0x3f8004bc	1.0001445
106	0x3f7ec2ca	0.99515975
107	0x3f8013df	1.0006064
108	0x3f7f0337	0.9961428
109	0x3f7fa5b9	0.9986225
110	0x3f7ff37c	0.999809
111	0x3f7fd457	0.9993338
112	0x3f7ff67d	0.99985486
113	0x3f7ec030	0.99512005
114	0x3f80150b	1.0006422
115	0x3f7efd82	0.9960557
116	0x3f7fb96f	0.99892324
117	0x3f7ec2ba	0.9951588
118	0x3f80074d	1.0002228
119	0x3f7eaed8	0.9948554
120	0x3f7eff9a	0.9960877
121	0x3f7e7071	0.9939032
122	0x3f7f439f	0.99712557
123	0x3f80111a	1.0005219
124	0x3f7e8591	0.99422556
125	0x3f7e1fd2	0.99267304
126	0x3f7ea474	0.99469686
127	0x3f7fa2ea	0.9985796

bias f4 [128]
0	0x3b114645	0.0022167128
1	0xbb1467e1	-0.0022644924
2	0xbb2b6205	-0.0026150953
3	0xbb204d05	-0.002445997
4	0xbb4c241d	-0.0031149455
5	0xbb13ff47	-0.0022582577
6	0xbac8699e	-0.0015290265
7	0xbbb60914	-0.0055552814
8	0xbb0855fa	-0.00208032
9	0xbb48c6d2	-0.0030636084
10	0xbb0da808	-0.0021615047
11	0xbb28efd5	-0.0025777717
12	0x3ab5e286	0.0013876713
13	0xbb2c2975	-0.0026269828
14	0xbb128653	-0.0022357896
15	0x3b0ea4e4	0.0021765763
16	0xbb2241bc	-0.002475842
17	0x3b23ab1e	0.002497382
18	0xbb214392	-0.0024606925
19	0x3b192113	0.002336566
20	0x3b2243da	0.002475968
21	0x3b123799	0.002231097
22	0xbb111a65	-0.0022140977
23	0xbadb5745	-0.0016734382
24	0xbb08f269	-0.002089644
25	0xbb1ef0b1	-0.002425235
26	0x3b2a3242	0.0025969897
27	0x3b361871	0.0027785564
28	0xbb25df5f	-0.0025310142
29	0x3b0a8fc6	0.0021142825
30	0x3b255b2d	0.0025231347
31	0xbace6fea	-0.0015749906
32	0x3b6187f2	0.0034413305
33	0x3b095817	0.0020957047
34	0x3b2874ee	0.002570446
35	0x3b0b292b	0.0021234255
36	0x3b268526	0.0025408952
37	0xbb0fb3e0	-0.0021927282
38	0xbb25a09b	-0.002527273
39	0xbb332315	-0.0027334143
40	0x3b120af5	0.0022284363
41	0xbb26b7b7	-0.0025439092
42	0x3b19c1d3	0.0023461476
43	0x3b1385fa	0.0022510276
44	0xbb37172d	-0.0027937398
45	0x3b0affa3	0.00212095
46	0x3b2e7c8c	0.0026624529
47	0xbb25cc1b	-0.0025298658
48	0x3b104881	0.0022015872
49	0x3b1c0cb9	0.0023811294
50	0x3b132ddf	0.0022457761
51	0xbb0f3bf8	-0.0021855813
52	0xbb0be5b6	-0.0021346635
53	0xbb21ee92	-0.002470885
54	0xbb38c08d	-0.002819094
55	0x3be383dc	0.006943209
56	0x3b16c968	0.002300823
57	0x3b0ff041	0.002196327
58	0x3b27c060	0.0025596842
59	0x3b0a0886	0.002106221
60	0xbb235e18	-0.002492791
61	0xbb145b45	-0.0022637409
62	0xbb2a80a7	-0.0026016624
63	0xbb0a0944	-0.0021062652
64	0x3b08386d	0.0020785586
65	0x3af49eae	0.0018663013
66	0xbb2223ef	-0.0024740656
67	0xbb2f336b	-0.0026733528
68	0xbb212ce6	-0.0024593412
69	0x3b274382	0.0025522416
70	0xbb0f3e3e	-0.0021857168
71	0x3b0d7794	0.0021586167
72	0x3b3112d8	0.0027019288
73	0x3b166f8d	0.0022954673
74	0xbb230be1	-0.0024878907
75	0xbb25bb7a	-0.0025288747
76	0xbb0ea32a	-0.0021764734
77	0xbb1a35a2	-0.0023530503
78	0x3b2ccad4	0.0026366012
79	0xbb087745	-0.0020823043
80	0x3b1cf737	0.0023951062
81	0x3b90f329	0.004423518
82	0xbb12efb2	-0.0022420702
83	0x3b13fde5	0.0022581753
84	0x3b4860de	0.0030575315
85	0x3ad247ea	0.001604316
86	0x3b045962	0.0020194878
87	0x3aafab6a	0.0013402526
88	0xbb280f22	-0.0025643785
89	0x3b23ffa9	0.0025024211
90	0x3b328f6e	0.0027246135
91	0xbbb97072	-0.0056591565
92	0xbb16d208	-0.0023013372
93	0x3b32a2c6	0.0027257665
94	0xbb150e81	-0.002274424
95	0x3b27fa10	0.0025631227
96	0x3b1bbb30	0.0023762695
97	0xbac61289	-0.0015111725
98	0x3b28720f	0.002570275
99	0x3b1ff93c	0.002441003
100	0x3b0064ab	0.0019591253
101	0xbace2d2c	-0.0015730015
102	0xbc2bdc34	-0.010489512
103	0xbb1208fa	-0.0022283182
104	0xbb89ef27	-0.0042094174
105	0xbafa1e21	-0.0019082465
106	0x3b21b8a8	0.0024676714
107	0x3b501f9b	0.003175712
108	0xbb366607	-0.002783181
109	0x3b14cfb0	0.00227068
110	0x3b1561d6	0.002279391
111	0x3b0d9fe4	0.0021610195
112	0x3b15cf38	0.0022859108
113	0xbb200592	-0.0024417383
114	0xbb0589ba	-0.002037628
115	0x3b2e5e12	0.0026606363
116	0x3af51dd7	0.001870091
117	0x3b344e2a	0.002751241
118	0x3b124c7d	0.0022323423
119	0x3b2ec2dc	0.0026666438
120	0x3b896697	0.004193138
121	0x3b25df2a	0.0025310018
122	0x3b262868	0.0025353674
123	0x3b057640	0.0020364672
124	0xbb1ddc2f	-0.0024087538
125	0x3b1e78fa	0.0024180994
126	0x3b2874e5	0.002570444
127	0xbabefddd	-0.0014571507
