Single Battery Model/6. LSTM Models/model_B0007_combined_mm.pth (torch, 395904 bytes, 7 tensors)

weight_ih_l0 f4 [512, 60]
0.05938124 -0.05372488 -0.005056953 -0.08861193 0.00282976 0.055753596 -0.052098546 -0.06383364
-0.053505328 0.033084415 0.05844878 -0.05941818 0.07638741 -0.012265472 -0.06639336 0.0066898717
-0.0027696341 0.010854155 -0.08616353 -0.02375961 -0.078747444 -0.035134472 0.05629777 -0.080896474
-0.037877347 0.072601475 -0.031708617 -0.07178925 -0.0007658162 -0.07141105 -0.051776234 -0.07782398
0.042509027 -0.034869984 0.07516687 0.038503423 0.07611691 -0.06143975 -0.013506585 0.08359615
0.016443543 0.019151436 0.022753457 -0.01735962 -0.03992731 0.007953851 0.07148575 -0.040441368
-0.022752728 -0.012304715 -0.022254894 0.08285168 0.030446248 0.000682174 -0.079343535 0.027398411
-0.0689492 0.06844663 0.0113670835 0.04126488 0.05495073 0.00835037 0.0740724 0.04767537
0.05047675 -0.045795206 0.011306763 0.0094290245 0.077584244 0.04530926 -0.056315638 0.05852704
0.016732732 0.011645046 0.03895172 -0.042258017 -0.03068805 -0.05181217 -0.010783225 0.07770878
0.019091908 0.034995437 -0.0155340815 -0.04712538 -0.025453812 0.06757091 -0.045754567 -0.007069203
-0.022403326 0.021722555 0.01807122 0.027427863 0.059047796 -0.028274516 0.009894933 -0.032863267
0.07274435 0.07279404 -0.08604449 0.0032783651 -0.0048647784 0.04308255 0.035449155 -0.00731505
-0.06253839 -0.07935791 0.034300543 -0.020702185 -0.019519046 -0.040190876 0.05956358 -0.034940444
-0.0017586657 -0.05205086 -0.0029979465 -0.04137922 -0.011922407 -0.05563988 -0.07908073 -0.012625214
-0.07515979 -0.077694245 -0.05130269 -0.021052137 0.07200968 -0.05582349 0.0021752662 -0.08292752
0.07229328 0.0011302505 0.038928665 0.0006537025 -0.06476124 -0.07460269 0.0069100414 -0.06923335
0.0024935473 -0.04267465 0.009800297 -0.035537664 0.046871703 0.05059737 -0.033612397 -0.06305523
0.08795349 -0.06866134 -0.08157613 0.037324853 0.02550049 -0.03101945 0.07405945 0.06461411
-0.064350665 0.05515646 -0.0015809475 0.020987859 -0.07446975 -0.054146525 0.03873891 -0.017344048
-0.041989285 -0.066278204 0.077572346 0.0012509631 0.03932586 0.064119495 -0.014742768 0.076075695
-0.07541666 0.0412463 0.024676831 0.07276504 -0.037768323 -0.02202128 -0.02824756 -0.0017736043
-0.057213463 -0.014531912 -0.05533084 -0.047341425 -0.044500705 -0.03511775 0.03428217 0.068392836
0.06857487 -0.043527346 0.07335806 0.036506854 -0.058440793 0.04649784 -0.023544928 -0.018359574
0.07352358 -0.017918117 -0.026238274 0.023851372 0.061002668 0.020403551 -0.031960208 -0.090970814
-0.025153311 -0.015648695 0.0734365 -0.06270245 0.013230142 -0.017346472 0.06578282 -0.008690335
0.022358535 -0.0055067427 -0.02813724 -0.0029654484 -0.034636226 0.053347122 -0.0033153286 0.062370744
-0.06751385 -0.0936377 -0.06998744 -0.011808483 -0.034822788 0.04638917 -0.06668876 -0.013422794
-0.01284818 0.0582868 -0.051490903 0.027484166 -0.048446126 -0.011993513 0.03474751 -0.07539247
0.047059335 -0.025437089 0.054444328 0.038894933 -0.049259655 0.062258918 -0.053190626 -0.09086316
0.010865474 -0.006856517 0.04127179 0.08246432 -0.025201544 0.010651249 -0.08845724 -0.073840514
-0.04528988 -0.048336625 0.054122828 0.03798942 -0.06287569 -0.013825104 0.053001497 -0.06868028
00000000: be39 733d 9f0e 5cbd ccb4 a5bb 2c7a b5bd
00000010: 7f73 393b e25d 643d 4965 55bd 36bb 82bd
00000020: 6728 5bbd 8683 073d fd67 6f3d 7a60 73bd
00000030: 0171 9c3d 1ef5 48bc 3ef9 87bd b636 db3b
00000040: c082 35bb a0d5 313c 8176 b0bd 83a3 c2bc
00000050: 5746 a1bd 2ae9 0fbd 7e98 663d 0dad a5bd
00000060: 4725 1bbd 15b0 943d e5e0 01bd 3e06 93bd
00000070: 0ec1 48ba f53f 92bd 5113 54bd 2e62 9fbd
00000080: f21d 2e3d d4d3 0ebd 17f1 993d c4b5 1d3d
00000090: 2fe3 9b3d 3fa8 7bbd b94a 5dbc 7534 ab3d
000000a0: 9cb4 863c 79e3 9c3c 7565 ba3c c335 8ebc
000000b0: d28a 23bd de50 023c 1f67 923d d9a5 25bd
000000c0: ee63 babc b799 49bc e54f b6bc 24ae a93d
000000d0: 696a f93c ecd3 323a dd7e a2bd a272 e03c
000000e0: 3d35 8dbd bf2d 8c3d 013d 3a3c 5d05 293d
000000f0: 0414 613d fecf 083c 45b3 973d 4047 433d
00000100: b5c0 4e3d c193 3bbd 0040 393c 327c 1a3c
00000110: 7de4 9e3d 3496 393d 3aab 66bd 0dba 6f3d
00000120: 1513 893c ddca 3e3c d78b 1f3d be16 2dbd
00000130: 8165 fbbc ff38 54bd 20ac 30bc c825 9f3d
00000140: a266 9c3c 6057 0f3d a982 7ebc 8b06 41bd
00000150: 8384 d0bc 9e62 8a3d 2469 3bbd c6a4 e7bb
00000160: 2e87 b7bc 80f3 b13c 180a 943c 66b0 e03c
00000170: 1adc 713d f59f e7bc 5b1e 223c a29b 06bd
00000180: fdfa 943d 0b15 953d 1838 b0bd d7d9 563b
00000190: b868 9fbb 5477 303d 2233 113d 16b3 efbb
000001a0: 2114 80bd 6686 a2bd ba7e 0c3d a197 a9bc
000001b0: 68e6 9fbc 309f 24bd f1f8 733d b61d 0fbd
000001c0: 0783 e6ba 4833 55bd 3279 44bb 427d 29bd
000001d0: 3356 43bc a5e6 63bd 14f5 a1bd fcd9 4ebc
000001e0: 60ed 99bd 291e 9fbd c522 52bd 8875 acbc
000001f0: d079 933d 2ca7 64bd e98e 0e3b e7d5 a9bd
00000200: 800e 943d ea24 943a aa73 1f3d 3b5d 2b3a
00000210: 8aa1 84bd 4cc9 98bd a16d e23b 37ca 8dbd
00000220: c86a 233b 9dcb 2ebd 6d91 203c f18f 11bd
00000230: 8bfc 3f3d 303f 4f3d 27ad 09bd 1a23 81bd
00000240: f620 b43d 519e 8cbd 6311 a7bd f2e1 183d
00000250: 67e6 d03c 801c febc 7bac 973d 6754 843d
00000260: 48ca 83bd bdeb 613d cc37 cfba bbee ab3c
00000270: 9983 98bd bfc8 5dbd b1ac 1e3d 1b15 8ebc
00000280: f5fc 2bbd debc 87bd 40de 9e3d 5bf7 a33a
00000290: 2714 213d 1551 833d a78b 71bc 93cd 9b3d
000002a0: 0d74 9abd e1f1 283d 1127 ca3c d605 953d
000002b0: f5b2 1abd f965 b4bc 6d67 e7bc 4978 e8ba
000002c0: aa58 6abd 4217 6ebc 97a2 62bd 15e9 41bd
000002d0: 5f46 36bd a1d7 0fbd 766b 0c3d 8b11 8c3d
000002e0: fb70 8c3d bb49 32bd c03c 963d 3688 153d
000002f0: 9d5f 6fbd 8574 3e3d 4be1 c0bc d166 96bc
00000300: 8893 963d 04c9 92bc a6f1 d6bc f463 c33c
00000310: efdd 793d 5925 a73c b5e8 02bd e84e babd
00000320: 510e cebc b131 80bc e065 963d 246a 80bd
00000330: 3dc3 583c 301a 8ebc 25b9 863d e861 0ebc
00000340: 3f29 b73c e871 b4bb 1280 e6bc f857 42bb
00000350: b7de 0dbd 8382 5a3d fc45 59bb 7778 7f3d
00000360: b444 8abd 1fc5 bfbd 9355 8fbd 5e78 41bc
00000370: 57a2 0ebd 9202 3e3d 1e94 88bd 47eb 5bbc
00000380: 2c81 52bc 24be 6e3d 20e8 52bd 7926 e13c
00000390: 726f 46bd 7180 44bc 6853 0e3d 5e67 9abd
000003a0: 4ac1 403d 7161 d0bc 0401 5f3d 4b50 1f3d
000003b0: 7ec4 49bd 3503 7f3d 6ade 59bd 7716 babd
000003c0: 1a05 323c a2ac e0bb 9c0c 293d 0ee3 a83d
000003d0: 7873 cebc 9482 2e3c 1229 b5bd b239 97bd
000003e0: e281 39bd a0fc 45bd e6af 5d3d cb9a 1b3d
000003f0: f8c4 80bd b082 62bc 1918 593d 3fa8 8cbd

weight_hh_l0 f4 [512, 128]
-0.052557413 0.08829588 0.081583284 -0.008375828 -0.009347418 0.0854521 -0.031622935 -0.030346809
-0.081485674 0.0023793508 0.050625425 0.024547046 -0.01784037 -0.084121265 -0.01180754 -0.06287139
0.015373128 0.06985091 -0.07409048 0.011928709 -0.004128207 0.061016392 -0.024978098 0.028805254
-0.020005751 -0.07255021 -0.0056922915 -0.07172528 -0.03743543 0.0836991 -0.08351368 -0.062149566
0.041444525 -0.04406029 0.032659814 0.081075236 0.0216309 -0.08883282 0.008313794 -0.09232154
0.048024572 -0.04351834 0.002289052 -0.07934773 0.038074113 0.08333437 -0.08335762 -0.08719654
0.023445142 0.020488845 0.010733228 -0.03577375 0.0038340008 -0.009887326 -0.02523968 -0.037581876
-0.08461626 -0.021986762 0.07835036 0.05773761 -0.063501745 -0.059712585 0.01196184 0.029796124
-0.02871555 -0.05340839 0.053696185 -0.079019055 -0.03770014 -0.017147986 0.04696349 0.086487606
-0.07793736 0.05639627 0.001869717 -0.06350667 -0.025570568 0.017966665 -0.077286415 -0.053113766
0.008173467 0.051105488 -0.029767837 0.087036304 -0.076291926 0.042530857 -0.029194012 -1.9158806e-05
0.038485546 -0.075863615 0.047605902 0.07016609 -0.04137703 -0.08601343 -0.081254646 -0.046360977
-0.02148602 0.0035061236 -0.045894586 0.060201757 0.08012729 -0.012011478 0.0516274 -0.04238115
0.046740483 -0.06313586 -0.06451322 0.066168725 -0.08115475 0.043348514 -0.085295744 0.023153849
0.05605628 0.043342866 -0.056129046 -0.015747853 0.0024554052 -0.061412994 0.01593294 -0.07440349
-0.054159157 0.04735418 0.032755863 0.045820158 0.0038477774 -0.038614124 -0.024082474 -0.0071834973
0.06406439 0.036123354 0.0150024835 0.06012525 0.008927461 0.012704604 0.014889691 -0.032034572
0.07404629 0.0700907 0.00026598593 -0.06957829 -0.003780197 -0.059791736 -0.032922275 -0.05953897
0.05110019 0.06331252 0.04915556 0.046522044 0.027895255 -0.078426175 0.024552982 -0.043817423
-0.05022525 0.008068978 0.0021319883 -0.086441115 0.0005040205 0.028615111 -0.057483193 0.022600897
-0.053090293 -0.07891344 -0.034007967 -0.054894585 -0.07336567 0.017464548 -0.076076195 0.048080165
-0.009827728 -0.008672427 0.08243536 -0.022764716 0.052221954 -0.040373996 0.052084144 -0.02085643
-0.07689805 0.08105996 0.07605025 0.012036681 0.023816539 -0.01238184 -0.060865264 -0.034910917
-0.06521217 -0.046350677 0.013412062 -0.043305848 0.05627232 -0.052221198 0.040357072 -0.056066375
-0.022095148 -0.08786637 -0.055931944 -0.076237656 0.034020994 -0.07397504 0.06997665 -0.013530303
-0.00076995336 0.020571752 0.070696376 0.039241854 -0.03203522 -0.045452308 -0.052045856 -0.02851596
0.08225565 0.043644797 0.06513398 0.052133523 0.089958616 -0.061010785 0.04125655 -0.03471563
0.07703061 -0.04866318 0.033869207 -0.026899885 -0.06260084 -0.0771728 -0.006620883 -0.020426651
-0.035837658 -0.044468142 0.038408644 -0.05497459 0.049458083 -0.017768057 0.03800825 -0.07448697
-0.0644211 -0.04629002 0.042382706 -0.03267343 -0.05125024 -0.03671042 0.024914483 0.03672897
0.018482924 -0.020619376 0.08131446 0.036711182 0.010293837 0.089114614 -0.0027283388 -0.064486496
-0.079853825 0.06253048 0.009958507 0.031670824 0.08013945 -0.030222578 0.055568185 0.032844607
00000000: 7146 57bd 78d4 b43d 2315 a73d c53a 09bc
00000010: ea25 19bc 8301 af3d 0d87 01bd df99 f8bc
00000020: f6e1 a6bd e2ee 1b3b 9b5c 4f3d e316 c93c
00000030: f825 92bc c547 acbd 6a74 41bc b7c2 80bd
00000040: 92df 7b3c fe0d 8f3d c0bc 97bd a270 433c
00000050: e945 87bb 53ec 793d de9e ccbc fff8 eb3c
00000060: 1ae3 a3bc 3495 94bd 6786 babb b4e4 92bd
00000070: e555 19bd 6f6a ab3d 3809 abbd 8b90 7ebd
00000080: bcc1 293d 9078 34bd 4cc6 053d c60a a63d
00000090: 4933 b13c fbed b5bd 9436 083c 1313 bdbd
000000a0: 6ab5 443d 4940 32bd eb03 163b 1081 a2bd
000000b0: 9af3 1b3d 36ab aa3d 66b7 aabd 1994 b2bd
000000c0: 0710 c03c 39d8 a73c 6cda 2f3c 7f87 12bd
000000d0: dc43 7b3b 73fe 21bc 72c3 cebc 74ef 19bd
000000e0: 4a4b adbd 951d b4bc 2776 a03d 467e 6c3d
000000f0: 340d 82bd 2f95 74bd 98fb 433c 0017 f43c
00000100: e03c ebbc c2c2 5abd 88f0 5b3d bed4 a1bd
00000110: 766b 1abd ef79 8cbc ca5c 403d 6a20 b13d
00000120: 9f9d 9fbd c6ff 663d 4b11 f53a c90f 82bd
00000130: 5e79 d1bc d42e 933c 5748 9ebd d28d 59bd
00000140: 01ea 053c fd53 513d aedb f3bc 1740 b23d
00000150: f13e 9cbd d634 2e3d 4828 efbc 39b7 a0b7
00000160: 05a3 1d3d 625e 9bbd 68fe 423d 3db3 8f3d
00000170: f67a 29bd cf27 b0bd d668 a6bd 02e5 3dbd
00000180: 7303 b0bc fec6 653b f6fb 3bbd 1e96 763d
00000190: c719 a43d cacb 44bc 4177 533d db97 2dbd
000001a0: f372 3f3d 604d 81bd 821f 84bd 7883 873d
000001b0: 7634 a6bd 368e 313d 89af aebd 24ad bd3c
000001c0: 459b 653d 4a88 313d 92e7 65bd a401 81bc
000001d0: ddea 203b 318c 7bbd cc85 823c db60 98bd
000001e0: fed5 5dbd 75f6 413d 032b 063d ebad 3b3d
000001f0: fe2a 7c3b d829 1ebd 9c48 c5bc 8b63 ebbb
00000200: 3134 833d 15f6 133d facc 753c e545 763d
00000210: 7c44 123c f926 503c e4f3 733c af36 03bd
00000220: 95a5 973d b78b 8f3d 0774 8b39 107f 8ebd
00000230: 2ebd 77bb 2ee8 74bd 82d9 06bd 23df 73bd
00000240: 6f4e 513d ffa9 813d 5757 493d e68d 3e3d
00000250: 9784 e43c e79d a0bd 5623 c93c e679 33bd
00000260: feb8 4dbd bf33 043c d4b8 0b3b 0a08 b1bd
00000270: 3e20 043a 3d6a ea3c 7f73 6bbd 8425 b93c
00000280: 3575 59bd 5f9d a1bd f04b 0bbd 25d9 60bd
00000290: be40 96bd d011 8f3c d6cd 9bbd b5ef 443d
000002a0: 7b04 21bc cc16 0ebc dfd3 a83d 127d babc
000002b0: b0e6 553d 345f 25bd 2f56 553d 1bdb aabc
000002c0: ba7c 9dbd c402 a63d 3cc0 9b3d 8035 453c
000002d0: e71a c33c 33dd 4abc db4d 79bd c0fe 0ebd
000002e0: f58d 85bd 35da 3dbd 44be 5b3c 7961 31bd
000002f0: ce7d 663d e5e5 55bd 754d 253d dba5 65bd
00000300: e200 b5bc 49f3 b3bd e518 65bd 7d22 9cbd
00000310: 9959 0b3d 3a80 97bd eb4f 8f3d 34ae 5dbc
00000320: b2d6 49ba 1786 a83c 43c9 903d 11bc 203d
00000330: 5d37 03bd 332c 3abd 092e 55bd 4d9a e9bc
00000340: a675 a83d e3c4 323d f764 853d f689 553d
00000350: 393c b83d 72e6 79bd a1fc 283d fa31 0ebd
00000360: 39c2 9d3d 0b53 47bd 70ba 0a3d 265d dcbc
00000370: df34 80bd c60c 9ebd fef3 d8bb cb55 a7bc
00000380: 82ca 12bd 3a24 36bd 6252 1d3d 092d 61bd
00000390: 8f94 4a3d 518e 91bc 8aae 1b3d a08c 98bd
000003a0: 36ef 83bd 9b9a 3dbd 7d99 2d3d 93d4 05bd
000003b0: c6eb 51bd aa5d 16bd 7519 cc3c 1e71 163d
000003c0: 8069 973c f7e9 a8bc 3288 a63d 775e 163d
000003d0: 7ba7 283c b981 b63d eecd 32bb 7f11 84bd
000003e0: 678a a3bd fb0f 803d 0129 233c 44b9 013d
000003f0: 2720 a43d 5795 f7bc 779b 633d 1188 063d

bias_ih_l0 f4 [512]
-0.040254872 -0.04042214 0.041941024 -0.04424911 0.008079616 0.0101213595 0.08433055 -0.036956433
-0.03244824 -0.025697535 0.035297934 -0.04421551 -0.022712475 0.042819384 -0.060884956 -0.08720907
0.058160003 -0.030906998 -0.030273648 0.048804197 0.06310465 -0.012903299 0.07371053 -0.0913345
0.07250293 0.016202921 0.067648694 -0.057252076 -0.027198475 -0.08695861 0.01134484 0.010356341
-0.03223193 -0.085534856 -0.044514984 0.005452337 0.048354477 -0.010584992 0.05482765 0.027988553
0.092744134 0.026261874 0.036158577 0.045448262 -0.08909679 0.07029814 0.034568764 -0.063722074
0.074306846 -0.050435573 -0.014831952 0.068591826 0.057837907 -0.089267276 -0.00074798113 -0.001746146
0.015258168 -0.0004511971 -0.003981194 -0.07374634 -0.07687439 -0.06084008 0.0041466393 0.010763793
-0.060163483 -0.05427143 0.00033359835 0.020926354 0.07292573 0.029699206 -0.03793276 0.043657944
0.042231295 0.07046663 0.0644491 -0.027777258 0.053130224 0.004329824 -0.022412686 0.017028373
0.055260457 -0.08245448 0.065684445 0.08603328 0.006435696 -0.038201254 0.073401436 0.08020485
0.07944364 -0.07461632 0.030697023 -0.011313888 0.037686463 -0.0596525 0.040662456 -0.02525225
-0.08374994 0.0062199757 -0.009902491 0.025745127 0.0093901055 -0.057083897 0.08149526 0.029697698
0.06146091 -0.019162867 -0.0016921298 0.048280932 -0.005904039 0.008739813 -0.011696978 0.091851346
-0.024453586 0.017315488 0.027876025 -0.10330952 0.05538133 -0.06512722 0.02469662 -0.054291967
0.0682321 0.0032522143 -0.049880113 0.050449584 0.06753023 -0.08771938 0.06687474 -0.054593753
-0.01930574 -0.02704724 0.030680496 -0.089062996 -0.02631124 0.01862254 -0.012898643 0.009413158
0.08588867 -0.06429446 0.0863943 0.020381961 -0.025207397 0.027150186 -0.036548376 -0.07484905
-0.028902108 -0.0006573064 -0.08647294 -0.029885087 0.010286446 0.065565735 -0.029475251 0.07267464
-0.025099998 0.050727587 0.018646391 -0.027219154 -0.074227445 0.013382149 0.043431085 0.08791323
-0.060034055 0.0058702985 0.02505654 -0.010789512 -0.010591576 -0.03322883 0.06110389 -0.03362305
0.011798509 0.03716505 0.033969663 0.036273967 -0.00061944895 0.03647921 0.017127069 0.009718891
-0.049209286 -0.031144287 -0.061100323 -0.058270756 0.053447418 0.058865137 0.02561683 0.048638742
-0.0706332 0.0026399284 0.016520215 -0.05108817 -0.03000358 -0.058141865 0.027600635 -0.036179107
-0.010014417 -0.07300893 0.0038275768 -0.03765606 0.04195626 -0.0727537 -0.0032808478 0.082812965
-0.07020781 -0.05119329 -0.05289374 0.080900036 -0.059579138 0.042431448 -0.026784543 -0.04248371
-0.044821393 0.051128134 -0.017352363 -0.023726149 -0.055145875 -0.08313893 -0.03870718 -0.00922658
0.0025492162 -0.07003623 -0.07776024 0.050646953 0.08223586 -0.050103657 -0.05550167 -0.071656846
-0.043482244 0.06221486 -0.01466138 -0.03960461 0.055070303 0.077661656 0.085313946 -0.07661506
-0.020279754 0.031687185 -0.035011422 0.006025867 -0.053633805 0.08004608 0.039664373 -0.060492177
0.062111136 0.057826433 -0.054724913 0.06329118 0.032299183 -0.004265224 -0.009317035 0.08574919
-0.007745106 0.07246576 0.0928441 -0.001819906 -0.046719458 0.034706086 0.042271864 0.015816946
00000000: 4be2 24bd b091 25bd 5aca 2b3d 8e3e 35bd
00000010: 5e60 043c 0fd4 253c 7fb5 ac3d a15f 17bd
00000020: 72e8 04bd a383 d2bc 9194 103d 531b 35bd
00000030: 830f babc 6163 2f3d 8162 79bd ab9a b2bd
00000040: 2f39 6e3d ac30 fdbc 7100 f8bc e9e6 473d
00000050: 033d 813d 5c68 53bc 8cf5 963d 950d bbbd
00000060: 6b7c 943d fdbb 843c 668b 8a3d 2781 6abd
00000070: 56cf debc 5b17 b2bd b5df 393c a4ad 293c
00000080: a105 04bd e62c afbd 5855 36bd 85a9 b23b
00000090: 580f 463d ad6c 2dbc f592 603d 4048 e53c
000000a0: a3f0 bd3d 2423 d73c 041b 143d f527 3a3d
000000b0: 6178 b6bd 79f8 8f3d fa97 0d3d b880 82bd
000000c0: 302e 983d 8895 4ebd b701 73bc df79 8c3d
000000d0: 71e7 6c3d c3d1 b6bd 2a14 44ba f0de e4ba
000000e0: 65fd 793c a68e ecb9 ad74 82bb 5208 97bd
000000f0: 5270 9dbd 7333 79bd 88e0 873b 9f5a 303c
00000100: fc6d 76bd b84b 5ebd d0e6 ae39 bf6d ab3c
00000110: 165a 953d c04b f33c 625f 1bbd acd2 323d
00000120: b9fa 2c3d cf50 903d e4fd 833d 228d e3bc
00000130: 149f 593d 32e1 8d3b cf9a b7bc 167f 8b3c
00000140: ca58 623d e5dd a8bd 9185 863d 3732 b03d
00000150: 88e2 d23b eb78 1cbd 7e53 963d 7142 a43d
00000160: 59b3 a23d 71d0 98bd 5378 fb3c e35d 39bc
00000170: 1f5d 1a3d 2e56 74bd ad8d 263d cedd cebc
00000180: 1785 abbd f0d0 cb3b 0f3e 22bc 72e7 d23c
00000190: f5d8 193c ced0 69bd fde6 a63d 9648 f33c
000001a0: 6fbe 7b3d 72fb 9cbc 74ca ddba 3ac2 453d
000001b0: ab76 c1bb 6f31 0f3c aea4 3fbc 8f1c bc3d
000001c0: e352 c8bc 36d9 8d3c 435c e43c f193 d3bd
000001d0: 89d7 623d 6b61 85bd 9150 ca3c 4161 5ebd
000001e0: 45bd 8b3d 1a23 553b 174f 4cbd 39a4 4e3d
000001f0: 4a4d 8a3d 38a6 b3bd a0f5 883d b39d 5fbd
00000200: 1227 9ebc 2c92 ddbc aa55 fb3c a966 b6bd
00000210: ab8a d7bc 4c8e 983c d454 53bc a539 1a3c
00000220: 66e6 af3d d0ac 83bd 7fef b03d 12f8 a63c
00000230: be7f cebc 116a de3c c0b3 15bd 754a 99bd
00000240: 1dc4 ecbc 164f 2cba ba18 b1bd 92d1 f4bc
00000250: 7b88 283c 5447 863d 1576 f1bc 71d6 943d
00000260: 839e cdbc bbc7 4f3d 51c0 983c b4fa debc
00000270: 8f04 98bd cd40 5b3c cbe4 313d da0b b43d
00000280: 45e6 75bd a25b c03b 5f43 cd3c 7ec6 30bc
00000290: 4a88 2dbc f41a 08bd 1348 7a3d 53b8 09bd
000002a0: 894e 413c 613a 183d c623 0b3d 0394 143d
000002b0: 8462 22ba 396b 153d 114e 8c3c fc3b 1f3c
000002c0: ad8f 49bd 4e22 ffbc 5544 7abd 51ad 6ebd
000002d0: aeeb 5a3d 921c 713d 63da d13c 6b39 473d
000002e0: 24a8 90bd a602 2d3b 6755 873c d441 51bd
000002f0: 11ca f5bc 2a26 6ebd ba1a e23c 8b30 14bd
00000300: 8213 24bc b585 95bd 15d8 7a3b 3e3d 1abd
00000310: 54da 2b3d e4ff 94bd 7e03 57bb d899 a93d
00000320: 1dc9 8fbd 0eb0 51bd 1ba7 58bd ebae a53d
00000330: 4109 74bd 99cc 2d3d 426b dbbc 6603 2ebd
00000340: a396 37bd bc6b 513d 8b26 8ebc 575d c2bc
00000350: a4e0 61bd be44 aabd 6c8b 1ebd 152b 17bc
00000360: c010 273b 286f 8fbd c340 9fbd 2e73 4f3d
00000370: 466b a83d 7e39 4dbd b855 63bd d3c0 92bd
00000380: 701a 32bd 02d5 7e3d 4936 70bc 7238 22bd
00000390: 6691 613d 130d 9f3d 14b9 ae3d 5be8 9cbd
000003a0: ba21 a6bc 6cca 013d 2368 0fbd a374 c53b
000003b0: 1faf 5bbd 33ef a33d 1c77 223d a5c6 77bd
000003c0: 3f68 7e3d 69db 6c3d 3b27 60bd ce9e 813d
000003d0: 264c 043d 4bc3 8bbb 7aa6 18bc 459d af3d
000003e0: a8ca fdbb ee68 943d 0c25 be3d ea89 eeba
000003f0: e75c 3fbd f827 0e3d 4325 2d3d 8a92 813c

bias_hh_l0 f4 [512]
-0.031939737 0.013541736 0.077358775 0.0476892 0.0067319726 -0.039195985 0.08727629 0.059566613
0.01769854 0.0061641666 -0.0836712 0.07965024 0.0027404614 0.03368262 0.06911329 0.025937112
0.00406335 -0.064456314 -0.07460652 0.033012453 0.06693091 0.03760243 -0.071034685 -0.023378277
-0.076842226 0.04982526 -0.012298694 -0.013648278 0.048984136 -0.008937775 -0.02211606 -0.061463818
0.035001483 0.0016876061 -0.039413445 0.028989268 0.07794892 0.0047567394 -0.016107615 -0.006939755
-0.06447044 0.023387345 -0.07700251 0.0009982383 -0.0231073 -0.07218511 0.08356662 0.012252965
-0.033820577 0.027431907 0.026843362 0.049424432 0.047439683 -0.090114154 0.06983282 -0.058294754
0.081276864 0.0025839214 0.079945125 -0.040126275 0.057609033 -0.033169344 0.010904423 0.06659534
0.03239142 -0.026477046 -0.038444765 0.073975645 -0.054978777 0.056274764 0.07533898 -0.006483351
-0.021454943 0.022105051 0.017987162 0.046743106 -0.057757605 0.059150178 0.058298375 -0.020135008
-0.066048 0.016196484 0.017953904 -0.0835005 0.011051701 -0.09202685 0.079293236 -0.04439607
-0.09025647 -0.036066562 0.0038638513 0.054487433 -0.0520126 -0.07141514 -0.005978996 -0.083547525
-0.00064325804 -0.079679176 -0.08738778 -0.036980797 -0.07965787 0.039902143 0.04600774 0.055398673
0.009726045 -0.08165214 -0.063827775 0.028322117 -0.056877874 -0.059033286 -0.07156049 0.036561754
-0.029307028 0.01351932 -0.040537737 0.04148005 -0.030376242 -0.07371072 0.060535472 -0.0097359605
-0.031128071 -0.06612682 -0.023775943 -0.08146417 -0.028629689 -0.032129698 0.042947426 -0.046733934
-0.03907462 0.06295633 0.06476288 -0.022617148 0.051281705 0.020984441 -0.055846374 -0.0018652427
-0.04464629 -0.05787466 -0.07290501 -0.013541778 -0.037708506 -0.039211325 -0.09925041 0.08545404
0.0049628792 0.059200365 0.08112763 -0.06666378 0.013278742 -0.0066153277 -0.010490824 -0.07224154
-0.036073577 -0.06926349 0.03470558 -0.006697558 0.05659178 0.061433088 -0.0072235945 -0.07495746
-0.064330876 -0.093492806 0.011818798 -0.08834978 -0.02970363 -0.055824973 0.0004803494 0.0027015167
-0.034523908 -0.002751851 0.045295253 0.024188954 0.059010353 -0.08168123 -0.060268905 -0.08179905
-0.023026919 -0.0012475197 0.08908809 0.030090293 0.0665782 0.0006280198 0.03386964 0.064905286
-0.013405471 -0.018745713 0.09793708 0.011803601 -0.041397776 0.03237594 0.06435593 -0.027047541
0.06589947 0.019468429 0.012933092 -0.028421097 -0.010247331 0.021586847 -0.068208985 -0.08078909
0.0029339106 -0.06190053 0.042313784 -0.060774766 0.047435395 0.018505787 0.039638758 -0.05351656
-0.036227167 0.07402638 0.012352852 0.08548119 -0.039993577 -0.004379829 0.023963114 0.004654386
0.036028694 -0.086536676 -0.07227673 0.07973836 -0.055908587 -0.0062939837 0.074531086 0.045664273
-0.074662946 0.078391135 0.00932837 0.012684874 0.03634364 0.0015203074 0.037782013 -0.020373829
0.035837855 0.022274755 -0.09685665 -0.030713618 0.0289424 -0.072535075 -0.02835921 0.009317083
0.074153215 0.034619745 -0.014465298 -0.058525912 -0.0009436356 0.069102675 -0.07501814 0.00079484656
-0.002679643 0.008109941 -0.03304202 -0.0104165515 0.002632194 -0.071576454 0.02182828 0.079608
00000000: 3ed3 02bd 28de 5d3c 476e 9e3d c055 433d
00000010: e197 dc3b f88b 20bd e9bd b23d 1ffc 733d
00000020: 87fc 903c c7fc c93b ce5b abbd aa1f a33d
00000030: 5099 333b c9f6 093d 458b 8d3d 117a d43c
00000040: da25 853b ac01 84bd 4ecb 98bd 1138 073d
00000050: 1313 893d 0105 1a3d a27a 91bd cd83 bfbc
00000060: 755f 9dbd 9215 4c3d 7680 49bc 079d 5fbc
00000070: 97a3 483d bf6f 12bc bd2c b5bc 7cc1 7bbd
00000080: b75d 0f3d aa32 dd3a fe6f 21bd e77a ed3c
00000090: afa3 9f3d 6cde 9b3b 1ef4 83bc e266 e3bb
000000a0: 1409 84bd d196 bf3c 7eb3 9dbd 52d7 823a
000000b0: 854b bdbc c9d5 93bd fa24 ab3d a9c0 483c
000000c0: 7287 0abd e1b8 e03c 9ce6 db3c 4671 4a3d
000000d0: 1d50 423d c58d b8bd 8204 8f3d 7bc6 6ebd
000000e0: 7c74 a63d 0257 293b 45ba a33d 735b 24bd
000000f0: 73f7 6b3d 94dc 07bd 77a8 323c 2363 883d
00000100: deac 043d 64e6 d8bc 4278 1dbd 8b80 973d
00000110: 6d31 61bd 5e80 663d 534b 9a3d 4a72 d4bb
00000120: 47c2 afbc a715 b53c d059 933c b375 3f3d
00000130: 3d93 6cbd 7547 723d 47ca 6e3d 2cf2 a4bc
00000140: 2c44 87bd 7dae 843c 1114 933c 4f02 abbd
00000150: 3212 353c 9378 bcbd 7e64 a23d a7d8 35bd
00000160: 62d8 b8bd 88ba 13bd ab38 7d3b 372e 5f3d
00000170: 2a0b 55bd 1a42 92bd 74eb c3bb f71a abbd
00000180: 51a0 28ba d62e a3bd 5df8 b2bd 2d79 17bd
00000190: aa23 a3bd 6e70 233d 9d72 3c3d b8e9 623d
000001a0: fd59 1f3c 3d39 a7bd 23b8 82bd c903 e83c
000001b0: c6f8 68bd e3cc 71bd 4e8e 92bd c7c1 153d
000001c0: 4b15 f0bc 2380 5d3c e60a 26bd fce6 293d
000001d0: 99d7 f8bc a5f5 96bd 0bf4 773d 9483 1fbc
000001e0: 4c00 ffbc 806d 87bd c4c5 c2bc b0d6 a6bd
000001f0: cf88 eabc 6e9a 03bd a4e9 2f3d 156c 3fbd
00000200: b50c 20bd 40ef 803d 67a2 843d 9947 b9bc
00000210: c40c 523d 90e7 ab3c 2bbf 64bd 297b f4ba
00000220: 07df 36bd fb0d 6dbd 394f 95bd 55de 5dbc
00000230: 3c74 1abd 0e9c 20bd cd43 cbbd 8702 af3d
00000240: a69f a23b 157c 723d 3e26 a63d 0587 88bd
00000250: 158f 593c 64c5 d8bb b4e1 2bbc 5ff3 93bd
00000260: e3c1 13bd 04da 8dbd 7027 0e3d 3077 dbbb
00000270: c8cc 673d 43a1 7b3d e7b3 ecbb 4c83 99bd
00000280: e8bf 83bd 2879 bfbd a2a3 413c bbf0 b4bd
00000290: 0755 f3bc baa8 64bd 68d7 fb39 ee0b 313b
000002a0: f168 0dbd 6658 34bb 8487 393d ea27 c63c
000002b0: d7b4 713d 7d48 a7bd 87dc 76bd 4386 a7bd
000002c0: f3a2 bcbc d183 a3ba d173 b63d eb7f f63c
000002d0: 275a 883d b2a1 243a e4ba 0a3d 10ed 843d
000002e0: 9fa2 5bbc 9c90 99bc 3c93 c83d e463 413c
000002f0: b790 29bd a29c 043d 0bcd 833d ce92 ddbc
00000300: 4df6 863d 417c 9f3c 52e5 533c 5cd3 e8bc
00000310: 6ce4 27bc e6d6 b03c 27b1 8bbd c074 a5bd
00000320: da46 403b 698b 7dbd 3851 2d3d f6ee 78bd
00000330: 9e4b 423d 7399 973c 405c 223d 2e34 5bbd
00000340: f062 14bd 259b 973d 9e63 4a3c c310 af3d
00000350: 4ed0 23bd ab84 8fbb 4b4e c43c d283 983b
00000360: d392 133d 243a b1bd d205 94bd de4d a33d
00000370: 6700 65bd c33d cebb c1a3 983d 760a 3b3d
00000380: e3e8 98bd 888b a03d 05d6 183c 38d4 4f3c
00000390: 12dd 143d 0d45 c73a 50c1 1a3d 04e7 a6bc
000003a0: b7ca 123d 8c79 b63c c85c c6bd 209b fbbc
000003b0: 9d18 ed3c 458d 94bd 9351 e8bc aea6 183c
000003c0: a4dd 973d 6fcd 0d3d dbff 6cbc deb8 6fbd
000003d0: 505e 77ba b485 8d3d 1ca3 99bd 405d 503a
000003e0: f39c 2fbb 8fdf 043c 1257 07bd 2faa 2abc
000003f0: e380 2c3b ad96 92bd 39d1 b23c 8509 a33d

weight f4 [1, 128]
-0.08602334 -0.046418417 0.05765622 0.08182931 -0.044015456 0.030940901 -0.0010146039 -0.035567768
-0.0022823026 0.030834192 -0.021752644 -0.058617882 -0.04069468 -0.009425365 0.07400738 0.005433022
-0.063642606 -0.07738641 0.008597883 0.044137184 -0.0039133807 0.052534137 -0.03688305 -0.034649737
-0.023846038 -0.06544441 0.040492006 0.01268812 0.007505437 0.011759358 0.01914219 0.06183576
-0.073447965 -0.06573368 0.053315487 0.03357354 -0.056367747 0.026629813 -0.063022494 0.05811816
0.01511417 0.031105557 0.0026374506 -0.0100211 -0.046159197 0.07843703 0.053346183 0.019451791
0.06877875 0.07268444 -0.0111794425 -0.059227247 -0.056234136 -0.036696665 -0.07687288 -0.0792192
0.011859175 0.016071973 0.014179144 -0.021752967 0.04341117 -0.005362702 0.008676821 0.06037427
0.07953679 0.081305765 0.04228391 -0.048677366 0.030234313 0.04149156 0.074704416 -0.021589082
0.07312214 0.031976078 0.016470177 -0.069919206 0.02054737 0.05450023 -0.023367971 0.024082623
-0.047275513 0.021951806 0.0021241617 -0.013191936 0.008743084 0.07310282 -0.0046717064 -0.038650297
-0.057869155 0.06765186 0.014383571 0.03692121 -0.050226454 -0.025203494 0.044352606 0.05177162
-0.05717585 0.083217666 0.03229321 -0.050325304 0.020203626 -0.027156554 0.0018498446 0.06424823
-0.029020214 -0.060489696 0.04893253 0.05344859 0.07289348 -0.056941934 0.08696112 -0.0005641619
-0.04498103 0.037138715 0.0040694023 -0.01340477 0.0719697 -0.024690202 -0.06986028 0.012449476
-0.03927026 0.07415731 0.0010552016 0.072692335 0.04858393 -0.021005694 -0.014510609 0.026826788
00000000: 012d b0bd 3d21 3ebd ee28 6c3d 2096 a73d
00000010: 8d49 34bd c677 fd3c 75fc 84ba 82af 11bd
00000020: af92 15bb fd97 fc3c 9a32 b2bc 4e19 70bd
00000030: 77af 26bd d96c 1abc 2e91 973d 7e07 b23b
00000040: 0e57 82bd c47c 9ebd 23de 0c3c 31c9 343d
00000050: d13b 80bb 092e 573d ae12 17bd e2ec 0dbd
00000060: c458 c3bc b807 86bd f2da 253d d5e1 4f3c
00000070: 2bf0 f53b 53aa 403c 15d0 9c3c 7e47 7d3d
00000080: e36b 96bd 619f 86bd 5761 5a3d 6984 093d
00000090: dee1 66bd c426 da3c f011 81bd 4f0d 6e3d
000000a0: 6ca1 773c 15d1 fe3c 14d9 2c3b 8a2f 24bc
000000b0: 6d11 3dbd 98a3 a03d 8781 5a3d 5d59 9f3c
000000c0: e0db 8c3d 94db 943d fb29 37bc 4598 72bd
000000d0: c455 66bd 3e4f 16bd 876f 9dbd ad3d a2bd
000000e0: fc4c 423c 5fa9 833c a44f 683c 4733 b2bc
000000f0: e9cf 313d 9bb9 afbb 3a29 0e3c 034b 773d
00000100: 2fe4 a23d a383 a63d e531 2d3d eb61 47bd
00000110: f3ad f73c 0ef3 293d a1fe 983d 96db b0bc
00000120: 0fc1 953d 59f9 023d 77ec 863c cd31 8fbd
00000130: f552 a83c a23b 5f3d 306e bfbc ec48 c53c
00000140: f8a3 41bd 46d4 b33c 8535 0b3b fd22 58bc
00000150: 273f 0f3c eeb6 953d 1d15 99bb c64f 1ebd
00000160: 3508 6dbd 0f8d 8a3d 12a9 6b3c b23a 173d
00000170: 41ba 4dbd 8f77 cebc 14ab 353d 7a0e 543d
00000180: 3931 6abd 066e aa3d e345 043d e821 4ebd
00000190: 1382 a53c 6c77 debc 7c76 f23a 9394 833d
000001a0: cdbb edbc 0bc4 77bd 7a6d 483d e9ec 5a3d
000001b0: 2d49 953d f23b 69bd ac18 b23d 44e4 13ba
000001c0: 073e 38bd c41e 183d 9f58 853b ae9f 5bbc
000001d0: da64 933d 1b43 cabc e812 8fbd e3f8 4b3c
000001e0: dad9 20bd cadf 973d b14e 8a3a b8df 943d
000001f0: f1ff 463d 2214 acbc e8bd 6dbc dac3 db3c

weight f4 [128]
0.9979212 0.9980271 0.99934447 0.99622303 0.99650234 0.9958676 0.9915334 0.99934477
0.98139524 0.99717516 0.9933375 0.99660397 0.9987683 0.99820113 0.99404997 0.9979765
0.9978695 0.9997046 0.99788725 0.9990967 0.99108267 0.9992898 0.9923304 0.99706763
0.9980652 0.9943125 0.9969368 0.9987679 0.9992363 0.9970908 0.9919046 0.9995921
0.9990985 0.9857951 0.99799097 0.99609834 0.9978293 0.99442923 0.9990685 0.9897507
0.9987049 0.995388 0.99313325 0.99691635 0.99599415 0.9963553 0.9992665 0.99054235
0.9996684 0.9974426 0.9960732 0.9974518 0.9975489 0.99016255 0.9927726 0.99736553
0.9950155 0.99741626 0.99921334 0.987874 0.9907642 0.996083 0.9966922 0.9936476
0.9975967 0.9937122 1.0005519 0.98888564 0.99788225 1.0006471 0.99495953 0.9981811
0.99723834 0.9941212 1.0003129 0.9972358 0.99859226 1.0023448 0.9987644 0.9867974
0.99537 0.9986516 0.9894173 1.0010014 0.995531 0.99532133 0.996705 0.9983686
0.9933636 0.9997934 0.9948216 0.9966382 1.000454 0.9983512 0.99717355 0.9964846
0.99127436 0.99558914 0.9961781 0.99937314 0.98972875 0.99723315 0.99218005 0.9963363
0.99728197 0.9989456 0.99738204 1.0000683 0.9978161 0.9982538 0.9989424 0.9662731
0.9983805 0.998427 0.9957417 0.98789656 1.002677 0.99475473 0.9981655 0.99431205
0.9967059 1.0002141 0.9818604 0.9994627 0.98910815 0.99513894 0.9959232 0.9967776
00000000: c477 7f3f b47e 7f3f 0ad5 7f3f 7908 7f3f
00000010: c71a 7f3f 2ef1 7e3f 22d5 7d3f 0fd5 7f3f
00000020: b83c 7b3f df46 7f3f 5e4b 7e3f 7021 7f3f
00000030: 48af 7f3f 1c8a 7f3f 0f7a 7e3f 637b 7f3f
00000040: 6074 7f3f a4ec 7f3f 8a75 7f3f cdc4 7f3f
00000050: 98b7 7d3f 75d1 7f3f 5d09 7e3f d33f 7f3f
00000060: 3381 7f3f 448b 7e3f 4037 7f3f 41af 7f3f
00000070: f3cd 7f3f 5841 7f3f 76ed 7d3f 45e5 7f3f
00000080: ebc4 7f3f 115d 7c3f 567c 7f3f 4d00 7f3f
00000090: be71 7f3f ea92 7e3f f4c2 7f3f 4d60 7d3f
000000a0: 20ab 7f3f bfd1 7e3f fb3d 7e3f e935 7f3f
000000b0: 79f9 7e3f 2411 7f3f eecf 7f3f 2f94 7d3f
000000c0: 45ea 7f3f 6658 7f3f a7fe 7e3f 0059 7f3f
000000d0: 5d5f 7f3f 4b7b 7d3f 5826 7e3f 5953 7f3f
000000e0: 56b9 7e3f ac56 7f3f 72cc 7f3f 4fe5 7c3f
000000f0: b9a2 7d3f 4cff 7e3f 3827 7f3f b05f 7e3f
00000100: 7f62 7f3f ec63 7e3f 1612 803f 9c27 7d3f
00000110: 3675 7f3f 3415 803f abb5 7e3f cc88 7f3f
00000120: 034b 7f3f ba7e 7e3f 410a 803f d84a 7f3f
00000130: bea3 7f3f d64c 803f 06af 7f3f c19e 7c3f
00000140: 91d0 7e3f a2a7 7f3f 744a 7d3f d020 803f
00000150: 1fdb 7e3f 61cd 7e3f 0f28 7f3f 1695 7f3f
00000160: 144d 7e3f 76f2 7f3f a1ac 7e3f ae23 7f3f
00000170: e00e 803f f293 7f3f c446 7f3f 9d19 7f3f
00000180: 28c4 7d3f eede 7e3f 8705 7f3f ebd6 7f3f
00000190: dd5e 7d3f ac4a 7f3f 83ff 7d3f e50f 7f3f
000001a0: df4d 7f3f e6ba 7f3f 6e54 7f3f 3d02 803f
000001b0: e070 7f3f 908d 7f3f b0ba 7f3f ad5d 773f
000001c0: dd95 7f3f e998 7f3f eee8 7e3f cae6 7c3f
000001d0: b857 803f 3fa8 7e3f c687 7f3f 3c8b 7e3f
000001e0: 1e28 7f3f 0407 803f 345b 7b3f cadc 7f3f
000001f0: 3136 7d3f 6dc1 7e3f d3f4 7e3f d12c 7f3f

bias f4 [128]
-0.00022394431 -9.008729e-05 0.00013419606 0.00044904763 -0.00061390613 0.00067699404 -0.0072071217 3.1516443e-05
-0.0033420315 -9.628502e-05 -0.00011035743 -0.0005435483 -7.3053765e-05 0.0011347203 0.00024686885 0.004262603
-0.00041812274 -0.00025754588 0.0010545545 0.00050632894 -0.0054751537 0.0005650123 -0.0005128335 -0.00013113592
0.00014198173 -0.00020287739 0.00060617074 0.0012059954 -0.00174176 0.0012765777 0.00030049027 0.0001419201
-0.00046347367 -0.0004204098 0.0001143658 0.00017519474 -0.00054330705 0.00066916004 -0.00017269707 0.00038300687
0.0016979891 0.00057838147 -0.002284776 0.0014665138 -0.0001772906 0.00020690988 0.0001254831 5.973118e-05
0.00025466448 0.00017192794 0.0007059222 -0.00021521575 -0.00014243169 -0.0005928273 -0.0004552011 -0.00021328092
0.00016400426 -0.00028495668 0.0013996986 -0.00058512087 0.0003308582 -0.0025082987 0.0020551754 0.00026847364
0.00018345828 0.00041507254 9.6894204e-05 -0.00046791328 0.00071399263 3.1006995e-05 0.00036927036 -0.0008959063
0.00016144295 0.00013669276 -0.0008508443 -0.00049789867 -0.00053142785 7.519695e-05 0.00031451188 0.00012247672
-0.0005671171 0.0008688651 -0.01139952 0.0007056386 -0.001197448 0.0002185749 0.0024141446 -0.00063921814
-0.0005188032 0.00017143329 -0.00023815458 0.00013378171 -6.6477434e-05 0.0001647601 7.42408e-05 0.0005317969
-0.00032989497 0.00024612373 4.657004e-05 -0.00010301251 0.00043119089 -0.0006045287 -0.0021807796 0.00041911364
-0.0006926662 -0.0005241789 0.00024285392 0.0005555997 0.00017685763 -0.00014266404 0.00020427415 0.028623408
-9.133482e-05 4.9002178e-05 0.0037189713 -0.00063360174 0.00024715668 -0.0007601253 -0.00050049555 -2.3082923e-05
-0.0005672318 0.0002880343 0.016736442 0.00017758353 0.00038402388 -0.00039189094 -0.0009844112 0.0006704023
00000000: 98d2 6ab9 3fed bcb8 fbb6 0c39 276e eb39
00000010: 8bee 20ba 4d78 313a b829 ecbb 8630 0438
00000020: fc05 5bbb a0ec c9b8 b26f e7b8 e97c 0eba
00000030: 7134 99b8 e5ba 943a 2d6e 8139 4ead 8b3b
00000040: 7c37 dbb9 3907 87b9 fa38 8a3a 29bb 043a
00000050: eb68 b3bb 551d 143a ac6f 06ba 8881 09b9
00000060: eee0 1439 7cbb 54b9 6ee7 1e3a 7e12 9e3a
00000070: c44b e4ba d752 a73a 1f8b 9d39 63d0 1439
00000080: 62fe f2b9 736a dcb9 acd7 ef38 7bb4 3739
00000090: b86c 0eba 926a 2f3a 0416 35b9 50ce c839
000000a0: 0f8f de3a 869e 173a 2ebc 15bb 0a38 c03a
000000b0: 15e7 39b9 f3f5 5839 1d94 0339 de87 7a38
000000c0: 7d84 8539 8e47 3439 a30d 393a 8aab 61b9
000000d0: b759 15b9 f767 1bba 0fa8 eeb9 29a4 5fb9
000000e0: 8ff8 2b39 3d66 95b9 1776 b73a cc62 19ba
000000f0: 0977 ad39 4562 24bb 1fb0 063b ecc1 8c39
00000100: b55e 4039 189e d939 ae33 cb38 4252 f5b9
00000110: 3c2b 3b3a 820d 0238 a19a c139 41db 6aba
00000120: 0349 2939 2f55 0f39 320b 5fba 6a85 02ba
00000130: 854f 0bba 0eb3 9d38 12e5 a439 186d 0039
00000140: 96aa 14ba 8dc4 633a 0dc5 3abc 9bfa 383a
00000150: b0f3 9cba 4131 6539 a036 1e3b 3491 27ba
00000160: 4b00 08ba c6c2 3339 22b9 79b9 c147 0c39
00000170: cd69 8bb8 74c3 2c39 bab1 9b38 4968 0b3a
00000180: c1f5 acb9 2b0a 8139 3354 4338 6c08 d8b8
00000190: 7611 e239 3c79 1eba 69eb 0ebb 7bbc db39
000001a0: 0b94 35ba 0d69 09ba 9aa6 7e39 aaa5 113a
000001b0: dc72 3939 1698 15b9 6d32 5639 a37b ea3c
000001c0: 028b bfb8 b087 4d38 fcb9 733b 4b18 26ba
000001d0: cf94 8139 2543 47ba b033 03ba 33a2 c1b7
000001e0: 48b2 14ba 4f03 9739 dd1a 893c b735 3a39
000001f0: d056 c939 b676 cdb9 5c07 81ba f0bd 2f3a
