Single Battery Model/4. CNN Models/model_B0005_combined_mm.pth (torch, 129024 bytes, 7 tensors)

weight f4 [64, 6, 3]
00000000: c4f5 803d dfbc 503e b986 28be 4e5a 193e
00000010: 0c56 14be c840 e9bc d2d8 fc3c 1fc4 57be
00000020: e29a 91bc a28e f13d 2c3f cdbd e148 793d
00000030: ae80 323e 758a 5e3d 2424 32be a156 c03d
00000040: ddb8 09be ed9d 6abe 0a1c e4bd 540d 0d3e
00000050: 361a 6a3e c995 39bd b4af 9b3b 96fe 333e
00000060: a014 063e 7a3d d23d b58f c6bd c1ec 1bbe
00000070: c991 2c3e 0fb4 33be 1c9d 10be 6949 ea3d
00000080: b1c5 21be e35e 13be 15d6 4bbb 6b5c 10be
00000090: 3b4c 73bd 41b3 e23d d8d2 103e 41e9 5abe
000000a0: 107e 30bd b17b bfbd fb60 ea3d 2af7 6ebe
000000b0: 8de3 3ebe ea20 a03d 293d 3cbe f3fb 04be
000000c0: f568 d3bc 674d 48be e584 4f3e 9f7a e7bd
000000d0: 7508 d3bd c59d 1dbc 212e 66bd d309 24be
000000e0: 65cd d8bd d441 40be dfd7 e43d 2659 1a3e
000000f0: a2f7 a1bd d158 0abd cd83 6ebd a344 a53c
00000100: c648 f83d 8f1b 3dbe 1408 2abe 0287 9b3c
00000110: 4d48 4d3e 4d57 50be fc14 40be bf94 36be
00000120: d805 c03d 2b9b babd 46f7 62be 356b 393e
00000130: b20c 71bd 5ac5 53bd aa99 5c3e 4cf9 9e3d
00000140: 9a1d c93d 7cb2 003e 1aff 46be fb0e 57be
00000150: b302 213e 797a 2b3e 7af6 5c3e fc3d 433e
00000160: b330 1bbe 9a2e 61bd d74a be3d f87c 47be
00000170: e131 0d3e 950c 59bd 52ea 733d 206a 513e
00000180: 23ef 003d 3714 3d3e 6151 27be 8cf3 233e
00000190: 393b 4bbe 6ae7 223e 5388 fbbd d6bc ca3b
000001a0: c266 2bbd 6448 1b3e f27e 223e 8a05 693d
000001b0: a0b7 3fbe 3d99 0fbe edcb c8bd d438 e3bd
000001c0: a1c4 353d c24a 64bd 117a ac3d 02bc 0a3e
000001d0: d2b5 093e 53e1 043e 17f1 e03d b665 e23d
000001e0: 2f70 443e 1f6d de3c 66d6 22bd 1eb4 5abe
000001f0: d0be 02be 9b0a 1cbd b7af 653c 20af debc
00000200: bdc8 c7bd abc7 f9bd bbd9 02bd 265b fabc
00000210: 3212 093e 1725 ce3d 06d5 cebd 1c86 bf3d
00000220: 39fc 36be 4fb9 533e 3d33 3f3d 9489 fbbd
00000230: ac6c dc3d f671 ebbc 1059 d7bd 57b0 0fbe
00000240: 7605 0bbe 2e44 cc3d f9f3 2bbe 7a56 6fbe
00000250: 21bb 25be bc0d 013e 494c 213c 0090 43be
00000260: 4e1a 8fbd 8b03 68be 9fd0 73bd c327 3b3d
00000270: 72f3 28bb 0746 933d 3f35 21bd 6671 68be
00000280: 8978 5a3e 7840 63bd 866f 78bd dcc0 69be
00000290: 2d2a d8bc 89d1 d5bd d74d 5f3d f674 41be
000002a0: 34c1 063e acb5 67be a282 68be 7224 40be
000002b0: 7101 c03c ae4f 1c3e 16f7 93bd 9727 9c3d
000002c0: 143a 543e 14b2 dd3d dcc5 b33d db13 9abc
000002d0: 734f e73c 6c75 65bd 1118 553d 32b4 953d
000002e0: 4106 193e f672 cabd fb8d 2c3e 1acc 0cbe
000002f0: f17f e23d 6c32 7f3d c3fa 32be bf79 5b3d
00000300: 9842 01be 6023 aabd 290b 743e 90fc 033e
00000310: 9cf0 323e 0152 f1bd 9e69 5dba 52d9 e23d
00000320: 510d e23b c26a b23d d34c bb3d b404 533e
00000330: 1737 623e 7205 b33c bace 203e 765b 893d
00000340: fa13 7c3e fa1e 69bd 267f b2bc ee5a 153d
00000350: 5eb2 263e 9724 cdbb e5ee 053e 470e edbc
00000360: 9741 eb3d 63f1 073e 0de6 f83d 4854 05be
00000370: 4c76 063e 06f3 263e 385a c2bd 5a36 833d
00000380: 6a12 853a 5f38 65be a754 31be c018 dbbd
00000390: f442 64be 8c98 073e 247d 553e 0915 913d
000003a0: d96c 1cbe 864d d23b bcad 9c3d aeb0 4c3e
000003b0: a84e be3d bfbd 2ebe 5894 79bd 62af 5cbe
000003c0: 3dc7 13be 6e0a 493e 1511 263e 5a26 59bd
000003d0: 5ac0 a5bd 8569 e23d d669 25bc 8da7 06be
000003e0: 71a6 82bd 66b8 24be ad97 973d c54a d6bd
000003f0: fd35 2a3d 81a9 0e3e 9fec c73d 3b32 073e
0.06296876 0.20384549 -0.16457643 0.14975855 -0.1448595 -0.028473273 0.030865107 -0.21070908
-0.01777405 0.11794783 -0.10021815 0.06086052 0.174319 0.05433126 -0.17396599 0.09391523
-0.13449426 -0.22911806 -0.111381605 0.13774616 0.22861561 -0.045308862 0.00475117 0.17577586
0.13093805 0.10265632 -0.09695379 -0.15227033 0.16852488 -0.17549156 -0.14122432 0.11439783
-0.1579807 -0.14391665 -0.0031102945 -0.14097755 -0.05939887 0.11069346 0.1414293 -0.21378042
-0.043088973 -0.09349764 0.11444279 -0.23336473 -0.18641491 0.07818778 -0.18382706 -0.12986736
-0.025806883 -0.19560777 0.20265539 -0.11302685 -0.103043474 -0.009620135 -0.056196336 -0.16019373
-0.10586051 -0.18775111 0.11173987 0.1507307 -0.0790856 -0.03377611 -0.058231164 0.02017433
0.121232554 -0.18467544 -0.16604644 0.018985275 0.20047112 -0.20345803 -0.18758005 -0.1783018
0.093761146 -0.09111627 -0.2216464 0.18107302 -0.058849998 -0.05170188 0.21542993 0.07762393
0.09820099 0.12568086 -0.19433251 -0.21001808 0.15723686 0.16745938 0.21578398 0.19066614
-0.15155296 -0.054976083 0.09291618 -0.19481266 0.13788559 -0.052990515 0.059549637 0.2045064
0.03147806 0.18464743 -0.16339637 0.16010875 -0.1984681 0.1590859 -0.12281861 0.006187062
-0.041846044 0.15164334 0.15868738 0.056890048 -0.18722391 -0.140233 -0.09804521 -0.110948235
0.044376973 -0.055735357 0.0842172 0.13548282 0.13448265 0.1297658 0.10983484 0.11054556
0.1918342 0.027151642 -0.039755248 -0.21357772 -0.12768102 -0.03809605 0.014018944 -0.027183115
-0.09755085 -0.12196287 -0.031945925 -0.030561041 0.13385847 0.10065668 -0.10099225 0.09351751
-0.17869653 0.20676158 0.046679724 -0.122821 0.10762915 -0.028740864 -0.10515034 -0.14032112
-0.13576302 0.09973942 -0.16792287 -0.23372832 -0.16184665 0.12602895 0.009844848 -0.190979
-0.06987439 -0.22657602 -0.05952513 0.045692217 -0.002577987 0.07191091 -0.03935742 -0.22699508
0.21335043 -0.055481404 -0.060653232 -0.22827476 -0.026387298 -0.10440356 0.054517593 -0.18892273
0.13159639 -0.22627896 -0.22706082 -0.18763903 0.023438187 0.1526477 -0.07224862 0.07624739
0.2072528 0.10824981 0.08777973 -0.018808296 0.028236127 -0.056020185 0.052024905 0.0730976
0.14943792 -0.09885208 0.16851036 -0.13749734 0.11059559 0.062303945 -0.1747847 0.053582903
-0.1262306 -0.083075285 0.23832382 0.12889314 0.17474598 -0.11783219 -0.0008446219 0.11076607
0.00689856 0.08711769 0.091455124 0.20607263 0.22091328 0.021853182 0.1570386 0.06706898
0.24616995 -0.056914307 -0.021789145 0.03646367 0.16278979 -0.0062604654 0.13079412 -0.028937472
0.1148712 0.13275675 0.12153254 -0.13020432 0.13131064 0.16303644 -0.09489864 0.06406851
0.0010152583 -0.22384785 -0.17317449 -0.1069808 -0.22291166 0.13241786 0.20848519 0.0708409
-0.15275897 0.006417933 0.07650325 0.19989273 0.09292346 -0.1706457 -0.060932487 -0.21551278
-0.14431472 0.19632885 0.16217454 -0.05301509 -0.08093329 0.110552825 -0.010096034 -0.13149853
-0.063794024 -0.16085967 0.07401977 -0.1046348 0.041555393 0.13931848 0.09761929 0.13202755

bias f4 [64]
00000000: 655a 29be 31a7 4e3d e1a7 013c e486 cd3d
00000010: d685 02be a020 2b3e 1e8a 503e afaf cfbd
00000020: f7e7 723e 8b83 cabd 3796 4abe 6d69 29be
00000030: bfb2 5a3e b1f7 6abd 936b ac3d bdb7 13be
00000040: 89cc 1b3e c7d2 0c3e 8e05 d43d a164 75be
00000050: df44 81bd 3d4c f5bc 562d 693e 4572 8d3b
00000060: ce53 5d3e 440e 55be 0c0d 5fbe a30d 353e
00000070: 1fb8 2cbe e99e 2c3e 0f01 1c3c 3d98 fe3d
00000080: 5eb7 3b3e 3ffb a6bd 2936 ceba 1029 663d
00000090: 2c76 703e 0f46 3b3e 710d 73be 4474 72be
000000a0: 14a2 64be f4b9 67be 8827 42be 8dee 4b3d
000000b0: 0c65 22bd 9d78 373e 8072 64bc 479f 9cbc
000000c0: 7469 6c3e dab5 75bd 847a 853c a776 833d
000000d0: aa8f 64be 3ba9 3fbe 004a c2bd 824e 0bbe
000000e0: 1ba2 0d3e 83be 83bc f642 1ebe c2ef 27be
000000f0: 0f74 bcbd 410f a9bc f581 c73c 8046 37be
-0.16538389 0.050452415 0.007913561 0.10035494 -0.12746367 0.16711664 0.20365188 -0.10140931
0.237213 -0.09888371 -0.19783865 -0.16544123 0.21357249 -0.057365123 0.08418956 -0.1442556
0.15214743 0.1375228 0.10352622 -0.23964168 -0.06311964 -0.02994358 0.227712 0.0043166005
0.21614 -0.20806223 -0.2178232 0.17680983 -0.16867112 0.16857494 0.009521737 0.12431381
0.18331668 -0.0815339 -0.0015732694 0.056191504 0.23482579 0.18288444 -0.23735596 -0.23677164
-0.22327453 -0.22629529 -0.18960392 0.049788047 -0.039647147 0.17917104 -0.013943315 -0.019118918
0.23087102 -0.05998788 0.016293772 0.064191155 -0.22320428 -0.187169 -0.09486771 -0.13604167
0.1383137 -0.016082054 -0.15455231 -0.16400054 -0.09201824 -0.020637156 0.02435396 -0.17897987

weight f4 [128, 64, 3]
00000000: 6a78 90bd 7f46 653d 6dc5 78bd d295 7ebd
00000010: 6234 8a3c 33e4 3e3d 0110 33bc 3c4e 8dbd
00000020: 6e9b 523c 15e9 373d 3c40 6b3d b18b 55bd
00000030: 37ce 9b3b cbec 603c b107 173d 2828 e73c
00000040: e970 4abd 6abb 163d 1c3d eabc 9fee 85bd
00000050: 06d2 243d b32e cabc 51e3 723d e8b0 0a3c
00000060: 6eb5 433d f6b3 f03c 106c 8ebd 83e5 12bd
00000070: d19b 603c 0717 8abd cd96 8f3d ddd1 cbbb
00000080: f6a8 8e3d 0e86 953d d249 5c3d e800 4abb
00000090: 44b1 fe3c a43c 013c d507 85bc cc72 24bc
000000a0: 1853 ff3b 2367 333d 0f2c 20bd 1a05 83bc
000000b0: da11 5a3d 03ac 74bc 222f 49bd 0be1 8d3d
000000c0: 2d1a 233c 91d4 ecbb 10df 263d e621 4b3d
000000d0: 7c88 8ebc f4e4 e23c 3374 fd3c 7520 873d
000000e0: 06ee 1abd 04e4 033d a244 51bc d591 9fba
000000f0: 9355 bfbb 41d3 a1bc eaaf 64bd 7390 6cbd
00000100: 8ffd de3b b0b7 5dbd 87b2 f6bc 62b3 813c
00000110: b791 81bc f797 b73b 5893 b0bc b136 32bd
00000120: a0b7 00bc 9db9 923c b40e 0cbc aaf1 4abd
00000130: 04f1 82bc 7127 70bd af14 cdbb 755d 74bc
00000140: bfd9 813d 2241 84bd 0890 1e3d 1f3a 07bd
00000150: e509 863d 49f9 a43c 47ad 423c 0890 68bd
00000160: 18d7 763d 0016 173d 56af b83c caa8 eb3b
00000170: 27de adbc c023 0dbd fb5f f93c 2540 2f3c
00000180: d344 293c b827 fb3c b176 50bc f03f a73c
00000190: 5495 81bd 2696 92bc 359f 8f3d 2335 d8bc
000001a0: d8b2 1ebd 05a1 18bd bb94 803c 9886 743d
000001b0: 0b40 123d b8b4 f53c e958 5b3d 1698 c13b
000001c0: 013b 5a3d 5e77 743d 52c8 4fbc 899b 2a3d
000001d0: 1406 e43c 54eb 9a3c 7bb6 a03c 9847 c7bb
000001e0: b3aa f63c b972 35bd f3e7 73bd 2649 9c3d
000001f0: cae7 a33c c407 61bb 1120 883c 883c 933d
00000200: 11b8 bcbc 0ff3 283c 7000 543d 712d 0b3d
00000210: d96d e33c 6ae7 133d 4594 02bc e446 d9bc
00000220: f7c6 dd3c cc69 2d3d 6c0b 693d 4971 543c
00000230: 6467 25bb 382e 813d 01b3 603c 6ff8 d13b
00000240: 681e 15bd 7fb6 12bd 0581 8abd f59f e3bc
00000250: 81c6 0fbd 547a e03c d2b4 2a3c 6baf 383d
00000260: df8d 9d3c 578e 83bd 697c 69bd 15f0 b4bc
00000270: 3876 05bd 16ef 693c aaad 83bd 04e0 593c
00000280: 0bb8 e03c ebf4 223d 25e5 023d 28e6 87bd
00000290: faf6 06bc c6f0 69bd 0df1 8b3d 68a7 e2bc
000002a0: 0d75 12bd 53d4 353c 034e c43a 943b bd3c
000002b0: 2a03 5c3d b0c8 e4bc f410 143d fd26 86bc
000002c0: 87b8 373d ffd7 4b3d 64d6 66bc 9628 6a3c
000002d0: c4e9 443c ca4c a73c f698 a3bc 3be9 70bc
000002e0: 53e9 20bc b01d e33c 44f2 f83c c095 493c
000002f0: 8635 cfbb 0a8d cfbc cb61 0d3c 1a25 ecbb
00000300: bd50 0a3c 3d93 afbb e3c2 8a3d 5e02 893d
00000310: a737 82bd 7343 85bd 2ce4 1fbd 0f3d 28bd
00000320: 9646 e03c 83d6 723d a755 aabc d556 2cbd
00000330: ec29 7a3c 032d 463d f207 8a3b ce0e 56bd
00000340: ddba 853d 9d77 9dbc 1332 13bd 9a52 e2bc
00000350: c0dc faba 83c8 4fbc f0d5 3b3c f117 053d
00000360: 1e15 e9bc 5a6c 8abd 10e7 433b a6d1 3f3d
00000370: 5868 e63b 8516 b33c 17d3 c53c 8a67 94bd
00000380: 11a9 97bd 2217 133d f472 ddb9 55c3 5abd
00000390: 2271 cb3b d491 2cbd 3628 293d ed1d d2bc
000003a0: 8205 16bd 9e71 1b3d 419f 1abd 8bb1 79bd
000003b0: 6c78 94bd d7d2 983c 38e7 843d 8455 70bd
000003c0: 95cb 053d f5cb 01bc e381 2fbb 7dd5 243c
000003d0: 6c39 4cbd c1f0 573d 83f9 ec3c 652b 803d
000003e0: f1a5 f33b 6d9b 693b a735 de3c 7ba7 983c
000003f0: 1dbe 98bc 5def 523d 3408 10bd 0354 b03b
-0.07054217 0.055975433 -0.060735155 -0.0621546 0.016870681 0.046604346 -0.010929109 -0.06899688
0.01285444 0.04490002 0.057434306 -0.052135173 0.0047548073 0.013728331 0.03687257 0.02821739
-0.049424086 0.036799826 -0.028593592 -0.06539654 0.040239356 -0.024680471 0.059298817 0.008465029
0.047780447 0.029382687 -0.06954205 -0.03586341 0.0137090245 -0.06742673 0.07011185 -0.006220086
0.069658205 0.073009595 0.053781338 -0.0030823294 0.031090386 0.007887993 -0.016239086 -0.010037135
0.007791888 0.04379953 -0.039104518 -0.015993644 0.05323968 -0.014933589 -0.049117215 0.06927689
0.009954971 -0.0072274883 0.040740073 0.049592875 -0.017399065 0.027697064 0.030939197 0.065979876
-0.037824653 0.032199875 -0.012772711 -0.0012174199 -0.0058390587 -0.019754054 -0.055831827 -0.057754945
0.006805129 -0.054130256 -0.030114425 0.015832607 -0.015816553 0.0056028324 -0.021554634 -0.04350919
-0.00785628 0.017910773 -0.008548427 -0.049546875 -0.015984066 -0.058631364 -0.006258569 -0.01491486
0.0634036 -0.064577356 0.038711578 -0.033014413 0.06544856 0.0201384 0.011882133 -0.056777984
0.060263723 0.036886215 0.022544544 0.007191752 -0.021224095 -0.034457922 0.030441275 0.010696446
0.01033135 0.030658588 -0.012723611 0.02041623 -0.0632731 -0.017893862 0.07012788 -0.026392525
-0.038744777 -0.037262935 0.01569592 0.05969867 0.035705607 0.0299934 0.05355159 0.0059080226
0.053278927 0.05968415 -0.012682037 0.041652236 0.02783493 0.018911041 0.019618263 -0.0060815327
0.030110693 -0.04429886 -0.059547376 0.076311395 0.020007987 -0.0034336904 0.016616853 0.0718928
-0.023036988 0.010311856 0.05175823 0.033978883 0.02776234 0.036109366 -0.0079699205 -0.026523061
0.027072413 0.042337224 0.05689566 0.012966462 -0.0025238628 0.06307644 0.013714553 0.0064077894
-0.03640595 -0.035818573 -0.0676289 -0.027786234 -0.035101417 0.02740208 0.0104190875 0.045089167
0.019232688 -0.064236335 -0.057003412 -0.022087136 -0.032583445 0.014278194 -0.06429608 0.013298038
0.027431509 0.039784353 0.03195681 -0.06635696 -0.008237595 -0.057114385 0.06833086 -0.027667716
-0.03575616 0.011097985 0.0014976863 0.023099698 0.053713955 -0.027927727 0.03614898 -0.016376013
0.044853713 0.049766537 -0.014089201 0.014291903 0.012018625 0.020422358 -0.019970398 -0.014704044
-0.009821254 0.027724117 0.030388959 0.01230377 -0.006323519 -0.025335807 0.008629273 -0.0072065713
0.008442101 -0.0053581283 0.06775453 0.06689905 -0.06358271 -0.065070055 -0.03903596 -0.041073855
0.027377408 0.059286606 -0.020792795 -0.042074997 0.015268784 0.04838277 0.004212373 -0.052260213
0.06529782 -0.019222075 -0.035936426 -0.027627278 -0.0019139275 -0.012682083 0.011464581 0.032493535
-0.028452452 -0.06758948 0.0029892363 0.046830796 0.0070314817 0.021861324 0.024148507 -0.07246311
-0.07405294 0.035910733 -0.00042238052 -0.05340894 0.006208555 -0.04213126 0.041298114 -0.025649035
-0.036626346 0.03795015 -0.037749533 -0.060960334 -0.07249531 0.018655224 0.06489414 -0.058675304
0.032664854 -0.007922162 -0.00267803 0.010060665 -0.04985945 0.052719835 0.02892757 0.06258277
0.0074355532 0.003564562 0.027125193 0.018634548 -0.01864534 0.051497806 -0.035164073 0.0053811087

bias f4 [128]
00000000: fe77 3f3d 07a6 873d 2341 32bd 738a a8ba
00000010: ff35 9bbc e028 0abc 7228 66bc 0086 f93c
00000020: eb14 33bd 6a5a 77bd e968 673d 99fc 6abd
00000030: 24a3 40bc 5a69 413d ee99 843d 7f59 243d
00000040: f351 1cbd 0b87 1cbd 01c1 11bd 2d8c 7f3d
00000050: bee2 b93c 4540 86bd f14d 8a3d 8989 06bc
00000060: addd f83c aa8c 8cbd a8aa 843d 6dd0 1c3d
00000070: 5569 483d d81d 2bbd be7c 31bd 61d6 51bd
00000080: 5529 763d 37a8 d83c f00b 44bd 4365 63bd
00000090: efc7 84bd 91b2 1d3d f680 04bd fe6b 9f3b
000000a0: 2e15 823d b27d f2bb 90c3 52bd e09a d93c
000000b0: 476e a53c bd25 05bd cae6 88bd 45b2 93bc
000000c0: 58e2 303d cc4b 853d 0a57 343d 8fa6 59bd
000000d0: 6fb4 5e3d 27a1 56bd a3e3 c6bc 457e c63b
000000e0: 9b8b 35bc 025d 32bc b9a4 943c f2a3 87bc
000000f0: 866a 743d aa83 073d 1459 93bc aa9a a33c
00000100: 9315 2f3d 5385 bc3b 2cf1 a63d 26d7 cb3c
00000110: e984 4ebd 2528 0a3d 4d3b 8bbd fe02 6a3d
00000120: b307 8a3c ba8f 2d3d 37a1 6f3d 3521 a4bd
00000130: 9093 973c 9ff3 43bc b366 803c 1aed 593d
00000140: eaa0 813d 4921 76bd cb29 7abd 51e9 efbc
00000150: ccd7 1d3d 3e64 85bd bb1b 943c 07e9 313d
00000160: bd49 b13c cb04 7abd 79e8 90bd 20d4 ca3c
00000170: effe 3dbd af8c 8c3d 2975 8bbd 2df0 28bd
00000180: c707 253b a740 9dbc db6c 8e3d bbf2 c93b
00000190: 671f 203c a292 773d 11e5 193d 7a52 1f3d
000001a0: bc98 9abd c369 e3bb cc96 0a3d ce75 1b3d
000001b0: 9ae2 00bc edbe 56bd e4e1 583d ac97 df3c
000001c0: 81ec 8d3d f3a1 573c f223 043c 546a 883d
000001d0: 5789 b4bc 38af 8b3d fbd1 303d 6d11 17bd
000001e0: 8056 803d fe21 0dbc 9c99 143c cfec 5a3c
000001f0: 0823 b23a bb14 e2bc f3ea 293d db25 ce3c
0.046745293 0.06623464 -0.04351915 -0.0012858644 -0.018946646 -0.008432597 -0.014047729 0.030459404
-0.04372112 -0.06038896 0.056496534 -0.057369802 -0.011757646 0.04721961 0.06474672 0.040124413
-0.03816409 -0.038214725 -0.035584453 0.06238954 0.022691127 -0.06555227 0.067531474 -0.008211502
0.03037914 -0.06862767 0.064778626 0.038284708 0.048928577 -0.041776508 -0.043331854 -0.05122984
0.06009801 0.026447399 -0.047862947 -0.055516493 -0.06483447 0.038500372 -0.03234955 0.0048651686
0.06351696 -0.007400238 -0.051456034 0.026563108 0.020194186 -0.032506693 -0.066846445 -0.018029341
0.04318461 0.06508598 0.04402832 -0.05313736 0.054371294 -0.05239978 -0.024278468 0.006057533
-0.011080648 -0.010886433 0.018144952 -0.016557667 0.0596719 0.03308455 -0.017986812 0.01997121
0.042745184 0.005753198 0.08151469 0.024882864 -0.05041972 0.03372969 -0.0679842 0.05713176
0.016849374 0.042373396 0.058503356 -0.08014146 0.01850298 -0.011959939 0.01567397 0.053204633
0.0632952 -0.060090337 -0.061075013 -0.029286059 0.038535878 -0.0651326 0.01807963 0.043435123
0.021641606 -0.061039727 -0.07075591 0.024759352 -0.0463857 0.06862771 -0.06809456 -0.041244674
0.0025181638 -0.019195868 0.06954356 0.006162969 0.009773112 0.060442574 0.03757197 0.038897015
-0.07548663 -0.006940098 0.033835217 0.037954144 -0.007866526 -0.052428175 0.0529498 0.027294002
0.06929875 0.01316117 0.008065211 0.066609055 -0.022038145 0.0682053 0.043169003 -0.036881853
0.062664986 -0.008614061 0.009069826 0.013362124 0.0013590762 -0.027597776 0.04148383 0.025164535

weight f4 [1, 1664]
00000000: d948 0aba 6568 823c 82ec 743c 5d61 6abb
00000010: 3a5e 0e3c a340 adbc 9dbd 44ba 3001 673c
00000020: 8190 1b3c d730 a93b afdf 863b 12e4 3f3c
00000030: 6d6e 4c3c 37ba 953c 4a49 a2bc 5755 a0bc
00000040: 137c 5cbb 6d65 5f3c 35b9 99bc b0c7 423a
00000050: 45b7 a6bb 3045 c1bc 67d6 2c3c 9d6b bbbc
00000060: 4382 69ba d3b2 b5bc c6af 8cbc c16a 8e3c
00000070: 67a4 693c d7d6 6fbc b102 28bc ca07 0e3c
00000080: b783 bdbb 61cb ad3c b561 04bc d536 c53c
00000090: f969 153c af82 babc 83e4 80bc 2fac a53c
000000a0: ea10 bfbb 19fb 3bbb 17e4 9c3b b7e1 4b3c
000000b0: 17c0 a43c ab68 7abc a830 34bc 5c5c a43c
000000c0: 72a1 183b fa01 2fba a961 913c e4c4 a0bc
000000d0: 7027 0b3c 0b28 a23c d814 463b b2bf 22ba
000000e0: bf4e f73b cd37 8abc 9644 20ba efa4 2d3c
000000f0: c507 803c 1e60 643c 4941 763c daa0 d33b
00000100: ee5a 413c 3e97 2fbc fecb 86ba 8475 4fbb
00000110: 36fc 9fbc 3255 5cbc 69e0 93bc 9dcb 933c
00000120: f81e 9c3c a003 843c 1bfc 3c3c 5728 1abc
00000130: bfd0 873c 6156 4cbc d614 413c 4525 13bc
00000140: 6ef9 8abc 685e edba c126 acbc 6077 af3c
00000150: 1754 dfba e2ae 7e3c fe16 7c3b 57d6 00bc
00000160: d583 afbc d8f3 9c3c c729 563c 3bb4 d33c
00000170: 74a8 80bc 0a37 703c 8765 3ebb 7e08 33bc
00000180: 2fb3 553c 9b98 a2bc 6f18 90bc 3b2e 233c
00000190: 1f05 913c fae9 b43c 0fe5 20bc 0564 9dbb
000001a0: f238 cf3c a259 5b3c 0be9 82bc fa2c 03bc
000001b0: 7e7e c73b b95d abbc 1ffd 48bc 1ad0 a6bc
000001c0: cc13 853c 87cb e53b 1640 d9ba b955 d73c
000001d0: 5e41 7cbc 59da fc3b e47c bdbc 52f9 4a3c
000001e0: 0f6f 8b3c e5d4 c33c b947 c1bc fe06 a5bc
000001f0: 22fd 393c 6390 b1bc df61 12bc f54b 92bc
00000200: 1cf9 c63c eccb f33b 0b97 993c 1357 9e3c
00000210: 35a5 263b a825 03ba fc14 70bc 0254 553c
00000220: 4300 9a3c 8524 af3a daae 263c 6e0d f43b
00000230: 314d 27bc d164 803c 1fc0 a2bc 266b 17bc
00000240: 6748 bf3c 11cd 993c 6f7f 9cbc 6b50 ae3c
00000250: 1a48 233c cabf f53b 3828 e1ba e197 6abc
00000260: 5ebf 763c 729b a13b 5560 7e3c 5f95 53bb
00000270: 6d0c b03c b28d 03bc 19ac 47bc 93d6 1e3c
00000280: bbc0 92bb b83f be3c ab6e b43c c788 2ebc
00000290: 30ff e23b f223 313c 590b 52bc 9eb7 1b3b
000002a0: 257a 213b 4695 833b 5184 39bc 2e95 0bbc
000002b0: 5e94 88bc 375c e23b 1748 7dbc aab9 ba3b
000002c0: bd0e 69bc 193d a83c 1bd3 22bc b019 86bb
000002d0: 8aa2 f33b 46e9 85bc 7029 973b 6962 c63c
000002e0: e023 f0ba 46a5 9d3c b609 d43b bb7c 92bc
000002f0: 0f62 c43c 6382 dbba e309 a2bc 6dcf 43bc
00000300: 5553 31bc 4ec9 503c 130a 0bbc f3ba 5bbb
00000310: bcfe 8f3a 03ca 9fbc 3f4c c63c 4d44 233c
00000320: bda6 14bc 28a6 83bc 0ca1 bd3c 0861 10bc
00000330: 1574 2cbb d5fb 23bc a3c1 b33a ddc2 e93b
00000340: 147e 793c 8579 9d3c fb92 33bc 0ae0 b1bc
00000350: 803d 97bc edb5 6f3b d99d 1abb c516 da3b
00000360: 2ef5 a7bc 6fd9 a6bc a99b 97bc c2ff c13b
00000370: 623d a73b d08c b4bc 2c5c 3aba 5cd1 0e3c
00000380: 701d 53bb 43f1 943c 4e1f 7c3b 3341 393c
00000390: 93d9 9ebc d09d fe3b 49dc 29bc 027e 133c
000003a0: 130d 5ebc 6e76 a83b 36c4 313b ec43 e3ba
000003b0: 4208 a63c a4c7 c8ba 4d87 913b e537 b0bc
000003c0: c3ae c5bc 2207 203c e435 933c 2967 313b
000003d0: 1fac a93a ce3a 8d3b ccba c3bc 081f bd3c
000003e0: 86b6 7ebc a217 343c 95e5 6c3c ea78 8ebb
000003f0: 8fd8 023c 46d3 b03c 8cec 9c3c 957d 3abc
-0.00052751374 0.01591892 0.014948966 -0.00357636 0.008689458 -0.021148985 -0.0007505061 0.014099404
0.009494902 0.005163293 0.0041160206 0.011712091 0.012477499 0.01827727 -0.019810338 -0.019571943
-0.003364329 0.013635022 -0.018765071 0.00074302685 -0.0050877654 -0.023592561 0.010549164 -0.022878462
-0.0008907655 -0.022179997 -0.017173659 0.017384889 0.014260388 -0.014638624 -0.010254548 0.008668849
-0.005783524 0.021215143 -0.008079936 0.024073998 0.009119504 -0.022767393 -0.015733963 0.020223705
-0.0058308737 -0.0028683601 0.0047879326 0.012443951 0.020111127 -0.015283744 -0.010997929 0.020063572
0.0023289588 -0.0006676015 0.017746763 -0.019625135 0.008493289 0.019794485 0.0030224826 -0.00062083744
0.007547229 -0.016872311 -0.0006113736 0.010598405 0.015628705 0.013938932 0.015030214 0.006458384
0.0118014645 -0.010717211 -0.0010284183 -0.0031655738 -0.019529443 -0.0134480465 -0.018051343 0.018041426
0.019057736 0.01611501 0.011534716 -0.009409032 0.01657903 -0.012471766 0.011784753 -0.008981054
-0.01696464 -0.00181098 -0.021014573 0.021419227 -0.001703861 0.015544625 0.0038465853 -0.007863603
-0.021425167 0.019159243 0.013071484 0.025842777 -0.015705325 0.01466156 -0.0029052214 -0.010927318
0.013043209 -0.019848159 -0.017589776 0.009959753 0.017702637 0.022084225 -0.009820237 -0.004803183
0.025295708 0.013388069 -0.015980264 -0.008006329 0.006088077 -0.020918714 -0.01226738 -0.020362902
0.016244791 0.0070127877 -0.0016574885 0.026285993 -0.015396444 0.0077164588 -0.023130842 0.012388544
0.01702073 0.023905227 -0.02359377 -0.020144936 0.0113518555 -0.021675294 -0.008934467 -0.017858485
0.024288706 0.007440081 0.01874878 0.01932863 0.002542806 -0.00050028646 -0.014653441 0.013020517
0.018798953 0.0013362324 0.010173524 0.00744789 -0.010211275 0.015673073 -0.019867001 -0.009241855
0.023349954 0.018774541 -0.019103734 0.02127858 0.009965921 0.0074996697 -0.0017178124 -0.014318437
0.015060274 0.0049318606 0.015525897 -0.0032285077 0.0214903 -0.008029388 -0.012187027 0.009694713
-0.0044785417 0.023223743 0.022025427 -0.010652727 0.0069273934 0.010811793 -0.012820088 0.0023760567
0.0024639454 0.0040155975 -0.011323051 -0.008519454 -0.01667231 0.0069079655 -0.015459082 0.0056984024
-0.014224705 0.020536946 -0.009938027 -0.0040924177 0.0074351477 -0.016346585 0.004613094 0.024216847
-0.0018321238 0.019243848 0.006470884 -0.017881742 0.02397254 -0.0016747232 -0.019780105 -0.01195131
-0.010823091 0.012743307 -0.008486289 -0.0033528178 0.0010985951 -0.019505506 0.024206279 0.009965015
-0.009072957 -0.01607044 0.023148082 -0.008812197 -0.0026314307 -0.010008772 0.0013714324 0.007133825
0.015227813 0.019222984 -0.010960336 -0.021713275 -0.018461943 0.0036576942 -0.002359262 0.0066555464
-0.020502653 -0.020367352 -0.018506842 0.0059203813 0.005103753 -0.0220398 -0.00071090716 0.008716907
-0.003221359 0.018181449 0.0038470807 0.011307049 -0.019390857 0.0077702776 -0.0103674615 0.009002211
-0.013552922 0.005141071 0.0027125007 -0.0017338968 0.02026761 -0.0015318287 0.004441178 -0.021511028
-0.024131184 0.009767326 0.017970033 0.0027069545 0.0012944973 0.0043099886 -0.023892783 0.023086086
-0.015546447 0.010991963 0.0144590335 -0.00434791 0.007986202 0.021585118 0.019155763 -0.01138248

weight f4 [1664]
00000000: 7938 7d3f ac78 7f3f 4978 7f3f 75ce 7f3f
00000010: d764 7f3f 9831 803f 57d1 7c3f bc77 7f3f
00000020: 996b 7f3f c451 7f3f 4f41 7f3f 0e80 7f3f
00000030: af10 7f3f 21f4 7f3f 3ce0 7f3f 2fe0 7f3f
00000040: 1f70 7f3f deec 7f3f 3bdf 7f3f 9ebd 7e3f
00000050: 15a0 7f3f 23e4 7f3f 72e4 7f3f 69e2 7f3f
00000060: 45d7 7d3f 4553 7f3f 96de 7f3f e6f1 7f3f
00000070: cbec 7f3f 88da 7f3f cccd 7f3f cedb 7f3f
00000080: c6ab 7f3f 27f6 7f3f f1c1 7f3f bef8 7f3f
00000090: 60de 7f3f 90e4 7f3f 94db 7f3f edf4 7f3f
000000a0: 10ac 7f3f 8c57 7f3f 73bb 7f3f 39ea 7f3f
000000b0: 6df6 7f3f bdda 7f3f 5ccf 7f3f 98f6 7f3f
000000c0: bd75 7f3f a1da 7c3f d7f3 7f3f 80e1 7f3f
000000d0: c7da 7f3f e5e9 7f3f df94 7f3f 8bc2 7c3f
000000e0: 99da 7f3f c5da 7f3f 03bd 7c3f 7cdf 7f3f
000000f0: 10e9 7f3f b3e2 7f3f eaeb 7f3f 6aea 7f3f
00000100: 3312 803f 7d2e 7f3f ce07 7f3f 5c7c 7f3f
00000110: 2251 7f3f 121e 803f 976b 7f3f 297f 7f3f
00000120: 3553 7f3f 14c1 7f3f 4886 7f3f 1206 803f
00000130: aebb 7f3f 6ce2 7f3f 9190 7f3f 83eb 7f3f
00000140: 780b 803f a9fb 7e3f af0d 803f 059f 7f3f
00000150: 56de 7e3f 278d 7f3f 2a31 7f3f 080d 803f
00000160: e929 803f 9782 7f3f b205 7f3f 8a61 803f
00000170: 55f7 7f3f e389 7f3f 27b5 7e3f e60f 803f
00000180: 2279 7f3f f11e 803f b924 803f 7653 7f3f
00000190: 6452 7f3f b763 7f3f 301b 803f 0881 7f3f
000001a0: 6885 803f fb56 803f 06f2 7e3f f4d8 7e3f
000001b0: e22b 803f fafd 7e3f 9cf5 7e3f 0f04 7f3f
000001c0: 3b5d 803f 3231 803f 2782 7e3f 0d89 803f
000001d0: 18a1 7f3f 97d7 7f3f 31e3 7f3f f4ea 7f3f
000001e0: a0f3 7f3f 06fa 7f3f 09e3 7f3f 55e0 7f3f
000001f0: 2ae8 7f3f 49e1 7f3f fcc4 7f3f 5fdd 7f3f
00000200: f1fa 7f3f 59d6 7f3f 19d5 7e3f ab78 7f3f
00000210: e90f 7f3f 40b7 7e3f bd07 803f 27aa 7f3f
00000220: 31b5 7f3f ea2e 7f3f 42c5 7f3f d682 7f3f
00000230: 70cc 7f3f 6969 7f3f 4d1e 803f 24b4 7f3f
00000240: 4ff3 7f3f c9ec 7f3f 47e9 7f3f f6ed 7f3f
00000250: f0d8 7f3f 98cf 7f3f 25cd 7e3f 0ce1 7f3f
00000260: 29e6 7f3f fea9 7f3f 30da 7f3f 676a 7f3f
00000270: d042 803f 4a63 7d3f 89d8 7c3f a00f 803f
00000280: 26a1 7c3f 0550 813f a0ed 803f d33b 7d3f
00000290: b5c7 7d3f d2b1 803f b5cd 7d3f eb3f 7d3f
000002a0: 038f 7e3f 8908 7f3f c2bf 7f3f 08a3 7f3f
000002b0: a9b7 7f3f e4f3 7f3f 31b3 7f3f 7be9 7f3f
000002c0: 81ab 7f3f 4313 803f ed93 7f3f 0959 7f3f
000002d0: 1012 803f 4959 7f3f 9e82 7f3f f8f6 7f3f
000002e0: d74f 7f3f 6304 803f a2d2 7f3f 9fbd 7f3f
000002f0: b453 803f 3344 7f3f 3cae 7f3f d4a4 7f3f
00000300: 389f 7f3f 10fb 7f3f b7ec 7e3f d10e 7f3f
00000310: f61f 7f3f c288 7f3f 142c 803f 5922 803f
00000320: b092 7f3f 3a0b 7f3f d31c 803f f39c 7f3f
00000330: b86c 7f3f 4897 7f3f 15e0 7d3f d415 803f
00000340: 28ef 7f3f 44f5 7f3f a3cf 7f3f fee2 7f3f
00000350: 24df 7f3f 42a5 7f3f 6031 7f3f 63d0 7f3f
00000360: bbe1 7f3f 52e1 7f3f 08df 7f3f 47c9 7f3f
00000370: 7bbf 7f3f e140 803f 853a 7d3f bac6 7e3f
00000380: 8d0b 7c3f 04d9 7e3f f118 7f3f fc54 7f3f
00000390: 5e2b 803f 093d 7f3f 6b02 803f 5929 7f3f
000003a0: ccb8 803f 82bd 7f3f 0d61 7f3f 2f6f 7d3f
000003b0: f26f 7f3f 5eda 7c3f 4ded 7e3f cc2b 803f
000003c0: 1fc9 7f3f 5b75 7f3f 3395 7f3f f1b8 7e3f
000003d0: 86ee 7e3f 9e31 7f3f fac8 803f d451 803f
000003e0: 0a18 803f 0a8a 7f3f 2094 7f3f b8f2 7f3f
000003f0: 4e68 7f3f 2f9f 7f3f 5d8f 7f3f c80f 803f
0.98914295 0.99793506 0.99792916 0.99924403 0.99763244 1.0015135 0.9875693 0.99792075
0.99773556 0.9973414 0.9970903 0.9980477 0.9963483 0.99981886 0.9995153 0.9995145
0.9978046 0.99970806 0.9995 0.9950808 0.9985364 0.99957484 0.99957955 0.9995485
0.991566 0.99736434 0.99949014 0.9997848 0.9997069 0.9994283 0.99923396 0.9994477
0.9987148 0.99984974 0.99905306 0.99988925 0.9994869 0.99958134 0.99944425 0.999831
0.9987192 0.9974296 0.998954 0.9996677 0.9998539 0.99943143 0.9992578 0.9998565
0.9978903 0.987711 0.99981445 0.9995346 0.999432 0.9996627 0.99836534 0.9873435
0.9994293 0.9994319 0.9872591 0.99950385 0.99965 0.9995529 0.9996935 0.9996706
1.0005554 0.9968031 0.99621284 0.9979913 0.99733174 1.0009177 0.99773544 0.99803406
0.9973634 0.9990399 0.9981427 1.0001853 0.9989575 0.9995487 0.99829966 0.9996874
1.00035 0.9960275 1.0004176 0.9985202 0.9955801 0.99824756 0.99684393 1.0003977
1.001279 0.9980864 0.99618065 1.0029767 0.99986774 0.99819773 0.99495167 1.0004852
0.9979421 1.0009443 1.0011207 0.99736726 0.99735093 0.9976153 1.0008297 0.9980626
1.0040712 1.0026544 0.9958805 0.99549794 1.0013392 0.9960629 0.9959352 0.9961557
1.0028452 1.0015013 0.99417347 1.0041825 0.99855185 0.9993834 0.9995604 0.99967885
0.9998112 0.9999088 0.99955803 0.9995168 0.9996363 0.9995313 0.9990995 0.9994716
0.9999228 0.99936444 0.9954391 0.997935 0.9963365 0.9949837 1.0002362 0.99869007
0.9988585 0.9968096 0.99910367 0.99809015 0.9992132 0.9977022 1.0009247 0.9988425
0.99980634 0.9997068 0.9996533 0.99972475 0.99940395 0.9992614 0.99531776 0.9995277
0.9996057 0.9986876 0.999423 0.9977173 1.002039 0.9897963 0.98767906 1.0004768
0.98683393 1.0102545 1.0072517 0.9891941 0.99132854 1.0054266 0.9914201 0.98925656
0.9943697 0.996224 0.99901974 0.9985814 0.9988962 0.9998152 0.998828 0.9996564
0.9987107 1.0005878 0.9983509 0.9974523 1.0005512 0.99745613 0.9980868 0.9998622
0.997312 1.0001339 0.99930775 0.99898714 1.0025544 0.9971344 0.99875236 0.9986088
0.99852324 0.99992466 0.9957995 0.99631983 0.99658144 0.9981805 1.0013452 1.0010482
0.998332 0.99626505 1.0008796 0.9984886 0.99775267 0.9984021 0.9917005 1.0006661
0.999743 0.9998362 0.99926203 0.9995574 0.9994986 0.9986154 0.99684715 0.9992735
0.9995381 0.99953187 0.99949694 0.999165 0.9990155 1.00198 0.9891742 0.9952198
0.98455125 0.9954989 0.9964743 0.9973905 1.0013235 0.9970251 1.0000738 0.99672467
1.0056396 0.9989854 0.9975746 0.9899778 0.9978019 0.987707 0.9958084 1.0013366
0.9991626 0.99788445 0.99837035 0.9950095 0.9958271 0.99685085 1.0061333 1.0024972
1.0007336 0.99820006 0.99835396 0.99979734 0.9976853 0.9985227 0.9982813 1.0004816

bias f4 [1664]
00000000: f88c 30bc b914 dbb9 f3a3 e4b9 12a3 12bb
00000010: d047 2eba 2608 6fb9 e867 5ebc 37a4 eab9
00000020: fcad 22ba 1abf 86ba c0f0 9eba 0f65 0cba
00000030: 203a ceb9 4488 9339 1418 cc39 4217 ce39
00000040: de55 0c3b 0000 cf39 b4a4 d539 96f7 a73b
00000050: 846b b73a d008 b039 ac28 093a 3f20 b439
00000060: 9cdc 073c 9345 9d39 b59e e639 cdf7 9b39
00000070: aeee c339 aaf7 043a daa9 383a a110 283a
00000080: 1c40 a13a 353d 7539 56eb 673a a844 5139
00000090: d38e 1f3a c81f b539 fb22 f939 96ee 8139
000000a0: 074a 9f3a dde5 253b 1d8d 983a e6d2 e339
000000b0: 47b3 8239 342f ff39 425e 2c3a f938 8339
000000c0: 1ea8 133b 3cc8 4d3c 5017 9839 2f52 cd39
000000d0: c239 2c3a de19 7c39 87e5 e53a b905 533c
000000e0: 8b0c 423a 15cd e839 40fa 543c 62fa 083a
000000f0: 5e73 b239 b62d cb39 0eeb bc39 6fd2 843a
00000100: 00bc 0b3a 073b 093a fc2d bb39 c667 0e39
00000110: 212f fe38 8c99 c738 dd6b 0139 e0a6 9e35
00000120: 3127 1538 d6bf e338 2087 4a39 dd43 0a3a
00000130: 9201 0f39 c323 ed39 02a2 f7b9 306b c5b9
00000140: 2f36 37b9 7a70 10bb 07dc 10b9 f2e6 82b9
00000150: 310a 27bb 9fce abb9 1631 7bba 28a7 0aba
00000160: b30d 19b9 1cd0 92b9 5735 68b8 e4b2 2fb9
00000170: 81c2 af39 ac77 1239 f3ab 5d3b 543d e739
00000180: 0242 2e39 a5b2 8539 1a29 9939 844e 6c39
00000190: a8a5 fc38 1ca7 cb38 560d 213a dd90 a63a
000001a0: 91d7 2538 ba67 d238 acec 4e39 f520 a839
000001b0: b80f 213a 7025 4939 5ed4 9739 2636 5e39
000001c0: cef3 4039 edb7 2f3a 67e9 893a f2e5 9638
000001d0: f9ba e939 c082 3e3a 67e2 b239 42b9 e639
000001e0: fec9 a039 c34a 5439 e4fc af39 8216 c939
000001f0: ccf9 fd39 b9e5 bc39 1732 523a 35f7 de39
00000200: 8cfb 4f39 df3e 463a 046c 3039 ccf3 8bb8
00000210: 8395 53b9 25d6 95b9 f84f df36 f2e3 b4b8
00000220: b72f 9eb8 c26e 2db9 a6b6 90b8 db2f 4bb8
00000230: 4fe0 1839 fb43 1738 1be4 d139 fb87 443a
00000240: 2b22 5a39 ea51 8e39 336c d439 3f68 7439
00000250: 810f 103a edff 413a e085 9d3b 5832 093a
00000260: 6e67 b739 9ea9 8a3a 9e33 ae39 eb12 143b
00000270: 3d65 9339 07c4 1e39 16ab e238 6015 29ba
00000280: 0b66 2d39 c466 ecb7 b082 9db6 2771 c738
00000290: 4874 7cb8 4f1e c5b9 3cee 8d39 143c 0a39
000002a0: cd69 87bb 6030 1e3a cd33 203a 7633 4b3a
000002b0: 7cbe df39 b322 5d3a e510 ee39 2444 893a
000002c0: 6208 fe39 eef8 7a39 dce6 293a 168d b33a
000002d0: 3a84 583a b371 d539 1b4a 8dba 72af abb9
000002e0: b5eb 15bb cb3a d2b9 f1d5 98ba 360e 8bb9
000002f0: 478f 8fb9 000c ffba 5e17 72b9 f9b3 d6b9
00000300: 70cd eab9 474a 1aba 1d93 cbb9 9c15 7bba
00000310: 7100 38bb 3189 49b9 1b44 9fb9 2685 40ba
00000320: 5cdb e8b9 e53a 30b9 f1fe a1b9 a4e1 ebb9
00000330: 03b0 94ba dfd1 c3b9 5c06 0abc e239 83ba
00000340: d773 b639 f61a 8b39 fda3 2d3a 78be bc39
00000350: 55b3 d839 0313 c63a 6a02 4c3b 39c7 5d3a
00000360: 9404 c639 861a c739 ab3b d839 ae22 793a
00000370: 0aab 8f3a 4ad7 34b9 1f6b 22bb 4d67 f0b9
00000380: bf1c 5ebb fb48 91b9 36f6 0bba 1a56 9db9
00000390: b2fc 13b9 4953 abb9 a5d2 bfb9 056b 89b9
000003a0: 6983 02ba 1ad7 8d3a 0818 bf3a 705f 05b9
000003b0: 5649 71b9 c4c6 15bb 9e1e 2bba 83e9 08b9
000003c0: 9479 f5b8 10bb 0bba 8e32 a9b9 685e c8ba
000003d0: 12b6 f9ba 2065 94ba a1c0 6339 a099 4fb9
000003e0: 6838 91b9 ef24 f4b9 1eba c3b9 0287 a4ba
000003f0: d0a6 0eba 3c36 8ab9 a4a2 99b9 2318 c2b9
-0.010775797 -0.00041786375 -0.000436097 -0.002237503 -0.0006648274 -0.00022795852 -0.013574578 -0.00044754308
-0.0006205735 -0.0010280341 -0.0012126192 -0.0005355635 -0.00039334688 0.0002813955 0.00038927852 0.0003930871
0.0021413486 0.00039482117 0.0004074924 0.00512595 0.0013993834 0.00033575902 0.0005232196 0.000343563
0.0082923435 0.0002999721 0.00043987265 0.0002974853 0.0003737113 0.0005072305 0.0007044353 0.00064111693
0.0012302431 0.00023387822 0.00088470185 0.0001995737 0.0006086651 0.0003454669 0.00047519043 0.00024782558
0.0012152799 0.002531401 0.0011638735 0.00043453946 0.00024929104 0.0004867256 0.0006575325 0.00025028715
0.0022530626 0.012559947 0.00029009068 0.00039161879 0.0006569886 0.00024042229 0.0017539718 0.012879782
0.0007402382 0.00044403286 0.012999117 0.0005225298 0.0003403676 0.00038753235 0.00036033284 0.0010133515
0.00053304434 0.0005234931 0.0003570168 0.00013580834 0.00012120442 9.51766e-05 0.00012342581 1.1820484e-06
3.5560868e-05 0.00010859936 0.00019314559 0.00052743946 0.00013638128 0.00045230807 -0.00047232216 -0.0003765463
-0.00017472425 -0.0022039698 -0.00013814877 -0.000249676 -0.0025488252 -0.00032769606 -0.00095822045 -0.00052891904
-0.0001459632 -0.00028002344 -5.5362787e-05 -0.00016755942 0.00033523518 0.00013968226 0.0033824414 0.00044105446
0.00016618523 0.00025500837 0.00029213057 0.00022535963 0.00012047152 9.710921e-05 0.000614365 0.0012707968
3.9539827e-05 0.00010032901 0.00019733858 0.00032068012 0.0006144005 0.000191828 0.0002895919 0.00021191742
0.00018401371 0.00067031273 0.001052183 7.195388e-05 0.0004458053 0.0007267408 0.0003411949 0.00044007046
0.00030668074 0.00020245746 0.0003356702 0.00038354477 0.00048442034 0.0003602931 0.0008018328 0.00042527323
0.00019834767 0.0007562469 0.00016824907 -6.673447e-05 -0.00020178226 -0.00028579045 6.6552275e-06 -8.625527e-05
-7.542915e-05 -0.00016539826 -6.900476e-05 -4.844354e-05 0.00014579411 3.6064517e-05 0.00040033538 0.00074970693
0.00020802829 0.0002714538 0.00040516406 0.00023308488 0.00054954743 0.00074005016 0.004807219 0.0005233637
0.0003498154 0.0010579114 0.00033226324 0.0022594284 0.00028113453 0.0001514108 0.00010808387 -0.00064500235
0.0001653658 -2.8181246e-05 -4.6941786e-06 9.510136e-05 -6.0189777e-05 -0.0003759735 0.00027071114 0.00013183086
-0.0041324855 0.000603443 0.00061112345 0.0007751504 0.00042675796 0.00084356515 0.00045407485 0.0010472578
0.000484529 0.00023934591 0.0006481239 0.0013698663 0.00082594494 0.00040711238 -0.0010779531 -0.0003274638
-0.0022876088 -0.00040098125 -0.0011660439 -0.00026522734 -0.00027381835 -0.0019458532 -0.00023087623 -0.0004095135
-0.0004478502 -0.0005885702 -0.00038828785 -0.000957811 -0.0028076435 -0.00019219962 -0.00030377586 -0.00073440594
-0.00044413924 -0.00016806608 -0.0003089826 -0.00044990808 -0.001134396 -0.00037349664 -0.008424368 -0.0010011757
0.00034800053 0.00026532233 0.00066238624 0.00036000065 0.00041332343 0.0015111867 0.0031129369 0.00084601674
0.00037768914 0.00037976 0.00041243187 0.0009503764 0.0010961008 -0.00017246339 -0.0024783087 -0.00045853332
-0.0033891646 -0.0002771093 -0.00053391175 -0.00030009524 -0.00014113149 -0.00032677714 -0.000365873 -0.00026210412
-0.0004978688 0.0010821552 0.0014579305 -0.00012719422 -0.00023010871 -0.002285407 -0.00065276946 -0.0001305696
-0.00011705156 -0.00053303037 -0.00032271858 -0.0015286924 -0.0019051454 -0.0011321642 0.00021720167 -0.00019798288
-0.0002769858 -0.00046566824 -0.00037331966 -0.0012552442 -0.0005441727 -0.0002636182 -0.0002930361 -0.00037020547
