Single Battery Model/4. CNN Models/model_B0007_combined_std.pth (torch, 129036 bytes, 7 tensors)

weight f4 [64, 6, 3]
00000000: 8976 083e 8ca2 483e 2154 133e 0669 42be
00000010: bda4 033e 155b 803d 0f40 1e3d 266e 68be
00000020: cb61 a4bc 3f08 693e 0ca4 363e a1f4 71be
00000030: 6336 bebb 61e0 89bd fb7d 5f3e 97aa 4d3e
00000040: 29cf 32bd fa6a e6bd edfa f3bd 8c99 95bd
00000050: cf44 2d3e 1334 68bd 2cf0 56be 7d76 2c3e
00000060: b63b 74be f5d4 913d bbff 1c3e 94dd 0a3e
00000070: 5102 533e 0171 ba3d 8001 cfbd 57a0 303d
00000080: 1b8a 393e bbef 65be 03b4 9e3d 59f0 6d3e
00000090: 0e4a 353e 1b50 f53d 0ba0 87bd 38d6 4cbe
000000a0: e099 283e f9ae 523e b9e1 1bbe 444d 903b
000000b0: 1185 fc3d 7a70 063e fb12 3e3d 227b 08be
000000c0: aa20 bcbd 1aff 43be 5806 493e d424 90bd
000000d0: 9249 f7bd 9cba 353e 4138 f4bd 4a0c aabd
000000e0: f109 573e 6c50 f93c 3975 0a3c ce69 9fbd
000000f0: 804c 6fbe 6abb 60be 509a 59be 1ee5 043c
00000100: 3d99 213e 9f6f 203e bf8f 553e 9441 8dbd
00000110: 210d 04be 3b05 6cbe e82d d63d 3361 0bbe
00000120: 53d7 0e3d 2a91 8b3c 6469 193d 4d06 dfbd
00000130: 8b10 41bd b626 86bd dbe0 07be 77e1 e23d
00000140: c7aa f53d e3c5 403d 45f2 e0bd 05a4 d53d
00000150: fbe1 6f3d 9c8a 8a3d 58b6 a53d dcf6 10be
00000160: 108c 433d 77d2 cd3d a7a7 7bbc 5dac 65be
00000170: 6ac8 32be df17 2cbe f168 5a3e 4731 1e3d
00000180: 513c 043e 2cfc 7a3e d6e5 633e 28cd f1bc
00000190: 9c08 043e 424f 263c b64c 613e a4cf 163e
000001a0: 11d2 1cbe b544 61be 28c6 263e 671f 433e
000001b0: 9e97 18bd edd6 3abe c24d 18be bb97 03be
000001c0: 9f55 18be 5f22 25be 7a16 453d 354b 543e
000001d0: e988 59be 27dd 493e 48dd 38be 15a3 483e
000001e0: 064b 3d3e 6ef8 663e 8e06 3fbe be65 29be
000001f0: 593f e23c fc4f 45be 885a 193e 2ecb 28be
00000200: 8594 ebbd 5837 d5bd d8c0 83bc 790a b6bd
00000210: eb91 0ebe 6c67 a33d bacb 233e 3dd9 33be
00000220: 31a9 e93c f8ce 0d3e 82d1 68be 41b9 063e
00000230: 4c76 e73d 966c 33bd 03ac e43d 982e 84bd
00000240: ff7e 72be 7c3b 533d 8196 343e 2c7e 673e
00000250: 5f6c 2a3e 0a64 fabc 5637 293e 4917 ddbd
00000260: d7e0 53bd 1164 ccbd 0bfd 1b3e 9c9f 153e
00000270: 2392 883d 12e5 54bd 80fa bbbc 4ee1 883d
00000280: 965c b43c 6adc 68bd 0d51 4e3e c649 4fbe
00000290: 3d20 d43d ff95 22be 32cd 39bd 0de3 9d3d
000002a0: b719 04be 6368 02bc c7b9 603e 9143 5cbe
000002b0: e57d 3d3e e4ac 213d e2eb 8b3d e196 8b3d
000002c0: f55b 9cbd 96eb 3cbe c484 49bd f9ed ffbc
000002d0: 26cf 13bd 5d56 6d3e b4e6 1f3e 1aa2 c33d
000002e0: a729 443e 4661 f33d 189e 2e3e c6b3 133d
000002f0: 77e9 b03c 6d5f de3c 6093 373e 6939 f8bc
00000300: 52b7 4cbd 3135 013d 652f 0a3d e0c0 ce3b
00000310: 97f6 ffbd 77d7 3b3e b783 56be 983d 84bd
00000320: a644 ccbd 147a 07be 04b0 03bd eb22 293e
00000330: 7e0c 5dbe 3232 dc3d b5a4 893d 4685 8d3d
00000340: eb0d 393d af65 04be f3ac 96bd add2 ab3d
00000350: af50 b93c 70c5 6d3e 70a3 7bba e237 633e
00000360: c1a9 24be 612d 223e ce2f 4f3e efec 6b3e
00000370: dd64 383d 1618 4cbe 9194 463e e23c fe3d
00000380: 65e4 7c3d 28d8 69be 535f b3bd cf37 9abd
00000390: bfc2 36bc a325 9a3b 1427 d7bd 8cd1 553e
000003a0: 53a4 d13d f3a4 8ebd 82ed 713e 3b7d a13d
000003b0: 3516 9cbd 7998 e2bd cd74 993d e060 313e
000003c0: 9b12 09be 7013 2bba 9e74 143e 69b5 253e
000003d0: acff e0bc 5cd8 57be 3906 45be bd4b 39be
000003e0: 76cd 32be 7b50 3bbc 52de 513e b63b 213e
000003f0: 740b d6bc 4081 84bd 1484 e73d ad3b 1d3e
0.13326468 0.19593257 0.14387561 -0.18985376 0.12855811 0.062673725 0.03863531 -0.22698268
-0.020066163 0.22757052 0.17836016 -0.23628475 -0.0058048232 -0.0673225 0.21825401 0.20084606
-0.043654595 -0.11250873 -0.11913095 -0.07304677 0.1692078 -0.056690287 -0.20990056 0.16842075
-0.23850903 0.071206965 0.15331928 0.13561088 0.20606352 0.09103585 -0.10107708 0.043121662
0.1811909 -0.22454731 0.07749178 0.23236217 0.17704031 0.119781695 -0.06622323 -0.20003593
0.16464949 0.2057456 -0.15222825 0.004403742 0.12330068 0.13128844 0.04640482 -0.13328221
-0.09185918 -0.19140282 0.19631326 -0.070382744 -0.12074579 0.17746967 -0.11924792 -0.08303125
0.20999886 0.030433856 0.0084508 -0.077838525 -0.23369026 -0.21946493 -0.21250272 0.008111266
0.15781112 0.1566758 0.20855616 -0.06897274 -0.12895633 -0.2304887 0.10457975 -0.13611297
0.034873318 0.017036993 0.037454024 -0.10889874 -0.047134917 -0.06550352 -0.1326937 0.1107816
0.11995464 0.04706372 -0.10983709 0.10431675 0.05856512 0.06764719 0.0809142 -0.1415667
0.047740996 0.100499086 -0.015359796 -0.22429033 -0.17459264 -0.16805981 0.21329094 0.038621213
0.12913634 0.24510258 0.22255644 -0.029516771 0.12893909 0.0101507325 0.22001919 0.14727646
-0.15314509 -0.21998866 0.16286528 0.19054948 -0.03725397 -0.1824605 -0.14873412 -0.1285085
-0.14876412 -0.16126393 0.04811714 0.20731814 -0.21243633 0.19713269 -0.18053162 0.19593461
0.1848565 0.22555706 -0.18654844 -0.16542718 0.027618097 -0.19268793 0.14975941 -0.16483757
-0.11502937 -0.104109466 -0.016083166 -0.08888716 -0.13922851 0.079787105 0.15995684 -0.17563339
0.02852306 0.13848484 -0.22736171 0.13156606 0.1130186 -0.043804727 0.11165621 -0.064541996
-0.23681258 0.0515704 0.17635538 0.22606725 0.16642903 -0.03056528 0.16525015 -0.10795457
-0.051728096 -0.09980024 0.15233247 0.14611667 0.06668498 -0.05197627 -0.022946596 0.066835985
0.022016805 -0.05685083 0.20148106 -0.20242986 0.103577115 -0.15877531 -0.045361705 0.07709322
-0.12900434 -0.007959458 0.21945868 -0.2151015 0.18505056 0.039471522 0.068321005 0.06815887
-0.07634727 -0.18449244 -0.04919888 -0.031241404 -0.036086224 0.23177476 0.1561535 0.09552403
0.19156514 0.11883788 0.17052495 0.036060117 0.0215957 0.027145112 0.17927313 -0.030300813
-0.049979515 0.031544868 0.033736605 0.0063096136 -0.12498205 0.18343912 -0.20948683 -0.064570606
-0.09974031 -0.13230163 -0.032150283 0.16517226 -0.21586797 0.107517615 0.067208685 0.069101855
0.04517929 -0.12929414 -0.07357206 0.083897926 0.02262148 0.23219848 -0.0009599244 0.22189286
-0.16080381 0.15837623 0.2023308 0.23039602 0.045018066 -0.19931063 0.19392611 0.12413956
0.06174125 -0.22836363 -0.08758416 -0.07530176 -0.0111548295 0.0047041937 -0.105055004 0.20880717
0.102364205 -0.06965055 0.23625758 0.07885214 -0.07621423 -0.11064238 0.07492981 0.17322111
-0.13386004 -0.0006526029 0.14497611 0.16182484 -0.027465664 -0.21078628 -0.19240655 -0.18095298
-0.1746119 -0.011432762 0.20494965 0.15745434 -0.026128508 -0.06469965 0.11304489 0.15354796

bias f4 [64]
00000000: 25e7 0fbe 50d5 e8bd f798 26bc 5c3a 65be
00000010: 6f58 2c3e 7423 cebd 556e 433e cf1b babb
00000020: 4a41 15be 9c88 c0bd ae8e 963d 378e 20be
00000030: b8d7 4ebe 43d7 a03d a000 673d 6ce1 f53d
00000040: 68a7 07be f9d4 1d3e 8470 5bbd 8e2a 693e
00000050: 6f4f 10bd 4d0a 0cbd 645e 27bd 3099 95bd
00000060: e7a0 073e 76af e9b9 c818 443d be71 67be
00000070: 8a4a f53d ab0d 94bd 88b3 63be 8f29 03be
00000080: dbde 5c3d 9262 a73d 0990 33be 62ab 153e
00000090: 723b 713d 92be 6f3e f64e 433e 0491 0cbe
000000a0: 2a6d 7b3e de8b 0dbe 7632 fa3c 196e 14be
000000b0: 7e2c 22bc 6cca 6b3e 3b06 c3bc baca bebc
000000c0: a1dc 193e a175 62be 0d9e 55be 583a cf3b
000000d0: df19 6dbe 41f4 113e 921b bd3c db69 513e
000000e0: 47b1 3b3d af04 473e b02a 513e fc30 9ebd
000000f0: 6cf8 89bd ae19 59be 85f7 e7bd 796b 59be
-0.14053018 -0.11368811 -0.010168306 -0.22385544 0.1683061 -0.10065356 0.19085057 -0.0056795846
-0.14575687 -0.09401056 0.07351433 -0.1567925 -0.20199478 0.07853558 0.05639708 0.120058864
-0.13247454 0.15413274 -0.0535741 0.2277014 -0.035232004 -0.03418951 -0.040861502 -0.07304609
0.13244973 -0.00044571952 0.047875196 -0.22601983 0.11977108 -0.072291695 -0.22236454 -0.12808822
0.05392347 0.08173098 -0.17535414 0.14616159 0.058894582 0.2341254 0.1907309 -0.13727194
0.24553362 -0.13822886 0.03054164 -0.14495124 -0.009898303 0.23026437 -0.023806682 -0.023290027
0.1502557 -0.22115184 -0.20861073 0.006324094 -0.231544 0.14253332 0.023084436 0.20450537
0.04582336 0.1943538 0.2042644 -0.07724187 -0.06736836 -0.21201202 -0.113265075 -0.21232404

weight f4 [128, 64, 3]
00000000: 3508 6fbd 99c4 e53c 4f92 363d 8931 1b3d
00000010: 02b5 8d3d f33d 0c3d 177f 80bd ee67 013d
00000020: 396b 58bd 153c 183d 3e69 23bd c240 8a3d
00000030: 327c 6d3d 8d46 8abc 5a6b 803c a9c8 183d
00000040: 8100 8dbd adc2 353d ccd3 af3c e9a4 b33c
00000050: d39d 783d 2e13 3c3d da35 0b3c bcd1 da3c
00000060: bfd1 22bd 39d4 593d 10c2 8fbc 759e 6cbc
00000070: 224a 56bb b349 853d dc23 303c b578 f9bc
00000080: b964 813d c6a1 47bd 11cd 753b b299 c93c
00000090: a2cf f83c c81c f2bc b233 50bd aad6 8ebd
000000a0: e60b 21bd 47d9 8d3d d8e1 13bd 5352 79bd
000000b0: 66c9 d03c d40a 0138 5841 8b3d ee6a fdbb
000000c0: aeb1 ec3c 1ba5 d43a 5c49 5dbd 9305 4c3d
000000d0: 302c 353d 361b 803d f71f 473d 12f6 b5bc
000000e0: 4d0a 31bb 523b 2dbc bbd2 e1bb 58d2 883d
000000f0: e3ef 73bc 83e8 283c 7a93 e93b def2 363b
00000100: 1988 98bc b069 e63c badc 06bc 4ace 48bd
00000110: f7f7 bbbc d617 8e3d cd35 18bc d9b4 5dbd
00000120: 816f 3c3c 498f 2e3c 6195 0ebc 7601 44bd
00000130: d7c5 653d 7b61 0d3c ff36 04bb 5c17 dcbc
00000140: 7ae2 2e3c 7ce3 78bd 1aab 133d 3381 64bd
00000150: 457f 63bd 46f1 17bd e8da e33c 3038 783d
00000160: 8ec9 633d 749b 043d e740 94bc cfa1 70bb
00000170: 0ff3 863d 7476 e3bc fc9f c4bc 41e8 4d3d
00000180: b91a 68bd 55b2 513d 19f6 f73c 9c25 963d
00000190: 22dc 8ebb 59d0 583d 0591 7fbd e307 8bbd
000001a0: a168 4fbd dc86 b8bb 9d91 84bd be53 503b
000001b0: c9e7 213d 609d 773d a413 02bd a685 be3c
000001c0: eab1 5b3d 9d42 5abd abdb 4c3c 9436 15bd
000001d0: 4597 d73c 45e2 483d b430 c839 2c65 5abc
000001e0: f9d9 3c3c 824b c5bc a140 d5bb 9eaf 023d
000001f0: 5fd8 95bb 407c 453d dcf0 493d 7b20 7cbd
00000200: 6f94 2dbd 1d0c 45bd edeb 2a3d bf09 6ebd
00000210: b6fb 203c 80d4 cbbc 54a0 fc3c 61ca 03bd
00000220: dfbd 62bd 0f8d 213c 26af 96bc 4d77 2dbc
00000230: fad4 2d3d cdff 61bd 4cee 1f3c 334a 1e3d
00000240: f1fb 70bd 9bc2 73bd 7ed3 083d 1a8a 103d
00000250: 06b1 59bc dbe7 82bd 36ae ec3a ec7d 40bd
00000260: e75a 65bc 40e3 97bd a6d1 c2bc 6570 98bd
00000270: 2f63 71bc 3031 613d 7526 b4bb 734d 123d
00000280: 5f23 aabc 9eee c33a 1583 29bc 9c67 a8bc
00000290: 9c41 1fbd 7539 95bd ac04 c0bc 3eea 85bd
000002a0: 916c 333d 201f 8fbc 31bb b43c 40de 75bd
000002b0: 683f 3e3d d4d0 89bd 7ae8 293c 9f52 543c
000002c0: 6dee 063c 2357 033c e625 da3c 6374 05bd
000002d0: 4e81 d9ba e8c1 95bc ab1e 733d f510 9f3c
000002e0: ee5d d6bb 674a 2fbd 372e 22bd dbd1 86bd
000002f0: 8d3b 4b3d 0143 33bd 7c06 0d3d 57b7 27bd
00000300: 6b19 90bd ca62 bb3c dc1f f9ba 7bac 57bd
00000310: ae14 ee3c 72e6 abbb 70ea 86bd 06af a0bc
00000320: cfe2 c2bb 8b91 90bc 37f0 3a3d 7af7 11bd
00000330: 433a d23b de5c 483b e288 eebc 5188 3fbc
00000340: b981 9abd 53f6 613d ff29 75bc 684a 813d
00000350: d412 31bd 0267 1fbc 31b9 a0bd d474 99bd
00000360: 8332 b1bc 260c c6bc 7614 8bbc 8d97 98bd
00000370: ddf0 6a3d b476 6a3d e64f 99bd ab2a 463d
00000380: 8d73 afbc de03 1fbd a9b9 8b3b 3778 163d
00000390: d676 e63c ccd2 3b3c be20 4d3b 3ed9 113c
000003a0: 9758 3f3d 0082 23bd bc32 84bd bdab e33c
000003b0: 012c 693d 6c8a 9dbc fd08 9439 543c d0bc
000003c0: 6aad 793a b246 5e3d bf34 853b cdb4 c63c
000003d0: 805e 90bd 6a1d 1f3d da17 00bd 8938 a2bc
000003e0: ce6e 683d 8a85 7dbd 8284 6bbd aaff 2bbc
000003f0: e437 7b3b c84a 50bd 7e78 4e3c c49e 503d
-0.058357436 0.028047847 0.044573124 0.037889037 0.0691929 0.034238767 -0.062742405 0.031593256
-0.05283663 0.037166674 -0.03989529 0.06750633 0.05797977 -0.016879344 0.01567619 0.03730074
-0.06884862 0.04437511 0.021463297 0.021929221 0.060697388 0.04591673 0.008496726 0.026711337
-0.03975081 0.053180907 -0.01754859 -0.014442076 -0.0032697995 0.06508198 0.010750737 -0.030453065
0.063180394 -0.048738264 0.0037506262 0.02460942 0.030372445 -0.02955474 -0.05083055 -0.06974538
-0.039317988 0.06926208 -0.036104053 -0.060869526 0.02548666 3.076608e-05 0.06799573 -0.0077336943
0.028893318 0.0016223522 -0.05402504 0.049810003 0.044231594 0.0625519 0.04861447 -0.022212062
-0.0027014196 -0.010573225 -0.006891576 0.06680745 -0.014888736 0.010309341 0.0071281763 0.0027915756
-0.018619584 0.028126568 -0.008231336 -0.049024858 -0.022945387 0.0693814 -0.009290171 -0.054127548
0.011501194 0.010654279 -0.008702607 -0.047852956 0.056096878 0.008629198 -0.0020174382 -0.026866607
0.010674113 -0.06076382 0.036051847 -0.055787276 -0.055541296 -0.03709533 0.027814344 0.06060046
0.05561214 0.032374814 -0.018097354 -0.003671754 0.065893285 -0.027766444 -0.024002068 0.050270323
-0.05666611 0.05119546 0.030268716 0.07331392 -0.004359738 0.05293307 -0.06239416 -0.06788614
-0.05063689 -0.005631311 -0.06473086 0.0031788195 0.03952769 0.06045282 -0.031757012 0.023257088
0.05363647 -0.053286184 0.012503545 -0.036429003 0.026317248 0.049043912 0.0003818326 -0.013329785
0.011526578 -0.024083856 -0.0065079485 0.031905763 -0.0045729126 0.048214197 0.049301967 -0.061554413
-0.042377885 -0.048107255 0.041728903 -0.058114763 0.009825638 -0.024881601 0.03083817 -0.032175425
-0.055356856 0.009860291 -0.018394064 -0.010587526 0.04243944 -0.05517559 0.009761404 0.03864498
-0.05883402 -0.059511762 0.03340482 0.035287954 -0.013286835 -0.06391879 0.001805729 -0.04699509
-0.013998724 -0.074163914 -0.023781609 -0.074433126 -0.01473312 0.05497855 -0.0054977485 0.035718393
-0.02076882 0.0014948433 -0.010346194 -0.020557217 -0.03888093 -0.0728635 -0.023439728 -0.06538819
0.04380471 -0.017470896 0.022061916 -0.060026407 0.046447188 -0.06729284 0.010370368 0.0129591515
0.008235556 0.0080163805 0.0266294 -0.0325817 -0.0016594322 -0.018280938 0.05935542 0.019417265
-0.006541959 -0.042795565 -0.039594855 -0.065829955 0.04961734 -0.04376507 0.034430012 -0.04094633
-0.07036098 0.022874255 -0.0019006687 -0.052654725 0.029062595 -0.005245977 -0.06587684 -0.019614708
-0.005947448 -0.017647525 0.045639243 -0.035636403 0.0064156367 0.0030572931 -0.029118005 -0.011690215
-0.07544274 0.055166554 -0.014963626 0.0631302 -0.043230847 -0.009729149 -0.078478225 -0.07492986
-0.021630531 -0.024175715 -0.01697753 -0.07450781 0.05735861 0.05724211 -0.074859425 0.048380535
-0.021417404 -0.038822047 0.004264076 0.03673574 0.028132837 0.011463832 0.0031300033 0.008901892
0.046715345 -0.0399189 -0.06454989 0.027791852 0.05692673 -0.019231044 0.00028235457 -0.025419392
0.0009524437 0.05426664 0.0040651257 0.024256134 -0.070492744 0.03884641 -0.031272747 -0.019802349
0.056746297 -0.06189493 -0.057499416 -0.010497967 0.0038332874 -0.050852567 0.01260197 0.05093266

bias f4 [128]
00000000: 80b0 25bc 09e4 a7bb 1050 e6bc 8e97 353d
00000010: 2e1c acbc a467 5abd cceb 41bd 9d2d 513d
00000020: 15d2 413c 5dad bdbb d362 46bd 2995 11bd
00000030: da5e febb dcd2 883c 1eb6 213d a607 41bd
00000040: d613 8b3d d5c6 fa3c 58d5 213d f5ab 91bd
00000050: 785c 833d 2f6c 31bd 8f77 25bd 92ec 893c
00000060: 07e8 cdbc 1b00 873d ea3f 69bc 30d0 14bd
00000070: 3551 fe3c d606 6fbb 8cbe 8a3d 3d21 033c
00000080: 8f1b c03b e7fb 233d 4918 52bd 7d75 06bd
00000090: 417b 873d 5ca1 753d c3f8 053c 07de 783d
000000a0: fd50 c1ba 5c03 8bbd ce78 23bd d6fe 133d
000000b0: d294 4bbb 7922 cabb 2653 d73c dedf 2e3d
000000c0: caf9 463d ff2e 82bd f1df 483d 9a39 7dbb
000000d0: 7e3b 15bb b18c 69bd 7665 76bd 85cc 8e3d
000000e0: 3a74 28bd a9c7 00bd dec9 d13b 036d 6c39
000000f0: 67ac c9bb a55a 873b 6b07 4d3d 2a41 0cbd
00000100: 31b0 3c3d db99 6a3d 294a 3abb 7140 61bd
00000110: 93dd 90bc 7c1e 403d 9d3c 54bd f830 3abd
00000120: 3bd2 253c a856 5f3d e1e8 293c dee8 fdbc
00000130: 6f15 3fbc 2332 543d 4b5d c3bc 6348 93bd
00000140: e7a8 9bbd c8f6 27bc dc1a 263b cbd8 5bbd
00000150: 2219 943c 2323 75bd acb7 8e3d b723 f43c
00000160: 33c1 683c 332d babc c316 9bbd 69f1 87bd
00000170: 85a9 2fbd 80e2 1dbc 4ef3 0dbd addd 893d
00000180: d3d1 2c3d 90a7 1dbd 2247 a4bc 7d7f 28bd
00000190: 65d4 213d 74f4 f2bc bd8d 8bbd ef0b e63c
000001a0: da96 213c b1a4 1e3c af59 de3c b004 8d3d
000001b0: 99f9 4d3c d4ef 87bc 529a 8d3d 780e 44bc
000001c0: 69e6 55bd e9b6 0fbd 9349 23bd 62f6 833d
000001d0: 448e 1d3d 46c5 6ebc 6c4b 523d 0d96 ad3c
000001e0: 840e 92bd 5943 993d 8b4d 653d 1160 97bc
000001f0: f19e 82bd 8888 513d 006c 353d 12b1 48bd
-0.010112882 -0.0051236195 -0.028114349 0.044333987 -0.02100953 -0.053321496 -0.047344014 0.05106889
0.011829873 -0.005788489 -0.04843409 -0.03554264 -0.007762772 0.016702108 0.03948032 -0.047126435
0.06790893 0.030612389 0.0395101 -0.07112876 0.064141214 -0.043316063 -0.040397223 0.016836438
-0.025135053 0.06591817 -0.01423643 -0.036331356 0.031044582 -0.003647258 0.06774625 0.00800353
0.0058626602 0.040035155 -0.05129269 -0.03282689 0.06615306 0.059968337 0.008176985 0.060758617
-0.0014748868 -0.0678775 -0.03991013 0.036131702 -0.0031064046 -0.0061686602 0.026284765 0.042693965
0.04857806 -0.0635662 0.049041692 -0.003863907 -0.0022771056 -0.05701894 -0.060155354 0.06972603
-0.041126467 -0.03144041 0.0064022383 0.00022547324 -0.006154585 0.0041306787 0.050055902 -0.034241833
0.046066467 0.057275634 -0.002842555 -0.054993097 -0.01768378 0.046904072 -0.051815618 -0.045456856
0.010120924 0.054526 0.010370464 -0.030994829 -0.011662825 0.051805627 -0.023848196 -0.07191541
-0.07600575 -0.010251708 0.00253456 -0.053673547 0.01807839 -0.059847962 0.069686264 0.029802186
0.0142062185 -0.02272663 -0.07572701 -0.06637842 -0.042886276 -0.009636521 -0.03465586 0.067317344
0.04219229 -0.03848988 -0.02005345 -0.041137207 0.039509196 -0.02965758 -0.06814144 0.028081862
0.009862626 0.00968282 0.027142374 0.0688566 0.012571716 -0.016593851 0.069142 -0.01196634
-0.05222169 -0.035086546 -0.039865088 0.06443478 0.038465753 -0.014573401 0.05134146 0.021189714
-0.07131675 0.07483549 0.055982154 -0.018478425 -0.06377972 0.051155597 0.04429245 -0.048996992

weight f4 [1, 1664]
00000000: 3c8f fcbb a720 9d3c 4b6d 9bbc d898 41bc
00000010: ddb3 563b 5ad3 eebb 0e46 b23c 583d 4ebc
00000020: 87f8 fdb9 4097 e93c 9ca4 95bc e200 5dbb
00000030: 70ba cabb 2fa5 c53a 6fe7 da3c a120 17ba
00000040: 0a48 47bb 039b c8bb f0ca c43c e283 86b9
00000050: af9d aaba e1cf 6dbc 52db ca3b ecc2 da3b
00000060: df6c 43bc c082 4f3c 455e a2bc 8d6b bcbb
00000070: 8868 d3bc 4321 88bc cb52 933c 763a 813c
00000080: f122 88bb 01bf e8ba 9bfb 843c 7935 473b
00000090: 0361 11bc 6a49 9b3c e446 553c 09a5 013b
000000a0: fbc5 4cbc 53dc 983c a04a 0abc 49db c13c
000000b0: ff1d da3b b40b 8fbc 5104 c0bb e8b3 85bc
000000c0: fecc d23a 47d7 643a 815f bf3b 7371 563c
000000d0: a901 bebc 56d8 d13a 2a8e 663c 8ce7 cbbb
000000e0: 1cd1 93bc b3f6 94bc 3b0f 503c e7d4 7c3c
000000f0: 878b d73b e8d6 3fbc 9c80 253c 9c63 a73c
00000100: 340b db3b 8ba2 623c 416a 703c 5c44 34bc
00000110: a0ea b4bb ad98 373c 300a 93bc 5608 6d3b
00000120: 4627 c53b 497c 9d3c e042 adbc 6869 bbbb
00000130: b261 00bc 5b38 293c 17d9 dbb9 c73b 9fbc
00000140: 8b29 b23a b3d4 073c ada5 b0bb 982a 81bc
00000150: 2a96 983c f76d b83c bfb4 4abc b904 39bc
00000160: 964d 71b8 f779 993b 5bc7 633c 36f3 dabc
00000170: 0e0a 863b 9219 16bc 330e 74bc ffc0 543c
00000180: 3fad 4c3c f385 023c 7c72 eebb 64c2 2a3c
00000190: bbbc 0bbc da22 873c 3f6f 80bc cb69 0abc
000001a0: 4e4f 2e3c 516e 4abc 5f40 7fbc a361 423b
000001b0: cca8 4a3c 1bd2 9cbc 3f80 893c 1ad7 8fbc
000001c0: 6f7d 973c 88a8 793c 9025 5dbc 0127 8fbc
000001d0: 6995 233a a26e 39bc 2287 95bc f86e 2f3a
000001e0: 7590 abbc 1d5d b33c 4ceb 93bc 0c62 46bc
000001f0: cd18 0e3c 26dd 763b 1d4b 2cbc 0224 143c
00000200: 7015 333c def8 093b bebc b6bc 2985 683b
00000210: 96fe 953a cdca 623c 7b52 7abc 96c4 70bc
00000220: 6ab7 c3bc 9264 933b 76b2 973b 9518 54bc
00000230: a7f0 af3c fac9 59bb 8952 a53c 4531 d7ba
00000240: 1cf0 9bbb d13e 673c 8b23 04bc 7331 7c3c
00000250: fcd8 8b3b 5577 e13b 5349 a0bb b145 22bc
00000260: 8ec3 983c 518d 69bc e061 57bc 6ff1 b23c
00000270: 0a97 c63b 4f38 6abc 553a 933b bea9 bc3c
00000280: b7cc 67bb 95f7 793a 8c09 953c 5047 4ebc
00000290: 5ece c83a 6dea aebb 0c01 373c 4dd0 55bb
000002a0: b4d7 0bbc 27b8 4d3c c479 383c 7347 13bc
000002b0: d855 f8ba 4605 873c abf3 9bbc 3f66 07bc
000002c0: 1771 a0bc 0af6 8c3c 7856 babc 1cdd 9c3b
000002d0: 1d1d 903b beaa 0e3c 703f 423c cc1f 7eba
000002e0: ffd3 01bc 53d0 543c 644b 86bb 41c2 8fbc
000002f0: 435b a33c 1784 d73b bea7 82bc 5f77 aebc
00000300: ced2 a93c 3380 8ebc 9030 cc3b ed33 2ebc
00000310: 112a 383c d933 8f3c b50c 5d3c 44ba ddbc
00000320: b44f 18bc c6a2 763c d286 a839 0905 4e3b
00000330: 823e c2bc 104f 21bc 79d0 823c 899b 96bc
00000340: 5c33 aa3c b02e 83bb 0259 4cbc ed43 ba3c
00000350: 5ded 63bc 4d0c fcba ffb0 83bc 0255 d63c
00000360: 30ea 5d3c b553 32bc 6bbd 72bc b17f 82bc
00000370: 3623 a33a 9707 3abb 20f3 cd3b ac03 2a3c
00000380: 6f12 5bbc 2111 72bb 11d7 60bc 6877 d33b
00000390: 032c f5ba 89f0 963c f7ae 83bc 526d 6cbc
000003a0: c8c6 21bc 3c88 9dbc 93b0 ccbc 38a8 563c
000003b0: 4952 0a3c 3931 823c aa71 09bc 8502 5fbc
000003c0: caa7 783c cea0 e0bb b431 ac3b e183 a63a
000003d0: 3b8b 67bc d3fe 86bc 8bb7 33bc 3fca 80bc
000003e0: 7286 96bb cb23 013a ddd8 af3c 8bb1 893c
000003f0: f35a acbc 8e8e 1e3b 009e cbbb 988e b83c
-0.0077075046 0.019180609 -0.018973013 -0.011816226 0.0032761015 -0.0072883787 0.02176192 -0.012587868
-0.00048441088 0.028514504 -0.018266968 -0.003372245 -0.006186776 0.0015079136 0.026721684 -0.0005765055
-0.003040793 -0.0061219945 0.02402255 -0.00025656732 -0.0013016964 -0.014514894 0.006190696 0.0066760685
-0.011927812 0.012665451 -0.019820342 -0.0057501257 -0.02580668 -0.016617423 0.017983815 0.015774947
-0.004154556 -0.0017757119 0.016233256 0.0030396862 -0.008873227 0.018955905 0.01301739 0.0019782207
-0.012498374 0.018659746 -0.008440644 0.023664134 0.006656408 -0.017461635 -0.0058598896 -0.016321138
0.0016082821 0.00087295886 0.0058402424 0.013088572 -0.023194151 0.0016009908 0.0140719805 -0.006222671
-0.018044047 -0.018184042 0.012698944 0.015431619 0.0065779123 -0.0117089525 0.010101464 0.02043324
0.006684685 0.013832699 0.01467377 -0.011002626 -0.0055211335 0.011205834 -0.017949194 0.0036168299
0.0060166446 0.019224303 -0.021150053 -0.0057193525 -0.007835792 0.010328378 -0.0004193268 -0.019437684
0.0013592703 0.008290458 -0.005390844 -0.01576738 0.018626291 0.022513373 -0.012372195 -0.01129263
-5.7531135e-05 0.004683729 0.0139025105 -0.0267273 0.004090554 -0.00916137 -0.0148959635 0.012985467
0.012492477 0.007966506 -0.007276831 0.010422323 -0.008528884 0.01649611 -0.015678046 -0.008448075
0.010639025 -0.012355403 -0.015579312 0.0029660247 0.012369346 -0.019143155 0.016784785 -0.017558623
0.018492429 0.015237935 -0.013497725 -0.017474653 0.00062402204 -0.011317881 -0.018252913 0.0006692256
-0.020942906 0.021894986 -0.018056534 -0.012108337 0.008672905 0.0037668436 -0.010515955 0.009041788
0.010930404 0.0021052877 -0.022306796 0.003547976 0.001144367 0.013842297 -0.015278454 -0.014695307
-0.02389117 0.004498073 0.0046294285 -0.012945314 0.021477057 -0.003323196 0.020180957 -0.0016417882
-0.004758848 0.014114098 -0.008065115 0.015392649 0.00426781 0.0068806806 -0.0048915534 -0.009904311
0.018647935 -0.014254884 -0.013145894 0.02184364 0.0060604857 -0.014295652 0.0044930377 0.023030158
-0.0035369822 0.0009535489 0.018193029 -0.012590244 0.0015320291 -0.0053380043 0.011169683 -0.0032625378
-0.008535314 0.012556112 0.0112595 -0.008989203 -0.0018946482 0.016482007 -0.019037088 -0.008264123
-0.019585175 0.017207164 -0.02274631 0.0047871005 0.004398002 0.0087077 0.011855945 -0.0009694069
-0.007924079 0.0129891215 -0.0040983427 -0.017548682 0.019940978 0.0065770256 -0.015949126 -0.021297155
0.020730402 -0.017395115 0.006231375 -0.010632497 0.011240498 0.017480778 0.013491799 -0.027066357
-0.009296346 0.015053457 0.00032143906 0.0031436107 -0.023711447 -0.00984551 0.015968548 -0.018384712
0.020776443 -0.0040033683 -0.012472393 0.022737468 -0.013911572 -0.001922974 -0.01607561 0.026163582
0.013544604 -0.010884215 -0.014815669 -0.015930029 0.0012446407 -0.0028385872 0.0062850863 0.010376852
-0.013371094 -0.003693648 -0.013723151 0.0064534433 -0.0018705133 0.018425243 -0.01607464 -0.014430361
-0.009874053 -0.01923 -0.02498654 0.01310163 0.00844247 0.015892612 -0.008388916 -0.013611441
0.015176723 -0.006855107 0.0052549485 0.0012704098 -0.014132316 -0.016478932 -0.010969053 -0.015721438
-0.004593664 0.0004926293 0.021465713 0.016808292 -0.021039462 0.0024193856 -0.0062139034 0.022528931

weight f4 [1664]
00000000: 10f8 7d3f 600f 803f 9c38 7e3f 055c 7e3f
00000010: 58b3 7c3f 4fa6 7e3f c42a 803f 8145 7e3f
00000020: 1d3b 7d3f 1078 803f f297 7e3f 1171 7d3f
00000030: 1839 7f3f 5d3c 783f 7499 803f d8e9 7d3f
00000040: f940 7e3f cc82 7e3f 9b32 803f 2196 7d3f
00000050: e1dd 7d3f da26 7e3f bc48 7c3f e934 7c3f
00000060: 176c 7d3f 52ae 7e3f f42d 803f cf7d 7f3f
00000070: 703d 803f c25f 803f 3896 7e3f b28e 7e3f
00000080: 5098 7d3f 0d36 7a3f 8f46 7e3f deb0 7c3f
00000090: 6504 803f 7f8c 7e3f f2fc 7e3f c46e 7b3f
000000a0: 8498 7f3f dde4 7f3f 009b 7e3f b12e 803f
000000b0: cb3d 7f3f b3de 7e3f 9875 7e3f 0fbb 7e3f
000000c0: 6fb5 793f 1193 7a3f dbfe 7e3f bfe3 7f3f
000000d0: 12b6 7f3f f98d 7c3f 3709 7f3f 3b50 7f3f
000000e0: 590f 803f 8210 803f a6f8 7e3f ae0e 7f3f
000000f0: 8a8a 7e3f 80ec 7f3f e5d5 7e3f f622 7f3f
00000100: a05e 7e3f 2d36 803f 8f9f 7e3f 8371 803f
00000110: 1824 7f3f 02bb 7e3f df24 803f 6dcc 7d3f
00000120: 2567 7e3f 4715 7f3f 5dc1 7f3f d2e3 7e3f
00000130: e222 7f3f 133a 7f3f 23bf 7d3f 926e 7f3f
00000140: 0667 7b3f aa6c 7f3f 7f8a 7e3f e234 7f3f
00000150: 5c6d 7f3f e74a 7f3f 48ff 7f3f b468 7f3f
00000160: 1a65 7b3f 428e 7e3f 547c 7e3f d68a 803f
00000170: f98d 7d3f 616d 803f f9f7 7f3f 42d5 7e3f
00000180: 4fc8 7e3f 6ca7 7e3f 2082 7f3f efeb 7e3f
00000190: 2699 7f3f f45d 7f3f 55ec 7f3f b908 7f3f
000001a0: 345f 7e3f e6bf 7f3f 07be 7f3f afce 7d3f
000001b0: 5813 7f3f 6900 803f fb47 7f3f d5ac 7f3f
000001c0: fa83 7f3f db0c 7f3f be44 7f3f 017d 7f3f
000001d0: a7c4 783f fb21 7f3f 53bc 7e3f 60cf 7c3f
000001e0: a4dd 7f3f 10da 7f3f 395c 7f3f 01b0 7f3f
000001f0: d6b8 7f3f c45b 7d3f 7f5f 7f3f 4c1f 7f3f
00000200: 33d1 7f3f 584b 7d3f c90b 803f 10e0 7d3f
00000210: 4efe 7b3f d8ff 7e3f 5603 803f b602 803f
00000220: eb1c 803f 082f 7e3f 9c37 7e3f 1e04 803f
00000230: fd1c 7f3f c609 7e3f 7da9 7f3f 5547 7b3f
00000240: 0567 7f3f e5c3 7e3f 61d7 7f3f baa7 7f3f
00000250: 62ae 7e3f 65d9 7e3f cbc5 7e3f 6d25 7f3f
00000260: 2337 7f3f ffb7 7f3f debc 7f3f 4b3a 7f3f
00000270: fd9e 7e3f b770 7e3f eb39 7f3f 9617 803f
00000280: ab4a 7e3f 4b53 7c3f c12b 803f 2a2e 7e3f
00000290: 1344 7d3f d8f3 7d3f 49e3 803f 9ab7 7d3f
000002a0: 1f53 7e3f 73e8 7d3f 5e45 7d3f 0a7d 803f
000002b0: 1454 7a3f 07a7 7e3f e507 803f ced4 7e3f
000002c0: ed3a 803f 9ab3 7e3f 0569 803f 9054 7e3f
000002d0: 2e33 7e3f f464 7d3f 6322 7f3f acd0 773f
000002e0: 9a78 7e3f 190a 803f c337 7d3f 8aa0 7e3f
000002f0: e82c 803f 114b 7f3f 7295 7e3f ac1b 7f3f
00000300: f629 803f 91c0 7e3f a317 7f3f 6169 7f3f
00000310: b80b 7f3f 4c16 7f3f a4b3 7e3f 333d 803f
00000320: 9bda 7f3f f212 7f3f 9a2b 7a3f 25a8 7b3f
00000330: cfc3 7f3f 3b31 7f3f 06ce 7f3f cd99 7f3f
00000340: 0118 803f a874 7e3f bc48 7e3f 6c77 803f
00000350: aa79 7e3f ab15 7e3f 5e5d 7e3f 8aa6 803f
00000360: 1150 803f 7455 7e3f 4061 7e3f 9e43 7e3f
00000370: 15b1 7c3f 23dc 7e3f c797 7e3f cf61 803f
00000380: 8ec6 7e3f f455 7e3f a2ce 7e3f 44ac 7e3f
00000390: 7313 7e3f 2232 803f 2521 7e3f d54c 7e3f
000003a0: 032f 7e3f c828 7f3f a43b 803f 5b84 7e3f
000003b0: c438 803f 1d2a 803f bb5b 7d3f c3e9 7d3f
000003c0: 4f72 803f 85fa 7c3f ee57 7e3f f453 7c3f
000003d0: 39a3 7e3f 3e6c 7e3f 06ab 7e3f 5668 7e3f
000003e0: 8b1b 7e3f fa64 7e3f 991f 803f ecf6 7f3f
000003f0: d078 7f3f 5a8d 7d3f ffce 7e3f 4ae6 7f3f
0.9920664 1.0004692 0.9930513 0.9935916 0.98711157 0.99472517 1.0013051 0.99324805
0.98918325 1.003664 0.994506 0.9900065 0.99696493 0.9696711 1.004683 0.9918494
0.9931789 0.9941833 1.0015444 0.99057204 0.99166685 0.9927803 0.98548484 0.98518234
0.98993057 0.9948474 1.0014024 0.99801344 1.0018749 1.0029223 0.99447966 0.99436486
0.99060535 0.97738725 0.99326414 0.9870738 1.0001341 0.9943313 0.99604714 0.9821589
0.99842095 0.9995859 0.9945526 1.0014249 0.99703664 0.9955856 0.99398184 0.9950418
0.9754247 0.97880656 0.9960763 0.9995689 0.9988719 0.98654133 0.99623436 0.99731797
1.0004684 1.0005038 0.9959816 0.99631774 0.99430144 0.99970245 0.9954513 0.9966272
0.99363136 1.0016533 0.9946222 1.0034641 0.9966445 0.995041 1.0011252 0.99140054
0.99376136 0.9964184 0.99904424 0.99566376 0.996626 0.9969799 0.99119776 0.9977809
0.98204076 0.99775183 0.9943008 0.9969007 0.99776244 0.99723667 0.99998903 0.9976914
0.98201144 0.9943582 0.9940846 1.0042369 0.9904476 1.003338 0.9998775 0.99544156
0.99524397 0.99474216 0.9980793 0.99578756 0.9984306 0.99752736 0.9996999 0.99622685
0.9936402 0.9990219 0.99899334 0.991435 0.9963889 1.0000125 0.9971921 0.99873096
0.99810755 0.9962899 0.9971427 0.99800116 0.9717507 0.99661225 0.9950611 0.9875393
0.9994757 0.9994211 0.99750096 0.99877936 0.9989141 0.9896815 0.9975509 0.9965713
0.9992859 0.9894309 1.0003597 0.9917002 0.98434913 0.99609137 1.0001018 1.0000827
1.0008825 0.99290514 0.99303603 1.0001256 0.9965361 0.99233663 0.99867994 0.9815572
0.9976657 0.9951766 0.9993802 0.99865305 0.9948484 0.9955047 0.9952056 0.9966648
0.99693507 0.9989013 0.99897563 0.99698323 0.99461347 0.9939074 0.9969775 1.0007198
0.99332684 0.98564595 1.0013353 0.9928919 0.98932 0.992002 1.0069362 0.9910828
0.9934558 0.99182814 0.9893397 1.0038159 0.97784543 0.99473614 1.0002409 0.99543464
1.0017983 0.994928 1.003205 0.9934778 0.99296844 0.9898217 0.99661845 0.96802783
0.99402773 1.0003082 0.9891321 0.99463713 1.0013704 0.9972392 0.99446785 0.996516
1.0012805 0.99512583 0.9964544 0.9977017 0.99627256 0.996434 0.9949286 1.0018677
0.9994294 0.99638283 0.9772278 0.98303443 0.99908155 0.99684495 0.9992374 0.99844056
1.0007325 0.99396753 0.99329734 1.0036445 0.99404395 0.9925181 0.9936122 1.0050824
1.0024434 0.9934914 0.9936714 0.99321926 0.98707706 0.9955465 0.99450344 1.0029849
0.9952172 0.99349904 0.99534047 0.99481606 0.9924843 1.0015299 0.99269325 0.99335986
0.99290484 0.996716 1.0018201 0.9942071 1.0017323 1.0012852 0.98968095 0.9918482
1.0034884 0.9881976 0.9935292 0.985656 0.9946781 0.99383914 0.9947971 0.99377954
0.9926078 0.9937283 1.0009643 0.9998615 0.9979372 0.9904381 0.995346 0.9996077

bias f4 [1664]
00000000: da91 1dbb 2579 0c3b 1fc8 e5ba 7c67 c3ba
00000010: 2125 cd3b e389 15ba f6e0 223b 9541 a8ba
00000020: a837 0139 87d8 113b 8d30 d5ba f470 8fba
00000030: 6054 003b ab29 403c a9a5 e03a 9c9b 50ba
00000040: 2848 80ba b43d aaba 6ac8 0a3b ea29 91b9
00000050: fa05 0eba 1a6a caba 2ab1 67ba b3fa 8aba
00000060: d044 b2ba 9910 7d3b ed1a f9b9 579d 583b
00000070: 8dd8 50ba 5b08 2fb9 6920 5e3b 9040 6a3b
00000080: e574 343c e712 983c 6c72 603b 9e99 d93b
00000090: ab12 853a 88c3 573b c1ee 7a3b 95d7 01bc
000000a0: ead9 66bb ba38 853a 1969 68bb 0d59 9a3a
000000b0: 8894 c4ba bee6 31bb dba5 74bb d24f 37bb
000000c0: 2ee9 88bc ee59 81bc f3e0 eeba c620 933a
000000d0: 565d 49ba 6898 673c 424e 7a3b e22b 3a3b
000000e0: dfb9 b2b9 4938 b8b9 cc1a 833b 671d 6f3b
000000f0: 0c46 bb3b 9452 173a 4bbf 923b 3ef3 533b
00000100: 8297 a23b cdf4 713b 683c 243b ae54 90b9
00000110: 44a6 033b 2143 713b 2484 28ba 466a d43b
00000120: 7e5c c43b a540 433b e634 90ba 6bea 223a
00000130: f28f 95b8 d4e2 6e3b 3c67 afba 0224 04bb
00000140: b1c1 68bb 4de1 c63a 47ca 0abb 348e 07bb
00000150: 64cb dd3a a49d f13a e62c 0abb c89d 08bb
00000160: 2c60 ae3a 9020 223b 6371 683b ddce 74ba
00000170: c7f0 ca3b 6faa 0e3b 6213 46ba 4db0 503b
00000180: d4b8 483b 38c0 5d3b aa6a 7739 5962 373b
00000190: 1e27 70ba c15a 113b 5a4b e4ba 10f1 02ba
000001a0: c373 743b c245 c038 74bd a0b9 c0d5 143c
000001b0: 0564 853b aff0 f6b9 e5e1 683b d0a1 16ba
000001c0: 9ad9 5e3b 718f 703b 2ca2 e1b9 065e 2dba
000001d0: cfb6 ef3c 2ab5 a039 5ec2 65ba 9002 0f3c
000001e0: e012 5aba bd8e 503b b1d5 35ba b0c8 b6b9
000001f0: d620 c53b bf90 1a3c f407 4139 8784 9e3b
00000200: 4962 9c3b 7adb a33b 83dd 32ba 73f9 113c
00000210: b3b1 863c f0f7 7a3b 9366 83b8 2c62 ae37
00000220: 9c8d 41ba c0ba e83b 941b e33b 2bcb c139
00000230: f4d1 4f3b 28a4 003c 8506 503b 348f 493c
00000240: 7ffb 68bb 06c2 263b 29b2 3bba 1a4b 153b
00000250: f61b 553b a5b5 2d3b fb4d 34ba 1b42 bdba
00000260: 31e7 083b 2f97 d5ba 7299 d9ba eb48 503b
00000270: 0807 b23b a8ba 01bb 2b65 063b 99d6 033b
00000280: a7c8 e2ba 0d3c acba a2f8 f53a 82a1 03bb
00000290: e147 34bb 7208 03bb 1381 1a3b 7dc7 fdba
000002a0: 7fb4 edba 8f36 773b 258e 603b 20d3 443b
000002b0: d654 b73c 2f42 5c3b d442 03ba 4423 bd3a
000002c0: dce7 07ba 934c 423b f313 33ba ee56 8b3b
000002d0: 9016 873b dcd0 1e3b 51bb 96b9 2eaf b2bc
000002e0: 3d95 b9bb d4b3 ae38 bc84 dabb 5679 56bb
000002f0: 12d5 1f3a 6c05 07bb 1b34 67bb e610 52bb
00000300: a30b 323a 81cb 62bb 477f 30ba 0f46 cd38
00000310: 5490 803b 6b45 333b 59c2 593b 65de a0ba
00000320: ee34 7438 300a 563b de54 9c3c b055 4a3c
00000330: 2e74 96ba 4042 9db9 dac6 653b ae97 2aba
00000340: 3659 703a ce82 99bb a757 48bb b196 673a
00000350: 948b 47bb f213 a6bb 2311 3cbb 0a5b 793a
00000360: bdbc c0b9 e0e1 56bb ed55 44bb 6748 40bb
00000370: 0ce8 06bc 5823 22bb 89f0 18bb e474 beb9
00000380: 1eae 43bb 86af 97bb 1a51 43bb 512c 3abb
00000390: f164 9bbb 1424 383a ab27 36bb 0f60 3dbb
000003a0: 4676 53bb 6fb4 1abb 55da 51ba a9b9 0d3b
000003b0: 7ace 263b ccbc 293b bd27 80ba 1cdd b8ba
000003c0: 8d55 2c3b 2036 62ba 6cd5 283b 3dec 7c3a
000003d0: d590 92ba 4a3e a9ba 72dc 19bb 2e2c edba
000003e0: a81c 56bb e79a fa39 b582 f43a 68e5 063b
000003f0: ddd1 f0ba 7699 f63a 2920 03bb 247b eb3a
-0.0024043233 0.0021434512 -0.0017530954 -0.001490816 0.0062605296 -0.00057044456 0.0024853325 -0.0012836928
0.00012323132 0.0022254304 -0.001626508 -0.0010943697 0.0019581541 0.011728684 0.0017139214 -0.0007957758
-0.0009787129 -0.001298836 0.0021176585 -0.00027687784 -0.00054177607 -0.0015442998 -0.000883835 -0.0010603279
-0.001360083 0.003861463 -0.00047513042 0.0033052766 -0.0007966839 -0.00016692413 0.003389383 0.0035744049
0.011014198 0.0185637 0.0034247888 0.006640627 0.0010152658 0.0032922942 0.003828928 -0.007924934
-0.0035225102 0.0010164 -0.0035463034 0.0011775807 -0.0014997879 -0.002714559 -0.0037330303 -0.002797116
-0.016712751 -0.015789952 -0.0018224999 0.0011224977 -0.00076814496 0.014135458 0.0038193618 0.0028407504
-0.0003408929 -0.0003513715 0.004000997 0.003648603 0.0057151373 0.0005772498 0.0044783703 0.0032341029
0.004961909 0.0036919594 0.002506042 -0.00027528912 0.0020088116 0.0036813694 -0.0006428382 0.0064823953
0.0059924712 0.002979317 -0.0011002093 0.00062147406 -7.1316856e-05 0.0036451118 -0.0013382207 -0.0020163064
-0.003551584 0.0015173346 -0.0021177696 -0.0020684125 0.0016921577 0.0018433821 -0.002108389 -0.0020845998
0.0013303808 0.0024738647 0.0035467974 -0.00093386864 0.0061932537 0.0021769067 -0.0007555989 0.0031843365
0.0030627744 0.0033836495 0.00023595491 0.0027982204 -0.00091611024 0.0022179338 -0.0017417476 -0.00049950276
0.0037300445 9.168267e-05 -0.00030658732 0.009084165 0.004070761 -0.000471001 0.0035535034 -0.0005746158
0.0034004212 0.0036706591 -0.00043036172 -0.0006613437 0.029261975 0.00030652556 -0.00087646197 0.008728638
-0.00083188526 0.003182336 -0.00069364446 -0.0003486327 0.0060158772 0.009433924 0.00018408877 0.004837576
0.0047724587 0.005000529 -0.0006823169 0.008909571 0.016442155 0.0038294755 -6.265673e-05 2.0788131e-05
-0.0007383467 0.0071023405 0.006930778 0.000369632 0.0031710835 0.007851638 0.0031742167 0.012302209
-0.0035550294 0.0025445237 -0.0007160032 0.002278036 0.0032517887 0.0026505974 -0.0006878075 -0.0014439257
0.0020889754 -0.0016295667 -0.0016601516 0.0031781744 0.005432967 -0.0019795094 0.0020507078 0.0020116924
-0.0017302231 -0.0013140455 0.0018766115 -0.002008528 -0.0027508663 -0.0019994047 0.002357547 -0.001936182
-0.0018135457 0.0037721728 0.0034264412 0.0030033067 0.02237932 0.0033608784 -0.00050072116 0.0014430066
-0.0005184391 0.0029647693 -0.0006831281 0.004252306 0.0041225627 0.0024233377 -0.0002874979 -0.021812048
-0.0056635425 8.330462e-05 -0.006668655 -0.003272613 0.00060971186 -0.0020602597 -0.003527886 -0.003205353
0.0006791895 -0.003460616 -0.0006732833 9.788211e-05 0.0039234553 0.0027354609 0.0033227412 -0.001227331
5.8223428e-05 0.003265988 0.019083437 0.012349531 -0.0011478716 -0.00029994734 0.0035061152 -0.00065075874
0.0009168567 -0.0046847826 -0.0030569823 0.00088344055 -0.0030448185 -0.0050682956 -0.0028696738 0.0009512162
-0.00036761715 -0.003278844 -0.0029958442 -0.002934003 -0.008234035 -0.0024740305 -0.002333673 -0.00036326714
-0.002985842 -0.0046290783 -0.002980298 -0.0028407762 -0.0047422578 0.0007024419 -0.002779464 -0.0028896367
-0.0032266541 -0.0023606082 -0.00080052513 0.0021625555 0.002545266 0.0025899885 -0.0009777468 -0.0014103982
0.002629611 -0.0008629281 0.0025761975 0.00096482394 -0.0011182079 -0.001291224 -0.0023477343 -0.0018094832
-0.003267089 0.00047799127 0.0018654676 0.0020583514 -0.0018373091 0.0018814045 -0.0020008183 0.0017965776
