Single Battery Model/4. CNN Models/model_B0007_combined_mm.pth (torch, 129024 bytes, 7 tensors)

weight f4 [64, 6, 3]
000000 9f 67 3b be 07 58 9e 3d a0 5d c0 bd ec e7 66 3e
       -0.18301247 0.07731634 -0.093928576 0.22549409
000010 62 8d 27 3e 23 c8 c4 bc d2 c2 da bd ec f4 05 3e
       0.16362527 -0.024021214 -0.1068169 0.13081712
000020 96 23 5d 3d 11 a3 4c be ff bb 27 bc 75 b1 f0 3d
       0.053989016 -0.1998408 -0.010237693 0.11752597
000030 55 5b 31 be ab 45 5e 3e b5 1f 14 be 20 2c c1 3c
       -0.17319997 0.21706264 -0.1446522 0.02358061
000040 09 bd 66 3e 1e 70 1b be ea e2 13 3e d5 79 8e bd
       0.22533049 -0.15179488 0.1444203 -0.06956831
000050 0c 42 9c 3d 67 d5 d7 3c 89 f9 0f bc bc 17 98 3c
       0.07629785 0.026346875 -0.008787521 0.018566005
000060 a5 3f 38 bd ae b5 bb bc 78 c5 27 3e cd 9a af bd
       -0.04498257 -0.02291378 0.16383922 -0.08574448
000070 83 d0 9c bd 2a 90 ec 3d 93 24 12 be 4e f2 52 be
       -0.07656958 0.115509346 -0.14271764 -0.20600244
000080 bb 1a 5d be 1a ed 27 bd 80 9a 6e be c0 c4 52 3c
       -0.21592228 -0.040997602 -0.23301125 0.012864292
000090 f6 f6 10 3d 30 75 af 3b 9c f9 6b be d8 8e eb 3d
       0.03539177 0.005354546 -0.23044437 0.11501855
0000a0 0c b8 24 be 62 d4 f8 bd c1 b6 3c be dc 9e 28 3b
       -0.16085833 -0.12149884 -0.1842909 0.0025729453
0000b0 e2 9e 42 3e 66 7e c7 3c dd 80 4d 3e 9f cc 5a 3e
       0.19005921 0.024352264 0.20068689 0.21367119
0000c0 9d 11 ec bd b1 64 6c 3d f4 13 4a 3e a3 1e f5 3c
       -0.11526797 0.057713214 0.19734174 0.029921835
0000d0 be 99 74 3d 00 6d 37 bd fe ea b4 bd de f2 ed bd
       0.059716932 -0.044781685 -0.08833884 -0.11618589
0000e0 75 9f 05 3e d8 45 b2 bd ad 0b 59 3e a7 bf 24 bd
       0.1304911 -0.08704728 0.2119586 -0.040221836
0000f0 a2 fc e6 3a 34 78 49 3e bf d0 15 3e de 78 58 3e
       0.0017622898 0.1967476 0.14630412 0.21139857
000100 b8 25 13 be d2 b5 69 be 90 8c 4c be 16 e7 42 be
       -0.14369857 -0.22823265 -0.19975495 -0.19033465
000110 42 80 96 bd 20 50 0a bd e5 47 4d bd 2c 34 4d 3e
       -0.07348682 -0.03376782 -0.050117392 0.20039433
000120 9d 15 59 be 2e 0f 7c bd 13 1c 7a bd 51 b2 30 be
       -0.21199651 -0.061537914 -0.06106193 -0.17255522
000130 d5 4a 16 3e c7 ef 26 3e 7a 75 09 3e 08 3f 40 bd
       0.14676984 0.16302405 0.1342372 -0.04693511
000140 32 48 0d bd 9f df 03 3e 63 d0 86 bc e8 c0 3e be
       -0.03449268 0.12878273 -0.016456788 -0.18628275
000150 cf 2e 6f be d3 ca 29 3d 92 f0 d2 bd 0b 49 71 3e
       -0.233577 0.041453194 -0.102997914 0.2356302
000160 53 68 2d be c8 80 ad bd 28 dc 18 3e 40 db 84 3c
       -0.16934328 -0.08471829 0.14927733 0.016217828
000170 c8 74 df 3d 29 c2 25 3c e0 3c 93 bd cb e3 3e be
       0.10910946 0.010117092 -0.07189345 -0.18641584
000180 d0 dc 73 bd 7f 28 5e be ec 98 2d 3d f4 2f 58 be
       -0.059536755 -0.21695136 0.042382166 -0.21112043
000190 ee 41 f0 bd 7d 86 2e 3e a9 7f 1d 3e 22 a4 ec bc
       -0.11731325 0.1704349 0.1538073 -0.028886858
0001a0 fb f7 e7 bd 80 94 22 bd 6a 01 60 3e 48 f0 c2 bd
       -0.113265954 -0.039692402 0.2187554 -0.09518486
0001b0 b4 dd 6e 3e 62 ac 2e bc 7b 6a 96 3d 7d ae 90 3d
       0.2332676 -0.010661216 0.07344528 0.07064531
0001c0 14 34 3e 3e 23 95 f8 bd 84 b7 14 3e 96 2b 25 3e
       0.18574554 -0.121378206 0.1452313 0.16129908
0001d0 81 e9 07 be e6 bc 41 3e c1 ea 41 bb cc 61 67 bb
       -0.13272668 0.18919715 -0.0029589387 -0.0035306094
0001e0 c0 26 5d 3e 9c 29 28 3c e6 0e 0b 3e e0 44 08 3e
       0.21596813 0.010263827 0.13579902 0.13307524
0001f0 bf e8 38 be 81 59 a0 bd bd 3c c1 3d d3 46 9c bd
       -0.18057536 -0.078295715 0.09435413 -0.07630696
000200 57 21 1a 3e 41 25 17 bd e5 28 31 3e 59 52 26 be
       0.1505178 -0.036900762 0.17300756 -0.1624235
000210 35 71 4f 3c fc 80 3e bd 49 12 b8 3c d1 61 f4 3d
       0.012661268 -0.046509728 0.022469657 0.119327195
000220 73 4d 13 3e 05 3d 9b 3c 8d 29 01 be be 59 53 3e
       0.14385013 0.018949995 -0.12613507 0.20639703
000230 3a cb 10 be 0e e4 a1 3d 2e 1e 22 be 58 76 c2 3d
       -0.14140025 0.07904826 -0.15831825 0.094952285
000240 58 a5 f7 bd 80 d2 bb 3d 8b cc 80 bd 9e 58 52 be
       -0.12092084 0.09171009 -0.062890135 -0.20541617
000250 f0 cb 04 bd 93 64 1a 3e 66 4f 16 3e 24 d8 b8 bd
       -0.032421052 0.15077429 0.14678726 -0.090256006
000260 49 a2 33 bd b5 a4 ec bd 96 06 08 3d 6c b0 76 bd
       -0.04385594 -0.11554853 0.033209406 -0.060226843
000270 95 95 9d bd 8e 50 15 be db cb 5d be 74 4e 35 be
       -0.07694546 -0.1458151 -0.21659796 -0.17705709
000280 ea 3e 25 3e 30 ca 8a bd 45 4c 31 3e dd 04 b3 bd
       0.16137281 -0.067768455 0.17314251 -0.08741162
000290 a7 3b f2 bc 60 88 94 3d e7 16 44 3c 0d b6 54 3e
       -0.02956946 0.07252574 0.011968351 0.20772572
0002a0 62 34 67 3e 21 f9 03 3e 3f 1e 0d 3e cb a9 42 3e
       0.22578576 0.12888004 0.13781069 0.19010083
0002b0 d0 68 ff 3d 3c 75 b5 3d 87 35 b1 bc 9b 7f 13 be
       0.12471163 0.08860251 -0.02163197 -0.14404146
0002c0 51 9a 3a be 28 64 47 be ab 74 0a be e4 4a a3 3d
       -0.1822293 -0.194718 -0.13521068 0.07973269
0002d0 e7 3a 7c bd 71 4c 29 be fa 3d ac 3d e6 a1 2d bd
       -0.06157961 -0.16533066 0.084102586 -0.042390727
0002e0 58 05 29 3e ba d4 4a 3e 39 e6 68 bc a9 98 be bd
       0.16505945 0.19807711 -0.014215046 -0.09306461
0002f0 16 03 56 be 0b 09 0a bd b6 a2 ab bd 36 88 32 3e
       -0.20899615 -0.03370003 -0.08380644 0.17434773
000300 72 55 60 3e 25 45 38 be a1 11 00 3d 37 20 80 be
       0.21907595 -0.17995127 0.031266812 -0.25024578
000310 a6 59 c5 3d e1 2c 7c be 0d 72 d2 3d 3c dd 50 3e
       0.0963624 -0.24626495 0.1027566 0.20396894
000320 7b 65 10 bc fd 1f 43 be 07 66 65 3e 54 ae 16 3d
       -0.008813257 -0.19055171 0.22402202 0.036787346
000330 9a 0d 00 3e 15 27 2c be 34 1a 48 be 7b a1 d2 3d
       0.12505189 -0.16811784 -0.19541246 0.10284706
000340 c4 0b 44 be e6 6f 30 3e 3f bd 3b 3d bf a1 17 3e
       -0.19145113 0.17230186 0.045834776 0.14807795
000350 58 62 9d 3b 7a e3 88 bc 6e e5 6a be ca 2e 2d 3d
       0.0048029833 -0.016710032 -0.22939083 0.04228095
000360 16 e3 1a bd e6 e7 1e be 60 98 57 be 09 f3 5f bd
       -0.037814222 -0.1551815 -0.2105422 -0.054675136
000370 f8 c5 73 be bf 63 58 be 2c 76 df bc f0 37 52 3e
       -0.23805988 -0.211318 -0.027278028 0.20529151
000380 92 b4 46 bd aa 44 4f bd ab 71 19 be 7c 61 50 be
       -0.04851205 -0.050602593 -0.14984767 -0.20349687
000390 0e dd d8 3d 3a 0e aa 3d 63 fa 89 3c dc 72 6b 3b
       0.10589038 0.08303495 0.016843027 0.0035926616
0003a0 63 a0 55 3e 22 7a cf 3d d8 1f 59 3d fe 44 c5 bd
       0.20861964 0.10130717 0.053008884 -0.096323
0003b0 4b 2a 9d bc f2 b0 c4 3d 02 ad 95 3d d1 ae 04 be
       -0.019185206 0.09604062 0.07308389 -0.12957312
0003c0 97 5b 08 be 01 5c 2f 3d b7 99 57 3c 8e d5 1d be
       -0.13316189 0.04281235 0.013159207 -0.15413496
0003d0 4a eb 0c 3d ef 1e 88 3c 38 3a 06 3e be 3f 20 3c
       0.034404077 0.016616313 0.13108146 0.009780822
0003e0 e7 3a b5 bd e4 da 4c be 53 ba 11 be b4 08 2a be
       -0.08849125 -0.20005375 -0.14231233 -0.16604882
0003f0 ec cb ad bd bb e8 14 3e a8 97 f9 3d 80 cb 6d be
       -0.08486161 0.14541905 0.12187129 -0.2322216

bias f4 [64]
000000 ee 41 e1 3d 16 10 10 be 12 9b cf bd 18 de 35 bd
       0.10998903 -0.14068636 -0.10136999 -0.04440126
000010 e2 0c 4f be 9a a4 25 be 9f 90 58 bd d5 06 6b 3e
       -0.20219758 -0.16176072 -0.052872296 0.22951825
000020 d9 6c 0f 3e 18 8b ec bd ab f5 54 bc 37 6b 34 3d
       0.14006366 -0.115499675 -0.012998025 0.04404756
000030 ce 4c 06 3e fc 6b 8f bd 20 8b 40 3e 48 0a ed 3c
       0.13115236 -0.07003018 0.18803072 0.028935567
000040 69 29 6d 3d 59 e6 38 3e b7 30 59 be 6d 29 8e bd
       0.05790082 0.1805662 -0.2120999 -0.06941495
000050 9f 65 f8 3d 96 cb 36 be d8 36 a3 bc 04 76 9a 3d
       0.12128758 -0.178511 -0.019923612 0.07542041
000060 cf 10 b7 3d 08 87 43 3e b0 d0 25 be 17 c8 5a bd
       0.08938753 0.19094479 -0.16192889 -0.053413477
000070 41 37 32 be 78 3c 00 3e 38 05 38 3e 0e 87 da bd
       -0.1740389 0.12523067 0.17970741 -0.10670291
000080 4d 77 3b 3e 6e de 2a 3d 83 06 3b 3d a5 0e ea bd
       0.18307228 0.04171603 0.045660507 -0.114285745
000090 b4 fc 6e be 49 89 98 bd 89 00 17 3e 9b dc 51 3e
       -0.23338586 -0.0744806 0.14746298 0.2049431
0000a0 74 e8 3c 3e f3 6d 16 3e 35 dc a7 bd b1 43 61 3e
       0.18448049 0.1469038 -0.08196298 0.21998478
0000b0 38 d9 42 be 10 f1 5d bc 05 34 31 3e d5 f7 2b be
       -0.19028175 -0.013546243 0.17305 -0.16793759
0000c0 7b 89 58 be c6 aa 32 3e e3 8d b6 3d 01 8d 11 3e
       -0.21146195 0.17447957 0.089137815 0.14213945
0000d0 68 25 ac 3d 56 63 45 be c3 7a 5e be 12 f4 88 bd
       0.08405572 -0.19276175 -0.21726517 -0.06687178
0000e0 6b 45 35 be bd 5e 6e 3e 57 e6 65 be 3b d0 46 3e
       -0.17702262 0.23278327 -0.22451149 0.19415371
0000f0 af 71 2c be d9 55 00 3d b7 fa 45 be 65 54 f8 3d
       -0.16840242 0.03133187 -0.19333921 0.12125472

weight f4 [128, 64, 3]
000000 ff c4 08 3d fc ef 9a 3c 2d ee 28 3d 14 f5 34 3d
       0.033390995 0.018913262 0.041242767 0.044179037
000010 2d 2a 9b 3b e0 72 67 bc 53 71 89 bd 4f 1d 4a 3d
       0.0047352524 -0.014126509 -0.06711068 0.049344357
000020 76 f5 54 bd ad 9c 89 3d f0 db 0e bd 28 84 e9 3c
       -0.051991902 0.06719337 -0.034877717 0.0285054
000030 a2 20 68 3d 64 93 93 3d 26 f8 79 bd 2c 46 ac 3c
       0.056671746 0.07205847 -0.06102767 0.021029554
000040 23 03 3c bd 9b 25 c7 3c cc fc d4 3b 4f bb 2d bd
       -0.04590143 0.024309924 0.0064998623 -0.04241496
000050 3d df 1e bc 0a 22 95 bd 9b 46 05 bd e6 68 09 3c
       -0.009696779 -0.07281883 -0.032538038 0.008386826
000060 5a 36 39 3d 4b 85 88 bb 01 85 8c bc e9 90 8b 3d
       0.04521785 -0.0041662804 -0.017153265 0.06814749
000070 b8 1b 50 bd 2e c5 5c bd a7 4d 23 bd c3 bf 1e 3d
       -0.050807685 -0.053898983 -0.039868977 0.038757097
000080 d4 5d 8c 3d 26 ea 76 3d 2e c4 6a 3c d4 3a 02 3d
       0.06853834 0.060281895 0.014328999 0.031794384
000090 35 6b 48 bc bf 44 91 38 91 8b 1c bd 4a 91 9b 3d
       -0.012232591 6.926944e-05 -0.03821904 0.07596071
0000a0 a1 3c c5 3c c3 84 90 3d 81 1c 4d 3d 17 cd 0f 3d
       0.024076762 0.07056572 0.05007601 0.0351077
0000b0 5e 36 62 bd fa d0 d3 3c 70 89 2e bd 0c 89 76 bd
       -0.05522763 0.025856484 -0.04261154 -0.06018929
0000c0 02 1e 06 3d 73 f4 68 bd c2 ba 7f bd 7b 8b 00 3b
       0.03274346 -0.05687375 -0.062433966 0.0019614387
0000d0 92 eb 23 bd 88 a4 05 bd 67 94 bd 3c 85 fe 87 bd
       -0.04001958 -0.032627612 0.023142053 -0.066403426
0000e0 c7 d2 e9 3c e5 28 a3 bc 10 3d 45 3c e9 31 53 3d
       0.02854289 -0.019916961 0.012038484 0.05156127
0000f0 f2 75 b3 3c 5f 7b 40 bc af 21 88 3d 0d b2 9c 3d
       0.021906827 -0.011748164 0.0664705 0.07651148
000100 e8 77 54 3d 6f 63 16 bd d2 08 11 3d 81 90 da bc
       0.051872164 -0.03671592 0.035408802 -0.026680233
000110 ae 7a 1c 3d f1 2c 8e 3d 0d a7 89 bd d3 10 0b bd
       0.038202934 0.06942166 -0.067213155 -0.03395159
000120 f3 ec aa bc 8f 45 44 b8 6c a1 79 bd 07 9e 66 3d
       -0.02086494 -4.6794823e-05 -0.06094496 0.05630305
000130 ff 1f 14 3c a8 6a 94 bd b8 d2 60 3d dd e0 5b 3d
       0.009040832 -0.072469056 0.054888457 0.053681243
000140 46 d2 10 3d 7b c0 41 bd 71 c6 2b 3c 81 a2 ba 3c
       0.035356782 -0.047302704 0.010484324 0.022782566
000150 1b 68 3f 3d a7 cb 80 3d ca d6 73 3d 26 eb 09 3d
       0.046730142 0.062888436 0.05953101 0.03367152
000160 10 78 51 bc 95 59 db bc ec 52 9d bb da 59 6f bd
       -0.012784973 -0.026776114 -0.004801145 -0.0584353
000170 30 e8 3a bc 3f 17 6b 3d 33 fe a1 bd 7b d3 55 bc
       -0.011407897 0.057395216 -0.07909813 -0.013050909
000180 0a 04 73 3c cd 29 1d 3d 67 e9 2b 3d c2 7d bf 3c
       0.014832506 0.038369942 0.041970637 0.023375396
000190 53 c7 f1 3c 5e 08 95 3d 35 e4 7b bd e5 6f e5 3c
       0.02951399 0.072769865 -0.061496932 0.028007457
0001a0 4b 16 fa bc 7f 1c d3 bb dd 63 ed 3c 56 d7 ba 3c
       -0.030528208 -0.006442606 0.028978283 0.022807758
0001b0 be 9f 16 3d c6 15 2b bc 1d 04 43 3d 86 4b b0 3c
       0.036773436 -0.010442203 0.047611345 0.021520387
0001c0 9e 92 8e bc 49 0e 3e bd e8 a3 84 bd c9 7c 02 3c
       -0.017403897 -0.046400342 -0.06476575 0.007964321
0001d0 fd 61 72 3d d3 cf 2a 3d 0d e7 15 bd e1 de 82 bc
       0.05917548 0.041702103 -0.0365973 -0.015975418
0001e0 03 5d 02 3b 26 a3 4e bc cb 57 b7 bc 17 34 7f 3c
       0.0019891865 -0.01261214 -0.02238073 0.015576384
0001f0 96 e7 3a bd e2 7c ed 3c b6 54 85 3d 10 93 aa 3d
       -0.045631014 0.028990213 0.06510298 0.08328831
000200 62 fa 30 bd 80 a7 94 3c fc 04 92 bd 1f aa 62 3c
       -0.043207534 0.018146276 -0.07129857 0.013834505
000210 a8 24 99 bd 0a 60 7e bd 88 6f f3 3c e5 83 fe bc
       -0.07477695 -0.06210331 0.029716268 -0.031068752
000220 b2 b6 ce 3b 9c 2c a3 3c fa 0d d6 3c 83 92 a4 bc
       0.0063084 0.019918732 0.026129711 -0.020089393
000230 57 8d 6f bc 37 79 38 bd 05 bf 4a bc 15 0e de 3c
       -0.0146211 -0.045037474 -0.012374644 0.027106324
000240 b1 e7 da bc 9b c1 5c 3d 4c da a7 bb b4 ad 81 3d
       -0.026721807 0.053895574 -0.0051224586 0.06331959
000250 df 59 67 bd 81 0e 90 bd 6a cb 52 3d e1 fd 41 bd
       -0.056482192 -0.070340164 0.051463522 -0.04736126
000260 92 64 7e bd 4e fd 6b 3d 7c f4 64 3c 3f 70 73 bd
       -0.06210763 0.057614617 0.013974305 -0.059433218
000270 8a f7 73 bd bc cd ac 3a b0 3e 30 bd 2c 23 1d 3d
       -0.059562244 0.0013183872 -0.043028533 0.03836362
000280 53 6d e0 bc 77 3a 8d bd 40 bd b5 bc dc ca b9 ba
       -0.02739588 -0.06895917 -0.022184968 -0.0014174837
000290 77 c7 00 3c f0 ae 98 3d ae 3a 99 bd 07 72 25 3d
       0.007860056 0.07455242 -0.074818954 0.040391948
0002a0 04 1f ae bc a1 0e 3e 3d 92 76 95 3c e0 da 07 3d
       -0.021255024 0.04640067 0.018245015 0.03316772
0002b0 0f c2 14 3d de 58 66 bc 90 73 40 bd 8d aa 85 bd
       0.03631788 -0.0140592735 -0.04698521 -0.065266706
0002c0 3d 2c 1c bd fc 8f 34 bd 0e e0 8f 3b e6 df 41 3c
       -0.038128126 -0.044082627 0.004390723 0.011833167
0002d0 01 f4 5c bc 32 3c b3 3d 6d 4e 10 3d 66 c3 33 bd
       -0.013485909 0.08751716 0.035231043 -0.04388752
0002e0 d4 1f 4f 3d 36 eb 2f 3d ef a6 55 3d df 60 9b bd
       0.050567463 0.042948924 0.052161153 -0.07586836
0002f0 ff ad 11 3d ea f4 3e 3d 49 4c 09 bc 4b 99 af bc
       0.035566326 0.046620287 -0.008380004 -0.0214354
000300 46 d4 38 bd e2 cc 0f bc 15 88 55 bc a7 3b 99 3d
       -0.045124315 -0.008776875 -0.013032933 0.07482081
000310 ba 85 6f bd a4 2b 3b bd 93 59 5d 3d 7d 4d 54 bd
       -0.05847714 -0.045695916 0.054040503 -0.05183171
000320 bb fc 8b bc 80 14 2a 3c 65 da 1f 3a 79 7e 72 3d
       -0.017088285 0.010380864 0.0006097912 0.059202645
000330 f8 bf f4 3c 42 25 be 3c 1b a7 c6 3b ef 29 63 bc
       0.029876694 0.023211125 0.006062401 -0.013864978
000340 f4 5c 5a bd 86 9a d2 bc 58 0f 31 bd 9a 90 93 bd
       -0.053311303 -0.025708448 -0.043227524 -0.07205315
000350 71 6b fb bc c0 fb 8e 3b 60 45 30 3d 4f 63 0b bd
       -0.03069088 0.004363507 0.04303491 -0.034030255
000360 fb 43 73 bd d9 1e cd 3c 8d c5 bf bb df 89 7a 3c
       -0.059391003 0.025039123 -0.0058524073 0.01529166
000370 8e 64 bd bc 26 9a 68 3d 52 e0 15 bd f6 a0 97 3c
       -0.023119237 0.056787632 -0.03659088 0.01850937
000380 90 bd 3b 3d ca 77 8d bc cb bc 4a 3c 26 77 fb 3b
       0.045835078 -0.017269034 0.012374113 0.0076741157
000390 25 c6 80 3d dd b2 b2 bc 78 9c d6 bb fe 2c 7f 3c
       0.06287793 -0.021813804 -0.0065494142 0.015574692
0003a0 9c 41 0d 3d dd 9f 2a 3d 70 16 59 bd 71 22 9a bc
       0.034486398 0.041656364 -0.052999914 -0.018815251
0003b0 03 6e e4 bc 52 44 51 bc 38 e7 6a 3d 0d 4d 0f 3d
       -0.027884489 -0.0127726365 0.057349414 0.03498559
0003c0 74 18 c3 bc df 58 5a 3c 54 b0 e1 ba 60 c9 5e bb
       -0.023815371 0.013326853 -0.0017218688 -0.003399454
0003d0 2d cc 21 3d c8 ea 1d 3d 72 39 1e 3d 2c 35 0d bd
       0.039501358 0.038553983 0.038629003 -0.034474537
0003e0 df 61 6b bb 28 5c 76 3d 23 17 d6 3c 28 70 2e bd
       -0.003591649 0.06014648 0.02613408 -0.04258743
0003f0 a1 40 67 3d 2c e4 16 bd 9b d0 33 3d 74 75 94 3d
       0.05645812 -0.036838695 0.043900114 0.07248965

bias f4 [128]
000000 a6 a6 b5 bc be 6f 81 bc 15 e7 eb 3c f6 b2 78 bd
       -0.02217419 -0.015800353 0.028796712 -0.060717545
000010 11 42 8a 3d 8d 3d 70 bd b1 11 5e bd 0d 99 b0 3b
       0.067508824 -0.05865245 -0.05421609 0.005389339
000020 09 6d 30 bd 62 50 1e bc 95 42 fd bc c1 75 60 3d
       -0.043072734 -0.009662719 -0.030915538 0.0547998
000030 14 a8 c9 bc 89 f0 68 3d 1c 6c 9b 3c 5c 1b 16 3d
       -0.024616279 0.056870017 0.018972449 0.036647186
000040 06 57 7d 3b ae 0f 72 bd 04 50 21 3d 3b 6d 89 bd
       0.0038656606 -0.059096985 0.03938295 -0.06710287
000050 7c 08 ac bc d9 a1 4c 3d 61 77 8d 3d 98 0f c5 bc
       -0.02100014 0.049959037 0.06907535 -0.024055287
000060 66 67 6a bd d3 d1 21 ba 5a 64 40 bd 36 cc 8d 3d
       -0.057227515 -0.0006172929 -0.046970703 0.06923716
000070 87 8e 89 3d 4e 30 31 3d a8 82 fc bb 5b e6 93 bc
       0.06716638 0.043258958 -0.007706005 -0.018054178
000080 da 6b e0 3c 99 e8 09 bd 5e 7d 69 3c 02 29 f1 bc
       0.027395178 -0.033669088 0.014251081 -0.0294385
000090 94 c4 17 3d 8b a9 62 bd c7 4a 3c bd 0d 8c ef 3b
       0.037052706 -0.05533747 -0.04596975 0.0073103965
0000a0 e5 49 1f bd 2a 5c 6d bd fa b9 62 3d 38 0b d3 bc
       -0.03888883 -0.057949223 0.055353142 -0.025762185
0000b0 28 75 9d 3c db 9c 0d bc 19 e5 50 bd d0 76 41 3d
       0.019220904 -0.008643354 -0.050999735 0.04723245
0000c0 d8 e6 94 bd 0f 32 78 bb 9f b4 e4 3b bc 6f 8f bd
       -0.072705925 -0.0037871634 0.0069795395 -0.070037335
0000d0 53 c7 85 3c 70 d8 60 3c c8 8d 10 3d 54 b8 8a 3d
       0.016330397 0.013723478 0.035291463 0.06773439
0000e0 bc 5e 15 3d a1 a0 02 bd 70 3c 90 3d 17 a8 89 bc
       0.0364673 -0.03189147 0.070427775 -0.016803784
0000f0 1e f6 50 bc 8c 42 01 bb df f2 6a bd b7 37 1a bd
       -0.012753991 -0.0019723503 -0.057360526 -0.03765079
000100 ff e0 04 bd 84 4d 79 3d e3 d6 51 bd 76 cc 90 bd
       -0.032441135 0.06086494 -0.051230323 -0.07070248
000110 f8 6e a2 3c 44 6f 87 3c 4c bf 88 bd ff 4e 46 3d
       0.019828305 0.016532548 -0.06677112 0.04841518
000120 04 3b 4c 3d c7 34 27 bd 4b d0 0c 3d f2 3c 55 bd
       0.04986097 -0.040821817 0.03437833 -0.052060075
000130 18 49 e9 3c ad 6e 72 bc ca 3f cb bc 4b de 71 bd
       0.028477237 -0.014796895 -0.02481069 -0.059049886
000140 28 c7 24 bd 48 b1 98 3c f8 0f f8 3b 64 66 f3 3c
       -0.040228993 0.018639222 0.007570263 0.02971191
000150 40 c4 ed bc 6b b0 96 bc 9f 2f be bc f7 ec 35 3d
       -0.029024243 -0.01839467 -0.023216067 0.04441544
000160 ba 5b 08 bd 3d 49 8c bc 4f 2a cc 3d e6 48 17 bd
       -0.033290602 -0.017124766 0.09969007 -0.036934756
000170 5b df 2d 3d c1 82 4e 3d 2b 52 86 bd de f8 18 bd
       0.042449336 0.050417665 -0.06558641 -0.037346713
000180 aa f0 5b bc 6b 1a 08 bd 16 06 23 bd 64 41 34 bd
       -0.013424078 -0.03322832 -0.039800726 -0.044007674
000190 a7 de 7e bd 35 32 f8 3c 4c 82 8e bb 38 12 70 bd
       -0.062224057 0.030297378 -0.0043490287 -0.058611125
0001a0 ec ec 68 bd 34 23 83 bd 41 a3 52 bd 0f 10 ab bb
       -0.05686657 -0.06403199 -0.051425222 -0.00522042
0001b0 10 35 76 bc 9e e6 83 3d ff 53 3e bc e3 5e 90 3d
       -0.0150272995 0.06440471 -0.011616706 0.07049348
0001c0 f1 87 90 bd 85 02 ec 3c 16 38 90 3d 06 2d 7d bd
       -0.07057179 0.028809795 0.070419475 -0.061810516
0001d0 e4 1d 11 bd 89 71 90 bc b0 79 30 3d f3 f8 80 bd
       -0.035428897 -0.017632263 0.0430848 -0.06297483
0001e0 6f ba 77 3d 40 ec 8a bc 1c 69 d6 bc f8 f7 15 b9
       0.06048053 -0.016958356 -0.026173167 -0.00014302123
0001f0 ca a7 2c 3d 1d 54 a6 3c 56 dd 97 bd fe 8b df bc
       0.042152204 0.02030378 -0.07415263 -0.027288433

weight f4 [1, 1664]
000000 79 52 58 bc d5 dd 2d 3b 29 75 8d bc 42 35 f8 bb
       -0.013203257 0.0026529927 -0.01726778 -0.007574708
000010 cb 74 b7 bc e8 5a 1d bc bd 2e 8e 3b 8c 30 dd bb
       -0.022394558 -0.009604193 0.0043390677 -0.006750172
000020 b2 1e 9f 3c 9a 39 46 3c a1 c1 82 bb 0d 57 4d bc
       0.019423816 0.012098694 -0.0039903675 -0.012532962
000030 82 17 19 bc 84 26 25 3c 77 cf d7 38 92 d7 47 bb
       -0.009343984 0.010079984 0.00010290642 -0.003049348
000040 fd 74 06 3c b0 da 67 bc cc 2b a0 bb f7 36 5b 3c
       0.008206603 -0.01415126 -0.0048880335 0.013379804
000050 9c ac 7b 3c da 64 91 39 16 73 65 b7 0a 81 15 3a
       0.0153609775 0.00027731695 -1.3676259e-05 0.0005703127
000060 ce ba bb bc bb c1 6f bb 3b fd 5f bc 6a 37 3f 3c
       -0.022916224 -0.0036583978 -0.013671215 0.011670927
000070 c6 25 f1 bb da 2d 26 3c 9e 62 c9 bb f2 16 2b 3a
       -0.0073592393 0.010142768 -0.0061457893 0.00065265514
000080 07 3a 03 bc 5f 78 c0 bb 9f d8 6b bb 8b 69 12 bb
       -0.00800944 -0.0058737244 -0.003598727 -0.002234074
000090 2f ce 3d bc 6c d8 1c bc 58 56 19 bc bf e5 0a 3c
       -0.0115848025 -0.009573083 -0.009358965 0.008477627
0000a0 67 0f 90 bb 5b e2 82 bc 25 7b 28 3c f2 62 7a bc
       -0.0043963674 -0.015977075 0.010283266 -0.015282379
0000b0 27 07 83 bc 56 05 b4 3c 22 2c 78 bb ec 5c 94 3b
       -0.015994621 0.0219752 -0.0037868102 0.0045276787
0000c0 fd a3 77 bc 77 f9 ba 3c ab ac 0e bb 66 c4 a5 bc
       -0.015114781 0.022824032 -0.0021770399 -0.020235252
0000d0 c4 d7 35 3a 5e a9 4e bb 67 a3 b4 3c ee 96 11 3a
       0.00069367536 -0.0031534056 0.022050573 0.00055538013
0000e0 4d 55 7a bb 28 36 30 3c 36 81 c7 bb 03 8d 7c 3c
       -0.0038197816 0.010755099 -0.006088401 0.015414479
0000f0 e7 f8 84 bc e7 6a 3f bc a4 93 8d bc 52 ba ef 3a
       -0.016231967 -0.011683202 -0.017282315 0.0018289781
000100 29 63 91 3b 3b d3 aa 3b ae 01 62 3a b3 48 88 3c
       0.0044368696 0.005213169 0.0008621466 0.016636228
000110 5b a0 0b 3c 8e 91 a9 ba c8 05 c7 bc 66 c2 df 3b
       0.008522118 -0.0012937055 -0.024294749 0.006828594
000120 95 ab b8 bc 43 b6 52 bc fc 25 8f bc 70 1c 7f bb
       -0.022542754 -0.012860837 -0.017474167 -0.0038926862
000130 43 d4 c1 3b 30 e7 ab bc 02 af af 3b cd 8f 9f bc
       0.005915196 -0.020984262 0.0053614387 -0.01947775
000140 77 c2 9b 3c b2 05 ea 3a 6b 36 a3 bc cc f9 55 bc
       0.019013627 0.001785448 -0.01992341 -0.0130600445
000150 7f 87 80 3c 4d 56 a4 3c cd dc 62 bb c1 15 a4 3c
       0.01568961 0.020060683 -0.003461647 0.020029904
000160 2d fb bd bc b2 cc ca bc 7a cd b3 3c 8b d1 52 bc
       -0.023191059 -0.02475581 0.021948565 -0.012867342
000170 3c 8e 30 bc 02 79 44 bc 12 41 8c bc f6 aa 9d 3c
       -0.010776099 -0.011991741 -0.017120872 0.01924656
000180 07 0b 05 bc 72 ff 2c ba d6 4d 8b ba 13 0d 14 3c
       -0.008120305 -0.00065993436 -0.0010628055 0.00903632
000190 3c 37 d3 bc b4 86 8d 3c c1 e3 ff ba 04 58 02 3c
       -0.025783174 0.017276146 -0.0019522832 0.007955555
0001a0 2b 10 aa 3c 33 32 28 3c 0b 32 a1 bc 0f 6c b0 3c
       0.020759663 0.010265875 -0.019677183 0.021535901
0001b0 19 1b 4f bb 7d 85 87 3c ac 55 91 3c be fc 17 3c
       -0.0031601845 0.016543144 0.017741047 0.009276567
0001c0 98 8e 2d bc 44 30 0b bc df 61 9d bc 8c 25 97 3b
       -0.010593079 -0.008495394 -0.019211708 0.0046126302
0001d0 df 1a 43 bc 72 3d 56 3b c6 90 aa 3c 95 c6 e7 bb
       -0.011908262 0.0032690433 0.020820986 -0.0070732334
0001e0 f2 1b 80 3c 59 29 cc bb d6 e7 50 3a cb 8f 8b bc
       0.015638325 -0.006230515 0.00079691166 -0.01703634
0001f0 10 ef 82 bc 32 d6 04 3c 70 61 a1 3c c6 64 a9 bb
       -0.015983135 0.008107709 0.019699782 -0.005169484
000200 15 f7 7b bc fb 4b 97 3b b1 56 b8 3b d4 5b 8f 3b
       -0.015378733 0.004617212 0.005625569 0.0043749604
000210 c2 aa 9a 3c c7 f7 90 3c 1b 30 59 bb 42 4e c3 bb
       0.018880252 0.017696274 -0.0033140245 -0.005960257
000220 a8 06 93 bc 3c 9f 99 ba f4 69 ae bb 70 06 00 bc
       -0.01794751 -0.0011720429 -0.005322689 -0.007814035
000230 b8 11 4b bb 07 45 fd 3b c1 98 9c bb 0e 85 90 3c
       -0.0030985903 0.007729176 -0.004778952 0.01764157
000240 ed 75 72 bc 07 29 b4 bb 4d ef 9f 3b 8c 5f 92 ba
       -0.0147986235 -0.005498055 0.004880822 -0.0011167391
000250 3d d2 e3 3c 52 f4 a1 bc 59 d4 fb bb e9 ab 26 3b
       0.02781021 -0.019769821 -0.007685226 0.0025432056
000260 b8 61 84 bb cc 81 43 3b f2 55 ab ba 07 c0 c4 3c
       -0.0040399693 0.0029832004 -0.0013071878 0.024017347
000270 4e f6 bf bc 04 69 8d 3c 34 cb 78 bb 49 7d 5d 3c
       -0.023432877 0.01726199 -0.0037962915 0.01351864
000280 63 e3 e3 b9 ca 6f f0 bb f7 f4 12 bc 79 76 18 3c
       -0.0004346623 -0.007337545 -0.008969537 0.00930559
000290 5b 79 62 bc b9 03 8d 3c 60 85 de bb 98 67 08 3c
       -0.013822879 0.01721369 -0.006790802 0.00832548
0002a0 6e 77 ba 3b 84 aa 03 3c 07 cf f3 3a 72 67 37 bc
       0.0056905067 0.00803626 0.0018601128 -0.011194097
0002b0 4f 3d 8b bc 31 a5 ad 3c 67 8f b0 ba f8 91 8b 3c
       -0.016997008 0.021196933 -0.0013470472 0.017037377
0002c0 74 00 06 ba 8c 78 ad 3c 57 53 5c bc 29 be b5 bc
       -0.0005111762 0.021175645 -0.013447604 -0.022185402
0002d0 18 4b 8c bb 26 67 78 bb a3 aa 60 bc 21 d9 aa bc
       -0.004281413 -0.0037903278 -0.013712558 -0.020855488
0002e0 5e e0 30 bc 25 67 9f bb 42 6c 45 bc fc 8f 01 3b
       -0.010795681 -0.0048645907 -0.012049736 0.001976966
0002f0 6c 0c 5f 3b 0f 5b a5 3c f8 ba 7f bc 57 11 cc bc
       0.0034034504 0.020185022 -0.015608542 -0.024910612
000300 a1 c2 07 3b 85 35 b3 3c 0d 5c b5 3c 2c 16 32 3c
       0.0020715373 0.021876106 0.02213862 0.010869544
000310 8a 70 b6 3b 94 ee 46 3b 83 8d 3f 3b 23 2f 8c bc
       0.005567615 0.0030354606 0.0029228635 -0.01711232
000320 bc cb 55 bb b2 98 a2 ba d8 af bd 3c 30 c4 14 3c
       -0.0032622656 -0.0012405126 0.023155138 0.009079978
000330 0c 0c 4f 3a 65 f6 5c 3b 24 eb f4 bb cb 6f c6 bc
       0.00078982185 0.0033716199 -0.00747432 -0.024223229
000340 8b 92 58 3c ab b4 a2 3b 76 bb b6 bc 65 29 4f 3c
       0.013218532 0.004965385 -0.022306185 0.012644147
000350 89 57 78 3c e9 51 9f bc 7f e6 94 3c 61 56 02 3c
       0.015157589 -0.019448237 0.018176315 0.007955165
000360 eb 0a 83 bc a1 f8 86 3c 93 3c 27 bb c2 a5 85 bc
       -0.015996417 0.016475977 -0.0025518283 -0.016314391
000370 5f c7 00 3c 80 86 b3 bb d2 c5 d8 3a 77 4e 57 bc
       0.007860034 -0.00547868 0.0016538447 -0.013141266
000380 b5 26 63 bc 60 ca b7 3c d4 7b 53 3c 34 07 bb 3c
       -0.013864209 0.022435367 0.012907941 0.022830583
000390 8e 2b b4 bc 6d a8 81 bc d1 59 81 3c d1 70 b7 bb
       -0.021993425 -0.015827382 0.015789898 -0.0055981656
0003a0 50 82 71 bc 88 a4 03 ba 5d 6e 03 bb ca 90 18 bc
       -0.014740542 -0.00050217705 -0.0020054795 -0.009311864
0003b0 5b 61 70 3b c2 80 5d 3b 43 f7 2f 3b 89 7e 66 ba
       0.0036679122 0.003379867 0.002685026 -0.0008792659
0003c0 f4 d7 a3 3c ce 73 bd bb 27 89 46 bc 3d a0 66 bc
       0.020000435 -0.0057816273 -0.012117661 -0.01407629
0003d0 aa e4 38 3b a0 97 9e 3c 6d e5 34 bb f7 1b 43 bb
       0.0028212466 0.01935941 -0.0027602569 -0.0029771307
0003e0 d1 2c 9d bc 80 20 ad bc e4 09 97 bb 2c 48 94 3b
       -0.01918641 -0.021133661 -0.0046093334 0.004525205
0003f0 5a ae 43 3c 06 47 57 bc d1 4b 88 bc 32 61 c3 3c
       0.011943424 -0.013139492 -0.016637715 0.023850057

weight f4 [1664]
000000 69 e2 7f 3f 56 69 7e 3f 98 f4 7f 3f 51 a2 7f 3f
       0.9995485 0.9937948 0.99982595 0.9985705
000010 0a 02 80 3f d4 c1 7f 3f db e6 7e 3f b5 93 7f 3f
       1.0000622 0.99905133 0.9957101 0.9983476
000020 f5 92 7f 3f 61 70 7f 3f c4 17 7f 3f 27 b9 7f 3f
       0.99833614 0.9978085 0.9964564 0.99891895
000030 91 ab 7f 3f 1d 59 7f 3f c9 0b 78 3f de d3 7e 3f
       0.99871165 0.9974535 0.9689298 0.99542034
000040 c0 42 7f 3f d6 ef 7e 3f c5 6e 7e 3f f0 e9 7f 3f
       0.9971123 0.9958471 0.9938777 0.99966335
000050 77 04 80 3f b8 fc 78 3f 73 e5 7d 3f 0f 5a 7d 3f
       1.0001363 0.9726062 0.99178237 0.98965544
000060 d3 97 7f 3f ed a6 7e 3f 34 74 7e 3f 35 51 80 3f
       0.9984104 0.9947346 0.9939606 1.0024782
000070 08 ba 7e 3f d6 53 80 3f c2 c1 7e 3f 07 f7 7d 3f
       0.9950261 1.0025585 0.995144 0.9920506
000080 77 b9 7e 3f 8b a7 7e 3f b7 9d 7e 3f 01 81 7e 3f
       0.99501747 0.994744 0.99459404 0.99415594
000090 a0 ac 7e 3f ea ba 7e 3f b1 db 7e 3f e3 21 7f 3f
       0.99482155 0.9950396 0.9955397 0.9966108
0000a0 bf b0 7e 3f 31 25 7f 3f ec 24 80 3f 8a 57 7f 3f
       0.99488443 0.99666125 1.0011268 0.9974295
0000b0 47 54 7f 3f 63 29 80 3f ea fc 7e 3f 54 a0 7f 3f
       0.9973797 1.001263 0.99604666 0.99854016
0000c0 56 67 7f 3f 82 30 80 3f a8 b9 7e 3f 5e 51 7f 3f
       0.99767053 1.0014803 0.9950204 0.9973353
0000d0 9e 35 79 3f e3 8f 7e 3f 72 2c 80 3f ac f4 79 3f
       0.9734744 0.99438304 1.0013564 0.97638965
0000e0 8c bd 7e 3f be 10 80 3f a6 e6 7e 3f cd 2a 80 3f
       0.99507976 1.0005109 0.9957069 1.0013062
0000f0 f2 02 7f 3f 63 00 7f 3f ac 17 7f 3f a3 d8 7b 3f
       0.9961387 0.99609965 0.99645495 0.98377436
000100 07 39 7f 3f 18 0e 7f 3f bb 69 7c 3f 7a 99 7f 3f
       0.9969639 0.9963088 0.9859883 0.9984356
000110 19 5d 7f 3f c6 1c 7d 3f 91 f9 7f 3f 06 42 7f 3f
       0.9975143 0.9887203 0.99990183 0.9971012
000120 6c f6 7f 3f 6f d1 7f 3f e4 e5 7f 3f 85 15 7f 3f
       0.99985385 0.99928945 0.9996016 0.9964221
000130 8c 2c 7f 3f d4 fb 7f 3f 42 13 7f 3f 10 f3 7f 3f
       0.9967735 0.99993634 0.9963876 0.9998026
000140 42 98 7f 3f 9c df 7d 3f a1 fd 7f 3f 76 e0 7f 3f
       0.998417 0.99169326 0.9999638 0.99951875
000150 d1 88 7f 3f 89 96 7f 3f 91 eb 7e 3f 8d 96 7f 3f
       0.9981814 0.99839073 0.99578196 0.998391
000160 36 03 80 3f 0c 04 80 3f c7 99 7f 3f 1a 2e 80 3f
       1.000098 1.0001235 0.9984402 1.0014069
000170 7e d0 7f 3f b0 cb 7f 3f 4e 06 80 3f 76 e7 7e 3f
       0.9992751 0.9992018 1.0001924 0.9957193
000180 bf f5 7f 3f 11 08 7a 3f 30 43 79 3f 0e ee 7d 3f
       0.99984354 0.9766856 0.97368145 0.9919137
000190 f4 56 80 3f c1 63 7e 3f 8e c0 7b 3f 91 4f 7d 3f
       1.0026536 0.9937096 0.9834069 0.98949534
0001a0 ed ae 7f 3f 25 56 7f 3f af 86 7f 3f 20 b4 7f 3f
       0.9987629 0.9974082 0.99814886 0.99884224
0001b0 b9 c1 7d 3f 8c a6 7f 3f ae ae 7f 3f 2e 5b 7f 3f
       0.9912372 0.99863505 0.99875915 0.99748504
0001c0 b5 1b 7f 3f 61 01 7f 3f 72 94 7f 3f 30 8c 7e 3f
       0.9965165 0.9961148 0.99835885 0.9943266
0001d0 2a e5 7f 3f 6e ea 7d 3f 8d 38 80 3f ad df 7e 3f
       0.9995905 0.99185836 1.0017258 0.9956005
0001e0 c7 b5 80 3f 54 7c 7e 3f d2 3e 7e 3f c1 42 7e 3f
       1.0055474 0.9940846 0.99314606 0.9932061
0001f0 2d 68 7e 3f 4f d7 80 3f 69 c5 80 3f a7 52 7e 3f
       0.9937771 1.0065707 1.0060245 0.9934487
000200 de 25 7e 3f ee 91 7f 3f 24 2f 7d 3f 52 8d 7d 3f
       0.9927653 0.99832046 0.98900056 0.9904376
000210 b0 df 7f 3f b2 fb 7f 3f ab 6c 7e 3f f2 fa 7e 3f
       0.99950695 0.9999343 0.99384564 0.9960166
000220 43 56 7f 3f 75 84 7c 3f 58 b5 7e 3f ea e3 7e 3f
       0.99741 0.98639613 0.9949546 0.9956652
000230 71 e9 7d 3f 8f 2c 7f 3f fc 75 7d 3f 72 70 80 3f
       0.9918433 0.99677366 0.99008155 1.0034316
000240 01 63 7f 3f 9d 97 7e 3f 3e 81 7f 3f 2b 42 7e 3f
       0.9976044 0.99450094 0.9980658 0.99319714
000250 09 6e 80 3f 81 d4 7e 3f 54 a0 7e 3f fa 5e 7c 3f
       1.003358 0.99543005 0.9946339 0.9858242
000260 ab 87 7e 3f 58 44 7c 3f 41 20 7e 3f c8 0e 80 3f
       0.9942576 0.98541784 0.99267966 1.0004511
000270 2c 2f 80 3f ea 78 80 3f 8d 7d 7c 3f a4 2a 80 3f
       1.0014396 1.00369 0.98629075 1.0013013
000280 8b be 7b 3f b5 3a 7d 3f dc 4d 7d 3f 17 00 80 3f
       0.9833762 0.98917705 0.9894693 1.0000027
000290 6c be 7d 3f ec 0b 80 3f 00 b4 7d 3f 56 8e 7f 3f
       0.99118686 1.0003638 0.99102783 0.9982656
0002a0 95 d8 7c 3f 9f 34 7f 3f bc 60 7d 3f 4f 44 80 3f
       0.9876798 0.9968967 0.9897573 1.0020846
0002b0 e2 3e 80 3f 50 17 7f 3f df b5 79 3f 8b 1d 7f 3f
       1.001919 0.9964495 0.9754314 0.99654454
0002c0 6a 60 7b 3f 5e 14 7f 3f 76 28 80 3f dc 38 80 3f
       0.9819399 0.9964045 1.0012348 1.0017352
0002d0 37 01 7f 3f b6 67 7c 3f 96 e4 7f 3f 7b fe 7f 3f
       0.9961123 0.9859575 0.9995817 0.9999768
0002e0 d7 cb 7f 3f e0 4f 7f 3f 71 d6 7f 3f 7c 04 7e 3f
       0.9992041 0.99731255 0.99936587 0.9922559
0002f0 e9 b2 7e 3f f7 9b 7f 3f ec eb 7f 3f d5 02 80 3f
       0.99491745 0.9984736 0.99969363 1.0000864
000300 7e 18 7e 3f 07 a0 7f 3f e8 9c 7f 3f 8e 6a 7f 3f
       0.9925612 0.9985356 0.99848795 0.99771965
000310 c0 14 7f 3f 80 97 7e 3f 38 90 7e 3f b5 fe 7f 3f
       0.99641037 0.9944992 0.9943881 0.9999803
000320 89 d8 7e 3f d0 34 7b 3f a6 85 7f 3f 97 4c 7f 3f
       0.99549156 0.9812746 0.99813306 0.9972624
000330 00 44 7d 3f 3a b6 7e 3f 72 ca 7f 3f ee 4c 80 3f
       0.98931885 0.99496806 0.9991828 1.0023477
000340 5e 7e 7f 3f 00 02 7f 3f b8 03 80 3f 54 68 7f 3f
       0.99802196 0.99612427 1.0001135 0.9976857
000350 9e 76 7f 3f e7 05 80 3f 54 7e 7f 3f 69 37 7f 3f
       0.9979037 1.0001801 0.99802136 0.99693924
000360 3b 00 80 3f 23 74 7f 3f 7d 20 7e 3f 7a 04 80 3f
       1.000007 0.99786586 0.99268323 1.0001366
000370 a5 dc 7e 3f 0d 68 7f 3f 95 b3 7d 3f e4 dc 7f 3f
       0.99555427 0.99768144 0.99102145 0.9994643
000380 29 e2 7f 3f 60 a0 7f 3f 13 7e 7f 3f 77 a0 7f 3f
       0.9995447 0.9985409 0.9980175 0.99854225
000390 66 fe 7f 3f 6a ec 7f 3f 6f 8d 7f 3f 50 6b 7f 3f
       0.99997556 0.99970114 0.99825186 0.9977312
0003a0 d3 e6 7f 3f 2a 28 78 3f 34 e7 7e 3f 43 46 80 3f
       0.99961585 0.96936285 0.9957154 1.0021442
0003b0 b9 b6 7c 3f 0b cd 7e 3f 8f f5 7e 3f bb 23 7e 3f
       0.9871631 0.9953162 0.9959344 0.9927327
0003c0 ae 69 7f 3f 45 94 7f 3f 3a e5 7f 3f 0c 81 7f 3f
       0.9977063 0.99835616 0.99959147 0.99806285
0003d0 14 82 7e 3f 2f a2 7e 3f 42 4b 7c 3f 10 b8 7e 3f
       0.99417233 0.9946622 0.98552334 0.9949961
0003e0 61 d3 7f 3f eb c9 7f 3f 46 14 7f 3f ed f7 7e 3f
       0.99931914 0.9991748 0.9964031 0.99597055
0003f0 fd b7 7f 3f ff 90 7f 3f ac a2 7f 3f 88 eb 7f 3f
       0.9989012 0.9983062 0.9985759 0.9996877

bias f4 [1664]
000000 11 f4 35 3a 9e 07 f2 3b d0 2e af 39 54 4e f4 3a
       0.0006940971 0.007386162 0.0003341348 0.0018639066
000010 d7 0c 88 38 22 52 a8 3a 5f a5 a5 3b c3 23 15 3b
       6.487377e-05 0.001284186 0.005055114 0.0022756911
000020 d8 cf f0 3a ca 3c 1f 3b c5 59 90 3b 9d a4 53 3a
       0.0018372489 0.0024297708 0.0044052326 0.00080735405
000030 44 2a ae 3a c0 c9 2f 3b 11 1c 1c 3d 67 71 49 3b
       0.0013287743 0.0026823133 0.038112704 0.003073776
000040 9b 5c 40 3b be 01 a8 39 fe 49 f6 3a bc db 18 3b
       0.0029352072 0.00032044755 0.0018790362 0.0023324331
000050 25 4a 0c 3b db 43 62 3c 12 d7 a6 3b 8b d7 15 3c
       0.0021406498 0.013810123 0.0050915563 0.009145628
000060 09 02 35 b8 8b 90 2c 3b 10 4f e1 ba 4e 19 88 ba
       -4.315566e-05 0.0026331272 -0.00171897 -0.0010383518
000070 a2 8a 29 bb 64 5e c2 ba 5d 05 38 bb 5b b3 0f bc
       -0.0025869985 -0.0014829156 -0.0028079369 -0.008770789
000080 01 b4 1d bb 98 7d 37 bb 87 af 58 bb b7 b7 85 bb
       -0.002406359 -0.0027998444 -0.0033063607 -0.0040807384
000090 6f 51 01 bb ad b8 0e bb c6 aa 13 bb 4e 8c 3f 3b
       -0.0019732376 -0.0021777556 -0.0022532209 0.0029227915
0000a0 48 c0 00 bb cc e7 a0 ba 3f c7 1b 38 86 43 a9 ba
       -0.0019645859 -0.0012276112 3.7140442e-05 -0.00129138
0000b0 29 55 a5 ba 5c 94 fb 39 95 2b 13 bb 3c f8 a1 ba
       -0.0012613881 0.00047984987 -0.0022456397 -0.0012357305
0000c0 d3 92 ad ba 1a aa e9 39 0c b5 53 bb 8a d8 6b 39
       -0.001324261 0.0004456796 -0.0032303957 0.00022492014
0000d0 b3 3c 03 bd b9 d2 87 bb 5e 67 44 b8 d4 76 fc bc
       -0.03204031 -0.004144993 -4.682631e-05 -0.03081838
0000e0 a4 84 96 bb 86 0e 98 ba bc 68 58 bb d9 e7 0c ba
       -0.0045934487 -0.0011601008 -0.003302141 -0.0005375124
0000f0 94 35 f4 ba 3e 1b 11 bb 32 48 ee ba c6 cb a8 bc
       -0.001863169 -0.0022141482 -0.0018179475 -0.02060498
000100 b4 66 ac bb 7a 5d 90 3b 35 e9 8c 3c b9 a8 03 3b
       -0.0052612666 0.0044056745 0.017201046 0.002008958
000110 de 64 4b 3b 01 2b 5d 3c 90 2f a0 b7 38 e8 70 3b
       0.0031035463 0.013499022 -1.9095634e-05 0.0036759507
000120 73 c3 38 38 92 49 37 3a d5 77 9a 39 3e 5d 88 3b
       4.4051045e-05 0.0006991859 0.0002946245 0.004161506
000130 c6 06 87 3b 31 f6 ec 38 8a 8e 8d 3b f8 60 57 39
       0.0041206805 0.00011299214 0.0043199705 0.00020540121
000140 09 44 f4 3a fe 38 24 3c f6 0b 38 39 b3 dc 3a 3a
       0.0018635999 0.010023354 0.00017552063 0.00071282237
000150 e5 b3 07 3b 7b 95 ec 3a e4 af aa 3b 45 bf ec 3a
       0.002070659 0.001804992 0.005208956 0.0018062374
000160 42 a7 08 38 b8 6a b9 b7 da 5b e1 3a a5 45 b6 ba
       3.2580698e-05 -2.2103413e-05 0.0017193512 -0.0013906254
000170 52 84 00 3a 63 cf 18 b9 4c 63 9b b9 9a 59 a3 3a
       0.000490253 -0.00014573107 -0.00029637886 0.0012462616
000180 92 34 a7 39 c8 6c 04 3c 4f 6d 09 3c 81 15 fe 3a
       0.0003189189 0.008082576 0.008387878 0.0019385071
000190 a3 13 9c b9 6e 0c c6 3a 52 a0 f4 3b 4b 2e 31 3b
       -0.0002976927 0.0015109906 0.0074654007 0.002703565
0001a0 d1 49 4a b9 29 f8 d6 ba 11 28 0c bb 16 bf a0 b9
       -0.0001929172 -0.0016400862 -0.0021386186 -0.00030659948
0001b0 5a 54 19 bc bf f5 3a ba 0c e2 22 ba 5e 9a fb ba
       -0.00935849 -0.0007131956 -0.0006213493 -0.0019195785
0001c0 e5 a3 52 bb c2 57 77 bb d2 c9 10 bb ef 2d 89 bb
       -0.0032141146 -0.0037741517 -0.002209295 -0.004186384
0001d0 c2 9f 91 bb 0c 08 18 3c d0 3f ae 39 04 ff e2 ba
       -0.0044440934 0.009279262 0.0003323541 -0.0017318432
0001e0 8d fc c5 39 3b 59 c3 ba 26 80 23 bb 7c 60 91 ba
       0.00037762933 -0.0014903912 -0.0024948209 -0.0011091377
0001f0 2a 0c 95 ba 11 9f 05 bb 18 11 b6 39 8f f1 b5 ba
       -0.0011371423 -0.0020389 0.0003472648 -0.0013881194
000200 ae 4e 90 ba 88 4a f0 ba cc 88 42 3b c6 4f b7 3a
       -0.0011009776 -0.0018332759 0.0029683588 0.0013985566
000210 b5 71 3b 3a 7a 2a 13 3a a9 37 11 bb 1c d4 da ba
       0.00071504276 0.00056139345 -0.002215842 -0.0016695294
000220 d4 b1 90 ba 19 8b 69 bb 6a 5f d4 ba 50 fa b4 ba
       -0.0011039325 -0.0035635887 -0.0016202752 -0.0013807509
000230 cf 8f 05 bb b8 5f 96 39 16 30 11 3c 25 2a a8 39
       -0.0020379906 0.00028681546 0.008861562 0.00032074857
000240 15 e5 94 ba 4a 08 b1 ba 58 a2 4e ba 81 08 c8 ba
       -0.0011359776 -0.0013506499 -0.00078824675 -0.0015261323
000250 3e c2 36 3a 0a 29 7b ba c5 6c 8a ba e9 36 93 bb
       0.00069716934 -0.00095810054 -0.001056098 -0.00449263
000260 2c 03 8f ba 3f 46 cf bb 7d 29 a5 ba 53 8f 09 3b
       -0.001091098 -0.0063255127 -0.0012600865 0.002098997
000270 88 3d a0 39 96 c4 eb 3a 54 97 6c 3b 9f df 02 3b
       0.00030563422 0.0017987664 0.003610094 0.0019969714
000280 b6 88 12 3b 62 8e d7 39 ac c6 8e 39 b1 41 4b 3b
       0.0022359318 0.0004111408 0.00027232373 0.0031014497
000290 f0 d8 07 b6 37 6a c4 3a d7 f0 d8 39 a7 78 24 3b
       -2.0242842e-06 0.0014985268 0.0004137817 0.0025096328
0002a0 ee b7 01 3c c6 da 4e 3b 48 57 b0 3b a5 10 dc 3a
       0.007917387 0.0031563505 0.0053814985 0.0016789628
0002b0 b5 af 10 3a e9 fb e6 3a 86 b8 d9 3c ec e1 00 3b
       0.00055193465 0.0017622682 0.026577245 0.001966591
0002c0 1f 3e a8 3c 54 20 e6 3a f6 b2 71 3a f3 cf 3b 39
       0.020537434 0.0017557242 0.00092200877 0.00017911177
0002d0 20 cb be 3b ba 82 cb 3b ed 24 23 3a a2 cc fb 38
       0.005822554 0.006210652 0.0006223459 0.000120067285
0002e0 4b ca 84 3a 09 ca 59 3b 77 7d 57 3a b4 90 1a 3c
       0.0010131089 0.0033231995 0.0008220295 0.009433914
0002f0 d7 84 c9 3b 0c 2c eb 3a 41 15 e8 39 c8 10 19 b8
       0.006149869 0.0017942204 0.00044266324 -3.649367e-05
000300 64 5a 14 3c 38 7b e1 3a b1 2b e0 3a 1c 15 29 3b
       0.009054754 0.001720286 0.0017102865 0.0025799936
000310 84 0b 87 3b 94 a5 d3 3b 13 7a d7 3b a5 fc b0 39
       0.004121246 0.0064589474 0.0065758317 0.0003375757
000320 1b 17 bd 3b f5 5d bb 3c a8 61 d8 3a a3 28 3a 3b
       0.0057705767 0.02287195 0.0016508596 0.002840557
000330 18 44 4f 3c 3b 5c b3 3b 5c 05 0b 3b c4 f9 5d 39
       0.012650512 0.005473641 0.0021212911 0.00021169247
000340 b6 d7 15 3b 2e 30 94 3b 8d c1 89 38 92 48 1a 3b
       0.002286417 0.004522345 6.568721e-05 0.002354179
000350 3a 32 0a 3b b8 2e 64 39 1c 76 f9 3a 52 06 51 3b
       0.0021087066 0.00021761179 0.0019032392 0.0031894636
000360 75 e2 f1 39 8d a7 04 3b 9e 98 10 3c e9 3b fe 39
       0.00046135826 0.002024147 0.008825449 0.00048491292
000370 75 24 4e 3b e7 5c 3c 3b c0 5d 32 3c 4b a9 36 3a
       0.0031454836 0.0028741898 0.01088661 0.00069679756
000380 bb 43 21 3a b3 7d df 3a 68 fa 18 3b 39 76 dd 3a
       0.0006151755 0.0017051011 0.0023342613 0.0016896195
000390 03 76 a0 38 42 d2 e3 39 8b 62 07 3b bf 34 37 3b
       7.651376e-05 0.00043453468 0.0020658101 0.0027955023
0003a0 01 82 0a 3a 0e 2e 19 3d 6f f2 40 bb f4 bd f8 3a
       0.00052836543 0.037397437 -0.0029441377 0.0018977509
0003b0 b5 b0 51 3b ce 56 8f 3a 04 fc e5 39 cc 5e 95 b9
       0.0031996195 0.0010935904 0.0004386605 -0.00028490124
0003c0 21 6f 46 3a 26 b1 c1 ba b5 f2 79 ba 4f 56 49 ba
       0.000756966 -0.0014777526 -0.00095347624 -0.00076804025
0003d0 4b ca 03 3b c7 04 8d 3a 81 94 67 3c 26 d9 c8 3b
       0.002010959 0.001075887 0.014134527 0.0061294017
0003e0 45 0c 60 39 d6 e9 f5 38 8d 99 49 3b ad e1 c1 3b
       0.00021366875 0.00011726066 0.003076169 0.005916795
0003f0 bd 69 2c 3b 91 64 2c 3a 1d 40 bb 39 f4 82 e0 3a
       0.0026308142 0.0006576265 0.00035715188 0.0017128871
