Single Battery Model/4. CNN Models/model_B0007_charge_std.pth (torch, 126708 bytes, 7 tensors)

weight f4 [64, 3, 3]
00000000: 2aba f73d fcd6 8f3e cfb2 e1bc 3140 c53d
00000010: 1698 19be e03f 99be 9a11 9d3d dd66 50be
00000020: cccc d43d 4035 8a3e da78 c1bd 4425 423e
00000030: c002 8a3e 298e 8ebb fb02 a13e 403e 6fbe
00000040: 10fd 04be 767b 79be 435f a0be 755b e53d
00000050: 8e2b 07bd 456e 103e 0b8b 323d 13d7 1cbd
00000060: 5ca3 f83c 1c02 e23d c02a ecbd e8ad 19be
00000070: fe4a 37be f995 36be cd25 54be 0202 b33e
00000080: e801 a13d 5efe 473e ce8b 4abc 832a 9d3e
00000090: 5868 5e3e 956e 17be 98b6 f9bd 85fa 9fbd
000000a0: b000 4f3e f87b 7abe 8abc c1bd 0a32 84be
000000b0: dd4c 4b3e 0335 ed3d 4cac 433e 7abd 4c3e
000000c0: d1aa 46be 46e8 06bd 57ce 9d3e d9f0 b73d
000000d0: 748b 213e 2d53 0c3e 9783 59bc a284 2e3e
000000e0: 1e8b 823e 5738 443e 61a9 a13e 9312 763e
000000f0: 3648 a5bc 598e a7be f280 a0be 1b32 cebd
00000100: deba 2d3e f1de c83c 08ac 693e b347 adbe
00000110: 64e1 9abc 2dfa 1bbe 7ebf 8fbe 45fb af3e
00000120: c6f6 90be a0ce 48be c8b3 893e 4e1f 3a3d
00000130: e1e0 a6bd ba19 843e bf8b 89be 38d1 7a3d
00000140: f125 9e3e 6f73 023d ae90 a5be e460 973e
00000150: 7aec 8cbe 42bb c9bd 9490 06be 2583 9bbe
00000160: bfc6 cdbd 47f8 9bbd a892 263e 2b33 433e
00000170: 3418 a4bc 8d0c 3e3d d79b 3b3e e030 7f3e
00000180: 440a 8cbe 7d35 27bc b893 a0be 9fc7 0b3e
00000190: 3a12 e5bd 0ded d13b ebb9 6cbe cfad 0e3e
000001a0: 0472 8a3e 2e8d 083e 9a6f 943e 1bca 17be
000001b0: 4b8e 9e3e 1704 aebe 2d09 b7bd 85f7 32be
000001c0: 79e8 98bd ef32 1c3e f34d d7bd 35af 893e
000001d0: 3799 5bbc 0038 adbe d295 64be 0817 54be
000001e0: 7472 03bd 0543 b23d e61a 94be 7566 033e
000001f0: ea19 a73e 306b 083e 2a04 69be d18f 5fbe
00000200: 633e 183c 6dfc 4c3d b96a 32be bf29 7a3d
00000210: 6206 983e ab7b 913e 070e 8a3e 542d a4be
00000220: 1f3f b7bd b0d3 09be 713c a4be 3525 13be
00000230: 47da 6c3e f2dd 02bd 95a6 313d d56d f8bc
00000240: a1e1 b33d 4687 a8be e73f 34be 8eb9 21be
00000250: 0f72 093e 5204 63bd bd32 2fbd 949f fe3c
00000260: f805 97bb 3a72 dcbd b287 62be 864a dfbd
00000270: c3b0 7e3d c22b 9a3e 5b7f 1cbe be3e 5b3e
00000280: 9b31 a13e 3b5a 9ebc 58b3 943b 9b11 67be
00000290: 6f03 59bd 6531 b03e 4e17 013e d077 153e
000002a0: c587 a7be 1073 9cbe 0c95 483e a803 dabc
000002b0: 80ae 8d3e 35f0 a93e 7b85 7c3e 6fc0 e3bd
000002c0: b68a 7abe 1e61 aa3c 38a2 96be 6cdc 93bd
000002d0: 3303 a63e b6e2 b8bd 74ad 0fbe 8193 a23c
000002e0: b04e acba 934e 983e 8c84 b83c 67a3 8cbe
000002f0: af41 42be e265 62be 80c1 48bd a0a8 83be
00000300: 7bcb 07be 33b0 19bd ba96 c1bd 4007 01be
00000310: 1f7b d4bd 5577 7dbd 3aef 2b3e 21e8 973e
00000320: 9d78 15be ce9d a9be d498 9fbd 78b3 98be
00000330: cc7c 5c3e 8662 78be 79fa 3f3e ec3b eabd
00000340: 3da4 083e 0c71 683e b71f 2fbe dcd5 493e
00000350: 9b0a 023e 49c8 7bbe 50c3 393e 73e7 3fbe
00000360: 5e35 693e 10cf 693e 4bd5 563e 87eb aa3c
00000370: 6746 ae3e 6d8b 83be 9ed4 783c 441e 48be
00000380: 09ea d73c 64a6 8ebe ad72 903e 82bc 98bd
00000390: 8f02 113d df3c 0bbe 1eff 77be 91ae 7b3e
000003a0: 8c86 873d 4e8a e5bd 98fc ec3c 6383 d03d
000003b0: d7dc 183e e880 803d c539 e1bd 405a c2bd
000003c0: 666c d03d 66b1 a43e 000f 0d3e e5f2 9ebe
000003d0: 7206 833e 8839 933e 1f12 973e b43c 83be
000003e0: c362 023e 1a2f 873e 0bf2 9fbe adeb 0bbe
000003f0: 2afb 7fbe 08d5 5f3e 4db3 1abd c007 91bd
0.12096055 0.28093708 -0.027551083 0.09631384 -0.14999422 -0.29931545 0.07669373 -0.20351739
0.103906244 0.26993752 -0.09446879 0.18959528 0.26955223 -0.004350443 0.31447586 -0.2336359
-0.1298716 -0.24363503 -0.3132268 0.11199085 -0.03300052 0.14104564 0.043589633 -0.03829105
0.030351333 0.110355586 -0.115315914 -0.15007746 -0.17899701 -0.17830648 -0.20717545 0.3496247
0.07861692 0.19530627 -0.012362434 0.30696496 0.21719491 -0.14788277 -0.1219303 -0.07811455
0.20215106 -0.24461353 -0.09459789 -0.25819427 0.1985354 0.11582377 0.19108695 0.19994155
-0.19401099 -0.032936357 0.30821487 0.08981485 0.15775853 0.13703604 -0.013276002 0.17042783
0.25496763 0.19162117 0.31574538 0.24030523 -0.020176034 -0.3272579 -0.31348377 -0.100681506
0.16965815 0.02452037 0.22819531 -0.33843765 -0.018906303 -0.15232153 -0.28075784 0.3437139
-0.28313273 -0.19610071 0.26894975 0.04544001 -0.08148361 0.25800878 -0.2686443 0.061234683
0.30888322 0.031848367 -0.32336944 0.2956611 -0.27524167 -0.0985017 -0.1314109 -0.30373493
-0.100476734 -0.076157145 0.16266882 0.19062488 -0.020031072 0.046398688 0.18321167 0.24920988
-0.27351582 -0.010205624 -0.313627 0.13650368 -0.11185117 0.0064064325 -0.23117797 0.1393349
0.27040112 0.13335106 0.28991395 -0.14823191 0.30967936 -0.33987495 -0.08937297 -0.17477234
-0.07466216 0.15253805 -0.105129145 0.26891485 -0.0134032285 -0.33831787 -0.22322777 -0.2071191
-0.032091573 0.08704189 -0.28926772 0.12832053 0.32636958 0.13322139 -0.22755495 -0.21832205
0.009292218 0.05004542 -0.17423524 0.06107497 0.2969237 0.28414664 0.26963827 -0.32065833
-0.08947586 -0.13459659 -0.32077363 -0.14369662 0.23130141 -0.031949945 0.043371756 -0.03032581
0.0878327 -0.32915705 -0.17602502 -0.1579344 0.13422416 -0.055424042 -0.042772997 0.031081952
-0.004608866 -0.107639745 -0.22122076 -0.10902886 0.06218029 0.3011151 -0.15282957 0.21410653
0.31483158 -0.019330135 0.004537981 -0.2256531 -0.05298179 0.34412685 0.12606546 0.14596486
-0.3272077 -0.30556536 0.19588107 -0.026613072 0.27672195 0.33191076 0.24660294 -0.11120688
-0.24466977 0.020798262 -0.29420638 -0.072197765 0.32424316 -0.09027617 -0.14031011 0.019845726
-0.0013146009 0.29747447 0.02252414 -0.27468416 -0.18970369 -0.22109178 -0.04901266 -0.25714588
-0.13261215 -0.037521552 -0.09452577 -0.12600422 -0.10375046 -0.061881382 0.16790476 0.29669288
-0.14596792 -0.33128208 -0.077928215 -0.29824424 0.21531981 -0.24256334 0.18747891 -0.114372104
0.13343902 0.22699374 -0.17101942 0.19710487 0.12699358 -0.24588121 0.18140912 -0.18740635
0.22774264 0.22832894 0.20979802 0.020864261 0.34038088 -0.2569231 0.015187411 -0.19542795
0.026356714 -0.2786132 0.2821249 -0.0745783 0.03540283 -0.13597439 -0.24218413 0.2457831
0.0661746 -0.1120802 0.02892904 0.1018131 0.14927994 0.06274587 -0.10997347 -0.0948987
0.10176925 0.32166594 0.13775253 -0.3104469 0.25590855 0.2875483 0.29506013 -0.2563225
0.12732987 0.26403123 -0.31239352 -0.13664122 -0.24998155 0.21858609 -0.03776865 -0.07081556

bias f4 [64]
00000000: f2d3 03be a1ab 903e 7a05 a3be c827 8bbe
00000010: 1227 153e 2644 9fbe 1655 c4bb 0692 fdbd
00000020: 711c 7dbc 89bb 433e b8a4 91bd ccab 6c3d
00000030: 4dff 34bd 1142 55be fbcb e3bd 3895 dd3d
00000040: 7d54 163e f702 943e 0186 9d3c 46f2 6cbe
00000050: e3a6 113e 788d 83be 5f17 383d 9b40 2ebd
00000060: fd74 39be a1db 72bc ee08 3fbd 9163 8e3e
00000070: 47a2 e0bd 093b 9e3e 2146 9abe e1b2 7cbe
00000080: 7e3e 43be 5e6e a9bd 5613 61be 34b6 16be
00000090: 4f42 0cbe c515 993e 23a8 903e 2b29 30be
000000a0: 66e6 8abd 91e8 7c3d 91c8 a63e ccbd 043e
000000b0: d35b 883d f2e0 683e 456e 4e3d f051 b8bd
000000c0: c129 963e b1ea 0f3e 9ba9 27be 7f06 7c3e
000000d0: 205c a23e 33d6 553e 1feb ddbc 03fa d03d
000000e0: 8c4e 92be cdbe 14be 2e5a fcbd 1058 673e
000000f0: e4f1 65bd 233d 873e 7271 603e b1f4 a53e
-0.1287382 0.28255942 -0.31840116 -0.27178788 0.14565685 -0.3110668 -0.0059915883 -0.123813674
-0.0154486755 0.19114508 -0.07111496 0.057781026 -0.044188786 -0.20825984 -0.111228906 0.10819477
0.14680667 0.28908512 0.019228937 -0.23139295 0.14223818 -0.2569387 0.044944163 -0.04254208
-0.18111034 -0.014822871 -0.046639375 0.27810338 -0.10968452 0.30904415 -0.3013163 -0.24677612
-0.19066808 -0.08273004 -0.21980032 -0.14717942 -0.1369717 0.2989942 0.28253278 -0.17203204
-0.06782226 0.06174523 0.32574895 0.12963027 0.06658139 0.2274206 0.05039813 -0.09000003
0.2932873 0.14054371 -0.16373293 0.24611853 0.3171091 0.20882492 -0.027089654 0.10203936
-0.28575552 -0.1452591 -0.12321888 0.22592187 -0.056138888 0.2641383 0.21918276 0.32413247

weight f4 [128, 64, 3]
00000000: 10b7 5fbd 1e05 50bd f634 76bd d8e6 813d
00000010: 424d de3c a040 67bc cef6 f23a 1e0b 6dba
00000020: d060 153d 8638 60bc 9504 42b8 260f 83bd
00000030: bf08 0cbd 70dd dc3c 08cd 81bd 59ad 2abd
00000040: f91c f1bc d569 173c d73c 3cbd 75e9 55bc
00000050: 5e0c 09bd 1184 823c 3f20 0a3c 7ec2 64bd
00000060: 3c1a c43c de31 e8ba d0af 473b a6ba 973c
00000070: 42d3 69bd e3eb 823d 5299 6d3d 8e86 0f3d
00000080: eb7c 253d 667d 073d 1bfa 223d 0ea4 743d
00000090: 2132 d9bc dc97 0fbc 56e1 103d 1039 2abd
000000a0: 6acc 0fbd 4096 4d3d 3791 603d 9c6e c2bc
000000b0: a1e6 5d3d 1620 f3bc 392f 023c ab0a 0bbd
000000c0: c050 77bb e7a9 2abd 6d88 413c bcac 073d
000000d0: d188 563b 0bc1 03bb 001b d6bc 9817 8dbd
000000e0: 8b64 48bd 1f87 803c 2309 a43c 295e 06bd
000000f0: 5f32 f3bc 35fb 3dbd 38b2 08bd 1b60 0c3d
00000100: fae0 603d 3556 433d 49b6 823d 54b6 9abc
00000110: 13e8 883d fe5e 8abd 5d47 133d ab25 82bc
00000120: b3ef 65bd 877a 65bd 9adf 913c 38c8 56bc
00000130: 903d 2d3c f151 8d3d 3489 3c3c b341 193c
00000140: 328e 5e3d 90c3 293d cbc4 14bd ab02 50bd
00000150: 1587 49bd b99d 1c3c a99e 4ebd fbb1 103c
00000160: 2637 993c 5631 94bd f26e 64bd 7fad 5ebd
00000170: 7ad7 e9bc a2d7 3fbd 4a8e 4dbd 7585 1d3d
00000180: 61dc 25bd 50d0 653d a010 2abd 7f6a 953c
00000190: 08d9 31bd 98bf 38bd 4d6e 88bc a061 a7bc
000001a0: 08ef 5ebb 13f5 82bd 6b11 87bd 7814 51bd
000001b0: 4cf2 8cbd 00ff ec3c 4dad 1abc 03e2 8d3d
000001c0: 2e1a 88bd 987c 263c 4511 943b 22d5 2dbd
000001d0: d369 c7bc 910c 6dbd bd8f 29bd e5e0 ca3b
000001e0: 2ad1 88bd c5a3 8cbd 2076 5e3d 9a75 a9bd
000001f0: 249c 593d dfe2 4e3d e3e4 423d 9ada 093d
00000200: e76f c0bc 532b c2bb aedf 873c f5bd 853c
00000210: b0f5 0ebb adb4 8bbd a72d 9d3b ea82 333b
00000220: 2bb7 373d 75e2 e0bc 5c63 f13c a477 84bd
00000230: 059b 59bd 6fd4 863d c0f3 95bc 879c f73b
00000240: d36c 86bd 6653 4ebd e92e 863b ccaa e4bb
00000250: c01c 88bd 093e 29bc 5c87 703c 8eb8 e83c
00000260: 0028 d2bc 7ac3 af3c 6a20 c5bc d880 243d
00000270: 2e5d babd 81e8 4fbd e62a 8dbc 76f0 3f3d
00000280: 5b05 663d 79f3 7a3d d180 47bd d9fe 123d
00000290: 0bc6 b8bc eabe 7d3d c568 02bd 1806 cd3c
000002a0: bac5 97bc 2bb1 72bd 6a82 a03d 33d3 aabd
000002b0: d5fd 10bc f99b 223d 8aa0 903d f99c 943c
000002c0: 0073 743d 7d6b 1b3b 451e 9bbc 09d3 87bd
000002d0: ba6f 6e3d 9893 5e3c c310 9ebc 7338 2439
000002e0: 6b2b b4bb e63a ea3c 6588 41bd 7d76 9d3c
000002f0: 56b5 b93c 7466 1c3d a33a 703d b2a4 88bd
00000300: e349 ffbc 6197 f83c 0100 85bd bcd7 733c
00000310: 232b 193c 3bce 68bd 1fd5 7e3d 2244 6fbd
00000320: c4f4 833c ec9d bc3c 9d20 763d 74aa 47bd
00000330: 4673 a1bd 8ce2 ec3c b5ef fbbc fa45 9f3d
00000340: e831 72bd afa1 36bd 2d55 933c 6418 093d
00000350: 7fa8 2bbb 2d14 90bd 9293 fb3c c97d 98bd
00000360: 5ed5 3bbc d519 04bd f66a 84bd f518 0a3d
00000370: 7d9c 31bd e46e 65bd 5ed8 e83c a197 2dbd
00000380: 3f15 a33c e070 55bd 9f9d 75bc 423a 12bd
00000390: 5837 3bbd 6828 f6bc 0968 f43c 3bd2 08bc
000003a0: d23c d13c ac6a 1e3c 62dd 6a3d baff 103d
000003b0: a091 07bd 0ac2 623d ba77 5a3b 9106 cf3c
000003c0: 2bc8 913b b416 77bd 8b67 933c 53c7 403d
000003d0: 2e65 8ebd d839 e03c 3e45 70bc 8c4e 98bc
000003e0: d8e3 b7bc 1686 bc3c 6347 11bd 87cb acbc
000003f0: 4923 073a fd92 49bd a355 583d fce3 6a3d
-0.05461794 -0.05078613 -0.0601091 0.06342858 0.027136449 -0.014114529 0.0018536688 -0.0009042489
0.03646928 -0.013685351 -4.625747e-05 -0.06399374 -0.03418803 0.026961058 -0.06337935 -0.041669223
-0.02943276 0.009241541 -0.04595646 -0.013056149 -0.03345906 0.015932115 0.00843054 -0.055849545
0.02393829 -0.0017715057 0.0030469783 0.018521618 -0.057086237 0.06392648 0.058007546 0.03504043
0.040402334 0.033078574 0.0397893 0.059726767 -0.026513161 -0.008764233 0.035371147 -0.041558325
-0.035107054 0.050192118 0.054825988 -0.023734383 0.054175023 -0.029678386 0.007945829 -0.03394572
-0.003773734 -0.041665938 0.011812312 0.033123717 0.0032735358 -0.0020104076 -0.026135921 -0.06889266
-0.04892401 0.01568943 0.020023888 -0.032804642 -0.029687105 -0.046382148 -0.033373088 0.03427134
0.054902054 0.047689635 0.063824244 -0.018885769 0.0668489 -0.067563996 0.03595673 -0.015887102
-0.056136798 -0.056025054 0.017806817 -0.013109259 0.01057376 0.06900395 0.011507321 0.009354043
0.054334827 0.04144627 -0.03632049 -0.050783794 -0.04920109 0.009559088 -0.05044428 0.008831496
0.018703055 -0.072359726 -0.05576987 -0.054364678 -0.02854513 -0.046836503 -0.050184526 0.038457353
-0.040493373 0.056106865 -0.04151976 0.018239258 -0.043419868 -0.045104593 -0.016654158 -0.020432293
-0.0034016985 -0.063944004 -0.06595119 -0.05104491 -0.06882152 0.028930187 -0.009440732 0.06927874
-0.066456184 0.010161541 0.0045186603 -0.042439587 -0.024342453 -0.057873312 -0.041396845 0.0061913603
-0.0668052 -0.06867174 0.05431187 -0.08274384 0.053127423 0.05050933 0.047581565 0.03365574
-0.02349086 -0.005925575 0.016586151 0.01632593 -0.0021813922 -0.068215705 0.004796702 0.0027391263
0.044852417 -0.027451733 0.029466324 -0.06468132 -0.053126354 0.06583487 -0.018304706 0.0075565013
-0.06563725 -0.050372504 0.0040949476 -0.0069783684 -0.066461086 -0.010329732 0.01468071 0.028408315
-0.02565384 0.021455515 -0.024063308 0.040161937 -0.09099804 -0.050758842 -0.01723237 0.04686018
0.05615745 0.06126735 -0.048706833 0.035887573 -0.022555372 0.061949648 -0.031838197 0.02502732
-0.0185269 -0.05925099 0.078373745 -0.08341064 -0.008849581 0.03969953 0.070618704 0.018141257
0.059679985 0.002371519 -0.018935332 -0.06632049 0.05821202 0.013584994 -0.019295102 0.00015661288
-0.00549834 0.028592538 -0.047249217 0.019221539 0.022669476 0.038183644 0.05864967 -0.06672038
-0.031163162 0.03034562 -0.06494141 0.014882978 0.0093486635 -0.0568373 0.062214967 -0.058414586
0.016107924 0.023024522 0.060089696 -0.04874654 -0.07883315 0.02891662 -0.03075395 0.07777019
-0.059129626 -0.044587787 0.01798495 0.033470526 -0.002619296 -0.07035098 0.030710015 -0.074458666
-0.011464445 -0.032251198 -0.06465714 0.033715207 -0.04336213 -0.056013957 0.028423484 -0.042380933
0.019907592 -0.0521096 -0.014991193 -0.03570009 -0.045707077 -0.030048564 0.029834764 -0.008350904
0.025541697 0.009668987 0.057340033 0.03540013 -0.033097863 0.05536083 0.0033335523 0.025271686
0.0044489107 -0.060324386 0.01799371 0.04706509 -0.06952892 0.027371332 -0.014664946 -0.018592142
-0.022447512 0.023013156 -0.03546847 -0.021093143 0.0005155099 -0.049212445 0.052816045 0.05734633

bias f4 [128]
00000000: 75b5 0abd 8c97 833c ce39 efbc 60ff 933c
00000010: 177b a9bd 4f0c df3c 1994 403d cbfc 38bd
00000020: 5c9d 36bd 47b0 673d 8501 8dbd 9c0a 963c
00000030: 81a3 98bd 33b3 75bb d543 52bc c47b d03c
00000040: aa25 943b b233 8d3d 627e 96bd eb78 92bb
00000050: 0216 e73b 6174 873d 128d 663c 9659 6a3c
00000060: 2c1b 643d f951 c83d 7ce3 503c 8c3f 9bbd
00000070: ede6 303d c357 4abd 50ad 973c a68a 63bd
00000080: f8db 243d d3e6 a5bd 573f 933d 5e4f 0a3d
00000090: 52f3 97bb 29a2 8fbd 061d 3b3c cc26 5e3d
000000a0: acb9 19bd 6a1c cabc 7bb4 1d3b b98b a2bc
000000b0: f198 b73c 26f6 6ebd 8dc2 383b 4f37 56bd
000000c0: f9d9 ea3b 6d95 7f3d 9c69 86bd 7bd6 7fbd
000000d0: 4c03 7bbd f421 c2bc 0b81 ddbb 34cf db3b
000000e0: dafc 43bc a3c7 1dbc bab7 d339 13b4 9bbd
000000f0: b4e1 8f3c f757 85bd e46d 3d3d bcb0 08bd
00000100: 3c60 e2bc 433b 06bc c0ef 56bd 6709 423d
00000110: d596 32bd bfec 4c3c 2c18 acbc 904e 8fbd
00000120: 7736 48bb d5f7 83bc ae98 763d 2c4e 483d
00000130: 443c 433d 0887 b63c 0f4b cdbc eebb 7ebd
00000140: 7d6d 92bd d327 073d 889a 74bc ae7f 52bd
00000150: e8dc 063d 787b 7b3a 1699 95bd 5c3e 3abd
00000160: 0eeb 223d 440c 023d ff63 5ebd ed28 58bc
00000170: dff4 75bd e7ba 48bd 333b 90bd 985d da3c
00000180: cb68 8c3c f1a5 98bc b703 0f3d e78e 99ba
00000190: dfd8 8c3c f8de 47bd 49a7 853c dad0 5e3d
000001a0: 4843 a0bc dbb0 b73a 4daf 213d e6a8 94bd
000001b0: 3ee9 6e3d b859 3cbd e5d0 a93d 7fe6 0abd
000001c0: 6ac7 98bd 33fc f2bc 6d20 b7ba fe96 37bd
000001d0: cec3 a03c 7977 59bc 5bc9 24bd caa5 093d
000001e0: 78b8 053d 5700 1c3d 5a8b 91bc 2c92 263c
000001f0: 956f 2b3d 0aa1 21bd 76a2 52bd d3d9 68bc
-0.033864457 0.016063474 -0.029202368 0.018066108 -0.08275431 0.027227549 0.047016237 -0.045162957
-0.044583663 0.056564596 -0.068850555 0.018315606 -0.07453061 -0.0037490844 -0.012833555 0.025449641
0.0045210915 0.06894626 -0.07348324 -0.004469981 0.007052184 0.066139944 0.01407172 0.0143035855
0.055689976 0.0978126 0.012749549 -0.0758048 0.043188978 -0.049400102 0.018515259 -0.055552147
0.04024884 -0.08100667 0.071898155 0.033767097 -0.0046371603 -0.070133515 0.011420494 0.05423622
-0.037530586 -0.024671752 0.0024063874 -0.019842016 0.022411795 -0.058340214 0.0028192133 -0.05229884
0.0071670976 0.062398363 -0.06563112 -0.062460404 -0.06128244 -0.02369783 -0.006759768 0.00670805
-0.01196214 -0.009630117 0.00040381943 -0.07602706 0.017563678 -0.065109186 0.046247378 -0.033371672
-0.027633779 -0.00819284 -0.052474737 0.047372248 -0.043600876 0.012507617 -0.02100762 -0.069974065
-0.0030550042 -0.016109386 0.0602042 0.048902676 0.047664896 0.022281185 -0.025060205 -0.062190942
-0.071497895 0.032996964 -0.014929421 -0.051391296 0.032925516 0.00095932884 -0.073045895 -0.045469627
0.039774947 0.03174998 -0.054294582 -0.013193351 -0.06004798 -0.04900637 -0.07042541 0.026655957
0.017139813 -0.018633815 0.034915652 -0.0011715562 0.017193256 -0.048796624 0.01631512 0.054398395
-0.019563332 0.0014014499 0.03947382 -0.07258777 0.058327906 -0.045984 0.082917966 -0.033911224
-0.0745991 -0.029661274 -0.0013971456 -0.04482173 0.019624617 -0.013273113 -0.04023109 0.033605374
0.032646626 0.03808626 -0.017766643 0.010166686 0.04185446 -0.03946022 -0.051424466 -0.01421209

weight f4 [1, 1664]
00000000: 98d1 a6bc 0e91 a33b 4749 ab3c 5838 5c3c
00000010: 5dbe 7ebc 44b5 1ebc a3a5 c43c 0b63 a8bc
00000020: b86d 103b 23c7 ab3c ab1d 59bc aea2 bfbc
00000030: 2b11 0e3c 88a1 01bb 1ab0 baba f620 8fbc
00000040: 3c06 28bc b45f b73b c1da b43c 56f8 06ba
00000050: 80e5 c13c ecb5 463c 249f 593a 427b 83bc
00000060: 490a 8fbc 2570 c63b 16cb f13b b1dd f33b
00000070: 7a0f 303c 9d6d d4bb c090 80bc f746 7d3b
00000080: ca74 4b3c 1437 c13c f4af 8fbc 6615 04bb
00000090: 9801 93bc f496 963c c279 77bc 4395 2d3c
000000a0: fffb 603c 2763 89bc be5d b2bb 06fd 753b
000000b0: b417 abbb 7172 7cbc f062 cb3c 5311 95bc
000000c0: efa2 163b 6560 69bc c64e a5bc d4ca 96bc
000000d0: 646a 3d3c 2ae1 ffbb 15c9 243c 4961 a63b
000000e0: c498 caba b72c 1e3c 9431 773c 84cf e53b
000000f0: a50a 7b3c 6d5e b7bc 98bd d43c 5051 d73c
00000100: 11e4 283c 0ca6 2f3b 0776 253c b93a 883c
00000110: 4731 d5bb 1610 303c e6cd 293b 2418 6f3a
00000120: 5bd9 97bc 6378 c5bc 8dcd 533c 92c6 3fbb
00000130: a826 823c 4c46 b33b ab7b c03b 0c1a 46bb
00000140: 564f 33bc 20d0 3bbc 5386 b8bc e8ec 9d3c
00000150: 2ba8 b2ba 535b 56bc 09fa 883c 8496 873c
00000160: 4f66 cb3c 4c94 c33c 61b4 cd3c e79c 863c
00000170: 33f0 7bbc 8dd8 87bc b973 c43c d4e7 ecba
00000180: 016d 1e3c 38b6 57bc eb8b 0c3c 76bb bfbc
00000190: 69a8 8a3b 02f5 64bb fb6d d33b 05e5 89bc
000001a0: bae5 803c 5c9f 493c 3aff 7fbc 1b54 a1ba
000001b0: c822 e6bb 9d17 ab3b af98 74bb f541 4c3c
000001c0: ce83 f33b 8963 6d3c 65c2 52bc f602 c8bb
000001d0: 3ac4 8f3c ff35 60bc 425a 95ba 3f27 803c
000001e0: 4c65 5439 5ff4 5d3c 4893 803b bed4 943b
000001f0: 7271 333b 5cee 1ebc ba0e 033c 1dbb 3a3b
00000200: d9d8 e7bb d43c e53c 82ec d3ba f805 c23c
00000210: 0801 933b 0a72 71ba 316f 6bbc 2a40 17ba
00000220: c104 c53c 588b 89bc 2f00 55bc f080 223b
00000230: 9970 56bc 342b 87bc 3cb0 c93c 2867 b33c
00000240: a367 9f3b c162 9cbc c353 10bb 7fe1 cb3c
00000250: 195f 3c3c 2b8f 73bb 561b 39bc c278 dabb
00000260: d8f4 8f3c c307 0bbb d5f4 20bc a655 92bc
00000270: 1891 d13b 99d5 533c c5f4 223c b72c d2ba
00000280: f85a 153c 5038 60bb 8bd3 a63c c048 0bbc
00000290: 89df c8bc 00a7 b4bc 8f95 223c e985 24bc
000002a0: 5cf4 8b3c bd18 8abb cb2a 43bc ed2c 5c3c
000002b0: 6d28 813c 15fb 9cbb 3cbc 41bc 31be 1fbc
000002c0: 3d96 043c 6e60 613c ef80 bf3c 48ed a5bc
000002d0: c4cc e43a dd62 613c 5eef 37bb c57a e3bb
000002e0: 6efa 333c 96ce 37bc befe aaba 1cd5 3ebc
000002f0: 88e6 3fbc d47a 863c 151f 99bc a99f 9c3c
00000300: b081 2bbc 2dfd 90bb 4b92 64ba 0a89 983c
00000310: 55b6 053b 3898 0a3c dd27 5e3c d9a0 f1ba
00000320: f113 273b e43c bb3c b675 c23b 974b bf3c
00000330: a421 cabb 5334 c73c fbd6 c43c 1013 c4bc
00000340: 1430 efbb 6538 17bc 73e9 783b ec55 623c
00000350: e82b 883c e9bf 4dbc c42d 403c c649 f73c
00000360: 3810 033c 515c 64bc 968c 8dbc 8e84 173b
00000370: 2a66 07bc 37f2 db3c beea 6d3b 1626 173c
00000380: cac7 35bc 7997 b83c 56cd 92bc 499a ac3b
00000390: ccc4 adbb e1f5 5c3b b333 67bc d355 34bc
000003a0: 1240 63bc 3956 48bc d26f b93b dc42 a6bc
000003b0: e6e7 513c d031 adbc 57fd c3bb 1b30 48bc
000003c0: d239 a4bc d52e 853c 24a1 6e3b f9cd 96bc
000003d0: f3c8 2bbc fabd 373b 2e80 d23b 7141 40bc
000003e0: c267 28bb 4ab0 ab3c 5134 36bc d8c4 853c
000003f0: 3d35 b73c c172 8cbc 4ebf bdbc 08d0 903c
-0.020363614 0.004991657 0.020908965 0.013441168 -0.015548316 -0.009686772 0.024004763 -0.02055504
0.0022038054 0.02096898 -0.013251702 -0.023393001 0.008671085 -0.0019780118 -0.0014243156 -0.017471772
-0.010255393 0.0055961255 0.022076966 -0.0005148699 0.023669004 0.0121283345 0.0008301607 -0.016049985
-0.017460959 0.006055849 0.007378946 0.007442199 0.010745877 -0.0064827935 -0.015694022 0.0038647035
0.012417981 0.023585834 -0.017539956 -0.0020154356 -0.017945096 0.018382527 -0.015104713 0.010594669
0.013731956 -0.016770912 -0.005443304 0.0037534847 -0.0052213315 -0.015408144 0.02482745 -0.018196737
0.00229853 -0.014244174 -0.020179164 -0.018407263 0.01156101 -0.007808824 0.010057707 0.0050775153
-0.0015456905 0.009654216 0.015087504 0.007013263 0.015322362 -0.022383893 0.025969312 0.02628389
0.0103082815 0.0026801853 0.010098941 0.016629564 -0.0065061185 0.010746023 0.0025910079 0.00091207237
-0.01853626 -0.024105256 0.012927425 -0.0029262644 0.015887573 0.0054710265 0.0058741174 -0.0030227927
-0.010944208 -0.011463195 -0.022524988 0.019278005 -0.001363044 -0.013083297 0.016720789 0.016551264
0.024829058 0.023874424 0.025110425 0.016432239 -0.015377092 -0.016582752 0.023980962 -0.0018074461
0.009669543 -0.013166003 0.008578281 -0.023404818 0.004231502 -0.0034936075 0.0064523197 -0.016832838
0.015734542 0.012306061 -0.015624816 -0.001230839 -0.007023189 0.005221321 -0.0037322452 0.012466897
0.007431484 0.014489063 -0.01286373 -0.0061038686 0.017549623 -0.013684749 -0.0011394697 0.015643714
0.00020255632 0.013547032 0.0039238073 0.0045419624 0.002738085 -0.009700384 0.007999117 0.0028492876
-0.007075411 0.027983107 -0.0016168507 0.023684487 0.004486207 -0.00092104136 -0.014369772 -0.0005769754
0.024050118 -0.016790077 -0.013000532 0.002479609 -0.013088369 -0.016500093 0.024620168 0.021899775
0.0048646494 -0.019090058 -0.0022022582 0.024887798 0.011497282 -0.0037164192 -0.011298021 -0.0066672275
0.017572805 -0.0021214343 -0.0098239975 -0.017863106 0.0063954704 0.012929344 0.009946053 -0.0016035055
0.009115927 -0.0034213252 0.020364543 -0.008501232 -0.024520652 -0.022052288 0.009923353 -0.010041692
0.017084293 -0.004214375 -0.011912058 0.0134384455 0.015766347 -0.0047906735 -0.011824664 -0.009749935
0.00809246 0.013755901 0.02337691 -0.020254746 0.0017456044 0.013756481 -0.0028066258 -0.0069421255
0.010985 -0.0112186875 -0.001304589 -0.011647489 -0.011712678 0.01641599 -0.018691579 0.0191191
-0.010467932 -0.004424712 -0.0008719309 0.018620033 0.0020402868 0.008459143 0.013559309 -0.0018434777
0.0025494064 0.022856183 0.0059344424 0.023351474 -0.006168561 0.024316942 0.024028292 -0.023934871
-0.0072994325 -0.009229754 0.0037980943 0.013814431 0.016622499 -0.012557962 0.011729661 0.030186545
0.007999472 -0.013938026 -0.01727895 0.002311978 -0.008264104 0.026848895 0.0036303247 0.009225389
-0.011094997 0.022533165 -0.017920177 0.0052674157 -0.005303001 0.0033715891 -0.014111447 -0.01100679
-0.013870256 -0.012227588 0.005659082 -0.020295553 0.012811637 -0.021141917 -0.005981128 -0.0122185005
-0.020047102 0.016257683 0.0036411965 -0.018408762 -0.010484922 0.002803682 0.0064239716 -0.011734352
-0.002569661 0.020958085 -0.011120872 0.016329214 0.022364253 -0.017144563 -0.02316251 0.017677322

weight f4 [1664]
00000000: 5a63 7f3f c5ae 7e3f 9eea 7f3f fbb9 7f3f
00000010: 3c69 7f3f 2438 7f3f 5af1 7f3f 5983 7f3f
00000020: a8e4 7b3f 2be6 7f3f 4160 7f3f 568b 7f3f
00000030: 1e50 7f3f 7bcc 7c3f 1122 7c3f 9713 7f3f
00000040: a9ce 7e3f a8e2 7e3f 0310 803f 0276 7a3f
00000050: 6413 803f 6dcc 7f3f 8382 723f 3911 7f3f
00000060: b01a 7f3f edef 7e3f cbcc 7e3f edda 7e3f
00000070: d9b3 7f3f 592d 7e3f 28ab 7e3f 194b 793f
00000080: 34e4 7f3f 1f30 803f 17c4 7e3f 2650 7d3f
00000090: 57c6 7e3f f518 803f 2f0c 7f3f 552f 803f
000000a0: 1714 803f a70d 7f3f 7276 7e3f 1326 7e3f
000000b0: 2d6c 7e3f 9bfe 7e3f 7330 803f 1807 7f3f
000000c0: 8852 7a3f 3df3 7e3f 1910 7f3f d56b 7f3f
000000d0: aeb6 7d3f 5537 7e3f 0b25 7f3f 7a48 7e3f
000000e0: 5edb 783f 2021 7f3f b98c 7f3f 09cc 7e3f
000000f0: aa9f 7f3f 7912 7f3f 10ff 7f3f 4506 803f
00000100: 8f2a 7f3f 39eb 7d3f 4e0e 7f3f 0455 7f3f
00000110: 8700 7f3f 9713 7f3f f3e7 7c3f 66b2 793f
00000120: 2fc4 7f3f 45de 7f3f af2f 7f3f 9c98 7d3f
00000130: cd4c 7f3f 5cb9 7e3f 6aab 7d3f 891c 7d3f
00000140: 33b6 7e3f 9ac5 7e3f 3e26 7f3f aad5 7f3f
00000150: 8600 7c3f 33ea 7e3f c8aa 7f3f 9b95 7f3f
00000160: bec4 7f3f 68b9 7f3f 5910 803f 3da1 7f3f
00000170: 2dad 7f3f dfac 7f3f 35b8 7f3f a1ac 7d3f
00000180: ed53 7f3f d6a2 7f3f 1e3f 7f3f 65cf 7f3f
00000190: 477f 7e3f 49a8 7e3f 5206 7f3f 8317 803f
000001a0: 7a81 803f 9aa1 803f fd74 7d3f 225f 7c3f
000001b0: 7420 7d3f 97c2 7c3f 72d1 7c3f 88a6 803f
000001c0: 2f28 7e3f f8be 803f 3561 7d3f 480f 7d3f
000001d0: 42fe 7f3f f459 7e3f 6334 753f 7061 803f
000001e0: cc06 703f 1a52 803f cb3a 7b3f ddfa 7b3f
000001f0: 1f82 783f 1ebd 7c3f 89be 7f3f c460 783f
00000200: f64b 7c3f 2573 803f c863 7c3f 94fa 7f3f
00000210: e580 7e3f ade9 7a3f b734 7f3f f893 793f
00000220: 47fd 7f3f f245 7f3f be26 7f3f 31d3 7c3f
00000230: 2f28 7f3f a943 7f3f edcc 7f3f 3459 7f3f
00000240: 489f 7e3f 6b68 7f3f c400 7d3f a5e9 7f3f
00000250: dc8d 7f3f 4502 7e3f 942b 7f3f 63c2 7e3f
00000260: b7c3 7f3f 03d6 7c3f d916 7f3f 3459 7f3f
00000270: bed5 7e3f 491a 7f3f c699 7e3f 8887 793f
00000280: 8695 7e3f 329f 783f c303 7f3f bcb8 7d3f
00000290: 72db 7f3f 89c2 7f3f 61a9 7e3f 5c54 7e3f
000002a0: c379 7f3f 45f2 7c3f f736 7e3f 6caf 7f3f
000002b0: a4dc 7f3f 14d7 7c3f bc19 7e3f c3e4 7d3f
000002c0: ede0 7e3f abbd 7f3f 5817 803f 0e87 7e3f
000002d0: 0d2b 6f3f 4320 7e3f ee95 7d3f 12c2 7e3f
000002e0: 8d8e 7f3f 531e 7f3f 3cd1 7b3f 0624 7f3f
000002f0: e824 7f3f a6ca 7f3f cc5c 7f3f c1db 7f3f
00000300: 7313 7f3f d643 7e3f 5c8a 7b3f b2d7 7f3f
00000310: 3d56 7a3f 40bf 7f3f 3e31 803f 027d 7d3f
00000320: 738f 763f c852 803f 44aa 7e3f 1d43 803f
00000330: e251 7e3f 5731 803f 1f2d 803f 79cd 7f3f
00000340: c46c 7d3f 5bcd 7d3f 2fa7 7c3f 90ab 803f
00000350: 04c0 803f 869b 7d3f eb6d 803f eeda 803f
00000360: c409 7f3f c9c4 7d3f dcd9 7d3f 320e 7c3f
00000370: 049a 7d3f a72c 803f 8701 7d3f 1ef1 7f3f
00000380: da58 7e3f cb77 803f 3886 7e3f a667 7b3f
00000390: 7c44 7e3f 4de1 7b3f 28a9 7e3f 6297 7e3f
000003a0: e1b6 7e3f e535 803f a6dc 7e3f 2d63 7f3f
000003b0: 36aa 7f3f f065 7f3f 9b9b 7e3f dd27 7f3f
000003c0: da5f 7f3f 23cd 7f3f 2404 7e3f 0357 7f3f
000003d0: 040f 7f3f 2e41 7d3f a3b8 7e3f 5d99 7f3f
000003e0: 8c60 7c3f 332a 7f3f b14a 7f3f ad07 7f3f
000003f0: e53a 7f3f b59d 7f3f 45c9 7f3f 3b15 7f3f
0.99760973 0.9948543 0.9996737 0.9989316 0.9976995 0.9969504 0.9997765 0.99809796
0.98395777 0.99960583 0.99756247 0.99821985 0.99731624 0.9874951 0.9848948 0.99639267
0.9953409 0.995646 1.0004886 0.97836316 1.0005918 0.99921304 0.94730395 0.99635655
0.99650097 0.9958485 0.9953124 0.99552804 0.998838 0.99287945 0.99479914 0.97380215
0.99957585 1.0014685 0.9951796 0.9895042 0.9952139 1.0007616 0.99627966 1.0014445
1.0006131 0.99630207 0.99399483 0.99276847 0.99383813 0.9960725 1.0014786 0.996202
0.9778218 0.995899 0.9963394 0.99773914 0.9910687 0.9930318 0.996659 0.9932934
0.9720973 0.9965992 0.998241 0.9953008 0.99853003 0.9963756 0.9999857 1.0001913
0.99674314 0.99187046 0.996312 0.997391 0.9961018 0.99639267 0.98791426 0.9753784
0.9990873 0.9994853 0.99682134 0.9906099 0.99726564 0.99501586 0.9908968 0.98871666
0.99496764 0.99520266 0.9966773 0.999354 0.984383 0.9957611 0.99869967 0.99837655
0.9990958 0.9989228 1.0004989 0.99855405 0.9987362 0.99873155 0.9989045 0.99091536
0.99737436 0.9985784 0.99705684 0.99925834 0.9941296 0.9947553 0.9961902 1.0007175
1.0039513 1.0049317 0.99006635 0.9858266 0.98877645 0.9873442 0.9875709 1.0050821
0.99280065 1.0058279 0.9897645 0.9885144 0.9999734 0.9935601 0.9578306 1.0029736
0.9376037 1.0025055 0.98136586 0.9842966 0.9707355 0.9872607 0.9990011 0.9702265
0.9855341 1.0035139 0.98589754 0.99991727 0.9941543 0.9801281 0.9968981 0.9749141
0.99995846 0.99716103 0.9966849 0.9875975 0.9967069 0.99712616 0.99922067 0.9974549
0.99461794 0.99768704 0.98829293 0.9996589 0.99825835 0.99222213 0.9967587 0.9951536
0.9990801 0.98764056 0.9964424 0.9974549 0.99544895 0.9964948 0.9945339 0.9747243
0.99446905 0.9711791 0.99615115 0.9911001 0.9994422 0.9990621 0.994772 0.9934747
0.9979517 0.98807174 0.9930262 0.9987705 0.99946046 0.98765683 0.9925802 0.9917719
0.9956196 0.99898785 1.0007124 0.9942483 0.93425065 0.9926798 0.990569 0.9951488
0.9982689 0.99655646 0.9836614 0.9966434 0.9966569 0.9991859 0.9975097 0.9994469
0.9963905 0.9932226 0.98257995 0.999385 0.9778784 0.999012 1.0015028 0.9901887
0.96312636 1.0025263 0.99478555 1.0020481 0.99343693 1.0015057 1.001377 0.999229
0.9899409 0.9914147 0.986926 1.0052357 1.0058599 0.99065435 1.0033544 1.0066812
0.99624276 0.99128395 0.9916055 0.9845916 0.99063134 1.0013627 0.98830456 0.9997729
0.99354327 1.0036558 0.9942355 0.9820503 0.9932325 0.98390657 0.9947686 0.9944974
0.994978 1.0016447 0.9955543 0.99760705 0.99869096 0.9976492 0.99456185 0.996702
0.9975563 0.9992239 0.9922507 0.99742144 0.9963229 0.9892758 0.99500483 0.9984339
0.9858482 0.99673766 0.99723345 0.9962109 0.9969924 0.99850017 0.9991649 0.9964177

bias f4 [1664]
00000000: 2749 fc3a 2579 37ba 15de 89ba 3a0c 83ba
00000010: a9c5 aa3a 720d b53a 20c5 8dba 6c5f a43a
00000020: 8b99 91ba ef24 8eba 6a6f a83a 3da2 a03a
00000030: bb15 353b b368 633c e6f9 853c 4a21 403b
00000040: 7b87 853b 7caa b13b 6d77 bb39 e279 c73c
00000050: cb85 8339 5f87 da3a f868 813d 5de8 493b
00000060: cf56 403b 304c ab3b 414d adbb 4f0d 15bc
00000070: fe55 98bb 7e05 05bb ffdb deb9 c636 b8bc
00000080: c113 85bb e0bf 25bb 09be 93b9 adde aabb
00000090: c0a0 83b9 d197 41bb 7aff ceb9 d425 143b
000000a0: e054 823a a1c9 2b3b 816f a33b b7e0 1a3c
000000b0: 1435 a63b a94a 323b 6c40 2bb8 b248 233b
000000c0: 913d d23c 47ba 383b 200b 1b3b 3dea 383b
000000d0: b84b 2337 1fd4 c43b 5ce7 bd3a 2183 783b
000000e0: 5aec 813c 47d6 cd3a c02c 203a f2a6 2e3b
000000f0: 8fd1 1c3a 381e 183b 599a 06b9 063c 12b9
00000100: d7ba c23a 2334 c83a f7f9 043b f18d 473a
00000110: 9ce7 b93b 7f03 f13a 761a 443c f87b 013d
00000120: 7850 383b 7ab9 1f3b 87c7 aa3a 33f3 2d3c
00000130: b7a2 5a3a ee1c a33b 7a37 0aba a1a9 493b
00000140: b737 e33a 1073 e03a 39ca bf3a 1c78 42ba
00000150: 2608 5f3b b4bc d73a d881 34ba a092 34ba
00000160: ea8f 60ba 210c 5eba 0474 ff38 b6a4 9539
00000170: 81ba e83a 04da df3a f89c 49ba 8ac7 a73b
00000180: 5ac2 4cb9 846f ee3a 1490 d3b8 2bfb c73a
00000190: 08c6 803a a650 593b 87a6 4139 5268 1f3b
000001a0: 4d20 ed39 213e 1d3b deae 393b 024b fe3b
000001b0: d426 8a3b a3c7 183c 8700 b83b bda2 113b
000001c0: 9470 213c 545d d13a 3ec1 4a3b ca54 913b
000001d0: acdc 143a abb6 c1ba fc49 f6bb ba89 26bb
000001e0: 52c2 24bc 489f 36bb 43f0 babb 0a53 9dbb
000001f0: 8192 05bc 81e9 7eba 141e 6abb e418 0abc
00000200: 4f5b d6ba 6adb e8ba 8f58 743c 4982 7139
00000210: 1662 dc3b 0ada b63c 8508 5a3b 6efc e73c
00000220: 7b47 5b39 b150 463b 5e34 683b d6c4 673c
00000230: 2539 673b 1151 483b d1e0 4139 30ed a6b7
00000240: b775 c03b e406 393b 3b00 5a3c 0597 2539
00000250: b77b e23a fb1f 133c b400 813b c9ff bc3b
00000260: 3835 393a f3e0 673c 829a 8e3b d66f 3f3b
00000270: 3ed5 3f3b 6661 213a 7563 863a 25a4 6b3c
00000280: 1307 963a 8e31 843c 983d 3038 0dc6 c53b
00000290: a250 213b f2bb 2b3b dd7e 7e3a ae59 a33b
000002a0: da18 cb39 4d9a a6bb e26b f6ba ef5f 8bbb
000002b0: 9f5e 77bb f72b aebb 58f6 edba ece0 1bbb
000002c0: 6e05 dabb b42c 8abb 8eea 3dbb 049a 2bba
000002d0: 0906 23bd 0a5c 81bb 9a4e 2d3c 6e59 b33b
000002e0: 3f19 fa3a 9d60 803b e8e1 953c 4c73 7a3b
000002f0: 3587 793b d9ac 633a 98c9 3a3b 92e8 163a
00000300: 5385 863b b2cd fa3b e6e9 903c 70e8 f039
00000310: 4557 8a3c a3e4 573b aaf6 8c3a 3c4e be3b
00000320: d2a9 e63c 482e 9337 063f bc3b 18cd d2b7
00000330: 5771 863b ae33 bab8 e218 a4b8 538d 1a3b
00000340: d703 7c3b 4d2e 0b3b ec7a 8b3b 62b7 8d39
00000350: d4da f8b8 802c ed3a 5ee4 273a d694 35ba
00000360: 6816 463b 5ebb ec3a 1577 e03a ce45 a83b
00000370: 261e 353b 2319 acba d7a4 873b be1f 96b9
00000380: 3c1a dd3a 48e7 52ba b8f0 c73a 51f6 f0ba
00000390: 20ef 0c3b d783 443b 78c3 d63a cb75 e53a
000003a0: 5578 d83a 7218 6e3b 604d a13b 17f0 313b
000003b0: d84f be3a 692f 2e3b 3533 c83b 3b84 723b
000003c0: 816b 333b 01ca 683a 01b7 0f3c e258 3c3b
000003d0: c647 863b 0d25 473c 20b3 293b 9804 bbba
000003e0: 1935 3fbc 3c92 3fbb d339 0cbb 78d5 60bb
000003f0: 5c01 39bb b9dd 80ba b890 e1b9 6196 55bb
0.0019247875 -0.0006998948 -0.0010518456 -0.0009998151 0.0013028878 0.0013813211 -0.0010816194 0.0012540645
-0.0011108381 -0.0010844747 0.0012850587 0.0012255382 0.002763136 0.013879943 0.016354512 0.0029316717
0.0040749884 0.0054219346 0.000357564 0.02435011 0.0002508595 0.0016672424 0.06318849 0.0030808665
0.0029348617 0.005227588 -0.0052887504 -0.009097411 -0.004648923 -0.0020297463 -0.0004250705 -0.022487056
-0.0040611927 -0.0025291368 -0.00028179612 -0.0052145333 -0.00025106035 -0.0029539953 -0.00039481727 0.0022605555
0.0009943508 0.002621271 0.0049876575 0.00945299 0.0050722454 0.0027205145 -4.0829575e-05 0.0024915156
0.025664123 0.0028187202 0.0023657754 0.0028215789 9.733187e-06 0.006006732 0.0014488506 0.0037919956
0.015859772 0.0015704118 0.0006110184 0.00266498 0.00059821544 0.002321137 -0.00012836735 -0.00013946005
0.0014856708 0.0015274327 0.0020290592 0.00076123985 0.005673362 0.0018387883 0.011969199 0.031612366
0.0028124135 0.0024372027 0.0013029434 0.010617065 0.00083402864 0.004977814 -0.0005272549 0.0030771273
0.001733533 0.0017124135 0.0014632411 -0.00074184104 0.0034031956 0.0016459436 -0.00068858033 -0.0006888304
-0.0008566367 -0.0008470435 0.00012180957 0.00028542214 0.0017755778 0.0017078524 -0.00076909317 0.0051202225
-0.00019527358 0.0018191193 -0.00010088101 0.0015257349 0.0009824643 0.0033159642 0.0001846795 0.0024323654
0.0004522823 0.002399333 0.0028332989 0.0077604065 0.0042160545 0.009324941 0.0056152972 0.0022222244
0.009853501 0.0015973249 0.0030937935 0.0044351565 0.00056786346 -0.0014779171 -0.007516144 -0.0025411681
-0.010056095 -0.0027865935 -0.005704911 -0.004801159 -0.008152605 -0.0009724126 -0.0035723494 -0.008428786
-0.0016354116 -0.0017765586 0.014913692 0.00023032086 0.00672556 0.022320766 0.0033269238 0.02831861
0.00020912096 0.0030260498 0.0035431604 0.01414605 0.0035281864 0.0030565897 0.00018489665 -1.9899191e-05
0.0058734077 0.0028232867 0.013305719 0.00015791885 0.0017279302 0.008979793 0.0039368514 0.0057677967
0.000706512 0.014152753 0.004351915 0.0029210947 0.002927139 0.0006156176 0.0010253029 0.014382397
0.00114462 0.01613691 4.2019034e-05 0.0060355724 0.0024614711 0.0026204553 0.0009708235 0.004985056
0.00038737693 -0.005084312 -0.0018800462 -0.0042533795 -0.0037745608 -0.0053152996 -0.0018155081 -0.0023785187
-0.0066534793 -0.004216755 -0.0028978917 -0.00065460824 -0.039800677 -0.0039477395 0.010577822 0.0054733073
0.001908101 0.003917767 0.018296197 0.0038215695 0.0038074974 0.0008685119 0.0028501507 0.00057567016
0.004105249 0.0076539153 0.017689656 0.00045949547 0.016887316 0.0032942675 0.0010754664 0.005807666
0.028157149 1.7545317e-05 0.0057448177 -2.5129455e-05 0.0041028666 -8.878797e-05 -7.824764e-05 0.002358277
0.0038454437 0.0021237314 0.004256597 0.00027030247 -0.000118663214 0.0018094927 0.0006404574 -0.00069267803
0.0030225758 0.0018061211 0.0017125333 0.0051352745 0.0027636378 -0.001313005 0.0041395235 -0.0002863388
0.001686878 -0.0008045328 0.0015254235 -0.0018383955 0.0021504834 0.002998581 0.0016385159 0.0017506419
0.0016515354 0.0036330489 0.004922554 0.0027151161 0.0014519645 0.0026578552 0.00610962 0.0037005085
0.002737731 0.00088801986 0.008771659 0.0028739502 0.0040979115 0.01215483 0.002589412 -0.0014268337
-0.011670374 -0.002923145 -0.002139677 -0.0034306925 -0.002822957 -0.0009831704 -0.00043023168 -0.0032590854
