Single Battery Model/4. CNN Models/model_B0006_discharge_rob.pth (torch, 126744 bytes, 7 tensors)

weight f4 [64, 3, 3]
0	0x3d9ab037	0.075531416
1	0x3bf8cf20	0.0075930506
2	0xbeace796	-0.33770436
3	0x3dc4cb97	0.09609144
4	0x3e2cd085	0.16876419
5	0x3e1d3473	0.15352039
6	0x3e8d3c17	0.27584907
7	0xbdb97fdc	-0.0905759
8	0x3d6704b1	0.05640096
9	0x3e0b5b39	0.13609017
10	0x3e20f457	0.15718208
11	0x3e9d0d10	0.30674028
12	0xbcd37743	-0.025813704
13	0xbcdb225c	-0.026749782
14	0xbe1292a8	-0.14313757
15	0xbe3dc8ad	-0.18533583
16	0xbea057e9	-0.3131707
17	0xbe84ca9b	-0.25935826
18	0x3e8fda9f	0.28096482
19	0xbea2f3fc	-0.3182677
20	0x3bad1bf7	0.0052828747
21	0x3e82f07c	0.255741
22	0x3e4db91c	0.20090145
23	0x3ea06a07	0.31330892
24	0xbe76ce84	-0.24102217
25	0xbdbc8b3e	-0.09206246
26	0xbe79b709	-0.24386229
27	0x3e217294	0.15766364
28	0xbe7c1a6a	-0.24619451
29	0x3d7f933a	0.062396266
30	0xbc60375e	-0.013685076
31	0xbe1e46c6	-0.15456685
32	0xbdd06578	-0.10175604
33	0x3ea5e499	0.3240097
34	0xbe7eeb48	-0.2489444
35	0x3e36cb68	0.17851031
36	0x3ea8863d	0.32914916
37	0xbe487b75	-0.19578345
38	0x3e935e5e	0.28782934
39	0x3d04ebcc	0.032451436
40	0x3ea14687	0.3149912
41	0xbd14ee73	-0.036360215
42	0xbd0caff0	-0.034347475
43	0x3e7287fb	0.23684685
44	0xbc9d0acd	-0.01917019
45	0xbe29b0ee	-0.165714
46	0xbd47f0be	-0.048813574
47	0x3b6c0530	0.0036013834
48	0x3d8de789	0.069289275
49	0xbe6325a8	-0.22182333
50	0x3db9033f	0.09033822
51	0x3e018326	0.12647685
52	0xbe15833c	-0.14600843
53	0xbe96c0c8	-0.29443955
54	0xbe598252	-0.2124112
55	0xbe5a43a7	-0.2131487
56	0x3e1ba139	0.1519822
57	0xbe4fd779	-0.2029704
58	0xbe8504ef	-0.25980327
59	0x3dc597de	0.09648107
60	0x3df95268	0.12173921
61	0x3e90cf83	0.2828332
62	0x3e424c6f	0.1897447
63	0x3df8c563	0.121470235
64	0x3e2ef8e0	0.17087126
65	0x3e15e5f8	0.14638507
66	0xbe430c13	-0.19047575
67	0xbe3d3b8f	-0.18479751
68	0xbca0648c	-0.019579194
69	0x3e98e21e	0.29860014
70	0x3e5a12dd	0.21296258
71	0x3d450bbf	0.048106905
72	0x3e8c1614	0.27360594
73	0xbe154d47	-0.1458026
74	0xbe844caf	-0.25839755
75	0xbd12fe21	-0.035886887
76	0x3ddb4cae	0.10707985
77	0x3d8cfeab	0.068845116
78	0xbe9b85b0	-0.30375433
79	0x3dd0226b	0.10162815
80	0xbe6e568a	-0.232752
81	0x3d141556	0.03615316
82	0x3c8fbb7b	0.017545452
83	0x3d011465	0.03151359
84	0x3e2b5faa	0.16735712
85	0xbe255e24	-0.16149193
86	0x3e0e72af	0.13910936
87	0x3daf69b0	0.0856508
88	0x3c2eca04	0.0106682815
89	0xbe6d6fe0	-0.23187208
90	0xbe2b577f	-0.16732596
91	0x3e1b6ba7	0.15177785
92	0xbc024d19	-0.007952952
93	0xbe8d4248	-0.2758963
94	0xbc0f09f0	-0.008730397
95	0x3e6f66e3	0.23379092
96	0x3e7f15fd	0.24910732
97	0xbd074bc6	-0.033031248
98	0xbe0666e8	-0.13125193
99	0x3e16308e	0.1466696
100	0xbe88a032	-0.2668472
101	0xbe826810	-0.25470018
102	0x3e8bb411	0.27285817
103	0xbd2ba230	-0.04190272
104	0x3e67a54d	0.22621651
105	0x3e15abe6	0.14616355
106	0xbdddda1d	-0.108326174
107	0x3dfc4150	0.12317145
108	0x3d78512a	0.06062428
109	0x3e894d78	0.26816916
110	0x3df67e0e	0.12035762
111	0xbd265772	-0.040610738
112	0xbd1e70c8	-0.038681775
113	0x3e5b9335	0.21442874
114	0x3e36741f	0.17817734
115	0x3c635dc2	0.013877334
116	0xbd414e97	-0.04719409
117	0x3da6d5c8	0.08146244
118	0xbb8b3c6e	-0.004249147
119	0xbe00be13	-0.12572508
120	0xbdd65860	-0.10466075
121	0xbe89666a	-0.26835948
122	0x3e0a0b6d	0.13480921
123	0x3e68f979	0.22751416
124	0xbea9c92c	-0.33161294
125	0x3c957f05	0.018249044
126	0x3cac9df6	0.021071415
127	0x3e3dc187	0.18530856
128	0xbc9d8c0e	-0.019231822
129	0xbe5650c2	-0.20929244
130	0x3ea34cae	0.3189444
131	0x3e72e360	0.23719549
132	0x3e9c7185	0.3055536
133	0x3d5e1e2a	0.054227985
134	0xbd2b1df9	-0.04177663
135	0xbdd1bb01	-0.10240746
136	0x3dc58bc2	0.09645797
137	0x3ea61f8e	0.3244595
138	0x3e8a174c	0.269709
139	0xbe20d5d4	-0.15706569
140	0x3da09f38	0.078428686
141	0x3e9a673c	0.30156887
142	0x3e36ccbe	0.1785154
143	0x3e4cfa22	0.20017293
144	0xbe7720e1	-0.24133636
145	0xbe0ee1e2	-0.13953355
146	0x3e79990f	0.24374793
147	0xbb67324a	-0.0035277777
148	0x3e8a60b9	0.2702692
149	0xbe67ddb9	-0.22643174
150	0xbe20179f	-0.1563401
151	0x3e7ab390	0.2448256
152	0x3e37e98d	0.17960186
153	0x3d95f49d	0.07322047
154	0x3d3f2024	0.04666151
155	0xbe9fcb7a	-0.31209928
156	0x3e720213	0.23633604
157	0x3e85412d	0.26026288
158	0xbe5bf78c	-0.2148115
159	0x3e8b5482	0.27212912
160	0x3d10cc22	0.035350926
161	0xbe98e198	-0.29859614
162	0x3e8f0d05	0.2793962
163	0xbe8fd5c0	-0.28092766
164	0xbdebca55	-0.11513201
165	0xbc5f92e2	-0.013645859
166	0xbe8122b1	-0.2522178
167	0x3cd3754e	0.025812771
168	0x3e0370ef	0.1283605
169	0x3dc5f63b	0.09666105
170	0xbe8ccd17	-0.2750022
171	0xbe83e4d8	-0.2576053
172	0x3ea53078	0.3226354
173	0xbe8b0b87	-0.27157232
174	0xbd8fa1c6	-0.07013278
175	0xbc8607dc	-0.01636117
176	0xbd5c857a	-0.05383823
177	0x3e3661a5	0.17810686
178	0xbd12043a	-0.035648562
179	0x3ea65e6f	0.32493922
180	0x3deb44e1	0.11487747
181	0x3e0943bd	0.13404746
182	0x3e5a2a7b	0.21305268
183	0xbe9fcb6f	-0.31209895
184	0xbdf1ba49	-0.11803109
185	0x3e4d4fb9	0.20049943
186	0x3ea76091	0.32690862
187	0x3e7d5220	0.2473836
188	0xbd62ecbe	-0.055401556
189	0x3e388a00	0.18021393
190	0x3e92b9d0	0.2865739
191	0xbdb47809	-0.088119574
192	0x3e488b32	0.19584349
193	0x3d21b23a	0.03947661
194	0x3daf2caa	0.08553441
195	0x3db68a9e	0.08913158
196	0x3e6ee485	0.23329361
197	0x3eab0050	0.33398676
198	0x3e50f680	0.20406532
199	0x3ea79c96	0.32736653
200	0xbdbcc836	-0.09217875
201	0xbd8b1e5a	-0.067928985
202	0xbe47b746	-0.19503507
203	0x3e678f59	0.22613277
204	0x3e092218	0.13391912
205	0xbe7e85ad	-0.24855681
206	0xbe8b9b61	-0.27266982
207	0xbd8ba671	-0.068188556
208	0x3e9348a2	0.28766352
209	0xbd84b7d8	-0.06480378
210	0x3e530764	0.20608288
211	0x3cd1d566	0.025614452
212	0x3cdfdc26	0.027326655
213	0x3e9bc75d	0.3042554
214	0xbc40b69c	-0.0117622875
215	0x3e8badfb	0.27281174
216	0xbe2e47f0	-0.1701963
217	0xbd86dd27	-0.0658515
218	0x3be07631	0.006850027
219	0x3e49ca85	0.19706161
220	0x3e111103	0.14166646
221	0x3e508b3b	0.20365612
222	0xbe041129	-0.12897171
223	0xbdad50d8	-0.08462685
224	0x3e82f5a4	0.25578034
225	0xbdbcdfa9	-0.09222347
226	0x3d9ad32d	0.0755981
227	0xbe85092a	-0.25983554
228	0x3c17bbdc	0.009261098
229	0x3e8fced8	0.28087497
230	0xbddaf446	-0.10691123
231	0x3e931eb1	0.28734353
232	0x3dfe86b6	0.12428038
233	0xbea7af71	-0.3275104
234	0xbe43a0e0	-0.19104338
235	0x3e698369	0.22804035
236	0x3d8db991	0.069201596
237	0x3c2de2a1	0.010613115
238	0xbe9ce9d6	-0.30647153
239	0xbdc281b5	-0.09497396
240	0xbb930d48	-0.004487667
241	0x3ded7b54	0.115957886
242	0x3e9e39fb	0.3090361
243	0xbc9a0cb3	-0.018804884
244	0xbdbc52f1	-0.09195507
245	0x3d816039	0.06317181
246	0x3d1ff27c	0.03904961
247	0xbda066ef	-0.07832133
248	0xbcbe3e1a	-0.023222972
249	0xbe8f22c7	-0.2795622
250	0x3e93df86	0.28881472
251	0xbb9474ae	-0.004530511
252	0xbe12ca2d	-0.14334936
253	0xbe2a0092	-0.1660178
254	0x3eabc5d4	0.33549368
255	0x3e8a6379	0.27029017

bias f4 [64]
0	0x3e6540c2	0.22387984
1	0xbda21617	-0.079143696
2	0xbea47de1	-0.32127288
3	0x3e7673c0	0.24067593
4	0xbe959ef2	-0.29222828
5	0x3e3bd6c6	0.18343648
6	0x3e318401	0.17335512
7	0xbea71969	-0.32636574
8	0x3d90ab07	0.07063871
9	0x3e1f2a87	0.15543567
10	0xbe9fe34d	-0.31228104
11	0x3ea4c5f0	0.32182264
12	0xbe82e8e8	-0.25568318
13	0xbdcf1f71	-0.10113419
14	0xbdf6eedc	-0.120572776
15	0xbdf55a10	-0.11980069
16	0xbe294533	-0.16530304
17	0xbe35f7f0	-0.17770362
18	0xbe9aaf92	-0.30212075
19	0xbe986428	-0.29763913
20	0x3dbdf37a	0.09274955
21	0x3e23f97f	0.16013144
22	0x3e7e7415	0.2484897
23	0x3e500d90	0.20317674
24	0xbe841388	-0.2579615
25	0xbde7b028	-0.11312896
26	0xbe4ecf3a	-0.20196238
27	0xbe946727	-0.2898495
28	0xbea70804	-0.32623303
29	0xbe9ca99e	-0.30598158
30	0xbe34d1a3	-0.17658095
31	0xbe38b44c	-0.18037528
32	0xbe573731	-0.21017148
33	0xbe86f355	-0.26357523
34	0xbc0208f7	-0.007936708
35	0x3e39c40a	0.18141189
36	0x3c3958fa	0.011312718
37	0xbe346bc5	-0.17619236
38	0x3df60d68	0.12014276
39	0x3de41192	0.11136164
40	0x3def3414	0.11679855
41	0xbe28fdea	-0.1650311
42	0xbd7ae13b	-0.061249953
43	0xbe38cb8a	-0.18046394
44	0x3e145d8b	0.14488809
45	0xbe483c6d	-0.195543
46	0xbd889b0c	-0.06670198
47	0x3d3cfbcd	0.046138573
48	0x3df2b53b	0.11850973
49	0xbd9f0101	-0.07763863
50	0x3ce9e07e	0.028549429
51	0x3e8f526e	0.27992576
52	0x3e9f0de8	0.31065297
53	0xbe025605	-0.12728126
54	0xbdc81aa3	-0.097707056
55	0xbea43e5b	-0.32078823
56	0xbd9c5f6b	-0.07635387
57	0x3d6cda78	0.057825536
58	0xbe244a34	-0.16043931
59	0xbe918f60	-0.284297
60	0x3e9d631c	0.30739677
61	0x3eb7e64e	0.35917896
62	0xbd6f3a6d	-0.05840533
63	0x3cc0ba76	0.023526412

weight f4 [128, 64, 3]
0	0xbd5616cc	-0.052267835
1	0x3d17842b	0.03699128
2	0x3d48ae19	0.048994157
3	0xbd334be3	-0.043773543
4	0x3d448e06	0.047987007
5	0x3d32ce00	0.04365349
6	0x3c194e6b	0.009357075
7	0x3c08279e	0.008310227
8	0x3d56a703	0.05240537
9	0xbceca565	-0.02888746
10	0x3d19d10d	0.037552882
11	0x3d97ac04	0.07405856
12	0xbd3bbd24	-0.045834675
13	0x3ce70203	0.028199201
14	0xbc1b8f09	-0.009494551
15	0xbd902d2e	-0.07039867
16	0x3c69c250	0.014267519
17	0xbd06216a	-0.03274671
18	0xbc104771	-0.008806095
19	0x3d7e236f	0.06204551
20	0x3d951ece	0.07281266
21	0xbaa616c4	-0.001267158
22	0xbd5fc0b7	-0.054627147
23	0x3ca963fe	0.020677563
24	0x3d49775a	0.04918609
25	0x3a550530	0.0008126078
26	0x3ccfdc2f	0.025373546
27	0xbc55180d	-0.013006222
28	0xbd533ff3	-0.05157466
29	0xbb83f73c	-0.0040272754
30	0xbd5462ab	-0.05185191
31	0x3cefe00d	0.02928164
32	0x3cf1780e	0.029476192
33	0xbd80caad	-0.06288657
34	0xbcfee795	-0.031116286
35	0x3d8d01be	0.06885098
36	0xbd22358c	-0.039601848
37	0xbd2ca640	-0.042150736
38	0x3cdefbaf	0.027219621
39	0x3c73797c	0.014860507
40	0x3d81b333	0.06333008
41	0x3d928b86	0.07155518
42	0x3cb447a7	0.022006823
43	0xbd4662d1	-0.048434082
44	0x3c7aa364	0.015297744
45	0x3ca8fc22	0.020628039
46	0xbd0bc40c	-0.03412251
47	0x3caffd0b	0.021482965
48	0xbcbcd9aa	-0.023053009
49	0xbd822659	-0.063549705
50	0x3d8d670c	0.0690442
51	0x3afbef25	0.0019221051
52	0x3d5965c6	0.053075574
53	0xbd66e9b0	-0.056375206
54	0xba89920c	-0.0010495796
55	0xbd403545	-0.0469258
56	0x3d538eba	0.051649787
57	0x3bfe5312	0.0077613676
58	0x3d23e55c	0.040013656
59	0x3d6f79ac	0.058465645
60	0x3c94bf21	0.018157544
61	0xbd041d00	-0.03225422
62	0xbd8efe44	-0.06982091
63	0xbcff2664	-0.031146236
64	0x3d0d04a9	0.034428272
65	0x3caf3841	0.021389129
66	0x3cb264c2	0.02177656
67	0xbd2b0844	-0.04175593
68	0x3d714840	0.058906794
69	0x3d55269b	0.05203877
70	0x3d3d2ccc	0.0461853
71	0xbd7f2baa	-0.0622975
72	0x3d3fb348	0.046801835
73	0xbb581ab5	-0.0032974903
74	0xbba53df7	-0.005042787
75	0xbcdda0fe	-0.027054306
76	0xbd832f92	-0.06405558
77	0xbc4e1b96	-0.012579819
78	0x3cddb380	0.027063131
79	0x3d01d7d2	0.031699963
80	0x3d895ec7	0.067075305
81	0x3d97daf9	0.074148126
82	0x3d5b1431	0.053486053
83	0xbc535ae1	-0.012900085
84	0x3d4a6a83	0.049417984
85	0x3d817756	0.0632159
86	0x3d87a108	0.06622511
87	0xbd8fe1e4	-0.07025507
88	0xbc067c7b	-0.008208389
89	0x3d8d003b	0.068848096
90	0xbd6e6da4	-0.05821003
91	0x3d9a5e19	0.07537479
92	0xbd0aa2c4	-0.03384663
93	0xbd24ad1b	-0.04020415
94	0x3d0a2493	0.033726286
95	0xbb4f8810	-0.0031666793
96	0xbd375be7	-0.04476538
97	0xbd5ccf92	-0.053908892
98	0x3d0ffb88	0.03515199
99	0x3ab24fd2	0.001360411
100	0xbd2d704c	-0.042343423
101	0xbd513329	-0.05107418
102	0x3b0e9017	0.0021753365
103	0x3b479188	0.0030451734
104	0x3d86147d	0.065468766
105	0x3cd567e3	0.026050514
106	0xbd9068c6	-0.07051234
107	0xbc34ed57	-0.011042914
108	0x3cfd9366	0.030954074
109	0x3d826982	0.0636778
110	0x3c8aa470	0.016924113
111	0x3b1ecfcf	0.002423275
112	0x3d8c0765	0.06837348
113	0x3d299d6d	0.0414099
114	0xbc70ddd7	-0.014701328
115	0xbd903951	-0.07042182
116	0x3c62501e	0.013813047
117	0x3d37b376	0.04484888
118	0x3d33a903	0.043862354
119	0xbd95adfd	-0.07308576
120	0x3c5b436f	0.013382777
121	0x3d180cc4	0.03712155
122	0xbc9778fe	-0.01849031
123	0x3d5d4a2a	0.054025806
124	0x3d08429f	0.03326666
125	0xbda4c61a	-0.080455974
126	0x3cc6c41f	0.02426344
127	0xbd2e66f5	-0.042578656
128	0xbc227153	-0.009914714
129	0x3d8f564e	0.06998883
130	0xbd613c9f	-0.054989453
131	0x3d493384	0.049121395
132	0x3cedc705	0.029025564
133	0xbb24fa5b	-0.0025173638
134	0xbd874b63	-0.06606176
135	0xbc76c189	-0.015060791
136	0x3cfb4380	0.030671835
137	0xbc1eaf16	-0.009685298
138	0x3b3139a4	0.0027042413
139	0xbd863b3e	-0.06554268
140	0xbc121867	-0.008916951
141	0x3d06e05c	0.03292881
142	0xbd5c8aa0	-0.05384314
143	0x3d3b4edc	0.045729503
144	0x3d2e9e09	0.042631183
145	0x3cb03fb6	0.021514755
146	0x3c2deee2	0.010616036
147	0x3d292792	0.041297503
148	0xbd3acb62	-0.045604117
149	0x3d390956	0.04517492
150	0x3ce2f109	0.027702825
151	0x3bf0e4b8	0.007351484
152	0xbd9d90e0	-0.07693648
153	0x3d6b7c68	0.05749169
154	0xbd456833	-0.048195075
155	0x3bc77902	0.0060874233
156	0x3d7350d9	0.059403274
157	0x3d58e7a8	0.0529553
158	0xbc55a21e	-0.01303914
159	0xbd70ea2a	-0.058817066
160	0x3a02645e	0.00049740623
161	0xbd85e928	-0.06538612
162	0xbd46a024	-0.048492566
163	0x3d23fed4	0.040037945
164	0x3d162ca8	0.03666368
165	0x3d227951	0.039666478
166	0xbd1b72fa	-0.037951447
167	0xbd758f29	-0.05995098
168	0x3d775aae	0.060389213
169	0x3a1272f3	0.0005586587
170	0xbd8a666c	-0.06757817
171	0xbbfdbb4c	-0.007743275
172	0x3cf0769a	0.029353429
173	0xbd7d02a1	-0.061770085
174	0x3bfcc3df	0.0077137793
175	0xbd0bd587	-0.034139182
176	0xbccc4aba	-0.024937976
177	0x3c6a6de3	0.014308426
178	0xbcad9ecf	-0.02119389
179	0x3d123462	0.035694487
180	0xbcf2d2c5	-0.029641518
181	0xbd8201a1	-0.06347967
182	0x39af0a69	0.00033386357
183	0xbcdc9088	-0.026924387
184	0xbd3334d8	-0.043751568
185	0xbd803dbd	-0.06261776
186	0x3cbded92	0.023184571
187	0x3c15ccda	0.009143079
188	0x3d5a7313	0.0533324
189	0x3d2a11e3	0.041520964
190	0xbd8274ed	-0.06369958
191	0x3cbae07c	0.02281212
192	0xbc98f892	-0.018673215
193	0xbc342f7a	-0.010997647
194	0xbd803146	-0.06259398
195	0x3a07dcdd	0.00051827525
196	0xbbfe0f0f	-0.00775326
197	0xbd5ab461	-0.05339468
198	0x3d5b36ef	0.053519186
199	0xbd3e3c23	-0.04644407
200	0x3cd0908a	0.025459547
201	0xbd713163	-0.05888499
202	0x3d968e1b	0.07351323
203	0x3c29416b	0.010330538
204	0x3d39a616	0.045324408
205	0xbcc9939e	-0.024606522
206	0x3d7e6d76	0.06211611
207	0xbc8407a3	-0.016116923
208	0x3bb13024	0.00540735
209	0xbc8b5d1c	-0.017012171
210	0x3b1fe1f3	0.002439615
211	0x3d800b30	0.06252134
212	0x3d8bdefe	0.06829642
213	0x3d1cef10	0.038313925
214	0x3c9f876c	0.019473754
215	0xbd386954	-0.045022324
216	0x3d62251e	0.05521118
217	0xbc4adfa3	-0.012382421
218	0xba251022	-0.00062966545
219	0x3c8ec98b	0.017430088
220	0x3cd571c3	0.026055222
221	0xbc0cfd36	-0.008605292
222	0xbd3aa32f	-0.04556578
223	0xbc3dbed9	-0.011581146
224	0x3d6d4120	0.057923436
225	0xbd16e2a3	-0.03683723
226	0x3d7a9707	0.061179187
227	0x3d5ae682	0.053442486
228	0x3c822929	0.015888767
229	0xbc6d795c	-0.014494266
230	0x3d098b65	0.033580203
231	0x3d2bd367	0.041949656
232	0xbd878f52	-0.06619133
233	0xbd934b35	-0.07192079
234	0x3d41ef71	0.04734749
235	0xbc38a23d	-0.011269149
236	0xbbaf6684	-0.005352797
237	0x3cbcd672	0.023051474
238	0x3d1de59e	0.03854906
239	0xbd092280	-0.033480167
240	0x3d408556	0.04700216
241	0xbc2e88d7	-0.010652742
242	0x3c6eb45b	0.014569367
243	0x3c290db5	0.010318209
244	0x3d1f7d4c	0.03893785
245	0x3d878b00	0.06618309
246	0x3d076dab	0.033063572
247	0xbd8ede10	-0.06975949
248	0x3b96749e	0.0045915386
249	0x3c1f3c53	0.009718972
250	0xbcefe60f	-0.029284505
251	0x3c78e882	0.015192153
252	0x3cb5c919	0.022190617
253	0x3d70562f	0.05867594
254	0x3d6dd252	0.058061905
255	0x3d04b756	0.032401405

bias f4 [128]
0	0x3bfa01a3	0.0076295896
1	0xbcf5082e	-0.029911127
2	0x3d7936cd	0.060843278
3	0xbce46ea2	-0.027884785
4	0xbd0b3b59	-0.033992145
5	0x3ce55f78	0.027999625
6	0xbd4e1d1d	-0.050320733
7	0xbd6ea7d8	-0.058265537
8	0x3be0b5f1	0.0068576266
9	0xbd45c720	-0.048285604
10	0xbd42b36e	-0.0475344
11	0xbd02401e	-0.03179943
12	0x3bde6773	0.0067872345
13	0xbd1c26b6	-0.038122855
14	0xbd8e8900	-0.069597244
15	0xbd47e55d	-0.048802722
16	0x3c3210cb	0.010868262
17	0x3ce521c5	0.027970204
18	0x3d56e421	0.052463654
19	0xbcbbc1d6	-0.022919577
20	0xbca6a35f	-0.020341573
21	0xbd59c6fc	-0.053168282
22	0xbcb7069b	-0.022342017
23	0xbd87f76d	-0.066389896
24	0x3d4e23c2	0.05032707
25	0x3c802686	0.01564337
26	0x3d6e4d49	0.058179174
27	0x3ddd5436	0.108070776
28	0x3d4e6415	0.050388414
29	0xba94f900	-0.0011365712
30	0x3d77e3cc	0.06051998
31	0xbd0e2287	-0.034700897
32	0x38e75f31	0.00011032669
33	0xbd88cf3c	-0.06680152
34	0x3c06ad7b	0.008220072
35	0xbc33ffcd	-0.010986281
36	0xbc9ac15a	-0.018891025
37	0xbcfe590b	-0.031048318
38	0x3d39c786	0.045356296
39	0xbb9d6ed0	-0.0048044696
40	0x3d5f87ed	0.05457299
41	0x3d672e53	0.056440663
42	0xbcdde9ae	-0.027088966
43	0x3ca106e0	0.019656599
44	0x3cb5005d	0.0220949
45	0xbd7a48ba	-0.061104514
46	0xbc9d476c	-0.019199096
47	0xbd1d3b1a	-0.03838644
48	0x3d45e80f	0.04831701
49	0x3c407924	0.011747632
50	0xbd6847ea	-0.056709208
51	0x3d8bb438	0.068214834
52	0xbd5ae01f	-0.053436395
53	0x3c140002	0.009033205
54	0x3dc249bf	0.09486722
55	0xbd66aa0d	-0.056314517
56	0x3cdf4a9d	0.027257258
57	0xbce64bd6	-0.028112333
58	0xbc6f14fb	-0.0145924045
59	0xbd5339a0	-0.051568627
60	0x3d847461	0.0646751
61	0xbd2a1775	-0.041526277
62	0xbcaea884	-0.021320589
63	0x3acb5ed8	0.0015515937
64	0x3d8713a9	0.06595547
65	0x3d8ade95	0.067807354
66	0xbd7d7d46	-0.06188705
67	0xbc6c6a3d	-0.014429626
68	0xbc342a48	-0.010996409
69	0xbcfdcbbb	-0.030980935
70	0xbcf6ab4e	-0.030110981
71	0x3db6d253	0.08926835
72	0x3d11c5f7	0.035589185
73	0x3d9e660e	0.07734309
74	0x3c9fbb4f	0.019498495
75	0x3bf198ce	0.007372952
76	0x3cf0b3f7	0.029382689
77	0xbd796f7b	-0.06089733
78	0xbd889504	-0.066690475
79	0xbd874a57	-0.06605976
80	0x3caf61bb	0.021408906
81	0x3d78dc64	0.060757056
82	0x3cc24e0a	0.023718853
83	0x3b6ad577	0.0035832801
84	0x3c4545e8	0.012040593
85	0xbda13001	-0.07870484
86	0xbd5e53cc	-0.054279134
87	0xbd9959e5	-0.07487849
88	0xbd810bfc	-0.06301114
89	0x3d04a0d5	0.032379944
90	0x3d89c944	0.067278415
91	0x3d90b720	0.07066178
92	0xbd6a9903	-0.05727483
93	0xbd463e8e	-0.0483995
94	0xbd2c4c26	-0.04206481
95	0x3cf518ce	0.029919054
96	0x3d5e4915	0.054268915
97	0x3d8b4435	0.06800119
98	0x3ddd8aa5	0.1081746
99	0xbd161a65	-0.036646266
100	0x3d80027f	0.06250476
101	0xbbc89768	-0.0061215647
102	0xbc4bcd3b	-0.0124390675
103	0xbcd1490e	-0.02554753
104	0x3bf6b507	0.0075289044
105	0x3c94ffbb	0.018188348
106	0x3d69a2f3	0.057040166
107	0xbd2f551f	-0.042805787
108	0x3d4ddf7a	0.050261952
109	0x3d78700f	0.060653742
110	0xbcc056f7	-0.023478968
111	0xbd4ccfba	-0.05000279
112	0xbd942e12	-0.0723535
113	0x3d09cc85	0.03364231
114	0xbd9215e4	-0.071330816
115	0x3d8931af	0.066989295
116	0xbd0d57af	-0.03450745
117	0xbb80849f	-0.0039220597
118	0x3d8002ed	0.06250558
119	0x3d85910a	0.06521805
120	0x3cb7d8b8	0.022442207
121	0x3d70bb79	0.058772538
122	0x3d462266	0.04837265
123	0xbbd4a1bc	-0.006489007
124	0x3d816c60	0.06319499
125	0xbd5784af	-0.05261677
126	0xbcac9945	-0.021069178
127	0xbc8e18b1	-0.017345758

weight f4 [1, 1664]
0	0x3cbfa93c	0.023396127
1	0xbb9c985b	-0.0047789044
2	0xbcadfaf1	-0.021237822
3	0x3c6e161a	0.014531637
4	0x3c3c79fd	0.011503694
5	0xbbffbf6f	-0.007804803
6	0x3c9de4a0	0.019274056
7	0x3b33a754	0.0027412968
8	0xbc5fad2e	-0.013652129
9	0xbc908938	-0.017643556
10	0x3c6fc9d2	0.01463552
11	0xbc96b93d	-0.018398875
12	0x3ceb3511	0.028711827
13	0x3ac1b23f	0.0014777853
14	0xbbf07a97	-0.0073388326
15	0xbcad86c9	-0.021182435
16	0xbc6b8e23	-0.01437715
17	0xbbc1463f	-0.0058982666
18	0x3cca6be2	0.024709646
19	0xbc06dc34	-0.008231211
20	0xbc6c33b9	-0.0144166285
21	0x3cc59df5	0.024123171
22	0xbc7a08e2	-0.015260907
23	0x3c861e3a	0.016371835
24	0x3caf1757	0.021373434
25	0xbaa94cea	-0.0012916599
26	0x3baa2088	0.0051918663
27	0x3c886dd6	0.016653936
28	0x3bffae9d	0.007802798
29	0x3be58805	0.00700474
30	0xbb3080f1	-0.0026932324
31	0x3cb78241	0.022400977
32	0xbca9fa82	-0.020749334
33	0x3c834d8e	0.016028192
34	0xbb1594c9	-0.0022824279
35	0xbcc1ada8	-0.023642376
36	0xbccab4f0	-0.02474448
37	0xbc045a43	-0.008078161
38	0x3c8c6b50	0.017141014
39	0xbb4e5420	-0.0031483248
40	0xbcb1d729	-0.021709042
41	0x3c1ed62d	0.009694618
42	0x3c9100a3	0.017700499
43	0x3cbac886	0.022800695
44	0xbcaafd2b	-0.020872673
45	0x3af00e98	0.0018314896
46	0x3c10a946	0.00882942
47	0xbc416b6f	-0.011805399
48	0xbc841e06	-0.016127598
49	0xbc95fce2	-0.01830906
50	0x3c071dd5	0.008246859
51	0x3bc3d57d	0.0059763775
52	0x3c46eb12	0.012141006
53	0x3b807c36	0.003921057
54	0xbcae04ed	-0.021242583
55	0x3c74c77a	0.014940137
56	0xbbf5bf15	-0.0074995854
57	0xbc003ee3	-0.007827493
58	0x3ca8d2e9	0.020608382
59	0xbaab62a8	-0.0013075667
60	0x3c9fda1e	0.019513186
61	0x3bb6d9d5	0.005580167
62	0x3c9c33f1	0.019067736
63	0xbb9a1bf9	-0.0047030416
64	0x3b63d157	0.0034762227
65	0x3b8059ef	0.003916971
66	0xbc1a932f	-0.009434505
67	0xbc16fd23	-0.009215626
68	0x3b280bd0	0.0025641806
69	0x3c0df30f	0.008663907
70	0x3be7958c	0.007067388
71	0x3bd58df1	0.006517165
72	0x3c03e155	0.008049329
73	0xbb3795aa	-0.002801279
74	0xbc1beb97	-0.009516618
75	0x3c32cb9a	0.0109128
76	0xbc76c8f6	-0.015062561
77	0xbc1c3fba	-0.009536678
78	0xbb3cdd3e	-0.0028818394
79	0xbbe0e285	-0.0068629407
80	0x3ca8d3d8	0.020608827
81	0x3ca6dfab	0.020370325
82	0xbc8e8549	-0.01739754
83	0x3b4a02df	0.0030824465
84	0x3c9fdee8	0.01951547
85	0x3c738f56	0.014865717
86	0x3c189bd9	0.009314501
87	0x3be1c94e	0.0068904525
88	0xbc45e832	-0.012079285
89	0x3cb8f439	0.022577392
90	0x3c92863e	0.017886277
91	0xbc83ee8e	-0.016104963
92	0x3cbdd84d	0.02317443
93	0xbb98c629	-0.0046622944
94	0xbbfb941e	-0.007677569
95	0x3c5db078	0.013530843
96	0xbcc57f5e	-0.024108585
97	0xbc38b804	-0.0112743415
98	0xbc9bac3d	-0.019003028
99	0xbc03d93c	-0.008047398
100	0xba58a6a8	-0.000826458
101	0xbc96508e	-0.018348958
102	0xbc2903a1	-0.010315807
103	0x3bf63e54	0.0075147543
104	0x3c8381ca	0.0160531
105	0xbcaacfa3	-0.020850962
106	0x3cb18f5a	0.0216748
107	0xbc8649f9	-0.016392695
108	0xbc279c41	-0.010230125
109	0xbba1bdf4	-0.0049359743
110	0x3c9d9c5e	0.0192396
111	0xbca74adf	-0.020421444
112	0x3c7e5657	0.015523515
113	0xbaecbe30	-0.0018062051
114	0xbc5297c9	-0.012853571
115	0x3bd0b422	0.0063691298
116	0x3c0ea01f	0.008705168
117	0x3c620f85	0.013797645
118	0xbbb70e7a	-0.0055864425
119	0x3c663e16	0.014052888
120	0xbc81b6d5	-0.015834251
121	0x3bb32ff0	0.005468361
122	0x3c1506b5	0.009095837
123	0xbc8744d9	-0.016512321
124	0x3cb023cd	0.021501446
125	0xbbe30a09	-0.0069286865
126	0x3cacf947	0.021114958
127	0x3c9f3e4a	0.019438881
128	0xbcc51eb6	-0.024062496
129	0x3c59e157	0.013298354
130	0x3c8f79b9	0.017514097
131	0x3b078d9a	0.0020683766
132	0xbb7fe38e	-0.0039045545
133	0x3c6072ac	0.013699215
134	0xb8b1bc16	-8.4750514e-05
135	0x3c82129e	0.015878018
136	0xbc2d734b	-0.01058657
137	0xbcc3dcf3	-0.023909068
138	0x3bb5e978	0.0055515133
139	0xbc88db8f	-0.016706256
140	0xbc1918c7	-0.009344286
141	0x3b68a6f8	0.0035499912
142	0x3c085674	0.008321393
143	0xbccd76d4	-0.025081076
144	0x3b0d2a82	0.002154023
145	0x3c45b7c8	0.012067743
146	0xbc966a95	-0.01836137
147	0xbb471474	-0.0030377181
148	0xbbe64e24	-0.007028358
149	0x3b3d7f1d	0.0028914877
150	0xbccedc98	-0.025251672
151	0xbbd6e82d	-0.006558439
152	0x3c935ae1	0.01798767
153	0x3c0a0df1	0.008426175
154	0x39dbcab2	0.00041921955
155	0x3c08135e	0.008305399
156	0xbb234aca	-0.0024916404
157	0x3c8f2228	0.017472342
158	0x3c7b468b	0.015336643
159	0xbbe9831d	-0.0071262256
160	0xbc0cdae5	-0.00859711
161	0xbbf06b19	-0.007336986
162	0x3be22463	0.0069013103
163	0x3cc2ede6	0.02379508
164	0xbc5a8f55	-0.013339837
165	0x3cb41ee6	0.02198739
166	0x3cbf4a4d	0.023350859
167	0xbba07e7e	-0.0048978915
168	0x3a574b48	0.0008212817
169	0xb8c855ed	-9.552748e-05
170	0xbbde760e	-0.0067889756
171	0x3c75b63b	0.01499706
172	0xbc959653	-0.018260157
173	0xbaca2004	-0.0015420918
174	0x3a0e55ec	0.00054296735
175	0x3c04f5c2	0.008115234
176	0xbc29fabe	-0.010374723
177	0xbb8e425b	-0.0043414063
178	0x3c9281c3	0.01788414
179	0xb97ccfd8	-0.0002411002
180	0x3c6a9d3f	0.014319717
181	0x3b1c8f9d	0.002388931
182	0x39af550c	0.00033441966
183	0xbb7a3a03	-0.003818155
184	0x3c496471	0.0122920135
185	0xbc45e522	-0.012078555
186	0xbb018aa8	-0.0019766483
187	0x3b587e24	0.003303417
188	0x3c84d64d	0.016215468
189	0xbb9c72be	-0.0047744205
190	0x3b935fba	0.0044974955
191	0x3c8a74f7	0.016901476
192	0xbca40798	-0.020023152
193	0xbbb4072e	-0.00549402
194	0x3bc245a3	0.0059287115
195	0x3bf3d90f	0.007441647
196	0xbca5c985	-0.020237694
197	0x3ca1ce40	0.019751668
198	0xbb5a4f44	-0.0033311406
199	0x3ca1d2d6	0.019753855
200	0x3b1f9bfc	0.0024354449
201	0xbad7e9aa	-0.0016472836
202	0xbc5dc2a0	-0.013535172
203	0xbc9a0544	-0.018801339
204	0x3cad3db8	0.021147594
205	0xbcb54994	-0.022129811
206	0xbc91fe5c	-0.017821483
207	0xbbb5110c	-0.005525714
208	0x3c0c19a7	0.008551038
209	0x3ca30db3	0.019903993
210	0x3a31f966	0.00067891774
211	0xbb8d55c5	-0.004313203
212	0x3c3595b5	0.011083056
213	0xbc58d91c	-0.013235357
214	0x3ca905ca	0.020632643
215	0xbc5d1e62	-0.013496013
216	0xbb1a315e	-0.002352796
217	0xbca4a1e9	-0.020096736
218	0xbb01b09e	-0.001978911
219	0xbb93a596	-0.0045058234
220	0x3c92f749	0.01794018
221	0x3c02163f	0.007939874
222	0xbc8463f6	-0.016160946
223	0x3b7b6dcb	0.0038365002
224	0x3c4e8083	0.012603882
225	0xbbc2bbc4	-0.0059427936
226	0x3b17302e	0.0023069489
227	0x3c5ed35e	0.013600199
228	0x3bd77978	0.0065757595
229	0x3be6c55b	0.0070425696
230	0xbc6a9d8c	-0.014319789
231	0xba9adbdc	-0.0011814791
232	0xbbe4914b	-0.006975328
233	0x3ac0b671	0.0014702809
234	0x3c06cd9e	0.008227734
235	0xbab41a95	-0.0013740832
236	0xbb56a23a	-0.0032750503
237	0x3c0d2d54	0.008616764
238	0xbbc94824	-0.006142633
239	0x39a0f2e7	0.00030698554
240	0xbce0b936	-0.027432065
241	0x3ba7db71	0.005122595
242	0x3c321fb9	0.010871821
243	0xbb4405ab	-0.0029910605
244	0xbc3580ed	-0.011078102
245	0xbcf4d82c	-0.029888235
246	0x3bd6c5b6	0.0065543307
247	0xbcadee2d	-0.021231735
248	0xbc548c0d	-0.012972844
249	0x3c19389b	0.009351875
250	0xbadf54ce	-0.0017038824
251	0x3b95008f	0.0045471857
252	0x3c72e55a	0.0148251895
253	0x391a2b0d	0.00014702622
254	0xbbd8f7b3	-0.006621325
255	0xbc080c3d	-0.008303699

weight f4 [1664]
0	0x3f7fb850	0.99890614
1	0x3f7ecef1	0.9953452
2	0x3f7fd356	0.9993185
3	0x3f7f9aef	0.99845785
4	0x3f7f6a49	0.99771553
5	0x3f7efb9f	0.99602693
6	0x3f8029e6	1.0012786
7	0x3f7d0da8	0.9884896
8	0x3f7e90bf	0.99439615
9	0x3f7fd87f	0.9993972
10	0x3f803d89	1.0018779
11	0x3f800476	1.0001361
12	0x3f80bfa0	1.0058479
13	0x3f7ccead	0.9875286
14	0x3f7e6c93	0.9938442
15	0x3f7f39c1	0.996975
16	0x3f7f6acb	0.9977233
17	0x3f7f2264	0.9966185
18	0x3f802d60	1.0013847
19	0x3f7f6fec	0.99780154
20	0x3f7f691b	0.99769753
21	0x3f806761	1.0031549
22	0x3f7eb36d	0.9949253
23	0x3f803669	1.0016605
24	0x3f802f07	1.0014352
25	0x3f7c313c	0.98512626
26	0x3f7e0eaf	0.99241155
27	0x3f7ed534	0.9954407
28	0x3f7e8b26	0.99431074
29	0x3f7e3fe0	0.99316216
30	0x3f78fe19	0.9726272
31	0x3f7f7b46	0.99797475
32	0x3f7fed63	0.999716
33	0x3f7f45a7	0.99715656
34	0x3f7c3327	0.9851555
35	0x3f7fd94b	0.9994094
36	0x3f7fdfda	0.99950945
37	0x3f7f0eda	0.99632037
38	0x3f7eb846	0.9949993
39	0x3f7ede82	0.9955827
40	0x3f7f5075	0.9973214
41	0x3f7f83af	0.9981031
42	0x3f7f7bad	0.9979809
43	0x3f800697	1.0002011
44	0x3f7f785e	0.9979304
45	0x3f79defe	0.97605884
46	0x3f7ff189	0.9997793
47	0x3f7f1dc1	0.99654776
48	0x3f7f550b	0.9973914
49	0x3f7eea76	0.9957651
50	0x3f7fab27	0.9987053
51	0x3f7e5825	0.9935325
52	0x3f7fab33	0.99870604
53	0x3f7ee5a4	0.99569154
54	0x3f7fee24	0.9997275
55	0x3f7f7f53	0.99803656
56	0x3f7f7fb7	0.9980425
57	0x3f7f9105	0.9983066
58	0x3f7fc03d	0.9990271
59	0x3f7dec40	0.99188614
60	0x3f7fcc4b	0.999211
61	0x3f7f0ba5	0.99627143
62	0x3f7fbcd4	0.99897504
63	0x3f7f3c5a	0.99701464
64	0x3f7dbd9e	0.9911746
65	0x3f7dda97	0.99161667
66	0x3f801a95	1.0008112
67	0x3f808d70	1.0043163
68	0x3f7c45ae	0.9854382
69	0x3f7e4f5a	0.9933983
70	0x3f7d1d7b	0.9887311
71	0x3f7dc6e1	0.9913159
72	0x3f7e071e	0.9922961
73	0x3f7c9492	0.986642
74	0x3f7f5e9a	0.99753726
75	0x3f7f0aca	0.9962584
76	0x3f800fd2	1.0004828
77	0x3f7e57df	0.9935283
78	0x3f7ef35a	0.99590075
79	0x3f7f88fc	0.99818397
80	0x3f7fcc82	0.9992143
81	0x3f7fcced	0.99922067
82	0x3f7fd325	0.99931556
83	0x3f7ea428	0.9946923
84	0x3f7fc8a7	0.99915546
85	0x3f7fb81e	0.99890316
86	0x3f7f8f0a	0.99827635
87	0x3f7f6839	0.99768406
88	0x3f7fbecf	0.99900526
89	0x3f7fce0f	0.99923795
90	0x3f7fa845	0.99866134
91	0x3f7fc7ee	0.99914443
92	0x3f7fd89b	0.9993989
93	0x3f7f4b57	0.99724334
94	0x3f7f8a56	0.9982046
95	0x3f7fbc47	0.99896663
96	0x3f7fd5f0	0.9993582
97	0x3f7fad67	0.99873966
98	0x3f7fcc5e	0.99921215
99	0x3f7f8f56	0.9982809
100	0x3f7d8588	0.9903188
101	0x3f7fca63	0.9991819
102	0x3f7fa649	0.99863106
103	0x3f7f7da8	0.9980111
104	0x3f7fc1db	0.99905175
105	0x3f7fd4c1	0.9993401
106	0x3f7fd92d	0.9994076
107	0x3f7fc361	0.999075
108	0x3f7fa7ae	0.99865234
109	0x3f7f55c3	0.99740237
110	0x3f7fd288	0.9993062
111	0x3f7fd078	0.99927473
112	0x3f7fc526	0.999102
113	0x3f7e7b22	0.99406636
114	0x3f7fb9d9	0.99892956
115	0x3f7f6573	0.99764174
116	0x3f7f8e9a	0.9982697
117	0x3f7fb47f	0.9988479
118	0x3f7f6d97	0.99776596
119	0x3f7fb85c	0.99890685
120	0x3f7fca91	0.99918467
121	0x3f7f338b	0.99688023
122	0x3f7f88d7	0.99818176
123	0x3f7fe18c	0.9995353
124	0x3f7f9339	0.9983402
125	0x3f7f869e	0.99814785
126	0x3f7ff780	0.9998703
127	0x3f7f8dbd	0.9982565
128	0x3f7fe278	0.9995494
129	0x3f7f6fa3	0.9977972
130	0x3f7eebe1	0.9957867
131	0x3f795a59	0.97403485
132	0x3f78b344	0.9714854
133	0x3f7e0ee6	0.99241483
134	0x3f7d6674	0.98984456
135	0x3f7f04c5	0.9961665
136	0x3f80050d	1.0001541
137	0x3f801698	1.0006895
138	0x3f7ed4a4	0.99543214
139	0x3f80145e	1.0006216
140	0x3f7fda49	0.9994245
141	0x3f7e330e	0.99296653
142	0x3f7f3ecc	0.99705195
143	0x3f800c4e	1.0003755
144	0x3f7d6a1a	0.98990023
145	0x3f7eb6c6	0.9949764
146	0x3f80414d	1.0019928
147	0x3f771880	0.9652176
148	0x3f7f4910	0.9972086
149	0x3f7d9d17	0.99067825
150	0x3f80799f	1.0037116
151	0x3f7f1805	0.99646026
152	0x3f7e68e8	0.99378824
153	0x3f7e8da5	0.9943488
154	0x3f7ddfee	0.99169815
155	0x3f7fddb8	0.9994769
156	0x3f791f6a	0.9731356
157	0x3f7f9621	0.99838454
158	0x3f7f4303	0.99711627
159	0x3f7fbaa5	0.9989417
160	0x3f7f9908	0.9984288
161	0x3f7f72b3	0.9978439
162	0x3f7f91e6	0.99832
163	0x3f800b31	1.0003415
164	0x3f7f662a	0.99765265
165	0x3f802227	1.0010422
166	0x3f802eef	1.0014323
167	0x3f7ef300	0.9958954
168	0x3f7a5600	0.97787476
169	0x3f7b13d5	0.98077136
170	0x3f7f7a60	0.99796104
171	0x3f802b8c	1.001329
172	0x3f7f15fa	0.9964291
173	0x3f7e5630	0.9935026
174	0x3f79a412	0.97515976
175	0x3f7faf10	0.998765
176	0x3f7f6a27	0.9977135
177	0x3f7e877c	0.9942548
178	0x3f8052ad	1.0025231
179	0x3f7ce188	0.98781633
180	0x3f7f9f5e	0.9985255
181	0x3f7e44c4	0.9932368
182	0x3f7ba915	0.98304874
183	0x3f7f2fbc	0.9968221
184	0x3f7fabc8	0.9987149
185	0x3f7fb8c8	0.9989133
186	0x3f7e907e	0.9943923
187	0x3f7ebb83	0.9950487
188	0x3f7fbffe	0.9990233
189	0x3f7f5497	0.9973845
190	0x3f7f16d7	0.99644226
191	0x3f7fc033	0.9990265
192	0x3f7fd7c3	0.999386
193	0x3f7f68ec	0.99769473
194	0x3f7f5086	0.99732244
195	0x3f7f92ce	0.9983338
196	0x3f7f89ac	0.99819446
197	0x3f7ffbb5	0.9999345
198	0x3f7f2795	0.9966977
199	0x3f7f9b18	0.9984603
200	0x3f7e63cf	0.99371046
201	0x3f7e74e5	0.99397117
202	0x3f7fd9c6	0.9994167
203	0x3f7fe0f4	0.99952626
204	0x3f7f6670	0.9976568
205	0x3f7fdf75	0.99950343
206	0x3f8014f6	1.0006397
207	0x3f7f69bb	0.99770707
208	0x3f7ef381	0.9959031
209	0x3f7e959a	0.99447024
210	0x3f7ce015	0.9877942
211	0x3f7c97be	0.9866904
212	0x3f7eaf40	0.9948616
213	0x3f7f96c4	0.99839425
214	0x3f7f5ab8	0.997478
215	0x3f7f86f9	0.99815327
216	0x3f7c5571	0.98567873
217	0x3f800a4d	1.0003144
218	0x3f7b215f	0.98097795
219	0x3f7da0ba	0.99073374
220	0x3f7f0c81	0.99628454
221	0x3f7fe42c	0.9995754
222	0x3f7eedd9	0.99581677
223	0x3f7b3451	0.98126704
224	0x3f8006bf	1.0002059
225	0x3f7eb88e	0.9950036
226	0x3f7b190f	0.9808511
227	0x3f802a48	1.0012903
228	0x3f7f67d1	0.99767786
229	0x3f7f6fd1	0.99779993
230	0x3f7eee11	0.9958201
231	0x3f7e1ef0	0.99265957
232	0x3f7eb811	0.99499613
233	0x3f7e4316	0.99321115
234	0x3f7e580b	0.9935309
235	0x3f7bc128	0.9834161
236	0x3f7d31f4	0.9890435
237	0x3f7c723c	0.9861181
238	0x3f7d2ad6	0.9889349
239	0x3f7d5655	0.9895986
240	0x3f80938f	1.0045031
241	0x3f7deb07	0.9918675
242	0x3f7e3c4d	0.9931076
243	0x3f7cf806	0.98815954
244	0x3f806429	1.0030566
245	0x3f80a4de	1.0050313
246	0x3f7c16cf	0.98472303
247	0x3f7fd42e	0.99933136
248	0x3f7fd479	0.9993358
249	0x3f7f7dc3	0.9980127
250	0x3f7e5829	0.9935327
251	0x3f7f13c2	0.99639523
252	0x3f7f9778	0.998405
253	0x3f77c4fe	0.9678496
254	0x3f7fc797	0.99913925
255	0x3f7f4320	0.997118

bias f4 [1664]
0	0xb88b4f4d	-6.6428074e-05
1	0xba92f0fa	-0.0011210733
2	0xb92aea4b	-0.00016299744
3	0xb99a9222	-0.00029482046
4	0xb9bcecf9	-0.00036034713
5	0xb9c555f3	-0.00037638805
6	0xb9b46583	-0.00034407908
7	0xbbbe5045	-0.0058079087
8	0xb8e0a1f6	-0.0001071132
9	0xb94b64be	-0.00019397118
10	0xba0bad50	-0.0005328255
11	0xb9ad8c7b	-0.00033101797
12	0x37e7afd8	2.761923e-05
13	0xbb24c1ab	-0.002513985
14	0xba8b2ad0	-0.0010617618
15	0xb9f45bc2	-0.00046607672
16	0xba2ff570	-0.0006712293
17	0xbae5f816	-0.0017545249
18	0xba06e429	-0.0005145693
19	0xbab27ec3	-0.00136181
20	0xba437836	-0.00074565725
21	0xba1beba6	-0.0005947895
22	0xb9e7c453	-0.00044206026
23	0xba16a20a	-0.00057461916
24	0xba01ce5b	-0.0004951709
25	0x3bfcb6fe	0.007712244
26	0xb90e1322	-0.00013549303
27	0xb9d23280	-0.00040091947
28	0xba7232f2	-0.0009239159
29	0xba7b61a0	-0.00095894374
30	0xbc744f39	-0.014911466
31	0xba09b3de	-0.00052529376
32	0xba05c9e0	-0.0005103629
33	0xba2da42a	-0.00066238886
34	0xbbd9812d	-0.0066377134
35	0xb9cbf59b	-0.00038902168
36	0xb9ca14de	-0.0003854399
37	0xba738057	-0.00092888385
38	0xba2787ec	-0.00063907984
39	0x3b01a1eb	0.0019780349
40	0x39818558	0.00024704146
41	0x3a05e1fd	0.0005107222
42	0x397f01a4	0.00024319306
43	0x393a2a78	0.00017754163
44	0x399564ff	0.00028494743
45	0x3bf914aa	0.0076013403
46	0x3a2092fa	0.0006125417
47	0x39e6c5b5	0.00044016322
48	0x39a03e8e	0.00030564185
49	0x3993597c	0.00028104696
50	0x3a4468d8	0.00074924296
51	0x3a312628	0.00067577
52	0x3aa8a057	0.0012865168
53	0x3b89a7a3	0.004200892
54	0x3a4c00e8	0.00077821175
55	0x3a818abd	0.0009883266
56	0x3b064aa0	0.0020491257
57	0x3b00155a	0.0019543977
58	0x3a3e1050	0.00072503556
59	0x3c1a0ed5	0.00940295
60	0x3a4bcbfa	0.00077742303
61	0x3b2f2014	0.0026722
62	0x3a4f7a6c	0.00079146656
63	0x3b4a832c	0.0030900938
64	0x3adfee2b	0.0017084529
65	0x39fff80a	0.00048822194
66	0x39d7fe22	0.0004119734
67	0x3b1862f6	0.0023252345
68	0x3ad7fb8d	0.0016478166
69	0x3a15b360	0.0005710628
70	0x3887cf52	6.475918e-05
71	0xb8cd527f	-9.790528e-05
72	0xb98f1f0a	-0.0002729821
73	0xbb502d28	-0.0031765196
74	0xb9ca6fa4	-0.0003861162
75	0xb9a643b9	-0.00031712445
76	0x39a2fe06	0.0003108831
77	0x3a1aff13	0.0005912643
78	0x3b9c4f3b	0.004770187
79	0x3b111c63	0.0022142164
80	0x3a3d358b	0.00072177564
81	0x3a3f92ee	0.0007307966
82	0x3a757cf6	0.0009364629
83	0x3bb80347	0.005615625
84	0x3a485f21	0.000764357
85	0x3a866ff6	0.0010256756
86	0x3add23f3	0.0016871676
87	0x3b182e5c	0.0023220992
88	0x3aabceff	0.0013107954
89	0x3a2a5210	0.00064972136
90	0x3a5b88d1	0.0008374574
91	0x3a83a387	0.0010043242
92	0x3a27d959	0.0006402932
93	0x3b48fa49	0.003066676
94	0x3b008edb	0.0019616398
95	0x3a976d49	0.0011552955
96	0x3a3672cb	0.00069598545
97	0x3ab6699b	0.0013916971
98	0x3a6265f8	0.00086364103
99	0x3af784f0	0.0018884223
100	0x3c3756b0	0.0111901015
101	0x3a69d065	0.0008919298
102	0x3ac62cd7	0.0015119564
103	0x3b0e9d32	0.0021761176
104	0x3a78dc4d	0.00094932766
105	0x3a4e6013	0.00078725925
106	0x3a32fd24	0.0006827882
107	0x3a7f5667	0.0009740353
108	0x3ac5816c	0.0015068478
109	0x3b3e31e4	0.0029021436
110	0x3a4c5a92	0.00077954785
111	0x3a5250e9	0.0008022921
112	0x3a8105fa	0.00098437
113	0x3be10b5c	0.006867809
114	0x3aa0ef55	0.0012278358
115	0x3b28287c	0.0025658896
116	0x3af079fc	0.0018346901
117	0x3a934d9e	0.0011238342
118	0x3b2f214c	0.0026722727
119	0x3a8fb75d	0.0010964681
120	0x3a8587e3	0.0010187592
121	0x3b391da9	0.0028246439
122	0x3ae34c11	0.0017341395
123	0x3a8316e2	0.0010001326
124	0x3a2efc29	0.0006675148
125	0x3b140de1	0.002259128
126	0x3a3bf78e	0.00071703724
127	0x3a45c701	0.00075446075
128	0x3a393b02	0.0007065983
129	0x3a8679ab	0.0010259649
130	0x3a260f91	0.0006334717
131	0x3b2d6894	0.0026460038
132	0x3a7ba489	0.0009599408
133	0x39379a4e	0.00017509723
134	0x3b7ffb2a	0.0039059618
135	0x3a435b3c	0.00074522546
136	0x3ac522a4	0.0015040231
137	0x3a31410f	0.00067617086
138	0x3b125f4f	0.002233464
139	0x3a80e45c	0.0009833681
140	0x3ae67e56	0.0017585258
141	0x3b884654	0.0041587744
142	0x3ae24eaf	0.0017265881
143	0x3a268026	0.0006351493
144	0x3b7dbdf1	0.003871795
145	0x3a2f50b5	0.00066877465
146	0x3a390dc5	0.0007059242
147	0x3b60fcbe	0.0034330334
148	0x3b0a99af	0.0021148731
149	0x3b0693fe	0.0020534988
150	0x39f0b077	0.00045907844
151	0x3acee4d8	0.0015784753
152	0x39b401b8	0.00034333556
153	0x3a3bee2a	0.0007168973
154	0x3ba87837	0.005141284
155	0xba82558b	-0.0009943707
156	0xba2d2554	-0.00066049886
157	0xb9fcb3a5	-0.0004819903
158	0xba01e374	-0.00049548526
159	0xbac4951a	-0.0014998049
160	0xba6f4699	-0.00091276463
161	0xba823c3c	-0.0009936164
162	0xba90acbf	-0.001103781
163	0xb9c4124e	-0.0003739767
164	0xb9fe0912	-0.00048453413
165	0xb9dbd869	-0.00041932173
166	0xb9d68d7a	-0.0004092267
167	0xbaa14817	-0.001230481
168	0xbc3a3580	-0.011365294
169	0x3cbc51d3	0.022988236
170	0x3b176f8d	0.002310726
171	0x3a7ed860	0.00097215734
172	0x3a5978a4	0.000829587
173	0x3be383f3	0.00694322
174	0x3ce1056a	0.027468402
175	0x3b0ee7c1	0.0021805617
176	0x3ac40398	0.0014954684
177	0x3b3b10c6	0.0028543933
178	0x3a5e1e71	0.0008473164
179	0x3c14eb4b	0.009089301
180	0x3a922cb4	0.0011152239
181	0x3bcd0ddd	0.006257756
182	0x3c9daac4	0.019246466
183	0x3b78cb22	0.0037962873
184	0x3aa5d258	0.0012651188
185	0x3aabcc54	0.0013107159
186	0x3bd3fbb6	0.0064692153
187	0x3bac1a51	0.0052521606
188	0x3a760342	0.0009384641
189	0x3b495838	0.0030722748
190	0x3b736288	0.0037137587
191	0x3a6b23e3	0.0008969886
192	0x3a5879b2	0.000825788
193	0x3b311bbb	0.0027024585
194	0x3b33f0f0	0.0027456842
195	0x3b16514c	0.002293664
196	0x3a32e36d	0.000682405
197	0x3a340584	0.0006867277
198	0x3b719776	0.003686396
199	0x3a18a428	0.0005822801
200	0x3bca31cb	0.0061704866
201	0x3bb9e03d	0.0056724832
202	0x3a50feaf	0.0007972521
203	0x3a242b6f	0.00062625756
204	0x39af370a	0.00033419608
205	0x39e9159e	0.0004445733
206	0x3a096a6d	0.0005241994
207	0x3b0e2637	0.0021690258
208	0x3a9f6e85	0.0012163675
209	0x3a0a76ee	0.0005282004
210	0x3b4fc53f	0.0031703261
211	0xb8204918	-3.8215047e-05
212	0x3a3a954d	0.00071175845
213	0x3a881cb3	0.001038453
214	0x3a008e98	0.00049040606
215	0x3a667cdd	0.000879241
216	0x3b8ffe91	0.0043943604
217	0x3a428554	0.000742038
218	0x3beed43a	0.007288483
219	0x3b4936d1	0.003070284
220	0x3a5ed20a	0.0008499926
221	0x3af00ba1	0.0018314013
222	0x3a0e0e2b	0.00054189813
223	0x3c8a8e9c	0.016913705
224	0x3a702420	0.00091606565
225	0x3a7e69ce	0.0009705097
226	0x3c28533c	0.010273751
227	0x3a5bc579	0.0008383613
228	0x3b19e99a	0.0023485185
229	0x3afd8f16	0.0019345011
230	0x3a038922	0.0005017688
231	0x3acff45a	0.0015865669
232	0x3a584be1	0.0008251053
233	0x3b8564ab	0.0040708384
234	0xb815ecd8	-3.5744946e-05
235	0x3ab811ca	0.0014043387
236	0x3a9cf534	0.0011974932
237	0x3a37941b	0.00070029654
238	0x3b4a3838	0.0030856263
239	0x3b2fdc08	0.002683403
240	0x3a27b4af	0.00063974684
241	0x3ab9b193	0.0014167301
242	0x3a64c6f0	0.0008727154
243	0x3be9b40d	0.0071320594
244	0x3ac63384	0.0015121554
245	0x3a212678	0.0006147395
246	0x399c0eb3	0.0002976559
247	0x3a3f2e14	0.0007292938
248	0x3a92f976	0.0011213261
249	0x3ac2dbbb	0.001486651
250	0x3bee614c	0.0072747823
251	0x3b490f53	0.00306793
252	0x3a6761f0	0.00088265445
253	0x3d82c759	0.06385679
254	0x3b0631f1	0.0020476545
255	0x3ad7d695	0.0016467149
