Single Battery Model/4. CNN Models/model_B0007_discharge_mm.pth (torch, 126732 bytes, 7 tensors)

weight f4 [64, 3, 3]
0	0xbe001634	-0.1250847
1	0x3e1b2f4a	0.15154758
2	0x3d845a28	0.064625084
3	0xbe2a45d3	-0.16628198
4	0xbe5a9bcb	-0.21348493
5	0xbe20ec63	-0.15715174
6	0xbe52c605	-0.20583351
7	0x3ba3c9dc	0.0049984287
8	0x3e631665	0.22176512
9	0x3e9b52ec	0.30336702
10	0x3d2ebe17	0.042661753
11	0x3e1b0ca0	0.15141535
12	0x3e167c66	0.14695892
13	0x3dac640a	0.084175184
14	0x3dedb598	0.11606902
15	0x3c8c9b13	0.017163789
16	0x3d357d6d	0.04430907
17	0xbe075598	-0.13216245
18	0x3e4589c5	0.19290836
19	0x3e8dfa4f	0.27730033
20	0x3e7849fb	0.24246971
21	0xbc3e9866	-0.011633014
22	0x3e2dd8e3	0.16977267
23	0xbea1e59d	-0.31620494
24	0x3d7cfc0f	0.06176382
25	0xbd88d0b8	-0.06680435
26	0x3a0a6cde	0.00052805047
27	0x3e920a0a	0.28523284
28	0x3e1b3af2	0.15159205
29	0x3ea64456	0.3247401
30	0x3dd8797d	0.10570047
31	0xbded0d24	-0.11574772
32	0xbd78148a	-0.060566463
33	0x3dbbc680	0.0916872
34	0xbea40b60	-0.32039928
35	0x3d7684d9	0.060185287
36	0xbe1ba2a0	-0.15198755
37	0xbe745275	-0.2385958
38	0x3e116fe0	0.14202833
39	0x3ba271d1	0.0049574156
40	0xbe941adb	-0.2892674
41	0x3d5bcdd0	0.053663075
42	0xbea2042c	-0.31643808
43	0xbd8427c8	-0.064529
44	0xbe4bcbdc	-0.19901985
45	0x3e6696fc	0.22518533
46	0xbe1460ec	-0.14490098
47	0xbc381e8d	-0.011237753
48	0xbe7b4f86	-0.24542055
49	0xbe0799fc	-0.13242334
50	0x3e84a2c9	0.25905445
51	0x3e90a643	0.28251848
52	0xbe57ede0	-0.21086836
53	0x3ddba41a	0.10724659
54	0xbd8929d9	-0.06697435
55	0xbdec0b94	-0.11525646
56	0xbd6b9739	-0.057517264
57	0xbd503dd2	-0.050840206
58	0xbd993231	-0.074802764
59	0x3d2dae66	0.042402647
60	0x3df00587	0.11719804
61	0xbda807de	-0.082046255
62	0x3e3513db	0.17683356
63	0xbe000918	-0.12503469
64	0x3d9bed10	0.076135755
65	0x3e012273	0.12610798
66	0x3b18aefc	0.0023297658
67	0x3cc788db	0.02435725
68	0xbe8b7014	-0.27233946
69	0xbe1e8e0e	-0.15483877
70	0x3e19354c	0.14961737
71	0xbe542dfe	-0.2072067
72	0xbe15df73	-0.1463602
73	0xbe854e93	-0.2603651
74	0xbe71e4d6	-0.2362245
75	0xbe1c8c32	-0.15287855
76	0x3ddea632	0.10871543
77	0x3d06815c	0.03283821
78	0xbe161656	-0.14656958
79	0xbe91ffe6	-0.28515548
80	0x3db55a97	0.08855169
81	0x3e1f26c7	0.15542136
82	0x3caf4a2e	0.021397676
83	0x3e8e7ff6	0.27832
84	0xbdbaa393	-0.091132306
85	0xbc69f237	-0.01427894
86	0xbe348f12	-0.17632702
87	0xbe99d199	-0.30042723
88	0x3de2921b	0.11063024
89	0xbe9df36e	-0.30849785
90	0x3b8422f2	0.004032486
91	0xbe1beeb1	-0.15227772
92	0xbe99cfc1	-0.30041316
93	0x3cc12ec7	0.023581875
94	0x3e0a779a	0.13522187
95	0x3d5184c5	0.05115201
96	0xbea035b9	-0.31290987
97	0x3d63cdd2	0.055616207
98	0xbd74a499	-0.059727285
99	0xbe9e5ce0	-0.30930233
100	0xbe96f220	-0.29481602
101	0x3ce7090b	0.028202554
102	0xbe021ec5	-0.1270705
103	0x3e78a626	0.2428213
104	0xbdc88689	-0.097912855
105	0x3da8cfcb	0.08242758
106	0xbe2fe350	-0.17176557
107	0x3bf3db47	0.0074419114
108	0xbea5750f	-0.3231587
109	0x3ea6b3bf	0.3255901
110	0xbe0af614	-0.13570434
111	0x3e8995c4	0.26872075
112	0xbe7bae2f	-0.24578165
113	0x3e52f26a	0.20600286
114	0xbe829587	-0.25504705
115	0x3dfcf763	0.12351873
116	0xba474fae	-0.0007603121
117	0x3e2d873d	0.1694612
118	0x3d3dd5ee	0.046346597
119	0xbd756387	-0.05990937
120	0xbe0e603a	-0.13903895
121	0xbe6003fd	-0.21876521
122	0x3e9dfd97	0.30857536
123	0x3de65961	0.112475164
124	0x3e5f41ca	0.2180244
125	0x3e92baa5	0.28658023
126	0x3e3bb004	0.18328863
127	0x3d95aaa3	0.07307937
128	0xbe3ccbc0	-0.184371
129	0xbe2a8285	-0.16651352
130	0x3e014f3c	0.12627882
131	0x3d87ee25	0.06637219
132	0xbca7b38a	-0.020471353
133	0x3e95fb8d	0.2929348
134	0xbe023f82	-0.12719539
135	0x3dbc202e	0.09185825
136	0xbea4e8e3	-0.32208928
137	0x3d17c213	0.037050318
138	0x3b8106c1	0.0039375727
139	0x3dd19fca	0.102355555
140	0xbe222b64	-0.15836865
141	0x3e7710ac	0.24127454
142	0xb9e3a472	-0.00043419335
143	0xbccbd87f	-0.024883507
144	0x3d511ecf	0.051054772
145	0x3e6bafa8	0.23016226
146	0x3db40295	0.08789555
147	0x3d52d566	0.051473044
148	0x3d26415c	0.040589675
149	0xbdf244ff	-0.11829566
150	0xbcf6a97c	-0.030110113
151	0xbe5cdb39	-0.21568002
152	0x3dcfc933	0.101457976
153	0xbde40193	-0.11133113
154	0x3e82086c	0.2539705
155	0xbc9cf049	-0.019157546
156	0xbe10b0aa	-0.14129892
157	0xbe4022ae	-0.18763229
158	0xbe5a8247	-0.2133876
159	0xbe47ec5a	-0.19523755
160	0xbe2dd320	-0.16975069
161	0xbd88f97e	-0.06688212
162	0xbea5d650	-0.3239007
163	0xbe817fb4	-0.25292742
164	0xbe9d3504	-0.3070451
165	0x3d4adb90	0.049525797
166	0x3de1b13b	0.11020132
167	0x3e8cc7c4	0.2749616
168	0xbe11a0eb	-0.14221542
169	0xbcd11ede	-0.025527414
170	0xbde4e9d8	-0.11177415
171	0x3eaad441	0.33365062
172	0x3e4ab204	0.1979447
173	0xbd30abf0	-0.043132722
174	0x3e2e65ca	0.17031017
175	0xbd5709b4	-0.052499488
176	0xbe835d84	-0.25657284
177	0x3d269e88	0.04067853
178	0x3e5a8119	0.2133831
179	0xbe809310	-0.251122
180	0x3d8f462d	0.06995807
181	0xbd230854	-0.039802864
182	0xbe417626	-0.18892726
183	0x3e4f8bba	0.20268145
184	0xbcade2ae	-0.021226253
185	0x3e5483b8	0.20753372
186	0xbdf64797	-0.120253734
187	0x3e77b97c	0.2419185
188	0x3b8e3c36	0.004340674
189	0x3e6a8fa9	0.22906365
190	0x3c433fb2	0.011917042
191	0x3e232a2e	0.15934059
192	0x3dc71b74	0.09722033
193	0x3e396985	0.18106659
194	0xbd50441b	-0.0508462
195	0x3e3c0f77	0.18365274
196	0x3e024967	0.12723313
197	0xbdafc426	-0.08582334
198	0xbe92d45f	-0.2867765
199	0xbe1d7cc7	-0.1537963
200	0xbd384f4f	-0.04499751
201	0xbe3c2e87	-0.18377124
202	0xbe87a5c3	-0.26493654
203	0x3e610e4b	0.21978109
204	0x3e7a9c2c	0.24473637
205	0xbe134fb5	-0.14385875
206	0x3e16e2c0	0.14734936
207	0x3e8d1d54	0.27561438
208	0x3e74869d	0.23879476
209	0xbd69ef82	-0.057113178
210	0x3e96ed50	0.2947793
211	0xbd453891	-0.04814965
212	0xbe5c5078	-0.21515071
213	0xbe6fcf75	-0.23418982
214	0xbde5a1c4	-0.11212495
215	0xbdd8edb0	-0.1059221
216	0x3e271b8e	0.16319105
217	0xbe1e3a62	-0.15451959
218	0xbe35d015	-0.17755158
219	0xbdc1ec57	-0.094689064
220	0x3e321f74	0.17394811
221	0x3dbf0731	0.093275435
222	0x3d910b3c	0.07082221
223	0xbe49c547	-0.19704162
224	0x3dadc4fd	0.08484838
225	0x3e8ec5db	0.27885327
226	0x3e146202	0.14490512
227	0x3e308890	0.17239594
228	0xbea26fd6	-0.3172595
229	0x3e3b0151	0.18262221
230	0x3e920805	0.28521743
231	0xbe81742d	-0.25283948
232	0x3e24de15	0.16100343
233	0x3d8ce5ff	0.06879806
234	0xbdd33007	-0.10311895
235	0x3d9ddcc4	0.07708123
236	0x3e3d8f39	0.18511666
237	0xbdf3a22a	-0.11896165
238	0x3dd7e34d	0.10541401
239	0xbe104247	-0.14087783
240	0x3d5e2cee	0.054242067
241	0xbe59d661	-0.21273185
242	0x3e9b7f5b	0.30370602
243	0x3ddbd26e	0.10733496
244	0xbdbd171e	-0.09232925
245	0xbe32ef42	-0.17474082
246	0xbccf6b4b	-0.025319716
247	0x3e365efd	0.17809673
248	0x3e86bc1a	0.26315385
249	0x3e64b9ca	0.22336498
250	0xbdd1de1c	-0.10247442
251	0xbd84f221	-0.06491495
252	0xbd98ea74	-0.074665934
253	0xbe9b7cd2	-0.30368668
254	0xbe7a417b	-0.24439041
255	0xbe979129	-0.29602936

bias f4 [64]
0	0xbb036e1f	-0.002005465
1	0x3e4387c3	0.19094758
2	0xbe7f8da7	-0.2495638
3	0x3e7e976d	0.24862452
4	0xbe8aee2c	-0.27134836
5	0x3ea0bcaf	0.31393954
6	0xbdba63cc	-0.09101066
7	0x3e0bba2d	0.13645239
8	0xbe53f4ee	-0.20698902
9	0x3c094801	0.0083789835
10	0xbe1ba49a	-0.1519951
11	0xbe727fa7	-0.23681508
12	0x3e97dfed	0.2966303
13	0xbe1108e1	-0.14163543
14	0xbe52bd67	-0.20580064
15	0x3e814a15	0.25251833
16	0x3e10026c	0.14063424
17	0xbea26097	-0.31714317
18	0xbe8df5a1	-0.27726462
19	0xbe95ed84	-0.29282773
20	0x3c703693	0.014661449
21	0x3d31e685	0.04343273
22	0xbdf4d506	-0.119546935
23	0x3d15a3e0	0.036533237
24	0xbde3450c	-0.11097154
25	0xbcdb6766	-0.026782703
26	0xbe31f9be	-0.17380425
27	0xbe8e0261	-0.2773619
28	0xbc350f7f	-0.011051058
29	0x3e0a128b	0.13483636
30	0xbd6aeb62	-0.057353385
31	0xbd1c1c05	-0.03811266
32	0x3e503e97	0.20336376
33	0xbd0fef8f	-0.03514057
34	0xbe93be40	-0.28856087
35	0x3e5899c4	0.21152407
36	0x3e4248d2	0.18973091
37	0xbd584e6a	-0.052809156
38	0x3def1960	0.11674762
39	0xbcc323d5	-0.023820797
40	0xbe63de48	-0.22252762
41	0x3dd76120	0.10516572
42	0x3c08c0ef	0.00834678
43	0x3e38bdbe	0.18041131
44	0x3e84386c	0.25824296
45	0xbde08bfb	-0.10964199
46	0x3cd9e6b0	0.026599258
47	0xbe0900e9	-0.13379253
48	0xbe76dd76	-0.24107918
49	0xbe9d255d	-0.30692568
50	0xbd83bd81	-0.064326294
51	0xbe5b0cb3	-0.21391563
52	0x3e5b88bb	0.21438877
53	0x3cd5af35	0.026084522
54	0x3e3a5583	0.18196683
55	0x3e8ec96f	0.27888057
56	0x3e5a2464	0.21302944
57	0x3e200d39	0.15630044
58	0xbd84e5a4	-0.06489113
59	0xbd288503	-0.041142475
60	0x3e96ea89	0.2947581
61	0xbe296b1b	-0.16544764
62	0x3ce0a3c1	0.027421834
63	0xbe016ae1	-0.12638427

weight f4 [128, 64, 3]
0	0x3d92b03b	0.071625195
1	0x3d4954d5	0.049153168
2	0xbd25095a	-0.04029212
3	0x3d633a49	0.055475507
4	0x3a97d0b2	0.0011582582
5	0x3c92aa5f	0.017903505
6	0x3b9ae900	0.004727483
7	0xbd7ce915	-0.06174572
8	0xbd056961	-0.0325712
9	0xbbaecaa7	-0.0053342166
10	0x3c000a94	0.007815022
11	0x3b9fb399	0.0048737046
12	0x3d173c03	0.036922466
13	0x3d8c274b	0.06843432
14	0x3c158ed2	0.009128289
15	0xbcbb4532	-0.022860143
16	0x3d84c721	0.06483293
17	0x3c6e78f1	0.014555202
18	0xbd14978d	-0.036277343
19	0xbd4d118e	-0.05006557
20	0xbc616059	-0.013755881
21	0x3c934f01	0.017982008
22	0xba81f014	-0.0009913468
23	0xbd736c33	-0.05942936
24	0x3d42468a	0.047430553
25	0xbd8a91de	-0.06766103
26	0xbcb9ce1f	-0.022681294
27	0xbc98b968	-0.018643096
28	0x3d61fc6e	0.055172376
29	0x3c0d74ee	0.008633835
30	0x3d844e85	0.06460289
31	0x3d564e25	0.05232062
32	0xbbfa99b7	-0.007647719
33	0x3c9dc04c	0.019256733
34	0xb9ff0ec7	-0.000486484
35	0x3d6bfc9c	0.057613954
36	0x3cc14f87	0.023597492
37	0xbd4826bd	-0.04886507
38	0x3c303ce8	0.010756709
39	0x3c6cbd59	0.014449441
40	0x3a512d44	0.00079794624
41	0xbd95a1b5	-0.07306234
42	0x3d10ae9b	0.035322767
43	0xbd44ae22	-0.04801763
44	0xbc87b6db	-0.016566684
45	0x3c762b52	0.015024977
46	0x3d8c043a	0.06836744
47	0xbc5f7492	-0.013638632
48	0xbcfdef78	-0.030997977
49	0x3d5c7976	0.05382677
50	0x3d85182b	0.0649875
51	0xbd63eed7	-0.055647697
52	0xbd6e9f81	-0.058257584
53	0xbd1d9fd5	-0.038482506
54	0x3d085ee1	0.03329361
55	0xbd7cd5ee	-0.061727457
56	0xbd7ec100	-0.062195778
57	0xbc20230c	-0.009773981
58	0x3d66f24a	0.05638341
59	0x3cb737c2	0.022365455
60	0xbd957035	-0.072967924
61	0x3d353371	0.04423851
62	0xbc3b42ed	-0.011429531
63	0xbd6281b3	-0.055299472
64	0xbd45a649	-0.048254285
65	0xbd88fb8e	-0.06688605
66	0xbd9103f3	-0.070808314
67	0x3d376000	0.044769287
68	0x3d171dde	0.036893718
69	0xbd2a1e8d	-0.04153304
70	0x3d8c473c	0.068495244
71	0x3c6de4d9	0.014519894
72	0xbd8cfc76	-0.068840906
73	0xbcfce1cc	-0.030869387
74	0x3ba05731	0.0048932065
75	0xbc0f6415	-0.008751889
76	0x3b11402b	0.0022163491
77	0x3cc8f661	0.024531545
78	0x3ae00d88	0.0017093876
79	0x3d278ba5	0.04090466
80	0x3cbaafef	0.02278897
81	0x3c9eacec	0.019369565
82	0x3b9e6b66	0.0048345802
83	0xbd2f4585	-0.04279091
84	0x3c30c402	0.010788919
85	0xbd22cdbd	-0.03974699
86	0xbd472813	-0.048622202
87	0xbd8b60f0	-0.06805599
88	0xbd324057	-0.04351839
89	0x3d895378	0.067053735
90	0xbd395c5b	-0.045254093
91	0x38e61da9	0.00010972779
92	0xbd23db2d	-0.040003944
93	0xbd89b334	-0.067236334
94	0xbc9357be	-0.017986175
95	0x3cb2ca72	0.02182505
96	0xbd507810	-0.05089575
97	0xbce423cd	-0.027849102
98	0xbbcdc3b5	-0.0062794336
99	0x3cb6e434	0.022325613
100	0xbb9b8437	-0.004745986
101	0x3ce6358c	0.028101705
102	0xbc5615d5	-0.013066729
103	0x3ce934c8	0.02846755
104	0x3c47dd91	0.012198822
105	0xbd6a668a	-0.057226695
106	0xbc79f3d7	-0.01525589
107	0xbd998d70	-0.0749768
108	0x3cdb5a2b	0.026776394
109	0x3d0cdb4e	0.034388833
110	0x3d820947	0.06349426
111	0x3d834d01	0.06411172
112	0x3d4656bb	0.048422556
113	0x3d8f5320	0.06998277
114	0xbcde0fb9	-0.027107107
115	0x3d21bf13	0.039488863
116	0x3d4459fc	0.04793738
117	0x3b71d80c	0.0036902456
118	0xbd81817e	-0.06323527
119	0xbd0053bd	-0.03132986
120	0x3b3a1910	0.0028396286
121	0x3d6efa62	0.058344252
122	0x3d80abe3	0.06282785
123	0xbd82183f	-0.06352281
124	0xbd85b9e9	-0.065296
125	0x3d80ecf8	0.06295198
126	0xbce59013	-0.028022802
127	0x3cfd23c8	0.03090085
128	0xbc78a078	-0.0151749775
129	0xbd62f8a9	-0.055412922
130	0xbd3f2d63	-0.046674144
131	0xbd006791	-0.03134877
132	0x3d827d1c	0.06371519
133	0xbcc0dc1c	-0.023542456
134	0x3d3418b2	0.043968864
135	0x3d523a01	0.051324848
136	0x3d531d33	0.05154152
137	0xbd21901e	-0.03944408
138	0x3ca2a284	0.019852884
139	0x3b7efb9f	0.0038907302
140	0xbd6c58d6	-0.057701908
141	0x3d7f0e92	0.062269755
142	0x3cb57e0f	0.022154836
143	0x3d89195c	0.0669429
144	0xbc9ab2ea	-0.018884141
145	0x3c3ec01a	0.01164248
146	0xbd2f043d	-0.04272865
147	0x3d66c6a1	0.05634177
148	0x3d920f73	0.07131853
149	0x3d4a3a0f	0.049371775
150	0x3b701895	0.0036635746
151	0xbd2b0e45	-0.041761655
152	0x3d287da3	0.04113544
153	0x3d91f1ba	0.07126184
154	0xbc958bc7	-0.018255128
155	0xbd783c8b	-0.060604613
156	0x3cf6e3e8	0.030137971
157	0xbd8adc14	-0.06780258
158	0xbc839bb1	-0.01606545
159	0xbd99977a	-0.07499595
160	0xbd4df579	-0.05028293
161	0x3cbb9155	0.022896448
162	0xbd8db830	-0.069198966
163	0xbd8b6bfa	-0.06807704
164	0xbd473619	-0.048635576
165	0x3d41dcf7	0.04732987
166	0xbcfdfa64	-0.031003185
167	0x3c4f042e	0.012635274
168	0xbcee20c2	-0.029068355
169	0xbd545b3f	-0.05184483
170	0xbc982f30	-0.018577188
171	0xbcf544a2	-0.029939953
172	0xbd14989f	-0.036278363
173	0x3d261bbd	0.040553797
174	0xbd812386	-0.06305604
175	0x3d8785ea	0.06617339
176	0xbbe26db0	-0.0069100484
177	0xbcdb80bf	-0.02679479
178	0x3c55a987	0.013040907
179	0x3d27983b	0.040916663
180	0x3d15ce9a	0.036573984
181	0x3d8b68b2	0.068070784
182	0x3c9f6867	0.019458963
183	0x3d787ed2	0.06066782
184	0x3d345afd	0.044032086
185	0xbd75deac	-0.06002681
186	0x3d3bfd5b	0.045895915
187	0x3c883531	0.016626926
188	0xbd2cc651	-0.042181317
189	0x3d568651	0.052374188
190	0xbd26a6b7	-0.040686335
191	0x3d876fb6	0.06613104
192	0x3d86c47b	0.065804444
193	0xbcc85a14	-0.024457015
194	0xbd0e0b78	-0.034678906
195	0x3d275f2a	0.04086224
196	0x3cd464cc	0.02592697
197	0xbc998f0a	-0.018744964
198	0xbd329676	-0.043600522
199	0x3d13b683	0.03606273
200	0xbd965ccb	-0.073419176
201	0x3d42ec7f	0.04758882
202	0x3bf2c9ea	0.007409324
203	0x3cf56fe0	0.029960573
204	0x3d6c86d1	0.05774576
205	0x3d41c6dc	0.047308788
206	0x3c3fe371	0.011711941
207	0xbbda478e	-0.006661362
208	0x3be43556	0.006964366
209	0x3d0d9312	0.034564085
210	0x3d8a7c27	0.067619614
211	0x3d65f0cb	0.05613784
212	0xbcd29682	-0.025706533
213	0xbd118397	-0.035525884
214	0xbcbf451f	-0.02334839
215	0x3d1c56c1	0.038168672
216	0x3d1979e6	0.037469767
217	0xbd7dbaf1	-0.06194586
218	0xbd8ae873	-0.067826174
219	0xbd326e79	-0.043562386
220	0xbcba3e3d	-0.022734756
221	0x3cf543c6	0.029939543
222	0x3d878127	0.06616431
223	0xbbf9ba7b	-0.007621107
224	0xbc8c940a	-0.017160434
225	0xbbadbfeb	-0.0053024194
226	0xbd6b18d3	-0.05739672
227	0xbd198098	-0.037476152
228	0xbd1980c8	-0.03747633
229	0x3d8f212b	0.06988748
230	0xbcba75b9	-0.022761213
231	0xbd41d70b	-0.04732422
232	0xbd3a6220	-0.045503736
233	0x3d02cf6e	0.0319361
234	0x3d98ec98	0.07467002
235	0x3d85db9c	0.06536028
236	0x3c282cde	0.010264603
237	0x3d18dfaa	0.037322678
238	0x3c992b10	0.018697292
239	0x3d768f16	0.06019505
240	0x3d4acb0c	0.049510047
241	0x3cc40989	0.023930328
242	0x3cee0634	0.029055692
243	0xbd405e31	-0.046964828
244	0xbc961226	-0.0183192
245	0x3c8f1f0e	0.017470863
246	0x3d31b577	0.04338595
247	0xbc9c8e8d	-0.019110942
248	0xbbff053f	-0.007782608
249	0xbd3ca3a6	-0.046054505
250	0xbd8fa7c4	-0.07014421
251	0xbd9e8309	-0.07739837
252	0xbd77450c	-0.060368583
253	0x3ca753d2	0.02042571
254	0x3d76eb74	0.06028314
255	0x3d735918	0.05941114

bias f4 [128]
0	0xbb580bc9	-0.003296601
1	0xbcb72598	-0.022356793
2	0xbd80a17a	-0.06280799
3	0xbcc592ff	-0.024117945
4	0x3b16253c	0.0022910377
5	0x3d87337c	0.06601617
6	0xbd20eafd	-0.039286602
7	0xbd0cdf75	-0.034392793
8	0x3c569af7	0.01309847
9	0x3d59f301	0.053210262
10	0xbd6c2979	-0.05765674
11	0x3c9150be	0.017738696
12	0x3c3a42f5	0.011368503
13	0xbc6ab7b0	-0.014326021
14	0xbca60d6e	-0.020270076
15	0x3cb211c6	0.02173699
16	0xbd1fb1a3	-0.038987767
17	0xbd851be4	-0.0649946
18	0xbd800eb6	-0.06252806
19	0xb80b2488	-3.3174205e-05
20	0x3d306d6a	0.043073095
21	0xbcb82710	-0.022479564
22	0xbc9fa3c8	-0.019487277
23	0xbd70b119	-0.058762643
24	0xbd87f244	-0.066380054
25	0x3d889491	0.06668962
26	0x3d833778	0.06407064
27	0xbd345426	-0.044025563
28	0x3d7b454c	0.061345384
29	0xbd7437f0	-0.05962366
30	0x3d836ebf	0.064176075
31	0x3c824241	0.015900733
32	0xbc8fdfc2	-0.01756275
33	0xbd144b54	-0.03620465
34	0x3d89fbc1	0.06737471
35	0x3c28fcde	0.0103141945
36	0x3d1fe06e	0.039032392
37	0xbc9aba98	-0.018887803
38	0xbd36be44	-0.044615045
39	0xbd950ca5	-0.072778024
40	0x3d6f908a	0.058487453
41	0x3d4ad520	0.049519658
42	0xbd8cfb2d	-0.068838455
43	0x3a3d8302	0.00072292995
44	0xbd3aa3bd	-0.04556631
45	0xbd2aac2d	-0.041668106
46	0x3cf9ec88	0.030508295
47	0xbd8534ce	-0.06504212
48	0xbd03cca1	-0.03217757
49	0x3d1479b7	0.03624889
50	0xbae2a27c	-0.0017290856
51	0xbd872aed	-0.06599984
52	0xbbf3ef89	-0.0074443263
53	0x3c9a64ff	0.018846987
54	0xbbbe6535	-0.0058104047
55	0xbd182777	-0.03714701
56	0x3d39ee7f	0.045393463
57	0xbd950573	-0.0727643
58	0xbd2a6177	-0.041596856
59	0x3d7878ec	0.060662195
60	0x3d2668c9	0.040627275
61	0x3d8f82df	0.070073836
62	0x3d0262a9	0.03183237
63	0x3ccaff26	0.024779867
64	0xbd53c445	-0.05170085
65	0x3d5922aa	0.053011574
66	0xbcdfc95c	-0.027317695
67	0xbd3334bc	-0.043751463
68	0xbd4bfc5b	-0.04980121
69	0x39048948	0.00012639642
70	0xbbd2885f	-0.006424948
71	0xbd815e68	-0.06316835
72	0xbd75bfe0	-0.05999744
73	0xbc5fae28	-0.013652362
74	0xbd5b0d4d	-0.05347948
75	0x3d64d0d5	0.05586322
76	0x3cf0540a	0.029336948
77	0xbd975a65	-0.07390288
78	0xbcc09262	-0.0235073
79	0xbd268659	-0.040655468
80	0xbd05ea8d	-0.03269439
81	0xbcdb248a	-0.026750822
82	0xbcb9cadc	-0.022679739
83	0xbc7ee647	-0.015557832
84	0x3d7c8611	0.061651293
85	0x3b1ef83e	0.002425685
86	0x3d91b0a6	0.07113771
87	0x3d70bf94	0.058776453
88	0xbd66a6f0	-0.056311548
89	0x3b826781	0.003979624
90	0xbbc776ca	-0.006087159
91	0x3ca661b0	0.020310253
92	0xbd2996ea	-0.04140369
93	0xbc9834b7	-0.018579824
94	0xbd790957	-0.060799923
95	0x3d88217f	0.06647014
96	0x3d4e0e0c	0.050306365
97	0x3ceb09bf	0.02869117
98	0x3d5d73cf	0.05406552
99	0x3d86f631	0.06589926
100	0xbd35b068	-0.044357687
101	0xbce629f8	-0.028096184
102	0x3c1291f4	0.008945931
103	0xbd7ec3c4	-0.062198415
104	0xbd7349fd	-0.059396733
105	0x3c285fdd	0.010276762
106	0x3c5e4e05	0.013568406
107	0x3d44b5ee	0.048025064
108	0xbd89839d	-0.06714556
109	0x3d457278	0.04820487
110	0x3c935e37	0.017989261
111	0x3d8e1556	0.06937663
112	0x3d5133b7	0.05107471
113	0x3a3c4e21	0.0007183273
114	0x3d45726d	0.048204828
115	0x3ba5d819	0.0050611612
116	0xbd67fd05	-0.056637783
117	0xbbc3b940	-0.0059730113
118	0xbd9262c8	-0.07147747
119	0x3ca38662	0.01996154
120	0xbd40a02f	-0.047027763
121	0x3d5a4ca6	0.053295754
122	0xbca52a3b	-0.020161739
123	0xbcba646e	-0.022752967
124	0x3c917f64	0.01776094
125	0x3bb77a98	0.005599331
126	0xbcfdf2cb	-0.030999562
127	0xbc998b7d	-0.018743271

weight f4 [1, 1664]
0	0x3c91cad3	0.01779691
1	0x3c997b68	0.018735602
2	0x3c4140dd	0.01179525
3	0x3c24d52b	0.010060589
4	0x3c0ab8ee	0.008466942
5	0xbc5a465b	-0.013322438
6	0xbbb3fe01	-0.005492926
7	0x3b09cf48	0.002102809
8	0x3c810f78	0.015754446
9	0x39f42eff	0.00046574321
10	0xbc9ad53f	-0.018900512
11	0xbcab3ec6	-0.020903956
12	0xbc5d6c81	-0.013514639
13	0xbab5aad2	-0.0013860113
14	0x3c89c7de	0.016818937
15	0xbc212bfa	-0.009837145
16	0x3a812882	0.0009853991
17	0xbc03c294	-0.0080419965
18	0xbc8bd033	-0.01706705
19	0x3b69f651	0.0035699795
20	0xbc29edac	-0.010371607
21	0xbbd91194	-0.00662441
22	0xbc2b7d45	-0.010466878
23	0x3c3cbc8b	0.0115195615
24	0xbcc3d621	-0.023905816
25	0x3cb25db6	0.0217732
26	0x3c985a40	0.018597722
27	0x3c2afb8c	0.01043595
28	0xbb908f3a	-0.004411605
29	0xbb51ae87	-0.0031994896
30	0x3c1520b7	0.009102038
31	0x3c128a8b	0.008944164
32	0xbca5ec92	-0.020254407
33	0x3cc2b6a6	0.023768734
34	0xbcc81eb9	-0.024428712
35	0xbc8dc1af	-0.01730427
36	0x3b258479	0.0025255962
37	0xbca8e9ca	-0.020619292
38	0x3c6a9ee0	0.014320105
39	0xba56683c	-0.0008178984
40	0x3c759cf4	0.014991034
41	0xbc83d7c0	-0.016094089
42	0x3c56d200	0.013111591
43	0x3c438683	0.011933926
44	0xbcc78258	-0.024354145
45	0x3c442b7b	0.011973257
46	0x3b8a46f7	0.0042198854
47	0x3cb2cd36	0.021826368
48	0xba60fbde	-0.0008582453
49	0x3c13ee6c	0.009029012
50	0x3b37f30c	0.0028068451
51	0xbb7e6020	-0.003881462
52	0xbc438b0e	-0.011935009
53	0xbbc56051	-0.0060234447
54	0x3cc1d09b	0.023659041
55	0xbb8a5138	-0.004221108
56	0x3a915a34	0.0011089505
57	0xbc8d74e4	-0.017267652
58	0x3cbc8d28	0.023016527
59	0x3b1f356c	0.0024293317
60	0x3bc234d5	0.005926708
61	0xbcca1de8	-0.024672464
62	0x3ab317e3	0.0013663735
63	0xbabdaee8	-0.0014471682
64	0x3b931d13	0.00448955
65	0xbae65e50	-0.0017575715
66	0x3c0a5014	0.008441944
67	0x3be092cb	0.0068534366
68	0xbcaca282	-0.021073584
69	0xbbcefbb0	-0.0063166246
70	0x3cbba9bb	0.022908082
71	0xbca03c66	-0.01956005
72	0x3b9b76a2	0.0047443667
73	0x3cbcbea1	0.023040118
74	0xbc5be104	-0.013420347
75	0x3a9c1a3a	0.0011909672
76	0xbc2d301e	-0.010570554
77	0x3c4170c6	0.011806672
78	0x3b231699	0.0024885295
79	0x3b45c878	0.0030179303
80	0xbc112568	-0.008859016
81	0xbc6b032f	-0.014344021
82	0x3cbb6f01	0.02288008
83	0xbc0721ee	-0.008247836
84	0x3bbed7c5	0.0058240616
85	0xbbfe84b7	-0.0077672857
86	0xbbd46272	-0.006481462
87	0xbcaa833a	-0.020814527
88	0x3b9f67f3	0.0048646866
89	0xbcc8206f	-0.024429528
90	0xbbcffc67	-0.0063472274
91	0xbca01a5c	-0.01954382
92	0x3aa6f7df	0.0012738666
93	0xbc15d4cc	-0.009144973
94	0xbc830961	-0.015995683
95	0x3c83d6f4	0.016093709
96	0xbb6884a8	-0.003547946
97	0x3cac8540	0.021059632
98	0xbbdfe5d1	-0.006832816
99	0x3b815ee8	0.0039480813
100	0x39287f88	0.00016069238
101	0xbc191a7b	-0.009344692
102	0x3c77387d	0.015089151
103	0x3c1a952e	0.009434981
104	0x3c8f7ef9	0.0175166
105	0x3cb474ee	0.022028413
106	0xbcb50fd3	-0.022102272
107	0x3b685ad2	0.0035454524
108	0xbcad2228	-0.021134451
109	0x3b9a4f7a	0.0047091814
110	0xbc5c1764	-0.013433311
111	0x3c8baea7	0.017051054
112	0xbc40dbd5	-0.011771162
113	0x3c6df39a	0.014523411
114	0xbc9aad3d	-0.018881435
115	0x3c0ea11d	0.008705405
116	0x3b8f38ea	0.0043707984
117	0x3c5d2045	0.013496463
118	0xbc9f2fe4	-0.019432016
119	0x3bec96ed	0.00722014
120	0xbc6105ca	-0.01373429
121	0xbc92242b	-0.017839512
122	0x3c6d794c	0.014494251
123	0x3c6036d2	0.013684945
124	0xbc7350d0	-0.01485081
125	0xbca63f20	-0.020293772
126	0xbbf291b6	-0.007402624
127	0xbc0d060f	-0.0086074015
128	0xbc63c32e	-0.013901515
129	0xbc402505	-0.011727576
130	0xbc3ed808	-0.011648186
131	0x3c6ae65e	0.01433715
132	0x3c3a679f	0.011377244
133	0x3c1aae37	0.00944095
134	0xbc44a0bb	-0.012001212
135	0x3c41a2ec	0.011818629
136	0xbc6a5206	-0.0143017825
137	0x3c5bf8d5	0.013426025
138	0xbc65a029	-0.014015236
139	0x3bc4469e	0.0059898635
140	0xbca574f3	-0.020197367
141	0xbca34e02	-0.019934658
142	0xba844c78	-0.001009359
143	0xbc4086dc	-0.011750903
144	0x3ba46a76	0.005017574
145	0x3b9a049a	0.0047002556
146	0x3af13c39	0.0018404789
147	0x3c3725cd	0.011178446
148	0xbae28330	-0.0017281529
149	0xbb7f7ccd	-0.00389843
150	0xbc50a868	-0.012735464
151	0xbcc295a9	-0.023753004
152	0x3b3919f5	0.0028244231
153	0xbbbc81c7	-0.0057527754
154	0x3c224abe	0.009905515
155	0x3be82138	0.007084038
156	0xb8a8bb1b	-8.0457154e-05
157	0x3bd5f80b	0.006529813
158	0xbc32b103	-0.010906461
159	0x3bef3769	0.0073003066
160	0xbc3e8978	-0.011629455
161	0x3c02da01	0.0079865465
162	0xbbbdb6bb	-0.0057896054
163	0x3c01900f	0.007907881
164	0xb9860632	-0.00025563088
165	0xbc4c2bf9	-0.012461656
166	0xbc37de1d	-0.0112223895
167	0x3c6a3ff8	0.014297478
168	0x3c46af47	0.01212675
169	0x3c99efaa	0.018791039
170	0x3b925570	0.0044657513
171	0xbcb88bde	-0.022527631
172	0xbc8f7509	-0.017511861
173	0xbc720be3	-0.014773342
174	0x3cc86875	0.024463871
175	0xbc4134b4	-0.011792351
176	0xbc7168c3	-0.01473445
177	0x3b7291c5	0.0037013155
178	0xbc8e69d9	-0.017384456
179	0xba3f6b06	-0.00073020195
180	0xbbf19e9f	-0.0073736454
181	0x3ccde221	0.02513224
182	0x3cc04c3f	0.023473857
183	0x3cb91355	0.022592226
184	0xbb63805c	-0.003471396
185	0x3ab4cafd	0.0013793405
186	0xbaa368df	-0.0012467167
187	0xbc6a8f65	-0.0143164145
188	0xbb9f9497	-0.004870008
189	0xbc9448db	-0.018101146
190	0xbc27c8af	-0.010240718
191	0x3bb5dc55	0.0055499473
192	0xbb26041e	-0.0025332044
193	0x3c531218	0.012882732
194	0x3c9232d1	0.017846497
195	0xbcb23234	-0.021752454
196	0x3ab5240a	0.0013819945
197	0x3bfccae4	0.007714616
198	0x3bac4def	0.005258314
199	0x3c009e93	0.007850307
200	0xbc8d2e68	-0.017234042
201	0x3c8c4d32	0.017126653
202	0xbc0fe7e9	-0.008783319
203	0x3aade031	0.0013265667
204	0x3b368e29	0.002785573
205	0x3bf00813	0.0073251813
206	0x3bbcde08	0.005763773
207	0x3c48420b	0.012222777
208	0xbc34b788	-0.011030085
209	0xbc0eda43	-0.00871903
210	0xbb0b6bc9	-0.0021273962
211	0x3c75022e	0.014954133
212	0x3ac9ab24	0.0015386087
213	0xbca96cdc	-0.020681791
214	0x3c261dac	0.01013891
215	0xbcb6d7d2	-0.022319708
216	0x3cb03028	0.021507338
217	0xbbd1c379	-0.006401476
218	0x3c1f3b5c	0.009718742
219	0x3c5e25d9	0.013558828
220	0xbb4ec622	-0.0031551202
221	0x3c1ad0d4	0.009449203
222	0x3bf01df6	0.0073277904
223	0x3a3e6897	0.000726351
224	0xbbb47c27	-0.005507964
225	0x3c64681c	0.013940837
226	0xbb63c9c0	-0.0034757704
227	0xbc226a98	-0.009913109
228	0xbade377d	-0.0016953793
229	0xbc8b28ef	-0.016987292
230	0x3acd1611	0.0015646835
231	0xba7a4b02	-0.000954792
232	0xbb828e09	-0.003984217
233	0xbc94bf4c	-0.018157624
234	0x3ca323b6	0.01991449
235	0xbc16830b	-0.0091865165
236	0xbcaaecaa	-0.020864803
237	0x3a92f281	0.0011211188
238	0x3c422cc8	0.011851497
239	0x3a8d57a1	0.0010783562
240	0xbaea2c29	-0.0017865944
241	0x3bfca80a	0.0077104615
242	0x37e87bac	2.7714144e-05
243	0xbc70543d	-0.0146685215
244	0x3cb2c144	0.021820672
245	0xbc969122	-0.018379752
246	0x3c67cd58	0.014148079
247	0xbb1c3131	-0.0023833031
248	0x3c9bb54c	0.019007348
249	0xbc740c65	-0.014895533
250	0x3c8dfa7a	0.01733135
251	0x3b2e42d2	0.002659012
252	0x3c6ded2b	0.014521877
253	0x3c582523	0.013192448
254	0xbc5a404f	-0.013320996
255	0xbca5e227	-0.02024944

weight f4 [1664]
0	0x3f7fe41d	0.9995745
1	0x3f7f51cd	0.99734193
2	0x3f7e767e	0.99399555
3	0x3f7d6640	0.98984146
4	0x3f7d8a10	0.9903879
5	0x3f813272	1.009352
6	0x3f7e2327	0.9927239
7	0x3f7de544	0.99177957
8	0x3f7dbb4d	0.99113923
9	0x3f7d8dff	0.99044794
10	0x3f80c536	1.0060184
11	0x3f80f94a	1.0076077
12	0x3f7ffa48	0.99991274
13	0x3f7f177c	0.9964521
14	0x3f8005d9	1.0001785
15	0x3f7fbc3e	0.9989661
16	0x3f7eb3a9	0.9949289
17	0x3f7fc3b9	0.99908024
18	0x3f800094	1.0000176
19	0x3f7f54ab	0.9973857
20	0x3f7fe032	0.9995147
21	0x3f7fb522	0.9988576
22	0x3f7fe69d	0.9996126
23	0x3f7fd180	0.99929047
24	0x3f7fd5b3	0.99935454
25	0x3f8007af	1.0002345
26	0x3f7fd431	0.99933153
27	0x3f7fbf6a	0.9990145
28	0x3f7fa7e6	0.9986557
29	0x3f7f8456	0.99811304
30	0x3f7fb794	0.99889493
31	0x3f7fb686	0.99887884
32	0x3f7ff7eb	0.9998767
33	0x3f7fdacc	0.9994323
34	0x3f7ffc29	0.9999414
35	0x3f7ff385	0.99980956
36	0x3f7f1568	0.9964204
37	0x3f7ff825	0.99988014
38	0x3f7fcb1a	0.99919283
39	0x3f7e6feb	0.99389523
40	0x3f7fca58	0.9991813
41	0x3f7ff3e8	0.99981546
42	0x3f7fc681	0.9991227
43	0x3f7fc245	0.99905807
44	0x3f7ffefb	0.99998444
45	0x3f7fc209	0.9990545
46	0x3f7f6fb7	0.9977984
47	0x3f7fa908	0.99867296
48	0x3f7d2ad0	0.9889345
49	0x3f7fa56a	0.99861777
50	0x3f7f2a57	0.9967398
51	0x3f7f4ac8	0.9972348
52	0x3f7fe782	0.9996263
53	0x3f7fc696	0.99912393
54	0x3f7fd6c3	0.99937075
55	0x3f7fa50d	0.9986122
56	0x3f7de80e	0.9918221
57	0x3f7ff6b4	0.99985814
58	0x3f7fd6b4	0.99936986
59	0x3f7f0c55	0.9962819
60	0x3f7f9523	0.9983694
61	0x3f7fff39	0.99998814
62	0x3f7e4cc0	0.9933586
63	0x3f7efd00	0.996048
64	0x3f7f6eaa	0.99778235
65	0x3f7dbed4	0.99119306
66	0x3f7f4d51	0.9972735
67	0x3f80326d	1.0015389
68	0x3f7fae4d	0.99875337
69	0x3f7f5591	0.9973994
70	0x3f802804	1.0012212
71	0x3f7fad65	0.99873954
72	0x3f7f5321	0.9973622
73	0x3f7fa6fc	0.9986417
74	0x3f7f546c	0.9973819
75	0x3f7e3f36	0.993152
76	0x3f80169e	1.0006902
77	0x3f7f7819	0.9979263
78	0x3f7f11e6	0.99636686
79	0x3f7f3b6e	0.9970006
80	0x3f7fd92e	0.99940765
81	0x3f7fed89	0.99971825
82	0x3f7fda04	0.9994204
83	0x3f7fd606	0.9993595
84	0x3f7f95e2	0.9983808
85	0x3f7fd2aa	0.9993082
86	0x3f7fc6e3	0.9991285
87	0x3f7ff877	0.999885
88	0x3f7f82c8	0.9980893
89	0x3f7ffa99	0.99991757
90	0x3f7fc439	0.99908787
91	0x3f7ff904	0.9998934
92	0x3f7e334e	0.99297035
93	0x3f7fdef3	0.9994957
94	0x3f7ff486	0.9998249
95	0x3f7fcdca	0.99923384
96	0x3f7f9221	0.9983235
97	0x3f7fd529	0.9993463
98	0x3f7fcd36	0.999225
99	0x3f7f6735	0.99766856
100	0x3f7b7f61	0.9824124
101	0x3f7fdee0	0.99949455
102	0x3f7fcbec	0.99920535
103	0x3f7fb604	0.9988711
104	0x3f7f5d72	0.9975196
105	0x3f7f980d	0.99841386
106	0x3f7fef52	0.9997455
107	0x3f7f7034	0.99780583
108	0x3f7fd719	0.9993759
109	0x3f7f985c	0.99841857
110	0x3f7fb656	0.998876
111	0x3f80058a	1.000169
112	0x3f7fad51	0.99873835
113	0x3f7fdaeb	0.9994342
114	0x3f7fbd51	0.9989825
115	0x3f7fd931	0.9994078
116	0x3f7f8235	0.99808055
117	0x3f805d54	1.0028481
118	0x3f7ec023	0.9951193
119	0x3f7ff270	0.99979305
120	0x3f7fed2a	0.9997126
121	0x3f7ff556	0.9998373
122	0x3f7fcb9e	0.9992007
123	0x3f7fc9b2	0.9991714
124	0x3f800cb0	1.0003872
125	0x3f8000c7	1.0000237
126	0x3f7f85f3	0.99813765
127	0x3f7fa7a1	0.99865156
128	0x3f7f9905	0.99842864
129	0x3f7fe6db	0.9996163
130	0x3f7fe7d8	0.9996314
131	0x3f7fcad7	0.99918884
132	0x3f7fc1b7	0.9990496
133	0x3f7fb906	0.998917
134	0x3f7fe825	0.999636
135	0x3f7fc444	0.9990885
136	0x3f7fee67	0.9997315
137	0x3f7fc9bb	0.9991719
138	0x3f7fedbe	0.9997214
139	0x3f7f984a	0.9984175
140	0x3f7ff7a5	0.9998725
141	0x3f7ff779	0.9998699
142	0x3f7eaf65	0.9948638
143	0x3f7fbd3f	0.9989814
144	0x3f7fba83	0.9989397
145	0x3f7ed0ee	0.9953755
146	0x3f7ebbdb	0.99505395
147	0x3f7f2de7	0.99679416
148	0x3f7c9a8e	0.9867333
149	0x3f7efd22	0.99605
150	0x3f7fed70	0.99971676
151	0x3f800502	1.0001528
152	0x3f7f19b2	0.9964858
153	0x3f7f3bc6	0.9970058
154	0x3f7fdd42	0.9994699
155	0x3f7f9f70	0.9985266
156	0x3f7bd2b2	0.9836837
157	0x3f7fb219	0.9988113
158	0x3f7fdf94	0.9995053
159	0x3f7fcc2c	0.99920917
160	0x3f7fade8	0.99874735
161	0x3f7ff24e	0.999791
162	0x3f7f8414	0.9981091
163	0x3f7fc0b1	0.999034
164	0x3f7de70d	0.9918068
165	0x3f7fd072	0.9992744
166	0x3f7fcc20	0.99920845
167	0x3f7ff146	0.9997753
168	0x3f7fc31e	0.999071
169	0x3f7fd5fb	0.99935883
170	0x3f7f983e	0.9984168
171	0x3f7f8996	0.99819314
172	0x3f7f43e3	0.9971296
173	0x3f7f266c	0.99668
174	0x3f804d33	1.0023559
175	0x3f7f21f1	0.99661165
176	0x3f7f273e	0.99669254
177	0x3f7e5dec	0.99362063
178	0x3f7f42a9	0.9971109
179	0x3f7ed09f	0.9953708
180	0x3f7f730d	0.9978493
181	0x3f800d4c	1.0004058
182	0x3f7fabf7	0.9987177
183	0x3f7fd4f8	0.9993434
184	0x3f7f8fec	0.9982898
185	0x3f7e5204	0.99343896
186	0x3f7ed97b	0.995506
187	0x3f7ff134	0.9997742
188	0x3f7fb2d0	0.9988222
189	0x3f7ff81a	0.9998795
190	0x3f7fe3b4	0.9995682
191	0x3f7f8de4	0.9982588
192	0x3f7f63b0	0.99761486
193	0x3f7fc477	0.99909157
194	0x3f7fcf9f	0.9992618
195	0x3f7ffd3d	0.99995786
196	0x3f7e5b5e	0.99358165
197	0x3f7fa609	0.99862725
198	0x3f7f86b2	0.99814904
199	0x3f7fa839	0.9986606
200	0x3f7ffa08	0.9999089
201	0x3f7fcbb2	0.9992019
202	0x3f7fdec8	0.9994931
203	0x3f7e4a6e	0.9933232
204	0x3f7f2a68	0.9967408
205	0x3f7fa34d	0.9985855
206	0x3f7f9052	0.9982959
207	0x3f7f72dd	0.9978464
208	0x3f7fcb24	0.99919343
209	0x3f800665	1.0001951
210	0x3f7ce385	0.9878467
211	0x3f7f3371	0.9968787
212	0x3f7ebf1d	0.99510366
213	0x3f802eba	1.001426
214	0x3f7f5a48	0.99747133
215	0x3f803445	1.0015951
216	0x3f7f70a9	0.9978128
217	0x3f8002c4	1.0000844
218	0x3f7f644b	0.9976241
219	0x3f7f7534	0.9978821
220	0x3f7f82d9	0.9980903
221	0x3f7fba2c	0.9989345
222	0x3f7faa55	0.9986928
223	0x3f7cb703	0.98716754
224	0x3f7fba0d	0.99893266
225	0x3f7fccd0	0.99921894
226	0x3f7f8de4	0.9982588
227	0x3f7fde45	0.9994853
228	0x3f7f2220	0.99661446
229	0x3f7ff1ed	0.99978524
230	0x3f7e78f1	0.9940329
231	0x3f7ea7cb	0.9947478
232	0x3f7f9d22	0.9984914
233	0x3f7ff530	0.999835
234	0x3f7fd3d2	0.9993259
235	0x3f7fdd51	0.9994708
236	0x3f7ff95a	0.99989855
237	0x3f7ddff4	0.9916985
238	0x3f7fc3bd	0.9990805
239	0x3f7dcedc	0.9914377
240	0x3f7f29b3	0.99673
241	0x3f7fabab	0.9987132
242	0x3f7bdc24	0.9838278
243	0x3f7ff09b	0.9997651
244	0x3f7fd731	0.9993773
245	0x3f7ff70c	0.9998634
246	0x3f7fcb1e	0.9991931
247	0x3f7f4b21	0.9972401
248	0x3f802b8c	1.001329
249	0x3f7fc9f6	0.9991754
250	0x3f80007e	1.000015
251	0x3f7f6cae	0.9977521
252	0x3f7ff3d3	0.9998142
253	0x3f8005a4	1.0001721
254	0x3f7faa23	0.99868983
255	0x3f7fbd84	0.9989855

bias f4 [1664]
0	0x3a49707d	0.00076843036
1	0x3a34c4c5	0.0006895776
2	0x3a3e4755	0.0007258554
3	0x39ead3d9	0.00044789797
4	0x39ee623a	0.00045468082
5	0x38d7ec22	0.00010295982
6	0x3b23b823	0.002498158
7	0x3a6330fa	0.0008666661
8	0x3a07a46e	0.0005174343
9	0x3aa052ea	0.0012231742
10	0x38df68d3	0.00010652994
11	0x387f1a53	6.0821254e-05
12	0x3990c50b	0.0002761263
13	0x3b5ef3e7	0.003401989
14	0xb8cbf059	-9.7245626e-05
15	0xba816269	-0.0009871247
16	0xbae29fb7	-0.001729003
17	0xba9b713a	-0.0011859306
18	0xba37911b	-0.00070025184
19	0xba87b6f2	-0.0010354205
20	0xba83f865	-0.0010068534
21	0xbac68b3a	-0.0015147694
22	0xba8613bc	-0.001022927
23	0xb991a017	-0.0002777583
24	0xba1b71b8	-0.0005929726
25	0xb81897ec	-3.6381112e-05
26	0x3a3dec25	0.0007244966
27	0x3a8c544e	0.0010706277
28	0x3ab2b660	0.0013634674
29	0x3afbb6f4	0.0019204305
30	0x3a9baae4	0.0011876491
31	0x3a9dc5cb	0.0012037096
32	0x38ba4db2	8.883643e-05
33	0x3a251d8f	0.0006298655
34	0x37cda130	2.4512963e-05
35	0x39204a4f	0.00015286471
36	0x3b759f8d	0.0037479133
37	0x38ac68e4	8.2211365e-05
38	0x3a603114	0.0008552235
39	0x3bd0dcd2	0.00637398
40	0x3a5975db	0.0008295455
41	0x3945646a	0.00018824791
42	0x3a6dee7d	0.000907637
43	0x3a7e01ea	0.0009689616
44	0x37dc8b57	2.6290929e-05
45	0x3a7d4082	0.00096607965
46	0x3b144331	0.0022623057
47	0x3a288a24	0.0006429276
48	0x3c4179c1	0.011808814
49	0x3a96197f	0.001145169
50	0x3b39f4f2	0.0028374759
51	0x3a80e061	0.0009832495
52	0x39b6c282	0.00034858665
53	0x3a7d0da7	0.00096532184
54	0x3a2574c1	0.0006311648
55	0x3abe8840	0.0014536455
56	0x3c0a7fe4	0.008453343
57	0x3923d21e	0.00015623166
58	0x3a280962	0.00064100896
59	0x3b7b7493	0.0038369044
60	0x3adc45da	0.0016805485
61	0x37bde11c	2.263538e-05
62	0x3be0edb7	0.0068642753
63	0x3b86b4a7	0.004110891
64	0x3b075d39	0.002065493
65	0xbb2c0fc3	-0.0026254512
66	0xb927a922	-0.00015989368
67	0xba25c475	-0.0006323525
68	0x37022054	7.756131e-06
69	0x3a05cd0a	0.00051041006
70	0x3a1f3ba9	0.00060742587
71	0x37b082cb	2.104174e-05
72	0x3aa66441	0.0012694673
73	0x3a09b5e5	0.00052532397
74	0xb84d0eca	-4.8889582e-05
75	0x3b7928c3	0.003801868
76	0x38b1f1a8	8.48503e-05
77	0x3a51f0ae	0.00080085814
78	0x3b77856e	0.003776874
79	0x3b4f2446	0.0031607314
80	0x3a13d040	0.00056386366
81	0x397fd484	0.00024397863
82	0x3a28be80	0.0006437078
83	0x3a240259	0.00062564533
84	0x3ae0bb25	0.0017145617
85	0x3a3253f1	0.00068026694
86	0x3a622a10	0.00086274836
87	0x38a6cb8f	7.9534126e-05
88	0x3b03aa88	0.0020090658
89	0x37d268a8	2.5082685e-05
90	0x3a66987f	0.00087965274
91	0x38d829a6	0.0001030744
92	0x3bedb91b	0.0072547323
93	0x3a0e2053	0.0005421687
94	0x39477a3e	0.00019023658
95	0x3a4f7fc7	0.00079154636
96	0x3ae4d6d2	0.0017459041
97	0x3a30616c	0.0006728384
98	0x3a549e5b	0.0008110755
99	0x3b1df3c3	0.0024101592
100	0x3c970007	0.01843263
101	0x3a097cfa	0.0005244758
102	0x3a588269	0.0008259179
103	0x3a96e0d7	0.0011511099
104	0x39a1e3dd	0.00030878084
105	0xb8de496c	-0.00010599461
106	0xba3518a3	-0.0006908273
107	0xbaedeb45	-0.0018151781
108	0xba37cd03	-0.0007011445
109	0xbab14546	-0.0013524673
110	0xba6e2568	-0.00090845535
111	0xb9423e7c	-0.00018524559
112	0xba7fcc1d	-0.0009757893
113	0xb964e956	-0.00021830699
114	0xba397f7b	-0.0007076186
115	0xba186648	-0.0005813581
116	0xba99b28d	-0.0011726186
117	0xb987bc26	-0.00025889388
118	0x38d6f1cd	0.00010249354
119	0x3aea9dda	0.0017899827
120	0x398d6742	0.0002697055
121	0x3915513a	0.00014240007
122	0x3a5f0d0e	0.000850872
123	0x3a67e347	0.00088458176
124	0x396eb7cb	0.00022765917
125	0x38a6f7d0	7.9616555e-05
126	0x3a03ba57	0.000502502
127	0x39e928ab	0.00044471523
128	0x39355766	0.00017294064
129	0x39bd45de	0.00036100944
130	0x39bfabd9	0.00036558395
131	0x3a5fdbc4	0.00085395225
132	0x3a83950f	0.001003893
133	0x3a9746e9	0.0011541519
134	0x39b55bc1	0.00034591372
135	0x3a801b7c	0.0009773816
136	0x3980a5b2	0.00024537515
137	0x3a6a7170	0.0008943295
138	0x398679e3	0.00025649284
139	0x3adb41f8	0.0016728034
140	0x38bdf06d	9.057005e-05
141	0x38c853b9	9.552338e-05
142	0x3baed4e1	0.0053354357
143	0x39c69af8	0.00037880964
144	0x3aea2262	0.001786303
145	0x3b0cb44a	0.0021469765
146	0x3a878879	0.0010340355
147	0x3a0c6383	0.00053554046
148	0x3b5300b6	0.0032196469
149	0x3a945f0c	0.001131983
150	0x382dfc18	4.1481195e-05
151	0xb8f9eaaa	-0.00011916955
152	0x3ab9157f	0.0014120786
153	0x3a2faa08	0.0006701057
154	0x3a55cc84	0.00081557804
155	0x3aa23854	0.0012376406
156	0xbb5173f8	-0.0031959992
157	0x3aaf3dcb	0.0013369856
158	0x381f3d84	3.7965845e-05
159	0x3a6b6711	0.00089798967
160	0xb88db0f1	-6.756362e-05
161	0x3a49cd68	0.00076981494
162	0x39431e0f	0.00018607847
163	0x3a569f5a	0.00081871974
164	0x3ba8360f	0.0051333974
165	0x388fb36d	6.852192e-05
166	0x39054835	0.00012710768
167	0x3a362187	0.0006947745
168	0x3a7a622b	0.00095513713
169	0x3a3d164a	0.0007213099
170	0x3b82efe9	0.0039958847
171	0x38afd945	8.38512e-05
172	0x3954316a	0.00020236304
173	0x399311c5	0.00028051264
174	0x3a465fe0	0.0007567387
175	0x39c88c7c	0.00038251642
176	0x398b435e	0.00026562338
177	0x3c0e1497	0.008671901
178	0x39449449	0.00018747257
179	0x3b3acd64	0.002850377
180	0x3a331178	0.0006830911
181	0x3a475499	0.00076038536
182	0x3a27f266	0.00064066646
183	0x3a29a082	0.0006470756
184	0x3aed4d18	0.0018104641
185	0x3bde0a67	0.0067761424
186	0x3b992aa4	0.0046742726
187	0x3981ad56	0.00024733943
188	0x3aa1dd76	0.0012349326
189	0x390e8ea5	0.00013595315
190	0x39ef657e	0.0004566125
191	0x3ae8c6be	0.0017759425
192	0x3b235398	0.0024921652
193	0x3a7108b6	0.00091947184
194	0x3a428254	0.0007419933
195	0x38870bd2	6.439503e-05
196	0x3bd87391	0.0066055735
197	0x3aafaf00	0.0013403594
198	0x3af1f70f	0.001846047
199	0x3aad8a12	0.0013240001
200	0x39259390	0.00015790598
201	0x3a4753df	0.00076037453
202	0x3a183b9f	0.0005807224
203	0x3be0ac8d	0.006856507
204	0x3b5860aa	0.00330166
205	0x3ab7f8e7	0.0014035971
206	0x3ae11920	0.0017173626
207	0x3a72104b	0.0009233995
208	0x38c7a398	9.519531e-05
209	0x3a321b84	0.0006794261
210	0x3c2ef153	0.010677653
211	0x3a4b3e57	0.0007753125
212	0x3b54958b	0.0032437767
213	0x38f1e0f4	0.00011533676
214	0x3a852d38	0.0010160571
215	0x38b4bd5a	8.618338e-05
216	0x3a2ac982	0.00065150124
217	0x3a95c061	0.0011425131
218	0x3a8a7ece	0.0010566355
219	0x3a6048f4	0.0008555793
220	0x3b01379b	0.0019716981
221	0x3a9738f7	0.0011537363
222	0x3ab9329b	0.0014129461
223	0x3c5ad4e1	0.013356418
224	0x3a89620f	0.0010481494
225	0x3a649d22	0.00087209244
226	0x3ae5e83a	0.0017540522
227	0x39f84374	0.00047352503
228	0x3b63fc14	0.0034787701
229	0x39289916	0.00016078757
230	0x3bccbd87	0.0062481794
231	0x3bb27a66	0.00544672
232	0x3ac6c052	0.0015163517
233	0x390ad944	0.00013241643
234	0x3a3611f1	0.00069454225
235	0x3a0cad11	0.0005366365
236	0x38a4c646	7.857061e-05
237	0x3c0d42f2	0.008621918
238	0x3a7f9cc7	0.00097508397
239	0x3c118b30	0.008883283
240	0x3b5dc23c	0.0033837697
241	0x3ab14f24	0.0013527614
242	0x3c8acf83	0.016944652
243	0x39747473	0.00023313034
244	0x3a2d0fd5	0.00066017854
245	0x39068691	0.00012829366
246	0x3a6206bb	0.0008622219
247	0x3ad1a0d1	0.0015993362
248	0xb93714ff	-0.00017460062
249	0xba586f52	-0.0008256334
250	0xb91ee312	-0.00015152644
251	0xbb13bdf0	-0.0022543631
252	0xb96abdc6	-0.00022386675
253	0xb98fcc26	-0.00027427188
254	0xba5b893a	-0.00083746354
255	0xba2b87b5	-0.0006543354
