Single Battery Model/4. CNN Models/model_B0006_combined_std.pth (torch, 129036 bytes, 7 tensors)

weight f4 [64, 6, 3]
0	0x3ce53101	0.027977468
1	0x3e008757	0.12551628
2	0x3d52a8ef	0.05143064
3	0x3e1fabef	0.15592931
4	0x3df2ecab	0.11861547
5	0xbe4b6b24	-0.1986509
6	0xbe44ce66	-0.1921936
7	0x3e2c05e7	0.16799127
8	0xbe170ddd	-0.14751382
9	0x3e429efa	0.19005957
10	0x3e37e307	0.17957698
11	0xbc1d7c3c	-0.009612139
12	0xbe1f0048	-0.15527451
13	0x3e28f473	0.164995
14	0xbe0b2d36	-0.13591465
15	0xbd6f3252	-0.0583976
16	0xbe4b036a	-0.19825521
17	0x3e693655	0.22774632
18	0xbd5d78ce	-0.054070286
19	0x3e69d500	0.2283516
20	0xbc9e8e23	-0.019354885
21	0x3e1b42d7	0.15162216
22	0xbd831890	-0.06401169
23	0x3d149bbf	0.036281344
24	0x3e369371	0.17829682
25	0xbe24125d	-0.1602263
26	0xbe1d7510	-0.15376687
27	0xbe34583e	-0.17611787
28	0x3ddd51bc	0.10806605
29	0x3e2929c9	0.16519846
30	0x3d4e5e7e	0.050383084
31	0x3e101a1f	0.14072464
32	0xbd9c5253	-0.076328896
33	0xbe11b882	-0.1423054
34	0xbe73793f	-0.2377672
35	0x3e3bf0e8	0.18353617
36	0x3e0538c6	0.13009939
37	0xbe0d0822	-0.13772634
38	0x3d43f43e	0.04784035
39	0xbda12b0c	-0.07869539
40	0xbc7ba5b1	-0.015359328
41	0xbe10a04c	-0.14123648
42	0x3d1ceece	0.03831368
43	0x3d6c2b66	0.057658575
44	0x3e29c1d7	0.1657785
45	0x3d92b46c	0.07163319
46	0x3dd758ec	0.105150074
47	0x3e2b4755	0.1672643
48	0xbdc456f6	-0.09586899
49	0xbb5ff51b	-0.0034173194
50	0xbe2b3d48	-0.16722596
51	0xbcd95dcf	-0.02653399
52	0x3d5efce5	0.054440398
53	0x3e51ad4c	0.20476264
54	0x3d907d68	0.07055169
55	0x3cd0b8fb	0.02547883
56	0x3e5aeccf	0.21379398
57	0x3da654d2	0.08121647
58	0x3d31a2db	0.0433682
59	0xbd7a1f9c	-0.0610653
60	0x3d6aaee9	0.057295714
61	0x3e471a1a	0.1944355
62	0xbdb87496	-0.09006612
63	0xbcb9aae9	-0.022664504
64	0xbd9419e8	-0.07231504
65	0x3e05b717	0.13058124
66	0xbdce683b	-0.10078474
67	0xbdd4b9d9	-0.1038701
68	0x3d13d599	0.036092374
69	0x3e2e7089	0.17035116
70	0x3df96c5a	0.121788695
71	0x3e4d0ba1	0.20023967
72	0xbe57f751	-0.21090437
73	0x3d7175d6	0.058950268
74	0x3d83f644	0.06443456
75	0x3cd5f1b7	0.026116235
76	0x3e5dcfd1	0.21661307
77	0x3c3c196b	0.0114806695
78	0x3e4adafd	0.198101
79	0x3df29b57	0.11846035
80	0xbe1df14c	-0.15424079
81	0xbe061911	-0.130955
82	0x3d8c851d	0.06861327
83	0x3e716893	0.23575048
84	0xbd18cf46	-0.037307046
85	0xbb8027d7	-0.0039109993
86	0x3d1d5ae4	0.03841676
87	0x3e0509e4	0.12992054
88	0xbd8ca861	-0.06868053
89	0xbe5b4e9c	-0.21416706
90	0xbe20976c	-0.15682763
91	0xbdadcfd9	-0.084869094
92	0xbe698050	-0.22802854
93	0x3d3b4a09	0.045724902
94	0xbcfc380c	-0.030788444
95	0xbd41b3ba	-0.04729054
96	0xbe35081c	-0.17678875
97	0xbe0e1ebe	-0.13878915
98	0xbe0eb50b	-0.1393625
99	0xbdde756e	-0.10862242
100	0x3dfe7f0a	0.124265745
101	0xbe66d271	-0.22541215
102	0x3e144238	0.14478385
103	0xbc1d83bd	-0.009613928
104	0xbdd6aa4c	-0.104817
105	0xbe0a1257	-0.13483559
106	0xbc4fe02b	-0.012687723
107	0xbe1cbb3d	-0.153058
108	0xbdb65c68	-0.08904344
109	0x3d9aabc4	0.07552293
110	0xbe616087	-0.22009479
111	0xbe4196f9	-0.18905248
112	0x3c6e1ce3	0.014533254
113	0xbe52a684	-0.20571333
114	0xbe215496	-0.15754923
115	0xbd28918c	-0.04115443
116	0x3e687ec7	0.22704612
117	0xbdc04995	-0.09389035
118	0xbe5fd156	-0.21857199
119	0xbd456fb6	-0.04820224
120	0xbda44f9c	-0.08022997
121	0xbe0239c9	-0.12717356
122	0x3d92ae19	0.07162113
123	0xbcb353ea	-0.0218906
124	0xbdcba76c	-0.099440426
125	0xbd0c86d9	-0.03430829
126	0xbe5db032	-0.21649244
127	0xbdb5e1df	-0.08880972
128	0xbe1fc310	-0.15601754
129	0x3d9c543b	0.07633253
130	0xbe3e41ed	-0.18579836
131	0x3d12f617	0.03587922
132	0xbe0a952b	-0.13533466
133	0x3de5c9ac	0.112201065
134	0x3e344713	0.17605238
135	0xbe6fc97b	-0.23416702
136	0xbe18f04e	-0.14935419
137	0x3dd69acd	0.10478745
138	0xbd9e79c5	-0.077380694
139	0xbe2fc86e	-0.17166302
140	0xbd6b2f44	-0.057418123
141	0x3e3042fa	0.1721305
142	0x3d637848	0.05553463
143	0x3dc9c239	0.09851498
144	0xbe6ae36f	-0.22938322
145	0xbd8402e3	-0.06445863
146	0xbce23d13	-0.027617013
147	0x3e05cd5f	0.13066624
148	0x3bca2842	0.00616935
149	0xbe112c85	-0.14177139
150	0xbccfccfd	-0.0253663
151	0x3da7383f	0.08165025
152	0x3e43aea4	0.19109589
153	0x3e58d1ae	0.21173736
154	0x3e24902e	0.16070625
155	0x3e01edd4	0.1268838
156	0xbe292263	-0.16517024
157	0xbd30b170	-0.043137968
158	0xbe182188	-0.14856541
159	0xbe081de6	-0.13292655
160	0xbd5a9a6d	-0.05336993
161	0xbe67ff12	-0.22655895
162	0x3e4e470e	0.20144293
163	0xbe42135b	-0.18952696
164	0xbe3c0e2e	-0.18364784
165	0x3de3ab4d	0.111166574
166	0x3e31b3d1	0.17353751
167	0xbdbec324	-0.09314564
168	0xbdba1932	-0.09086837
169	0x3dac6231	0.08417166
170	0xbd03eda5	-0.032209057
171	0x3e5bd1e1	0.21466781
172	0x3e44e953	0.19229631
173	0xbe058635	-0.13039477
174	0xbd58f0e1	-0.052964095
175	0x3dbd3a30	0.09239614
176	0xbe468333	-0.19385986
177	0xbe3a83c0	-0.18214321
178	0xbde6ce6d	-0.11269841
179	0x3d42f8f7	0.047600713
180	0xbe57592c	-0.2103011
181	0xbdb0a9a3	-0.08626106
182	0x3dc888eb	0.0979174
183	0xbe13df8d	-0.14440747
184	0x3e4d114b	0.20026128
185	0x3e2367da	0.15957585
186	0x3e72a571	0.23695923
187	0xbe65f1dc	-0.22455543
188	0x3e0f15b2	0.1397312
189	0xbe253234	-0.16132432
190	0x3bcb87a7	0.0062112394
191	0x3d8aa5a5	0.067698754
192	0x3e3fff6e	0.18749782
193	0xbe68165b	-0.22664778
194	0xbe16ec96	-0.14738688
195	0x3e07bfc8	0.13256752
196	0xbe0659ed	-0.13120241
197	0x3e006e5e	0.12542102
198	0x3e5fd512	0.21858624
199	0xbdb141f6	-0.08655159
200	0xbc06df91	-0.008232013
201	0x3e5d847d	0.21632572
202	0xbd32abf6	-0.043621026
203	0x3aa9ca94	0.001295405
204	0xbe50fca4	-0.20408875
205	0x3e157836	0.14596638
206	0xbe26dc2b	-0.16294925
207	0x3da82ab6	0.082112715
208	0xbdecb6e7	-0.11558323
209	0x3e62c61f	0.2214589
210	0xbcf4185c	-0.029796772
211	0x3e1e5c57	0.15464912
212	0x3e08e156	0.13367209
213	0xbce13d68	-0.027495101
214	0xbb2cf970	-0.0026393794
215	0xbd464388	-0.048404247
216	0x3e2c315d	0.16815706
217	0x3e621e23	0.22081809
218	0x3daa96ec	0.08329567
219	0x3ca5868b	0.020205757
220	0xbd9a281d	-0.07527182
221	0x3e598ef5	0.2124594
222	0x3e0ebf8b	0.13940255
223	0x3d2b81e3	0.041871917
224	0xbdb13837	-0.086533
225	0xbe29a8cc	-0.16568297
226	0x3e34fdcd	0.17674942
227	0xbe677335	-0.22602542
228	0x3c75e1a5	0.015007411
229	0x3e594dcf	0.21221088
230	0x3e5e1368	0.2168709
231	0xbda5b96a	-0.080920056
232	0x3e4a31ad	0.19745512
233	0x3dfc232a	0.123113945
234	0x3dd35175	0.10318271
235	0xbc94b5e5	-0.01815314
236	0x3d2e8ee0	0.042616725
237	0x3dea1161	0.11429096
238	0xbe1e13ab	-0.1543719
239	0x3d731dcf	0.0593546
240	0xbde1ccdc	-0.11025402
241	0x3e4e6c32	0.2015846
242	0xbe568768	-0.20950091
243	0xbde68c62	-0.11257245
244	0xbe67942d	-0.22615118
245	0xbd7d82a0	-0.06189215
246	0xbdd5417f	-0.10412883
247	0x3e1f6287	0.15564929
248	0x3c8a36ad	0.016871775
249	0xbe6e741c	-0.2328648
250	0xbd094b32	-0.033518977
251	0xbdd4da3b	-0.10393187
252	0x3de798d0	0.113084435
253	0x3e236e9a	0.1596016
254	0x3e4d77b1	0.2006519
255	0x3e020c63	0.12700038

bias f4 [64]
0	0x3e1a3bf4	0.15061933
1	0x3e1b8ac5	0.15189655
2	0x3e10eaa4	0.14152008
3	0x3e1baec0	0.1520338
4	0xbe288d61	-0.16460182
5	0xbe1b0caf	-0.15141557
6	0xbdf169e3	-0.117877744
7	0xbe022162	-0.12708047
8	0x3c6c2e49	0.014415332
9	0x3dc0a0bb	0.09405657
10	0x3c4d258c	0.012521159
11	0x3e3432a0	0.17597437
12	0x3e0869b5	0.13321574
13	0xbd4171c5	-0.04722764
14	0xbce9eea5	-0.028556177
15	0x3d998f99	0.07498092
16	0xbdd7591d	-0.10515044
17	0x3e3506e8	0.17678416
18	0x3d41b083	0.047287475
19	0xbd7fd5f4	-0.0624599
20	0xbd8213c9	-0.0635143
21	0x3e34053a	0.17580119
22	0xbd40a219	-0.04702959
23	0xbe1368f6	-0.14395508
24	0xbcb0deeb	-0.02159067
25	0xbd8c37c2	-0.068465725
26	0xbd6d3b1b	-0.057917695
27	0xbe03c0ea	-0.1286656
28	0x3e272201	0.16321565
29	0xbc5cf31e	-0.013485698
30	0xbd971b33	-0.07378235
31	0xbd9709c4	-0.073749095
32	0x3da55502	0.080728546
33	0xbe5d58ce	-0.21615908
34	0xbc183a5b	-0.009291257
35	0xbd9e4091	-0.07727159
36	0x3cb15e38	0.021651372
37	0xbe3d16a2	-0.18465665
38	0x3d91a0ef	0.07110774
39	0x3e007d89	0.12547888
40	0x3e572381	0.21009637
41	0xbda9609b	-0.08270379
42	0xbe6f841c	-0.2339024
43	0x3e5ed96c	0.21762627
44	0x3dc91884	0.09819129
45	0x3e28b50f	0.16475318
46	0x39987642	0.00029079808
47	0x3e51ef74	0.205015
48	0x3db2cd75	0.08730594
49	0xbde1e1f4	-0.11029425
50	0xbe618ddd	-0.22026773
51	0xbe226df8	-0.15862262
52	0xbc883463	-0.016626542
53	0x3d7ea71c	0.062171087
54	0x3cf9c7a4	0.030490704
55	0xbd12d54b	-0.035847943
56	0x3dd414ec	0.10355553
57	0xbe43ecff	-0.19133376
58	0x3e0f09f0	0.13968635
59	0xbe73225b	-0.23743574
60	0xbe008301	-0.12549974
61	0xbe184fcb	-0.14874189
62	0xbcf1c3d5	-0.029512325
63	0x3d84c32f	0.06482541

weight f4 [128, 64, 3]
0	0x3d792d41	0.060834173
1	0xbd949c44	-0.07256368
2	0xbd965b5e	-0.07341646
3	0xbd59d028	-0.05317703
4	0xbd1043a8	-0.035220772
5	0x3b6fd510	0.00365955
6	0xbcec25a7	-0.028826548
7	0xbbd30971	-0.0064403345
8	0xbd01112e	-0.031510524
9	0xbd1adf4a	-0.0378106
10	0xbc9d416e	-0.019196238
11	0x3d9663f8	0.07343286
12	0xbbe17d7b	-0.0068814135
13	0xbc9a11c8	-0.018807307
14	0xbc9bc620	-0.019015372
15	0x3d526dd4	0.05137427
16	0xbd9105cd	-0.070811845
17	0x3ce34b58	0.027745888
18	0xbd13a5ba	-0.03604672
19	0xbced8d6c	-0.0289981
20	0xbd105909	-0.03524116
21	0x3d386873	0.045021486
22	0xbce4ba42	-0.027920846
23	0x3c4827e2	0.01221654
24	0xbc83521a	-0.01603036
25	0x3d6caaf8	0.057780236
26	0xbd5c4aaf	-0.05378216
27	0x3d53ed45	0.05173995
28	0x3cb18e45	0.021674285
29	0x3cd5b60b	0.026087781
30	0x3d8a5b2d	0.06755672
31	0x3d044778	0.03229472
32	0xbd493680	-0.04912424
33	0xbd79fa87	-0.061029937
34	0x3d131000	0.03590393
35	0xbd3e2c28	-0.04642883
36	0xbcf404f8	-0.029787526
37	0x3d308cc6	0.043103002
38	0x3b705efc	0.003667771
39	0x3d58006d	0.05273478
40	0xbcc38ae8	-0.023869947
41	0xbd170dac	-0.036878273
42	0x3d85de38	0.065365255
43	0x3d6b4d94	0.05744703
44	0x3ba3aa45	0.004994663
45	0xbc7fe4e8	-0.01561854
46	0xbd5e2be1	-0.054241065
47	0x3cb7bf6e	0.022430148
48	0x3d34b95c	0.044122085
49	0xbd495568	-0.049153715
50	0xbc74a70e	-0.014932407
51	0x3c0a4db0	0.008441374
52	0x3d512f80	0.05107069
53	0xbc0b3dcf	-0.008498623
54	0x3cea4b4e	0.028600361
55	0x3d46cf2e	0.048537426
56	0x3d4522b3	0.048128795
57	0x3d80f10a	0.062959746
58	0xbca6a9a9	-0.020344572
59	0x3ca5c164	0.020233817
60	0xbd3d7edd	-0.046263564
61	0xbbbd01a0	-0.005768016
62	0x3d6c026b	0.057619493
63	0xbc964788	-0.018344656
64	0x3d49c730	0.049262226
65	0x3cb45918	0.02201514
66	0x3d846a85	0.064656295
67	0x3d5ff6fc	0.054678902
68	0x3d5b6e6c	0.053572103
69	0x3c37deb6	0.011222532
70	0xbbc7e7b7	-0.0061006206
71	0xbd029068	-0.031875998
72	0x3801f4d0	3.0983996e-05
73	0xbd3c0274	-0.045900777
74	0xbd011874	-0.03151746
75	0xbd7dff1e	-0.062010877
76	0xbd178f18	-0.0370017
77	0xbd6dd939	-0.058068488
78	0xbd432336	-0.047641
79	0x3d7fc182	0.062440403
80	0x3d051b44	0.032496706
81	0x3cb9a60a	0.022662181
82	0xbcbfd2d8	-0.023415968
83	0x3cd46981	0.025929214
84	0x3d94c8c5	0.07264856
85	0xbc91b9f3	-0.017788863
86	0x3c3c1922	0.0114806015
87	0x3d56f0f6	0.052475892
88	0x3c8a9d38	0.01692067
89	0xbd155506	-0.036458038
90	0x3c3f701c	0.011684444
91	0x3cca5292	0.024697576
92	0x3d65502c	0.05598466
93	0xbd2a7e7c	-0.04162453
94	0xbc26eef6	-0.010188809
95	0xbc7a1e96	-0.015266081
96	0xbd4c978c	-0.049949214
97	0x3d4961c7	0.049165513
98	0x3ca55266	0.020180892
99	0xbd1668f3	-0.03672118
100	0x3ca81106	0.02051593
101	0xbc66f92b	-0.014097492
102	0xbc6a510f	-0.014301552
103	0x3d95828b	0.0730029
104	0xbd880e8f	-0.06643402
105	0x3b2e5708	0.0026602168
106	0x3d64057e	0.0556693
107	0x3d717a8a	0.058954753
108	0x3d4deacf	0.05027276
109	0xbd973729	-0.07383568
110	0xbd85771f	-0.06516861
111	0x3b9a2c36	0.0047049774
112	0x3d259d65	0.040433306
113	0xbd82c03e	-0.063843235
114	0x3d0fe311	0.035128657
115	0xbc97f5df	-0.018549858
116	0x3d770ec3	0.060316812
117	0x3cffc9db	0.031224182
118	0xbbcd2017	-0.006259929
119	0x3d2b4f04	0.041823402
120	0xbd24ed20	-0.040265203
121	0xbd2e2971	-0.04251999
122	0xbcf41931	-0.029797168
123	0xbc14425c	-0.009049024
124	0x3c4feaa4	0.01269022
125	0x3d237ff7	0.03991696
126	0xbd630316	-0.055422865
127	0x3c1d6feb	0.009609203
128	0xbcc7fc85	-0.024412403
129	0xbbe0cb9f	-0.006860211
130	0x3cc71d13	0.024305856
131	0x3cafe232	0.021470163
132	0x3d8ddb09	0.06926543
133	0x3c2fbd91	0.0107263485
134	0x3cc9791a	0.024593879
135	0xbd5990c8	-0.05311659
136	0xbcd721bb	-0.026261201
137	0xbc12744f	-0.008938863
138	0x3d5d0e7a	0.053968884
139	0xbd3eefe8	-0.04661551
140	0x3d182c68	0.037151724
141	0x3afeea65	0.0019448517
142	0xbbfdbc40	-0.0077433884
143	0xbd1e5f1c	-0.038664922
144	0x3c8b8a21	0.017033638
145	0x3d2c1079	0.042007897
146	0xbd8a8ee5	-0.06765536
147	0xbd18dca4	-0.037319794
148	0x3d7f4284	0.062319294
149	0x3d1a0100	0.03759861
150	0xbd83b203	-0.064304374
151	0x3b2ec059	0.002666494
152	0x3d39b96f	0.04534286
153	0xbd3fb4e1	-0.04680336
154	0x3d66a409	0.05630878
155	0x3d846f3c	0.06466529
156	0xbd13b1a5	-0.036058087
157	0x3d3172e7	0.04332247
158	0xbb4bf505	-0.0031121385
159	0xbb85841e	-0.0040745875
160	0xbae2e429	-0.0017310429
161	0x3bbd9ed8	0.005786758
162	0xbc4fffee	-0.012695296
163	0x3ba5d07a	0.0050602527
164	0xbd4f0ce2	-0.050549395
165	0x3d53dc27	0.051723626
166	0xb7bb2440	-2.2309017e-05
167	0xbc5c9ad3	-0.013464647
168	0x3d078cf0	0.033093393
169	0x3c41f6d4	0.011838634
170	0xbd34c14e	-0.044129662
171	0x3c2b963f	0.010472833
172	0xbd47ce00	-0.04878044
173	0x3d4e0c13	0.050304484
174	0xbd307ab4	-0.04308577
175	0xbcbb3a24	-0.022854872
176	0x3d3f403c	0.046692118
177	0xbbebc895	-0.007195542
178	0xbcbcb87f	-0.023037193
179	0xbd8ae2a4	-0.067815095
180	0xbd2f986a	-0.042869963
181	0xbd8dec22	-0.069298044
182	0xbca13bed	-0.019681895
183	0xbcfdad77	-0.030966504
184	0x3d800220	0.06250405
185	0xbcf15c2e	-0.0294629
186	0xbd045a96	-0.032312952
187	0xbd100559	-0.03516135
188	0xbc8f24aa	-0.017473537
189	0xbd905105	-0.07046703
190	0x3d7f7b0f	0.062373217
191	0x3d1a6942	0.037698038
192	0x3d3aad97	0.045575704
193	0xbd8159dd	-0.06315968
194	0xbd064e32	-0.032789417
195	0x3d18a58e	0.03726726
196	0x3c54f058	0.012996756
197	0xbd07e6e7	-0.03317919
198	0xbc3bdfa3	-0.011466893
199	0xbcfb01c4	-0.03064049
200	0x3d35f376	0.044421636
201	0xbd1d288d	-0.03836875
202	0xbd836a97	-0.06416815
203	0x3d7c295d	0.061562885
204	0x3b1294f9	0.0022366627
205	0xbd330f7b	-0.043715935
206	0x3c30bc2e	0.010787053
207	0x3d4988b5	0.04920264
208	0xbca0dd27	-0.019636704
209	0x3d776bd3	0.060405564
210	0xbd0b7f05	-0.034056682
211	0x3d39b476	0.045338117
212	0xbd966097	-0.07342642
213	0xbc01e6c8	-0.007928558
214	0xbc19f657	-0.009397111
215	0xbab19006	-0.0013546951
216	0xbc51b474	-0.012799371
217	0x3beba6b0	0.0071915016
218	0xbc860d86	-0.01636387
219	0x3d8befd1	0.06832851
220	0xbd3934cc	-0.045216367
221	0xbc58a410	-0.013222709
222	0xbc3979c1	-0.011320532
223	0x3ca7a309	0.020463483
224	0x3d55b859	0.05217776
225	0xbb3ad11a	-0.0028505982
226	0x3b8b90cb	0.004259204
227	0xbc2e6fd6	-0.010646781
228	0x3cf3958d	0.029734397
229	0xbc8c0f0c	-0.017097019
230	0xbd8cfbfe	-0.06884001
231	0x3b73cb38	0.0037199985
232	0x3c9f1616	0.019419711
233	0xbbeca63d	-0.0072219656
234	0xbd0503b5	-0.03247424
235	0xbcb9c96b	-0.022679051
236	0x3d58920c	0.052873656
237	0x3d69fbd4	0.057124928
238	0xbd6a56a7	-0.057211544
239	0xbc8b87f7	-0.017032607
240	0xbd4fab20	-0.050700307
241	0xbd46b41f	-0.04851162
242	0x3c69e8ff	0.014276742
243	0x3cea079b	0.02856808
244	0xbd265c64	-0.040615454
245	0x3d0793fe	0.03310012
246	0x3c55842b	0.013032
247	0x3d885b7c	0.06658074
248	0x3d5a9511	0.053364817
249	0x3d47c93c	0.048775896
250	0xbd89472d	-0.06703029
251	0xbc18513c	-0.0092967115
252	0xbd91e748	-0.071241915
253	0xbd390706	-0.045172714
254	0xbc08b2fa	-0.008343453
255	0x3c883db4	0.016630985

bias f4 [128]
0	0xbd1a1710	-0.03761965
1	0xbd8b94f2	-0.068155184
2	0x39ac5c8a	0.00032875343
3	0xbcd24e6e	-0.025672164
4	0xbccdc4b1	-0.025118204
5	0x3cd8d3bd	0.026468152
6	0xbd8db42e	-0.06919132
7	0xbd48baea	-0.04900638
8	0xbcffc74a	-0.031222958
9	0x3d0fe68e	0.035131983
10	0xbd3cd2b1	-0.04609937
11	0x3d221bc8	0.039577276
12	0xbd2ba5c2	-0.041906126
13	0xbd0e68e5	-0.034768004
14	0x3c956af7	0.018239481
15	0x3d4ce467	0.05002251
16	0x3d2d25d9	0.042272422
17	0x3d3ae651	0.045629803
18	0x3c2f3a45	0.010695045
19	0xbc406f90	-0.011745349
20	0xbd8a591a	-0.06755276
21	0x3d931983	0.071826
22	0x3d09db16	0.033656202
23	0x3c99c24a	0.018769402
24	0xbd857a79	-0.065175004
25	0xbd641974	-0.055688336
26	0x3ba606e3	0.005066739
27	0xbd51b5c4	-0.051198736
28	0xbd549a82	-0.051905163
29	0x3d84dfc5	0.06487993
30	0x3d2ed225	0.04268088
31	0xbd94f6b0	-0.072736144
32	0xbb9b9e79	-0.004749116
33	0x3ce44ad0	0.027867705
34	0xbd7e75d8	-0.062124103
35	0x3d73dd09	0.059536967
36	0x3da5c3ea	0.08094008
37	0xbd62f389	-0.055408034
38	0xbd9c62d9	-0.07636041
39	0xbc3e3629	-0.0116095925
40	0xbd7b89ca	-0.061410703
41	0x3d4e18a2	0.05031646
42	0xbc020cc6	-0.007937616
43	0xbc5394e5	-0.012913917
44	0x3d1db17c	0.03849934
45	0x3d82c4ad	0.06385169
46	0x3d87019b	0.06592103
47	0x3d43042d	0.047611404
48	0xbc4ae21a	-0.012383008
49	0x3bc0cdb5	0.005883897
50	0x3c5acb54	0.013354141
51	0x3c7bd32a	0.01537017
52	0xbc8277f1	-0.015926333
53	0xbd21d497	-0.039509382
54	0x3d7477b2	0.059684463
55	0x3cab04a3	0.020876234
56	0xbd53da92	-0.051722117
57	0x3c0142d1	0.007889465
58	0xbd5bb564	-0.053639784
59	0xbcfd14d3	-0.030893719
60	0x3cbb7fd0	0.022888094
61	0xbd328bec	-0.04359047
62	0x3d5dba1b	0.054132562
63	0x3ce5a0df	0.02803081
64	0xbd13ee64	-0.03611602
65	0xbcbca61c	-0.023028426
66	0xbd2a49b9	-0.041574214
67	0x3985120c	0.00025381183
68	0x3d153483	0.036427032
69	0xbcd68346	-0.026185643
70	0x3d96792d	0.07347331
71	0xbc401199	-0.011722946
72	0x3d5bf518	0.053700536
73	0xbbfc8c12	-0.0077071274
74	0xbba5fd7d	-0.0050656185
75	0x3d028a56	0.03187021
76	0xbd03ef28	-0.0322105
77	0xbcde8874	-0.027164675
78	0xbd168277	-0.036745515
79	0x3d2f508f	0.042801436
80	0xbccbdb6c	-0.024884902
81	0xbc9c730a	-0.019097824
82	0x3d508c42	0.05091501
83	0x3c1b1f84	0.009467963
84	0x3c9a15a4	0.018809147
85	0x3aca589a	0.0015437782
86	0xbc45a9fe	-0.012064455
87	0x3d6f3846	0.058403276
88	0x3d83bc38	0.06432384
89	0x3d79f48e	0.06102424
90	0x3ca69308	0.020333782
91	0x3d8bd121	0.068269975
92	0xbac98def	-0.0015377383
93	0xbca0b1c0	-0.019616008
94	0xbda195d8	-0.078899086
95	0x3bc55819	0.006022465
96	0xbd1b7644	-0.037954584
97	0x3d5d8675	0.054083306
98	0x3ccdd0b3	0.02512393
99	0xbc648cf8	-0.013949625
100	0xbd825c86	-0.06365304
101	0x3d460f4b	0.04835443
102	0x3c524c53	0.01283558
103	0xbb19d253	-0.002347131
104	0x3d8b42d2	0.06799854
105	0x3d567abe	0.05236315
106	0xbd877a8c	-0.06615171
107	0x3d230e51	0.039808575
108	0xbcb74e3c	-0.022376172
109	0xba8fa4e8	-0.001095918
110	0x3d8ed8d1	0.06974948
111	0x3d870090	0.06591904
112	0x3d055af4	0.032557443
113	0x3d066d1a	0.03281889
114	0x3b92ab20	0.004475966
115	0xbd53ee3b	-0.051740866
116	0x3d9b411a	0.075807765
117	0xbd1b1846	-0.037864946
118	0x3d7f4e28	0.062330395
119	0x3d4e5b6b	0.05038015
120	0x3ad8a283	0.0016527924
121	0x3d7b043b	0.06128333
122	0xbd89dbe5	-0.06731395
123	0x3cb2d090	0.021827966
124	0xbab7ab2d	-0.0014012806
125	0xbd766f8f	-0.060164984
126	0xbceae6dc	-0.028674535
127	0x3d2c1f0a	0.04202179

weight f4 [1, 1664]
0	0xbc36d58f	-0.011159315
1	0xbc90c989	-0.017674224
2	0xbcc25b35	-0.023725132
3	0x3c032eec	0.0080067925
4	0xbc9e1968	-0.019299224
5	0xbb9f92cc	-0.0048697945
6	0xbbc7c2ee	-0.0060962355
7	0x3b30cda4	0.002697804
8	0xbc250b28	-0.010073461
9	0x3af66f08	0.00188014
10	0x397d560c	0.00024160015
11	0x3b7e37d7	0.0038790607
12	0xbc883632	-0.016627405
13	0x3c414fbc	0.011798795
14	0x3c228a21	0.009920628
15	0xbc699ee6	-0.014259076
16	0xbbe99503	-0.0071283593
17	0xbae473e3	-0.0017429556
18	0x3c304af6	0.01076006
19	0x3c9bb1cf	0.019005684
20	0x3c7e8e8c	0.0155369155
21	0x38cab664	9.6660835e-05
22	0x3bec9aa6	0.007220584
23	0xbc2decaf	-0.010615512
24	0x3c836dd5	0.016043583
25	0xbcc2181c	-0.023693137
26	0xb8997824	-7.3179865e-05
27	0x3cb1286f	0.021625726
28	0xbc020459	-0.007935607
29	0xbc8d151a	-0.017221976
30	0x3c2c6199	0.010521316
31	0x3abf3dc5	0.0014590552
32	0x3b5036ba	0.00317709
33	0xb92aa246	-0.00016272915
34	0x3c570fe8	0.013126351
35	0x3aa73ce0	0.0012759231
36	0xbcaee24b	-0.02134814
37	0xbca3e0cf	-0.020004658
38	0x3b19120e	0.0023356709
39	0x3ad29a94	0.0016067796
40	0xbc91d2f8	-0.017800793
41	0xbbdfa58e	-0.0068251556
42	0x3a645a97	0.00087110087
43	0xba99785b	-0.0011708842
44	0xbc9e21c7	-0.019303216
45	0x3c98ec41	0.018667342
46	0x3c62045b	0.013794984
47	0xbc8691fa	-0.016427029
48	0x3bfb2bb1	0.0076651205
49	0x3c1a7170	0.00942646
50	0x3bf71593	0.0075404136
51	0x3ae8dad1	0.0017765408
52	0x3c531a0d	0.012884629
53	0x3c0913d3	0.008366543
54	0xbc63a9d9	-0.013895475
55	0xbca6a8ff	-0.020344255
56	0x3b9a7365	0.004713463
57	0xbbaf56d1	-0.0053509255
58	0xbc6bf17d	-0.014400837
59	0xbcb8eb82	-0.022573236
60	0x3bc23d68	0.0059277304
61	0xbc8f5f53	-0.017501509
62	0x3c4b2be0	0.012400597
63	0xbc229bef	-0.009924873
64	0x3cb64700	0.022250652
65	0xbaff5432	-0.0019480048
66	0x3c85bb58	0.016324684
67	0xbbc8d8d8	-0.0061293654
68	0xbc56d280	-0.013111711
69	0x3c8b6122	0.01701409
70	0xbb03e0fb	-0.0020123112
71	0xbc35a3a6	-0.01108638
72	0x3bab1294	0.0052207205
73	0x3c29fc67	0.010375119
74	0xbcadbf5d	-0.021209413
75	0xbca79aa6	-0.020459484
76	0xbbd49d25	-0.0064884597
77	0x3aae1c0f	0.0013283509
78	0xbb75cf4c	-0.0037507592
79	0xbb81a261	-0.0039561247
80	0x3c8fa90c	0.017536663
81	0xb8b22ce6	-8.4960644e-05
82	0xbc712cc5	-0.014720147
83	0x3b2664c7	0.0025389658
84	0x3c908117	0.01763968
85	0x3b54e1f8	0.003248332
86	0xbc95252b	-0.0182062
87	0x3b9caf4e	0.00478164
88	0xbc32bb3b	-0.010908897
89	0xbb8e4ce8	-0.004342664
90	0x3c638872	0.013887512
91	0x3be1e7ba	0.006894079
92	0xbaf5d789	-0.0018756251
93	0x3c291124	0.010319028
94	0x3c341736	0.010991862
95	0xbbc00952	-0.005860486
96	0xbb60e016	-0.0034313253
97	0xbbd003ae	-0.006348095
98	0x3ba13df8	0.0049207173
99	0x3b436e94	0.0029820548
100	0xbc53ed38	-0.012934975
101	0x3ae0042f	0.001709109
102	0x39b3ed0f	0.00034318163
103	0xba52725c	-0.0008027905
104	0xbb807ea6	-0.0039213477
105	0xbcab7092	-0.020927701
106	0x3c7163fd	0.014733312
107	0xbc7d317c	-0.0154536925
108	0xbcbb6b69	-0.022878366
109	0xbc42eb03	-0.0118968515
110	0xbcc9d333	-0.02463684
111	0x3c98cb83	0.01865173
112	0x3ca06286	0.01957823
113	0x3af89e0f	0.0018968004
114	0xbc52487b	-0.0128346635
115	0xbc91ea27	-0.017811848
116	0xbca55112	-0.020180259
117	0xbb887d47	-0.004165325
118	0xbb93202b	-0.0044899187
119	0xbbe8f349	-0.00710908
120	0xbc8cb1ed	-0.017174685
121	0x3c2816cb	0.0102593405
122	0x3c5e92fc	0.0135848485
123	0xbc550e0f	-0.01300384
124	0x3c83cf6d	0.01609012
125	0x3ad46955	0.0016205708
126	0xbb69b612	-0.00356615
127	0xbc50f4b1	-0.0127536515
128	0xbbd98546	-0.006638202
129	0xb8e8bf3d	-0.00011098243
130	0xbbf47230	-0.0074599013
131	0x3cc0e4ba	0.023546565
132	0xbc7c2240	-0.015389025
133	0x3ac7f8d0	0.0015256647
134	0xba1a368a	-0.0005882761
135	0xbc0db4b9	-0.008649045
136	0x3b70fead	0.0036772892
137	0xbc9774ef	-0.018488375
138	0xbcb8aaff	-0.022542475
139	0x3c7ad701	0.01531005
140	0x3c6cbc70	0.014449224
141	0xbbc95930	-0.006144665
142	0xbc801e9c	-0.015639596
143	0x3c366280	0.011131883
144	0xbc9a68a6	-0.018848728
145	0xbc97b92b	-0.018520912
146	0x3ab6e399	0.0013953327
147	0xb93a2c0a	-0.00017754748
148	0xbc4e0ba2	-0.012576016
149	0x3caf4213	0.021393811
150	0x3c16db1c	0.009207513
151	0xbc83a42b	-0.016069492
152	0xbcc16e53	-0.023612177
153	0x3b8d5b40	0.0043138564
154	0xbc64cd07	-0.013964898
155	0x3c737da8	0.014861502
156	0x3cb5daf8	0.022199139
157	0x3ca90861	0.020633878
158	0xbb3e6cd8	-0.0029056575
159	0x3c4edbc4	0.012625638
160	0x3bbf966b	0.0058467886
161	0x3c915717	0.017741723
162	0x3c02101c	0.007938411
163	0xbb804562	-0.003914521
164	0xbc93cc56	-0.01804177
165	0xbca7060b	-0.020388624
166	0x3c59313c	0.013256367
167	0x3c197ca0	0.009368092
168	0x3c3cc852	0.011522369
169	0x3acda94c	0.0015690713
170	0xbb134929	-0.0022474027
171	0x3b01d1c1	0.001980886
172	0xbc598125	-0.013275419
173	0x3c141ae1	0.009039612
174	0x3c486c76	0.01223289
175	0xbb19700d	-0.0023412735
176	0x3cc3fec4	0.023925193
177	0x3c006a2a	0.0078378115
178	0xbc441da7	-0.01196996
179	0xbcb7db99	-0.02244358
180	0xbaa63d1c	-0.0012683007
181	0xbc3e21a0	-0.0116046965
182	0xbc716523	-0.0147335855
183	0xbc8d4123	-0.017242974
184	0xbae7318e	-0.001763867
185	0x3c38b698	0.0112740025
186	0xba0e4f5d	-0.0005428696
187	0xbc483c71	-0.012221442
188	0xbc88277d	-0.016620392
189	0xbc879f23	-0.016555374
190	0x3b68d7e4	0.0035529071
191	0xba8c2e41	-0.0010694937
192	0x3b5708fd	0.0032811754
193	0xbc062732	-0.008188056
194	0x3c744876	0.014909854
195	0xbc805db5	-0.015669683
196	0xbc87be6d	-0.016570294
197	0xbc01a213	-0.007912177
198	0xbcba5d26	-0.022749495
199	0x3ca80cda	0.02051394
200	0xbb20363a	-0.0024446384
201	0xbb96abf4	-0.004598135
202	0x3c870267	0.016480638
203	0xbc9122ef	-0.017716853
204	0xbcded9fd	-0.027203554
205	0x3caca7b3	0.021076059
206	0x3b8b36ea	0.0042484896
207	0x3c3e4944	0.011614148
208	0x3c658eb6	0.014011076
209	0x3c184156	0.009292921
210	0x3c62fc5a	0.013854111
211	0xbc7a64b5	-0.0152827995
212	0xbc6b99b5	-0.014379908
213	0xba23f63b	-0.0006254648
214	0xbc8d3589	-0.017237442
215	0xbc9e996f	-0.019360272
216	0xbc9c519f	-0.019081889
217	0xbc482708	-0.012216337
218	0x3bd0a06d	0.0063667805
219	0xb9c98dd2	-0.00038443372
220	0x398f47b6	0.00027328514
221	0x3c60bf94	0.013717551
222	0x3bf702be	0.0075381687
223	0xbc9d807a	-0.019226301
224	0xbcbe9a44	-0.023266919
225	0x3a67fdde	0.000884978
226	0xbc9680b4	-0.018371917
227	0xbc66c6f0	-0.014085516
228	0x3c62342d	0.013806385
229	0x3c4c45b3	0.012467789
230	0x3be4de92	0.0069845403
231	0xbc872bc8	-0.016500369
232	0x3bc8b0ea	0.0061246054
233	0xbcb1a048	-0.021682873
234	0xb78410b2	-1.57434e-05
235	0xbcc6f227	-0.02428539
236	0xba95525b	-0.0011392342
237	0xbc6fa2cd	-0.014626217
238	0x3b8bba71	0.004264169
239	0x3c9933e3	0.0187015
240	0xbc9a59c8	-0.01884164
241	0x3aec476c	0.0018026656
242	0x3c62909a	0.013828421
243	0xbc465f65	-0.012107705
244	0x3cb303a7	0.021852328
245	0x3c1d6d52	0.0096085835
246	0x3b657e66	0.0035017966
247	0x3ccdd9bc	0.025128238
248	0xbcccb8f3	-0.024990534
249	0x3b27214d	0.0025502027
250	0xbc1b2355	-0.009468873
251	0xbc8f1090	-0.017463952
252	0x3b4e7d2f	0.003150772
253	0x3a8b8466	0.0010644316
254	0x3c81ff8c	0.015868925
255	0x3cb39a9f	0.021924315

weight f4 [1664]
0	0x3f7ff3d8	0.9998145
1	0x3f7fda57	0.99942535
2	0x3f8054bd	1.002586
3	0x3f7eb513	0.9949505
4	0x3f80215b	1.0010179
5	0x3f7f804e	0.9980515
6	0x3f7ffcb6	0.9999498
7	0x3f7d1e84	0.9887469
8	0x3f8010de	1.0005147
9	0x3f7cb85d	0.98718816
10	0x3f79a452	0.9751636
11	0x3f7cf307	0.9880833
12	0x3f7e21ab	0.99270123
13	0x3f7f4a98	0.99723196
14	0x3f7f3cbf	0.99702066
15	0x3f801060	1.0004997
16	0x3f7fd73b	0.9993779
17	0x3f7d5acd	0.98966676
18	0x3f7f42a3	0.99711055
19	0x3f7f6585	0.9976428
20	0x3f7f5a83	0.99747485
21	0x3f7b8f82	0.9826585
22	0x3f7f1a1b	0.9964921
23	0x3f8005bd	1.0001751
24	0x3f7f5ad2	0.99747956
25	0x3f801dec	1.0009131
26	0x3f7c1085	0.98462707
27	0x3f80956d	1.0045601
28	0x3f7f359c	0.99691176
29	0x3f7fd803	0.9993898
30	0x3f7f545c	0.997381
31	0x3f7ec1ed	0.9951466
32	0x3f7f0f55	0.9963277
33	0x3f7e5eed	0.99363595
34	0x3f7f89e0	0.99819756
35	0x3f7ebaf3	0.9950401
36	0x3f7f2715	0.9966901
37	0x3f7ecfad	0.9953564
38	0x3f7d4697	0.98935837
39	0x3f7e2c41	0.99286276
40	0x3f80018a	1.000047
41	0x3f7ffd3d	0.99995786
42	0x3f7d7870	0.990119
43	0x3f784e4c	0.9699447
44	0x3f806900	1.0032043
45	0x3f7e7b5b	0.99406976
46	0x3f7eac16	0.9948133
47	0x3f8084c7	1.004052
48	0x3f7e834a	0.9941908
49	0x3f7e8574	0.99422383
50	0x3f7eabe7	0.9948105
51	0x3f7a3972	0.97743905
52	0x3f7f6d04	0.9977572
53	0x3f802af2	1.0013106
54	0x3f7e8110	0.99415684
55	0x3f7eac37	0.9948153
56	0x3f7f637f	0.99761194
57	0x3f7d2e90	0.98899174
58	0x3f7f7bd2	0.9979831
59	0x3f800d0b	1.000398
60	0x3f7e1543	0.9925119
61	0x3f803378	1.0015707
62	0x3f7e32ea	0.9929644
63	0x3f803ae5	1.0017973
64	0x3f7f4cbd	0.9972647
65	0x3f79f439	0.9763828
66	0x3f7dcd9f	0.9914188
67	0x3f7ed42a	0.99542487
68	0x3f808ee0	1.0043602
69	0x3f7e973f	0.99449533
70	0x3f7d0e2a	0.9884974
71	0x3f7f91ec	0.99832034
72	0x3f7e8e74	0.99436116
73	0x3f7ebf35	0.9951051
74	0x3f802747	1.0011986
75	0x3f8030cc	1.0014892
76	0x3f7fb9a2	0.9989263
77	0x3f7dc4f8	0.99128675
78	0x3f7ee944	0.99574685
79	0x3f7f4824	0.9971945
80	0x3f7f8181	0.9980698
81	0x3f7be239	0.98392063
82	0x3f801d1c	1.0008883
83	0x3f7d9533	0.99055785
84	0x3f7ecfd0	0.99535847
85	0x3f7d43b3	0.98931426
86	0x3f8054ab	1.0025839
87	0x3f7dbcc8	0.9911618
88	0x3f8042cc	1.0020385
89	0x3f7f4915	0.9972089
90	0x3f7f082d	0.9962185
91	0x3f7e6f2d	0.9938839
92	0x3f7c3dcc	0.98531795
93	0x3f7e75f2	0.9939872
94	0x3f7e4dc3	0.99337405
95	0x3f7fcfee	0.9992665
96	0x3f7da4d7	0.9907965
97	0x3f7fe3cc	0.99956965
98	0x3f7e1014	0.99243283
99	0x3f7d4c28	0.9894433
100	0x3f802a6c	1.0012946
101	0x3f7c8019	0.9863296
102	0x3f7c0adb	0.98454064
103	0x3f7bbfb3	0.98339385
104	0x3f7f36f3	0.9969322
105	0x3f8016f4	1.0007005
106	0x3f7f67be	0.99767673
107	0x3f800cb5	1.0003878
108	0x3f8011b1	1.0005399
109	0x3f80013e	1.0000379
110	0x3f803723	1.0016826
111	0x3f7eca09	0.9952703
112	0x3f7ef588	0.995934
113	0x3f7df020	0.99194527
114	0x3f8016f4	1.0007005
115	0x3f7ff886	0.9998859
116	0x3f7fe1b0	0.99953747
117	0x3f7f325f	0.99686235
118	0x3f7e071e	0.9922961
119	0x3f7e5bf9	0.9935909
120	0x3f7e6298	0.9936919
121	0x3f806b62	1.0032771
122	0x3f80a032	1.0048888
123	0x3f7df439	0.9920078
124	0x3f80c288	1.0059366
125	0x3f7bad55	0.9831136
126	0x3f7e03de	0.9922465
127	0x3f7ddbd8	0.9916358
128	0x3f7daaa4	0.990885
129	0x3f7b62eb	0.9819781
130	0x3f7f10f7	0.9963526
131	0x3f8016db	1.0006975
132	0x3f7f5653	0.99741095
133	0x3f7b055d	0.9805506
134	0x3f7a5590	0.9778681
135	0x3f7fd5eb	0.9993579
136	0x3f7ec8d1	0.9952517
137	0x3f7fd2f1	0.99931246
138	0x3f7fc30c	0.9990699
139	0x3f7fddaf	0.9994764
140	0x3f7fe5ce	0.9996003
141	0x3f7f332e	0.9968747
142	0x3f800911	1.0002767
143	0x3f7fa6c3	0.99863833
144	0x3f7eb976	0.9950174
145	0x3f7ee7b1	0.99572283
146	0x3f7e52c7	0.9934506
147	0x3f7e1a09	0.99258476
148	0x3f7efbde	0.9960307
149	0x3f8037d0	1.0017033
150	0x3f7fd256	0.9993032
151	0x3f7f53ee	0.9973744
152	0x3f7fbdd8	0.99899054
153	0x3f7e302d	0.9929226
154	0x3f7fa4ab	0.9986064
155	0x3f807140	1.0034561
156	0x3f7f6e03	0.9977724
157	0x3f7f0fa6	0.9963325
158	0x3f7d268f	0.9888696
159	0x3f7e7c3b	0.9940831
160	0x3f7e8a26	0.9942955
161	0x3f7e99f5	0.9945367
162	0x3f7e4cd7	0.99336
163	0x3f7cedd4	0.98800397
164	0x3f806768	1.0031557
165	0x3f805dac	1.0028586
166	0x3f7e9b77	0.9945597
167	0x3f7ebe20	0.9950886
168	0x3f7edf27	0.99559253
169	0x3f7cb0e0	0.9870739
170	0x3f7c50c9	0.9856077
171	0x3f7bfed6	0.98435724
172	0x3f7e4881	0.9932938
173	0x3f8035e1	1.0016443
174	0x3f7fbbbc	0.99895835
175	0x3f7ae403	0.9800417
176	0x3f7fb9e5	0.9989303
177	0x3f7fb57a	0.99886286
178	0x3f7f0125	0.9961112
179	0x3f7fa68b	0.998635
180	0x3f7dec49	0.9918867
181	0x3f7e0745	0.9922984
182	0x3f7f5e0b	0.99752873
183	0x3f7ef8f7	0.9959864
184	0x3f7e5400	0.99346924
185	0x3f7ff9af	0.9999036
186	0x3f7e3f56	0.9931539
187	0x3f7f2bb0	0.99676037
188	0x3f7ee9dc	0.9957559
189	0x3f7ef1d1	0.9958773
190	0x3f7b9ccb	0.9828612
191	0x3f7e1ff5	0.9926751
192	0x3f7be6e5	0.9839919
193	0x3f7ea720	0.9947376
194	0x3f806025	1.0029341
195	0x3f7f20f2	0.99659646
196	0x3f7f9cef	0.99848837
197	0x3f7f592f	0.9974546
198	0x3f800310	1.0000935
199	0x3f7f97e6	0.99841154
200	0x3f7e5bda	0.99358904
201	0x3f7f5ff4	0.9975579
202	0x3f7ed0ad	0.99537164
203	0x3f802e45	1.001412
204	0x3f80667d	1.0031277
205	0x3f7eeb91	0.99578196
206	0x3f7de4e8	0.9917741
207	0x3f7e323e	0.99295413
208	0x3f7f1b80	0.99651337
209	0x3f7f3b60	0.99699974
210	0x3f7f47e8	0.99719095
211	0x3f7fd393	0.9993221
212	0x3f7fb2b3	0.9988205
213	0x3f7d0029	0.9882837
214	0x3f7fae8a	0.998757
215	0x3f7faba6	0.9987129
216	0x3f7f5d70	0.9975195
217	0x3f7faa70	0.9986944
218	0x3f7ed53d	0.99544126
219	0x3f797e9d	0.9745882
220	0x3f7aec9e	0.980173
221	0x3f7e9e45	0.9946025
222	0x3f7cabe5	0.9869979
223	0x3f80acd0	1.0052738
224	0x3f80ad21	1.0052835
225	0x3f7d8fdc	0.99047637
226	0x3f8050a3	1.0024608
227	0x3f803349	1.0015651
228	0x3f7e93f1	0.9944449
229	0x3f7ec78e	0.99523246
230	0x3f7ea4e9	0.9947038
231	0x3f8026ed	1.0011879
232	0x3f7ea12a	0.99464667
233	0x3f803a1c	1.0017734
234	0x3f7b06aa	0.98057044
235	0x3f8020fd	1.0010067
236	0x3f7a237d	0.977104
237	0x3f8015bc	1.0006633
238	0x3f7ebb3b	0.9950444
239	0x3f7f36cb	0.9969298
240	0x3f8030f2	1.0014937
241	0x3f7e3d6b	0.99312466
242	0x3f7f264b	0.99667805
243	0x3f801e15	1.000918
244	0x3f7f5f3c	0.9975469
245	0x3f7f33ed	0.9968861
246	0x3f7e8aef	0.99430746
247	0x3f805244	1.0025105
248	0x3f804ec1	1.0024034
249	0x3f7d8422	0.99029744
250	0x3f7fc1b5	0.9990495
251	0x3f7fe290	0.9995508
252	0x3f7dd6f1	0.991561
253	0x3f7b7227	0.9822106
254	0x3f7fa70d	0.99864274
255	0x3f7fb70a	0.9988867

bias f4 [1664]
0	0xba950197	-0.0011368272
1	0xbaba7918	-0.0014226763
2	0xbabebb53	-0.0014551677
3	0x3b241116	0.0025034598
4	0xbab87a64	-0.0014074561
5	0xb9a6f08f	-0.00031841217
6	0xba1d25a3	-0.0005994683
7	0x3b5c3c7b	0.0033605385
8	0xbaa4e1b0	-0.0012579467
9	0x3b36b04f	0.0027876084
10	0x3b8b8f6a	0.0042590396
11	0x3b3e561c	0.0029043024
12	0xbac20ed5	-0.0014805446
13	0x3b43df96	0.0029887906
14	0x3b520360	0.0032045469
15	0xba2e2438	-0.000664297
16	0x3a0c3018	0.00053477427
17	0x3c2ae649	0.010430881
18	0x3b4b12bc	0.0030986508
19	0x3b26824b	0.002540725
20	0x3b314cfb	0.002705394
21	0x3c95648b	0.01823642
22	0x3b719cb3	0.0036867082
23	0xb9852ac8	-0.0002539961
24	0x3b2f5f41	0.0026759657
25	0xba91fcd1	-0.0011137967
26	0x3b0a00ca	0.00210576
27	0x3b00d927	0.0019660683
28	0xba7c6ece	-0.00096295483
29	0xbac20cdb	-0.0014804857
30	0x3b044b19	0.0020186363
31	0x3b14c29b	0.0022699002
32	0x3b0f71eb	0.0021887969
33	0x3b0c7b45	0.002143578
34	0x3b01d458	0.0019810405
35	0x3b10be5f	0.0022086126
36	0xbacc6878	-0.0015595099
37	0xbaca62a3	-0.0015440773
38	0x3c5a0424	0.013306651
39	0x3ba3a80e	0.004994399
40	0xba852ad0	-0.0010159854
41	0x3a74f3f1	0.00093442114
42	0x3c0344c4	0.0080120005
43	0x3ce06477	0.027391655
44	0xba81a986	-0.0009892441
45	0x3b1cbaab	0.0023914974
46	0x3b2b107a	0.002610235
47	0xba555397	-0.0008137761
48	0x3b446ea2	0.002997317
49	0x3b3c6230	0.0028745048
50	0x3b56669c	0.0032714969
51	0x3cce0f21	0.025153698
52	0x3aff6fca	0.0019488272
53	0x39897e43	0.0002622475
54	0xbb16b206	-0.0022994294
55	0xbb07a335	-0.0020696644
56	0xb8372578	-4.3665495e-05
57	0xbb315e81	-0.0027064385
58	0xbb085fc8	-0.0020809043
59	0xbb014670	-0.0019725822
60	0x3aa79e8b	0.0012788338
61	0xbb0f3d2a	-0.0021856525
62	0x3adcf504	0.0016857688
63	0xbaece5f4	-0.0018073902
64	0x3ad6b072	0.0016379489
65	0x3c89e1d6	0.01683132
66	0x3ae7c725	0.0017683251
67	0x3b4b05f0	0.003097888
68	0xbae089a9	-0.001713087
69	0x3ae2651f	0.0017272568
70	0xbb430b5e	-0.0029761414
71	0xbaf5ef7c	-0.0018763389
72	0x3ac3d363	0.0014940317
73	0x3adba2af	0.0016756858
74	0xbae8a6d5	-0.0017749915
75	0xbaea4db0	-0.0017875936
76	0xbad18988	-0.0015986422
77	0x3a832eaa	0.0010008414
78	0xb82cafb8	-4.1171646e-05
79	0xba61b15e	-0.00086094986
80	0x3af87dcb	0.0018958388
81	0x3b98d3a3	0.004663901
82	0xbac8d22a	-0.0015321423
83	0x3b23827e	0.0024949606
84	0x3afd1e1b	0.001931134
85	0x3b105dbb	0.0022028524
86	0xbace53a3	-0.0015741478
87	0x3b07ecdb	0.0020740542
88	0xbab82b2d	-0.0014050953
89	0x3a23e176	0.0006251553
90	0x3b2042f1	0.0024453963
91	0x3aa6fce8	0.0012740167
92	0xbac03400	-0.0014663935
93	0x3ad15388	0.0015970329
94	0x3ad61791	0.0016333928
95	0xbb22732f	-0.0024787893
96	0xbbcf7d8f	-0.0063321064
97	0xbb1852c7	-0.0023242699
98	0x3a9b80a0	0.0011863895
99	0x3a3317f7	0.0006831879
100	0xbb0534de	-0.00203257
101	0x3a562610	0.0008169124
102	0x3a4bca6d	0.0007773999
103	0x3c55a190	0.013039008
104	0x3b77d03d	0.0037813329
105	0xba862482	-0.0010234269
106	0x3b3616cb	0.0027784582
107	0xba454ca3	-0.00075263734
108	0xba8f7b1b	-0.0010946722
109	0xb9e4cbba	-0.00043639337
110	0xba92d9cb	-0.0011203823
111	0x3b232fc3	0.0024900294
112	0x3b226681	0.0024780335
113	0x3befb9c6	0.007315847
114	0xba08fd27	-0.0005225711
115	0xba6faa3a	-0.0009142492
116	0xba7df9f1	-0.0009688428
117	0x3abf0b29	0.001457547
118	0xba09631b	-0.0005240903
119	0xba2d063f	-0.0006600357
120	0xbaa21728	-0.001236652
121	0x3b3c9cdd	0.0028780021
122	0x3b2c08cd	0.0026250363
123	0xba9e70bf	-0.0012088044
124	0x3b22d3e2	0.002484553
125	0x3bc16ffb	0.0059032417
126	0xb9892578	-0.00026158593
127	0xba9faf5a	-0.0012182996
128	0xba7e3d57	-0.00096984714
129	0x3a039adf	0.0005020331
130	0xb984727f	-0.00025262308
131	0x3b210612	0.0024570269
132	0xba655e0a	-0.00087496697
133	0x3ca42dcd	0.02004137
134	0x3cb6d338	0.022317514
135	0x37a2fd96	1.942999e-05
136	0x3bc3a93e	0.005971103
137	0xba7eb46a	-0.0009716215
138	0xba92aa86	-0.0011189736
139	0x3b3869e9	0.00281393
140	0x3b3d8c95	0.0028922905
141	0x398ffeee	0.00027465023
142	0xba4c6997	-0.00077977165
143	0x3b55b406	0.0032608523
144	0xbaa991e8	-0.001293716
145	0xbaa44455	-0.0012532572
146	0x3a920c8f	0.0011142659
147	0x39b435c5	0.00034372337
148	0xba8644fe	-0.001024395
149	0x3b213067	0.00245955
150	0x3b7907bd	0.0037998997
151	0xba93ba42	-0.0011270719
152	0xbaa9e70a	-0.0012962532
153	0x3bb0a892	0.005391189
154	0xba82200f	-0.0009927767
155	0x3b2e6a3b	0.0026613611
156	0x3b1e0cda	0.0024116547
157	0x3b0a9a32	0.0021149036
158	0x3bb72d31	0.005590104
159	0x3b20d87b	0.0024543095
160	0x3b3e6a7d	0.0029055171
161	0x3b12f598	0.0022424217
162	0x3b264fe7	0.0025377215
163	0x3c07f1b9	0.008297377
164	0xba9fe9a0	-0.0012200363
165	0xbaa12c97	-0.0012296614
166	0x3b1ed965	0.0024238464
167	0x3b27d159	0.0025606959
168	0x3b3647e6	0.002781385
169	0xbaf929cd	-0.001900965
170	0xba43800e	-0.00074577413
171	0x3b98e0d3	0.004665473
172	0xbaaa5d12	-0.0012997708
173	0x3b1fba27	0.002437243
174	0x3b17edb1	0.0023182447
175	0x3befe0ac	0.007320484
176	0x3b067e6b	0.0020522128
177	0x3b281adb	0.0025650773
178	0xba8af52f	-0.0010601635
179	0xbaa01447	-0.0012213074
180	0x3b2436f9	0.002505718
181	0xba97aa30	-0.0011571106
182	0xbb07f424	-0.0020744884
183	0xbb0314bc	-0.0020001372
184	0xbb38abaf	-0.0028178503
185	0x3aaa3bcb	0.001298779
186	0xbb5b2874	-0.003344086
187	0xbb0ccaed	-0.0021483258
188	0xbb040806	-0.0020146384
189	0xbb03b993	-0.0020099625
190	0x3a72f6ba	0.00092683325
191	0xbb3d16f7	-0.00288528
192	0xbb505f38	-0.0031795036
193	0xbb0d7082	-0.0021581952
194	0x3af778f5	0.0018880652
195	0xba8bf516	-0.00106779
196	0xba820f5d	-0.0009922792
197	0xb9a844f6	-0.00032094837
198	0xba97ea8a	-0.0011590284
199	0x3b1ee9d5	0.0024248261
200	0x3b8b23f9	0.0042462316
201	0x3a9a68a5	0.0011780454
202	0x3b20421e	0.0024453471
203	0xba97be14	-0.0011577033
204	0xbab03bb1	-0.0013445524
205	0x3b13def7	0.0022563317
206	0x3b90dfbd	0.004421203
207	0x3b30574a	0.0026907497
208	0x3ae324c0	0.0017329678
209	0x3b54ef96	0.0032491437
210	0x3b331bb1	0.0027329738
211	0xba6a4dca	-0.0008937983
212	0xba58c15d	-0.00082685595
213	0x3c1e7454	0.0096712895
214	0xba82ddb7	-0.0009984289
215	0xba910d51	-0.0011066591
216	0xba96b19a	-0.0011497021
217	0xba577a2d	-0.0008219805
218	0x3b655206	0.0034991517
219	0x3c816fe0	0.015800416
220	0x3c1afbab	0.009459416
221	0x3b0787b0	0.0020680241
222	0x3b053799	0.0020327328
223	0xbab51a0d	-0.0013816968
224	0xbac18e95	-0.0014767224
225	0x3b3d7145	0.0028906625
226	0xbab9d072	-0.0014176501
227	0xbaab0502	-0.0013047757
228	0x3afeefed	0.0019450166
229	0x3af7320c	0.001885952
230	0x3af48e83	0.0018658194
231	0xbadf1054	-0.0017018416
232	0x3af3e191	0.0018606653
233	0xbaf81a3d	-0.0018928718
234	0x3ca70428	0.020387724
235	0xba93a892	-0.0011265448
236	0x3cbe4538	0.023226365
237	0xba2a6524	-0.00065000565
238	0x3b98278a	0.0046433853
239	0x3b261387	0.002534123
240	0xba6b2da0	-0.0008971337
241	0x3bcb15b1	0.006197654
242	0x3b3638b9	0.0027804805
243	0xb9c64d2c	-0.00037823
244	0x3b1fdd5d	0.0024393417
245	0x3b543122	0.0032377918
246	0x3b9df800	0.0048208237
247	0x3ae3a9b8	0.0017369306
248	0xbb0b8ae8	-0.0021292511
249	0xba695827	-0.00089013804
250	0xbb34e7f3	-0.0027604073
251	0xbb17758b	-0.0023110833
252	0xbaaeceb8	-0.0013336753
253	0xbbb028b6	-0.005375947
254	0x3a93f5d5	0.0011288474
255	0x3aaa9748	0.0013015056
