Single Battery Model/4. CNN Models/model_B0005_discharge_rob.pth (torch, 126744 bytes, 7 tensors)

weight f4 [64, 3, 3]
000000 ce ea 03 be 4c 13 9c be 1e 60 61 3e 78 e1 36 3e
       -0.1288254 -0.30483472 0.22009322 0.17859447
000010 bd de 0f be 83 0e b0 3d cd 96 dd ba a4 8c 66 3e
       -0.14049812 0.08596518 -0.0016905904 0.22514588
000020 f7 05 a3 be cc e6 ae bd 9b 16 63 bc b5 44 51 be
       -0.31840488 -0.08540115 -0.01386037 -0.20436366
000030 3f a5 e7 bd 48 99 ff bd e4 c0 b5 3d 53 fb 5b 3e
       -0.11310815 -0.12480408 0.088746816 0.21482591
000040 76 e4 7b 3e dc e9 a8 be 70 71 f0 3d 04 c0 77 3e
       0.2459887 -0.3299092 0.117403865 0.24194342
000050 4e 62 90 3e d6 c0 94 3e d7 04 bc bd 5e cc 2f 3e
       0.282 0.29053372 -0.091806106 0.17167804
000060 e2 07 a5 be 90 7a 40 bd 12 8d 0a be 9e 00 4d bd
       -0.32232577 -0.046991885 -0.13530377 -0.050049417
000070 ab 68 a4 3c fd 4b 67 bc 0c cc 29 3e bf c2 41 bd
       0.02006944 -0.014117238 0.16581744 -0.047304865
000080 4c 5c e8 bc be 68 8f be 21 fa 95 3e d2 ba a8 be
       -0.028364323 -0.280096 0.29292396 -0.32955033
000090 05 63 57 be c0 ef f9 bc 4b 33 54 be 8b 1e 08 be
       -0.21033867 -0.03050983 -0.20722692 -0.13292901
0000a0 0e 68 af 3d 24 7e a6 be 03 7f 5d be 5d ae 23 be
       0.08564769 -0.32518113 -0.21630482 -0.15984483
0000b0 a4 ac 6e 3e 27 66 5c be bc 17 77 be aa 27 41 be
       0.23308045 -0.21523343 -0.24130148 -0.18862787
0000c0 4b 96 4c be d9 1b 4d 3d cd 36 ab 3e 5f 1a 3f 3c
       -0.19979207 0.050075386 0.33440247 0.011664002
0000d0 ad 50 54 3e 0c 64 4a 3e 68 46 4b be d3 a9 32 3d
       0.207339 0.19764727 -0.19851077 0.04361899
0000e0 86 d1 2b bc 2c d0 94 bd 34 fa 1a 3c e8 70 1a be
       -0.010486966 -0.07266268 0.009459067 -0.15082133
0000f0 e9 c9 30 3e d8 73 dd 3d 4e 5d 1f 3d 86 d5 80 3e
       0.17264523 0.10813111 0.03890734 0.25162905
000100 37 47 62 3e 83 d0 96 3d a9 1e 81 3e c2 a1 fa bd
       0.22097479 0.07363989 0.25218704 -0.12237884
000110 c2 b7 7e 3e 40 ff 9e bd 13 33 e5 bd 9e f4 a9 3d
       0.24874786 -0.07763529 -0.11191382 0.0829861
000120 68 70 1b 3e ba bf 48 3e d5 cd 92 3e a6 0e b1 bd
       0.15179598 0.19604388 0.28672662 -0.08645372
000130 74 51 6f be cc e8 49 3e ce 68 5d bd 9e 2b a6 bd
       -0.23370916 0.19717711 -0.054055028 -0.08113788
000140 6a d6 3b bc 2c f6 81 bd 69 f9 24 be 20 cf b4 bd
       -0.0114646945 -0.06345782 -0.16110767 -0.088285685
000150 c2 e3 a1 be 2b 79 95 be 80 00 09 3e 4c 0b 7f be
       -0.31619078 -0.29194006 0.13379097 -0.24906653
000160 b1 9e 40 3e 8b a7 c1 3d a3 ee 92 3e 34 91 d4 3c
       0.18810536 0.094557844 0.2869769 0.025948144
000170 94 6e a8 3e 49 91 e1 ba 0f ff 31 be b6 61 18 3c
       0.32896864 -0.0017209436 -0.17382453 0.00930064
000180 cc f1 10 3d d1 76 58 bd d3 2c 9b 3e 8c 40 2b 3e
       0.035386845 -0.052847687 0.30307636 0.16723841
000190 97 9d 20 be a3 45 a9 3d fe c3 9f 3e f8 9d 9c be
       -0.15685116 0.08265235 0.31204218 -0.3058927
0001a0 16 39 80 3e d8 17 81 3d b5 17 99 be 99 9a 13 be
       0.25043553 0.06303376 -0.299009 -0.14414443
0001b0 f4 b1 ee bd 5c 64 1c 3e 28 ad 83 3e 98 61 69 3e
       -0.116550356 0.15272659 0.25718045 0.22791135
0001c0 a3 cd fd 3d 79 68 45 3e 4e b1 fc bd eb c6 b4 3c
       0.12392738 0.19278134 -0.12338506 0.022067508
0001d0 ef 10 9a bd 54 3f 05 3e 73 67 c4 bd ca 6c ce bd
       -0.07522761 0.13012439 -0.09590044 -0.100793436
0001e0 90 72 1b bd 54 31 f3 ba f3 24 a4 3d a9 ac a1 be
       -0.037951052 -0.001855413 0.0801486 -0.31577042
0001f0 ee 82 87 3e af 23 13 be bb b4 6d be a8 95 99 be
       0.2646708 -0.14369081 -0.23213474 -0.2999699
000200 7a 3c d2 3d 46 da 48 be b6 f9 29 3e ca 9d 2d 3d
       0.10265441 -0.19614515 0.16599163 0.042386808
000210 98 85 4f 3d f7 fd 43 bd f4 01 cc bc 4d d0 91 3e
       0.050664514 -0.04784962 -0.024903275 0.28479233
000220 a6 41 1f be e2 24 d8 3d 8a cc 8c 3e 57 12 d5 bd
       -0.15552387 0.1055391 0.274998 -0.10403889
000230 df 60 fc bd 53 f0 83 3e 5b 0a 9c be 49 e9 28 3d
       -0.12323164 0.2576929 -0.3047665 0.041238103
000240 dd e3 cc bc 31 08 66 3e ac 33 68 be 90 7b a2 be
       -0.025010997 0.22464062 -0.22675961 -0.31734896
000250 35 5d aa bd e1 31 86 3e 54 f1 8b be af 91 9b 3d
       -0.08318559 0.2620993 -0.27332556 0.07596146
000260 fa 54 66 3d 98 c4 b4 bd b1 0e 70 bd 82 b8 76 3e
       0.056233384 -0.0882656 -0.05860776 0.24093822
000270 00 97 6c be 03 c0 84 be 1d 3f a8 be 32 df 08 3e
       -0.23104477 -0.25927743 -0.32860652 0.13366392
000280 fc 3b 90 be 61 7d a9 be a0 b8 1b 3e 8a b6 55 be
       -0.28170764 -0.3310347 0.15207148 -0.20870414
000290 d8 17 8b be db be 22 3e 96 8a a4 3d 24 c7 64 3e
       -0.2716663 0.15893118 0.08034246 0.22341591
0002a0 c4 9d 0e be fc 1b 9e be 20 1d da 3b 9d b4 31 be
       -0.1392737 -0.30880725 0.006656304 -0.17354055
0002b0 7c 8a a1 be 01 73 9e 3e 0b 8d eb bd 58 c0 04 3e
       -0.31550968 0.30947116 -0.11501511 0.12963998
0002c0 eb 23 9f 3d 5f c9 8a be 1a d5 56 3e 1b 02 64 be
       0.07770523 -0.2710676 0.2097973 -0.22266428
0002d0 49 2e 05 3e 49 b2 9c bd 5c 1e 8a be 72 73 7e bd
       0.13005938 -0.07651193 -0.26976287 -0.062121816
0002e0 a7 6e 68 3d fb 21 d0 3d 78 3b 69 be 48 2f 95 be
       0.05674615 0.10162731 -0.22776592 -0.29137635
0002f0 47 fb 20 be fc ae 84 3e 0f f1 bd bd ef 69 6d be
       -0.15720855 0.25914752 -0.09274494 -0.23184942
000300 ba 56 8c be b1 66 fd bd c2 6a 68 be d4 39 5b be
       -0.27409917 -0.123731025 -0.22696975 -0.21408778
000310 ac 02 27 be 66 2c a8 be af 37 a2 3e 52 1c d6 3d
       -0.16309613 -0.32846373 0.31683108 0.104546204
000320 c9 22 3a bc 5a cc 20 be c1 26 6e be 47 d0 a5 be
       -0.0113608325 -0.15702954 -0.23256971 -0.32385466
000330 7a 68 9f 3e 22 1b 92 3e c9 a6 6b be 10 a9 bf bd
       0.31134397 0.28536326 -0.23012842 -0.09358418
000340 3a 8e a2 bc 2a 1b 35 3e 97 a1 13 3e e3 c6 b4 bc
       -0.01984321 0.17686144 0.1441711 -0.022067493
000350 1a db 25 3e 43 65 d9 3d 6d a5 68 3e 7c 0d 15 3e
       0.16196862 0.10615017 0.22719355 0.14555925
000360 9c eb c5 bb 24 63 30 be 2c 9d 8b 3d 49 fc 89 be
       -0.0060400497 -0.17225319 0.068170875 -0.2695029
000370 81 6c a2 bd 8d e7 56 3e f1 46 20 3e d1 f2 8b be
       -0.07930852 0.20986767 0.15652062 -0.27333692
000380 5a 33 c6 3d dc 5d a1 3d 2e eb 11 be 0c 3d 44 3e
       0.09677763 0.078792304 -0.1424987 0.19163913
000390 a3 ec 39 bd d9 90 64 3e b2 bb 7f 3e 00 3e 86 3e
       -0.04539169 0.2232088 0.24973944 0.26219177
0003a0 0c 6b 73 bd 86 17 10 3e ee bf 93 be f0 28 cd 3c
       -0.05942826 0.14071473 -0.28857368 0.025043935
0003b0 c2 d0 6a be 4e 72 d1 3d b0 2d 5a 3e 60 84 9b 3e
       -0.22931197 0.1022688 0.21306491 0.30374432
0003c0 7d 02 0a 3e 11 41 13 be 9a 0d 8b 3e b8 22 86 3d
       0.13477512 -0.1438029 0.27158815 0.06549591
0003d0 19 21 02 3e 01 d1 83 be 34 ef 4e 3e 5e 4f be 3d
       0.12707938 -0.25745395 0.20208436 0.09292482
0003e0 11 8d 82 3e 2d b0 66 3e 63 06 1b 3e 06 03 55 be
       0.2549825 0.22528143 0.15139155 -0.20801935
0003f0 d3 64 20 be 27 f3 70 be 25 4d 84 be e2 73 34 be
       -0.15663461 -0.23530255 -0.25840107 -0.17622331

bias f4 [64]
000000 66 53 8e 3c d7 2a 4a 3e 65 fb 65 be af 32 1e 3c
       0.017373752 0.19742905 -0.2245918 0.009655639
000010 d2 93 61 be d2 07 9d 3d 7f 72 c4 bd 4a a4 11 be
       -0.22029045 0.07667507 -0.09592151 -0.14222828
000020 64 4e 7b 3e 5a 7e 2c be a5 60 a7 be a5 11 93 be
       0.24541622 -0.16845074 -0.3269092 -0.287244
000030 76 5f a8 3c 55 67 8e 3e 1f d5 cd bd 60 0b 6e be
       0.020553332 0.2781321 -0.10050415 -0.23246527
000040 7f e4 dc 3d 1d 44 11 3e ad 7f 8a be 97 41 e3 3d
       0.1078577 0.1418614 -0.27050534 0.11096495
000050 71 22 48 bd 4b f2 4e 3e d6 60 91 be 57 c0 8f 3e
       -0.04886097 0.20209615 -0.28394192 0.2807643
000060 ba 3e 88 be 2c ed c4 3d e4 f3 09 3e 5e 0d 57 3e
       -0.26610357 0.096155494 0.13471943 0.21001193
000070 23 d1 8c be b0 cf 23 bc 46 1b f5 3d fb 4b a5 3e
       -0.2750331 -0.009998247 0.119680926 0.3228453
000080 15 cb 7f 3e 3e b3 35 3e 94 f4 93 bc 48 4a 54 3d
       0.24979813 0.17744157 -0.01806096 0.051828653
000090 77 d4 54 bd 99 2c 69 be 1d a1 8f 3d 61 d7 94 3e
       -0.051960435 -0.22770919 0.07013152 0.2907057
0000a0 b6 0d f5 bd 83 ce ff bd 58 f1 06 bd 49 ed 98 bb
       -0.11965506 -0.12490561 -0.032945007 -0.0046669585
0000b0 8c e9 01 3e 16 58 2d 3d 90 d6 4d 3e 68 5f 88 3b
       0.12686747 0.042320333 0.2010138 0.004161764
0000c0 c1 83 98 3d 90 b8 5d bd 25 e0 6f 3d 6d 3a 58 bd
       0.07447005 -0.05413109 0.05856337 -0.052790094
0000d0 76 aa 54 be 38 8f 79 3e d3 1e 8f 3d 99 50 f6 3d
       -0.2076815 0.2437104 0.06988301 0.120270915
0000e0 9b a5 31 be d7 30 37 3e aa 8a 17 3e a5 bc 5d 3e
       -0.1734833 0.17889725 0.1479899 0.21653993
0000f0 e7 2e 5c 3e cb 30 9a be 58 31 68 3e 9f cf aa be
       0.21502267 -0.3011535 0.22675073 -0.33361527

weight f4 [128, 64, 3]
000000 f7 93 1c bc fb 1c 8c bb 06 fe 7c bd 48 b4 5a bd
       -0.009556762 -0.0042759157 -0.061765693 -0.053394586
000010 ef 08 8c 3a 7f d6 7b 3b 48 fd 94 bd 03 3f 83 bc
       0.0010683815 0.003842741 -0.07274872 -0.016021257
000020 83 da 9d bc ab 91 99 bd af a8 6b 3d aa de 84 bc
       -0.019269234 -0.07498487 0.057533916 -0.016219456
000030 17 9f 51 bc 30 02 80 3d 0f 03 2d bc 83 b7 d6 bb
       -0.012794278 0.06250417 -0.010559811 -0.006552638
000040 18 9f 15 3d 42 c7 a7 3c 78 49 28 3c 34 65 7d 3d
       0.036528677 0.020480756 0.010271423 0.061864093
000050 21 57 37 bd 97 7f 74 3d e5 38 7f 3c 3b a8 73 3d
       -0.044760827 0.05969199 0.01557753 0.05948661
000060 7f 4d 80 bd 52 68 fa 3c e8 49 47 3c 1c 5e 45 bc
       -0.06264781 0.030567322 0.012163617 -0.012046363
000070 70 74 86 bc 21 65 8b bd ac 23 50 bd 99 50 3e bd
       -0.016412944 -0.06806398 -0.05081527 -0.046463583
000080 7c 07 62 3c 03 e0 d0 3c 90 17 45 3d 9a d3 83 bd
       0.01379573 0.025497442 0.048118174 -0.06436844
000090 06 3f 64 bd 0f fb 60 3c c0 87 3e bd 97 22 1c 3d
       -0.055724166 0.013731732 -0.04651618 0.038118925
0000a0 d1 34 2a 3c 8d ae 55 bd 5b 69 80 3d e9 f8 c9 3c
       0.010388569 -0.052168418 0.06270095 0.024654822
0000b0 27 36 2b 3d a9 bb 83 bc 32 e7 ff 3b 8f 52 bc 3c
       0.04179969 -0.016080694 0.007809543 0.022988586
0000c0 a4 89 4a bd 58 94 95 bd bc 08 d4 bc 2e 72 ba bc
       -0.04944767 -0.07303685 -0.025883071 -0.022759523
0000d0 cc 0b 4c bd 09 18 66 bd 15 c0 b6 3c 8c bc 94 3d
       -0.049815938 -0.056175265 0.022308389 0.07262525
0000e0 10 58 b1 bc b1 3b 98 3c 1b 79 42 bc 20 8c 82 bd
       -0.021648437 0.01858315 -0.011869694 -0.06374383
0000f0 c4 f3 8d bd 47 9d c3 3c 0e f3 a3 bb 38 99 12 bd
       -0.0693126 0.023878707 -0.0050033396 -0.035790652
000100 00 ee 6f bc fa ef 8b bd f3 0d 69 3d f2 b7 65 3d
       -0.014644146 -0.06832881 0.05689807 0.056083627
000110 43 6c 01 bd 13 e2 75 39 51 28 77 bd a2 ae a3 3b
       -0.031597387 0.0002344924 -0.060341183 0.004995183
000120 a0 e4 3f 3d 29 63 17 3d e4 6a 27 3d 46 df 70 3d
       0.046848893 0.0369598 0.040873423 0.05880668
000130 61 4f dd 3c 1e 1f f2 bc 48 41 44 bd d4 ef 35 3d
       0.02701539 -0.029555853 -0.04791382 0.04441817
000140 2c ba c9 ba 2c e0 3b bd c6 e8 52 3c 95 5e 2e bd
       -0.0015390567 -0.045868084 0.01287288 -0.04257067
000150 b5 fa 54 3d c9 1d 5c 3d 76 9f 2d 3d f1 6e ee bc
       0.051996905 0.053739343 0.042388402 -0.029105635
000160 86 7f 04 bd 98 5c 85 bc 33 9d a4 3c 6f 86 1c 3d
       -0.03234818 -0.016279504 0.02009449 0.038214143
000170 52 0e 4d bb 79 42 3e 3d 11 20 fc 3c 27 05 ee bc
       -0.0031289053 0.046450112 0.03077701 -0.029055191
000180 d4 a9 1b bd 04 72 49 bd 6d cb e2 3c 60 b9 ba bb
       -0.038003758 -0.049181 0.027684892 -0.005698368
000190 34 2a fb bc bf 22 d0 3c 07 03 2c 3d 39 70 e0 3c
       -0.030659772 0.025407193 0.041995075 0.027397262
0001a0 6b a6 4d bd b9 7b 0c bd 3e 1d 74 bd 56 cf d6 3c
       -0.050207537 -0.03429768 -0.0595982 0.026221912
0001b0 01 9f 92 bc cf 44 75 bd de 20 30 bd 47 d2 8c 3d
       -0.017898085 -0.059880074 -0.043000095 0.06876045
0001c0 d1 72 37 3b 04 67 3c bd 87 12 5a bc dc 18 af 3c
       0.002799202 -0.04599668 -0.013310081 0.021374159
0001d0 c4 c3 ce bb 92 c6 1a 3d cf 16 70 3d 11 50 0d bc
       -0.006309958 0.037787028 0.058615502 -0.008625046
0001e0 b1 bf 18 bd 21 61 2b 3d 4e 9f 54 bd 76 2a 04 bc
       -0.037292186 0.041840676 -0.051909737 -0.008066764
0001f0 24 55 77 bd 3a 37 dc 3b 81 51 46 3d 3b 30 1f bd
       -0.06038393 0.0067204507 0.048417572 -0.038864356
000200 87 62 9b bb 01 29 2d bd 7f 1a 94 bd b6 c9 1c bd
       -0.00474197 -0.042275432 -0.07231616 -0.038278304
000210 a2 c6 80 3d fb 5d 89 bd 25 ea 15 3c 72 b0 1d bd
       0.06287886 -0.067073785 0.009150063 -0.03849835
000220 be f6 54 bd 20 fc 2c 3c 60 b7 9b bd d6 a2 a4 bc
       -0.051993124 0.010558158 -0.076033354 -0.020097177
000230 fa 54 d7 bc d4 65 6a 3d 2c 99 e5 3c ab 64 5e bd
       -0.026285637 0.057226017 0.02802714 -0.054295223
000240 6e e4 6c bd bf 77 d7 3c e4 42 54 3c 9c 69 74 3c
       -0.057835035 0.026302217 0.012955401 0.014917757
000250 ea fe 48 3d 37 9d 51 3c a3 a8 c3 3c 28 d1 44 bd
       0.04907123 0.012793831 0.023884123 -0.04805103
000260 74 73 5d bd 55 6b c5 bc ae 03 1b 3d c5 75 41 3d
       -0.054065183 -0.024099031 0.037845306 0.047231454
000270 5c 21 36 bd 31 9d 3d bd 23 57 1c 3d 23 68 27 3d
       -0.044465408 -0.046292488 0.038169038 0.040870797
000280 4b 84 66 3c d6 b8 46 3d ff ac bc bc 5e ff fd bc
       0.014069627 0.048516117 -0.02303171 -0.031005558
000290 e0 6f 5c bc 88 0e 33 bc e1 c6 94 bd 01 8d 01 3d
       -0.013454407 -0.0109287575 -0.07264496 0.031628612
0002a0 10 32 46 3d 29 c3 64 3d 95 f2 86 3d fe 7f af 3c
       0.048387587 0.05585018 0.065892376 0.021423336
0002b0 cf ba 4e 3d f2 1a 52 3c 9c 9a c6 bc 5a 06 49 bd
       0.050471123 0.012823807 -0.024243645 -0.049078323
0002c0 df 8e cb bc 68 fb 94 bc 78 ac 68 bb 62 bb 69 bc
       -0.0248484 -0.018186286 -0.003550319 -0.014265867
0002d0 1c 0b 8c bd a7 ff 04 3d 53 6a 8d 3c 91 29 6e bd
       -0.068380564 0.03247037 0.017262613 -0.05814511
0002e0 c8 0d 28 bd 88 8d 2c bd 01 17 0e 3d 15 47 98 3c
       -0.041028768 -0.042127162 0.034689907 0.018588582
0002f0 6c 7d 1f 3b df 26 4d 3d ca 95 56 3d 79 77 0d 3d
       0.0024336232 0.0500859 0.052388944 0.034537766
000300 aa 3a ac 3d ef 89 b4 3d ab b8 fa 3c 9a 8a d8 3d
       0.08409627 0.08815371 0.030605635 0.10573311
000310 50 71 8c 3c 83 29 66 3d 19 03 db 3c 54 6b 40 bd
       0.017143875 0.056191932 0.026734876 -0.046977356
000320 ff ca 03 3c 9a 23 ac bb a8 22 8d bc 37 75 a1 3b
       0.0080440035 -0.0052532675 -0.01722844 0.004927303
000330 0f de 31 bd af 9d 4d bd d5 35 82 3d ef 4b e0 3d
       -0.043424662 -0.050199207 0.06357924 0.10951983
000340 74 11 63 3d b3 67 a2 3d 93 fa a0 b9 13 94 a7 3d
       0.055436566 0.07929935 -0.0003070427 0.0818254
000350 b9 eb 0c bd 26 6b 2e bd 83 33 44 bc 61 fd 74 3c
       -0.03440449 -0.042582653 -0.011975172 0.014952988
000360 f3 63 43 3d 30 5c a0 3d 93 cd 72 3b 0f fa 16 bd
       0.04770274 0.07830083 0.0037048801 -0.03685957
000370 68 a9 37 bd 99 79 a5 3c df 6d 3d bd e5 30 fb bc
       -0.044839293 0.020199584 -0.04624736 -0.030662963
000380 fe 97 50 bd 81 fb 38 3d d0 24 14 bd df fd cb 3c
       -0.0509262 0.045161728 -0.03616792 0.024901329
000390 45 1d a9 3d 4d fc ac 3d c6 85 10 3d 35 cc b2 3d
       0.08257536 0.0844656 0.035283826 0.08730356
0003a0 01 80 b6 3d 18 71 b6 3c 65 11 9d bc 53 08 44 bc
       0.089111336 0.022270724 -0.019173333 -0.011964875
0003b0 f6 91 26 3d 55 f5 21 3d 65 ba 44 3d e1 55 a1 bc
       0.040666543 0.039540607 0.048029322 -0.01969427
0003c0 6d 9c 70 bc a8 ed 4d 3d f6 5b a7 3d d0 be 5c bc
       -0.014685732 0.050275475 0.08171837 -0.013473228
0003d0 aa b5 c3 bc 37 c1 35 bd 71 0e a8 3c 30 19 44 3d
       -0.023890335 -0.044373717 0.020514699 0.047875583
0003e0 19 ac 3b 3d 7c b2 9d bc e1 62 b7 3c d9 b8 97 3c
       0.045818422 -0.019250147 0.022386016 0.01852076
0003f0 c0 38 f0 bc 65 a8 42 bd ae 56 f6 3b 47 15 ab bb
       -0.029323936 -0.047523875 0.0075176572 -0.0052210423

bias f4 [128]
000000 7d b8 8c bd 8d bd d5 3d 88 74 88 bd c1 e2 01 3d
       -0.06871126 0.104365446 -0.066628516 0.03171039
000010 3e d3 11 bb c0 e9 15 bd 10 f3 61 bd 32 f0 7e 3c
       -0.0022251154 -0.036599874 -0.055163443 0.015560197
000020 e4 0b 8f bd a3 71 54 bd 85 0a 38 bd 18 1c 66 bd
       -0.0698469 -0.051866185 -0.044931907 -0.056179136
000030 81 49 0f 3d 1d eb 80 3c cd 90 29 bd 35 13 0b bd
       0.03498221 0.01573711 -0.04139786 -0.033953864
000040 d4 67 0c bb 89 91 a2 3d 5d d3 1c 3d 07 1a 85 bd
       -0.002142419 0.07937915 0.03828751 -0.06499105
000050 66 ec f5 bc 70 61 9a bd 24 13 70 3d f5 2c 0a bc
       -0.03001995 -0.07538116 0.058612004 -0.00843357
000060 ed a6 42 3d 16 b9 c8 3b 81 a7 8d 3d a0 ab 5d 3d
       0.047522474 0.0061255796 0.069167145 0.054118752
000070 de 86 d8 3b 7b db 1a bc b5 95 ce bc 12 37 0f 3d
       0.0066078743 -0.009451742 -0.02521787 0.03496463
000080 d4 9f 16 bc 7f 93 6a 3c 54 71 ad bb d7 b4 80 3d
       -0.009193379 0.014317392 -0.005293051 0.062844925
000090 f2 88 1d 3d d2 bc 3b 3a 9e fa ae 3c 77 10 ae bc
       0.03846068 0.00071616203 0.021359738 -0.021248085
0000a0 cd fa 14 3d a5 63 67 3c 14 03 af bc d6 64 89 3d
       0.036371995 0.014122878 -0.021363772 0.06708686
0000b0 cd 46 63 3d b7 42 33 bd 62 dc 72 3c c1 14 43 bd
       0.055487443 -0.043764796 0.014823051 -0.047627214
0000c0 53 48 98 bd c3 89 0b 3d 3c 4e 80 3d 12 c4 80 ba
       -0.0743567 0.034066927 0.06264922 -0.0009824059
0000d0 b5 da 8e bc 5b df 43 bd 73 df ad bc 9a ce 00 bd
       -0.017438272 -0.04782043 -0.021224713 -0.03144703
0000e0 18 e9 d8 3c 14 8f fb bc 8f d7 22 3d 3d 10 27 3d
       0.026478335 -0.030707873 0.039756354 0.04078697
0000f0 6e a6 73 3b 81 4c 0e bb 7a 9a 81 3c 84 91 3d bd
       0.0037178057 -0.002171308 0.01582073 -0.046281353
000100 54 bf e8 3c 6f 35 cc 3c 06 db 9c bd 8a 6d fb 3c
       0.028411545 0.024927823 -0.07658963 0.03069188
000110 98 08 c1 bc 3b 51 17 3d 5b 96 90 bd fd d7 4d 3d
       -0.023563668 0.0369427 -0.07059928 0.05025481
000120 67 15 f0 3c cd 85 cf bc b5 e3 cf 3c bf 01 53 bd
       0.02930708 -0.025332356 0.025377134 -0.051515337
000130 da d9 86 bb 79 9e 48 3d 0b d1 87 bc e4 bd 86 bc
       -0.0041153254 0.048979256 -0.016579172 -0.016447969
000140 df 7d d9 3c e4 21 2e 3c a5 85 1c 3c 2c 03 3f bd
       0.026549278 0.010628197 0.009553348 -0.046633884
000150 fd ca d4 3c e2 7d e0 3c f6 ec 8f 3d dd b9 93 bc
       0.025975699 0.027403776 0.070276186 -0.018032962
000160 c1 6f 83 3d 39 89 64 3d 29 99 20 3d 7b 4f 1d 3c
       0.064178 0.05579493 0.039208565 0.009601469
000170 45 a9 91 bc ae 2f 6f bd c3 72 13 3c 86 4c 8b bd
       -0.01778091 -0.05839508 0.008999529 -0.06801705
000180 af c5 9f bd 3c e6 7b 3c 19 a4 b8 3d 90 1b a2 bc
       -0.07801377 0.015374716 0.09015674 -0.019788533
000190 90 6b 8c 3c 57 84 28 bd 6d 0c 85 bd 4b 3f c1 bc
       0.017141134 -0.041141834 -0.06496511 -0.02358975
0001a0 73 58 56 3d 35 8d 31 bd 7d 77 8d 3c b3 a2 c5 3c
       0.052330445 -0.043347556 0.01726889 0.024125433
0001b0 07 ce 82 bd 11 d2 86 bd 79 19 65 bc f1 ab 1a 3d
       -0.06386953 -0.06583036 -0.013983124 0.037761632
0001c0 13 d0 bd bc 2d ea 41 bb 36 9c 91 3c 65 9a 00 3d
       -0.023170507 -0.0029589043 0.017774682 0.031397242
0001d0 09 f6 be 3c ae 9e df 3b 98 f6 81 3c 8b f4 c5 bc
       0.023310678 0.006824336 0.015864655 -0.024164459
0001e0 80 cb fc 3c 62 7c 8b 3d ed 70 00 bd 2b f7 95 bc
       0.030858755 0.068108335 -0.031357694 -0.018306335
0001f0 ca 78 5b 3d a2 c8 23 bd 42 55 ff bc 99 87 48 3d
       0.05358199 -0.03998626 -0.031168584 0.04895744

weight f4 [1, 1664]
000000 db e1 6c 3c 59 16 bc bb e1 e2 a5 bc 63 a6 db bb
       0.014458145 -0.0057399687 -0.020249786 -0.0067031845
000010 e0 f2 8d 3b dd fa 1a 3c e6 7d a0 3c 7c 9f d3 3b
       0.0043319315 0.0094592245 0.019591283 0.006458221
000020 80 c5 17 3c f7 2e f6 bb 38 95 7c bb a2 f2 08 3c
       0.009263396 -0.007512923 -0.003854109 0.008358629
000030 3b 3d 66 bc f2 50 a9 3c 9e 3d 87 bb 2a 52 54 bc
       -0.014052684 0.02066848 -0.0041272184 -0.012959043
000040 94 8e f2 b9 c3 81 9a bc fd 85 b5 3c f4 d2 dc b9
       -0.00046264066 -0.018860703 0.022158617 -0.00042118842
000050 ec 70 9c 3b 22 38 a5 3b 2b 8c b3 bc 30 b4 84 bb
       0.0047742035 0.005042092 -0.021917423 -0.0040498003
000060 d0 89 26 3b b6 d6 61 3c 1d 74 82 bc 09 db 76 3c
       0.0025411732 0.013784101 -0.015924508 0.0150668705
000070 0b 2a 53 3b 3e 51 52 bb 66 21 33 bb a9 fd f8 3b
       0.0032221104 -0.003209188 -0.002733314 0.007598598
000080 6f ed 65 bc 48 fe c7 bc 4e 34 3e 3b c9 67 92 ba
       -0.014033659 -0.024413243 0.0029022875 -0.0011169846
000090 d4 c2 7d 3c 48 f4 bc 3a 97 98 45 bc 7a c8 b3 3b
       0.015488345 0.0014416063 -0.012060306 0.005486545
0000a0 16 c9 e2 bb 33 7d 4a bc 0b 72 45 3c f6 2a 90 bc
       -0.006920944 -0.012358951 0.012051116 -0.01759861
0000b0 03 89 53 3c bc 27 c9 3b 95 fe 1c bc b2 a8 d4 3b
       0.012911084 0.00613877 -0.009582181 0.0064898366
0000c0 9e cb 9b bc af 6b 65 bc 19 c9 6d 3b 6e 7e ca 3b
       -0.01901799 -0.014002725 0.0036283194 0.0061796224
0000d0 b9 97 5a 3c 75 39 2e bc e9 dc 91 3c f1 84 c3 bc
       0.013341838 -0.010633816 0.017805533 -0.023867102
0000e0 8c 06 52 3b c1 22 84 3c 94 e4 80 3c f7 7d 7f 3b
       0.003204736 0.016129853 0.015733995 0.0038984993
0000f0 34 7f 88 bc 61 ef 8d bc e4 72 a9 bc 02 2d 2f 3c
       -0.016662218 -0.017326059 -0.020684667 0.010691883
000100 f3 d0 44 ba 28 7e ce 3b f6 0e 27 bc 9d 57 0e 3c
       -0.00075079425 0.00630166 -0.010196438 0.008687881
000110 d7 93 44 3c e6 2d 19 3a 34 4d 03 bb c9 59 9d 3c
       0.011998138 0.0005843326 -0.002003503 0.019207852
000120 fc 5c 8b 3c 8e e7 92 3c c4 e8 93 3c 0d ec 2d 3b
       0.017012112 0.01793268 0.018055327 0.0026538402
000130 a7 4e db bc 01 df ce 3b a7 a6 3e 3c 9d 24 b3 bc
       -0.026770903 0.006313205 0.011636413 -0.021868045
000140 1f 47 26 3c f3 93 5d bc 54 d9 47 3b f7 81 b3 3c
       0.0101487925 -0.013524043 0.0030494528 0.021912558
000150 e3 df 08 bc 18 60 e5 bb 07 5a 0d bc aa a8 a5 bb
       -0.00835416 -0.0069999807 -0.008627421 -0.0050555067
000160 5f 28 86 bc 00 a7 35 bb bf 0d 3b 3c 92 6f 02 ba
       -0.016376672 -0.0027717948 0.011416852 -0.0004975732
000170 e8 23 10 bc 6d 48 a1 3b cc b8 96 3c a2 80 e2 bb
       -0.008797623 0.004921964 0.018398665 -0.006912307
000180 d2 db 59 bb 28 19 38 bc 1f e3 01 3d b5 fc 1b 3c
       -0.0033242595 -0.0112364665 0.03171074 0.009520699
000190 06 f2 02 bc 74 df 02 bc ce 4f ec bb e6 50 75 ba
       -0.007992273 -0.007987846 -0.007211662 -0.0009358063
0001a0 bb 4a b0 bb 81 cc a2 ba eb f0 18 3c 77 01 13 3c
       -0.0053800023 -0.0012420566 0.009334783 0.008972517
0001b0 fe 81 24 3c 14 e3 98 bc 4d 1d f2 b9 f6 99 80 3c
       0.010040758 -0.018662967 -0.00046179668 0.015698414
0001c0 b1 bf fe ba b5 6c 41 3c 6e 27 83 bc 66 93 47 bc
       -0.0019435791 0.011805703 -0.016010012 -0.012181139
0001d0 f2 23 00 3b 49 e9 88 3c 6d 74 78 bc 6b b8 6f bc
       0.0019552675 0.016712802 -0.015164477 -0.014631371
0001e0 c7 bd 17 3c c8 3b a2 bc dd 1f 5a 3c 6d 22 9d 3c
       0.009261555 -0.019803897 0.013313261 0.019181455
0001f0 16 e2 a5 3b e0 f6 dd 3b b0 f6 8c 3c fe 44 11 bc
       0.005062352 0.0067738146 0.017207474 -0.008866547
000200 67 01 a7 bc 2e e2 43 3c 4b f7 a8 3c af 1e f6 ba
       -0.02038641 0.011955781 0.020625731 -0.0018777455
000210 08 2f 7d bb 45 23 03 bc 8f f7 0f 3c c0 d3 65 bc
       -0.003863277 -0.008004014 0.00878705 -0.014027536
000220 8f de 01 bb e8 79 59 bc cb c8 9e bc 51 2c 50 bc
       -0.0019816493 -0.013273694 -0.019382855 -0.012705878
000230 b0 21 fc bb ee cf 9c bc 04 c8 fe 3b e2 16 3b bc
       -0.0076944456 -0.019142117 0.0077753086 -0.01141903
000240 27 e0 dc 3b 31 8f 19 bb f3 01 94 3c 9c c7 63 bb
       0.006740588 -0.0023431296 0.018067336 -0.0034756428
000250 76 41 54 3c 76 cb a1 bb 51 2a b0 3c 21 4d 35 bc
       0.01295506 -0.0049375845 0.021504553 -0.011065752
000260 06 0c 74 3c c1 11 d9 bc 16 e1 35 3c 64 38 74 bc
       0.014895445 -0.026497724 0.011101028 -0.014906023
000270 f8 8e 30 bc 22 f9 c9 3b 23 9a a7 bc 7e 20 43 3c
       -0.010776274 0.006163732 -0.02045924 0.011909602
000280 ca 5d 58 3c 13 69 94 bc d5 38 95 3b ae 0d e9 3b
       0.013205955 -0.01811651 0.004553894 0.0071122264
000290 61 06 a8 bc b3 d6 fd 3b 9d 99 95 bb a2 4e 91 3c
       -0.020510854 0.0077465414 -0.0045654313 0.01773769
0002a0 50 ea 9e 3c a2 09 e0 bb 5e e8 34 3c 50 98 81 3b
       0.019398838 -0.006837086 0.011041729 0.0039549246
0002b0 29 31 13 bb c5 4d 9b bc ed 2a 7f 3c b7 fb 35 3c
       -0.0022459722 -0.018957982 0.015574199 0.011107377
0002c0 51 21 62 bc b5 62 dd bc ab 51 bd 3b 14 9d 39 3c
       -0.013801889 -0.027024606 0.005777558 0.011328954
0002d0 ed 14 c7 bc 14 80 67 3c 29 2d 28 bc 7b e6 68 3c
       -0.02430197 0.014129657 -0.010264673 0.014215107
0002e0 13 93 ae bb e7 f6 9b 3c 03 b1 5c 3c 99 31 6c bc
       -0.005327591 0.01903863 0.013469937 -0.014416122
0002f0 f5 30 9d 3c d4 c6 10 bc 01 45 6e 3c b8 54 b6 bb
       0.019188384 -0.008836467 0.014542819 -0.0055642985
000300 46 a1 a7 bc 56 68 a1 bc b3 6a 0b bc c1 79 e5 bb
       -0.020462643 -0.019703072 -0.008509326 -0.0070030396
000310 0a 4a 40 3c 06 d9 63 bc db 07 f0 3b 1a 7c a6 bc
       0.011736402 -0.013906723 0.007325155 -0.020322848
000320 7e 03 6c 3b 3e c2 85 bc 05 71 34 3c ee 6a 9b 3c
       0.0036012824 -0.016327973 0.011013274 0.018971886
000330 70 0d 98 3c c7 d7 37 bc db bf da 3b 22 1f a1 3c
       0.018561095 -0.011220879 0.006675703 0.019668166
000340 0e 5b 9e 3c dc 22 b4 bc af ec a6 3c 50 fe 74 3c
       0.019330528 -0.021989278 0.020376531 0.014953211
000350 5e 10 44 3c a8 86 7b 3b 4a ef c7 3c 8a 6c b9 3b
       0.011966793 0.0038379822 0.024406094 0.005658691
000360 bc 15 a3 bc 48 72 bd bc 48 bf b4 3b ce 0c 66 bc
       -0.019907825 -0.023125783 0.0055159666 -0.014041139
000370 77 48 96 bc e4 fb 43 bb 5c 0f 92 3c e5 1b 0a 3c
       -0.0183451 -0.0029904777 0.01782959 0.008429502
000380 fa c6 8c bc 13 87 6d bc a5 28 92 bc 39 5e c5 3a
       -0.017184723 -0.014497536 -0.017841646 0.0015057988
000390 ee 4c 1c bb 8d 0c a4 3c 75 f2 a8 3c 39 54 bc bb
       -0.0023849565 0.020025516 0.020623425 -0.005747345
0003a0 c3 7e 0b bc b8 fe f4 ba ef af 9b bc d8 a5 a6 3c
       -0.008514109 -0.0018691635 -0.01900479 0.020342752
0003b0 72 99 52 bc de cc 71 bc 19 5f 9c bc 31 b9 01 ba
       -0.012853967 -0.014758317 -0.019088315 -0.0004948555
0003c0 0b d2 94 3c 93 d7 48 3c 94 be 11 3c 53 d2 17 bc
       0.018166563 0.012258428 0.008895535 -0.009266454
0003d0 e8 0e 05 3b 5e 83 d9 ba 68 2b a5 ba 45 86 1c 3b
       0.0020303074 -0.0016594937 -0.0012601437 0.0023883742
0003e0 35 30 7b 3c ca 5b a2 3c 45 b3 be bc 82 46 8e 3c
       0.015331318 0.019819159 -0.023278842 0.017367605
0003f0 1f e9 67 bc f8 e2 b1 39 48 77 aa bc 2f 5b 7b 3b
       -0.0141547015 0.00033929176 -0.02080883 0.003835391

weight f4 [1664]
000000 08 9c 7f 3f b8 33 7f 3f c5 d4 7f 3f 71 54 7f 3f
       0.9984746 0.9968829 0.99934036 0.9973822
000010 b0 f3 7e 3f 30 72 7f 3f 0a af 7f 3f 9b 3e 7f 3f
       0.9959059 0.9978361 0.99876463 0.99704903
000020 c6 6f 7f 3f ec 6b 7f 3f a9 bd 7e 3f 69 62 7f 3f
       0.9977993 0.9977405 0.9950815 0.99759537
000030 33 b9 7f 3f 6f 80 7f 3f 3e 8e 7d 3f d7 17 7f 3f
       0.99891967 0.9980535 0.9904517 0.9964575
000040 65 48 76 3f 5f 88 7f 3f 45 39 7f 3f 44 64 72 3f
       0.96204215 0.9981746 0.9969676 0.94684243
000050 07 ce 7d 3f 47 fe 7d 3f b1 bc 7f 3f d1 61 7d 3f
       0.991425 0.9921612 0.99897295 0.9897738
000060 51 94 7a 3f cb 6c 7f 3f 74 da 7f 3f ec b5 7d 3f
       0.9788256 0.9977538 0.9994271 0.99105716
000070 03 8a 7d 3f 82 96 7a 3f f2 4e 7d 3f 31 6b 7e 3f
       0.99038714 0.97885907 0.98948586 0.9938231
000080 1b 2c 80 3f 5e 71 80 3f d7 a8 7d 3f 88 01 7d 3f
       1.001346 1.0034597 0.99085754 0.9883046
000090 14 f1 7d 3f 86 cb 7c 3f 48 02 80 3f dc ea 7e 3f
       0.9919598 0.9874805 1.0000696 0.99577117
0000a0 f9 a7 7e 3f 70 b7 7e 3f b9 44 80 3f f5 b1 7e 3f
       0.99475056 0.99498653 1.0020972 0.9949029
0000b0 e7 2d 80 3f 7d b4 7f 3f 42 e2 7e 3f c6 ba 7f 3f
       1.0014008 0.9988478 0.9956399 0.9989437
0000c0 41 b4 7e 3f 1e 8a 7e 3f 36 19 7e 3f 18 d2 7e 3f
       0.99493796 0.994295 0.9925722 0.9953933
0000d0 33 d2 7e 3f 84 f1 7f 3f a5 9d 7e 3f df 50 80 3f
       0.9953949 0.999779 0.99459296 1.002468
0000e0 8d 85 7e 3f 16 ad 7e 3f 85 d6 7e 3f 37 15 7f 3f
       0.9942253 0.9948286 0.9954608 0.99641746
0000f0 86 33 80 3f 09 0b 80 3f 72 f4 7f 3f 90 84 7f 3f
       1.0015724 1.0003368 0.9998237 0.9981165
000100 fe 88 7d 3f 83 75 7e 3f 27 19 80 3f d5 85 7e 3f
       0.9903716 0.9939806 1.0007676 0.9942296
000110 ff 9f 7e 3f 3b 65 7d 3f b6 6a 7b 3f e9 09 7f 3f
       0.99462885 0.9898259 0.982097 0.99624497
000120 8c 04 7f 3f 6e ef 7e 3f cd ef 7e 3f c9 45 7e 3f
       0.99616313 0.9958409 0.99584657 0.99325234
000130 b3 90 80 3f 2c 3b 7f 3f e7 e2 7e 3f ef d5 7f 3f
       1.0044159 0.99699664 0.99564976 0.9993581
000140 5e 7e 7f 3f 5f b3 7f 3f 0a 55 7b 3f 65 0a 81 3f
       0.99802196 0.99883074 0.98176634 1.0081297
000150 24 4e 7d 3f 95 39 7d 3f 0b 13 7d 3f fd 23 7d 3f
       0.9894736 0.9891599 0.9885718 0.9888304
000160 10 38 7f 3f e5 da 7d 3f a6 8b 7f 3f 36 2f 7d 3f
       0.9969492 0.9916213 0.9982246 0.98900163
000170 55 81 7d 3f c1 95 7e 3f bf 04 80 3f 6e d1 7e 3f
       0.9902547 0.99447256 1.0001448 0.99538314
000180 b5 29 7e 3f 00 7e 7e 3f af 05 81 3f 6e 65 80 3f
       0.9928239 0.9941101 1.007986 1.0030954
000190 85 09 7d 3f 95 79 7c 3f e0 0e 7e 3f 97 fa 79 3f
       0.9884265 0.9862302 0.9924145 0.97647995
0001a0 a1 3c 7f 3f 43 6e 7d 3f e0 76 7d 3f 17 cb 7c 3f
       0.9970189 0.9899637 0.99009514 0.9874739
0001b0 a8 26 7f 3f 6c e1 7e 3f 4a b3 7d 3f 45 3c 80 3f
       0.9966836 0.99562716 0.991017 1.0018393
0001c0 9c 41 7e 3f 9d 5b 7f 3f 0a 72 7f 3f 25 7a 7f 3f
       0.9931886 0.99749166 0.99783385 0.9979575
0001d0 cd 3f 7f 3f 62 47 7f 3f bd 03 80 3f 22 e6 7f 3f
       0.9970673 0.99718297 1.0001141 0.9996053
0001e0 62 12 7f 3f 13 1a 80 3f 9a 5c 7e 3f 70 19 7f 3f
       0.99637425 1.0007957 0.9936005 0.9964819
0001f0 bb 26 7f 3f 1d 42 7f 3f 2e 32 7f 3f c1 ce 7f 3f
       0.99668473 0.99710256 0.99685943 0.99924856
000200 6d 50 7f 3f ff bc 7f 3f 9d d5 7f 3f 39 08 7e 3f
       0.99732095 0.9989776 0.99935323 0.99231297
000210 9e 5f 7e 3f d4 f3 7e 3f 93 74 7f 3f 0d b3 7f 3f
       0.9936465 0.995908 0.99787253 0.99882585
000220 b3 76 7d 3f a9 ae 7f 3f 63 ad 7f 3f 7e 79 7f 3f
       0.99009246 0.99875885 0.9987394 0.9979476
000230 11 49 7f 3f b8 c0 7f 3f b7 5b 7f 3f 7d e7 7f 3f
       0.99720865 0.9990344 0.9974932 0.999626
000240 5d b2 7e 3f 01 f3 7d 3f 74 fd 7e 3f c7 47 7c 3f
       0.9949091 0.9919892 0.9960549 0.98547024
000250 a9 4f 7f 3f d7 38 7f 3f 23 58 7f 3f 0c d4 7f 3f
       0.99730927 0.99696106 0.9974386 0.9993293
000260 48 32 7f 3f c6 26 80 3f 1a 01 7f 3f df 16 80 3f
       0.996861 1.0011833 0.99611056 1.000698
000270 c6 27 80 3f 0f c6 7e 3f 0d 04 80 3f 92 5c 7f 3f
       1.0012138 0.99520963 1.0001236 0.99750626
000280 b1 18 7e 3f d4 f5 80 3f 9c b1 7d 3f 63 a8 7d 3f
       0.99256426 1.0075021 0.99099135 0.9908506
000290 9d 20 80 3f ed f6 7e 3f 44 e5 7e 3f 57 4f 7e 3f
       1.0009953 0.9959553 0.9956858 0.99339813
0002a0 62 9d 7e 3f 23 75 7e 3f fa e3 7d 3f 43 09 7e 3f
       0.994589 0.99397486 0.9917599 0.9923288
0002b0 eb 35 7b 3f 7b ac 7f 3f 8f 9a 7e 3f 22 5f 7e 3f
       0.9812915 0.9987256 0.9945459 0.9936391
0002c0 a7 f1 80 3f 4f 03 81 3f 0c 1e 7e 3f ee f8 7e 3f
       1.0073746 1.0079135 0.992646 0.99598587
0002d0 06 2f 80 3f ae 9f 7e 3f 72 a7 7f 3f 5f 82 7f 3f
       1.001435 0.994624 0.99864876 0.99808306
0002e0 bb 11 7f 3f 4c 77 7f 3f 4c 3d 80 3f a0 16 7e 3f
       0.9963643 0.9979141 1.0018706 0.99253273
0002f0 04 80 80 3f c9 02 7e 3f 3d 68 80 3f 6b 3a 7e 3f
       1.0039067 0.99223 1.0031811 0.9930789
000300 fe 54 7f 3f d6 23 7f 3f cd 78 7f 3f 27 56 7f 3f
       0.9973906 0.99664056 0.997937 0.99740833
000310 df 35 7f 3f 35 5a 80 3f ce cd 7e 3f a0 eb 7f 3f
       0.99691576 1.0027529 0.99532783 0.9996891
000320 c1 9e 7e 3f 97 73 7f 3f 83 0d 80 3f fe 6b 7f 3f
       0.9946099 0.9978575 1.0004123 0.9977416
000330 67 9b 7f 3f 10 96 7f 3f ca fd 7d 3f bd e1 7e 3f
       0.998465 0.9983835 0.99215376 0.995632
000340 48 b4 7f 3f 04 d6 7f 3f 3d d4 7f 3f 99 bf 7f 3f
       0.9988446 0.99935937 0.99933225 0.9990173
000350 d6 97 7f 3f 1b db 7e 3f 9d d7 7f 3f 2d 3e 7f 3f
       0.9984106 0.9955308 0.99938375 0.9970425
000360 14 9c 7f 3f d3 96 7f 3f 52 58 7f 3f 17 50 7f 3f
       0.9984753 0.99839514 0.9974414 0.9973158
000370 98 2e 7f 3f a7 52 7e 3f bb d7 7f 3f d1 9f 7f 3f
       0.9968047 0.9934487 0.99938554 0.99853235
000380 a8 aa 7e 3f 8b c6 7e 3f bc 3e 7f 3f a6 f3 78 3f
       0.9947915 0.995217 0.997051 0.9724678
000390 f6 44 7d 3f f6 ab 7f 3f 08 e4 7f 3f d2 82 7e 3f
       0.9893335 0.99871767 0.99957323 0.99418366
0003a0 01 df 7e 3f 65 fc 79 3f 3d bb 7f 3f ae dd 7f 3f
       0.99559027 0.9765075 0.9989508 0.9994763
0003b0 63 b5 7e 3f 47 fc 7e 3f 18 77 7f 3f 03 d1 76 3f
       0.99495524 0.99603695 0.997911 0.96412677
0003c0 19 4c 7f 3f f5 07 7f 3f 68 f2 7e 3f 01 27 7f 3f
       0.9972549 0.99621516 0.9958863 0.9966889
0003d0 af 5d 7c 3f 36 e3 79 3f 11 26 7c 3f 4b 60 7d 3f
       0.9858045 0.9761232 0.98495585 0.98975056
0003e0 5a bf 7e 3f 67 25 7f 3f e0 30 80 3f f3 1f 7e 3f
       0.9951073 0.99666446 1.0014915 0.992675
0003f0 ab b1 80 3f eb 08 7d 3f ca 2a 81 3f 0c df 7d 3f
       1.005422 0.9884173 1.0091183 0.9916847

bias f4 [1664]
000000 2c 78 b8 3a 0f 13 70 3b ef f6 7c 3a f0 f2 4a 3b
       0.00140739 0.0036632454 0.0009649833 0.0030967556
000010 41 cc 8b 3b 4b b5 08 3b 52 b3 8a 3a 1a fa 42 3b
       0.0042662923 0.0020860012 0.0010582006 0.0029751123
000020 5b ac 0b 3b 14 d3 34 3b 09 46 b8 3b b6 a5 19 3b
       0.0021312449 0.0027591633 0.005623583 0.0023444719
000030 c4 8e ba 3a 3e 46 a0 ba d2 29 c1 bb c5 e3 03 bb
       0.0014233221 -0.0012227965 -0.005894878 -0.0020124775
000040 8b 7a a8 bc 0b 2e a9 ba 82 d5 84 ba 2e b2 d6 bc
       -0.020566246 -0.0012907399 -0.0010134431 -0.02620801
000050 13 d1 70 bb b6 ae 78 bb 9d dc a9 ba 9a 5d d3 bb
       -0.0036745712 -0.0037945933 -0.0012959425 -0.006450367
000060 b3 7e 70 bc 71 af 06 bb 70 45 a3 3a ff a2 db 39
       -0.014678645 -0.0020551349 0.0012456607 0.00041892377
000070 e8 4b 00 39 0c 06 a7 38 6e 8c 59 3b f7 c3 9a 3a
       0.00012235309 7.964307e-05 0.0033195275 0.001180767
000080 52 0e 88 3a d2 c9 d8 39 fa f4 7b 3a 60 5a 00 3b
       0.0010380244 0.00041349098 0.00096113945 0.0019585118
000090 2c 3d a4 39 18 c2 3c 3a 81 fc 8e 3a da fc 8e bb
       0.00031326094 0.0007200553 0.0010908992 -0.0043636383
0000a0 08 d5 fb ba 74 25 a4 ba 30 9f 0f bb bd c5 74 ba
       -0.0019213269 -0.0012523369 -0.0021914952 -0.00093373266
0000b0 3a 5a d1 ba d8 93 60 bb d2 74 c5 ba a3 59 b8 bb
       -0.0015972324 -0.003426781 -0.0015064722 -0.00562592
0000c0 d8 8e 65 ba 3a 18 90 ba 11 81 01 bc 95 d6 2e bc
       -0.0008756942 -0.0010993548 -0.007904307 -0.0106712775
0000d0 4c 54 eb 39 89 15 f4 b9 51 13 d6 39 7a ba 9d 39
       0.000448855 -0.00046555352 0.00040831653 0.0003008431
0000e0 7a 93 0c ba e2 25 b6 b9 7f 6e a8 b9 35 65 74 ba
       -0.0005362552 -0.0003474197 -0.00032125783 -0.00093229424
0000f0 18 70 e2 b9 81 02 cb b9 49 e5 4f b9 af 4e 1c 38
       -0.00043189595 -0.00038721043 -0.00019826474 3.7266578e-05
000100 53 ef 5f ba e4 60 0f 3b 67 71 31 3b f2 9d 05 3b
       -0.0008542437 0.002187782 0.002707565 0.0020388332
000110 c3 4a d2 3a c7 2f 04 3c a8 23 9b 3c ef 0a 89 3a
       0.0016044009 0.008068032 0.0189379 0.0010455529
000120 7f 8e 96 3a ef b9 8b 3a c9 e6 89 3a fc d0 8a 3b
       0.0011486559 0.0010660271 0.001052105 0.0042363387
000130 28 24 38 3a 12 e3 48 3b 17 dd e1 b9 d0 d6 69 3a
       0.00070244307 0.0030652923 -0.0004308007 0.0008920254
000140 bf 13 02 3b 12 92 c2 3a 4b 63 4e 3c 6c d0 f1 39
       0.0019848195 0.0014844558 0.0125969155 0.00046122388
000150 cc 90 55 3a 62 1c 6b 3a 10 51 5c 3a 32 73 d0 3a
       0.00081468816 0.0008968768 0.0008404413 0.0015903472
000160 d6 32 9f 3a 08 fa e5 3b ed f5 e7 3a a3 e9 fe bb
       0.0012145888 0.0070183314 0.0017697193 -0.0077793165
000170 94 15 9b b9 d8 f6 4a 3a 9c 9f 68 3a e3 7e 2c 3b
       -0.0002957998 0.0007742471 0.00088738813 0.0026320748
000180 99 16 3d 3b 8d b3 90 3a 12 48 2d 3a 34 f8 4d 3b
       0.002885258 0.0011039838 0.00066101656 0.0031428458
000190 41 13 28 3a 7d d7 f7 39 3f 73 63 3a 7f 9a cf 3c
       0.00064115605 0.00047272063 0.0008676536 0.025342224
0001a0 54 44 97 3b 3c 03 e7 3b 62 b0 97 3a e4 25 8c 3a
       0.0046162996 0.007049946 0.0011572952 0.0010692445
0001b0 fc d8 ea 3a 6b 69 6a 3a b6 38 ee 3b ab d6 e6 3a
       0.001791745 0.00089421 0.007269944 0.0017611583
0001c0 44 ef 9b 3b 80 7d f2 3a bd c9 6d 3a f2 1d 9e 3a
       0.0047587473 0.0018500537 0.0009070894 0.0012063368
0001d0 bd 6a 74 3a f4 a5 98 3a cf ac b8 3a 64 83 b6 3a
       0.00093237666 0.0011646138 0.0014089587 0.0013924656
0001e0 0b fc e8 3a 62 a5 93 3a d9 97 91 3a 45 50 85 3a
       0.001777531 0.0011264498 0.0011107876 0.0010171017
0001f0 08 2b 70 3b 89 f2 33 3b 34 ab 90 3a 95 6e 26 3b
       0.0036646742 0.0027457795 0.0011037351 0.0025395502
000200 04 2c 72 3a f6 b9 f8 3a 85 50 87 3a c9 61 bb 3b
       0.0009238126 0.0018976319 0.0010323679 0.005718444
000210 e4 69 5a 3b 29 65 02 3b f8 a1 15 3b bc 0b ba 3a
       0.0033327276 0.0019896722 0.0022832137 0.0014194171
000220 66 87 30 3c 67 68 c5 3a e7 5a 86 3a 48 98 c3 3a
       0.010774469 0.0015061022 0.001025048 0.0014922703
000230 6f 74 23 3b 19 ae 82 3a 24 3c 26 3b 14 24 e5 ba
       0.0024941226 0.0009970098 0.0025365436 -0.0017482066
000240 37 35 f4 ba c4 54 d4 bb 97 6f 19 ba f7 01 60 bc
       -0.0018631582 -0.0064798314 -0.0005853115 -0.013672343
000250 5b 51 99 ba 73 14 7b bb b1 0c 30 ba 02 db cf ba
       -0.001169722 -0.003831175 -0.00067157584 -0.0015858116
000260 cb 37 82 ba 08 9d 35 ba 19 0a a2 ba bc ef 73 ba
       -0.000993484 -0.00069280015 -0.0012362628 -0.00093054376
000270 f9 63 38 3b 06 9f 38 3b 6a 2c 85 3a cd 77 d9 3a
       0.002813576 0.0028170957 0.0010160331 0.001659149
000280 4f 9b 98 3a 86 e5 ce 3a 8a 98 08 3b 84 5e d3 3a
       0.0011642965 0.0015784956 0.0020842873 0.001612619
000290 46 87 a7 3a fd 2b 1c 3b aa a7 e8 3b ba 44 82 3a
       0.0012781403 0.002382993 0.0071000652 0.0009938695
0002a0 50 63 3d 3a cf 15 0a b9 5e c5 98 b9 cc a3 f0 b9
       0.00072245765 -0.0001316883 -0.0002913875 -0.00045898405
0002b0 9d e7 0f 3a 0b 84 a7 39 c9 78 58 3a 33 6e 78 3a
       0.000548953 0.00031951102 0.00082577445 0.000947687
0002c0 5a 08 09 3b 09 48 59 3a 33 ed 7f 3a ba 0b 5d 3a
       0.002090952 0.0008288627 0.00097628235 0.00084322284
0002d0 70 73 82 39 fa b6 86 3a 9a 70 05 3b 73 79 b7 3a
       0.0002488154 0.001027792 0.0020361305 0.0013997987
0002e0 6c 8a 90 3b 87 9a 89 3a 2c 06 f9 3a 61 47 8c 3a
       0.0044110324 0.0010498323 0.0018999032 0.0010702425
0002f0 d8 2d 8c 3a de bc e0 3a 79 c2 c4 3a 50 ab 44 3b
       0.0010694815 0.001714613 0.0015011571 0.0030009337
000300 b4 26 7b 3a 4e a6 64 3a da f5 23 3b 47 a5 44 3b
       0.00095806574 0.0008722291 0.0025018365 0.003000574
000310 f2 ef 0b b8 f6 46 ba 3a 7e ab 02 3b ab 90 6e 3a
       -3.336365e-05 0.0014211822 0.0019938643 0.00091005367
000320 72 13 87 3b 08 1e 58 3a 8a 4f cc 3a de 74 2c 3a
       0.004122191 0.0008244221 0.0015587669 0.0006578694
000330 f6 cd 2d 3a 55 e9 b0 3a e2 8b ca 3a 43 d2 64 3a
       0.0006630117 0.0013497273 0.0015453065 0.0008728841
000340 bf 82 8d 3a 09 7c 67 3a 12 5d 88 3a 85 be bc 3a
       0.0010796412 0.00088304334 0.0010403714 0.0014400041
000350 94 53 e2 3a bb 0b a2 3b d5 31 65 3a 1c 40 63 3b
       0.001726734 0.004945246 0.0008743082 0.0034675663
000360 0e e7 7a 3a 66 c1 54 3a 3d 6d 7b 3b 36 03 a3 3a
       0.0009571173 0.0008115977 0.0038364672 0.001243687
000370 fe ac 88 3a c0 a6 af bb cd a0 bf ba e4 17 8e bb
       0.0010427532 -0.0053604543 -0.0014620066 -0.004336344
000380 18 7b b0 ba 4e 99 c8 ba 62 c4 a9 ba 8d 05 e7 bc
       -0.0013464419 -0.0015304477 -0.0012952203 -0.028200889
000390 99 72 27 bc ac 13 8f ba e3 c9 97 ba be d1 66 bb
       -0.010220193 -0.0010915897 -0.0011580553 -0.003522023
0003a0 4d f0 27 bb 43 3f 7b bc f3 5b 81 ba a4 31 ab ba
       -0.0025625408 -0.015334907 -0.0009869322 -0.0013061059
0003b0 61 28 fc ba 73 71 d5 ba ce 11 b4 ba 1b bf 00 bd
       -0.0019238108 -0.0016284421 -0.0013738216 -0.031432252
0003c0 a5 0b a1 ba fd b1 e4 ba ee 16 23 bb fb 66 47 bb
       -0.0012286796 -0.0017448064 -0.0024885493 -0.0030426371
0003d0 b4 cc 46 bc 77 7a 70 bc bc 77 0a bc ae cc fb 3a
       -0.012133766 -0.014677635 -0.008451398 0.001921078
0003e0 c2 04 95 3a 73 73 82 3a d9 cc 3d 3a 84 4d 17 3a
       0.0011369216 0.000995262 0.00072403025 0.00057717436
0003f0 aa 5c 27 3a df c8 da 3a 97 39 d5 3a a2 05 30 3b
       0.00063843525 0.0016691944 0.0016267773 0.0026858826
